results/MPE/formation_hd_env/rmappo/check/run10/models/actor.pt (torch, 157475 bytes, 22 tensors)

base.feature_norm.weight f4 [54]
0	0x3f84505d	1.0337025
1	0x3f7c731d	0.9861315
2	0x3f7e7589	0.99398094
3	0x3f82d879	1.0222312
4	0x3f807713	1.0036339
5	0x3f7bc8a2	0.98353016
6	0x3f810688	1.0080118
7	0x3f7d23d3	0.9888279
8	0x3f80a26c	1.0049567
9	0x3f8134ad	1.00942
10	0x3f7652b9	0.96219975
11	0x3f7e7864	0.9940245
12	0x3f742417	0.9536757
13	0x3f87542a	1.057256
14	0x3f809625	1.004582
15	0x3f76151f	0.9612598
16	0x3f7d1efe	0.98875415
17	0x3f866dc5	1.0502249
18	0x3f750be6	0.9572128
19	0x3f82c724	1.0217023
20	0x3f81c6ac	1.0138755
21	0x3f82ce52	1.0219214
22	0x3f7dddea	0.9916674
23	0x3f7d7b76	0.9901651
24	0x3f86fe33	1.0546325
25	0x3f80a50a	1.0050366
26	0x3f76d6c8	0.9642148
27	0x3f820918	1.0159025
28	0x3f7ce522	0.9878713
29	0x3f7e18d1	0.99256617
30	0x3f813a63	1.0095943
31	0x3f807c8b	1.0038007
32	0x3f8054e2	1.0025904
33	0x3f821917	1.0163907
34	0x3f7578fc	0.9588773
35	0x3f7b957e	0.9827498
36	0x3f84f95a	1.0388596
37	0x3f851c31	1.0399228
38	0x3f7eb67b	0.99497193
39	0x3f81cb81	1.014023
40	0x3f80adc1	1.0053025
41	0x3f7cba83	0.98722094
42	0x3f84ecf0	1.0384808
43	0x3f854ab2	1.041342
44	0x3f836682	1.0265658
45	0x3f8340e6	1.025418
46	0x3f75cc7e	0.96015155
47	0x3f8099ad	1.0046898
48	0x3f78e58c	0.9722526
49	0x3f7f6887	0.9976887
50	0x3f8583a7	1.0430802
51	0x3f7fe1d6	0.99953973
52	0x3f83a956	1.0286052
53	0x3f80520b	1.0025038

base.feature_norm.bias f4 [54]
0	0xbc0de0e3	-0.008659574
1	0x3c86c340	0.016450524
2	0xbb3cabbd	-0.0028788887
3	0xbcaab0d0	-0.020836264
4	0x3cd7aa24	0.026326247
5	0xbc4f7091	-0.012661115
6	0x3ca7aa7b	0.020467034
7	0x3d13b004	0.036056533
8	0x3d0eee44	0.034895197
9	0xbba152c9	-0.004923199
10	0x3a45f281	0.00075510895
11	0x3a9c2b32	0.0011914729
12	0x3d40cf01	0.047072414
13	0x3cb0bbfa	0.02157401
14	0x3c501751	0.012700872
15	0x3c84a1a8	0.016190365
16	0xbb42c3a1	-0.0029718655
17	0xbc56ef39	-0.013118559
18	0x3d08d0c6	0.033402227
19	0x3c8ac6c6	0.016940486
20	0x3c3f2b40	0.011668026
21	0xbc739f19	-0.014869475
22	0x3c2a2529	0.010384836
23	0xbbed31f9	-0.007238623
24	0x3d370221	0.044679765
25	0xbc2bf7e2	-0.010496112
26	0xbcad59ff	-0.021161078
27	0xbb4f36bf	-0.0031618325
28	0xbc7e79d6	-0.015531978
29	0xbcbe187b	-0.023205033
30	0xbcf72d3d	-0.030172938
31	0xbb89619b	-0.0041925437
32	0xbcbbbaeb	-0.022916278
33	0x3d4340d1	0.047669236
34	0x3ad76e6b	0.0016436105
35	0x3cb2f1f4	0.021843888
36	0xbcd4953d	-0.025950069
37	0x3c65ef57	0.014034114
38	0x3c893c07	0.016752256
39	0xbc5466ab	-0.012963931
40	0xbc564d93	-0.013080019
41	0xbbf7833f	-0.0075534876
42	0xbd05eb58	-0.032695144
43	0x3d1cfed8	0.038328975
44	0xbc9163f3	-0.017747855
45	0x3b0bf3ba	0.002135499
46	0xbce35035	-0.027748207
47	0x3a91e14e	0.0011129768
48	0x3c88fdf6	0.01672266
49	0xbbb512ec	-0.0055259373
50	0xbcd20faa	-0.025642235
51	0xba257b0e	-0.0006312587
52	0xbd31847f	-0.04333925
53	0xbd3e1f61	-0.046416644

base.mlp.fc1.0.weight f4 [64, 54]
0	0x3e2a7ad7	0.16648422
1	0x3df8def0	0.12151897
2	0xbe9491f1	-0.29017594
3	0x3e255411	0.1614535
4	0xbe370932	-0.17874601
5	0x3dcdf28e	0.10056029
6	0xbec8255e	-0.3909101
7	0xbd6e2af3	-0.05814643
8	0xbcc91991	-0.024548324
9	0xbe08ba4f	-0.13352321
10	0x3bf0aaf2	0.007344597
11	0x3e7c6170	0.24646544
12	0xbe4d7484	-0.20063978
13	0x3eb13619	0.34611586
14	0xbe07ec36	-0.13273701
15	0xbca1609c	-0.019699387
16	0x3dc3391a	0.09532376
17	0x3d7fc25b	0.06244121
18	0x3c3b1f9e	0.011421112
19	0x3e65789f	0.22409295
20	0xbd9397d0	-0.0720669
21	0x3ec764c2	0.3894406
22	0x3b8e00a5	0.004333573
23	0x3e2019b9	0.15634812
24	0xbe3f872c	-0.18703908
25	0xbd1adc4e	-0.037807755
26	0x3e5d116e	0.2158868
27	0xbdb81582	-0.08988477
28	0x3e002ec3	0.12517838
29	0xbcba92ad	-0.022775019
30	0xbec0d589	-0.37662914
31	0x3e9ac65a	0.30229455
32	0xbe7f5386	-0.24934205
33	0x3e4315a5	0.19051225
34	0x3f177ace	0.5917176
35	0x3c98759e	0.018610772
36	0x3df24d1c	0.11831114
37	0x3ee1532d	0.4400877
38	0x3d571cb6	0.052517615
39	0xbe38f2a6	-0.18061313
40	0x3eb0a102	0.3449784
41	0x3e2532d7	0.16132675
42	0x3eb62b80	0.35580063
43	0x3cb0c2da	0.021577287
44	0x3de601fa	0.11230846
45	0xbdd80955	-0.10548655
46	0xbe1ccf72	-0.15313509
47	0x3dbd88d8	0.092546165
48	0x3e8f1670	0.27946806
49	0x3e6ba631	0.23012616
50	0xbd83e6a9	-0.06440479
51	0x3ca38aea	0.0199637
52	0xbd724bf0	-0.05915445
53	0x3d04c87f	0.03241777
54	0xbe193737	-0.14962469
55	0xbe4b351a	-0.19844475
56	0x3ccfbd88	0.02535893
57	0x3de0cd41	0.10976649
58	0xbdb9d208	-0.090732634
59	0x3e8d8039	0.2763689
60	0x3e99eecf	0.3006501
61	0xbe2d6fd8	-0.16937196
62	0x3e7624b6	0.24037442
63	0x3e31a870	0.1734941
64	0x3d9232d5	0.07138602
65	0xbdd7dad8	-0.10539788
66	0xbe6e4f49	-0.23272432
67	0xbe133398	-0.1437515
68	0xbdee385b	-0.11631843
69	0xbe840000	-0.2578125
70	0xbc104cfd	-0.008807418
71	0xbed2563f	-0.41081426
72	0x3d81470e	0.06312381
73	0x3dbafd4f	0.09130346
74	0xbeb56d94	-0.35435164
75	0xbf063708	-0.5242772
76	0x3eb7b79d	0.35882273
77	0xbb1b746f	-0.0023720523
78	0xbe1720ae	-0.1475856
79	0x3e8b5271	0.27211335
80	0x3d73cc51	0.059521023
81	0x3d97536c	0.07388958
82	0xbe66c28f	-0.22535156
83	0xbcb327af	-0.021869509
84	0xbe3d7c29	-0.18504395
85	0xbd3f5e92	-0.04672105
86	0x3d96058b	0.07325276
87	0xbec0fe1f	-0.3769388
88	0x3e3391bc	0.17536062
89	0x3e8de6ab	0.27715048
90	0xbdf9e910	-0.12202656
91	0xbe226779	-0.15859784
92	0x3e31b561	0.17354347
93	0xbe1562e2	-0.14588502
94	0xbe0ea920	-0.13931704
95	0x3dcc30c2	0.09970237
96	0xbe585f19	-0.21130027
97	0x3cc11b76	0.023572665
98	0xbe2ad969	-0.16684498
99	0xbe2c8f55	-0.16851552
100	0xbe84bb10	-0.25923967
101	0x3de6295c	0.112383574
102	0xbda65838	-0.08122295
103	0x3ce8f889	0.028438823
104	0xbeb6cedd	-0.357047
105	0xbe039f84	-0.12853819
106	0xbe95773f	-0.2919254
107	0x3e34b285	0.17646225
108	0xbeeee831	-0.46661523
109	0xbda5cadc	-0.08095333
110	0xbe13b665	-0.14425047
111	0x3ea39523	0.3194972
112	0xbeac7db4	-0.33689654
113	0x3e68bb04	0.22727591
114	0x3dc2bdfd	0.09508894
115	0x3d96f2d3	0.07370534
116	0x3c8d6b05	0.017262945
117	0x3d89fef3	0.06738081
118	0x3e3ec5a0	0.18630075
119	0xbc64a0f6	-0.013954392
120	0x3f1e585c	0.61853576
121	0x3e08bb86	0.13352785
122	0xbe46a09e	-0.19397208
123	0x3dd18489	0.10230357
124	0xbd6c8a43	-0.057749044
125	0x3efbac33	0.49154815
126	0xbe93f523	-0.28897962
127	0x3ea85ca5	0.32883182
128	0xbe2285b5	-0.15871318
129	0x3d7cef2a	0.061751522
130	0x3e975b23	0.2956172
131	0xbe0a8ea7	-0.1353098
132	0x3e323f51	0.17406966
133	0xbd50e43d	-0.050998915
134	0xbde3e70d	-0.11128054
135	0xbe1e82cc	-0.15479583
136	0x3dafba2f	0.085804336
137	0xbed8f2d2	-0.42372757
138	0xbe68070a	-0.22658935
139	0xbddbcc41	-0.10732318
140	0x3d8d8d55	0.069117226
141	0xbe226ec0	-0.1586256
142	0x3df455bb	0.11930414
143	0xbda3b44f	-0.079933755
144	0x3e8aa77a	0.270809
145	0x3be8a1a0	0.0070993453
146	0x3ca1b39a	0.019738961
147	0xbe6235f3	-0.22090892
148	0x3d875cb9	0.06609482
149	0x3a0c966e	0.0005362992
150	0xbe68dec4	-0.22741228
151	0xbe89fb48	-0.26949525
152	0xbe5cf839	-0.21579064
153	0xbb674d6a	-0.0035293945
154	0xbd684893	-0.056709837
155	0x3deab602	0.114604965
156	0xbe84c89b	-0.259343
157	0x3e1d2313	0.15345411
158	0xbd9ec14d	-0.07751713
159	0x3c163c18	0.009169601
160	0xbdd317e7	-0.103072934
161	0x3b475b57	0.0030419433
162	0xbe3ea7fb	-0.18618767
163	0x3b60d3f8	0.003430603
164	0xbdf195a1	-0.117961176
165	0x3e9e72d7	0.3094699
166	0x3e0ce52d	0.13759299
167	0x3ea076af	0.31340548
168	0xbde6f085	-0.11276344
169	0x3ea5f130	0.32410574
170	0x3ca2468f	0.019809036
171	0xbd1bb7bd	-0.038017023
172	0xbde0573b	-0.10954138
173	0x3d417402	0.047229774
174	0xbe63d067	-0.22247468
175	0xbe20b5c8	-0.15694344
176	0xbed325d6	-0.41239804
177	0xbd3b9539	-0.045796607
178	0xbe22a28a	-0.15882316
179	0x3db1d31b	0.08682843
180	0x3edda8a7	0.43292734
181	0xbe3a3902	-0.18185809
182	0x3dc7e541	0.097605236
183	0x3d793e95	0.0608507
184	0xbea83916	-0.32856053
185	0x3e3164e5	0.17323644
186	0xbe2830f8	-0.1642493
187	0xbe8ed192	-0.27894264
188	0xbde248e9	-0.11049063
189	0x3de7505e	0.11294626
190	0xbe776d0b	-0.2416269
191	0x3d07faec	0.033198282
192	0xbeac1fb2	-0.33617932
193	0x3eb3853b	0.35062584
194	0xbed34046	-0.41259974
195	0x3e091c0c	0.13389605
196	0xbe6a2ae9	-0.22867931
197	0x3e0fc4f0	0.1403997
198	0x3e904474	0.28177226
199	0xbd26a594	-0.04068525
200	0x3cfa059d	0.030520255
201	0x3ea15e45	0.31517234
202	0x3dd01abd	0.1016135
203	0x3d9ef48f	0.077614896
204	0xbe1a9760	-0.15096807
205	0x3e1c2f55	0.1525243
206	0xbe70d4df	-0.23518704
207	0x3dfdddc5	0.12395815
208	0x3ca76482	0.020433668
209	0x3d710f6f	0.05885261
210	0xbe7581bc	-0.23975271
211	0x3dd9cbf6	0.106346056
212	0xbe5d95e0	-0.21639204
213	0xbd681908	-0.056664497
214	0x3e67d770	0.22640777
215	0x3e245c2c	0.16050786
216	0x3ec713f8	0.38882422
217	0xbe239cc4	-0.1597777
218	0xbd7e766c	-0.062124655
219	0x3ddd6c50	0.108116746
220	0xbae76042	-0.0017652588
221	0xbd86acd8	-0.06575936
222	0x3d6f5132	0.058427043
223	0x3ef5467f	0.47905347
224	0xbe73a371	-0.23792817
225	0xbe118447	-0.14210616
226	0xbebdede4	-0.3709556
227	0xbe207b76	-0.15672097
228	0xbd2c95c6	-0.042135023
229	0xbc741bb0	-0.014899179
230	0xbe07f417	-0.13276707
231	0x3dab563d	0.08366058
232	0xbe9136f4	-0.28362238
233	0xbcb06e32	-0.02153692
234	0x3e913192	0.28358132
235	0x3e8c67d2	0.2742296
236	0x3d69c676	0.057074033
237	0x3e34d523	0.1765943
238	0x3ecc2605	0.39872757
239	0xbddde08a	-0.10833843
240	0x3e20d7fe	0.15707394
241	0x3ebeb9eb	0.3725122
242	0x3cde2b6c	0.027120315
243	0xbc11a638	-0.008889727
244	0x3cdb3ee9	0.026763396
245	0x3d0af2ba	0.03392289
246	0xbd28b099	-0.04118404
247	0x3e3ffceb	0.18748824
248	0xbda50209	-0.08057029
249	0x3d0331ce	0.03202992
250	0xbec3103c	-0.38098323
251	0xbe6253d0	-0.22102284
252	0xbe0c07e8	-0.13674891
253	0x3d55262e	0.052038364
254	0x3e00f231	0.12592389
255	0xbcb173bf	-0.021661637

base.mlp.fc1.0.bias f4 [64]
0	0xbd2a5b4d	-0.041590977
1	0xbc45bcf1	-0.012068973
2	0x3c14c13d	0.009079275
3	0x3c7bda05	0.015371804
4	0x3c5889aa	0.013216415
5	0x3bd8b159	0.0066129384
6	0x3c89ed57	0.016836805
7	0x3cc35713	0.023845231
8	0xbd087f66	-0.03332462
9	0xbd18df77	-0.037322488
10	0x3d3b98a0	0.04579985
11	0xbd0a9ec8	-0.03384283
12	0x3c94531b	0.018106034
13	0xbc22788d	-0.009916437
14	0x3cde0d1f	0.027105866
15	0x3d0638cf	0.03276902
16	0x3c27f068	0.010250188
17	0xbc9af3b9	-0.018915044
18	0xbb15017c	-0.002273648
19	0xbbe2e281	-0.006923974
20	0x3bdcfa1a	0.0067436816
21	0xbd08200d	-0.03323369
22	0x3b20dcb5	0.0024545614
23	0xba40cd79	-0.00073548366
24	0xbc472bf9	-0.01215648
25	0x3c23743c	0.009976443
26	0xbc6e644b	-0.014550279
27	0x3cab6993	0.020924365
28	0xbca18b27	-0.019719673
29	0xbc725d36	-0.014792731
30	0x3d139866	0.03603401
31	0x3abfa82c	0.0014622263
32	0xbc7404b3	-0.0148936985
33	0xbd030f82	-0.03199721
34	0x3c851553	0.01624552
35	0x3c88096e	0.016606059
36	0xbc89f083	-0.016838318
37	0xbcd1a494	-0.025591172
38	0xbd107d64	-0.03527583
39	0x3cb0d138	0.021584138
40	0xbcec3ddd	-0.028838092
41	0x3cdf3265	0.02724571
42	0xbc00133e	-0.007817088
43	0xbc90d58a	-0.017679948
44	0x3b4dcec5	0.0031403762
45	0x3ca13deb	0.019682845
46	0x3ca3d9ed	0.020001376
47	0x3c93e4bc	0.018053405
48	0x3ba548b6	0.005044068
49	0xbb93467e	-0.0044944873
50	0x3d60ba1d	0.05486499
51	0x3c219017	0.009861014
52	0xbb3531a0	-0.0027647987
53	0x3c8a5414	0.016885795
54	0x3c95877d	0.018253082
55	0x3d2d6669	0.042333994
56	0xba13acd8	-0.00056333607
57	0xbcd11d79	-0.025526749
58	0xbc1eb219	-0.0096860165
59	0x3d5b78ab	0.053581875
60	0xbbd6c4a7	-0.0065542045
61	0x3af238ca	0.0018480059
62	0xbd4df2cb	-0.050280374
63	0x3d07f172	0.033189245

base.mlp.fc1.2.weight f4 [64]
0	0x3f819eca	1.0126584
1	0x3f7bf5ce	0.98421943
2	0x3f7acc83	0.9796831
3	0x3f830e7d	1.0238796
4	0x3f80253f	1.0011367
5	0x3f74d830	0.95642376
6	0x3f7b5fc8	0.98193026
7	0x3f7dd27b	0.9914929
8	0x3f81b715	1.0133997
9	0x3f792fae	0.9733838
10	0x3f8053cf	1.0025576
11	0x3f7bc1bb	0.98342484
12	0x3f86bc5c	1.0526233
13	0x3f7f3d30	0.9970274
14	0x3f816d06	1.0111396
15	0x3f81f05d	1.0151478
16	0x3f7c02fa	0.9844204
17	0x3f792a80	0.97330475
18	0x3f81c25b	1.0137438
19	0x3f7e5377	0.9934611
20	0x3f86bcd8	1.052638
21	0x3f8188ba	1.0119851
22	0x3f6ec1be	0.9326438
23	0x3f802b92	1.0013297
24	0x3f82dcd4	1.0223641
25	0x3f845b4f	1.0340365
26	0x3f7ed5e3	0.99545115
27	0x3f829ab0	1.0203457
28	0x3f84a70c	1.0363479
29	0x3f7e86fa	0.9942471
30	0x3f76b260	0.9636593
31	0x3f883c43	1.064339
32	0x3f806852	1.0031836
33	0x3f842e3e	1.0326612
34	0x3f84616b	1.034223
35	0x3f7ccf72	0.98754036
36	0x3f797e13	0.97458
37	0x3f804b9c	1.0023074
38	0x3f852921	1.0403177
39	0x3f7b0cd6	0.9806646
40	0x3f7f36d6	0.9969305
41	0x3f848e42	1.0355914
42	0x3f7c0a08	0.98452806
43	0x3f8051b6	1.0024936
44	0x3f869297	1.0513486
45	0x3f85b624	1.044621
46	0x3f814165	1.0098082
47	0x3f8329f4	1.0247178
48	0x3f81a5f7	1.0128773
49	0x3f7ad51c	0.9798143
50	0x3f82eb85	1.0228125
51	0x3f80829e	1.0039861
52	0x3f7ee231	0.9956389
53	0x3f829b9a	1.0203736
54	0x3f722330	0.9458494
55	0x3f7d80a7	0.9902443
56	0x3f82b61b	1.0211824
57	0x3f77d818	0.9681411
58	0x3f82da58	1.0222883
59	0x3f7ddd4a	0.99165785
60	0x3f7bed0d	0.98408586
61	0x3f82ea5c	1.0227771
62	0x3f808ffb	1.0043939
63	0x3f7e4505	0.99324065

base.mlp.fc1.2.bias f4 [64]
0	0x3b3b88c7	0.0028615461
1	0xbcca545c	-0.024698429
2	0x3b9efd4a	0.0048519718
3	0xbcc00e4c	-0.023444317
4	0xbceb8908	-0.028751865
5	0x3c1f6ed1	0.0097310105
6	0x3b9ee6ba	0.004849282
7	0x3cad4bc5	0.021154294
8	0xbc733642	-0.014844479
9	0xbd02e89c	-0.031960115
10	0xbcd67b45	-0.026181826
11	0xbbe5e2f1	-0.007015579
12	0xba7114af	-0.00091965025
13	0x3c4dff7e	0.012573121
14	0x3c2e6b9d	0.010645774
15	0x3bb6abc8	0.005574677
16	0x3c901af3	0.017590975
17	0xbb7f2cf7	-0.0038936713
18	0xbb9d9741	-0.0048092906
19	0x3c0ab47a	0.0084658805
20	0x3bfa767c	0.007643519
21	0xbd0a2b4f	-0.03373271
22	0xbaa85475	-0.0012842553
23	0xba8c9180	-0.0010724515
24	0x3b2f8f0c	0.0026788143
25	0x3cd0a5c9	0.025469678
26	0x3b38d4fa	0.0028203116
27	0x3c348c61	0.011019797
28	0x3ba831ed	0.0051329047
29	0xbbdbc7aa	-0.0067071514
30	0x3b212b25	0.0024592367
31	0x3cbbe592	0.022936616
32	0xbce8ca8a	-0.02841689
33	0x3b12816a	0.0022354969
34	0x3bf0746e	0.0073380983
35	0x3b10634e	0.0022031846
36	0xbcdfc35d	-0.027314836
37	0x3b8e67d1	0.004345872
38	0x3ac39e82	0.0014924558
39	0xbc01acea	-0.007914761
40	0x3b8f7ff2	0.004379266
41	0x3d4c62fe	0.049899094
42	0x3bd6bc59	0.0065532145
43	0xbc365b0a	-0.011130104
44	0xbc69c5db	-0.014268364
45	0x3c38990e	0.01126696
46	0x3cd5068f	0.026004104
47	0x3c628e09	0.013827809
48	0xbcbdf103	-0.023186212
49	0xbc4ecbde	-0.012621848
50	0x3c875680	0.016520739
51	0x3c897777	0.016780598
52	0xbce9790c	-0.028500102
53	0xbb6309c2	-0.0034643267
54	0xbc867683	-0.016413933
55	0x3d3446fc	0.04401301
56	0x3c2451ee	0.010029299
57	0xbb67cf59	-0.0035371392
58	0xbc786fc3	-0.015163365
59	0x3cd40680	0.025882006
60	0x3bd31b3a	0.0064424546
61	0x3c9144e5	0.017733047
62	0xbd877008	-0.06613165
63	0x3caf5dbf	0.021407006

base.mlp.fc_h.0.weight f4 [64, 64]
0	0x3e31e345	0.17371853
1	0x3d9d0a93	0.076680325
2	0xbdf6280f	-0.12019359
3	0xbdb31ea9	-0.08746082
4	0x3ef2f90c	0.47455633
5	0x3e19fc60	0.1503768
6	0x3eabd4e9	0.33560875
7	0xbeb2810f	-0.3486409
8	0x3dea5e8a	0.11443813
9	0x3d96dc41	0.07366229
10	0xbe27e22d	-0.16394873
11	0xbe88f30c	-0.2674793
12	0x3d28f517	0.04124936
13	0x3d6b73a0	0.057483315
14	0x3ed85ed0	0.42259836
15	0x3e1214cf	0.1426575
16	0xbc5920c0	-0.013252437
17	0x3d2ee98d	0.0427032
18	0xbcb950bc	-0.022621505
19	0x3ed35a0d	0.4127964
20	0x3cb022e3	0.02150101
21	0xbecf0a55	-0.4043757
22	0x3d744a71	0.059641305
23	0xbd696f2f	-0.0569908
24	0xbe0b836d	-0.13624354
25	0x3e8f672b	0.28008398
26	0xbe67aa09	-0.22623457
27	0x3e1250d0	0.1428864
28	0x3c9ecec8	0.01938571
29	0x3d95b30d	0.07309542
30	0x3dd3d0d8	0.10342568
31	0x3e69b3a6	0.22822437
32	0x3b43dff8	0.0029888134
33	0xbe308a38	-0.17240226
34	0xbe80de60	-0.2516966
35	0x3d9e318f	0.07724296
36	0x3e9990d6	0.29993314
37	0xbd068ebe	-0.032850973
38	0x3b8db022	0.004323975
39	0x3f0990f5	0.5373681
40	0x3ed0ee51	0.4080682
41	0xbe9aa6ce	-0.30205387
42	0x3ea41df4	0.32054102
43	0xbbe5c438	-0.0070119165
44	0x3e8aec9d	0.27133647
45	0xbe33c2f1	-0.17554833
46	0xbca4c6ad	-0.020114267
47	0x3cb036a6	0.021510433
48	0xbe1cff9e	-0.15331885
49	0xbe2be17a	-0.16785231
50	0xbe6df33f	-0.23237322
51	0x3dba5d9e	0.09099887
52	0xbcae4c5d	-0.021276647
53	0x3dbc617e	0.09198283
54	0x3d30cdaf	0.043164905
55	0xbe56fd10	-0.20994973
56	0xbe0eded4	-0.1395219
57	0x3e663a3a	0.22483149
58	0xbdce393d	-0.10069511
59	0x3eacd828	0.33758664
60	0xbc877c1f	-0.016538678
61	0xbd0561f3	-0.032564115
62	0x3e0ea78e	0.13931105
63	0x3db189e3	0.08668878
64	0xbf0897e8	-0.5335679
65	0x3ec56c86	0.3855936
66	0x3d67d6ab	0.056601208
67	0xbdca2054	-0.09869447
68	0x3d4c6e01	0.049909595
69	0x3e553b40	0.20823383
70	0x3e8d9c94	0.27658522
71	0x3eb3ac73	0.35092506
72	0xbec2f4ad	-0.38077298
73	0xbce395b6	-0.027781349
74	0x3c28cf63	0.010303351
75	0xbe18bbd6	-0.14915404
76	0x3d0f9fbb	0.03506444
77	0x3e913863	0.28363332
78	0xbd8551cc	-0.06509742
79	0xbd6c4e77	-0.057692017
80	0xbe0d04ba	-0.13771334
81	0xbda65cb0	-0.081231475
82	0xbe646b41	-0.22306539
83	0x3d4b55ff	0.04964256
84	0xbbee7235	-0.007276798
85	0xbde66964	-0.112505704
86	0x3e381032	0.17974928
87	0x3e369413	0.17829923
88	0xbe50d05d	-0.20391984
89	0xbe65b6cc	-0.22433013
90	0xbd23a3d6	-0.039951168
91	0xbde755ea	-0.11295684
92	0xbec39f3d	-0.38207427
93	0xbe52671e	-0.20547149
94	0xbe27ec2d	-0.16398688
95	0xbda966cd	-0.08271561
96	0x3dd572f1	0.10422314
97	0xbd40f22f	-0.047105964
98	0xbdd3f0b1	-0.103486426
99	0xbe474b29	-0.19462265
100	0xbc0105e5	-0.0078749405
101	0xbf0b0160	-0.54298973
102	0xbe41ee54	-0.18938571
103	0x3e57d134	0.21075898
104	0xbc81006d	-0.015747273
105	0xbe96867e	-0.29399484
106	0x3e16a08a	0.14709678
107	0x3ee97816	0.4559943
108	0x3d67a0f9	0.05655
109	0x3dbe114d	0.092806436
110	0x3b8e4e9e	0.004342868
111	0xbd2118dc	-0.03933035
112	0x3ec27b54	0.37984717
113	0x3ea7eec2	0.32799345
114	0xbdd1564c	-0.10221538
115	0xbe4361da	-0.19080296
116	0x3da3f972	0.08006562
117	0xbe40a516	-0.18812975
118	0xbd9f6c78	-0.07784361
119	0xbc83acf8	-0.016073689
120	0x3dee1ac7	0.11626201
121	0xbc56b1d9	-0.013103926
122	0xbdc8431b	-0.09778424
123	0xbd007299	-0.03135929
124	0x3c59178c	0.013250243
125	0x3ee132e2	0.43984133
126	0xbdbc5575	-0.09195987
127	0xbda0c1d0	-0.07849467
128	0x3c8cb7d9	0.01717751
129	0xbb59b8ae	-0.003322165
130	0x3db47f8b	0.088133894
131	0x3de12d41	0.109949596
132	0x3e1ff8ab	0.15622203
133	0x3e002dc4	0.12517458
134	0xbd54f1d4	-0.051988438
135	0x3d823bd4	0.063590676
136	0x3d91061b	0.07081243
137	0xbe906bec	-0.28207338
138	0x3e00d452	0.12580994
139	0xbe2355d2	-0.15950707
140	0x3f091e76	0.53562105
141	0xbe6f49ec	-0.23368043
142	0x3e2732e3	0.16328005
143	0x3e930eb6	0.2872216
144	0x3f2724ee	0.65290725
145	0xbe014ef4	-0.12627774
146	0xbda715ff	-0.08158492
147	0xbd88af5a	-0.06674071
148	0x3e598866	0.21243438
149	0xbd7b60ef	-0.06137174
150	0x3cf1fc2f	0.029539196
151	0x3efe8338	0.49709487
152	0xbce2b7a4	-0.027675457
153	0xbe64ae42	-0.22332099
154	0xbeadc60a	-0.33940154
155	0x3ea1a6b1	0.31572488
156	0x3c2bd539	0.010487848
157	0x3df2fd96	0.11864774
158	0xbcecb8d8	-0.028896734
159	0xbe338e82	-0.17534831
160	0xbc46fa63	-0.012144658
161	0xbb0aa474	-0.002115515
162	0x3ec845b6	0.39115685
163	0xbeca744d	-0.39541855
164	0xbe9870cf	-0.29773566
165	0xbdf3a170	-0.11896026
166	0x3e89b84b	0.26898417
167	0x3e258008	0.16162121
168	0xbe44d289	-0.19220938
169	0x3e64d5ca	0.22347179
170	0xbe40f504	-0.18843466
171	0x3de4b649	0.11167581
172	0x3e96f155	0.29480997
173	0xbcf1bd92	-0.02950934
174	0xbe404e5e	-0.18779895
175	0x3e720422	0.23634389
176	0xbd2eed02	-0.042706497
177	0xbdae6b56	-0.085165665
178	0xbe0e2299	-0.13880385
179	0x3cdee539	0.027208911
180	0xbe02ecbc	-0.1278562
181	0xbdd1076c	-0.10206494
182	0x3ebc77ce	0.36810154
183	0x3d877c0a	0.066154554
184	0xbde239e1	-0.11046196
185	0xba476adf	-0.00076071726
186	0xbd86fa65	-0.06590728
187	0x3b436b9f	0.0029818786
188	0xbcfb3c07	-0.030668272
189	0x3ab18ab0	0.001354536
190	0x3e105090	0.14093232
191	0xbdfc1872	-0.1230935
192	0xbdbb049b	-0.09131738
193	0x3d448209	0.047975574
194	0x3e411255	0.1885465
195	0xbd96ee77	-0.07369702
196	0xbed1282b	-0.40850958
197	0xbe2b411a	-0.16724053
198	0xbb6878cc	-0.0035472391
199	0x3e2517ce	0.16122362
200	0x3e28741c	0.16450542
201	0xbe21834f	-0.15772747
202	0xbe1970a3	-0.14984374
203	0x3db3fcf4	0.08788481
204	0xbeaec5ae	-0.34135193
205	0x3dbbe086	0.09173684
206	0x3c903f26	0.017608237
207	0xbe17e7c0	-0.148345
208	0x3ef0ed5b	0.47056088
209	0x3e9004fd	0.28128806
210	0xbecf9fff	-0.40551755
211	0xbdb72b89	-0.089438505
212	0xbec67ca4	-0.38766968
213	0x3dbdc0d6	0.09265296
214	0xbd3f732c	-0.046740696
215	0x3d25faba	0.040522315
216	0x3ed0eb8b	0.40804705
217	0xbe2929bf	-0.16519831
218	0xbe3eb9a0	-0.18625498
219	0xbe1b0feb	-0.15142791
220	0x3e62b9e0	0.22141218
221	0x3cf2cae3	0.02963776
222	0xbe046ea5	-0.12932833
223	0x3ead8bb3	0.33895645
224	0xbea36c42	-0.31918532
225	0xbd805e44	-0.0626798
226	0x3d81f4a8	0.063454926
227	0x3e757e14	0.23973876
228	0x3e8c1963	0.2736312
229	0xbe56a597	-0.20961605
230	0xbe9aba1e	-0.3022012
231	0x3dabbf80	0.08386135
232	0x3e2b2ab5	0.1671551
233	0x3e83bee6	0.2573158
234	0xbc9c15fa	-0.019053448
235	0x3c86b4ff	0.016443728
236	0x3e896a71	0.2683902
237	0xbe647b87	-0.22312747
238	0xbe464a96	-0.1936439
239	0x3da55065	0.08071975
240	0x3d7dc06f	0.061951097
241	0xbd8f4453	-0.06995454
242	0xbeac7877	-0.33685657
243	0xbe07c6e3	-0.13259463
244	0xbea51257	-0.32240555
245	0xbe0cf094	-0.13763648
246	0xbde945b2	-0.113902465
247	0x3e91823c	0.28419673
248	0xbdb50c75	-0.088402666
249	0x3dc29353	0.09500756
250	0xbe74c1e7	-0.23902093
251	0x3e71bba8	0.23606741
252	0x3ddb4276	0.10706036
253	0x3d72d23b	0.059282523
254	0x3c9d00b8	0.019165382
255	0x3e7c6120	0.24646425

base.mlp.fc_h.0.bias f4 [64]
0	0x00000000	0.0
1	0x00000000	0.0
2	0x00000000	0.0
3	0x00000000	0.0
4	0x00000000	0.0
5	0x00000000	0.0
6	0x00000000	0.0
7	0x00000000	0.0
8	0x00000000	0.0
9	0x00000000	0.0
10	0x00000000	0.0
11	0x00000000	0.0
12	0x00000000	0.0
13	0x00000000	0.0
14	0x00000000	0.0
15	0x00000000	0.0
16	0x00000000	0.0
17	0x00000000	0.0
18	0x00000000	0.0
19	0x00000000	0.0
20	0x00000000	0.0
21	0x00000000	0.0
22	0x00000000	0.0
23	0x00000000	0.0
24	0x00000000	0.0
25	0x00000000	0.0
26	0x00000000	0.0
27	0x00000000	0.0
28	0x00000000	0.0
29	0x00000000	0.0
30	0x00000000	0.0
31	0x00000000	0.0
32	0x00000000	0.0
33	0x00000000	0.0
34	0x00000000	0.0
35	0x00000000	0.0
36	0x00000000	0.0
37	0x00000000	0.0
38	0x00000000	0.0
39	0x00000000	0.0
40	0x00000000	0.0
41	0x00000000	0.0
42	0x00000000	0.0
43	0x00000000	0.0
44	0x00000000	0.0
45	0x00000000	0.0
46	0x00000000	0.0
47	0x00000000	0.0
48	0x00000000	0.0
49	0x00000000	0.0
50	0x00000000	0.0
51	0x00000000	0.0
52	0x00000000	0.0
53	0x00000000	0.0
54	0x00000000	0.0
55	0x00000000	0.0
56	0x00000000	0.0
57	0x00000000	0.0
58	0x00000000	0.0
59	0x00000000	0.0
60	0x00000000	0.0
61	0x00000000	0.0
62	0x00000000	0.0
63	0x00000000	0.0

base.mlp.fc_h.2.weight f4 [64]
0	0x3f800000	1.0
1	0x3f800000	1.0
2	0x3f800000	1.0
3	0x3f800000	1.0
4	0x3f800000	1.0
5	0x3f800000	1.0
6	0x3f800000	1.0
7	0x3f800000	1.0
8	0x3f800000	1.0
9	0x3f800000	1.0
10	0x3f800000	1.0
11	0x3f800000	1.0
12	0x3f800000	1.0
13	0x3f800000	1.0
14	0x3f800000	1.0
15	0x3f800000	1.0
16	0x3f800000	1.0
17	0x3f800000	1.0
18	0x3f800000	1.0
19	0x3f800000	1.0
20	0x3f800000	1.0
21	0x3f800000	1.0
22	0x3f800000	1.0
23	0x3f800000	1.0
24	0x3f800000	1.0
25	0x3f800000	1.0
26	0x3f800000	1.0
27	0x3f800000	1.0
28	0x3f800000	1.0
29	0x3f800000	1.0
30	0x3f800000	1.0
31	0x3f800000	1.0
32	0x3f800000	1.0
33	0x3f800000	1.0
34	0x3f800000	1.0
35	0x3f800000	1.0
36	0x3f800000	1.0
37	0x3f800000	1.0
38	0x3f800000	1.0
39	0x3f800000	1.0
40	0x3f800000	1.0
41	0x3f800000	1.0
42	0x3f800000	1.0
43	0x3f800000	1.0
44	0x3f800000	1.0
45	0x3f800000	1.0
46	0x3f800000	1.0
47	0x3f800000	1.0
48	0x3f800000	1.0
49	0x3f800000	1.0
50	0x3f800000	1.0
51	0x3f800000	1.0
52	0x3f800000	1.0
53	0x3f800000	1.0
54	0x3f800000	1.0
55	0x3f800000	1.0
56	0x3f800000	1.0
57	0x3f800000	1.0
58	0x3f800000	1.0
59	0x3f800000	1.0
60	0x3f800000	1.0
61	0x3f800000	1.0
62	0x3f800000	1.0
63	0x3f800000	1.0

base.mlp.fc_h.2.bias f4 [64]
0	0x00000000	0.0
1	0x00000000	0.0
2	0x00000000	0.0
3	0x00000000	0.0
4	0x00000000	0.0
5	0x00000000	0.0
6	0x00000000	0.0
7	0x00000000	0.0
8	0x00000000	0.0
9	0x00000000	0.0
10	0x00000000	0.0
11	0x00000000	0.0
12	0x00000000	0.0
13	0x00000000	0.0
14	0x00000000	0.0
15	0x00000000	0.0
16	0x00000000	0.0
17	0x00000000	0.0
18	0x00000000	0.0
19	0x00000000	0.0
20	0x00000000	0.0
21	0x00000000	0.0
22	0x00000000	0.0
23	0x00000000	0.0
24	0x00000000	0.0
25	0x00000000	0.0
26	0x00000000	0.0
27	0x00000000	0.0
28	0x00000000	0.0
29	0x00000000	0.0
30	0x00000000	0.0
31	0x00000000	0.0
32	0x00000000	0.0
33	0x00000000	0.0
34	0x00000000	0.0
35	0x00000000	0.0
36	0x00000000	0.0
37	0x00000000	0.0
38	0x00000000	0.0
39	0x00000000	0.0
40	0x00000000	0.0
41	0x00000000	0.0
42	0x00000000	0.0
43	0x00000000	0.0
44	0x00000000	0.0
45	0x00000000	0.0
46	0x00000000	0.0
47	0x00000000	0.0
48	0x00000000	0.0
49	0x00000000	0.0
50	0x00000000	0.0
51	0x00000000	0.0
52	0x00000000	0.0
53	0x00000000	0.0
54	0x00000000	0.0
55	0x00000000	0.0
56	0x00000000	0.0
57	0x00000000	0.0
58	0x00000000	0.0
59	0x00000000	0.0
60	0x00000000	0.0
61	0x00000000	0.0
62	0x00000000	0.0
63	0x00000000	0.0

base.mlp.fc2.0.0.weight f4 [64, 64]
0	0x3e27c704	0.16384512
1	0x3d5e0919	0.054207895
2	0xbddd95e2	-0.108196035
3	0xbda5d03a	-0.08096357
4	0x3ef1fb54	0.4726206
5	0x3dfcbe2d	0.12340961
6	0x3eb6e1e7	0.35719225
7	0xbeba3af2	-0.36373097
8	0x3debcbca	0.11513479
9	0x3da59a2b	0.08086046
10	0xbe2db9ca	-0.16965404
11	0xbe8eec8b	-0.27914843
12	0x3c7cabff	0.015421866
13	0x3d47bae5	0.04876222
14	0x3ecc7341	0.39931682
15	0x3e161fcc	0.14660567
16	0xba5d03ab	-0.00084310275
17	0x3cea7200	0.028618813
18	0xba9051a2	-0.0011010657
19	0x3ec9d095	0.39416948
20	0x3cd335a6	0.025782418
21	0xbecfae79	-0.405628
22	0x3d9f2bf6	0.07772057
23	0xbd6af6df	-0.05736434
24	0xbdfdead4	-0.123983055
25	0x3e8c3937	0.273874
26	0xbe64b11c	-0.22333187
27	0x3e0e0bd2	0.13871697
28	0x3d16d8ec	0.036827967
29	0x3db0e47f	0.08637332
30	0x3df81aea	0.121145085
31	0x3e50c93d	0.20389266
32	0xbc88d8f6	-0.016705018
33	0xbe2203ee	-0.15821812
34	0xbe863b6c	-0.2621721
35	0x3d944d80	0.072413445
36	0x3ea201d2	0.31642014
37	0xbd07b696	-0.033133112
38	0x3c6d4093	0.014480728
39	0x3f0d771c	0.5525987
40	0x3ecf89b2	0.4053474
41	0xbe9da23a	-0.30787832
42	0x3e9861f1	0.29762223
43	0x3c1872e8	0.00930474
44	0x3e89e0de	0.26929373
45	0xbe12edde	-0.14348552
46	0xbbb57f35	-0.005538846
47	0x3d2b3b36	0.041804515
48	0xbe3804c4	-0.17970568
49	0xbe298734	-0.16555482
50	0xbe80a9e4	-0.25129616
51	0x3ddd0e72	0.10793771
52	0xbcb41ca6	-0.021986317
53	0x3deb5abc	0.114919156
54	0x3bf423f2	0.007450574
55	0xbe69d115	-0.22833665
56	0xbe24b4ac	-0.16084546
57	0x3e670320	0.22559786
58	0xbdd52cfc	-0.10408971
59	0x3eb1f72d	0.34758893
60	0xbc7af693	-0.015317577
61	0xbc968abc	-0.0183767
62	0x3e27bfce	0.16381761
63	0x3dec1e1d	0.11529181
64	0xbf0e355d	-0.55550176
65	0x3ec85e31	0.39134362
66	0x3d8346e2	0.06410004
67	0xbdcaa76f	-0.09895217
68	0x3cc6ef43	0.02428401
69	0x3e7b6f0b	0.24554078
70	0x3e6efbfb	0.2333831
71	0x3ea6c0c6	0.3256895
72	0xbeafd734	-0.34343874
73	0xbc9fdb59	-0.019513773
74	0x3c33787f	0.0109540215
75	0xbe2470e9	-0.16058697
76	0xbb1057a1	-0.0022024887
77	0x3e8d8159	0.27637747
78	0xbdfec8d7	-0.12440651
79	0xbd7790e4	-0.060440913
80	0xbe0446d3	-0.12917642
81	0xbdbc711d	-0.09201262
82	0xbe6a10a0	-0.22857904
83	0x3ce2f629	0.027705269
84	0x3bef860e	0.0073096817
85	0xbe02a31c	-0.12757534
86	0x3e2b346b	0.16719215
87	0x3e607d74	0.21922857
88	0xbe501adb	-0.20322745
89	0xbe8ccecf	-0.27501532
90	0xbcd37398	-0.025811955
91	0xbe15e08b	-0.14636438
92	0xbec2b176	-0.38026017
93	0xbe63de2c	-0.2225272
94	0xbe2c99f9	-0.16855611
95	0xbde7df92	-0.113219395
96	0x3df0c4ba	0.117562726
97	0xbcb0549f	-0.021524725
98	0xbdf6d0e8	-0.120515645
99	0xbe256701	-0.16152574
100	0xbc7378ba	-0.014860326
101	0xbf066e9c	-0.52512527
102	0xbe559fdf	-0.20861767
103	0x3e5355e7	0.20638238
104	0xbc51781d	-0.012784985
105	0xbeba525d	-0.36390963
106	0x3e12d729	0.1433989
107	0x3ee2abdf	0.44271752
108	0x3d959481	0.073037155
109	0x3de611bb	0.112338506
110	0x3cb908d0	0.02258721
111	0x3d1ebdc0	0.03875518
112	0x3ea65358	0.3248546
113	0x3eafb21f	0.34315583
114	0xbdabcbb5	-0.083884634
115	0xbe4f9610	-0.20272088
116	0x3dc05e5e	0.09392999
117	0xbe1fa5a9	-0.15590538
118	0xbd9c782a	-0.07640107
119	0x3cb8c156	0.022553127
120	0x3ddc571d	0.10758803
121	0xbcdef5d2	-0.027216826
122	0xbd5be4ac	-0.053684875
123	0xbce9e588	-0.028551832
124	0xbc1fd185	-0.009754543
125	0x3ee7caa8	0.45271802
126	0xbd8f0b9b	-0.069846354
127	0xbc5361c8	-0.012901731
128	0x3d1790a9	0.037003193
129	0xbc20f916	-0.009825012
130	0x3d87e800	0.06636047
131	0x3dd3f5fc	0.10349652
132	0x3e2d051c	0.1689648
133	0x3dddfb3e	0.10838936
134	0xbd7e9670	-0.062155187
135	0x3d2d1891	0.042259756
136	0x3c3ff827	0.011716879
137	0xbe8c8449	-0.27444676
138	0x3dd99e9b	0.10625955
139	0xbe3f04bc	-0.1865415
140	0x3f0994af	0.537425
141	0xbe8d7bdf	-0.2763357
142	0x3e2bf82a	0.16793886
143	0x3e963327	0.293359
144	0x3f25e71b	0.64805764
145	0xbdd28dca	-0.1028095
146	0xbd59f9a9	-0.05321661
147	0xbdae3eca	-0.0850807
148	0x3e5547f3	0.20828228
149	0xbd36acab	-0.044598263
150	0xbba0feb5	-0.004913176
151	0x3f06cb54	0.52654004
152	0xbc7e11bf	-0.015507161
153	0xbe5ecfb0	-0.21758914
154	0xbeb3bdeb	-0.35105833
155	0x3eb3c810	0.35113573
156	0x3b879100	0.0041371584
157	0x3e041e38	0.12902153
158	0xbc0ef779	-0.008725994
159	0xbe3ad5e8	-0.18245661
160	0x3ba94d42	0.0051666806
161	0x3d4a013e	0.04931759
162	0x3ec1aab7	0.37825558
163	0xbece324b	-0.40272745
164	0xbe8ebb80	-0.27877426
165	0xbd4e5579	-0.05037448
166	0x3e7cdfa9	0.24694695
167	0x3e278739	0.16360177
168	0xbe54e46f	-0.20790266
169	0x3e85382a	0.26019412
170	0xbe471b85	-0.19444092
171	0x3dd442f5	0.103643335
172	0x3ea431f0	0.3206935
173	0xbd1235db	-0.03569589
174	0xbe3c5595	-0.18392022
175	0x3e723f51	0.23656966
176	0xbbe5218d	-0.006992525
177	0xbd862acd	-0.06551132
178	0xbda25790	-0.079268575
179	0xba3651b2	-0.00069549226
180	0xbe0973b4	-0.13423043
181	0xbe244780	-0.160429
182	0x3eb6ddc9	0.35716084
183	0x3da3392e	0.079698905
184	0xbdf1e4bd	-0.118112065
185	0xbcebd414	-0.02878765
186	0xbda04fdc	-0.07827732
187	0x3c3bbc5f	0.011458485
188	0xbba02c21	-0.004888073
189	0xbc1d7890	-0.009611264
190	0x3e0d656d	0.13808222
191	0xbdefee9c	-0.11715433
192	0xbd7ddfe5	-0.0619811
193	0x3d0fecdd	0.035138
194	0x3e201b20	0.15635347
195	0xbd90c238	-0.07068294
196	0xbecb3484	-0.39688504
197	0xbe2ff6fe	-0.17184064
198	0x3b519bb9	0.0031983687
199	0x3e462b05	0.19352348
200	0x3e002db9	0.12517442
201	0xbe0962c5	-0.13416584
202	0xbe05088b	-0.1299154
203	0x3d8afa46	0.06786017
204	0xbec70a13	-0.38874874
205	0x3d83d65a	0.06437369
206	0x3c9bbf40	0.019012094
207	0xbe3c65be	-0.18398187
208	0x3ef1db3a	0.4723757
209	0x3e8a12a4	0.26967347
210	0xbed9a3a4	-0.4250766
211	0xbd81beec	-0.063352436
212	0xbed11b48	-0.40841126
213	0x3d9ae346	0.0756288
214	0xbd1ffa7e	-0.039057247
215	0x3da16c05	0.07881931
216	0x3edda62c	0.43290842
217	0xbe08af68	-0.13348162
218	0xbe5186fe	-0.20461652
219	0xbdf0f240	-0.117649555
220	0x3e564620	0.20925188
221	0x3d0b8f66	0.034072302
222	0xbe1eefe1	-0.15521194
223	0x3ead4f98	0.33849788
224	0xbe8f58e8	-0.27997518
225	0xbd98f164	-0.074679166
226	0x3d8d958d	0.0691329
227	0x3e71ec48	0.2362529
228	0x3e97be60	0.29637432
229	0xbe630e64	-0.22173458
230	0xbea001da	-0.31251413
231	0x3e0d430d	0.13795109
232	0x3e0e4e01	0.13896944
233	0x3e8aa845	0.27081504
234	0xbbfc4556	-0.007698695
235	0xbc1bd5ee	-0.009511454
236	0x3e8dd872	0.27704197
237	0xbe4ee35c	-0.20203918
238	0xbe3d6470	-0.18495345
239	0x3d9e6067	0.07733231
240	0x3d490b99	0.049083326
241	0xbdc38810	-0.09547436
242	0xbea4b6eb	-0.32170805
243	0xbe0e1c37	-0.1387795
244	0xbeacb925	-0.33735004
245	0xbe1f6584	-0.15566069
246	0xbdc775e9	-0.097392865
247	0x3e9a7f8b	0.30175433
248	0xbda37ff9	-0.07983393
249	0x3d9ed9cf	0.077563874
250	0xbe712b79	-0.2355174
251	0x3e68f6d6	0.2275041
252	0x3dad5be0	0.084647894
253	0x3db3e633	0.087841414
254	0x3cfc4f41	0.03079951
255	0x3e6e285e	0.23257586

base.mlp.fc2.0.0.bias f4 [64]
0	0xbb99fc4f	-0.004699267
1	0xbc91d976	-0.017803889
2	0xb9d89f5c	-0.00041317462
3	0x3d32b838	0.043632716
4	0x3c825236	0.015908342
5	0xbce98c35	-0.028509239
6	0x3c1c5c04	0.009543423
7	0x3cbf090f	0.02331975
8	0xbc8dedef	-0.01732537
9	0xbb928df3	-0.004472488
10	0x3c1ab803	0.009443286
11	0xbbb3e60e	-0.005490071
12	0xbcbfeac3	-0.023427373
13	0xbcbce435	-0.023058036
14	0x3bb6635d	0.0055660442
15	0x3c285022	0.010273011
16	0x3c4e36a6	0.012586271
17	0xbcd10f5f	-0.025520025
18	0xbd029920	-0.031884313
19	0x3ce635ef	0.02810189
20	0xbc68ccba	-0.014208967
21	0xbbf58654	-0.00749282
22	0x3c888083	0.016662842
23	0x3d68c653	0.05682976
24	0xbca91861	-0.020641508
25	0x3bc5b028	0.0060329624
26	0xbccab1bd	-0.024742955
27	0xbb8f906e	-0.004381231
28	0xbcc6d848	-0.024273053
29	0xbc8d5118	-0.017250583
30	0xbc436b84	-0.011927489
31	0xbc928691	-0.017886432
32	0xbb74c260	-0.0037347302
33	0x3bc605e1	0.0060431813
34	0xbd479032	-0.0487215
35	0xbc6f85e7	-0.014619327
36	0x3b890bd8	0.00418232
37	0x3c98ea00	0.018666267
38	0xbaab062b	-0.0013048103
39	0x3d8bcc5a	0.06826086
40	0xbce21acc	-0.027600668
41	0x3932c97c	0.00017050462
42	0x3c7cd418	0.015431426
43	0xbceff53d	-0.029291743
44	0x3b449bd2	0.0030000103
45	0xbb606933	-0.003424239
46	0x3cb1c4bc	0.021700256
47	0xbb6c46df	-0.0036052985
48	0x3d0f4d07	0.03498557
49	0x3cde9e10	0.02717498
50	0x3bf73634	0.0075443033
51	0x3cbe1d6f	0.023207394
52	0x3d28ec1e	0.041240804
53	0xbb2e2991	-0.0026575068
54	0x3cc6d494	0.024271287
55	0xbcda04ad	-0.026613558
56	0x3c8aef93	0.016959941
57	0xbbbcab7a	-0.0057577463
58	0x3c074d86	0.008258229
59	0x3ca3f793	0.020015514
60	0x3c884ff4	0.016639687
61	0x3c2521e3	0.01007888
62	0x3c7b7ab7	0.015349082
63	0xbcbc2d8e	-0.02297094

base.mlp.fc2.0.2.weight f4 [64]
0	0x3f7874b4	0.97053075
1	0x3f7e48a2	0.9932958
2	0x3f7af433	0.9802887
3	0x3f7f4715	0.9971784
4	0x3f85088f	1.0393237
5	0x3f7e28f2	0.9928123
6	0x3f81db20	1.0144997
7	0x3f81ebe1	1.015011
8	0x3f7c1362	0.98467076
9	0x3f7cda44	0.98770547
10	0x3f7b85d3	0.98251075
11	0x3f840d9b	1.0316652
12	0x3f8341c8	1.025445
13	0x3f829ec6	1.0204704
14	0x3f82417b	1.0176233
15	0x3f85aeea	1.0444005
16	0x3f81187d	1.0085598
17	0x3f813a79	1.009597
18	0x3f861bb4	1.0477204
19	0x3f7f86fa	0.9981533
20	0x3f871abc	1.0555034
21	0x3f811132	1.0083373
22	0x3f7967ea	0.97424185
23	0x3f765675	0.9622567
24	0x3f70fcf1	0.9413596
25	0x3f7f5d6c	0.99751925
26	0x3f81df5e	1.0146291
27	0x3f80e3ac	1.006948
28	0x3f7ac6e2	0.9795972
29	0x3f841dc2	1.0321581
30	0x3f808f07	1.0043648
31	0x3f819606	1.0123909
32	0x3f827ca2	1.0194285
33	0x3f81cdcb	1.0140928
34	0x3f78a4c4	0.9712641
35	0x3f7f20cb	0.99659413
36	0x3f7808a4	0.96888185
37	0x3f830932	1.0237181
38	0x3f812177	1.0088338
39	0x3f79b3c6	0.9753994
40	0x3f807108	1.0034494
41	0x3f81a6c1	1.0129014
42	0x3f7ffba7	0.99993366
43	0x3f8072a2	1.0034983
44	0x3f8000ec	1.0000281
45	0x3f7a94d0	0.9788332
46	0x3f802f0e	1.001436
47	0x3f7f3e3b	0.9970433
48	0x3f7b90c8	0.98267794
49	0x3f7dfad4	0.9921086
50	0x3f8154c7	1.0103997
51	0x3f82fab9	1.0232764
52	0x3f84dc21	1.0379678
53	0x3f81977c	1.0124354
54	0x3f80a3c2	1.0049975
55	0x3f80406a	1.0019658
56	0x3f7d7ced	0.99018747
57	0x3f7f602b	0.99756116
58	0x3f7dfae4	0.99210954
59	0x3f83ab6b	1.0286688
60	0x3f7e9e41	0.99460226
61	0x3f8442fe	1.0332944
62	0x3f7b7d67	0.98238224
63	0x3f819adf	1.0125388

base.mlp.fc2.0.2.bias f4 [64]
0	0xbc061a04	-0.008184914
1	0xbca31a1d	-0.019909913
2	0xbb6dc2d1	-0.003627945
3	0x3ca687f1	0.020328494
4	0xbc06df7b	-0.008231993
5	0xbd42ef6a	-0.047591604
6	0xbc12d0bb	-0.008960898
7	0x3d025355	0.031817753
8	0xbcc79cf3	-0.024366831
9	0x3ad88264	0.0016518352
10	0xbc1fa9da	-0.009745086
11	0x3c7eaafa	0.015543694
12	0xbbd98ae3	-0.006638871
13	0x3b21bab5	0.0024677936
14	0x3cc54afb	0.024083605
15	0x3bf706c5	0.007538649
16	0xbb6220d3	-0.0034504428
17	0x3c95cfd6	0.01828758
18	0x3c0cba49	0.008589336
19	0x3bd99a5a	0.0066407146
20	0xba23e6fb	-0.00062523753
21	0xbc86b807	-0.016445173
22	0x3a949df5	0.0011338579
23	0x3c2b50d2	0.010456281
24	0xbd13abe3	-0.036052596
25	0x3c7dda71	0.015493975
26	0xbca7b644	-0.020472653
27	0xbad4df12	-0.0016240797
28	0xbc88428f	-0.0166333
29	0xbc7ea6e9	-0.015542724
30	0x3b45d52c	0.0030186875
31	0x3bed407b	0.0072403527
32	0xbc76d40f	-0.015065207
33	0xbabc52e8	-0.001436797
34	0xbcb1f119	-0.02172141
35	0x3bb59eba	0.0055426033
36	0xbc70cc62	-0.014697166
37	0xbc06aa0b	-0.008219252
38	0x3b8c53cb	0.00428245
39	0x3c9b3e9a	0.01895075
40	0xbb5b9acf	-0.003350902
41	0xbc873039	-0.016502487
42	0xbb2ff586	-0.0026849224
43	0xbc8ba04d	-0.01704421
44	0x3c0535a1	0.008130462
45	0x3a510023	0.00079727377
46	0x3c3496d4	0.011022288
47	0xbc909f90	-0.01765421
48	0x3d3d7864	0.04625739
49	0xbb081672	-0.0020765332
50	0xbc00ced9	-0.007861816
51	0x3bbe91f0	0.005815737
52	0x3c3d47fa	0.011552805
53	0x3c55b574	0.01304375
54	0x3c2dde19	0.010612034
55	0xbc90053f	-0.017580627
56	0x3cbd8068	0.023132518
57	0xbcd98106	-0.026550781
58	0x3c4c1f58	0.012458645
59	0xbb383624	-0.0028108442
60	0xbc3de9ec	-0.011591416
61	0xbc1e3443	-0.009656015
62	0xbb699280	-0.00356403
63	0x3afd62e8	0.0019331845

rnn.rnn.weight_ih_l0 f4 [192, 64]
0	0x3bf990d5	0.0076161423
1	0x3cba734d	0.022760058
2	0x3d199361	0.037494067
3	0x3d60bc14	0.054866865
4	0xbc03ab38	-0.008036427
5	0x3e0c04c9	0.136737
6	0x3d28b522	0.041188367
7	0x3dc4697a	0.095904306
8	0x3d17b647	0.037039068
9	0x3de85781	0.11344815
10	0xbd7b6985	-0.06137993
11	0xbda71277	-0.08157819
12	0xbcbc78e2	-0.02300686
13	0xbd4d30c2	-0.050095327
14	0xbd7b0bad	-0.06129043
15	0x3e0b5244	0.136056
16	0xbe85d3f2	-0.26138264
17	0xbd13bd3d	-0.036069144
18	0xbc5bd7c3	-0.013418141
19	0x3d5b5f47	0.05355766
20	0x3df81fe2	0.12115456
21	0xbc9e1cc4	-0.019300826
22	0x3c890e1d	0.016730363
23	0xbd2e7cd8	-0.04259953
24	0x3d071b14	0.032984808
25	0x3cb3217c	0.021866553
26	0xbd9ccf4f	-0.076567285
27	0x3d3db33d	0.046313513
28	0x3e5341bf	0.20630549
29	0xbd781fbd	-0.060577143
30	0xbd5dc55d	-0.0541433
31	0x3e013591	0.1261809
32	0x3c068c35	0.008212139
33	0xbdf70fab	-0.12063535
34	0x3d1d0572	0.03833527
35	0xbbfb70aa	-0.0076733427
36	0xbdd1292e	-0.102129325
37	0xbd4fc9e0	-0.050729632
38	0xbd0794cf	-0.0331009
39	0xbd96c8c0	-0.07362509
40	0xbd5b4d0a	-0.053540267
41	0x3dd09cd9	0.10186166
42	0x3d45254f	0.048131283
43	0x3cb111f3	0.021615004
44	0x3d6401f7	0.055665936
45	0x3d62b371	0.05534691
46	0xbc851b1b	-0.016248276
47	0x3cf6822d	0.03009137
48	0xbd4893e1	-0.048969153
49	0xbdd38e59	-0.10329885
50	0xbc421c5e	-0.011847584
51	0x3dd67e3a	0.104732946
52	0xbd3d2478	-0.046177357
53	0xbd843f96	-0.064574406
54	0xb974b314	-0.00023336365
55	0xbdb68e32	-0.0891384
56	0xbbcdead5	-0.0062840977
57	0x3e46c35f	0.19410466
58	0xbdbd7119	-0.09250087
59	0xbcec5043	-0.028846866
60	0x3c76b742	0.0150583405
61	0xbda00855	-0.07814089
62	0xbe0032ac	-0.1251933
63	0xbd9cd9af	-0.07658707
64	0x3de6825e	0.11255334
65	0xbda48400	-0.080329895
66	0x3c847b53	0.016172087
67	0xbd88d01b	-0.06680318
68	0xbc1cea6f	-0.009577378
69	0xbe0ef839	-0.13961877
70	0xbd384fed	-0.0449981
71	0xbd254a63	-0.040354144
72	0x3cc27ae7	0.023740245
73	0xbdc7ecf0	-0.09761989
74	0x3dafc305	0.08582119
75	0xbd5f9be6	-0.054592036
76	0x3d3dc07b	0.04632614
77	0x3dc6c698	0.097058475
78	0xbceca02e	-0.028884973
79	0xbd2be310	-0.04196459
80	0x3da052fe	0.078283295
81	0xbde57854	-0.112045914
82	0xbe082efe	-0.13299176
83	0xbc98b4fd	-0.01864099
84	0xbe10a330	-0.14124751
85	0xbc9aa611	-0.018878015
86	0xbdbedbde	-0.0931928
87	0x3df8c421	0.121467836
88	0x3d0f9d61	0.035062198
89	0x3b1a339d	0.00235293
90	0x3c9754ea	0.018473107
91	0x3d32e17a	0.043672062
92	0x3bc614a7	0.0060449424
93	0x3c20565e	0.009786217
94	0xbdc5d066	-0.096588895
95	0x3d4e0f9e	0.050307862
96	0xbdc024b6	-0.09382002
97	0xbd7f2c9b	-0.0622984
98	0x3ca5dc10	0.020246536
99	0x3d7338f1	0.059380475
100	0x3e2b480c	0.16726702
101	0x3ddaf28d	0.10690794
102	0x3db29b59	0.087210365
103	0x3dc9a63b	0.09846159
104	0xbd0f027c	-0.03491448
105	0x3ddb2bc6	0.107017085
106	0xbde67091	-0.11251939
107	0x3ca2e0f9	0.019882666
108	0xbe1b0451	-0.15138365
109	0xbe2d2fc4	-0.16912752
110	0xbd90cc65	-0.07070235
111	0xbde329b9	-0.11091942
112	0x3d26246f	0.04056209
113	0xbd8a7853	-0.06761231
114	0xbd6e28c5	-0.05814435
115	0x3dda2e58	0.106533706
116	0xbd614e60	-0.055006385
117	0x3d3ef4a6	0.046620034
118	0x3d9661bb	0.07342859
119	0xbcbefcf5	-0.023313979
120	0x3e1917c0	0.14950466
121	0x3df5bc80	0.11998844
122	0x3d9514dd	0.0727937
123	0xbd89ca93	-0.06728091
124	0xbddc5579	-0.1075849
125	0x3b7661c9	0.0037594906
126	0x3d762965	0.06009807
127	0x3d0d7009	0.034530673
128	0xbd925853	-0.07145753
129	0xbd914904	-0.07094005
130	0xbc8d53cd	-0.017251873
131	0xbb5804fa	-0.003296195
132	0x3d1a0945	0.037606496
133	0xbde5e217	-0.11224764
134	0xbca2b962	-0.019863788
135	0xbdbf2620	-0.09333444
136	0xbd7270f5	-0.059189755
137	0x3c9331f5	0.017968157
138	0xbe3412aa	-0.17585245
139	0x3e2b9876	0.16757378
140	0xbdbc3bbf	-0.09191083
141	0xbd1d9be5	-0.03847875
142	0xbdd3b9c5	-0.10338167
143	0x3bbcd566	0.0057627438
144	0xbaeb3257	-0.001794408
145	0xbe00ac85	-0.12565811
146	0x3c1ab433	0.009442377
147	0x3d0b307b	0.03398178
148	0x3a308300	0.00067333877
149	0x3dab8c01	0.08376313
150	0xbd9ead46	-0.07747893
151	0xbddc6b78	-0.107626855
152	0x3d1ecc0c	0.038768813
153	0x3d893e8c	0.06701383
154	0xbe08756f	-0.13326047
155	0xbdbb32c9	-0.09140546
156	0x3e050fb4	0.12994272
157	0xbd6aa3be	-0.057285063
158	0xbb8d3338	-0.0043090843
159	0x3d80c1fa	0.06286998
160	0x3cb823b4	0.022477962
161	0x3e064f97	0.13116299
162	0xbaa2f92e	-0.001243388
163	0xbda4673a	-0.080275014
164	0x3df49b7c	0.11943719
165	0x3d951303	0.07279017
166	0x3d3114de	0.04323279
167	0x3dcb48e3	0.099260114
168	0xbd5cb494	-0.05388315
169	0xbc8a8a1f	-0.016911564
170	0xbd7ca7dc	-0.06168352
171	0x3d8a1502	0.06742288
172	0xbd7025a9	-0.058629666
173	0x3d9421c1	0.072330005
174	0x3c3dc319	0.011582159
175	0x3d40e751	0.0470956
176	0xbde60da6	-0.11233072
177	0xbd27bac9	-0.040949617
178	0xbdab4df0	-0.08364475
179	0xbe1abf05	-0.1511193
180	0x3db011c0	0.085971355
181	0x3d8da4f9	0.06916232
182	0xbdf780a7	-0.12085085
183	0x3e7588e1	0.23977996
184	0xbd5312d0	-0.051531613
185	0x3b876d7c	0.0041329246
186	0x3c9019df	0.017590461
187	0x3db0195e	0.085985884
188	0x38e55750	0.00010935834
189	0xbd414ef1	-0.047194425
190	0x3d070e2e	0.032972507
191	0xbc5558af	-0.013021632
192	0x3d4fe944	0.05075957
193	0x3dd5448b	0.10413464
194	0xbd7d5fbd	-0.06185888
195	0x3ae36abc	0.0017350535
196	0x3d169d59	0.036771152
197	0x3e1864f7	0.14882265
198	0xbd6ac038	-0.05731222
199	0xbde5e0a9	-0.11224491
200	0xbc186bba	-0.009303028
201	0xbce9e36c	-0.028550826
202	0x3dd659fd	0.10466383
203	0xbd2575e7	-0.040395644
204	0xbdd4289c	-0.10359308
205	0x3c61e894	0.013788361
206	0x3ddc8313	0.10767188
207	0xbd19cc75	-0.0375485
208	0x3d1acecb	0.03779487
209	0x3e2cf1c6	0.16889104
210	0x3d218aee	0.039439134
211	0xbde35fc2	-0.11102249
212	0xbd43ceb1	-0.04780454
213	0xbc7fb602	-0.015607359
214	0x3de7b327	0.113134675
215	0xbd061cec	-0.032742426
216	0x3d228ff2	0.03968806
217	0x3d1e9f95	0.038726408
218	0x3d9e4c9c	0.07729456
219	0xbd4b6b0e	-0.049662642
220	0xbbf6c8a6	-0.0075312434
221	0x3d881534	0.06644669
222	0xbd82e47b	-0.063912354
223	0x3c67baf6	0.014143696
224	0x3d0d876f	0.034552988
225	0x3d5c3a3c	0.053766474
226	0x3db06282	0.08612539
227	0x3df3107b	0.11868378
228	0xbce62e73	-0.02809832
229	0xbe19c262	-0.15015557
230	0xbd1a67ef	-0.037696775
231	0x3cd8546d	0.026407445
232	0xbdca3ac6	-0.098744914
233	0x3c0010a1	0.007816465
234	0x3c5c7a96	0.013456961
235	0xbd778811	-0.060432497
236	0xbd483600	-0.048879623
237	0xbd2a3b2f	-0.041560348
238	0xbd829113	-0.06375327
239	0x3e0496db	0.12948172
240	0xbe197bb7	-0.149886
241	0x3c9a8f69	0.018867211
242	0x3d4cd244	0.050005212
243	0x3d1ebc43	0.03875376
244	0x3e24deaf	0.16100572
245	0x3c976be9	0.018484073
246	0xbdb7e6f1	-0.089795955
247	0x3d399ba1	0.045314435
248	0xbdcf4c01	-0.101219185
249	0xbaab38f5	-0.0013063239
250	0x3d63d61f	0.055624124
251	0xbc7651d6	-0.01503416
252	0xbe236681	-0.15957071
253	0x3ce5d302	0.028054718
254	0x3d93a117	0.0720846
255	0xbdbcf650	-0.09226668

rnn.rnn.weight_hh_l0 f4 [192, 64]
0	0xbd8d12a0	-0.06888318
1	0x3d802226	0.06256513
2	0xbd972817	-0.073806934
3	0xbce361ee	-0.027756657
4	0xbdb1eafb	-0.08687397
5	0xbd8fd074	-0.07022181
6	0xbdbdb8f1	-0.092637904
7	0x3d6cd332	0.0578186
8	0x3c3ba30e	0.0114524495
9	0x3dc1e416	0.09467332
10	0xbdcb9f42	-0.099424854
11	0xbd8f8126	-0.07007055
12	0x3dd09940	0.1018548
13	0xbcb77a65	-0.02239723
14	0xbd8b529d	-0.068028666
15	0xbbefbb89	-0.007316057
16	0x3db69909	0.08915908
17	0xbca6ddef	-0.020369498
18	0xbdd27a96	-0.10277288
19	0x3b0b8fad	0.0021295354
20	0x3d2bc35d	0.04193436
21	0x3df6792d	0.12034831
22	0x3da5309a	0.08065911
23	0xbe1ec6b8	-0.15505493
24	0xbcc1ce39	-0.023657905
25	0x3cfd05e7	0.030886604
26	0xbd927ac3	-0.07152321
27	0xbd6040e2	-0.054749377
28	0xbe0d33aa	-0.1378924
29	0xbbfb4062	-0.007667587
30	0x3c59bcd2	0.013289647
31	0xbd8ca7fd	-0.06867979
32	0xbd9d9ee0	-0.076963186
33	0x3cad1a80	0.0211308
34	0xbbe6d4ca	-0.0070444094
35	0xbdd092c2	-0.10184242
36	0x3d32102f	0.043472465
37	0x3d66250b	0.05618767
38	0xbd7c9463	-0.06166495
39	0x3d37c4fb	0.04486559
40	0xbd2ada4a	-0.041712083
41	0x3c1e9cd6	0.009680947
42	0x3c3584a7	0.01107899
43	0xbd702e42	-0.058637865
44	0xbd6349b8	-0.055490226
45	0x3d7c673d	0.061621893
46	0x3d2a1975	0.041528184
47	0x3d9b8ffa	0.07595821
48	0xbb73c631	-0.0037196989
49	0x3d330aa9	0.04371134
50	0xbdce9904	-0.10087779
51	0x3da4d1b8	0.08047813
52	0x3ca87eed	0.020568335
53	0x3cbb157d	0.022837395
54	0xbdbc3bfe	-0.0919113
55	0x3d09f34e	0.0336793
56	0xbc6d211d	-0.014473227
57	0xbc62663d	-0.013818321
58	0x3ccefb68	0.025266364
59	0xbd4a57e2	-0.049400218
60	0x3e5a2e3c	0.213067
61	0xbdb73e6c	-0.08947453
62	0x3abd99ae	0.0014465356
63	0x3e06aa14	0.13150817
64	0xbc2ba5d0	-0.0104765445
65	0xbc9bb20e	-0.019005802
66	0xbd86a648	-0.065746844
67	0x3cd56bc4	0.026052363
68	0x3d69c1ce	0.057069592
69	0xbc8f315b	-0.01747959
70	0x3dd52f74	0.104094416
71	0x3daa9730	0.08329618
72	0xbdad6092	-0.08465685
73	0xbcea72fb	-0.02861928
74	0xbd6a9ae8	-0.057276636
75	0xbc41bb37	-0.011824421
76	0xbd71c9f4	-0.059030488
77	0x3d3b86dd	0.045782913
78	0x3dde22a2	0.108464494
79	0xbdecbf27	-0.11559897
80	0xbcdd4204	-0.027009018
81	0x3cc91339	0.024545299
82	0xbc5a32e9	-0.013317802
83	0x3e130558	0.14357507
84	0x3d85bb37	0.06529849
85	0xbe06ffa7	-0.13183461
86	0x3c397023	0.011318239
87	0x3e0229af	0.12711214
88	0xbdc05ef9	-0.093931146
89	0x3da6c715	0.08143441
90	0xbd582951	-0.052773777
91	0xbd672ea8	-0.05644098
92	0xbd9d8974	-0.07692233
93	0xbd70d6a5	-0.05879845
94	0xbe3dcccc	-0.18535155
95	0xbd7faa78	-0.06241843
96	0xbe29410b	-0.16528718
97	0xbe0820ce	-0.13293764
98	0x3cac3630	0.021021932
99	0x3daaaa03	0.083332084
100	0x3ca90b4c	0.02063527
101	0xbcb36ac7	-0.021901501
102	0xbdd915e8	-0.105998814
103	0x3e1f666f	0.15566419
104	0x3dcda36a	0.100409344
105	0x3d541b11	0.051783625
106	0x3e032cf3	0.12810116
107	0xbe1c0ded	-0.15239687
108	0xbd7a2bac	-0.061076805
109	0xbce0ed71	-0.02745697
110	0xbd0674b3	-0.032826137
111	0x3c339a21	0.01096204
112	0x3b2bbe25	0.0026205864
113	0x3dc00335	0.09375612
114	0xbbbad40e	-0.0057015484
115	0xbdd57d5a	-0.104242995
116	0x3de22bef	0.11043536
117	0x3ba46a38	0.005017545
118	0x3cde238e	0.027116563
119	0xbd19a9e8	-0.03751555
120	0xbcd724a9	-0.026262598
121	0x3dd2a4d3	0.10285344
122	0x3e80d0d7	0.25159332
123	0xba319fb2	-0.00067758106
124	0xbcd4718d	-0.025933051
125	0xbbc1aae1	-0.005910263
126	0xbcc7c820	-0.02438742
127	0xbd379a2f	-0.044824775
128	0xbdd369f6	-0.10322945
129	0xbbdd5618	-0.006754648
130	0xbd00fc7b	-0.031490784
131	0xbdaba3d3	-0.08380856
132	0x3e038585	0.12843902
133	0x3ca75cfa	0.020430077
134	0x3d2cd601	0.042196278
135	0x3e355c44	0.17710978
136	0x3e085313	0.1331294
137	0xbe14e99b	-0.14542238
138	0x3ddcd2b1	0.10782374
139	0xbd93e33b	-0.07221075
140	0xbd92da0c	-0.071704954
141	0xbdce4d29	-0.10073311
142	0x3e33386e	0.17501995
143	0xbd465ded	-0.04842942
144	0xbdc4e4a4	-0.09613922
145	0xbe1981bd	-0.14990897
146	0x3dd19611	0.10233701
147	0xbc349a16	-0.011023065
148	0x3d8d233c	0.06891486
149	0x3d2f882b	0.04285447
150	0x3b5e8dbd	0.0033958994
151	0x3c76e737	0.015069774
152	0x3d5edb14	0.054408148
153	0xbd29a2e0	-0.041415095
154	0x3dba0637	0.09083217
155	0xbd69ec3b	-0.057110053
156	0xbd74549e	-0.05965101
157	0x3d502d3d	0.050824393
158	0xbd9ccf59	-0.07656736
159	0xbdf96f4e	-0.12179433
160	0x3d3e51fc	0.046464905
161	0x3db6761b	0.089092456
162	0xbb1d0879	-0.002396135
163	0xbdc190d1	-0.0945145
164	0x3e4436bc	0.19161505
165	0xbd110e96	-0.0354143
166	0x3c960f32	0.018317793
167	0xbe09eeb3	-0.13469963
168	0x3d08853c	0.033330187
169	0xbdf25cb2	-0.118340865
170	0xbca3812a	-0.019959051
171	0x3d176d1f	0.0369693
172	0xbe4aec44	-0.1981669
173	0xbd81dc0a	-0.06340797
174	0xbd98fa4d	-0.07469616
175	0x3df74310	0.12073338
176	0xbcabded9	-0.020980285
177	0xbddbc7b5	-0.107314505
178	0xbe3af1c7	-0.18256293
179	0xbdb2089b	-0.086930476
180	0x3d8df36e	0.06931196
181	0x3db9cb56	0.090719864
182	0x3de6cb79	0.11269278
183	0x3d9fbcc4	0.07799676
184	0x3cdac781	0.026706459
185	0x3c83bd39	0.01608144
186	0xbd3688d9	-0.0445641
187	0x3d938ac2	0.072042
188	0xbd3f028d	-0.046633292
189	0xbdd9525f	-0.10611414
190	0x3d7cb23b	0.06169341
191	0x3ba5cc80	0.0050597787
192	0xbe15cf0a	-0.1462976
193	0x3d08b582	0.033376224
194	0x3d1ce187	0.038301017
195	0x3e57e79e	0.21084449
196	0xbdde61fe	-0.10858534
197	0xbd3b9b16	-0.0458022
198	0xbd98616c	-0.07440457
199	0x3db13fa1	0.086547144
200	0xbdeabe5c	-0.114620894
201	0x3cfa1b4d	0.030530596
202	0xbe02a0d6	-0.12756667
203	0x3d9fb226	0.07797651
204	0x3daeb7f0	0.08531177
205	0x3d13b4ae	0.03606098
206	0xbd286509	-0.04111198
207	0xbcf36635	-0.029711822
208	0x3d038fbe	0.032119505
209	0x3c6f2182	0.014595391
210	0xbd062580	-0.032750607
211	0x3d29d9fb	0.041467648
212	0xbc6d2746	-0.014474696
213	0xbc405d59	-0.011741006
214	0xbd9238c2	-0.07139732
215	0xbd823975	-0.06358615
216	0x3d9ac6ce	0.0755745
217	0xbdd817dd	-0.105514266
218	0x3d02ca4a	0.0319312
219	0xbda41fa8	-0.080138505
220	0x3e096839	0.13418664
221	0xbb154556	-0.0022776923
222	0x3e00e9d5	0.125892
223	0x3dab9cba	0.083795026
224	0xba86562a	-0.0010249068
225	0xbc880eaf	-0.016608564
226	0x3d598dc1	0.053113703
227	0xbde314cb	-0.1108795
228	0x3e022bf7	0.12712084
229	0xbdd8f3db	-0.10593387
230	0x3c75919e	0.014988331
231	0x3c114138	0.008865647
232	0xbb9f9c0d	-0.0048708976
233	0x3daa14c6	0.083047435
234	0xbb74e736	-0.0037369258
235	0x3d33a98a	0.043862857
236	0x3e08a925	0.13345774
237	0x3d72077f	0.05908918
238	0xbd274306	-0.040835403
239	0x3de7dbaa	0.113211945
240	0xbd5f86ad	-0.054571796
241	0xbd65b26c	-0.05607836
242	0xbdbaa685	-0.09113792
243	0xbe3459f7	-0.17612444
244	0xbd32eca2	-0.043682702
245	0x3b0bdf3a	0.002134277
246	0xbbc1e39e	-0.0059170267
247	0xbd731fd3	-0.05935652
248	0x3d1f81b7	0.038942065
249	0x3d3427a9	0.043983135
250	0xbd1e6833	-0.03867359
251	0xbc94116e	-0.018074717
252	0xbd25f1d1	-0.040513817
253	0xbd8ea734	-0.06965485
254	0x3dab5f1f	0.08367752
255	0xba9d222e	-0.0011988336
