train/maddpg-v5/results/formation_hd_env/rmaddpg/debug/run6/models/policy_0/critic.pt (torch, 158380 bytes, 21 tensors)

rnn.feature_norm.weight f4 [63]
00000000: 0fa2 333f 1d59 393f 4595 8b3f a8d4 8f3f
00000010: e382 9c3f 208b 753f 1384 903f 51d8 903f
00000020: d97a 803f bc2f 833f 831a 683f 1c42 6b3f
00000030: 9088 923f cf72 a13f 0d22 9d3f fa35 7f3f
00000040: e9c0 3c3f 3b8d 3f3f e94f 943f 6d3d a23f
00000050: 89e7 9c3f 9d0c a23f e643 8c3f b5e9 893f
00000060: 2818 863f a7dd 713f 6ca5 8d3f 02fc 853f
00000070: 1a10 9d3f e056 983f 6f51 a63f 0ee3 a33f
00000080: a41c 2e3f 7cca 2d3f ef50 8f3f 669b 773f
00000090: 70c6 6f3f db0e 913f 7a8f 903f 3b6d 8d3f
000000a0: 129d 833f 0e02 933f 7bbe 763f 4b68 803f
000000b0: 896a a33f 702b 8c3f 3e81 873f 8dd8 9b3f
000000c0: 64fa 5a3f 113a 763f d1c3 6e3f 0f3c 6d3f
000000d0: 3a10 723f b43c 5c3f 3234 7b3f d82a 823f
000000e0: 925d 7e3f 6fc1 733f 28b1 633f 879b 633f
000000f0: 7f35 6a3f 824a 763f 1238 623f
0.70169157 0.724016 1.0904928 1.1236773 1.2227443 0.9591541 1.1290306 1.1316015
1.003749 1.0248942 0.90665454 0.9189775 1.1447926 1.2613162 1.2276016 0.99691737
0.7373186 0.74824876 1.1586887 1.2674996 1.2258159 1.2660099 1.0958221 1.0774447
1.0476122 0.9447884 1.1066108 1.0467532 1.2270539 1.1901512 1.2993602 1.2803667
0.6801245 0.6788709 1.1196574 0.96721494 0.93662167 1.1332659 1.1293786 1.104896
1.0282309 1.1485002 0.963844 1.0031828 1.2766887 1.0950756 1.0586317 1.2175461
0.85538316 0.9618235 0.9326754 0.9266977 0.9455601 0.86030126 0.9812652 1.0169325
0.99361527 0.9521703 0.88942194 0.8890919 0.9148788 0.9620744 0.88366807

rnn.feature_norm.bias f4 [63]
00000000: 291a f63c aa8b 283d b432 c73a 3c11 963d
00000010: 5060 79bd 6f79 033d 5d04 1cbc ecd2 a73d
00000020: d9fa 553c 0995 da3c 7f33 16be f544 93be
00000030: 15a0 d53c f0e8 073d e66f a7bc 697c 283d
00000040: 7aff 88bd 7316 893d 54fc 1abe 2305 d4bd
00000050: a3d0 943d db5e 933d bad7 973d e232 0ebd
00000060: ef58 3bbd 8c00 2bbd 0385 813c ad2f 72bd
00000070: 3b9c 213d ff51 2f3d c51e 42bc f817 313d
00000080: ab66 d5ba b1fd 6d3d b2b9 0f3e c20c 18bd
00000090: feb1 7f3d 90fa 20bd fc86 15bd df5c 9c3d
000000a0: d148 5bbd e364 90bd c3cf f3bc 018d 33be
000000b0: 5c33 ea3a 173e be3d 0d95 c93d ebbc 673d
000000c0: af50 79bc a558 e7bb 317c 2ebd c6c2 c93b
000000d0: 8410 a0bd 5c9f 1abd dd68 18bd 5e9a a63b
000000e0: 99c0 f3bc 49e6 103d c8e1 f6bc db83 7abd
000000f0: 58c7 97bd 4ef7 253c 8e98 e63b
0.030041771 0.04114882 0.0015197606 0.07327506 -0.060882866 0.03209823 -0.009522525 0.08194527
0.013060295 0.026682394 -0.14668082 -0.28763548 0.02607731 0.03318113 -0.0204391 0.04113427
-0.06689353 0.06693735 -0.15135318 -0.10352542 0.07266357 0.071958266 0.074141935 -0.034716494
-0.04573911 -0.04174857 0.015810495 -0.0591275 0.039455634 0.042802807 -0.011848156 0.04323575
-0.0016281208 0.058103267 0.14035681 -0.03712154 0.062425606 -0.039301455 -0.036505684 0.07634901
-0.05353624 -0.070504926 -0.029762154 -0.17534257 0.001786809 0.092891864 0.09842882 0.05657665
-0.01521699 -0.007060128 -0.042598907 0.006157252 -0.0781565 -0.037749633 -0.03720938 0.00508432
-0.029754924 0.035375867 -0.030136958 -0.061160903 -0.07411069 0.010129763 0.007037229

rnn.mlp.fc1.0.weight f4 [64, 63]
00000000: 7b07 31be 8c30 893e 0645 44bc 981b 103f
00000010: 668b b7bc c005 5bbe 5583 aa3c f08d a3bd
00000020: 2a7d 7b3e 4009 9fbe b789 94bd 3138 b6be
00000030: 7327 6abe 8f03 a03e f545 abbb be81 a03d
00000040: c5f6 22bd 863d a2be 0928 30be c061 ff3e
00000050: 55d3 913d 1fbe d7be 2d61 95be e81a e6be
00000060: 9c90 dabc 46ae 9b3e 12c9 303d bce6 223f
00000070: 3326 89be 5a5f 443e b414 a83d d852 bcbc
00000080: d152 47be 93e2 c13e 04de a4bd 16a1 fc3e
00000090: 058d e03c affc 3ebe 3cd2 8e3e bdab 93be
000000a0: cab9 b63d dcbd 8ebd 0332 293d 8848 f9be
000000b0: 882c 17be 13a0 b73d 058e 90be 3293 40be
000000c0: 6ca8 8abd ab87 5dbe 4914 7dbd 0536 3c3d
000000d0: 874b 82be 3624 f3bd 4673 ebbd b8b6 e2bd
000000e0: bd99 aebe 7420 873d 6606 ff3d 20cd 19bd
000000f0: 9cd0 153e 196c a83e 06e4 3abe 7b42 953d
00000100: f4d7 abbe eefa cabd 2468 983e e61e 0ebe
00000110: a313 333d 5ac3 343e 2d21 61be 0ef0 98bc
00000120: caff 0b3f 16fa 913c 726f ef3e 6688 29be
00000130: b5c4 47be cfe0 eebe 29ef 933e eff2 5bbb
00000140: d33d c73e 4569 2ebe 90c1 513f 33a8 383e
00000150: 787b 87be 739a 973e 35c8 e8be c2b1 d73d
00000160: 7111 b0be a252 e03d 87db 913d 205d 4bbe
00000170: b4fd c13b 514f 2dbd 7144 893c c398 ac3c
00000180: 4c95 fa3e f8b2 f1bb f281 1d3f 2acb 0a3e
00000190: 798a 08bf 1516 97be ae80 3abe e88d 583e
000001a0: 14a7 09bf 2c6b 8c3c 9d15 2b3e 7d35 303e
000001b0: 8ad7 f13d cf27 f43d eda1 d1bd dfc9 313c
000001c0: 103b 3c3c f637 c4bd fea3 89be b87d 803e
000001d0: a03b 39bd b625 71bd c364 e3bd 48b9 233e
000001e0: 1a0a 80be f887 b8bc 1285 95bd 294b fe3c
000001f0: 7ca1 863e 7f3c 9fbe dd0f f2bc fd89 c03e
00000200: ce23 a2bd 236e a43e e93f c23d 0131 c13d
00000210: 4d10 373e e981 1fbe 0881 e33d 7ce7 c4be
00000220: 17e2 4b3e 7277 81be 5793 cf3d 4395 73bc
00000230: c01c 5bbd e945 b53d 34ee 1c3d 8190 cebe
00000240: 22d3 5e3d e5d1 743e b0c7 ab3e 2cb9 e13c
00000250: 1798 a9bd 7040 dabe 5227 073e e89f 2d3f
00000260: 3bf6 8dbe ed74 7d3e 1fdc 893e a28b 653e
00000270: 47f2 ee3d fcd9 703e 5709 593d a3e4 9f3d
00000280: 65ad b63c 5558 ca3e 2619 02bf b82b 143e
00000290: 17b0 fb3d 7155 94be 2320 afbd 0993 fe3c
000002a0: c629 5b3c f2a2 5cbe b18e 863d 9e88 93bd
000002b0: e51d 8f3e 935d 823a eefc c1be 8643 b0bd
000002c0: a048 9bbe 7e14 24bd 6f73 bdbe d6fc 88be
000002d0: 7d9b 1a3e 420a 4dbe 0e38 edbe 7c89 583e
000002e0: e27b adbd 9a1b e0bd 1453 cdbd 668c b2bd
000002f0: 18d9 79be 7efe 69be 8886 a6bc 6da5 64be
00000300: 69e5 463c 89d7 28be c3ba 94be 0bb4 7e3d
00000310: 0d68 603e 7791 183e 106a b2be 668e 23be
00000320: 74ac 913e 01ad f6be 7f88 20bf 74c0 0dbf
00000330: ba16 67be 62e9 8cbd 5eb7 87be 96e3 c83d
00000340: 6586 cfbd 1069 c4bd 2a71 e4bd 6236 733e
00000350: d009 0a3c 1a7f 123d 72a1 b6bc 5d54 e03d
00000360: 0173 70bd a0a8 98be e14c 9abe affb ccbd
00000370: a580 4bbe 1ece 5bbd 6326 b4bd 4eee ffbd
00000380: 6916 61be 2b8c db3d 4f48 b0be b42e 613d
00000390: 1682 c9be 2e38 c3bd 6012 e9bd 5b63 8cbd
000003a0: dced 8abd f884 eabe 45b2 c9be 5360 e0bd
000003b0: 1bfd 9abe d938 bf3d 94a0 333e 8450 603e
000003c0: 2a5d 953d d289 343e 9494 a63d 9dc9 7e3e
000003d0: 6438 f43b 2ae5 a5bc d1ed 713e 4d66 ea3d
000003e0: c7dc db3e 2e6d 733e 7d51 b53e 0ea6 803e
000003f0: ca3f a1be 8ea9 76bd 03e6 c03e 30dd 8f3e
-0.1728801 0.2679485 -0.011979347 0.56292105 -0.022405338 -0.21388912 0.020814577 -0.07986057
0.24559465 -0.31061745 -0.072528295 -0.35589746 -0.22866611 0.31252715 -0.0052268454 0.07837246
-0.03978612 -0.31687564 -0.17202772 0.49879265 0.071203865 -0.42137238 -0.29175702 -0.44942403
-0.026680283 0.30406398 0.043160506 0.6363332 -0.26786956 0.19176999 0.08207074 -0.022988722
-0.19465186 0.37868175 -0.080501586 0.4934165 0.027410993 -0.18651079 0.2789477 -0.28841963
0.08922155 -0.069698066 0.04130746 -0.4868815 -0.14763081 0.089660786 -0.28233352 -0.1880615
-0.06770405 -0.21633784 -0.061786924 0.045949955 -0.25448248 -0.11872141 -0.11496596 -0.11070007
-0.34101668 0.06597987 0.12452392 -0.037549138 0.1463036 0.32894972 -0.18251047 0.07288071
-0.33563197 -0.09911142 0.29766953 -0.13878974 0.0437199 0.17652646 -0.21985312 -0.018669154
0.5468718 0.017819446 0.46764714 -0.16555938 -0.19508632 -0.4665589 0.28893402 -0.0033561548
0.38914356 -0.17032345 0.8193598 0.18032913 -0.26461387 0.29610023 -0.45465246 0.105319515
-0.34388307 0.10953261 0.0712195 -0.19859743 0.0059201363 -0.04231197 0.016756268 0.021068936
0.4894203 -0.007376071 0.61526406 0.13554063 -0.5333629 -0.29509035 -0.1821315 0.21147883
-0.53770566 0.017140947 0.16707464 0.17207904 0.11808689 0.119216554 -0.10235963 0.0108513525
0.011488691 -0.09580986 -0.2688293 0.25095916 -0.04522288 -0.058873855 -0.11103203 0.15988648
-0.25007707 -0.022525772 -0.07300772 0.031041699 0.26295078 -0.31100842 -0.02954858 0.37605277
-0.079169855 0.32115278 0.09484846 0.09433175 0.17877312 -0.155769 0.11108595 -0.3845786
0.19910465 -0.25286442 0.10135525 -0.01486713 -0.053494215 0.08851225 0.038313106 -0.40344623
0.05440057 0.23908193 0.33550787 0.027554117 -0.08280962 -0.42627287 0.13198593 0.6782212
-0.2772692 0.24751635 0.26925752 0.22416547 0.116673045 0.23520654 0.052987423 0.07807281
0.022299478 0.39520517 -0.50819623 0.14469802 0.12289446 -0.28971437 -0.085510515 0.031075971
0.013376659 -0.21546534 0.06570185 -0.07203792 0.27952495 0.00099461 -0.37888283 -0.08606629
-0.30328846 -0.040058605 -0.3700213 -0.267554 0.15098377 -0.20023444 -0.4633183 0.21146196
-0.084708944 -0.109427646 -0.100256115 -0.08718185 -0.24399221 -0.22850987 -0.020327821 -0.2232873
0.012139657 -0.1648847 -0.29048738 0.06218342 0.21914692 0.1489924 -0.34846544 -0.1597229
0.28451884 -0.48178867 -0.62708277 -0.55371785 -0.22567263 -0.06880452 -0.26507086 0.098090336
-0.101330556 -0.095903516 -0.11154397 0.23751214 0.008425191 0.035765745 -0.02229378 0.10953591
-0.058703426 -0.2981615 -0.3013678 -0.10008942 -0.19873293 -0.053663366 -0.08796384 -0.12496625
-0.21981205 0.10720094 -0.34430167 0.05497618 -0.3935706 -0.095322 -0.11380458 -0.06854888
-0.06783649 -0.45804572 -0.3939382 -0.109558724 -0.3027123 0.09337015 0.17541724 0.21905714
0.0729316 0.176307 0.08133808 0.24881597 0.0074530113 -0.020250876 0.23625876 0.114452936
0.42941877 0.23772117 0.35413733 0.2512669 -0.3149398 -0.060220294 0.37675485 0.2809844

rnn.mlp.fc1.0.bias f4 [64]
00000000: cb2c 353d c596 533e bb98 e43b 4fb6 6fbd
00000010: 21a2 a23d 022a 6d3e 904d ab3d 0096 8b3e
00000020: 21f4 dbbd 2506 913d 3aa5 b1be 1056 83be
00000030: 82a1 793d c797 81bd 323c b63d 6e54 d23d
00000040: 5247 ed3d 74d3 b8bd 57ff 203e 9cc0 0c3e
00000050: 3386 50be 1a4a a33d 96b7 b4bc 88d8 3a3e
00000060: ccfd ba3d 59f5 46bd 9ba9 2a3e ccb0 5f3d
00000070: 3c6b 24be 983e 6dbd 532b 60bb 827b 573d
00000080: e5f5 d93b 00eb 1c3e 9408 183d 66f6 d6bd
00000090: 701a 943d 8768 c23d 5076 b83d 6085 c7bb
000000a0: ef80 42bd 4ac7 323e de53 82bd 3f82 ec3c
000000b0: 1e34 453c 370b 163e a525 003c 6fae 923d
000000c0: 5179 46bd 995b 84bd e8ba c33c ae05 743e
000000d0: e662 d83d a891 02bf 78f1 813d ba5a a5bd
000000e0: 6b7f c5bd c4eb ce3c fa0f 80be 4f99 23be
000000f0: fa0b 48be 3d41 ec3d 8ae0 59bd 1770 243e
0.04423217 0.20662983 0.0069762147 -0.058523472 0.0794108 0.23160556 0.08364403 0.27262878
-0.10739923 0.0708125 -0.3469637 -0.25651598 0.06094504 -0.06327777 0.088982 0.1027001
0.11585869 -0.090247065 0.15722404 0.1374535 -0.20363693 0.07973118 -0.022060197 0.18246663
0.09130439 -0.048573826 0.16666262 0.054611966 -0.16056532 -0.057921022 -0.003420551 0.05260802
0.0066516274 0.1532402 0.037117556 -0.104962155 0.07231605 0.09492593 0.09006941 -0.0060888976
-0.047486242 0.17458835 -0.06363653 0.0288707 0.0120363515 0.14652716 0.007821475 0.07162177
-0.04845554 -0.06462783 0.023892835 0.23830292 0.105657384 -0.51003504 0.06344885 -0.08073945
-0.09643444 0.025258906 -0.2501219 -0.15976451 -0.19535819 0.11535881 -0.053192653 0.16058384

rnn.mlp.fc1.2.weight f4 [64]
00000000: 809d 893f cdf7 8c3f 2bc9 513f 958d 053f
00000010: a543 943f c405 963f 5438 493f edfb 2c3f
00000020: 020d 6e3f dde4 863f c3c5 5b3f c118 7b3f
00000030: 5278 5a3f 1134 823f 4e57 6f3f d3ce 893f
00000040: c478 9c3f 6337 9c3f 6b79 8a3f a0de 9e3f
00000050: 57a1 793f 9131 983f 49a4 9b3f c06e 903f
00000060: 490a 423f 0c79 8e3f 5e4c 3a3f 9e65 5f3f
00000070: cc2b 743f a649 0c3f 49c2 393f 4453 483f
00000080: 71d8 7f3f 84ff 8e3f 5c06 8a3f 0049 6b3f
00000090: 589e 573f 4592 8f3f 0e1f 9d3f 149a 6d3f
000000a0: 4a76 5c3f dc87 5a3f f3b6 9b3f c7a8 373f
000000b0: 3019 363f ad3b 8c3f 3b36 703f 91c1 903f
000000c0: cb4a 803f c4f7 6d3f ca73 9a3f 96a5 663f
000000d0: 2f97 9a3f 7b47 463f a41a 913f a110 533f
000000e0: 4adf 6b3f e39f 973f 38b0 4b3f 6e7a 793f
000000f0: 0abe 693f 644e 3e3f 077d 683f 15ab 963f
1.075119 1.1013123 0.8194758 0.5216916 1.1583143 1.172051 0.78601575 0.6757191
0.929886 1.0538594 0.85848635 0.98084646 0.85339844 1.017214 0.9349259 1.0766243
1.2224355 1.2204403 1.0818304 1.241169 0.9751181 1.1890126 1.2159511 1.1283798
0.75796944 1.113069 0.7277278 0.8726443 0.9537933 0.5479988 0.7256208 0.78252053
0.9993964 1.1171727 1.0783191 0.91908264 0.8422599 1.1216513 1.2275102 0.9281323
0.86117995 0.85363555 1.2165207 0.7174191 0.71132183 1.0955712 0.9383275 1.1309072
1.0022825 0.92956185 1.2066586 0.90096414 1.2077388 0.7745282 1.1336255 0.8244725
0.9213759 1.1845669 0.79565763 0.9745244 0.913056 0.74338365 0.90815777 1.177096

rnn.mlp.fc1.2.bias f4 [64]
00000000: dbc0 e23d e2a3 453d 3d64 1b3e 3e67 ca3d
00000010: b5a4 963d 0880 163d e2fa 853d 0dc6 9c3e
00000020: 298c 42bd 8ce6 77bc 5c5e f33c d56c 95be
00000030: 15a6 093b d827 d7bd 04a4 cd3d 7e99 f93d
00000040: d05f 903c f566 dabd da72 e43c 4096 9cbd
00000050: cdd0 fbbd 18c9 55bd 2f94 28bd 53e8 7a3d
00000060: d2bc 443c 83c7 7abd 0fa4 293e b697 d03d
00000070: 5369 4d3d 907d 463d 98ec a63d e224 b83e
00000080: ad2a c53c 1b64 e93d f982 673d 89c5 863d
00000090: d26e d83d 5e63 043d 883b aabc 6ed0 563e
000000a0: 4cf9 393e 557e 913d 7850 30be 8013 923e
000000b0: 8567 353e b786 533d 1a24 4bbe b324 0dbd
000000c0: dd8a 9ebb 8fef 10be 83ba ae3b 5359 6e3d
000000d0: 8c37 04be 21e2 7dbd beef 09bd 87a3 1a3d
000000e0: f3e6 b9bd ae85 84bc 9743 803d 1739 943d
000000f0: a922 ffbb 024b 063e 26c4 cc3d a962 71bc
0.110719405 0.048251994 0.15174957 0.09882973 0.07355634 0.036743194 0.06541993 0.3061985
-0.04749695 -0.01513065 0.02970808 -0.29184595 0.0021003534 -0.105056465 0.10041049 0.121874794
0.017623812 -0.10664169 0.027886797 -0.076458454 -0.12295685 -0.05219373 -0.041156944 0.061256718
0.012007909 -0.061225425 0.1656649 0.101851866 0.050149273 0.04845959 0.081505954 0.3596564
0.024068201 0.11396047 0.05652139 0.065806456 0.10568012 0.032321326 -0.02078034 0.20977947
0.18161505 0.07104174 -0.17218196 0.28530502 0.17715271 0.051642146 -0.1983799 -0.034458827
-0.004838331 -0.14153884 0.0053322925 0.058190655 -0.12911814 -0.06198323 -0.0336759 0.037753608
-0.09077253 -0.016177025 0.06262892 0.072374515 -0.0077861142 0.1311455 0.0999835 -0.014732995

rnn.mlp.fc_h.0.weight f4 [64, 64]
00000000: f6e2 82bd 8cd6 703c ed34 163e 2169 923e
00000010: 381a 023e 5104 433d 567d 54be a230 ab3d
00000020: b4fd 23be a4d7 903e b4ed b03d 2998 35be
00000030: 5213 0bbe e96f a6bd e624 173d cd0c dfbd
00000040: 9f93 51be 1ece 83be e642 113e 8b64 91bd
00000050: a762 3abe b515 ac3e 55e5 f93c a276 193c
00000060: 0cbc 83be a439 48be 2020 40bd 57b6 73be
00000070: c3fe db3d acc1 103e e146 a8be de17 913d
00000080: dd9d 23bd ca31 73bd 06ae 16bc fffd acbc
00000090: a56e 903e 1f90 5a3e f769 173e 2b3a 0b3e
000000a0: 814f dc3d 3ecb 583e cd06 793c 60fe 2cbe
000000b0: 7087 903e ba35 863d c558 a7bd 69bb b439
000000c0: 8cb6 af3c 7f70 5e3e fc3a c03d b3e7 dabd
000000d0: 75f2 663e 18d6 293e 65ac f53d 1005 773e
000000e0: 2333 48bd 9bd6 f5be 56fb 57be 7e28 953e
000000f0: 8c30 a6bd bd8d 95bd 5516 31be 3c6b 933e
00000100: 5695 0fbe b46a 403d dfa6 783e 1133 e3bb
00000110: a42a 953e 257b 42be 25d0 683e b69c bf3d
00000120: 2052 f7bd 8827 1dbd 54ff b9be ce3f 593d
00000130: 156e 6dbe af9d 043e deef 893e aede 1f3c
00000140: a676 87bd d405 ed3c 25e1 06be 9c7b 9fbb
00000150: 08f9 c03b 5a46 8ebc 90bd bdbd ce6e 22be
00000160: db8f 41bd 6a7a 9c3e a144 0d3e 6821 053e
00000170: 8eee 0f3d 7e46 7c3d 9210 fc3d 082e 95bd
00000180: 22e3 31bf 201e 3cbc 900d 8c3d 576d 98be
00000190: 2ab8 d73c 633a bdbd e405 013e 2e6b d6bd
000001a0: 0389 f33d af12 5fbe 63d6 c0bc 4530 a3bd
000001b0: 9874 17be 8683 163e 893d a1be 936c 9bbd
000001c0: afb1 03be 5fb6 98be 50fb c2bd 6f3f 223e
000001d0: c0f5 423d 5029 133e 2e2f febc 72fa 133e
000001e0: 0d0b 87be 007f 88be 9740 9d3d 1ede bebb
000001f0: 11a3 18be 2827 5bbe 1d07 1e3d 6686 54bc
00000200: 9921 1fbe 92b3 823d 7381 4ebe d11d 2ebe
00000210: 9827 c93e a63e db3d e9c6 173e 63bb c3be
00000220: ae25 393e 2c75 2abe cd0f 933d 9e05 113e
00000230: c21e c83c 1e3e 873e 1287 0fbc d968 583e
00000240: 9f46 0bbe 7d87 85be 41c8 2cbd 504a 74be
00000250: f587 c9bd 9b31 073e 9cc4 37be 53b4 72be
00000260: a396 05be b1be da3c 1a59 653d 7f40 aabd
00000270: d6cc 9abe 80a2 cbbe e8ed 0ebd 15b7 673c
00000280: 60c9 24be c86f be3d 4154 5dbe 8f2f 843d
00000290: 897b 90bd f29a 393d 315f 86bd 9ae1 79be
000002a0: ec16 86be 4859 01be 3aef d93b 67e9 273e
000002b0: b415 c03e d9f7 843e 2dbe 483e 6731 2c3e
000002c0: a04d 81be b5d4 923e acbf c13d b5da 623c
000002d0: 2805 453d e805 de3d a7a3 263e c5ec ccbd
000002e0: 8dc1 aa3c 05d6 09bd 34ba a6bd 375e 2e3e
000002f0: a1c1 ac3d 758c 4f3c 1a1f 373e fe32 67bd
00000300: 2146 ab3c 5c40 f93c 6763 37bd 2136 8abe
00000310: 2240 133c 2f67 c2be abf6 5cbe 7dfb 3a3e
00000320: e3a8 c6bd 7882 1a3e 997c 82be c660 5f3d
00000330: 4626 66be 0203 4f3d e928 29be a799 723d
00000340: 0ab9 ab3c e002 a63c 72e4 88bd 0204 a53e
00000350: 83df aabe cd34 1cbe a5e8 fabd f350 cd3d
00000360: a3f0 83be a4de 97bc ef37 b4bd 1664 3ebe
00000370: cea4 37be 669b 603c 063d 3abe 9138 c0bc
00000380: e3a1 eabd fb34 bd3c f851 49bd e9b0 d43d
00000390: c858 02be 7ca6 a0bc 70a2 6bbe 1ea3 873e
000003a0: 42be 0bbd f6c9 f7bd 8dbd 243e 6f84 a63e
000003b0: 13e7 063e 1719 fcbc 4417 533e 4bc7 ad3c
000003c0: 2eb8 373e 1141 a4be 7bb1 abbb d43a d2bc
000003d0: 2f88 353e 54ff 6dbe e1ba 253e f3a8 65be
000003e0: a9f7 0dbe 07eb e83d a730 b1be 0f3f 2f3e
000003f0: 38b3 5a3e 6bbe a4be 13b1 59be 55b4 1bbe
-0.063909456 0.014699589 0.14668627 0.28595832 0.12705314 0.04761154 -0.20750937 0.08358885
-0.16014749 0.2828952 0.08639088 -0.17733826 -0.13581589 -0.08126814 0.036900423 -0.108911134
-0.20466469 -0.25743192 0.14185676 -0.07099255 -0.18201695 0.3361031 0.030504862 0.009366663
-0.25729406 -0.19553238 -0.046905637 -0.23800026 0.10741951 0.1413638 -0.32866576 0.070846304
-0.039945472 -0.059373654 -0.009196764 -0.021117209 0.28209415 0.2134404 0.14786516 0.13596408
0.10757352 0.2117128 0.015199375 -0.16893911 0.2822833 0.06553216 -0.08171228 0.00034471907
0.02144935 0.21722601 0.093862504 -0.10688724 0.22553428 0.16585577 0.11995772 0.24123025
-0.048876893 -0.48015293 -0.21091971 0.29132456 -0.08114728 -0.07302425 -0.17293675 0.2879275
-0.14021811 0.04697676 0.24282406 -0.006933578 0.29134095 -0.18992288 0.22735651 0.09356062
-0.12076211 -0.038367778 -0.36327612 0.053039365 -0.23186524 0.12950777 0.26940817 0.009757681
-0.06614427 0.028933443 -0.13171823 -0.0048670303 0.005889062 -0.01736753 -0.09264672 -0.15862581
-0.047256332 0.30562145 0.13795711 0.13001025 0.035139613 0.061590664 0.12307848 -0.072841704
-0.694872 -0.011481792 0.06838524 -0.2977092 0.026332933 -0.09239652 0.12599903 -0.10469662
0.11891367 -0.21784471 -0.023539728 -0.07968191 -0.1479057 0.1469861 -0.3149226 -0.07589068
-0.1286075 -0.29826638 -0.0952059 0.1584451 0.047597647 0.14371228 -0.031028356 0.14451006
-0.2637562 -0.26659393 0.07678335 -0.0058248183 -0.14905955 -0.21401656 0.038581003 -0.012971496
-0.1554016 0.063819066 -0.20166568 -0.17003562 0.3928802 0.107053086 0.14821972 -0.38228902
0.1808078 -0.1664626 0.07180748 0.14162299 0.024428729 0.2641458 -0.008760231 0.21133746
-0.13601159 -0.26079932 -0.042183165 -0.23856473 -0.09840385 0.13202517 -0.17946094 -0.237016
-0.13045745 0.026702257 0.055993177 -0.08313083 -0.30234402 -0.39772415 -0.034894854 0.014142771
-0.16092443 0.09298664 -0.21614172 0.064543836 -0.070548125 0.045313783 -0.06561125 -0.24402466
-0.26189363 -0.12631714 0.0066508325 0.1639763 0.37516558 0.25970343 0.19603796 0.1681572
-0.25254536 0.28677908 0.09460387 0.013846089 0.04810062 0.1084097 0.16273366 -0.10006098
0.020844245 -0.03365137 -0.08140984 0.17028128 0.08435369 0.012667765 0.17882958 -0.056445114
0.020907464 0.030426197 -0.04477253 -0.26994422 0.008987458 -0.37969348 -0.21578471 0.18259998
-0.09700181 0.15088832 -0.25485685 0.05453565 -0.22475538 0.050539978 -0.16519512 0.059228566
0.020962257 0.020265043 -0.066841975 0.3222962 -0.3337365 -0.15254517 -0.12251405 0.100252055
-0.2576953 -0.01853878 -0.08799731 -0.18592867 -0.17933962 0.013708925 -0.18187341 -0.023464473
-0.11456659 0.023096552 -0.049150437 0.103853054 -0.1272918 -0.019610636 -0.23011184 0.26491636
-0.03411699 -0.12099068 0.16087933 0.32522914 0.13174085 -0.030773683 0.20614344 0.021213194
0.17941353 -0.32080892 -0.005239663 -0.025662817 0.17727731 -0.23241931 0.1618457 -0.2242773
-0.13864006 0.11372953 -0.3460743 0.17113899 0.21357429 -0.32176527 -0.21258955 -0.1520551

rnn.mlp.fc_h.0.bias f4 [64]
00000000: 0000 0000 0000 0000 0000 0000 0000 0000
00000010: 0000 0000 0000 0000 0000 0000 0000 0000
00000020: 0000 0000 0000 0000 0000 0000 0000 0000
00000030: 0000 0000 0000 0000 0000 0000 0000 0000
00000040: 0000 0000 0000 0000 0000 0000 0000 0000
00000050: 0000 0000 0000 0000 0000 0000 0000 0000
00000060: 0000 0000 0000 0000 0000 0000 0000 0000
00000070: 0000 0000 0000 0000 0000 0000 0000 0000
00000080: 0000 0000 0000 0000 0000 0000 0000 0000
00000090: 0000 0000 0000 0000 0000 0000 0000 0000
000000a0: 0000 0000 0000 0000 0000 0000 0000 0000
000000b0: 0000 0000 0000 0000 0000 0000 0000 0000
000000c0: 0000 0000 0000 0000 0000 0000 0000 0000
000000d0: 0000 0000 0000 0000 0000 0000 0000 0000
000000e0: 0000 0000 0000 0000 0000 0000 0000 0000
000000f0: 0000 0000 0000 0000 0000 0000 0000 0000
0.0 0.0 0.0 0.0 0.0 0.0 0.0 0.0
0.0 0.0 0.0 0.0 0.0 0.0 0.0 0.0
0.0 0.0 0.0 0.0 0.0 0.0 0.0 0.0
0.0 0.0 0.0 0.0 0.0 0.0 0.0 0.0
0.0 0.0 0.0 0.0 0.0 0.0 0.0 0.0
0.0 0.0 0.0 0.0 0.0 0.0 0.0 0.0
0.0 0.0 0.0 0.0 0.0 0.0 0.0 0.0
0.0 0.0 0.0 0.0 0.0 0.0 0.0 0.0

rnn.mlp.fc_h.2.weight f4 [64]
00000000: 0000 803f 0000 803f 0000 803f 0000 803f
00000010: 0000 803f 0000 803f 0000 803f 0000 803f
00000020: 0000 803f 0000 803f 0000 803f 0000 803f
00000030: 0000 803f 0000 803f 0000 803f 0000 803f
00000040: 0000 803f 0000 803f 0000 803f 0000 803f
00000050: 0000 803f 0000 803f 0000 803f 0000 803f
00000060: 0000 803f 0000 803f 0000 803f 0000 803f
00000070: 0000 803f 0000 803f 0000 803f 0000 803f
00000080: 0000 803f 0000 803f 0000 803f 0000 803f
00000090: 0000 803f 0000 803f 0000 803f 0000 803f
000000a0: 0000 803f 0000 803f 0000 803f 0000 803f
000000b0: 0000 803f 0000 803f 0000 803f 0000 803f
000000c0: 0000 803f 0000 803f 0000 803f 0000 803f
000000d0: 0000 803f 0000 803f 0000 803f 0000 803f
000000e0: 0000 803f 0000 803f 0000 803f 0000 803f
000000f0: 0000 803f 0000 803f 0000 803f 0000 803f
1.0 1.0 1.0 1.0 1.0 1.0 1.0 1.0
1.0 1.0 1.0 1.0 1.0 1.0 1.0 1.0
1.0 1.0 1.0 1.0 1.0 1.0 1.0 1.0
1.0 1.0 1.0 1.0 1.0 1.0 1.0 1.0
1.0 1.0 1.0 1.0 1.0 1.0 1.0 1.0
1.0 1.0 1.0 1.0 1.0 1.0 1.0 1.0
1.0 1.0 1.0 1.0 1.0 1.0 1.0 1.0
1.0 1.0 1.0 1.0 1.0 1.0 1.0 1.0

rnn.mlp.fc_h.2.bias f4 [64]
00000000: 0000 0000 0000 0000 0000 0000 0000 0000
00000010: 0000 0000 0000 0000 0000 0000 0000 0000
00000020: 0000 0000 0000 0000 0000 0000 0000 0000
00000030: 0000 0000 0000 0000 0000 0000 0000 0000
00000040: 0000 0000 0000 0000 0000 0000 0000 0000
00000050: 0000 0000 0000 0000 0000 0000 0000 0000
00000060: 0000 0000 0000 0000 0000 0000 0000 0000
00000070: 0000 0000 0000 0000 0000 0000 0000 0000
00000080: 0000 0000 0000 0000 0000 0000 0000 0000
00000090: 0000 0000 0000 0000 0000 0000 0000 0000
000000a0: 0000 0000 0000 0000 0000 0000 0000 0000
000000b0: 0000 0000 0000 0000 0000 0000 0000 0000
000000c0: 0000 0000 0000 0000 0000 0000 0000 0000
000000d0: 0000 0000 0000 0000 0000 0000 0000 0000
000000e0: 0000 0000 0000 0000 0000 0000 0000 0000
000000f0: 0000 0000 0000 0000 0000 0000 0000 0000
0.0 0.0 0.0 0.0 0.0 0.0 0.0 0.0
0.0 0.0 0.0 0.0 0.0 0.0 0.0 0.0
0.0 0.0 0.0 0.0 0.0 0.0 0.0 0.0
0.0 0.0 0.0 0.0 0.0 0.0 0.0 0.0
0.0 0.0 0.0 0.0 0.0 0.0 0.0 0.0
0.0 0.0 0.0 0.0 0.0 0.0 0.0 0.0
0.0 0.0 0.0 0.0 0.0 0.0 0.0 0.0
0.0 0.0 0.0 0.0 0.0 0.0 0.0 0.0

rnn.mlp.fc2.0.0.weight f4 [64, 64]
00000000: 4b0c 94be 0f60 9c3e 57c0 b33e 392d 043e
00000010: cac2 923d 8184 713e bee2 b7bd 335d a1bd
00000020: 0a79 97be b47e fa3d ae0d 733e c787 d0be
00000030: 3baa ccbc dd9a 553d 1855 ecbd 09b5 60be
00000040: 2e21 14bf 94e0 8bbe 0e4d be3e 21c3 b93e
00000050: 3c30 3ebe 2a48 d53e 9c34 2abe 0589 21be
00000060: e657 76be 15c7 ca3d 24e6 4dbd 5ce4 97be
00000070: c466 27bc 6adb 303d 7f8e 763d e31f abbc
00000080: 18ec 9dbe df08 e2be f0da 35be 3f52 15be
00000090: 6f0e 893e 6b75 b73e 5da7 c63e a869 ca3e
000000a0: d236 a83d 50c4 953e c137 ef3c 8a59 943d
000000b0: 7394 273e 5ac3 65bd 8e16 9bbe 2266 fc3d
000000c0: 2990 123e 09c9 153e c5c1 033e 0094 74be
000000d0: 7f4b e23e 0926 373e 25bc 783b 3660 8c3d
000000e0: c880 52be 66f7 edbc 7943 ccbe 216c d63e
000000f0: 6b7b 60be 65b2 07bd 3efd 113d 78bc 4fbd
00000100: 1fb9 87be 0a21 8f3e bcc5 873e f53c 25be
00000110: a1cb 8a3e 22f5 b4be b3d2 7cbd fdb3 903e
00000120: e1ef 51be 248a 34be d542 9fbe e83f be3e
00000130: a18b 81be f420 1d3e 9c98 423e 4c97 793e
00000140: da20 f73d 881c a13d 78d6 adbd 757e 313e
00000150: cd2b f7be 5392 17be 9302 22be 0375 0cbe
00000160: cb13 f33d dfe7 d13e a53c 743d 7077 d93e
00000170: 611e 283e abef 213d e333 92bd 4b89 bf3c
00000180: 775f 34bf 4e65 723e 94e3 95bd ac13 ed3d
00000190: 2ada 43be 1077 5fbd b411 f03d 3ce2 0dbe
000001a0: 307d b93e 8dd3 28be bdd0 eebb 4641 d2be
000001b0: e27f 8dbe 1d99 f73c b042 33be 73c0 e2be
000001c0: 2c05 26be 05e4 d1be 8936 d7bd c107 323e
000001d0: 174f 353d 6c16 b63d 6503 913d aa3c 83be
000001e0: 45ff 42be 3ac8 533e 381d 31bc 8356 16be
000001f0: 4345 033e e2ca 8dbe 1c3f dfbd 3ac5 34bd
00000200: 5095 9dbf 2cff f13d 7523 6cbe d603 0f3d
00000210: a6fd 163f b241 a93d b01f d4bd e043 e1bd
00000220: 3f90 ebbd 8284 2f3e 426f 593d def5 cf3e
00000230: bc6c 1a3e 2d7a a43e 40a3 d63e 8532 233b
00000240: 7f95 12be 49cc 15be 7cbc 17be e6d5 95bd
00000250: 7099 a93d 030a 373e 4d2a 033e c391 68bf
00000260: d97b 6a3d ae05 703e 94f5 2f3e c6cc 0bbe
00000270: 8a16 76be d47f 5cbd be67 2fbe 62a5 623d
00000280: 9e5e 2ebe 9299 bd3d f922 17bf 3f4d 3a3e
00000290: a314 753e c1e9 72be f6b0 463e 1852 1f3e
000002a0: 0109 78bd bf7e 3ebe bb16 b1bc 0498 b13e
000002b0: 6821 b03e edaf 09bd f295 8a3e 568d bebc
000002c0: d4f6 6cbe bea0 833e 6d16 443e 3dc3 ca3d
000002d0: 5918 0fbe 554f 06be b07c 0f3e 1a24 5abe
000002e0: 0889 cebe 5bf4 f7bd a908 42bd 9d3e d73d
000002f0: 062a 7dbd 9557 343d 73b2 9abc 782c d33d
00000300: 80bf 953d db0d debb c4d9 bd3c 811e 8dbd
00000310: 71b7 86bd 3d1b e3be 0a82 1dbe 5a90 143e
00000320: fa62 43be a3a8 cd3d adb7 dfbe 8e9b 143e
00000330: 76a1 16bf 9896 7dbd f728 e1bd ce97 d33d
00000340: 543b c93d 6217 8b3e c523 d3be 0f4d 9d3e
00000350: 540d 1ebf 7c0b 333e cb75 87be c945 9f3d
00000360: cefa e1be 87c4 5abd 0af6 24bf c8e5 fabd
00000370: 867c 7cbe 0911 23bd 97cd 403c 8fa4 8ebe
00000380: 8811 3abe 8f18 943d 0478 e83c 8086 38be
00000390: cbc2 d9be 7a77 993d 8e2a e63c bb6c c73e
000003a0: 212c 563e 7dd0 58be fba9 783e 13bc 333e
000003b0: 9f53 7e3e e72f 2b3d 437b d13e 1f09 1e3e
000003c0: 7e55 d03d 58f3 11be 9c4f 30bd b341 d6bd
000003d0: 696a 163d 086b 39be 7a2e 083e 602c 32be
000003e0: b30a 833e e331 6b3c 3917 03bd 4913 6b3d
000003f0: 991f b63e e1ac fbbe 8dda 9cbe 6f3a 6d3d
-0.2891563 0.30542037 0.3510768 0.12907876 0.07166059 0.23585702 -0.089787945 -0.078791045
-0.29584533 0.12231198 0.23735687 -0.4072859 -0.024983516 0.052149642 -0.11539668 -0.2194406
-0.5786313 -0.27319777 0.37168163 0.36281684 -0.18573087 0.4165662 -0.16621631 -0.15774925
-0.24056968 0.09901253 -0.050268307 -0.29666412 -0.010217372 0.043178 0.06019449 -0.020889228
-0.30844188 -0.44147393 -0.177593 -0.14582156 0.26768824 0.3583177 0.38799563 0.39533734
0.08213581 0.29251337 0.02920139 0.07243641 0.16365223 -0.056094505 -0.30290645 0.12324168
0.14312805 0.1462747 0.12866886 -0.23884583 0.44198224 0.17885603 0.003795394 0.06854288
-0.20556939 -0.029048633 -0.39895228 0.4187937 -0.2192208 -0.033129115 0.0356419 -0.050716847
-0.26508424 0.27954894 0.26518047 -0.16136535 0.27108482 -0.35343271 -0.061724376 0.2826232
-0.20501663 -0.17630821 -0.31105676 0.37158132 -0.2530184 0.15344602 0.19003528 0.24374121
0.12066813 0.0786677 -0.08488172 0.17333396 -0.48275605 -0.14801912 -0.15821294 -0.13716511
0.118690096 0.40997216 0.059628148 0.42473936 0.16417839 0.039535206 -0.07138803 0.023380896
-0.7045817 0.23671457 -0.07318798 0.11576018 -0.19126192 -0.054556906 0.117221266 -0.13855833
0.36228323 -0.1648695 -0.007288067 -0.41065425 -0.2763663 0.030224377 -0.17505908 -0.44287452
-0.1621291 -0.40994278 -0.10508449 0.1738577 0.04426488 0.088909954 0.070807256 -0.2563222
-0.1904269 0.20681849 -0.010810189 -0.14681439 0.1281939 -0.2769385 -0.10900709 -0.044133402
-1.2311192 0.11816248 -0.23060401 0.034915768 0.58980787 0.082644835 -0.103576064 -0.10999274
-0.11502122 0.17140391 0.05308462 0.4061727 0.15080541 0.32124463 0.41921425 0.0024901938
-0.1431484 -0.1462871 -0.14817995 -0.073161885 0.08281219 0.17874913 0.12809105 -0.90847415
0.057247017 0.23439667 0.17183524 -0.13652334 -0.24032035 -0.053832844 -0.17129418 0.055333503
-0.17028281 0.09257807 -0.5903774 0.1819353 0.23933654 -0.23721983 0.19403443 0.1555866
-0.06055546 -0.18603037 -0.021617284 0.3468629 0.34400487 -0.03361504 0.27067524 -0.023260754
-0.23141032 0.25708574 0.1914918 0.0990052 -0.13974132 -0.131162 0.14012408 -0.21302834
-0.40338922 -0.12107154 -0.04737154 0.105099894 -0.061807655 0.044028837 -0.01888392 0.10311216
0.07311916 -0.006776554 0.023175128 -0.06890584 -0.065779574 -0.4435672 -0.15381637 0.14508191
-0.19080725 0.100419305 -0.4369482 0.14512464 -0.5884012 -0.061911196 -0.109941415 0.10331689
0.09825769 0.27166277 -0.41238227 0.30722854 -0.6173909 0.1748485 -0.26457056 0.07776982
-0.4413666 -0.05341008 -0.64437926 -0.122508585 -0.24656877 -0.039811168 0.011767766 -0.27859923
-0.1817075 0.07231247 0.02837754 -0.18020058 -0.42531428 0.074934915 0.028096464 0.38950142
0.20915271 -0.21173282 0.24283592 0.17552213 0.24836586 0.04179373 0.40914354 0.15433167
0.10172556 -0.14252985 -0.04304467 -0.1046175 0.036722574 -0.18107235 0.1329898 -0.1739974
0.255941 0.014355156 -0.03200457 0.05739144 0.35570982 -0.49155334 -0.3063549 0.057917055

rnn.mlp.fc2.0.0.bias f4 [64]
00000000: 53fe 883e fc27 963d 305d 35bd 45f1 e9bd
00000010: 1678 883d e898 d2bd 899a 323d f2b5 dabd
00000020: 0692 f13d d2d2 7bbe 7da5 a5be 5b74 76be
00000030: 29b4 853e ca93 4abe 7cf7 923d 995e d03b
00000040: b070 dbbe ce70 4fbd 6b47 2d3e 89d2 813b
00000050: 446c c8be 4723 97bc 05f6 b83e fb87 273d
00000060: c9f3 b1bc a926 05bf b2bc dabd 57ae 26be
00000070: e2ce 1abd cb88 8b3c 28cb b7be 01a1 97bd
00000080: d882 abbd 5e5a d5bc 7315 9fbe 9384 9d3d
00000090: 4670 35bc 7fa5 a7bd 73cc 20bd 2d4b c63b
000000a0: e357 cb3d 603a 7fbe 21c7 9e3e aaf8 c6bd
000000b0: 0e35 89be 95a3 81be ab23 04be 2925 ca3d
000000c0: 8d54 24bc 18d2 273e 9f75 91be b90a 31be
000000d0: 9ffd edbe c3a8 e6bd c029 cebd b62c 86bd
000000e0: 5873 09bd bbf4 0cbe e1b7 15be bc77 0bbd
000000f0: 3a43 53bd 30ad f2bd f2f3 903d 77b9 45be
0.26756534 0.07331845 -0.044278324 -0.11422972 0.066635296 -0.10283071 0.043604407 -0.106792346
0.1179543 -0.2459214 -0.3235282 -0.24067824 0.26114014 -0.1978294 0.0717611 0.006358933
-0.4285941 -0.05064469 0.16921775 0.0039618653 -0.391451 -0.018449439 0.36125198 0.040901165
-0.021722691 -0.52012116 -0.10680522 -0.16277443 -0.037794955 0.017033001 -0.35897183 -0.07403756
-0.08374566 -0.026044067 -0.31071052 0.07691302 -0.011074131 -0.08185863 -0.039257478 0.006051442
0.099288724 -0.24924612 0.31011298 -0.09715398 -0.2679829 -0.25320116 -0.12904231 0.09870369
-0.010029924 0.16388738 -0.2841005 -0.17289247 -0.4648256 -0.112626575 -0.10066557 -0.06551497
-0.033557266 -0.13765232 -0.14620925 -0.034049734 -0.051577784 -0.11849439 0.07077779 -0.1930903

rnn.mlp.fc2.0.2.weight f4 [64]
00000000: 618e 5f3f cf9a 543f f5b1 8a3f f557 673f
00000010: 9915 493f 6b99 523f ecc7 953f dac1 9e3f
00000020: 9307 553f e802 3d3f 670f 893f 2d37 853f
00000030: 90c0 5b3f 64fb 5b3f 5672 353f 1a31 8b3f
00000040: 25f2 a83f 20ea 8f3f 395d 573f ff29 483f
00000050: 53c0 3b3f e86f 8c3f 5592 863f c1c2 603f
00000060: 055c 623f e8a1 643f 9326 6a3f 3771 8b3f
00000070: 377c 7c3f 7171 5a3f ae2b 8d3f 3880 af3f
00000080: b341 483f 4506 353f e636 8a3f 318b 5f3f
00000090: 0911 993f 3c4c 4c3f 53d1 b63f 0696 0d3f
000000a0: de58 7c3f 0539 873f e0b2 473f 96ab 543f
000000b0: 25ec b73f a45d 723f 4689 a63f 769d 3f3f
000000c0: 5b75 813f 956b 743f 9ce3 9d3f 2afb b43f
000000d0: f536 9a3f 37f7 563f 8815 923f 0227 b43f
000000e0: 1268 5b3f 55df 6b3f 087c 583f 1a34 813f
000000f0: b72b 713f 6517 6f3f c790 4c3f efca 913f
0.8732663 0.8304872 1.0835558 0.90368587 0.7854858 0.8226535 1.1701636 1.2402909
0.8321468 0.7383256 1.0707825 1.0407463 0.858407 0.85930467 0.7087759 1.087436
1.3198897 1.1243324 0.8412662 0.7818908 0.7334034 1.0971651 1.0513407 0.8779717
0.8842166 0.8930955 0.9146511 1.0893925 0.98627037 0.8532935 1.1028955 1.3711004
0.7822525 0.7071269 1.0798004 0.87321764 1.1958324 0.79803824 1.4282631 0.5530704
0.985731 1.0564276 0.78007317 0.8307432 1.436894 0.94674134 1.3010643 0.7484964
1.0113939 0.9547666 1.2335086 1.4139149 1.2048022 0.8397097 1.1412821 1.4074404
0.85705674 0.9213765 0.84564257 1.0094025 0.9420733 0.9339507 0.7990841 1.1390055

rnn.mlp.fc2.0.2.bias f4 [64]
00000000: 6fa6 b53e 5a75 b13d e8e5 a63e 53a3 2e3e
00000010: c688 3dbc e041 613e cca6 223e 79bf ad3c
00000020: cb81 b33e be8e d3bb ea94 ff3d ea35 f0bc
00000030: 24b2 e3bd 2216 813d 0dc0 1a3e b6ac de3d
00000040: bbd6 8a3e 0333 1e3e 126d 123e 5b26 143e
00000050: 597f aebe ab9f a33e ccb3 963e 7c44 07be
00000060: 5929 ca3e 8816 9fbd c072 2a3e 6ef5 82bd
00000070: 5622 853e 1444 6c3e cd32 133d 7406 0a3d
00000080: 781f 803e f688 c53e 8bbc 013d 8adf 2b3e
00000090: 2a00 863e 4feb 7b3e c2d9 1fbe a75f d6bc
000000a0: d488 303e b895 a7be 6026 21be 550d c63e
000000b0: 96a3 953e 1e5d a53e d744 0cbe 5cf5 a13c
000000c0: 610a b8bc a35a 293f 3779 1fbe 3a7a 883e
000000d0: 1a16 b6bb a661 633e b71d c43e 06ba 71bb
000000e0: fe02 233e 8d24 1d3e 07c0 b0bd 779d 843e
000000f0: a4b2 7abc 39b3 ae3e 3a30 ec3e 229f 99be
0.3547854 0.08664961 0.3259728 0.17054491 -0.011568254 0.21997786 0.1588394 0.021209465
0.35059962 -0.006456225 0.12479575 -0.029322583 -0.11117962 0.063030496 0.15112324 0.10872786
0.2711695 0.15449147 0.1429942 0.14467756 -0.34081534 0.31957754 0.2943405 -0.13209718
0.3948467 -0.07767969 0.16645336 -0.06394468 0.2600276 0.23072845 0.03593712 0.03369756
0.2502401 0.38581055 0.03167395 0.16784492 0.26172 0.24601482 -0.15610412 -0.026168657
0.17239696 -0.32731414 -0.15737295 0.38682047 0.2922637 0.32297605 -0.13698135 0.019770317
-0.022465887 0.66153926 -0.15573584 0.2665575 -0.005556834 0.22205219 0.3830392 -0.003688456
0.1591911 0.15345974 -0.08630376 0.25901386 -0.01530138 0.3412111 0.46130544 -0.3000422

rnn.rnn.rnn.weight_ih_l0 f4 [192, 64]
00000000: fc7a 513d 8df8 4a3e 5c36 31bf 545c 54bd
00000010: ebea eebb 1670 623f be54 e53e 66f7 06bf
00000020: d4c6 45be 2694 25bd 34c3 83be 0b0c b2be
00000030: d5b2 31be ba2f 0d3f 01f7 b63c 65aa 24be
00000040: da43 9b3e 4abd 5bbe a7f3 ee3d 0893 26bd
00000050: d0f7 60be 0627 d93c 8c3a d9be 1a00 8dbd
00000060: 30a2 133f 3c66 85be 8c2d 323e cb12 183d
00000070: f7f2 173e 1af1 143e c645 d2bd 0447 c73e
00000080: 39ca b4be b630 203c 4238 fb3d eef5 743f
00000090: 8980 2e3f e956 93be ef2d 5ebe 9ce6 c6bc
000000a0: 0629 403e af04 1dbe e4b4 aa3e 2037 6e3e
000000b0: e7f0 c73e 9678 873e 4c7b 5a3b 01a2 b43c
000000c0: 29c9 3c3f 5de6 94be 1e7c 3abe 5317 b43e
000000d0: d970 2ebf 8d9d b6bd 46fa 203b a1ff c6be
000000e0: 858e e0bb 3eba 20be 5d86 36bd 9da2 a43e
000000f0: 2acb c13d c031 98be b086 073d eac7 7dbd
00000100: 0b4b f7bd 9f3a f83d 9aaa efbe 7021 1e3e
00000110: 7893 7bbd 5fb3 84be 2cf1 2abf 56ac d63e
00000120: 5a7a 263f c67e 553e 692e 15bf 766b 22bd
00000130: b9f7 37bf a063 75be 22a6 cd3e a611 9bbe
00000140: 1a26 94be 49a9 c03e 4ab1 b53e b3e9 0bbf
00000150: 40ac 713e c539 1cbf d08a 3cbe b4ae bdbe
00000160: b2a6 2abf 0432 913e d980 92be 1324 9b3e
00000170: 7931 f4bd 0e62 5cbe b761 153e b622 ff3d
00000180: c035 6e3e 4d88 f0bd 6154 00bd b89e 2abe
00000190: a6b7 5abe b9fe bb3e ed2f 3abc 6a5d 17bf
000001a0: e7fd 673e 26d0 8e3e ec88 ebbd f8b0 8f3e
000001b0: 114d 143f 36a6 0dba 3415 473d 2e5d b1bd
000001c0: 6f50 02be 97bd 043e 9aa7 cf3e 9b1a 683e
000001d0: 1186 ae3e 64f8 213f 4c05 4dbe 86b5 ec3d
000001e0: 5b5a 293e e488 cc3e ac29 40bd ad52 b33e
000001f0: 70f1 f43e a464 b83d 9887 043d 8a36 923b
00000200: 1fe5 72bd 4c0f 113e 9fe4 6bbe f704 ff3c
00000210: 03b1 2e3e 5064 91bd 99c4 01bd 03aa 5cbd
00000220: e134 343e 5a15 063f 1b1e 44bd 1793 1d3e
00000230: 64da 5ebe 92e6 ad3d 2d5b a5be 7194 52be
00000240: 5773 c53e c6ba 8dbe 4890 60bd 3840 60bf
00000250: ea14 08be 9165 27be a679 0f3e 76c2 91be
00000260: cc8c 8d3e 4616 b03e a5de 7c3d ce0f f23d
00000270: c198 62be bf0e bdbc e227 c93e d5f4 223e
00000280: b0fe 593e 234e 253f deb3 c2be 4e13 a03e
00000290: 4999 32be 6152 71be 7c84 af3e 94d1 0bbf
000002a0: 44b8 e73d b7e2 8ebe 690c f6bd 865f f7bd
000002b0: 1e1e 87bc 7383 343d 0bcc ec3e 2490 e63d
000002c0: 68ce cf3e 989f 0f3f cdb5 41be 0a67 c2be
000002d0: 12a4 513c 30aa db3e ce54 02be f0dd 943e
000002e0: fb42 f4bd dee4 2d3d 9c81 ecbd be1a 86be
000002f0: 4c7b 0b3f 3148 8d3d def5 aebd 8195 033d
00000300: b774 86be c49b 39bd 82d1 853d ac2b 77be
00000310: 075d 983e cced 173f a877 81bd c762 0cbf
00000320: 2f46 0e3e e485 a5bd 952c 90bd cb97 d2bc
00000330: 0006 523b 7366 db3d 9bd2 99be 8b80 3ebe
00000340: 547a 033e cc25 9d3e 9ddd ac3d cba6 64be
00000350: 689c 01be 56d7 493d 6f3b 6a3e 0b2f 1fbe
00000360: 0789 863e 9936 9abd f139 8ebd 071f 15be
00000370: 39b1 87be c0da 163e a4ef 3bbe 2a1c a93e
00000380: 0e10 a7be 93a3 b6be 7a82 ca3d d50e a43e
00000390: 6eb7 4d3e 2608 c1bd ca77 9e3e 6c08 29bd
000003a0: f058 bb3d 6064 48bd 18e2 fbbd 4f39 273d
000003b0: ebeb 12be 4dde 7bbe 6856 d7bd 8c13 753d
000003c0: 1072 1d3f f705 6d3e ad47 81be a83d a83d
000003d0: d953 f0bc ce6a 1d3e 88ec 713f 14ca a7be
000003e0: afad c0bd e37d f7bd 08a3 2e3d 2d6a 46be
000003f0: 44f5 713e 968e 753e ba03 11bd 96e5 a93d
0.051142678 0.19821377 -0.6922357 -0.051845863 -0.007291188 0.8845228 0.44791216 -0.5272125
-0.19314128 -0.04042449 -0.25734866 -0.34774813 -0.17353375 0.5515095 0.022334578 -0.16080625
0.30325204 -0.21458927 0.11667567 -0.040667564 -0.21969533 0.026507866 -0.4242748 -0.06884785
0.57669353 -0.2605456 0.17400187 0.037127297 0.14838777 0.14545098 -0.102672145 0.38921368
-0.35310534 0.009777239 0.1226659 0.9568776 0.6816488 -0.28777245 -0.2169721 -0.024279885
0.18765649 -0.15333818 0.33341134 0.23263216 0.3905098 0.26459187 0.003333765 0.022049906
0.73744446 -0.29082003 -0.1821141 0.35174045 -0.6814094 -0.08916769 0.0024563237 -0.38866904
-0.006852927 -0.15696046 -0.044561733 0.32155314 0.094625786 -0.29725456 0.033087432 -0.06195823
-0.1207486 0.12120556 -0.46809846 0.15442443 -0.061419934 -0.259181 -0.6677425 0.41928357
0.65030444 0.20849141 -0.5827394 -0.039653264 -0.7186237 -0.23963785 0.40165812 -0.30286902
-0.2893532 0.37629154 0.35486823 -0.5465347 0.23600864 -0.6102565 -0.18412328 -0.3704735
-0.66660607 0.2835847 -0.28613928 0.3030096 -0.11923499 -0.2152178 0.14588057 0.124577925
0.23262691 -0.11744747 -0.03133047 -0.16662109 -0.21359119 0.36717775 -0.011363965 -0.59126914
0.2265545 0.2789318 -0.11500725 0.28064704 0.57930094 -0.00054034905 0.048604205 -0.08660351
-0.12725995 0.12962948 0.40557557 0.22666399 0.3408666 0.6326964 -0.20021552 0.1155806
0.16538374 0.3994819 -0.04691474 0.35024014 0.47840452 0.09003571 0.032355875 0.004462068
-0.05930054 0.14165992 -0.23036431 0.031130297 0.17059712 -0.07099211 -0.03168163 -0.053873073
0.17598297 0.5237633 -0.047880273 0.15388142 -0.21762997 0.084912434 -0.32296124 -0.20564438
0.3856456 -0.2768156 -0.054825097 -0.8759799 -0.13289228 -0.16347338 0.14011249 -0.28468674
0.27646482 0.34391993 0.061735768 0.11819421 -0.22128583 -0.02307832 0.3928824 0.15913709
0.21288562 0.6457235 -0.38027853 0.31264728 -0.17441286 -0.23566581 0.34280765 -0.54616666
0.11314443 -0.27907345 -0.12014086 -0.120787665 -0.016493853 0.044070672 0.46249422 0.112579614
0.40587163 0.56102896 -0.18917008 -0.37969238 0.012795465 0.4290328 -0.12727663 0.29075575
-0.11926838 0.042454593 -0.115481585 -0.26192278 0.5448501 0.06898535 -0.08542989 0.032125
-0.2626092 -0.045314565 0.06534101 -0.24137753 0.29758474 0.59347224 -0.06321651 -0.5483822
0.1389396 -0.08082178 -0.07039753 -0.025707146 0.0032047033 0.107129 -0.30043492 -0.18603723
0.12839633 0.306929 0.08440707 -0.22329251 -0.1265732 0.049277626 0.22874235 -0.15545289
0.2627642 -0.07529945 -0.06944645 -0.14562617 -0.26502398 0.14731884 -0.18353134 0.330293
-0.32629436 -0.35671672 0.09888168 0.32042566 0.20089504 -0.09425382 0.30950767 -0.041267797
0.09147823 -0.04892385 -0.12298983 0.040826138 -0.14347808 -0.2459652 -0.105145276 0.059833094
0.6150217 0.23146807 -0.25249997 0.08214885 -0.029336857 0.15372774 0.94501543 -0.3277136
-0.094081275 -0.12084558 0.042635947 -0.1937644 0.23628718 0.23980173 -0.035403945 0.08295743

rnn.rnn.rnn.weight_hh_l0 f4 [192, 64]
00000000: dcb8 243e 6e0c a3bd 6a71 143e 57a3 b8bd
00000010: 8381 5b3e 2eed 4b3e 2f58 4bbe 8f0b a13e
00000020: fd32 e9be 52f5 243e fdcc 31bf 2a04 03be
00000030: fad6 bcbd c4a0 07bf 546b ba3c 90b7 08bf
00000040: 377c 44bf 0704 5ebe e330 dbbb e4b2 f6bd
00000050: dc34 513c 9f8c a53e 959c 85be 7718 85be
00000060: 4ba8 7dbe 3109 b7bc cebb c73e 7d09 a7bd
00000070: d519 c2be d272 133e d204 2fbd 51a3 b53d
00000080: 6044 e33e 8f99 003f b73a 093e 1673 c73d
00000090: 6036 a13e 56a1 a0bc 45e2 83be bea6 5abc
000000a0: 2e0a 8b3e 3850 3c3e 1b25 cd3d ff3b 09bd
000000b0: 525c cd3d 8bed e93e e318 47bd f1b8 28bd
000000c0: 1904 09be 642f f3be 8e1d 603e 3c79 7e3d
000000d0: 5f0a 4b3e 283b 2d3e a44a f8be a7d1 943d
000000e0: e681 ff3d 9ad0 79bc 8682 0c3f 02e7 70be
000000f0: c249 d1be 1d81 80bd 6e14 273e dfa4 e0be
00000100: 21ff fcbe 9ad6 163e 7255 933e cb7a 2d3c
00000110: 5320 283e ff48 28bd 6f79 e23d cbc7 3bbe
00000120: 491a d83e af21 543e 2e49 4ebe 7064 ef3c
00000130: a0c1 e03d 835c b0bd 38fc 123e 8575 fe3c
00000140: abd6 5b3e 48d1 adbe db03 863d 811e 693e
00000150: e780 9bbe 4589 563e db90 6ebd cc54 183e
00000160: 290c 16be 77f3 713e bf3a bebe 57a2 d23e
00000170: 4e1a 8ebe 752e 22be f0d3 31be 5cf3 a63e
00000180: 678e b9be eb46 86be 24ec 88be 4122 abbc
00000190: 47ec 0b3e 407c b93c d67d 683d 21d0 f53d
000001a0: 1fc1 25be c940 313d 7411 b83e fb39 c9bc
000001b0: 1736 823e 8412 8c3d 392a afbe a6a4 0a3c
000001c0: a687 e6bd a731 23be 1bcd d2be 322d 483c
000001d0: 6b80 69be c6be 683d a197 8cbe 895e d33e
000001e0: 4bd5 723d a71e c4bb cfe7 8e3e 29d0 a5bd
000001f0: 7b99 9abd 41d7 af3d 7304 073e a9de ddbe
00000200: 3370 203e 2256 d4bd aa15 6c3f 3251 dfbe
00000210: 1382 cdbc 73d5 063e e56f e0bc 6186 e03b
00000220: e034 14bf 0e05 f73c f432 38bf c38d cdbe
00000230: 91c6 56be 19ab a53e 5554 1dbe 48c8 f4be
00000240: 4837 6dbe 2622 edbe 65ed 9ebd 0369 17bf
00000250: 2728 6bbd 085e fdbe 65c5 493d 3d57 c43c
00000260: a4f8 53be 66f6 85be 5758 08be 18db ff3d
00000270: 3197 efbb 8eff 2bbb 9763 9b3d cc0c 90be
00000280: a5fa 8cbe 6eff b43c a4d8 82bc cff9 ef3d
00000290: f39f cf3e 3993 7bbe 15d0 f53d 683b 7bbe
000002a0: af55 2b3d 2998 f93e 9854 563e fb10 693c
000002b0: a33b 4b3e 43c9 843e 6094 9f3d c7ac 89be
000002c0: af1b 64be a825 d7be 1339 95bd 6beb 5fbe
000002d0: 487f 0f3e 96ab 583e 7324 7c3d dbad 8fbe
000002e0: ddee 5dbe 120e d0bd 2240 263e a13a 62be
000002f0: e843 03be 7e28 a03e a5b2 3b3f e487 47bc
00000300: c671 0abe 3222 95be 389f 40be 7ebd 3ebf
00000310: 26b6 353f 6e25 1ebe b59f 60be 21c9 12bd
00000320: d02d b8bc 2925 dcbe 2633 483e 00ed 00be
00000330: 80c4 aabe 668d 70be 7364 eebd 2b65 29bf
00000340: 7578 14bf 83f1 a33d d706 503e a6c3 b0be
00000350: 29d9 10be 641a 1ebe e854 7c3e b220 b7bd
00000360: 0ca3 f0bd 810c 163e 49bb 70bd d0c5 56be
00000370: a9f8 a3bd 254c 113d 3c49 1e3f 670c 2cbe
00000380: a0d1 e2bc 1872 a1be 453a 823d b7cd 31be
00000390: 986f fc3e 7524 80bd cd96 f43e dd40 43be
000003a0: d958 c53e 453b 9b3e 9c69 4bbd 51fe 97be
000003b0: 6d26 71bd df52 c43e c476 7a3d bb49 3d3e
000003c0: ed52 01be 6a1b 6cbe cef3 0a3f d4e1 603e
000003d0: be51 cdbc e996 59be d6c2 253e 6ade 053e
000003e0: 467d 2bbf 4a48 0b3e 7de1 8f3f 48aa edbd
000003f0: 7c40 04be 956c 3a3d 4585 c93e 936d 40bf
0.16086143 -0.07961355 0.14496389 -0.090155296 0.21436124 0.19914696 -0.19857858 0.3145413
-0.45546713 0.16109207 -0.6945341 -0.12794557 -0.09220691 -0.52979684 0.022756256 -0.53405094
-0.76752037 -0.21681224 -0.0066891774 -0.120458394 0.01276895 0.32333848 -0.26096025 -0.25995228
-0.2477123 -0.02234325 0.3901047 -0.081561066 -0.37910333 0.14399269 -0.042729206 0.08869041
0.44388103 0.5023431 0.13401304 0.09738748 0.31486797 -0.019608181 -0.25758567 -0.0133454185
0.27156204 0.18389976 0.10016843 -0.033504482 0.10027374 0.45689043 -0.04860772 -0.041192
-0.1338047 -0.47497094 0.21886274 0.062127337 0.19828175 0.16917098 -0.48494446 0.072665505
0.12475948 -0.015247488 0.5488666 -0.23525622 -0.40876585 -0.062746264 0.16316387 -0.43875787
-0.49413398 0.14730301 0.28776127 0.010588358 0.1641858 -0.04108524 0.11058318 -0.18337934
0.42207554 0.20715974 -0.20145103 0.029222697 0.10974431 -0.08611395 0.14354026 0.031061897
0.21468608 -0.3394873 0.06543704 0.22765543 -0.30371782 0.20950802 -0.058243614 0.14876097
-0.14653076 0.2362803 -0.37154195 0.4113948 -0.27754444 -0.15838034 -0.17366004 0.32607543
-0.36241457 -0.2622598 -0.2674266 -0.020890357 0.13664351 0.022642255 0.05676063 0.12002588
-0.16186951 0.043274675 0.35950816 -0.02456378 0.25431892 0.06839469 -0.342119 0.008462107
-0.11256342 -0.1593691 -0.41172108 0.012217807 -0.22802894 0.05682256 -0.27459434 0.41283062
0.059285443 -0.0059850994 0.2791123 -0.08096344 -0.07548805 0.08585978 0.13185291 -0.4333394
0.156678 -0.10367991 0.92220557 -0.43616635 -0.025086438 0.13167362 -0.027397105 0.0068519567
-0.5789318 0.030153777 -0.7195275 -0.40147218 -0.20974185 0.323571 -0.15364201 -0.47809052
-0.2316562 -0.46315116 -0.07760123 -0.5914461 -0.05741134 -0.49485803 0.049260516 0.02396738
-0.20700318 -0.2616455 -0.13314949 0.12492961 -0.0073117246 -0.0026244852 0.07587355 -0.28134763
-0.27534977 0.022094455 -0.015972443 0.11717569 0.4055172 -0.2456788 0.12002579 -0.2453438
0.04182976 0.487489 0.20930707 0.01422524 0.19846968 0.259348 0.07791972 -0.2688963
-0.22276185 -0.42020917 -0.07286277 -0.21867149 0.14013398 0.21159205 0.0615582 -0.2806233
-0.2167315 -0.10158934 0.16235402 -0.22092678 -0.12818873 0.31280893 0.73319465 -0.012178395
-0.13519964 -0.2912765 -0.18810737 -0.7450789 0.7098106 -0.15443966 -0.21935923 -0.035836343
-0.022482783 -0.429971 0.19550762 -0.12590408 -0.33353043 -0.23491439 -0.11640253 -0.66169995
-0.579963 0.08005049 0.20315109 -0.34524268 -0.1414534 -0.15439755 0.24641764 -0.08941783
-0.11749849 0.14653207 -0.05877236 -0.20973897 -0.080064125 0.035473008 0.61830497 -0.16801606
-0.027687848 -0.3153236 0.0635877 -0.1736363 0.4930389 -0.062569536 0.47771302 -0.19067712
0.38544348 0.30318657 -0.049661264 -0.29686216 -0.058874536 0.38344476 0.06114842 0.18485157
-0.1262929 -0.23057333 0.54278266 0.21961147 -0.025063392 -0.21248974 0.16187605 0.13073125
-0.6698803 0.13601795 1.1240689 -0.11604744 -0.12915224 0.04551371 0.3935949 -0.75167197
