train/maddpg-v5/results/formation_hd_env/maddpg/hd_4/run7/models/policy_0/critic.pt (torch, 69883 bytes, 14 tensors)

mlp.feature_norm.weight f4 [116]
000000 94 ea 3b 3f 00 58 fb 3e 69 b7 96 3f bb 2c 64 3f
       0.7340481 0.49090576 1.1774722 0.89130753
000010 5a e6 59 3f 3e 72 43 3f e0 99 29 3f 6b 7f 5d 3f
       0.85117114 0.76346195 0.6625042 0.8652255
000020 58 83 33 3f fd ca 27 3f 38 a6 0b 3f 9d f9 52 3f
       0.7012229 0.6554411 0.54550505 0.8241213
000030 2b 45 2f 3f f1 f7 28 3f 10 a9 35 3f d7 2a 25 3f
       0.68464917 0.6600333 0.70961094 0.64518493
000040 c7 6c 2c 3e 70 f1 11 3f 7d cf a8 3f ee 66 96 3f
       0.1683837 0.5700903 1.318832 1.1750162
000050 09 39 b1 3f d6 61 a0 3f 10 4b b2 3f bb 98 b3 3f
       1.3845531 1.2529857 1.3929157 1.4030985
000060 e8 8c 54 3f db 92 8c 3f c9 0d 9a 3f ee f1 70 3f
       0.83027506 1.0982317 1.2035457 0.94119155
000070 5e db 31 3f 7f 12 3c 3f f4 bc 51 3f c5 82 61 3f
       0.6947535 0.7346572 0.81928945 0.88090163
000080 a9 3d 4b 3f 95 93 f4 3e a7 53 2e 3e e7 84 63 3f
       0.7939096 0.47768846 0.17024098 0.8887467
000090 90 d0 21 3f e1 d1 2b 3f fc 49 7a 3f 01 fe 87 3f
       0.63208866 0.67117125 0.9776914 1.0624391
0000a0 4f c3 07 3f 20 8e 26 3f c9 cc b4 3f 3d 00 b2 3f
       0.5303239 0.65060616 1.4124995 1.3906323
0000b0 a8 1c af 3f 4b 1b aa 3f e2 aa 83 3f e7 c3 aa 3f
       1.368062 1.3289579 1.0286524 1.3341035
0000c0 4e 78 45 3f 55 bd 93 3f 07 a3 9a 3f c7 a5 64 3f
       0.77136695 1.1542155 1.2081002 0.89315456
0000d0 c5 f4 5f 3f ae 93 3c 3f 27 93 59 3f 0a a9 05 3f
       0.87482864 0.7366284 0.8499016 0.5221106
0000e0 cc 59 37 3f 30 78 07 3f c0 ec 1e 3f 4e 45 1d 3f
       0.71621394 0.52917767 0.6208 0.61433876
0000f0 92 c7 1d 3f 32 66 64 3f cb bd 57 3f 20 0e bf 3f
       0.61632645 0.8921844 0.84273976 1.4926186
000100 ee e6 61 3f 6c a3 8b 3f e9 fa b4 3f 8b 57 90 3f
       0.88242996 1.0909247 1.4139072 1.1276716
000110 a7 7f a1 3f d7 9e bc 3f 80 69 aa 3f a6 ac a1 3f
       1.2617081 1.4735974 1.3313446 1.2630813
000120 43 f5 fd 3e 4d 09 65 3f fa ce 90 3f 02 91 54 3f
       0.49601182 0.89467317 1.1313164 0.83033764
000130 0b 74 44 3f 9a 63 38 3f e5 c2 48 3f ef 6b 35 3f
       0.7673957 0.7202698 0.78422385 0.7086782
000140 97 76 42 3f 1c fd 34 3f b6 ba f3 3e e4 55 22 3f
       0.75962204 0.70698714 0.47603387 0.6341231
000150 76 f4 06 3f b7 29 27 3f c7 b1 36 3f 5a 05 47 3f
       0.5271677 0.65298027 0.71365017 0.7774254
000160 72 b8 2a 3f f4 78 75 3f 04 ea b1 3f 32 47 aa 3f
       0.6668769 0.95887685 1.3899541 1.3302977
000170 c8 a4 aa 3f c5 c9 b3 3f e0 75 ae 3f 0a 5e a9 3f
       1.3331537 1.404595 1.3629723 1.3231823
000180 35 b8 71 3f b0 a1 81 3f 43 b8 86 3f d2 e0 8d 3f
       0.944217 1.0127468 1.0524982 1.1084235
000190 8c b1 73 3f 11 be 82 3f a1 ad 93 3f 4d 6a 94 3f
       0.9519279 1.0214254 1.1537362 1.159494
0001a0 ef 9e 98 3f a8 13 99 3f b6 2d 91 3f c7 5d a0 3f
       1.1923503 1.1959124 1.1342075 1.2528619
0001b0 f1 72 9f 3f 38 a7 a5 3f 4c 09 a1 3f 89 18 8b 3f
       1.2456952 1.2941656 1.2580962 1.0866863
0001c0 7a 0c 92 3f f2 96 83 3f e7 a0 93 3f f0 3b 89 3f
       1.1410058 1.028044 1.1533478 1.0721416

mlp.feature_norm.bias f4 [116]
000000 da e0 c3 3d 59 48 86 3e 7c 92 0a be 8e c8 38 3d
       0.095643714 0.26227072 -0.13532442 0.04511314
000010 cb dd 83 bd fa 6e c8 3e 99 f7 83 be bd 90 13 be
       -0.06438788 0.39147168 -0.2577484 -0.14410682
000020 71 67 c1 3e e8 37 97 3d 0e 94 d6 be 62 a9 2e be
       0.37774232 0.0738371 -0.41909832 -0.17056802
000030 01 93 5b be 98 f4 37 3d 09 95 10 be 97 9a 59 bf
       -0.21442796 0.044910997 -0.14119352 -0.8500151
000040 b0 09 58 3f 5c 2a f1 3d 37 f1 63 bd 78 5e c0 be
       0.8438978 0.117756575 -0.055649962 -0.37572074
000050 36 c9 d1 3c 3c 1c bf be c3 d2 4a bd 5c e2 b3 3d
       0.02560864 -0.3732623 -0.049517404 0.08783409
000060 a9 27 88 3e 30 75 f6 3c ab 99 00 3f f9 ae 33 3f
       0.26592758 0.030085176 0.5023448 0.7018886
000070 41 71 34 be ea 2b 93 3e 4f 93 0d bb e5 4f 22 bd
       -0.17621328 0.2874444 -0.0021602695 -0.039626975
000080 1f 2a 4c bd 5a 1e ea 3e 19 f2 84 be b8 4d b4 be
       -0.049844857 0.4572628 -0.25965956 -0.35215545
000090 f9 78 14 3b 38 83 8b 3d 99 2f cc be b5 96 f9 3e
       0.0022655113 0.06812137 -0.39880064 0.48747793
0000a0 8b 65 ce 3d 31 42 c7 3e 27 e0 c0 bd 5e fb 01 3e
       0.100779615 0.38917688 -0.09417754 0.12693545
0000b0 03 f7 d1 3e 34 53 d2 3e 98 be c9 be 8c 88 9a bd
       0.41008767 0.41079104 -0.39403224 -0.075455755
0000c0 f6 9f 85 bd d3 4e 34 3d e1 e3 43 3b 44 a0 7f 3e
       -0.06524651 0.044020485 0.0029890465 0.2496348
0000d0 50 14 f8 bb a8 bf 88 be 88 d7 93 be 2e 30 d7 be
       -0.007570781 -0.26708722 -0.28875375 -0.42028946
0000e0 81 4c af 3e 14 aa 1b 3f 6e 5d 02 be bc f5 56 bd
       0.34238055 0.60806394 -0.12730953 -0.052480444
0000f0 f5 1a ab bd ac c5 2b 3e de 2b 99 bd e2 c0 f9 3e
       -0.08354751 0.16774625 -0.0747907 0.4877997
000100 aa 0f f9 3d d7 76 8b bd 36 3e 28 3e 74 82 06 be
       0.12161191 -0.06809776 0.16429982 -0.13135701
000110 63 f3 7f 3d 7d 47 0d be 8f 86 df bd f0 42 84 3e
       0.06248797 -0.13796802 -0.10914337 0.2583232
000120 55 4a 26 3f c4 e7 e8 3e 02 72 e3 3e 56 55 72 3e
       0.6495717 0.45489323 0.4442292 0.23665366
000130 52 66 42 bf 48 a4 ea be 8d 19 15 3f 10 8b e6 be
       -0.7593738 -0.45828462 0.5824211 -0.4502797
000140 31 92 6c be 19 e9 0a 3f 1b 37 e2 be 36 70 48 be
       -0.23102643 0.5426193 -0.44182667 -0.19574055
000150 86 f9 6b 3f b1 6d 9f 3c 2f 4f 53 be 8a 83 0a 3e
       0.9217762 0.019461485 -0.20635675 0.1352674
000160 94 e1 94 be d7 17 80 3e cc 6d a9 bd b4 16 a6 be
       -0.29078352 0.25018188 -0.08272895 -0.32439196
000170 b2 fd a0 3e 71 4d 85 3e bc fa f5 bc a0 8e b9 3e
       0.31443554 0.26035646 -0.030026786 0.36241627
000180 b2 22 4b 3c 96 c0 9b bd 35 38 96 bd 85 45 82 3c
       0.012398409 -0.07605092 -0.073349394 0.01590229
000190 6c a2 a0 bd b9 3c b0 bd 37 b0 46 bd ae bc f4 bd
       -0.078434795 -0.08605332 -0.048507895 -0.1195005
0001a0 87 e4 d2 bd 29 3b 90 bd e2 c3 a9 bd 51 2f c7 bd
       -0.102974944 -0.07042534 -0.08289315 -0.09725822
0001b0 b8 09 b7 bd 85 01 f9 bd d6 20 1d be 57 9e 01 be
       -0.089374006 -0.12158493 -0.15344557 -0.12658058
0001c0 7f 3f fc bc dc 8a 81 be 38 d4 d5 bd a8 72 62 be
       -0.030791996 -0.25301254 -0.10440868 -0.2211405

mlp.mlp.fc1.0.weight f4 [64, 116]
000000 3a 8f 3a bd 4d f2 28 3e b5 de b5 3d 6b da 3e bc
       -0.045546748 0.1649868 0.088803686 -0.011648755
000010 de a6 c5 3e 2f d1 05 3f e4 b0 be 3d c2 18 92 3d
       0.38603872 0.52272314 0.09311083 0.071336284
000020 17 1d cd be 9b f6 85 be 98 68 53 be 7a 60 94 be
       -0.40061256 -0.26164708 -0.20645368 -0.28979856
000030 d3 e0 5a be 21 9f 5b be f9 b5 61 bd 0f 6e 49 be
       -0.21374826 -0.21447422 -0.055105183 -0.1967089
000040 be 96 d0 3d d3 bb 28 bd 69 90 1e be 0c 05 4c be
       0.10185002 -0.041194748 -0.15484776 -0.199238
000050 0a 02 1a be 41 5e 43 bd eb ce d9 bd 26 3c 75 be
       -0.1503984 -0.04769731 -0.106351696 -0.23948726
000060 69 90 cb bd 88 6c 23 be 96 2b df bd 37 73 3e bd
       -0.099396534 -0.1595937 -0.10896985 -0.046496596
000070 cc b8 27 3f 66 a4 e8 3e f3 a6 c5 3e a6 2f 68 3e
       0.6551635 0.45437926 0.38603935 0.22674426
000080 b2 9f 11 bf 0d 02 28 be 86 5d 88 be 97 42 6e be
       -0.568843 -0.16407032 -0.26633853 -0.2326759
000090 35 ce 08 be 09 b6 3b 3e 4d e2 2e bd 8e 96 8c 3d
       -0.13359912 0.1833116 -0.042696286 0.068646535
0000a0 78 93 1e bd 30 32 14 3d f9 26 a1 bd 03 49 ec 3d
       -0.038714856 0.036180675 -0.078687616 0.115373634
0000b0 b2 60 f1 3b 64 67 8b 3d 09 15 27 bc d4 8a cc 3d
       0.0073662633 0.068068296 -0.010197886 0.09987417
0000c0 f9 31 a3 3d 16 3b d8 bd e9 84 0d be 46 70 11 bc
       0.07968516 -0.10558145 -0.13820232 -0.008876866
0000d0 85 1f 10 3f 85 ec d7 3e 97 fb 93 3d b1 00 dd 3d
       0.56298095 0.42172638 0.07225721 0.107911475
0000e0 2f 1a b3 be f5 6e 78 be 00 4f d4 bd 3c 86 23 be
       -0.34980914 -0.24261077 -0.103666306 -0.15969175
0000f0 a9 be 4d 3a f7 c4 cd 3e 0c f4 6f be b5 9d 0a 3e
       0.000784854 0.40189335 -0.2343294 0.13536723
000100 f4 b2 53 bd 0f b5 f0 3d ed 13 5f be 68 5d 4d 3e
       -0.051684335 0.11753284 -0.21784945 0.20055163
000110 4b e0 0b be 8c 4b d4 bd 4c d5 fe 3c 56 08 ba bd
       -0.1365978 -0.10365972 0.031107567 -0.09083621
000120 19 f5 31 3e e1 82 30 3e 90 5e 75 bd d6 5b d0 ba
       0.17378654 0.17237426 -0.059904635 -0.001589651
000130 36 d1 73 bd 4d f8 92 3d db f9 df 3d bd 45 9a 3d
       -0.05952569 0.07176266 0.10936328 0.07532833
000140 91 97 49 bf 72 64 c0 be fd 62 3e bd ea 96 f9 bd
       -0.78746897 -0.37576634 -0.04648112 -0.12186988
000150 7b 5b 18 bc 1d 55 0c be 47 65 23 3e c5 fc ce bd
       -0.009299154 -0.13704343 0.15956603 -0.10106806
000160 30 44 f7 bd a3 c1 0c be c7 6b 97 bd b6 3e cd 3c
       -0.120735526 -0.13745742 -0.07393604 0.025054317
000170 cd db c2 3c 88 03 0a 3d 81 fd 96 bc 42 7e ba bd
       0.02378645 0.033694774 -0.018431427 -0.09106113
000180 98 db fc 3d f8 56 7f 3d 3f de b7 3d 25 06 1a 3e
       0.12346572 0.0623388 0.08977937 0.15041406
000190 bd bf 9f 3d cf 44 a8 3d 03 d0 58 3c e4 99 bb 3d
       0.07800243 0.08216249 0.013233188 0.09160212
0001a0 a7 e0 69 bd 1f d7 2a 3e 11 3e 0b 3e fd 60 2c 3e
       -0.05709901 0.16683625 0.13597895 0.16833873
0001b0 a6 a6 f4 3d 22 83 4a 3d f4 40 76 3e 0d 6b 45 3e
       0.11945848 0.049441464 0.24048215 0.19279118
0001c0 50 e8 20 3e 16 d2 13 3e 1c a8 83 3e 8c f2 17 3d
       0.1571362 0.1443561 0.25714195 0.037096545
0001d0 16 8f c3 3d bd 99 13 3e 8e 86 9f 3d f2 61 b4 3e
       0.09548776 0.14414115 0.07789336 0.35230976
0001e0 69 5e 19 3e 72 45 7d be a4 62 32 3e 65 e6 59 be
       0.14977421 -0.24733523 0.17420441 -0.21279295
0001f0 80 8d 4d ba 82 da b2 3c ea 6e f3 bd d6 0c 4c be
       -0.00078412145 0.021832708 -0.118863896 -0.19926772
000200 55 57 81 3e e7 2b 1c 3d 29 e8 b4 be 04 80 a4 3e
       0.25261942 0.038127806 -0.35333374 0.32128918
000210 bb 63 86 be 72 0b 70 be 3c 1f bf 3e 41 c8 b7 3e
       -0.26247963 -0.23441866 0.37328517 0.3589497
000220 8e 53 d3 3e fc 8a 13 3f 77 ae cf 3e 24 e2 45 3e
       0.41274685 0.5763395 0.40562794 0.19324547
000230 03 f6 a3 3e f3 85 91 3e 1b 48 53 be 84 18 05 3d
       0.3202363 0.28422508 -0.20632975 0.032494083
000240 bf 0e 17 3e 67 f7 36 be d8 25 9d be 08 43 c6 be
       0.14751719 -0.17867814 -0.30692935 -0.38723016
000250 92 46 b2 3d 9a 51 d2 bd 49 61 7a bd 72 c8 d6 3d
       0.087048665 -0.102694705 -0.061127935 0.10487451
000260 db 9c ab bb d9 f0 6c 3e b1 8c a3 be 6c 85 1b be
       -0.0052372045 0.23138751 -0.31943277 -0.15187615
000270 9f 52 b1 3c 0c 5c 5b be 47 b2 aa 3e 5e 9a 02 3e
       0.021645842 -0.21421832 0.3333914 0.12754199
000280 76 6f d8 be e6 fd 98 be 88 1b 3a 3f 3a 36 a5 3e
       -0.42272538 -0.2988121 0.7269826 0.32267934
000290 fa a6 94 bd 7f 9d 36 bd ac fd de be 97 6e 38 be
       -0.07258411 -0.044583794 -0.4355291 -0.18010937
0002a0 2a f8 0c be fd 35 37 3d 04 31 2c be 6d 57 9d 3c
       -0.13766542 0.04472922 -0.16815573 0.019206727
0002b0 17 72 97 3d a0 91 d3 3c 59 83 b5 3d b4 94 e6 bd
       0.07394808 0.025826275 0.08862943 -0.112588316
0002c0 d9 d1 8a 3e a6 4a 41 3e 96 cc 84 3e a9 ab 26 3e
       0.27113226 0.18876132 0.25937337 0.1627642
0002d0 6d ab da 3e 52 9d bd 3e cb e9 b8 3d 49 52 04 3f
       0.42708912 0.37034088 0.090289675 0.5168806
0002e0 fc 25 0b 3f 0c 07 db 3e c0 4d 46 3e cb 73 40 bd
       0.54354835 0.42778814 0.19365597 -0.04698543
0002f0 1f 07 cb bd 7d 8f 9e 3e 4a ab 86 bd 53 67 3e be
       -0.099134676 0.30968848 -0.065756395 -0.18594103
000300 d8 46 c7 3e 17 cb d1 3d fc 0c 06 bf 92 93 93 bd
       0.38921237 0.102438144 -0.5236356 -0.07205881
000310 d4 cf 72 3e 26 6e f8 bc b4 c3 8e bd a8 47 34 bd
       0.23712093 -0.03032596 -0.06970921 -0.04401365
000320 49 e9 29 be 2c 78 a6 3c 5c 01 de 3d 25 4c 1e be
       -0.16592897 0.020320974 0.10840103 -0.15458734
000330 5e 24 92 be 87 4b bf be 0c 61 ae 3e 3f 99 02 3f
       -0.2854337 -0.3736231 0.34058416 0.51015085
000340 e0 ca b1 be 48 21 5e be c3 9a b5 3e 45 5f 4e be
       -0.34725094 -0.21692383 0.35469636 -0.2015353
000350 ff 67 80 3c 8c 0f 20 3d df df 43 3d a6 71 72 3c
       0.01567459 0.039077327 0.047820922 0.014797604
000360 c0 74 0b 3d c6 1a cb 3c 16 29 ec 3d 71 63 9f bd
       0.03404689 0.02479304 0.11531274 -0.07782639
000370 93 e8 be 3d ea 50 65 bd 1d 8d 03 3e ec 9e 3d be
       0.09321704 -0.05598537 0.12846799 -0.18517655
000380 71 a0 ce 3d cb 44 2a be 51 3e a0 3d 17 c0 ed 3d
       0.100891955 -0.16627805 0.07824386 0.11608904
000390 fa d4 b7 3d f0 fd 1b 3e fc 3d 85 3e 53 ad 9a 3c
       0.08976169 0.15233588 0.26023853 0.018881476
0003a0 78 46 49 be 13 39 16 3e 72 1d 39 be 8c db 9e 3d
       -0.19655788 0.1467021 -0.18077639 0.07756719
0003b0 a2 dc ac bd 21 d9 0a 3d 33 2f 67 bc e1 58 e1 bd
       -0.0844052 0.033898477 -0.014110374 -0.110032804
0003c0 c2 f4 8f 3d c7 3d 53 bc 42 97 e2 3d 40 59 42 bc
       0.07029106 -0.012893147 0.110640064 -0.011862099
0003d0 8b d5 2d 3e e2 06 61 3e 8c 12 ff bd 64 7e 08 be
       0.16975991 0.21975282 -0.124547094 -0.13329464
0003e0 58 ea ec 3b 0e c4 e9 3d 4f aa 83 3d c4 40 03 be
       0.0072300844 0.114143476 0.06428968 -0.12817675
0003f0 49 10 ef bd bc 58 3f 3e 26 89 b4 bd c0 3d 8c be
       -0.11673028 0.18686193 -0.088152215 -0.27390862

mlp.mlp.fc1.0.bias f4 [64]
000000 f4 eb bf 3d 88 11 29 bf 58 bb 92 3d a5 68 ba be
       0.09371176 -0.66042376 0.07164639 -0.36407962
000010 c3 97 c4 bd 6d 53 89 be 0f f2 9c be 30 81 85 3e
       -0.09599259 -0.2682146 -0.30653426 0.26075125
000020 e9 c3 17 be 6e e7 4e 3e 66 0a 92 3d a5 91 3b 3e
       -0.14820828 0.20205471 0.071308896 0.18317278
000030 d3 f4 b0 bc e9 17 ee 3c 49 02 22 be e2 fc 0d 3e
       -0.021601116 0.029064136 -0.15821184 0.13865998
000040 e3 5a a0 bd 12 f2 0f 3e d9 49 95 3e 57 07 18 3e
       -0.07829835 0.14057186 0.29157904 0.1484655
000050 6f 22 81 3e 14 ae 55 be 80 a8 ba 3e 00 6d 99 bd
       0.25221583 -0.20867187 0.3645668 -0.07491493
000060 92 08 db bd e1 bc 8c 3e 19 9e 1d 3d 5c 56 30 bb
       -0.10694994 0.27487853 0.03848085 -0.0026906943
000070 8f c9 cb be 0e df bd 3e cc 21 ab be bc 8b 0b bd
       -0.39802215 0.3708424 -0.33424222 -0.034068808
000080 92 41 d6 3d da 26 18 be 1d d0 bb be 7f b7 bc bd
       0.10461725 -0.1485857 -0.36682215 -0.092146866
000090 7c ff bc be 25 7d a9 be 76 58 1b bd 78 85 97 be
       -0.3691367 -0.3310329 -0.03792616 -0.29594016
0000a0 19 22 18 3e 9a 5a d4 3d e6 25 06 bd 33 e7 f0 ba
       0.14856757 0.103688434 -0.032750987 -0.001837945
0000b0 cd f4 93 3e 63 91 e5 3e 19 5a ea 3d f7 98 36 3e
       0.28897706 0.44837484 0.11442966 0.17831789
0000c0 65 90 c6 be 82 f6 98 3e 57 59 93 be f7 9c 5f 3a
       -0.3878204 0.2987557 -0.28779098 0.00085301645
0000d0 28 02 0a be e5 a3 8b 3e 91 b3 8b 3d 4a 3c 9c 3e
       -0.13477385 0.2727348 0.06821359 0.30514747
0000e0 e2 b7 99 3e 5f a1 d3 be 37 6f 14 3e 4c ba a2 3e
       0.30023104 -0.41334054 0.1449555 0.31782758
0000f0 0c 2e f0 bd 84 eb 51 be 1c 1b fe be 0e 8c 5e be
       -0.11727533 -0.20499998 -0.49630058 -0.21733114

mlp.mlp.fc1.2.weight f4 [64]
000000 86 e3 25 3f 80 2d 9f 3f 27 0c 83 3f ac 90 50 3f
       0.648003 1.243576 1.0238084 0.8147075
000010 00 b0 87 3f 89 ae 74 3f 59 7e 79 3f 2d e6 72 3f
       1.0600586 0.9557882 0.97458416 0.9488247
000020 d3 92 7c 3f cd 9e 3e 3f b5 d0 8c 3f 4d 00 7c 3f
       0.98661536 0.7446106 1.1001192 0.9843796
000030 67 6c 66 3f 47 22 76 3f 75 a8 36 3f 20 8a 37 3f
       0.9000916 0.96146053 0.71350795 0.7169514
000040 9e 63 90 3f 5e 0e 8e 3f 15 fe 82 3f 26 25 14 3f
       1.1280401 1.1098135 1.023379 0.57869184
000050 86 33 8e 3f 00 c5 52 3f 6e 62 63 3f 32 4d 90 3f
       1.1109474 0.8233185 0.88822067 1.1273558
000060 0c a7 82 3f 2e f8 71 3f f0 ce 01 3f 65 1e 47 3f
       1.0207229 0.9451932 0.50706387 0.77780753
000070 49 23 51 3f b7 c1 81 3f 9f f3 a7 3f 45 28 1f 3f
       0.81694466 1.0137242 1.3121222 0.6217082
000080 b7 e9 6a 3f 72 03 6d 3f ff d0 7a 3f 75 21 7f 3f
       0.9176287 0.9258338 0.9797515 0.99660426
000090 19 09 83 3f 77 14 90 3f aa 0f 6b 3f 01 1b 59 3f
       1.0237151 1.1256245 0.91820776 0.8480683
0000a0 69 0c 4b 3f 7e b5 ee 3f 0a b4 5a 3f 20 ef 7a 3f
       0.7931581 1.8649137 0.8543097 0.98021126
0000b0 fd 6c ae 3f 48 81 ac 3f 52 70 52 3f a4 20 66 3f
       1.362701 1.3476954 0.8220264 0.89893556
0000c0 f6 cc a7 3f 1c cb 94 3f bb b7 4f 3f 6f 4e 6e 3f
       1.3109424 1.1624484 0.81139725 0.9308843
0000d0 94 74 4a 3f 60 87 8b 3f 8e 00 41 3f d8 a6 9b 3f
       0.79084134 1.0900688 0.7539147 1.2160292
0000e0 c0 5c 95 3f 50 01 7f 3f d9 39 74 3f 8e d4 9c 3f
       1.166893 0.9961138 0.9540077 1.2252367
0000f0 38 22 7e 3f a3 be 36 3f 12 9a 61 3f fe f4 86 3f
       0.99270964 0.7138464 0.8812572 1.0543516

mlp.mlp.fc1.2.bias f4 [64]
000000 98 07 50 3e 72 fd 7b be d0 62 e8 3e 46 9d 84 be
       0.20315397 -0.246084 0.45387888 -0.2590124
000010 0e 0c e5 bc 6f da ae bb 56 22 9f 3e e3 c4 b0 bd
       -0.02795985 -0.005336098 0.31080884 -0.08631303
000020 ea e9 a2 bc 3a 03 0e 3e 21 ac 0f 3e e6 14 32 bd
       -0.01988693 0.13868418 0.14030506 -0.04347696
000030 b2 30 15 3d ed 37 1b be 83 13 27 3e 0f 38 ce 3e
       0.036423393 -0.15158053 0.16316037 0.40277144
000040 86 7a bb 3d a5 d9 08 bf e5 94 72 3d 5a 99 9b 3e
       0.09154229 -0.534571 0.05922403 0.30390435
000050 77 28 09 be b5 78 36 3e 25 2b c9 3e a1 4e 04 3e
       -0.13394342 0.17819484 0.3929073 0.1292062
000060 d2 ea 31 bd a8 6e 2d 3e 6d 08 ae 3e 5e fd 18 3f
       -0.043436833 0.16936743 0.33990803 0.5976161
000070 1c 85 71 bd 50 75 60 3d f0 2f f4 be 0a f8 ca be
       -0.058964834 0.054799378 -0.47692823 -0.39642364
000080 b5 a9 87 3e f4 70 b5 3d 77 a3 8b 3d ec 6e 23 bf
       0.26496664 0.08859435 0.06818288 -0.6384113
000090 82 71 b6 3e 85 65 25 3e 6c ea 95 3c 83 8b 85 be
       0.35633475 0.16152008 0.018300258 -0.26083001
0000a0 c6 c6 9d 3e 1b 47 6e 3d 40 0a 87 3e 0d 80 1b be
       0.30815715 0.05817328 0.26375008 -0.15185566
0000b0 e9 1e 1a be 90 7f cf 3e ad 0f c5 3e 13 34 93 be
       -0.15050854 0.4052701 0.38488522 -0.28750667
0000c0 37 68 7e 3d ed 7f 6b 3e 15 63 37 bd ba 1d 4c 3e
       0.062111106 0.22998019 -0.044772226 0.19933215
0000d0 4b f0 c3 3e e7 3c 8a 3d d8 bc a7 bd 3d b2 74 3d
       0.38269266 0.067498975 -0.08190316 0.059740294
0000e0 06 da 23 bd 7c 0f 99 be 90 60 ab be 99 f8 90 be
       -0.040002845 -0.29894626 -0.3347211 -0.28314665
0000f0 0a ff 10 bd 50 50 52 bd 83 36 10 3d 44 4f b1 bd
       -0.035399474 -0.051346123 0.035208236 -0.08657697

mlp.mlp.fc_h.0.weight f4 [64, 64]
000000 60 8c 19 be 52 98 8a bd bc 1b 84 be 7e 39 75 ba
       -0.14994955 -0.06767334 -0.2580241 -0.00093545753
000010 bc 67 b7 3c 08 a9 8e 3c ea e8 27 be a3 7b be be
       0.022388332 0.017414585 -0.16397443 -0.37203702
000020 e2 4d a4 3b 98 19 17 be 19 b1 61 be 3e 5d 48 be
       0.005014167 -0.14755857 -0.22040214 -0.19566819
000030 59 ac ea bd 9b 8f aa 3d a2 db 1d bd 30 e5 43 3e
       -0.11458654 0.08328172 -0.038539536 0.19130397
000040 4d 88 f1 3d b1 ee c2 3c 01 e9 c0 bd d1 80 61 3b
       0.117935754 0.023795458 -0.09419442 0.0034409056
000050 8a 57 1a 3e 95 45 02 bd 3a e6 2f be 0d f8 4a bd
       0.15072456 -0.03180464 -0.17177668 -0.049552966
000060 cc a4 ea 3d 58 eb 35 3e 58 e1 aa bd 94 fa 2b be
       0.11457214 0.17765558 -0.08343762 -0.16794807
000070 9b fb 6c 3e f7 65 9b be 03 51 57 3d 2d 44 93 3e
       0.23142855 -0.3035123 0.052567493 0.28762951
000080 17 49 ea bd cc 5b b7 3e 94 a0 81 bd 10 f3 b9 be
       -0.11439722 0.35812223 -0.06329456 -0.36318254
000090 74 b5 52 3e 92 28 ab 3e 21 46 3e 3d 1f 11 8f bd
       0.20577031 0.3342939 0.0464536 -0.069856875
0000a0 fa df 0e be 06 23 0c 3e 8f d8 53 3d ad 57 4d 3e
       -0.13952628 0.13685235 0.0517202 0.20052977
0000b0 60 fb 68 3d b3 77 10 be c4 f3 a8 3e 5a fa bb 3d
       0.056880355 -0.14108162 0.32998478 0.0917861
0000c0 96 c7 1b 3e 67 1b 41 3e 45 aa a5 3e ca be 88 3e
       0.15212855 0.1885811 0.32356468 0.2670806
0000d0 4a a4 68 3c 90 95 6d be f2 af 59 bd 93 e9 81 bd
       0.014199326 -0.23201585 -0.05314631 -0.06343379
0000e0 e7 3b 65 bd 90 59 dc 3d 48 3c 8f bc e7 8d 92 3c
       -0.05596533 0.1075927 -0.017484799 0.01788993
0000f0 31 e4 a6 bd 0a 2b 74 3e a8 3b 64 be ad 5c a1 3e
       -0.08148993 0.23844543 -0.22288382 0.31516019
000100 85 11 a4 be de 82 8c be 7f f3 50 3e 97 23 ce 3c
       -0.32044616 -0.27443594 0.20405386 0.025163455
000110 31 a0 47 3e 69 e1 33 be 93 c5 ab bd b4 66 8b 3d
       0.19494702 -0.17566456 -0.08387294 0.068066984
000120 28 a7 32 3c e3 88 c8 3d d8 3f 1f bd c6 3d b8 3d
       0.010904111 0.09791734 -0.038879246 0.08996157
000130 dc 76 8c bd 3b 16 34 be eb b0 3d bd 3e ec c5 bd
       -0.06858608 -0.17586605 -0.0463113 -0.096642
000140 3e 0b 3e 3b fa 1a ba 3e 02 6b 9f 3e 86 78 13 be
       0.00289984 0.36348706 0.31136328 -0.14401445
000150 67 e9 0d be 13 19 90 3d 7d 00 61 bc fa 75 e4 3d
       -0.13858567 0.070360325 -0.013733027 0.11155315
000160 32 63 5e 3e 70 92 39 3d 26 c0 c0 be b9 ac b9 3d
       0.21717528 0.04530567 -0.37646598 0.09066147
000170 36 4b 82 3e 01 00 5e 3e cd a3 f8 bd 2d 80 06 bd
       0.25448006 0.21679689 -0.121406175 -0.03283708
000180 83 8b 23 3d fc 11 a9 be a4 19 e9 bd 55 f0 6e 3d
       0.03992797 -0.33021533 -0.11381844 0.058334667
000190 e1 a1 cb 3d 5b 65 3a bc 45 e5 a4 3c 9e 2c a1 3e
       0.09942985 -0.011376704 0.020128855 0.31479353
0001a0 ac 0b 08 be 28 e2 97 3d bd 1e 40 bc 9d e6 6a bd
       -0.13285702 0.07416183 -0.011726079 -0.057348836
0001b0 64 9f ca bd 97 c9 36 3d 6c b6 11 3d 23 15 63 3e
       -0.098936826 0.044625845 0.03557436 0.22176032
0001c0 b6 ce 83 be 82 06 8a 3d 2f a8 eb 3d 6d ad 07 be
       -0.25743645 0.067395225 0.11506688 -0.1324975
0001d0 d1 24 d9 bd 41 61 d8 bd 9b b2 9b 3e ed 5b 52 bd
       -0.10602725 -0.10565425 0.30409703 -0.0513572
0001e0 5b 0a 8c bd f1 36 3c 3e cf 04 3e 3e ff 38 ea 3d
       -0.06837913 0.18380333 0.18556522 0.114366524
0001f0 86 ef 50 3b 1d 75 1f 3f af 24 87 bc ef 78 df 3c
       0.0031881048 0.62288076 -0.016496984 0.027279345
000200 63 48 21 bd 5c 3e 4a 3e bc 7a 9b 3d 39 21 cd 3d
       -0.039375674 0.1975035 0.07591769 0.10016102
000210 bd e7 70 3e 3b a5 c4 bd 46 02 a9 3d a5 f0 f5 3d
       0.23525901 -0.09601828 0.08252387 0.1200879
000220 85 9b 75 be 80 c9 b0 3e fe 69 9f 3e ea 57 00 3e
       -0.23985107 0.34528732 0.31135553 0.12533537
000230 fb 10 4e 3d 2e 45 47 bb fb e1 2a be 54 c8 c1 be
       0.050309163 -0.0030406225 -0.16687767 -0.3784815
000240 a5 b4 ad 3d e2 72 a1 3d 89 a8 95 bd 3b f6 c0 bb
       0.08481721 0.0788324 -0.07307536 -0.005888728
000250 59 65 af bc f0 0e 9c bc 43 26 75 3e c3 16 b2 bc
       -0.021410631 -0.019050092 0.23940377 -0.02173937
000260 93 c8 32 be 24 d9 a9 be 9c 02 25 be 88 6b 9f bd
       -0.17459325 -0.33173478 -0.16114277 -0.07784182
000270 a0 94 3c 3e 50 ba 93 be 74 fd 0d 3e fa 32 08 3f
       0.18416071 -0.28853083 0.13866216 0.53202784
000280 26 a2 df 3d dd 75 fd 3c fb 0f 8c be 04 b5 1c be
       0.10919599 0.03093999 -0.27355942 -0.15303427
000290 63 b7 d6 3d d6 e1 b7 bd 93 9c ad 3b 5b e9 04 be
       0.10484197 -0.08978622 0.005298206 -0.12979643
0002a0 34 77 04 be 51 9c e0 bb cf ba 14 3e f6 fc 9a be
       -0.12936097 -0.006854572 0.14524387 -0.3027112
0002b0 f0 19 87 bc 26 b1 ab 3d 0d 89 07 3e 61 91 ba bc
       -0.01649186 0.08383398 0.13235874 -0.0227744
0002c0 cc 19 83 be 0c 18 ce 3c 4b 3f 85 be 39 e2 85 3d
       -0.2560562 0.02515795 -0.2602485 0.06537289
0002d0 c7 4f 24 3e 9e c3 70 3d c1 ce 95 be 71 07 89 be
       0.16046058 0.058780305 -0.29259303 -0.2676349
0002e0 da da 3b 3d af f8 aa 3d cc 38 4b 3c 54 94 01 bb
       0.04586301 0.08348214 0.012403678 -0.0019772248
0002f0 ed 8b a1 3c 6e 9e 91 bd ef c8 26 be 01 e1 75 3e
       0.019720042 -0.07110296 -0.16287588 0.24011613
000300 db 8e ad 3e 56 0d 67 3e a5 9c e0 3d c6 87 59 3e
       0.33898053 0.22563681 0.109673776 0.212432
000310 9f 1d 3a bd 41 0e b9 bd 11 6b a1 be 5f a1 07 3c
       -0.045438405 -0.09035922 -0.31526998 0.00827822
000320 08 7f 12 3e 9d 02 a0 3e 7f a8 73 3d 8b 60 06 3e
       0.14306271 0.31251994 0.059486862 0.13122766
000330 88 03 90 be 36 a4 9e 3c 3a 68 8e 3d 66 2a c7 3b
       -0.28127694 0.019365411 0.069534734 0.0060780523
000340 06 a3 e3 3d 06 36 7d be 4b 7b 0a 3d d7 4a b2 3d
       0.11115079 -0.2472764 0.033808988 0.08705681
000350 50 21 ca bd ce 7f 8c 3d fa c4 7b be 40 e2 80 3e
       -0.09869635 0.06860314 -0.2458686 0.25172615
000360 df ca 8d bd 29 ed d0 3c 92 44 98 be 24 1e aa be
       -0.0692346 0.025503712 -0.29739815 -0.3322612
000370 2b 15 09 bc 96 19 2d 3c e4 2e 2e 3e 67 a6 09 bc
       -0.008366863 0.010565182 0.17010075 -0.00840149
000380 9e b3 4b 3e d4 88 8f 3d 90 5c 9c be 02 47 2f bc
       0.19892737 0.0700852 -0.3053937 -0.010698082
000390 4b e4 9f be 90 04 21 bd 64 9c 37 3c f5 5b 95 3e
       -0.3122886 -0.03931099 0.01120672 0.2917172
0003a0 4c d2 ce 3c b0 37 d7 3c 5e c3 fa bd d7 ce 98 bd
       0.025246762 0.026271671 -0.122442946 -0.074613266
0003b0 b3 ad d8 3d 7c 93 c5 bd b2 a5 39 be a4 67 c9 be
       0.105800055 -0.09647271 -0.18129614 -0.39336884
0003c0 2f eb 4a 3e b7 b1 99 bd 36 e7 95 3e 22 4d dc 3d
       0.19816278 -0.075045995 0.29277962 0.107568994
0003d0 01 00 89 be 9b 93 14 be c7 c9 00 3e 2d 3b 8a be
       -0.26757815 -0.14509432 0.12576972 -0.26998273
0003e0 d7 11 90 3d 93 f7 7d 3d 96 69 67 be ef e4 21 3d
       0.07034653 0.062003683 -0.22598872 0.03952497
0003f0 3e f8 0d 3e 59 52 94 3d 99 3f 24 3e b1 44 58 3d
       0.13864228 0.07242269 0.16039886 0.052799884

mlp.mlp.fc_h.0.bias f4 [64]
000000 00 00 00 00 00 00 00 00 00 00 00 00 00 00 00 00
       0.0 0.0 0.0 0.0
000010 00 00 00 00 00 00 00 00 00 00 00 00 00 00 00 00
       0.0 0.0 0.0 0.0
000020 00 00 00 00 00 00 00 00 00 00 00 00 00 00 00 00
       0.0 0.0 0.0 0.0
000030 00 00 00 00 00 00 00 00 00 00 00 00 00 00 00 00
       0.0 0.0 0.0 0.0
000040 00 00 00 00 00 00 00 00 00 00 00 00 00 00 00 00
       0.0 0.0 0.0 0.0
000050 00 00 00 00 00 00 00 00 00 00 00 00 00 00 00 00
       0.0 0.0 0.0 0.0
000060 00 00 00 00 00 00 00 00 00 00 00 00 00 00 00 00
       0.0 0.0 0.0 0.0
000070 00 00 00 00 00 00 00 00 00 00 00 00 00 00 00 00
       0.0 0.0 0.0 0.0
000080 00 00 00 00 00 00 00 00 00 00 00 00 00 00 00 00
       0.0 0.0 0.0 0.0
000090 00 00 00 00 00 00 00 00 00 00 00 00 00 00 00 00
       0.0 0.0 0.0 0.0
0000a0 00 00 00 00 00 00 00 00 00 00 00 00 00 00 00 00
       0.0 0.0 0.0 0.0
0000b0 00 00 00 00 00 00 00 00 00 00 00 00 00 00 00 00
       0.0 0.0 0.0 0.0
0000c0 00 00 00 00 00 00 00 00 00 00 00 00 00 00 00 00
       0.0 0.0 0.0 0.0
0000d0 00 00 00 00 00 00 00 00 00 00 00 00 00 00 00 00
       0.0 0.0 0.0 0.0
0000e0 00 00 00 00 00 00 00 00 00 00 00 00 00 00 00 00
       0.0 0.0 0.0 0.0
0000f0 00 00 00 00 00 00 00 00 00 00 00 00 00 00 00 00
       0.0 0.0 0.0 0.0

mlp.mlp.fc_h.2.weight f4 [64]
000000 00 00 80 3f 00 00 80 3f 00 00 80 3f 00 00 80 3f
       1.0 1.0 1.0 1.0
000010 00 00 80 3f 00 00 80 3f 00 00 80 3f 00 00 80 3f
       1.0 1.0 1.0 1.0
000020 00 00 80 3f 00 00 80 3f 00 00 80 3f 00 00 80 3f
       1.0 1.0 1.0 1.0
000030 00 00 80 3f 00 00 80 3f 00 00 80 3f 00 00 80 3f
       1.0 1.0 1.0 1.0
000040 00 00 80 3f 00 00 80 3f 00 00 80 3f 00 00 80 3f
       1.0 1.0 1.0 1.0
000050 00 00 80 3f 00 00 80 3f 00 00 80 3f 00 00 80 3f
       1.0 1.0 1.0 1.0
000060 00 00 80 3f 00 00 80 3f 00 00 80 3f 00 00 80 3f
       1.0 1.0 1.0 1.0
000070 00 00 80 3f 00 00 80 3f 00 00 80 3f 00 00 80 3f
       1.0 1.0 1.0 1.0
000080 00 00 80 3f 00 00 80 3f 00 00 80 3f 00 00 80 3f
       1.0 1.0 1.0 1.0
000090 00 00 80 3f 00 00 80 3f 00 00 80 3f 00 00 80 3f
       1.0 1.0 1.0 1.0
0000a0 00 00 80 3f 00 00 80 3f 00 00 80 3f 00 00 80 3f
       1.0 1.0 1.0 1.0
0000b0 00 00 80 3f 00 00 80 3f 00 00 80 3f 00 00 80 3f
       1.0 1.0 1.0 1.0
0000c0 00 00 80 3f 00 00 80 3f 00 00 80 3f 00 00 80 3f
       1.0 1.0 1.0 1.0
0000d0 00 00 80 3f 00 00 80 3f 00 00 80 3f 00 00 80 3f
       1.0 1.0 1.0 1.0
0000e0 00 00 80 3f 00 00 80 3f 00 00 80 3f 00 00 80 3f
       1.0 1.0 1.0 1.0
0000f0 00 00 80 3f 00 00 80 3f 00 00 80 3f 00 00 80 3f
       1.0 1.0 1.0 1.0

mlp.mlp.fc_h.2.bias f4 [64]
000000 00 00 00 00 00 00 00 00 00 00 00 00 00 00 00 00
       0.0 0.0 0.0 0.0
000010 00 00 00 00 00 00 00 00 00 00 00 00 00 00 00 00
       0.0 0.0 0.0 0.0
000020 00 00 00 00 00 00 00 00 00 00 00 00 00 00 00 00
       0.0 0.0 0.0 0.0
000030 00 00 00 00 00 00 00 00 00 00 00 00 00 00 00 00
       0.0 0.0 0.0 0.0
000040 00 00 00 00 00 00 00 00 00 00 00 00 00 00 00 00
       0.0 0.0 0.0 0.0
000050 00 00 00 00 00 00 00 00 00 00 00 00 00 00 00 00
       0.0 0.0 0.0 0.0
000060 00 00 00 00 00 00 00 00 00 00 00 00 00 00 00 00
       0.0 0.0 0.0 0.0
000070 00 00 00 00 00 00 00 00 00 00 00 00 00 00 00 00
       0.0 0.0 0.0 0.0
000080 00 00 00 00 00 00 00 00 00 00 00 00 00 00 00 00
       0.0 0.0 0.0 0.0
000090 00 00 00 00 00 00 00 00 00 00 00 00 00 00 00 00
       0.0 0.0 0.0 0.0
0000a0 00 00 00 00 00 00 00 00 00 00 00 00 00 00 00 00
       0.0 0.0 0.0 0.0
0000b0 00 00 00 00 00 00 00 00 00 00 00 00 00 00 00 00
       0.0 0.0 0.0 0.0
0000c0 00 00 00 00 00 00 00 00 00 00 00 00 00 00 00 00
       0.0 0.0 0.0 0.0
0000d0 00 00 00 00 00 00 00 00 00 00 00 00 00 00 00 00
       0.0 0.0 0.0 0.0
0000e0 00 00 00 00 00 00 00 00 00 00 00 00 00 00 00 00
       0.0 0.0 0.0 0.0
0000f0 00 00 00 00 00 00 00 00 00 00 00 00 00 00 00 00
       0.0 0.0 0.0 0.0

mlp.mlp.fc2.0.0.weight f4 [64, 64]
000000 78 8c 5d bf 2b 83 c8 3e 45 2d dd bd aa 5a 03 3f
       -0.86542463 0.39162573 -0.1079965 0.5131022
000010 fa cd 49 3e 67 65 b3 be b8 ee 7a 3d b1 e5 b7 bd
       0.1970748 -0.350383 0.061262816 -0.08979357
000020 a4 fd 83 3e e5 98 24 bf 1c 17 80 3d 92 72 3f 3e
       0.2577945 -0.642958 0.06254408 0.18696049
000030 3b cf 5a 3e b4 f5 e4 3e 55 ee 33 be ce 8d 60 3e
       0.21368115 0.44718707 -0.17571385 0.21929094
000040 b5 72 f9 be 29 d5 94 3d 70 09 1b be c8 11 01 3e
       -0.48720327 0.072672196 -0.15140319 0.1260444
000050 9f 9f 11 3f f7 f7 78 3c 22 d7 cb 3d be 8b 27 3e
       0.5688419 0.015195838 0.09953143 0.16361901
000060 59 60 b6 3d 49 a6 83 be 4a 5f b1 3d 9c d2 03 be
       0.089050956 -0.25712803 0.08660753 -0.1287331
000070 e0 94 14 3f a5 45 fd bd ae 83 ea 3c fe d5 3f bf
       0.58039665 -0.12366799 0.028627243 -0.749359
000080 cb e5 40 be 7f 4f ba 3e ff bb 59 3e 3e 39 f6 be
       -0.18837659 0.36388776 0.21263121 -0.48090547
000090 9b c6 e2 3e c2 d5 00 3d 9a d2 08 3f d8 f7 d0 be
       0.4429215 0.031453855 0.5344635 -0.4081409
0000a0 43 c3 a2 3e 4f d1 ca bf 4a 96 8c 3d 2a 17 45 3c
       0.31789598 -1.5845126 0.06864603 0.0120294485
0000b0 2a 08 cf 3e 5e 47 87 bf 63 a5 04 bd da cb e2 3e
       0.40435916 -1.0568655 -0.032384288 0.4429615
0000c0 d6 dd a2 bd f8 19 74 3c cd 9b e9 3e 08 14 6f 3c
       -0.07952468 0.01489877 0.4562668 0.014592178
0000d0 0e d4 73 3e 89 19 ea 3e 5c 76 e9 be 87 34 26 3f
       0.23811361 0.45722607 -0.45598114 0.649239
0000e0 3b ef f9 3e 4d ee a7 be 3a 08 55 3e 67 3d ac 3f
       0.4881533 -0.32798997 0.2080392 1.3456239
0000f0 0e fc a3 bc 16 79 ab bb a7 af 91 3e 59 0a f1 3e
       -0.02001765 -0.0052329404 0.28454325 0.47078207
000100 34 f8 a6 bd f5 16 e4 bd a6 e2 2d 3e 56 fa dd 3d
       -0.0815281 -0.11137191 0.16980991 0.108387634
000110 22 23 3a 3e 5e 24 3d 3d d8 b7 fb 3d 50 48 57 3d
       0.18177465 0.04617726 0.12290925 0.052559197
000120 f8 90 09 3e 10 a7 9c 3c 94 f4 9e bd c9 98 ad 3c
       0.13434207 0.01912263 -0.07761493 0.021191018
000130 9d 5d cf 3e 97 fa 9b 3d a8 90 5d be 7b 58 68 be
       0.4050111 0.076161556 -0.21637213 -0.22690003
000140 fc 3e c4 3d 9e aa 30 3e 51 74 e0 3e 53 3b 15 be
       0.09582326 0.17252585 0.43838742 -0.14573412
000150 7c 9b 3e 3e 53 dd b2 bd 13 be 2f 3c 0c ce 77 3e
       0.18614 -0.087336205 0.01072647 0.24199694
000160 79 2c 04 bd 50 75 94 3d 30 4a a4 be 53 e3 09 be
       -0.032268975 0.07248938 -0.3208785 -0.13465624
000170 01 03 36 3e ce 3f ae 3d 2a 0b 2d 3e 08 f8 e1 bd
       0.17774583 0.085082635 0.1689879 -0.11033636
000180 60 fb c4 bd 97 c3 7a be 53 42 bc 3d f2 0c 38 3d
       -0.096182585 -0.24488674 0.09192338 0.04493422
000190 e3 e4 b8 3d f9 cb c5 bc 66 56 4e bc 56 a4 ee 3e
       0.09028032 -0.024145113 -0.012593841 0.46609753
0001a0 20 9b 11 be ed 3e 19 be 4c 84 1d be d9 32 94 bd
       -0.14219332 -0.1496541 -0.15382499 -0.07236261
0001b0 4c 7c 80 bd fb 9c dc bd 36 ba 16 be aa f4 71 3e
       -0.06273708 -0.10772129 -0.14719471 0.23628488
0001c0 f6 07 e8 39 55 4e 36 be ba 4a 53 3b d3 d0 25 3e
       0.0004425642 -0.17803319 0.0032240585 0.16192941
0001d0 dd 42 59 be 40 f5 e9 3d 1e af bd 3d ba 06 ea 3d
       -0.21216913 0.11423731 0.092619166 0.11427064
0001e0 ce 75 42 be 28 fb 96 3e 38 3a b3 bd 29 0b aa 3e
       -0.18990251 0.29488492 -0.08751339 0.3321164
0001f0 ad 29 29 3e 3b a0 38 3d 31 4f 24 3e 5c 77 83 3d
       0.16519804 0.045074683 0.16045834 0.0641925
000200 01 cf 01 3e 93 4d 58 bd 74 26 6a 3d 2f 18 3e 3e
       0.12676622 -0.052808356 0.057165578 0.18563913
000210 20 d8 c2 3d c3 db e7 3d 9a 37 89 3d 7d 30 6a 3e
       0.09513879 0.11321213 0.06700058 0.2287006
000220 bd 9b 7f 3e 82 bf 02 bd 44 ce 74 bd b4 88 73 be
       0.24961753 -0.031920917 -0.059767023 -0.23782617
000230 53 37 5f 3d ad 04 9b 3e 2b b5 7f 3e 83 ef 0c 3f
       0.05449612 0.30277005 0.24971454 0.55052966
000240 4c 92 36 3e 5b 34 8d 3c 86 84 bc be c4 ce da bb
       0.17829245 0.01723688 -0.36819857 -0.0066774804
000250 34 e4 a5 bc 98 fa 76 be b5 88 7f 3e 1e f0 f5 be
       -0.020250417 -0.24119031 0.24954493 -0.48034757
000260 48 44 80 be 54 3c 06 3d fb cb e3 bc 96 ca 48 bf
       -0.25052094 0.032772377 -0.027807226 -0.7843412
000270 1a 03 dd 3c a4 a6 03 3e ae df 16 3d 10 b4 97 3e
       0.026979018 0.12856537 0.03683441 0.29629564
000280 ab da 8c 3d 60 10 ec bc e5 4d dc 3e 40 f3 08 3e
       0.06877645 -0.028816402 0.4302818 0.13374043
000290 26 6b 94 3e 5f a3 19 be 76 69 e5 3e 76 e4 c9 be
       0.28987998 -0.15003727 0.44807023 -0.39432114
0002a0 30 32 70 be 62 de 40 3e de 7c 0f be 02 ed 37 3e
       -0.23456645 0.18834832 -0.14012477 0.17961505
0002b0 f3 16 8b be a5 0c b0 3d d4 99 a3 be a7 16 1a bd
       -0.27165946 0.08596162 -0.319533 -0.03761926
0002c0 bc de 7e be ee f0 f3 bd d9 2c 4d 3e 54 ba 28 3e
       -0.24889654 -0.11911188 0.2003664 0.16477329
0002d0 ff 6a f8 3d d2 1b c6 3c d6 a1 a5 be 0d 3c 4c be
       0.12129783 0.024183188 -0.32350034 -0.19944783
0002e0 a7 0f 5d bd b5 7d 4d 3e d2 a0 92 3e 7a a6 33 be
       -0.053970005 0.20067485 0.2863832 -0.17543975
0002f0 be 31 76 bd cc 18 36 be 65 79 26 be 1a 91 f5 3e
       -0.06010603 -0.17782897 -0.16257246 0.47962266
000300 9d 6d 1d be f6 49 92 bd ed bb d0 3d 70 0e 41 3e
       -0.15373845 -0.07143013 0.10192094 0.18853164
000310 3a a1 c6 3c c5 c2 18 3d 81 5c 55 3e ba 8e f9 3c
       0.0242468 0.03729512 0.20836069 0.030463565
000320 23 11 df bc ae 1c 37 bc 4a 98 a5 3d e7 c3 dc 3d
       -0.027229851 -0.011176271 0.080856875 0.10779553
000330 4a a4 21 bc da be 82 bd 2c 25 c5 3d 52 83 83 bc
       -0.00986583 -0.06384058 0.096262306 -0.01605383
000340 46 b4 23 be f2 92 2a 3e 5f 5c 37 3e fb 59 20 bd
       -0.15986738 0.16657618 0.1790633 -0.039148312
000350 2d a7 55 3e e4 0d a2 3e 9e 24 b3 bd ee 6a 55 3e
       0.20864554 0.31651223 -0.087472185 0.20841572
000360 49 a1 b1 3d ce 2c d5 3d 62 d8 92 bd e2 df 86 be
       0.08673341 0.104089364 -0.07170178 -0.26342684
000370 87 79 f9 3d fd c0 34 3e 81 ee 34 3e 7a e3 23 bc
       0.121813826 0.17651744 0.17669107 -0.010002965
000380 a2 e7 2b 3d 63 5e 9f 3e fc 8c bd be d0 02 43 3d
       0.04196895 0.311267 -0.37021625 0.047610104
000390 42 80 b0 3a 9e 41 a8 3c d1 be a7 bd 91 1a ff 3c
       0.0013465958 0.020539101 -0.08190692 0.031140598
0003a0 55 5a 85 be 85 4d 37 3e f9 69 78 3d 0d f6 b0 3d
       -0.2604548 0.17900665 0.06064794 0.086406805
0003b0 f8 91 3d 3e e3 86 8f bd 82 a9 10 be 7f 07 23 be
       0.18512714 -0.070081495 -0.14127162 -0.15920828
0003c0 23 9a 71 bd f7 77 ef 3d 88 58 07 3e 40 cf 86 3d
       -0.058984887 0.11692803 0.13217366 0.065824986
0003d0 7a 0a 70 be 71 62 fb 3d 9f dc 0b 3e 3f f0 7e 3d
       -0.23441496 0.122746356 0.13658379 0.062240835
0003e0 93 34 8d 3d 81 61 b4 3b 29 b0 8b bb 30 b8 92 3e
       0.06894793 0.0055047874 -0.0042629433 0.2865615
0003f0 d4 18 a7 bc 31 73 b9 b9 19 bb 8d 3e d3 62 fd bd
       -0.020397581 -0.00035371774 0.27681807 -0.12372365

mlp.mlp.fc2.0.0.bias f4 [64]
000000 60 92 c5 be 01 e8 b7 be 00 3d a3 be 50 0e 80 be
       -0.38588238 -0.35919192 -0.31882477 -0.2501092
000010 f8 53 1b be 8c 20 9f be 6b 48 50 be 25 98 a2 be
       -0.1516875 -0.3107952 -0.20340125 -0.31756702
000020 60 d1 c7 be d9 25 d4 be 43 e6 b4 be 45 b1 11 bf
       -0.39026928 -0.41435125 -0.35331926 -0.56911117
000030 43 31 98 3c 71 89 e2 be a4 2f 17 be 70 0b 69 be
       0.018578177 -0.44245484 -0.14764267 -0.2275827
000040 f9 b4 dd be e5 d6 db be 60 50 97 be c8 26 14 bf
       -0.43302134 -0.4293739 -0.2955351 -0.57871675
000050 12 43 1e be 9b 57 d0 bd be b1 f3 be a4 68 d5 be
       -0.15455273 -0.101729594 -0.47596544 -0.41681397
000060 a9 95 ea bd cd 2b 46 be df 06 be be da 88 b1 be
       -0.11454327 -0.19352646 -0.37114617 -0.34674722
000070 c9 fc 1a bf fd 4a 5f be ab 47 b0 be 46 fd df be
       -0.6054197 -0.2180595 -0.34429678 -0.4374792
000080 eb a3 9e be 1e 90 92 be 70 8f 73 be 00 a9 92 be
       -0.30984434 -0.28625578 -0.23785186 -0.28644562
000090 a0 ea 14 bf 57 b3 85 be 40 27 81 be d9 e3 c4 be
       -0.5817051 -0.26113388 -0.25225258 -0.38455084
0000a0 a7 b6 b4 be 60 42 c9 be 88 6f be be 92 38 de be
       -0.35295603 -0.39308453 -0.37194467 -0.43402535
0000b0 e3 d1 d2 be 31 69 b6 be 77 af ab be 42 74 d3 be
       -0.41175756 -0.3562713 -0.33532307 -0.41299635
0000c0 0b 91 2b bf c2 37 a1 be 9b 25 fd be f5 e5 ae be
       -0.67018193 -0.31487852 -0.49442753 -0.34159818
0000d0 f5 de a2 be b8 a8 e9 be 95 43 9e be 5e 38 a1 be
       -0.31810728 -0.45636535 -0.30910936 -0.31488317
0000e0 40 d4 72 be a4 f0 04 bf ac 2a b5 be 22 3e 18 bf
       -0.2371378 -0.5192969 -0.3538412 -0.5946981
0000f0 a1 46 04 bf 56 c0 cc be 36 5b 6f be 14 25 94 be
       -0.5167027 -0.3999049 -0.23374638 -0.28934538

mlp.mlp.fc2.0.2.weight f4 [64]
000000 82 23 06 40 6c 19 fc 40 5d 3d c3 be cb 56 96 41
       2.0959172 7.8781033 -0.38132754 18.79238
000010 5e be fd 40 d1 e6 08 41 80 f1 4e 40 6c 50 3a bf
       7.929488 8.556352 3.23349 -0.72778964
000020 5d a1 8b 40 43 51 0b 40 41 9a bf 40 5d 83 ed 40
       4.3634477 2.1768348 5.98758 7.4222856
000030 58 b5 dd 3f 4a 0e 59 40 44 35 13 40 97 2c 9d 40
       1.7320967 3.3914971 2.300126 4.911693
000040 fd 85 ef 3f 0b 38 d4 bf 35 b9 27 40 22 68 2b 40
       1.8712765 -1.6579603 2.6206791 2.6782308
000050 74 7e 13 40 79 a8 54 40 bc 01 56 41 dc 0d 8a bf
       2.304593 3.3227828 13.375423 -1.078548
000060 5d 0e 0a 41 02 60 39 41 fa 01 23 bf 8d 83 5e 40
       8.628507 11.585939 -0.6367489 3.4767792
000070 fb 08 19 41 29 70 59 3f 26 db 39 be 2e 29 b1 3f
       9.5646925 0.8493677 -0.18150005 1.3840692
000080 18 ae 9d be 42 cd 5b bf b8 2c f3 bf 95 5e 52 bf
       -0.30796885 -0.85860074 -1.8998022 -0.8217557
000090 ed 53 f7 3e 62 cb 4e 3f 58 df 51 41 37 71 80 bf
       0.48306218 0.8077909 13.117027 -1.003455
0000a0 c5 03 23 41 05 eb dc 40 56 b7 d4 be 3f 86 19 bf
       10.18842 6.903689 -0.41546124 -0.5997047
0000b0 d4 5e 00 41 30 52 4a be 2f 40 84 41 8c 31 02 40
       8.023151 -0.19757915 16.53134 2.034274
0000c0 19 ed 21 41 7c 43 c4 3f 61 e6 0d 40 00 94 1b 41
       10.120385 1.5333095 2.2171862 9.723633
0000d0 c1 a7 1f 40 5f 2f 20 3f 27 12 e6 bf 6b 85 6f be
       2.494614 0.6257228 -1.797429 -0.23390739
0000e0 dc 5a 24 40 7a fb cf 40 d9 6e da c0 c5 94 4e c0
       2.5680456 6.499448 -6.826031 -3.2278302
0000f0 3e 81 b3 41 18 a7 45 40 fb bb 80 41 2f c8 d7 be
       22.438107 3.0883236 16.091787 -0.42144915

mlp.mlp.fc2.0.2.bias f4 [64]
000000 a9 9e 05 3e ed ba 05 be 4e 88 05 be 25 a0 05 be
       0.13048805 -0.13059588 -0.13040277 -0.13049372
000010 73 b0 05 3e 34 83 05 3e ea a0 05 3e 5a 9c 05 be
       0.13055591 0.13038331 0.13049665 -0.13047925
000020 0d b7 05 be 6e 95 05 3e 16 95 05 3e 15 a7 05 be
       -0.1305811 0.13045284 0.13045153 -0.13052018
000030 88 b5 05 be 2a 91 05 3e 83 b5 05 3e e5 b5 05 3e
       -0.1305753 0.13043657 0.13057522 0.13057669
000040 93 ab 05 3e a4 9a 05 be b6 a5 05 3e a8 b6 05 3e
       0.13053732 -0.13047272 0.13051495 0.13057959
000050 b3 85 05 3e 8d aa 05 3e b3 86 05 3e 73 5f 05 be
       0.13039283 0.13053341 0.13039665 -0.13024692
000060 e9 88 05 3e de a5 05 be 18 ab 05 be dd e0 04 3e
       0.13040508 -0.13051555 -0.13053548 0.12976404
000070 57 ab 05 be 15 b1 04 3e 84 9f 05 be d4 aa 05 3e
       -0.13053642 0.12958176 -0.13049132 0.13053447
000080 62 bf 05 be a4 aa 05 be 4b d5 03 be fe b5 05 be
       -0.13061288 -0.13053375 -0.12874334 -0.13057706
000090 0b bc 05 3e b1 ea fc 3d 46 a4 05 be 07 7e 05 be
       0.13060014 0.12349451 -0.13050947 -0.13036357
0000a0 c7 a6 05 be cf b3 05 be c5 ad 05 be 6c aa 05 be
       -0.13051902 -0.13056873 -0.13054569 -0.13053292
0000b0 47 90 05 be d8 9b 05 be 70 aa 05 3e 62 a6 05 3e
       -0.13043319 -0.13047731 0.13053298 0.13051751
0000c0 a4 62 05 be 86 73 05 3e e9 d8 03 3e c1 86 05 3e
       -0.1302591 0.1303235 0.12875713 0.13039686
0000d0 eb b8 05 be b0 08 05 3e 1a 87 05 be d7 a0 05 be
       -0.13058822 0.12991595 -0.13039818 -0.13049637
0000e0 d5 b3 05 be f0 43 05 3e 4f 4f fa bd bb 23 05 be
       -0.13056882 0.13014197 -0.12222158 -0.13001911
0000f0 b0 dc 04 be c9 d0 ee 3d 0f 8f 05 3e bd a1 05 be
       -0.1297481 0.11660916 0.13042854 -0.1304998
