train/maddpg-v5/results/formation_hd_env/rmaddpg/inbox/rmaddpg_3_2/models/policy_0/critic.pt (torch, 158380 bytes, 21 tensors)

rnn.feature_norm.weight f4 [63]
00000000: e768 473f bc44 383f 2d50 833f 5c43 813f
00000010: 7554 873f 79ca 8b3f d9d4 8b3f 2ecc 8c3f
00000020: 520a 673f 53c1 763f 965b 703f d1c4 743f
00000030: 8757 8f3f 561a a13f 789c 9d3f 702a 8d3f
00000040: 5920 443f 916c 363f bb6e 823f 8a0e 903f
00000050: 668c 923f 0599 923f 6ff0 8c3f 220a 7c3f
00000060: 306a 863f 00d1 773f 7eda 7a3f b1c9 653f
00000070: e6b8 993f 212f 933f 2612 9d3f c59a 9a3f
00000080: 6518 2c3f f56a 333f 39b5 883f b464 803f
00000090: 7e91 863f 3aba 843f 11fc 833f c94f 843f
000000a0: 4e16 653f 4db1 843f ccdc 6a3f 7772 633f
000000b0: 224d 9b3f 433c 813f 13d7 833f 54ba 963f
000000c0: aa7c 693f da49 843f f9fe 753f dc64 793f
000000d0: e4c7 7a3f 6087 663f 9d69 7c3f ea33 803f
000000e0: 6c2a 793f cbbc 743f 4f4d 663f e5c7 783f
000000f0: 4f8e 743f 0b5b 7e3f a171 6b3f
0.77894443 0.7197988 1.0258843 1.0098681 1.0572649 1.0921165 1.0924331 1.0999811
0.9025012 0.9638874 0.9388975 0.9561282 1.1198586 1.2586162 1.2313375 1.1028576
0.7661186 0.7125941 1.0190042 1.1254437 1.1449096 1.1452948 1.1010875 0.9845296
1.0501156 0.96803284 0.9798964 0.8976088 1.2009552 1.1498758 1.2271163 1.2078482
0.67224723 0.7008508 1.0680305 1.0030732 1.0513151 1.0369332 1.03113 1.0336848
0.8948716 1.0366608 0.9174316 0.88846534 1.2132914 1.0096515 1.030001 1.1775613
0.9120585 1.0335038 0.9609218 0.97419524 0.9796126 0.90050316 0.98598653 1.0015843
0.97330356 0.95600575 0.89961714 0.97180015 0.95529646 0.9935767 0.9197026

rnn.feature_norm.bias f4 [63]
00000000: e2bc 6e3c a9b8 a63b 621e 903b 3a5d 02bc
00000010: 319c 1c3d b0aa a2bd 81e5 f1bc a258 96bc
00000020: e84c 8b3d 5b06 8e3c 94cb 2d3d 72be 98bd
00000030: a2e4 443d 6a14 a13c a952 9fb8 79a3 983d
00000040: 5a70 043d 547e 783d 4f7a a73d c9ec 6c3c
00000050: 83a5 adbd c8ce 143d 34fc 0ebc bbb5 8abd
00000060: 63f5 fc3b ae4c ae3b 0836 1c3d ef2e a7bd
00000070: 56d4 9e3c 3a14 4d3d 3855 853c a638 0d3d
00000080: d00a dd3c d5d7 903d 1bd7 fd3c 0240 803d
00000090: 1fe4 3cbd b241 40bd 459f 893d ee51 733d
000000a0: a4cb 78bc 6262 36bc 9bde c53d 2d8e abbd
000000b0: 21f5 7ebc 5ac7 d33d 9394 193d f920 7b3d
000000c0: bda9 07bd f0c8 5abd c48f 00bd c052 0cbc
000000d0: daa4 29bd ca93 22bd f634 bd3c d9ef df39
000000e0: 2dc9 163b f0a8 dfbc 464a 5cbd f2b1 85bd
000000f0: d2c7 7ebd 5908 94bb c173 1eba
0.0145714 0.005087931 0.004398153 -0.007956797 0.038234893 -0.07942712 -0.029528381 -0.01835281
0.06801778 0.017337015 0.042430475 -0.074581996 0.048069604 0.019663054 -7.5971075e-05 0.07453055
0.03233371 0.06066735 0.081776254 0.014460751 -0.084788345 0.036330014 -0.008727122 -0.067729436
0.007719682 0.0053191995 0.038137466 -0.08163249 0.019388359 0.050068118 0.016275987 0.034477852
0.026982695 0.07072417 0.03098636 0.062622085 -0.04611599 -0.046937652 0.067198314 0.059404306
-0.01518527 -0.011131855 0.09661599 -0.08376727 -0.015561373 0.10340758 0.037495207 0.061310742
-0.03312086 -0.053414285 -0.031387106 -0.008564651 -0.04141698 -0.039691724 0.023096543 0.00042712575
0.0023008094 -0.027302235 -0.05378177 -0.06528081 -0.062202282 -0.0045175967 -0.00060444704

rnn.mlp.fc1.0.weight f4 [64, 63]
00000000: 9395 b53e 5987 983d 07b2 83bd 4200 203e
00000010: 639b 02be 973b 34be fcc2 16be d323 3c3e
00000020: 77e6 3e3d 84df 9d3d 2bd6 dcbd 499a 9bbe
00000030: cc1d 15be 6448 d63e 3513 cc3d ea34 1a3e
00000040: dd75 1dbe 4b0e 1dbe 1120 57be 8e21 c23d
00000050: 99a6 18bd 04a8 bfbe dfc2 f2be 95d2 33be
00000060: 3f0b 403e d0d8 9ebd 5242 523e 24e9 8d3e
00000070: 2a91 28be 8ec4 953e a63e 483e 6741 963d
00000080: 89e6 6d3e d9ec 183e 830c 1ebe f73b d03d
00000090: 503b a6bd a728 0fbe 582c 013e 9d65 0fbd
000000a0: 28d2 2e3e 8912 a3bd 4b72 d5bd bdf2 e3bd
000000b0: 81b2 f1bc b489 aa3d b9a5 93be 057d 02be
000000c0: 51b0 43be bba1 4b3e 9f7c a6be 713c 0b3d
000000d0: d20e d5bd fadd b5bd 35c9 64be 8162 a93d
000000e0: 71db 8bbe ffac a9bc 3d84 e93d 14d2 633e
000000f0: 1df4 0cba cbfd 783e 6cef 2d3d 0491 b13d
00000100: 8069 00be 2c4f b2bd 506b 34bc 7ca9 8ebe
00000110: 2d18 af3e f989 8c3e baea bebd 05a8 e03b
00000120: c099 653e 004b 193e 6021 d5bc 714f 363d
00000130: a76a 813b 594f 85be 79d0 ea3e 4eb9 51bd
00000140: 1a86 8b3e 3fa0 17be 2594 033f a2e9 153d
00000150: f17f 113d 5f64 c53e 38fd a3be 9d94 ff3d
00000160: 4def 363c 1204 613e 2686 d1bd 6e44 1bbd
00000170: e5ac 1a3e 7d19 2a3e 0491 3e3e 0849 263e
00000180: 038b 91be 24eb 89bb 059a a13e 7c8b 29bb
00000190: a9bf 6bbe 00f7 4cbe ae26 7bbd 71c0 0d3e
000001a0: ae5d 46ba b7ba 4bbd 98b2 da3e 3a86 be3e
000001b0: a62e 803e 69ee 713e d57f 763d 7fd7 83bd
000001c0: 2ebf 8d3c 666b d2bd e21b f8bd 7fed ca3c
000001d0: 5096 e3bd 8bda 4abe 82a8 8b3c ef35 08bd
000001e0: f40c 22be dd03 27be 1692 c63c 15ed 43be
000001f0: 501a 64be ed45 fb3d 2f27 d4bd f574 993e
00000200: ca0e 0a3e 6fe0 3b3e 51dc 12bd 4fec df3d
00000210: 1ad3 dbba 995a 54bd c038 bb3d bb69 5cbe
00000220: c467 743e 2179 14be 1ddf 003e 1e1e 7636
00000230: c631 46bd 255e b93d a2ad 6a3d 2256 d4be
00000240: ebd5 883e 39ea c13d 57b8 4f3e e803 2c3d
00000250: a515 88be aaf5 a7be 9288 1d3e 5d82 fb3e
00000260: 3559 57be 111c 313e cec5 8b3e 9ad6 743e
00000270: 3a55 033e cce8 843e eea0 1f3d a9ef c43d
00000280: 4685 753e 3226 833e 55f5 23bf c8c3 253e
00000290: 3164 58bd 1b88 41be d972 f6bd e412 c0bd
000002a0: b339 66bd 4db1 17be dc19 9e3d 202a 5bbd
000002b0: 00f3 903e 2560 4e3b a24b 4ebe 5d83 65be
000002c0: 159a d5bd 84dd 8c3d 63b4 96be 2dde afbd
000002d0: c1ce 91bb 2dd2 acbd 59ff b0be 727b 753e
000002e0: bfa2 f8bc c268 3bbc 97e9 213c 1385 2c3d
000002f0: 540c 2ebe 4160 d7bd e68a 143e 15d2 1cbe
00000300: 544f 243a f18f 35be 792a 6ebe fe00 90bd
00000310: 684a 1a3e b798 e33d 9603 b6be 30de 43be
00000320: f82d 653e 724f d2be 6732 09bf 5cdb f3be
00000330: 5847 eabd 4381 51be 975a f0bd 8495 1a3e
00000340: 7350 d8bd 1302 d6bd d6b7 6abd e7ac cb3d
00000350: b7bb 61bd 6186 923d b20b 3bbc e598 d13d
00000360: 90d0 e7bd 10a8 38be 2fe9 4abe 2c50 95bc
00000370: d958 c6bd 8eed 55be d8cb 7cbb b3a2 90bd
00000380: 5791 72be 751d c93d 819e 98be d1c1 90bd
00000390: 3527 eebe 33f1 67bd 18b7 0bbd 8237 80bd
000003a0: 10e1 8cbb 6248 b9be 1d52 a5be 1aa6 80bb
000003b0: 69c0 4abe d2f7 2f3e eacc 493e 2cbc 4b3e
000003c0: 0af0 713e 18da 283d 40d2 b83d 4204 aa3c
000003d0: 2090 683e b0a8 e83c 9a28 093e 535c a33e
000003e0: 9582 8d3e b345 bc3e 61db 573e 4af8 503e
000003f0: fdf8 403c fdad bf3c 0ff5 313e 20d2 4b3e
0.3546568 0.074476905 -0.064304404 0.15625098 -0.12754588 -0.17600857 -0.14722818 0.18373041
0.046606507 0.07708648 -0.10783037 -0.30391148 -0.14562148 0.41852105 0.09964601 0.15059248
-0.15376993 -0.15337484 -0.21008326 0.09479056 -0.037268255 -0.37432873 -0.474143 -0.175608
0.1875429 -0.077561975 0.20533112 0.27716935 -0.16461626 0.29251522 0.19555148 0.07336693
0.23232473 0.149341 -0.1543446 0.101676874 -0.08116782 -0.13980351 0.12614572 -0.035009015
0.17072356 -0.0796252 -0.1042219 -0.11130283 -0.029504063 0.08327046 -0.28837374 -0.12743004
-0.19110228 0.19885914 -0.32516953 0.03399319 -0.104032174 -0.08880229 -0.2234238 0.08270741
-0.27315858 -0.020712374 0.114021756 0.22248107 -0.0005376952 0.24315564 0.04246466 0.08670238
-0.12540245 -0.08706507 -0.011011913 -0.2786368 0.34198132 0.27449015 -0.09322114 0.006855967
0.22421932 0.14970016 -0.026016891 0.044509355 0.0039494815 -0.260371 0.45862177 -0.05120211
0.2725075 -0.14807223 0.51397926 0.036599763 0.035522405 0.3855314 -0.32029128 0.124795176
0.011165452 0.21974209 -0.10230665 -0.037907057 0.15105017 0.16611286 0.18610007 0.16238797
-0.2842637 -0.004208939 0.3156282 -0.0025870493 -0.23022331 -0.20016098 -0.061316185 0.13842942
-0.000756706 -0.049738612 0.4271438 0.37211782 0.2503559 0.23626103 0.060180504 -0.06437587
0.017303076 -0.10274391 -0.12114693 0.02477145 -0.11112654 -0.1980993 0.017048124 -0.03325456
-0.15825254 -0.16310067 0.024239581 -0.19133408 -0.22275662 0.12269197 -0.10359036 0.29972044
0.13482204 0.18347333 -0.03585464 0.10933744 -0.0016771287 -0.051844213 0.091416836 -0.21524708
0.23867708 -0.14499332 0.12585111 3.6674387e-06 -0.04838731 0.0905116 0.057294495 -0.41471964
0.26725706 0.094685026 0.20285164 0.041995913 -0.26579013 -0.32804614 0.15384129 0.49122897
-0.21030124 0.17295863 0.2729935 0.23909989 0.1282548 0.2595886 0.038971834 0.09616024
0.23976621 0.25615078 -0.6404622 0.16187966 -0.052829925 -0.18899576 -0.12033624 -0.09378603
-0.05620737 -0.14813729 0.07719776 -0.05350697 0.28310394 0.0031490412 -0.20146039 -0.22413392
-0.104297794 0.06878188 -0.294345 -0.085872985 -0.004449696 -0.08438525 -0.34569815 0.23972872
-0.03035104 -0.01143855 0.009882352 0.042119097 -0.1699689 -0.10516406 0.1450611 -0.15314515
0.00062679243 -0.1773069 -0.2325839 -0.07031439 0.15067446 0.111131124 -0.3554961 -0.19127727
0.22380817 -0.41076237 -0.5359253 -0.47628295 -0.11439389 -0.20459466 -0.11736029 0.15096098
-0.105622195 -0.104496144 -0.057304226 0.09945088 -0.05511066 0.07154537 -0.011416363 0.102342404
-0.11319077 -0.18032861 -0.19815515 -0.018226705 -0.09684915 -0.20891401 -0.0038573649 -0.070622824
-0.23688255 0.098200716 -0.2980843 -0.070682175 -0.46514288 -0.05662651 -0.03411016 -0.06260587
-0.0042992905 -0.36188036 -0.3228921 -0.003926051 -0.19799961 0.1718438 0.19707075 0.19896
0.23626724 0.041223615 0.09024477 0.020753983 0.2271123 0.028400749 0.13394395 0.31906375
0.2763869 0.36771926 0.2107978 0.20407215 0.011778113 0.023398394 0.17378639 0.19904375

rnn.mlp.fc1.0.bias f4 [64]
00000000: 8c73 2dbd 9ad2 b5bc e423 0b3d b2fa 53bd
00000010: 779b b23d f254 33bd d72b f23d cae7 83bd
00000020: de44 3f3d 8d2b 353d ecc6 993c 4ef4 9ebc
00000030: 531e 2b3d 9824 a33d 15a9 1a3d 29cd abbd
00000040: 98f6 913d fa2b ccbd 5a7d 80bd 02ea 0b3d
00000050: dd11 bdbc 847e fd3d 0bd7 993c fcc4 783d
00000060: 7ac7 b8bb 5ab3 ac3d 701c 633d 04bd afbd
00000070: 9710 8bbc 9175 b93c 477f 063d d951 fbbb
00000080: ff67 b33d a610 fdbb 3edc a03d ee8d b7bc
00000090: 8f6a b93d 0c5e ec3c ba30 00bd 4861 15bd
000000a0: 66ae 6fbd 2dee 0f3e a281 cd3c 9a28 45bd
000000b0: 191d 34bc 7ee1 95bc 86fa d4bc 54eb a53d
000000c0: 4ecb 6d3d db6e fb3d 8215 93bd 0a79 cd3c
000000d0: 83c5 3b3d f36e dbbc 584b 403d aa38 21bd
000000e0: 4380 2ebc 0a3f c23b d4ae 3c3d d3cc 49bd
000000f0: 8af7 26be d9e6 553d cd2e 07bd 22fe 8ebd
-0.042346522 -0.02219515 0.033969775 -0.051752754 0.08721059 -0.043782182 0.11824768 -0.06440695
0.046696536 0.044230986 0.018771611 -0.019403603 0.041776966 0.07965964 0.037758905 -0.083887406
0.07127112 -0.09969325 -0.06273909 0.034158714 -0.023079807 0.123776466 0.018779298 0.060734734
-0.005639014 0.08432646 0.055447042 -0.08580974 -0.016975684 0.022639068 0.032836225 -0.007669669
0.0876007 -0.007722932 0.07854508 -0.022406545 0.090535276 0.028853439 -0.03129647 -0.036469728
-0.05851593 0.140557 0.025086228 -0.048134424 -0.010993266 -0.018296 -0.025998365 0.08101526
0.058055215 0.122770034 -0.07181837 0.02508213 0.04584266 -0.026786303 0.046946853 -0.03936068
-0.010650697 0.005927925 0.046065167 -0.0492676 -0.16305366 0.052222107 -0.033003617 -0.06982066

rnn.mlp.fc1.2.weight f4 [64]
00000000: 7716 613f 9421 723f 3f61 8a3f db89 693f
00000010: ecd2 7f3f 2e3f 643f ea87 803f 3b9f 6c3f
00000020: 10b0 8c3f 8e40 853f d56e 733f 541d 6d3f
00000030: b0b3 693f 0910 743f 2ac4 843f ce19 7c3f
00000040: d1c6 833f 8c16 5b3f 6f4b 873f 53c1 723f
00000050: 9ca6 7e3f 4efa 873f 4930 7b3f bb5d 6c3f
00000060: 0ac4 763f 4a28 8d3f ea0c 833f 681d 783f
00000070: febc 753f cf22 853f 300a 633f e375 843f
00000080: a0e3 743f afbf 713f cb8e 8a3f fe7c 8a3f
00000090: 623c 893f abc9 873f 9f1d 883f 5460 823f
000000a0: 1092 7f3f 087c 753f 5e7e 893f f411 5b3f
000000b0: b243 6f3f cde3 713f 16d8 8a3f 0e1f 8e3f
000000c0: 51e2 793f b7fa 773f 3a98 5f3f 5709 8f3f
000000d0: 76e0 8b3f 2bc3 693f e65e 723f c55b 7c3f
000000e0: 8b6e 7c3f 6719 863f bc31 613f 6a75 6f3f
000000f0: 6135 653f e882 903f 66a4 793f e479 853f
0.87924904 0.94582486 1.0810927 0.91225976 0.99931216 0.89158905 1.0041478 0.92430466
1.099123 1.0410326 0.9509099 0.92622876 0.91289806 0.9533697 1.0372365 0.98476875
1.0295049 0.8558128 1.0569896 0.9482624 0.99472976 1.0623262 0.9812055 0.9233052
0.9639288 1.102792 1.0238316 0.9691987 0.95991504 1.0401248 0.8868742 1.0348476
0.9565983 0.9443311 1.0824827 1.0819395 1.0721552 1.0608419 1.063404 1.0185647
0.9983225 0.9589238 1.0741689 0.8557427 0.9346267 0.9448822 1.0847194 1.1103227
0.97610956 0.96866935 0.87341654 1.1174725 1.0927875 0.9131343 0.94676054 0.9857753
0.98606175 1.0476502 0.87966514 0.93538535 0.89534575 1.128995 0.9751648 1.0427823

rnn.mlp.fc1.2.bias f4 [64]
00000000: e933 8c3d cbc6 ad3d a5f0 7a3c 400a 28bd
00000010: 13f1 0b3b 1df7 033c d6d8 963d 6c08 043d
00000020: 62ba 32bd 698c 03bd 41cc 9d3d 5e58 48bc
00000030: b6ec 853d 4049 733c 8457 9c3c 9546 02bd
00000040: 2a72 253d 44ae 873d 0ad2 403c ad3d 413d
00000050: bbd2 a5bd 30e6 38bd 03a5 a4bc 3af0 023d
00000060: 8d29 693c 6f0f e4bd 3f01 0bbd a458 e13c
00000070: 65d6 df3d 25ec 82bd 33c0 02bc 663c 883d
00000080: 0fd6 b23c 3a9f b33d 602b 15bd 3386 383d
00000090: 79c9 913d b891 e7bc 7371 fa3c f418 e0bc
000000a0: dc81 d9bd d481 873d c4a5 74bd 09dc c03d
000000b0: 265c 3fbd 988b 68bd 1a60 58bd b317 0e3c
000000c0: 63c7 dfbb a3f8 853a a9d3 cb3d 8506 83bd
000000d0: eb8e 5abd e856 b03d b2d2 df3c 8a81 533c
000000e0: 7503 543c 660c 833c 8dd2 a83d f340 f7ba
000000f0: 3696 7f3d fdeb d5bb f367 4e3d 6977 bebc
0.068458386 0.084851824 0.015316163 -0.0410254 0.0021353408 0.008054522 0.07365577 0.032234594
-0.04363478 -0.032116327 0.07704974 -0.0122281 0.0653929 0.014849007 0.0190847 -0.031805594
0.04039208 0.066250354 0.011768827 0.04717796 -0.08096834 -0.0451414 -0.020098215 0.03196738
0.014231098 -0.11135756 -0.033936735 0.027508087 0.109295644 -0.06392697 -0.007980394 0.06652145
0.021830587 0.087706044 -0.03641832 0.045049857 0.07118506 -0.028267726 0.030571675 -0.027355649
-0.10620472 0.066165596 -0.0597284 0.094169684 -0.04671874 -0.056773752 -0.052826025 0.0086726425
-0.0068291887 0.0010221194 0.0995248 -0.06397728 -0.053358953 0.08610326 0.027322147 0.0129093025
0.012940277 0.015997123 0.082432844 -0.0018863961 0.06239911 -0.006528376 0.050392102 -0.023250299

rnn.mlp.fc_h.0.weight f4 [64, 64]
00000000: f6e2 82bd 8cd6 703c ed34 163e 2169 923e
00000010: 381a 023e 5104 433d 567d 54be a230 ab3d
00000020: b4fd 23be a4d7 903e b4ed b03d 2998 35be
00000030: 5213 0bbe e96f a6bd e624 173d cd0c dfbd
00000040: 9f93 51be 1ece 83be e642 113e 8b64 91bd
00000050: a762 3abe b515 ac3e 55e5 f93c a276 193c
00000060: 0cbc 83be a439 48be 2020 40bd 57b6 73be
00000070: c3fe db3d acc1 103e e146 a8be de17 913d
00000080: dd9d 23bd ca31 73bd 06ae 16bc fffd acbc
00000090: a56e 903e 1f90 5a3e f769 173e 2b3a 0b3e
000000a0: 814f dc3d 3ecb 583e cd06 793c 60fe 2cbe
000000b0: 7087 903e ba35 863d c558 a7bd 69bb b439
000000c0: 8cb6 af3c 7f70 5e3e fc3a c03d b3e7 dabd
000000d0: 75f2 663e 18d6 293e 65ac f53d 1005 773e
000000e0: 2333 48bd 9bd6 f5be 56fb 57be 7e28 953e
000000f0: 8c30 a6bd bd8d 95bd 5516 31be 3c6b 933e
00000100: 5695 0fbe b46a 403d dfa6 783e 1133 e3bb
00000110: a42a 953e 257b 42be 25d0 683e b69c bf3d
00000120: 2052 f7bd 8827 1dbd 54ff b9be ce3f 593d
00000130: 156e 6dbe af9d 043e deef 893e aede 1f3c
00000140: a676 87bd d405 ed3c 25e1 06be 9c7b 9fbb
00000150: 08f9 c03b 5a46 8ebc 90bd bdbd ce6e 22be
00000160: db8f 41bd 6a7a 9c3e a144 0d3e 6821 053e
00000170: 8eee 0f3d 7e46 7c3d 9210 fc3d 082e 95bd
00000180: 22e3 31bf 201e 3cbc 900d 8c3d 576d 98be
00000190: 2ab8 d73c 633a bdbd e405 013e 2e6b d6bd
000001a0: 0389 f33d af12 5fbe 63d6 c0bc 4530 a3bd
000001b0: 9874 17be 8683 163e 893d a1be 936c 9bbd
000001c0: afb1 03be 5fb6 98be 50fb c2bd 6f3f 223e
000001d0: c0f5 423d 5029 133e 2e2f febc 72fa 133e
000001e0: 0d0b 87be 007f 88be 9740 9d3d 1ede bebb
000001f0: 11a3 18be 2827 5bbe 1d07 1e3d 6686 54bc
00000200: 9921 1fbe 92b3 823d 7381 4ebe d11d 2ebe
00000210: 9827 c93e a63e db3d e9c6 173e 63bb c3be
00000220: ae25 393e 2c75 2abe cd0f 933d 9e05 113e
00000230: c21e c83c 1e3e 873e 1287 0fbc d968 583e
00000240: 9f46 0bbe 7d87 85be 41c8 2cbd 504a 74be
00000250: f587 c9bd 9b31 073e 9cc4 37be 53b4 72be
00000260: a396 05be b1be da3c 1a59 653d 7f40 aabd
00000270: d6cc 9abe 80a2 cbbe e8ed 0ebd 15b7 673c
00000280: 60c9 24be c86f be3d 4154 5dbe 8f2f 843d
00000290: 897b 90bd f29a 393d 315f 86bd 9ae1 79be
000002a0: ec16 86be 4859 01be 3aef d93b 67e9 273e
000002b0: b415 c03e d9f7 843e 2dbe 483e 6731 2c3e
000002c0: a04d 81be b5d4 923e acbf c13d b5da 623c
000002d0: 2805 453d e805 de3d a7a3 263e c5ec ccbd
000002e0: 8dc1 aa3c 05d6 09bd 34ba a6bd 375e 2e3e
000002f0: a1c1 ac3d 758c 4f3c 1a1f 373e fe32 67bd
00000300: 2146 ab3c 5c40 f93c 6763 37bd 2136 8abe
00000310: 2240 133c 2f67 c2be abf6 5cbe 7dfb 3a3e
00000320: e3a8 c6bd 7882 1a3e 997c 82be c660 5f3d
00000330: 4626 66be 0203 4f3d e928 29be a799 723d
00000340: 0ab9 ab3c e002 a63c 72e4 88bd 0204 a53e
00000350: 83df aabe cd34 1cbe a5e8 fabd f350 cd3d
00000360: a3f0 83be a4de 97bc ef37 b4bd 1664 3ebe
00000370: cea4 37be 669b 603c 063d 3abe 9138 c0bc
00000380: e3a1 eabd fb34 bd3c f851 49bd e9b0 d43d
00000390: c858 02be 7ca6 a0bc 70a2 6bbe 1ea3 873e
000003a0: 42be 0bbd f6c9 f7bd 8dbd 243e 6f84 a63e
000003b0: 13e7 063e 1719 fcbc 4417 533e 4bc7 ad3c
000003c0: 2eb8 373e 1141 a4be 7bb1 abbb d43a d2bc
000003d0: 2f88 353e 54ff 6dbe e1ba 253e f3a8 65be
000003e0: a9f7 0dbe 07eb e83d a730 b1be 0f3f 2f3e
000003f0: 38b3 5a3e 6bbe a4be 13b1 59be 55b4 1bbe
-0.063909456 0.014699589 0.14668627 0.28595832 0.12705314 0.04761154 -0.20750937 0.08358885
-0.16014749 0.2828952 0.08639088 -0.17733826 -0.13581589 -0.08126814 0.036900423 -0.108911134
-0.20466469 -0.25743192 0.14185676 -0.07099255 -0.18201695 0.3361031 0.030504862 0.009366663
-0.25729406 -0.19553238 -0.046905637 -0.23800026 0.10741951 0.1413638 -0.32866576 0.070846304
-0.039945472 -0.059373654 -0.009196764 -0.021117209 0.28209415 0.2134404 0.14786516 0.13596408
0.10757352 0.2117128 0.015199375 -0.16893911 0.2822833 0.06553216 -0.08171228 0.00034471907
0.02144935 0.21722601 0.093862504 -0.10688724 0.22553428 0.16585577 0.11995772 0.24123025
-0.048876893 -0.48015293 -0.21091971 0.29132456 -0.08114728 -0.07302425 -0.17293675 0.2879275
-0.14021811 0.04697676 0.24282406 -0.006933578 0.29134095 -0.18992288 0.22735651 0.09356062
-0.12076211 -0.038367778 -0.36327612 0.053039365 -0.23186524 0.12950777 0.26940817 0.009757681
-0.06614427 0.028933443 -0.13171823 -0.0048670303 0.005889062 -0.01736753 -0.09264672 -0.15862581
-0.047256332 0.30562145 0.13795711 0.13001025 0.035139613 0.061590664 0.12307848 -0.072841704
-0.694872 -0.011481792 0.06838524 -0.2977092 0.026332933 -0.09239652 0.12599903 -0.10469662
0.11891367 -0.21784471 -0.023539728 -0.07968191 -0.1479057 0.1469861 -0.3149226 -0.07589068
-0.1286075 -0.29826638 -0.0952059 0.1584451 0.047597647 0.14371228 -0.031028356 0.14451006
-0.2637562 -0.26659393 0.07678335 -0.0058248183 -0.14905955 -0.21401656 0.038581003 -0.012971496
-0.1554016 0.063819066 -0.20166568 -0.17003562 0.3928802 0.107053086 0.14821972 -0.38228902
0.1808078 -0.1664626 0.07180748 0.14162299 0.024428729 0.2641458 -0.008760231 0.21133746
-0.13601159 -0.26079932 -0.042183165 -0.23856473 -0.09840385 0.13202517 -0.17946094 -0.237016
-0.13045745 0.026702257 0.055993177 -0.08313083 -0.30234402 -0.39772415 -0.034894854 0.014142771
-0.16092443 0.09298664 -0.21614172 0.064543836 -0.070548125 0.045313783 -0.06561125 -0.24402466
-0.26189363 -0.12631714 0.0066508325 0.1639763 0.37516558 0.25970343 0.19603796 0.1681572
-0.25254536 0.28677908 0.09460387 0.013846089 0.04810062 0.1084097 0.16273366 -0.10006098
0.020844245 -0.03365137 -0.08140984 0.17028128 0.08435369 0.012667765 0.17882958 -0.056445114
0.020907464 0.030426197 -0.04477253 -0.26994422 0.008987458 -0.37969348 -0.21578471 0.18259998
-0.09700181 0.15088832 -0.25485685 0.05453565 -0.22475538 0.050539978 -0.16519512 0.059228566
0.020962257 0.020265043 -0.066841975 0.3222962 -0.3337365 -0.15254517 -0.12251405 0.100252055
-0.2576953 -0.01853878 -0.08799731 -0.18592867 -0.17933962 0.013708925 -0.18187341 -0.023464473
-0.11456659 0.023096552 -0.049150437 0.103853054 -0.1272918 -0.019610636 -0.23011184 0.26491636
-0.03411699 -0.12099068 0.16087933 0.32522914 0.13174085 -0.030773683 0.20614344 0.021213194
0.17941353 -0.32080892 -0.005239663 -0.025662817 0.17727731 -0.23241931 0.1618457 -0.2242773
-0.13864006 0.11372953 -0.3460743 0.17113899 0.21357429 -0.32176527 -0.21258955 -0.1520551

rnn.mlp.fc_h.0.bias f4 [64]
00000000: 0000 0000 0000 0000 0000 0000 0000 0000
00000010: 0000 0000 0000 0000 0000 0000 0000 0000
00000020: 0000 0000 0000 0000 0000 0000 0000 0000
00000030: 0000 0000 0000 0000 0000 0000 0000 0000
00000040: 0000 0000 0000 0000 0000 0000 0000 0000
00000050: 0000 0000 0000 0000 0000 0000 0000 0000
00000060: 0000 0000 0000 0000 0000 0000 0000 0000
00000070: 0000 0000 0000 0000 0000 0000 0000 0000
00000080: 0000 0000 0000 0000 0000 0000 0000 0000
00000090: 0000 0000 0000 0000 0000 0000 0000 0000
000000a0: 0000 0000 0000 0000 0000 0000 0000 0000
000000b0: 0000 0000 0000 0000 0000 0000 0000 0000
000000c0: 0000 0000 0000 0000 0000 0000 0000 0000
000000d0: 0000 0000 0000 0000 0000 0000 0000 0000
000000e0: 0000 0000 0000 0000 0000 0000 0000 0000
000000f0: 0000 0000 0000 0000 0000 0000 0000 0000
0.0 0.0 0.0 0.0 0.0 0.0 0.0 0.0
0.0 0.0 0.0 0.0 0.0 0.0 0.0 0.0
0.0 0.0 0.0 0.0 0.0 0.0 0.0 0.0
0.0 0.0 0.0 0.0 0.0 0.0 0.0 0.0
0.0 0.0 0.0 0.0 0.0 0.0 0.0 0.0
0.0 0.0 0.0 0.0 0.0 0.0 0.0 0.0
0.0 0.0 0.0 0.0 0.0 0.0 0.0 0.0
0.0 0.0 0.0 0.0 0.0 0.0 0.0 0.0

rnn.mlp.fc_h.2.weight f4 [64]
00000000: 0000 803f 0000 803f 0000 803f 0000 803f
00000010: 0000 803f 0000 803f 0000 803f 0000 803f
00000020: 0000 803f 0000 803f 0000 803f 0000 803f
00000030: 0000 803f 0000 803f 0000 803f 0000 803f
00000040: 0000 803f 0000 803f 0000 803f 0000 803f
00000050: 0000 803f 0000 803f 0000 803f 0000 803f
00000060: 0000 803f 0000 803f 0000 803f 0000 803f
00000070: 0000 803f 0000 803f 0000 803f 0000 803f
00000080: 0000 803f 0000 803f 0000 803f 0000 803f
00000090: 0000 803f 0000 803f 0000 803f 0000 803f
000000a0: 0000 803f 0000 803f 0000 803f 0000 803f
000000b0: 0000 803f 0000 803f 0000 803f 0000 803f
000000c0: 0000 803f 0000 803f 0000 803f 0000 803f
000000d0: 0000 803f 0000 803f 0000 803f 0000 803f
000000e0: 0000 803f 0000 803f 0000 803f 0000 803f
000000f0: 0000 803f 0000 803f 0000 803f 0000 803f
1.0 1.0 1.0 1.0 1.0 1.0 1.0 1.0
1.0 1.0 1.0 1.0 1.0 1.0 1.0 1.0
1.0 1.0 1.0 1.0 1.0 1.0 1.0 1.0
1.0 1.0 1.0 1.0 1.0 1.0 1.0 1.0
1.0 1.0 1.0 1.0 1.0 1.0 1.0 1.0
1.0 1.0 1.0 1.0 1.0 1.0 1.0 1.0
1.0 1.0 1.0 1.0 1.0 1.0 1.0 1.0
1.0 1.0 1.0 1.0 1.0 1.0 1.0 1.0

rnn.mlp.fc_h.2.bias f4 [64]
00000000: 0000 0000 0000 0000 0000 0000 0000 0000
00000010: 0000 0000 0000 0000 0000 0000 0000 0000
00000020: 0000 0000 0000 0000 0000 0000 0000 0000
00000030: 0000 0000 0000 0000 0000 0000 0000 0000
00000040: 0000 0000 0000 0000 0000 0000 0000 0000
00000050: 0000 0000 0000 0000 0000 0000 0000 0000
00000060: 0000 0000 0000 0000 0000 0000 0000 0000
00000070: 0000 0000 0000 0000 0000 0000 0000 0000
00000080: 0000 0000 0000 0000 0000 0000 0000 0000
00000090: 0000 0000 0000 0000 0000 0000 0000 0000
000000a0: 0000 0000 0000 0000 0000 0000 0000 0000
000000b0: 0000 0000 0000 0000 0000 0000 0000 0000
000000c0: 0000 0000 0000 0000 0000 0000 0000 0000
000000d0: 0000 0000 0000 0000 0000 0000 0000 0000
000000e0: 0000 0000 0000 0000 0000 0000 0000 0000
000000f0: 0000 0000 0000 0000 0000 0000 0000 0000
0.0 0.0 0.0 0.0 0.0 0.0 0.0 0.0
0.0 0.0 0.0 0.0 0.0 0.0 0.0 0.0
0.0 0.0 0.0 0.0 0.0 0.0 0.0 0.0
0.0 0.0 0.0 0.0 0.0 0.0 0.0 0.0
0.0 0.0 0.0 0.0 0.0 0.0 0.0 0.0
0.0 0.0 0.0 0.0 0.0 0.0 0.0 0.0
0.0 0.0 0.0 0.0 0.0 0.0 0.0 0.0
0.0 0.0 0.0 0.0 0.0 0.0 0.0 0.0

rnn.mlp.fc2.0.0.weight f4 [64, 64]
00000000: 3486 663b 0d2b f8bc ca08 fa3d 743d 783e
00000010: b3ac c5ba c302 a93d a061 6dbe 7fb5 dd3d
00000020: 3ec3 8abe 09e7 313e 4d25 a1bd 4e31 38be
00000030: 3476 58bd 8763 10be 0551 87bd bbc6 33be
00000040: 5aa8 00be 5bcc 903d 1391 133e b0fb 96bc
00000050: 0aa3 b13b a1cf b63e 6659 0d3e c4a3 0d3e
00000060: 64e6 82be 6fcd a5be cb45 f53d b93b c3bd
00000070: 212c 523e b627 f53d 1291 bcbe d949 eb3d
00000080: 5c7f e8bd 9e30 4d3c 0606 943d 982d 193d
00000090: 3b59 803e e279 733e c39a 603e 65f6 bc3d
000000a0: 97f7 ef3d 12e7 833e 69d7 db3b f43e 72be
000000b0: 79d8 ea3d 1733 573e 23e2 033e b90c fcbd
000000c0: 3e8c 8f3d 6770 3b3e 5d74 133d ee89 87bc
000000d0: f6ea ba3c 79a9 843e 987d 773e 60c3 573e
000000e0: bea0 28be 7755 13bf ef07 55be eb04 9b3e
000000f0: f74e 9cbd 7952 c1bd c94f 7dbe e56b 2a3e
00000100: 82c1 fcbd 656a 193e df2c 543e e6ea 6e3c
00000110: 415b 563e 0438 b2be e5b4 a13e c39b 273e
00000120: b3a0 0ebe 824f 03be d0c9 c1be bfb9 fb3d
00000130: 7f72 a8be 1fcb 903e 3a65 ef3d d467 2a3e
00000140: c3ff dd3d 686e ae3e 9652 13be 22bd 993d
00000150: fe23 2cbe 408d b8bc 4448 b9bd 6a28 21be
00000160: 7b2b 38bd 95d4 d03e 4f17 043e 720c f33d
00000170: 74d5 d23d 9bd2 02bd 22eb 2e3d a3d7 b3be
00000180: 7a83 35bf 8971 94bd ec51 5c3d 343a 7fbd
00000190: d305 6cbe 4e6c f2bd c312 e73d 94ca ba39
000001a0: dfca dc3d ebf0 abbe 7c51 b33d 8b64 10be
000001b0: 8d0e d6bd 17de 123e 93d4 d4bd e395 95be
000001c0: b46f d4be ad01 b2be 3938 b5bd e46e ee3d
000001d0: 1fa4 6e3e a124 783d 4abc da3a dd2a 1a3e
000001e0: a428 9fbd ccc0 e4bc 6cfb 1cbd 15ca 64be
000001f0: e851 88be 0f5b 7fbe fb66 a53d 3303 1abd
00000200: 8a64 7bbe 8b15 213e bd0b 81be a36b 7ebe
00000210: 3d16 c93e 5a8c cc3d a382 1b3e 001d a3be
00000220: d3c9 d83d 317b cdbd 68c8 bcbb e1da a13e
00000230: 3ec0 673e 3963 323e 9857 aebd 3582 003e
00000240: ce54 a2bd 7c5a 81be 737b ddbc a6f1 32be
00000250: 6e1f cdbd dc42 453e 281f 5cbe 76c6 adbe
00000260: d776 09bd d73e 3e3a eca6 b6bd 4c1f 4a3e
00000270: b9dd abbd b6d8 fdbe 802c 9abd 13da 37bd
00000280: afd0 83be 4f65 c5bd b95d 35be 486c b8bb
00000290: 6ccc c2bd f6dc 1dbc f70a 1ebe fe4d 42be
000002a0: b328 22be 08f8 0dbe 6e1d 1b3e 3906 b33e
000002b0: fbc3 b53e d607 793e d754 583e c739 b93e
000002c0: 24cd 95be 58be ca3e a3f3 373e 32a0 87bb
000002d0: 15bc d43c 5da7 303e 38d4 eb3d de7d 3bbe
000002e0: fa2b dbbb 3fab 74be f71b a23d 8233 9d3e
000002f0: bf8b 31bd d029 173e 47b6 243e 3459 27be
00000300: f9b6 093e adb8 4abd 4216 4fbe 7754 69be
00000310: b24f 1dbe 586e d3be 1a78 4abe d330 ce3d
00000320: 2602 8bbe 2aa3 b43d 068e 0ebe dcce 5c3d
00000330: 90a8 d4be 16c5 1a3e 85cd ad38 34f8 d73c
00000340: 8c22 a53c 5ce1 51bd 318e 19bd d325 903e
00000350: 99df 02bf 3cce 2fbc 461a 2bbe 0c8f 533e
00000360: f8de 86be 603d a13c 0110 aebe 0c10 2bbc
00000370: d053 d4bc 640d 91bd ee4c 4ebe 6aef e93c
00000380: aeb0 86be c195 b53c 9759 76bd 13f6 373e
00000390: 4c94 7abe 2c2b bcbc 0733 acbe 4c6d 8c3e
000003a0: b7f3 8f3b 3928 46be 90eb 363e e726 b63e
000003b0: 924c 493e bb6f b2bd 4857 573e 5bdb d9bb
000003c0: 46a8 573e 97a6 5fbe 18c5 c73d 3aa5 06bd
000003d0: 651c 563e eea3 c2bd 6796 1d3e 8750 3fbe
000003e0: 66a9 b2bd 26d2 0a3e 98d4 9fbe cc63 8a3e
000003f0: ce33 683e 7c1e e3be 38c2 78be 0adb 1ebe
0.0035175206 -0.030293966 0.12208708 0.24242193 -0.0015081376 0.0825248 -0.23181772 0.10825633
-0.27102083 0.17373289 -0.07868443 -0.17987558 -0.052847102 -0.14100467 -0.0660725 -0.17556278
-0.12564221 0.07070228 0.1441081 -0.01843056 0.005421047 0.35705283 0.13803634 0.13832003
-0.255664 -0.32383296 0.119762026 -0.095328756 0.20524646 0.11970465 -0.3682943 0.11488695
-0.11352417 0.012523798 0.072277114 0.037396997 0.25068077 0.23776963 0.21934037 0.092266835
0.11717146 0.2576223 0.0067090285 -0.23656827 0.1146707 0.21015583 0.12879233 -0.12307114
0.07009171 0.18304597 0.035999645 -0.016545262 0.022817116 0.25910547 0.24169004 0.21070623
-0.16467568 -0.57552284 -0.20803808 0.3027719 -0.07632249 -0.094395585 -0.24737467 0.16642721
-0.12341596 0.14981993 0.20720242 0.014582371 0.20933248 -0.34808362 0.31583324 0.16368012
-0.1392849 -0.12823299 -0.37849283 0.12291288 -0.32899854 0.2827997 0.11689229 0.1664117
0.10839798 0.34068608 -0.14386973 0.07506777 -0.16810605 -0.02252829 -0.09046987 -0.15738073
-0.04496334 0.40787187 0.12899517 0.11867608 0.10294619 -0.03193913 0.04270471 -0.35125455
-0.7090374 -0.072482176 0.053789064 -0.062311366 -0.23049097 -0.11837064 0.112828754 0.00035627617
0.10780882 -0.33582243 0.08755776 -0.14100854 -0.10451994 0.14342533 -0.10392108 -0.29215917
-0.41491473 -0.34766904 -0.08848614 0.116422445 0.23304795 0.060581807 0.0016688195 0.15055414
-0.077714235 -0.027923964 -0.038325712 -0.22342713 -0.2662499 -0.2493708 0.080762826 -0.037600707
-0.24550071 0.15730874 -0.25204268 -0.24845748 0.3927478 0.099877074 0.15186553 -0.31858063
0.1058537 -0.100332625 -0.005761195 0.31612304 0.22631928 0.17420663 -0.08512801 0.1254967
-0.079263315 -0.25264347 -0.027036404 -0.17474994 -0.1001576 0.19263786 -0.2149626 -0.33940476
-0.0335606 0.00072572887 -0.089185566 0.19738501 -0.083918996 -0.495794 -0.07528019 -0.044885706
-0.2574515 -0.09638464 -0.17711534 -0.0056281425 -0.09511647 -0.009635201 -0.1543387 -0.18975064
-0.15835838 -0.13864148 0.15147945 0.34965685 0.35501084 0.24319395 0.21126114 0.36176893
-0.29258072 0.39598346 0.17964034 -0.00413897 0.02596859 0.17251344 0.11515087 -0.18309733
-0.006688592 -0.2389345 0.0791549 0.3070336 -0.043346163 0.14762044 0.16085158 -0.16342622
0.13448705 -0.049492527 -0.20223334 -0.22786127 -0.15362433 -0.41295123 -0.19772378 0.10067906
-0.27150077 0.088201836 -0.13921365 0.053908214 -0.41534853 0.15114245 8.287564e-05 0.02636347
0.020158075 -0.05124031 -0.03748912 0.28153858 -0.5112243 -0.010730322 -0.16709241 0.20660037
-0.26341987 0.019682586 -0.33996585 -0.010440838 -0.025918871 -0.07082632 -0.20146534 0.028556544
-0.2630667 0.022166135 -0.060144033 0.17964964 -0.24470633 -0.022969805 -0.3363268 0.27427137
0.0043930667 -0.19351281 0.17863297 0.35576555 0.19658116 -0.08712717 0.21029389 -0.0066484637
0.21060285 -0.21840893 0.097543895 -0.032872416 0.20909269 -0.09503923 0.15389405 -0.18683062
-0.087237164 0.13556728 -0.31216884 0.27029264 0.22676012 -0.44359195 -0.24292839 -0.15513244

rnn.mlp.fc2.0.0.bias f4 [64]
00000000: 40f0 bbbd 9395 0dbe da2b 11bc 2403 9dbd
00000010: fc87 84bd 1b3d e4bd 67e7 1fbd 78f9 dd3c
00000020: 426a 363d d81e 65bd ef19 18be 88f3 60bd
00000030: 3b4a 313c 9a32 babd 4d8a 0dbc 80f8 d3bd
00000040: cd4c 433d c3a5 8abd 4449 0f3d 7930 39bd
00000050: b291 99bd 0a65 96bb 884a 56bc 2133 383c
00000060: 16b7 23bd 9c35 653b f831 63bd 7e8e 78bc
00000070: ac12 f73c 7c64 f43c 7945 61bd 00e9 1ebe
00000080: ae75 2a3d dee9 09bd f9ff 50bd 9e66 61bd
00000090: 93e8 7f3d 4597 d7bc f318 9fbd 402b 0fbd
000000a0: e71c 8f3c 6f8a 003d af05 a83c d607 efbd
000000b0: f066 573c 029f 79bc 64af cabd e0da 5ebc
000000c0: ff48 e0ba 15f9 2ebd 8bff 80bd 0c7f 09bd
000000d0: 7829 05bd ed07 cdbc 94d2 31bc 7a63 57bc
000000e0: b2d9 18be cca3 4fbd 932b 25bd 128e 9dbd
000000f0: c105 8d3c d977 6f3c f73e b2bd 6828 1ebd
-0.091766834 -0.1382659 -0.008860553 -0.07666615 -0.064712495 -0.111444674 -0.03903904 0.027096495
0.04453493 -0.055937618 -0.14853643 -0.05491975 0.010820921 -0.09091683 -0.0086389305 -0.10350132
0.047680665 -0.06769898 0.03498198 -0.045212243 -0.07498492 -0.0045896815 -0.013079293 0.011242659
-0.039969526 0.003497458 -0.055467576 -0.015170692 0.03016027 0.029833071 -0.054997895 -0.1551857
0.041616134 -0.0336703 -0.051025365 -0.055029504 0.06247766 -0.026317248 -0.077684306 -0.034953356
0.017469836 0.03138202 0.020510523 -0.116714165 0.013147101 -0.015235664 -0.09896734 -0.013601989
-0.0017111598 -0.042718012 -0.06298741 -0.033568427 -0.03251025 -0.025028193 -0.010853428 -0.013146276
-0.14926794 -0.05069332 -0.04032476 -0.076931134 0.017214658 0.014615976 -0.08703416 -0.038612753

rnn.mlp.fc2.0.2.weight f4 [64]
00000000: 49cd 873f 2b95 b03f 0d49 9d3f 278c 903f
00000010: 1c69 903f e90c 963f ef2b 823f 9e9b 8b3f
00000020: b8aa 963f 3769 963f 0295 8b3f f51e 903f
00000030: 5460 873f c873 a73f 6658 8b3f 9484 913f
00000040: db87 a13f 3f09 9c3f 189f 953f da12 8e3f
00000050: f1be 9b3f 8a93 9d3f ee9a 893f 5fc4 a03f
00000060: 5f9e 983f 861b a13f cbd8 883f c99f 913f
00000070: 468b aa3f 4ce4 ac3f 089e ad3f 28e2 943f
00000080: 4b8d 9c3f 97d7 943f a805 9f3f 55ff 8f3f
00000090: fd12 983f 5b5b a83f 967a 943f c172 8a3f
000000a0: 32a4 9c3f f601 963f 1c6c 873f 9bc1 983f
000000b0: 6cc9 a13f 3565 903f 237a a13f c263 853f
000000c0: ecc5 953f 0025 a13f 3880 933f 6b0e 993f
000000d0: 1035 a73f cd77 853f 811a 9d3f fa98 8a3f
000000e0: 83cc a13f 60cf 993f 280f 8c3f d605 943f
000000f0: d980 973f 4708 943f 2e28 983f 04d0 943f
1.0609523 1.3795522 1.2287918 1.1292771 1.1282077 1.172269 1.0169657 1.0906866
1.1770849 1.1750859 1.0904849 1.1259447 1.0576272 1.3082209 1.0886352 1.1368585
1.2619585 1.2190322 1.1689177 1.1099503 1.2167646 1.231065 1.0750406 1.2559928
1.1923331 1.2586524 1.069116 1.1376888 1.3323753 1.3507171 1.3563852 1.1631517
1.2230619 1.1628293 1.2423601 1.1249796 1.1880795 1.315288 1.159991 1.081627
1.2237608 1.1719348 1.0579867 1.1934084 1.2639594 1.1280886 1.2615398 1.0421069
1.1701026 1.2589417 1.1523504 1.1957525 1.3063068 1.0427185 1.2273713 1.0827935
1.2640537 1.2016411 1.0942125 1.1564281 1.1836196 1.1565026 1.1887262 1.1625981

rnn.mlp.fc2.0.2.bias f4 [64]
00000000: 9699 f23a 6e27 b739 9d40 683d 100f d73d
00000010: 154c 89bd eaa2 5bbc 49d8 b13c 4ac5 893d
00000020: 47de 19bb 94ee e23c b5af dc3c 0852 993b
00000030: 1e8b e73c 3adb 3cbd 7e7c 9c3d c535 a83d
00000040: 804e ab3d bfbe 1b3d fa52 8d3b 9011 02b4
00000050: 90d6 3cbd 3b9a c6bd 9b88 543d 1812 81bd
00000060: e9fb 323e 3f22 3c3d b156 4abc e64c f93c
00000070: 11f5 cabd cbe0 a6bd 6cb8 9c3c 1218 e83b
00000080: 6d0c 9b3d 92f7 dfbc 3a54 12bd 8952 94bd
00000090: 0b24 223e ecc6 46bd 97b7 a83c da0f 7dbd
000000a0: 2a16 0ebc 202f ab3d 3470 0e3c 3e5d a43d
000000b0: 75a7 05bd 8591 a13c b006 023d 2f0b 66bd
000000c0: f2a3 e33b 5fe3 293e d89e 8d3c ca02 20bd
000000d0: e28f ec3c 9e76 993d a3de 03bd fc07 83bb
000000e0: 46aa 8d3d e995 37bd 448d 4c3d 46ea 713d
000000f0: ba7e 323d 1449 4e3d 7d90 9ebc 08c3 273d
0.0018508907 0.00034933857 0.056702245 0.1050092 -0.067039646 -0.013405541 0.021709578 0.06727083
-0.0023478435 0.027701654 0.026939252 0.0046789683 0.028264578 -0.04610751 0.076409325 0.08213381
0.08364582 0.038023707 0.00431287 -1.2113583e-07 -0.04610306 -0.09697386 0.05188809 -0.06302279
0.17478909 0.045931097 -0.01234977 0.030432176 -0.09910024 -0.081483446 0.019130908 0.0070829475
0.075707294 -0.02733973 -0.035724856 -0.07242305 0.15834062 -0.04852955 0.020595355 -0.061782695
-0.0086722765 0.08358598 0.0086937435 0.08025597 -0.032630403 0.01972271 0.03174466 -0.05616301
0.006947034 0.16590641 0.017287657 -0.03906516 0.028877202 0.074933276 -0.032194745 -0.0039987545
0.06917243 -0.0448207 0.04993941 0.05906131 0.043577887 0.05036266 -0.019356007 0.04095748

rnn.rnn.rnn.weight_ih_l0 f4 [192, 64]
00000000: 821a 7fbd 3ae5 3c3e 165b efbd 0824 973d
00000010: d4cb c93c 46b1 a63d 7fd2 af3d d6d8 943e
00000020: 2080 693e 89f9 28be a297 b2bc 9001 49be
00000030: 5313 843d b049 c03e 5924 433d 2f2d 9c3d
00000040: 9be4 36bc 6f35 293e 7c21 38bd adb1 973d
00000050: da2f c03e f565 333d 4cb7 30be f1a5 a73e
00000060: 8e56 4bbe 2477 90be 83bc a4bd c8cd 8d3c
00000070: c2fd 133e 6bd2 68be 8e5f 9abe ed72 b6bd
00000080: 1c5f fcbd 8959 a73d ce09 063f 77e0 8dbe
00000090: 45eb 773e bc7f 45bd e552 433e 28ef 5cbe
000000a0: 58d7 74be 7917 4bbe e402 22be cc9f 2a3e
000000b0: c8ef e73d 70f9 063e 152d dc3c c5ce 1a3e
000000c0: 7dc8 55bd 35b3 f1be 9058 a3bc 9f73 a23e
000000d0: d912 85be f5bb 7b3e 8a2d bf3d d458 393d
000000e0: d08e ab3d b5c5 abbe df0e 8fbe ba3d ab3d
000000f0: ee18 8abc 161f f43b a129 3a3c 7276 443e
00000100: 637c 0bbc 0a91 b73d 1a4d 4fbe 5f83 4bbd
00000110: 6b07 393d c959 c5bd 4fe5 29bc 7315 473e
00000120: a5b2 d9bd 24b9 443e e1e0 5cbb 9233 603d
00000130: 7fd1 a03d c02c b03d 6480 ba3d da60 9fbc
00000140: 79bb a7bd f1ca 893e a9df 5c3e ca79 bcbc
00000150: ec6c 3a3d d64b 0fbe 83fc c2bc 0a73 b23d
00000160: 449a 153e b134 60bd 0cb5 8f3d 41df 20bd
00000170: 2f71 433e 557c 8f3e c333 fe3e 2285 7a3e
00000180: c6c7 24bd 9274 c1bd b0e1 433d 46b7 29bd
00000190: 4cf0 9abe ab22 8a3e c9f7 143e 9d9a 7ebe
000001a0: 2687 a3bd d5bc e43c cda1 483c 92f1 523e
000001b0: 9ae3 90bd de4b 51bd a5e9 893e bf89 2d3e
000001c0: c292 f4bb cf9b 713d 0414 bebd 3752 373e
000001d0: a192 8a3c 9fea b6bc 5f5a 723b c2fb 62ba
000001e0: 2ae5 7cbd 9559 7c3c 4fe7 9cbd 3b83 09be
000001f0: 67be f23d 5d92 55be ab22 59be 0d34 d43b
00000200: 737b 2dbe b210 c83d 2529 e13e c0fc 763e
00000210: d414 89bd 3b66 063e cbcb 21bd 63ca 5ebe
00000220: 60dd e4bd 89e8 75be 4d73 cc3d dca5 503e
00000230: 18a9 143e eede 183e fb0d 8dbd be38 bfbe
00000240: 46e8 04be 6784 9b3c 83d0 06be 51ef b43d
00000250: 6f7f 033e 66f0 a33e 4fff 93be e7c6 8abd
00000260: ec3a 50bd f03b b63d 2d6b 333e 0d04 bebd
00000270: a9b0 7cbd 7ab0 353e 0e5c 913e a37e af3d
00000280: eb23 453e 3789 a23e 1194 223e 5902 513b
00000290: 9c64 823e ba4b 02bd 06d0 adbe e062 a33e
000002a0: 0664 143e 07cc a5bd 2a09 973d 0ddf cebe
000002b0: ce72 84bd ca27 1a3d c606 e13c 4c2d 1b3e
000002c0: b5ac f23c b5d7 983e 58d2 e3be e77b dd3d
000002d0: 82b0 813e 2197 a9be 5205 853e b3bf c3bc
000002e0: facc c1be 7f35 45bd efca e5bd 60a7 29be
000002f0: 9c28 833e 7a93 0fbb 128e f23d 1e2d e33d
00000300: 6da3 df3c 0f72 57be ff8b a63d bac4 c8ba
00000310: d0f2 9d3d 3709 1d3e 1327 aabe 732a 0cbe
00000320: 6f74 233e 781a 113e 9d02 19be 9f0a a63d
00000330: 7599 a239 c1a0 9f3e 55db 7bbe 23d8 5c3d
00000340: 46f3 c83d 4b11 56bd a9fe 7ebd edbf bebb
00000350: 5534 fabd ace9 bc3d 2ee8 783d f32e 31be
00000360: ad29 ddbc f261 8ebd a9a9 5dbd e03a 91be
00000370: 756d 10be bb85 9c3d 45ee b1be 8228 04bc
00000380: a8a0 323e 16c5 80be cfe2 f03d d6e1 48bd
00000390: 4e0d af3e 1002 f9bd 79ab d53e 099a 3c3e
000003a0: 4c6b 5f3b 1ac0 41be 89f1 5dbe f039 ff3d
000003b0: 7cec dabe 082f 85be 2b0c d73c cfc5 213e
000003c0: b656 e83d 968c 57be 3d69 19be 711c 66be
000003d0: 8267 59be 95e8 593e 9994 f73e d459 81bd
000003e0: 04fe ae3d 86ed 72be 7ad4 ae3e 1ddd 6bbe
000003f0: 251a 0a3e 582d e73d fa01 393e b22f 0b3e
-0.06228114 0.18446818 -0.11687295 0.07379919 0.024633326 0.08139281 0.08585071 0.29071683
0.22802782 -0.1650144 -0.02180082 -0.19629502 0.06448998 0.3755622 0.047642086 0.076258056
-0.011162902 0.1652429 -0.04495381 0.07406936 0.37536508 0.043798406 -0.17257422 0.3274379
-0.19857237 -0.28215897 -0.08043768 0.017310038 0.1445227 -0.22736518 -0.30151027 -0.08908639
-0.12322828 0.08171374 0.5235871 -0.27710316 0.24210842 -0.04821752 0.1907459 -0.21575606
-0.23910272 -0.19833173 -0.15821415 0.1666252 0.113250315 0.1318109 0.026876966 0.15117939
-0.052193154 -0.47207037 -0.01993969 0.31728837 -0.25990942 0.24583419 0.09334858 0.04525073
0.08376849 -0.33549276 -0.27941033 0.08361383 -0.01685759 0.007449995 0.011362464 0.19185808
-0.008513543 0.08963211 -0.20244256 -0.049685832 0.04517309 -0.09636266 -0.010369613 0.19441776
-0.10629777 0.1921125 -0.0033703374 0.05473668 0.07852458 0.086022854 0.0910652 -0.019455362
-0.081900544 0.26912645 0.21569695 -0.023007292 0.045514032 -0.13993773 -0.023802048 0.08713348
0.14609629 -0.05473775 0.07016954 -0.03927541 0.19086145 0.28024545 0.49648866 0.24464849
-0.04022958 -0.09446062 0.047822654 -0.04143455 -0.30261457 0.26979575 0.14547648 -0.24863668
-0.07984762 0.027922073 0.012245608 0.20599964 -0.070746616 -0.051097743 0.2693607 0.16947077
-0.007463784 0.05898648 -0.092811614 0.17902456 0.016915621 -0.022328673 0.0036980135 -0.00086587307
-0.061741985 0.015402217 -0.07661306 -0.13428967 0.118527226 -0.20856614 -0.21204631 0.0064759315
-0.16941623 0.097688094 0.43976703 0.24119854 -0.06693426 0.13124935 -0.039500993 -0.21756892
-0.111750364 -0.24014486 0.099829294 0.2037577 0.14517629 0.14928791 -0.06887432 -0.37347978
-0.1297923 0.018984033 -0.13165478 0.088347085 0.12841581 0.32019347 -0.28905722 -0.06776219
-0.050837442 0.08898151 0.17521353 -0.092781164 -0.061691914 0.17743102 0.28390545 0.08569076
0.19251983 0.31745312 0.15876795 0.0031892268 0.25467384 -0.0318105 -0.33947772 0.31911373
0.14491281 -0.08095556 0.07374795 -0.4040455 -0.0646721 0.037635602 0.02746905 0.15153998
0.029623369 0.2985207 -0.44496417 0.10814648 0.25329977 -0.33123115 0.25980622 -0.02389512
-0.37851697 -0.04814672 -0.11220347 -0.16567755 0.2561692 -0.0021907971 0.11843504 0.1109259
0.027299607 -0.21039604 0.08132171 -0.0015317418 0.077123284 0.15335546 -0.33232936 -0.13688068
0.15962385 0.14170253 -0.14942403 0.081074946 0.00031013382 0.31177333 -0.24595387 0.05391706
0.09812026 -0.052262586 -0.06225458 -0.005821219 -0.12217013 0.09224257 0.0607683 -0.17303066
-0.026997412 -0.06952275 -0.05411688 -0.2836523 -0.14104255 0.076426946 -0.34752098 -0.008066298
0.17444098 -0.25150365 0.1176201 -0.0490435 0.34189838 -0.121585965 0.41732386 0.18418135
0.0034091054 -0.18920937 -0.2167417 0.124622226 -0.42758548 -0.26012444 0.02625092 0.15798114
0.11344664 -0.21049723 -0.14981551 -0.22471787 -0.21230891 0.21280129 0.4835556 -0.063159615
0.085445434 -0.2372342 0.34146482 -0.23033567 0.13486536 0.112879455 0.1806716 0.13592413

rnn.rnn.rnn.weight_hh_l0 f4 [192, 64]
00000000: 6040 2b3e ea31 653e ab30 143d 25d1 67be
00000010: c5a2 d3bd ab64 cebd c72d 18be 160a 29bd
00000020: 11d3 31bd 69e6 ba3e 7788 4abd 0979 0e3e
00000030: 909f 51bd 864f 3e3e ae3b 8c3e e6c5 873d
00000040: 6d5a 6fbe b9e7 603d 99a8 a7be 5f5a 3bbd
00000050: 5752 d53b 3e71 103d edf0 77bd f0ba 1c3c
00000060: 2230 b7be c8fb 043f 8e6b 4fbd 9ffd 2e3e
00000070: 9907 7bbc d161 03bd f3f4 d53b 9d39 573e
00000080: 0c29 103e b643 bc3c 9d47 8abd 7ec6 e13d
00000090: d549 c53d 1f04 86bd 871e a23d eb92 243e
000000a0: aba6 42be 315f 35be 928b c33e 7e6c 613e
000000b0: 968c 37bd 7ffc 563d 9856 67be 020d 833e
000000c0: f3a1 ea3c be50 1b3e c4dc 423d 0ae9 353d
000000d0: 9112 97bc cd4a 0bbe 67e4 15be ceef 983d
000000e0: 558e a93e c96c ac3e cce8 933e 6ae2 d1be
000000f0: 8dba 1dbe 422b f0bc 5b8d 0b3e d763 63be
00000100: 32ce 53be 3728 cebe 2023 09be b537 f4bc
00000110: 9e73 1f3d 2b49 523e c057 d2bd 32ab 16be
00000120: deba 17bf c4a2 943e 72c5 60be 3e5a 2d3e
00000130: 6cfd 183e 7e78 0b3e 88f8 97bd 4cd2 92be
00000140: 3545 a7bd bd34 42be bac5 8f3e bfab e3bd
00000150: b632 0b3e 9edc 0cbe 8e60 af3c 9da7 c5bd
00000160: b310 18be 388b 5cbe 9d1f 4fbd 22a8 483d
00000170: 04e8 f0bc 3f7f 633e 8840 b5bd 723f 45bd
00000180: 6094 91bd bef3 86be fca1 31bd cc08 ba3b
00000190: be2d 353d 83a7 1ebe df55 efbd b47a ab3d
000001a0: 8245 c23d b83f 253d 3f3b cc3d 6a36 223e
000001b0: 459c 403d 5c65 a93e 2945 04be b71b 5dbe
000001c0: 8410 a8bd eb1f 97be 4031 6f3d 9367 61bd
000001d0: 976e e23e efcc 13be bb14 a23d c209 38be
000001e0: fff3 cc3d c9d4 ba3b 2ddc ff3d a97e 82be
000001f0: f920 ad3d e4da da3b f623 163e 5eee da3d
00000200: faf1 b43e cc1e 343e c117 78bd 63d1 9cbd
00000210: d747 e63e 651c 92bc 1cc5 9abd 743e 763d
00000220: 6c84 81bd 7bbf 143d 8c17 bebd 31a2 45be
00000230: 0433 f3bd 2b6c 2b3e a32a 1e3d ab71 a6bd
00000240: f798 aa3e 65cd aabd 2e06 7a3e 09fa 80bd
00000250: 92c7 1b3e ee16 89be 1c90 293d 5620 533e
00000260: f786 6e3d f06f 95bd 6c53 67bd 1cd2 73bd
00000270: a920 15bd a613 b03e baf2 71be 18bb 72bd
00000280: 4446 0e3e 0344 85bd 7aa9 24be 58a5 f63d
00000290: be89 3a3e 05b3 cebc fe96 b43d 7760 a3be
000002a0: 5c5c f4be 535a 0f3e d7ab d53e a7b8 c1bc
000002b0: 1e50 05bd fe71 473e 0148 bd3e 3f16 663d
000002c0: 4db2 54be 0dc6 293c 74e9 eabd 96eb 5b3e
000002d0: 6bfb d13c b70b 943e 3c3f f7bc 7fd4 c6be
000002e0: 9153 2b3d 5a63 6cbe 7b40 20be 4643 c73a
000002f0: 784b 5a3d dafc 923e 26bc 953d cd7b 3d3e
00000300: eef9 643e c57d 9a3e 3d2f ce3d 567d 9c3e
00000310: a36e 573e 1f3f 48be b7b2 1cbe f880 0d3e
00000320: 841e ce3d f1f5 cfbb 4664 a3bc 62c7 36bd
00000330: 41b5 133d a586 b6bc a883 1dbe bf8f 1abe
00000340: eb37 36be 731e d73d 53cd aa3e 9f5b 00be
00000350: 6e4a fabc d420 dbbd e44a 063e c388 31be
00000360: f0d2 3dbe cedd 993c 30a1 633e 0b09 b53d
00000370: bf54 7f3e 9cb6 233d 07a0 b8bd 6c28 1b3e
00000380: 8c81 6ebd cd32 973e 0d22 283e f8fc 00be
00000390: 5451 4e3e 5ce2 643d 7f84 a33e 31a2 543e
000003a0: 4abe 063e 5935 9d3e dfbb c6bd fd90 983d
000003b0: bf2c 3ebd ecc9 d2bd e8d8 d0bd 5a82 d63e
000003c0: c4ac adbd 2996 083e 0778 3c3e 0f54 4cbe
000003d0: e819 e43d 4870 ca3d 56c1 773e 84c5 1dbc
000003e0: 6a43 223d 5e5b 3b3d 0660 9e3e 5ce7 523e
000003f0: bb38 03be befc 90bc adb5 5dbe 0be9 2e3e
0.16723776 0.22382322 0.036179226 -0.22638376 -0.1033378 -0.10077795 -0.14861213 -0.041269384
-0.04341418 0.36503914 -0.04944655 0.13913359 -0.05117756 0.18585023 0.27389282 0.06629543
-0.23374338 0.054908488 -0.32745817 -0.04574048 0.00651006 0.035264246 -0.0605325 0.009566054
-0.3577891 0.5194669 -0.05063968 0.17088936 -0.015321636 -0.032075707 0.0065294444 0.21018071
0.14078158 0.022981506 -0.067519404 0.110241875 0.09633223 -0.06543755 0.07915979 0.1607167
-0.19008891 -0.17712094 0.3819242 0.22014043 -0.044811808 0.052486893 -0.22591627 0.25595862
0.028641677 0.1516752 0.04757382 0.044411696 -0.01844147 -0.13602753 -0.1463791 0.07467614
0.33116403 0.33676746 0.28888547 -0.40993053 -0.15403195 -0.029317502 0.13628142 -0.22206055
-0.20684126 -0.40265056 -0.13392305 -0.02981172 0.03892862 0.20535724 -0.10270643 -0.14713743
-0.5926951 0.2903043 -0.2195032 0.16928956 0.14940423 0.13620183 -0.074204504 -0.2867607
-0.08167497 -0.1896543 0.2808054 -0.11116742 0.13593563 -0.13756034 0.021408346 -0.0965111
-0.1485012 -0.21537483 -0.05056726 0.04898847 -0.029407509 0.2221651 -0.08850199 -0.04815621
-0.071083784 -0.26357836 -0.04336737 0.005677318 0.044233076 -0.15493588 -0.116863005 0.08373013
0.09485914 0.04034397 0.09972238 0.1584107 0.04702403 0.33085144 -0.12917008 -0.21592604
-0.08206275 -0.2951654 0.058396578 -0.055030417 0.44224998 -0.14433645 0.0791411 -0.17972472
0.10007476 0.0057016355 0.12493167 -0.2548726 0.08453555 0.006678926 0.14662156 0.10689996
0.35340863 0.17589873 -0.06056953 -0.07657125 0.44976684 -0.017835805 -0.07557127 0.060118154
-0.063240856 0.036315423 -0.09281835 -0.19300152 -0.11874965 0.16740482 0.03861488 -0.08127149
0.33319828 -0.08339957 0.2441642 -0.062976904 0.15212849 -0.26775306 0.0413972 0.20617804
0.05823418 -0.07296741 -0.05647604 -0.059526548 -0.0364081 0.3438999 -0.23627749 -0.059260458
0.13893992 -0.06507113 -0.16080275 0.120432556 0.18216607 -0.025231848 0.08817862 -0.31909534
-0.47726715 0.139993 0.41732666 -0.02364762 -0.03254711 0.19477078 0.36968997 0.05617356
-0.20771141 0.01036216 -0.11470309 0.21476588 0.02563258 0.28915188 -0.03018152 -0.38833997
0.041827742 -0.23084775 -0.15649597 0.0015202544 0.05329463 0.28708535 0.07311277 0.18504258
0.22360966 0.3017408 0.10067604 0.30564374 0.21038298 -0.19555329 -0.1530255 0.13818729
0.10064414 -0.006346457 -0.019945275 -0.04462374 0.03606153 -0.022281 -0.15382254 -0.15093897
-0.17794769 0.105038546 0.33359775 -0.1253495 -0.030553069 -0.10699621 0.13114506 -0.17337327
-0.18537498 0.018782523 0.22229457 0.088396154 0.24934672 0.03996907 -0.09014898 0.15152138
-0.058229014 0.29530945 0.1641924 -0.125965 0.20148212 0.055879936 0.31937024 0.20764996
0.13158527 0.30704764 -0.09703802 0.07449529 -0.046429392 -0.1029242 -0.101976216 0.41896325
-0.08480218 0.13338532 0.18405162 -0.19953941 0.11137754 0.09884697 0.24194846 -0.009629611
0.039615072 0.04574143 0.30932635 0.20596069 -0.1281461 -0.017698642 -0.21651335 0.17081086
