train/maddpg-v1/model_hd_par_4/formation_hd_partial_env/agent_2/79_critic_params.pkl (torch, 65743 bytes, 7 tensors)

fc1.weight f4 [64, 116]
0	0x3d839d28	0.064264596
1	0x3d139893	0.036034178
2	0x3e961175	0.29310194
3	0x3e41e7d6	0.18936095
4	0xbfdcba69	-1.7244388
5	0x403bbd82	2.9334416
6	0x3e9fa5b5	0.31181112
7	0xbf83f262	-1.0308344
8	0x40487e55	3.1327107
9	0xbfe2c083	-1.7715
10	0xbfd696b9	-1.6764747
11	0xbe3685cd	-0.17824478
12	0x3dc00a21	0.09376932
13	0x3c4cf378	0.012509219
14	0x3e23a64a	0.15981403
15	0xbc905cf9	-0.017622458
16	0xbbcb0528	-0.006195683
17	0x3e684b79	0.2268504
18	0xbd5c8fc7	-0.053848054
19	0xbdb535b9	-0.088481374
20	0xbb1e6680	-0.0024169981
21	0xbd9a7fa5	-0.075438775
22	0x3cebc0f0	0.028778523
23	0xbcd82e58	-0.026389286
24	0xbb959c6a	-0.004565765
25	0xbd3e355e	-0.046437614
26	0xbe2c1db5	-0.16808207
27	0xbc8a7095	-0.016899386
28	0xbfca003c	-1.5781322
29	0x403e99f5	2.9781468
30	0x3e7d4ce7	0.24736367
31	0xbf7bbbb5	-0.98333293
32	0x404b6b25	3.1784146
33	0xbfde54f4	-1.7369676
34	0xbfcf796d	-1.6208931
35	0xbe864dae	-0.2623114
36	0xbdb6763a	-0.08909269
37	0xbe586fe1	-0.21136428
38	0xbe0b0e03	-0.13579564
39	0xbcc8d936	-0.024517637
40	0x3bf61a01	0.007510424
41	0x3dbf58cd	0.09343109
42	0xbcfa9b30	-0.030591577
43	0x3b9623b0	0.004581891
44	0xbdb2cc33	-0.08730354
45	0x3dab4307	0.08362394
46	0xbb00b9e0	-0.001964204
47	0x3d0b55e6	0.034017466
48	0xbba12e0a	-0.0049188184
49	0xbc74323d	-0.014904556
50	0xbe9f0574	-0.31058848
51	0xbdd1055d	-0.10206101
52	0xbfd8f7ea	-1.6950657
53	0x403b1823	2.9233482
54	0x3ea39f7e	0.3195762
55	0xbf6da8e0	-0.9283581
56	0x404374cf	3.0540044
57	0xbfe0db8e	-1.7567003
58	0xbfd3c1a5	-1.6543471
59	0xbe8a85a9	-0.270551
60	0x3d8e4c22	0.06948115
61	0xbdac7799	-0.08421249
62	0xbe68ab7e	-0.22721669
63	0x3c1c7682	0.009549739
64	0xbe9df17a	-0.30848294
65	0x3dd57083	0.104218505
66	0xbce74614	-0.028231658
67	0x3d9f4e09	0.07778556
68	0x3d911d6b	0.07085689
69	0xbcc636e0	-0.024196088
70	0x3d8dc263	0.06921842
71	0x3c716858	0.01473435
72	0x3be2c48e	0.006920404
73	0xb84ae678	-4.8375194e-05
74	0x3e4c0282	0.19922832
75	0x3d386f12	0.0450278
76	0xbfdfe27a	-1.749099
77	0x403ea297	2.9786737
78	0x3e99180e	0.29901165
79	0xbf66d3f8	-0.9016719
80	0x4041c92b	3.0279033
81	0xbfda7b84	-1.7068944
82	0xbfdf209f	-1.743183
83	0xbe9390e7	-0.2882149
84	0x3da8efd5	0.08248869
85	0xbde5f34d	-0.112280466
86	0xbdc3a1f6	-0.09552376
87	0x3dacf2da	0.08444758
88	0x3da21230	0.07913625
89	0x3e2c96c2	0.16854385
90	0xbdb1c0c9	-0.08679349
91	0x3db53f43	0.08849957
92	0x3cd7c7d4	0.026340403
93	0xbd37a907	-0.04483893
94	0x3c362af0	0.011118636
95	0x3d982b9b	0.07430192
96	0xbb817d9e	-0.0039517423
97	0x3c710da5	0.014712726
98	0xbce525c2	-0.027972106
99	0x3ccd734b	0.02507939
100	0xb8ce94c2	-9.850554e-05
101	0xba73bc56	-0.00092977786
102	0xbcb72fc3	-0.022361642
103	0x3bae7fe0	0.0053253025
104	0x3bd337a4	0.006445842
105	0x3d0f3466	0.03496208
106	0x3bacbe90	0.0052717403
107	0xbbbbed9b	-0.005735112
108	0xba30374a	-0.0006722106
109	0xbcbde82a	-0.023181994
110	0x3c140230	0.009033725
111	0xbc91f62d	-0.017817581
112	0x3c341c2c	0.010993045
113	0xbcb49416	-0.02204327
114	0xbc94a856	-0.018146675
115	0xbca66ec2	-0.020316485
116	0x3ccc7744	0.024959214
117	0xbcb229be	-0.02174842
118	0x3df3f180	0.11911297
119	0xbddd76c1	-0.10813666
120	0x3f87de94	1.06148
121	0xbd4c667b	-0.04990242
122	0x3cab0642	0.020877007
123	0x400d338d	2.2062714
124	0xc04b159b	-3.1731937
125	0x3e1cecc3	0.15324692
126	0x400411f9	2.063597
127	0xc0163328	-2.3468723
128	0xbd667eef	-0.056273397
129	0x3df1a917	0.117998295
130	0x3d7f2b8c	0.06229739
131	0xbd903258	-0.07040852
132	0xbb4b51eb	-0.0031024169
133	0xbe66f640	-0.22554874
134	0xbd999a42	-0.075001255
135	0xbd58274c	-0.05277185
136	0xbda7911c	-0.08181974
137	0x3cc4e494	0.024034776
138	0xbd898f51	-0.067167886
139	0xbd71b821	-0.05901349
140	0x3c16c7c2	0.009202899
141	0xbd002936	-0.0312893
142	0x3e01e6f7	0.12685762
143	0x3dc44332	0.09583129
144	0x3f83436c	1.025495
145	0xbd90037d	-0.07031915
146	0x3d3bce25	0.04585089
147	0x400cbb61	2.1989367
148	0xc04a9efc	-3.1659536
149	0x3e33fa2f	0.17575906
150	0x3ffedd4a	1.9911282
151	0xc0186493	-2.3811386
152	0x3d9a95f6	0.07548134
153	0xbe1f6db6	-0.15569195
154	0xbd48a283	-0.04898311
155	0x3d8adbc1	0.06780196
156	0x3de92a15	0.1138498
157	0x3e311cbf	0.17296122
158	0x3d355842	0.044273622
159	0x3d510912	0.05103404
160	0x3d2e6d22	0.042584546
161	0x3d0f028a	0.03491453
162	0x3d3a1ae2	0.045435794
163	0xbda37eb8	-0.07983154
164	0x3bda41b2	0.0066606635
165	0xbd3117a9	-0.043235455
166	0xbe1a5d0b	-0.15074556
167	0x3d44cae0	0.04804504
168	0x3f936976	1.1516559
169	0xbe116253	-0.14197664
170	0x3c72554c	0.014790844
171	0x400a7873	2.1636016
172	0xc043058a	-3.047213
173	0x3e9ad3fb	0.30239853
174	0x40034e05	2.051637
175	0xc0188785	-2.3832715
176	0xbe63c76a	-0.22244039
177	0xbd8b9566	-0.06815605
178	0xbe759a2e	-0.23984596
179	0xbdeb606d	-0.11493001
180	0x3c8a452d	0.016878689
181	0xbe35e61f	-0.17763565
182	0x3d425fd2	0.047454663
183	0x3cd6c1dc	0.026215486
184	0xbd9f1106	-0.07766919
185	0x3d8f7429	0.07004578
186	0x3d013b10	0.031550467
187	0x3da6f9c1	0.081531055
188	0xbcc3302e	-0.023826685
189	0xbd62a153	-0.055329632
190	0x3d866a5c	0.06563255
191	0xbe91f8d3	-0.2851015
192	0x3f8cb67e	1.0993192
193	0xbe064a56	-0.13114294
194	0xbbe3adc2	-0.006948204
195	0x40078e61	2.118065
196	0xc04beb5e	-3.1862407
197	0x3e7a54dd	0.24446435
198	0x4002a45f	2.0412824
199	0xc01a562f	-2.4115102
200	0x3e99592f	0.29950854
201	0x3d37dcfb	0.044888478
202	0x3e2b7c61	0.16746666
203	0xbe67a67e	-0.22622105
204	0x3df92e8d	0.12167082
205	0xbe66b903	-0.22531514
206	0x3db44c6d	0.088036396
207	0xbd9fad5f	-0.0779674
208	0x3dbae73d	0.091261365
209	0xbbde1f00	-0.006778598
210	0xbd88cfce	-0.066802606
211	0x3d88d2f3	0.0668086
212	0xba3000b5	-0.00067139725
213	0xbc557291	-0.013027803
214	0xbbe8ba9c	-0.0071023237
215	0x3bf97c8b	0.0076137236
216	0x3cb62bf2	0.022237752
217	0xbcf75f92	-0.030196939
218	0xbb171fd6	-0.0023059747
219	0x3ca376f2	0.019954178
220	0xbce8f11c	-0.028435282
221	0x3d0b7acc	0.034052655
222	0xbcae5975	-0.02128289
223	0xbbdcd378	-0.006739076
224	0xbb46b63f	-0.003032103
225	0xbce06a31	-0.027394386
226	0x3d385026	0.04499831
227	0x3ce048ed	0.027378524
228	0xbc99e99f	-0.018788157
229	0x3d2b7b70	0.041865766
230	0xbcd579e8	-0.026059106
231	0x3d4f5361	0.050616626
232	0xbda2593e	-0.07927178
233	0x3d4a4908	0.049386054
234	0xbf184424	-0.59478974
235	0x3e887199	0.26649168
236	0x3f325fb0	0.6967726
237	0x3f1c65ef	0.6109304
238	0x4072c33d	3.7931664
239	0xbf381f5b	-0.71922845
240	0xbfb9a0a4	-1.4502149
241	0xbe94f066	-0.2908966
242	0xc04609dd	-3.094352
243	0x3ed48cfb	0.4151381
244	0xbe92eb3b	-0.28695092
245	0xbe121060	-0.14264059
246	0xbe695bdd	-0.2278895
247	0x3da61310	0.08109105
248	0xbe281ef1	-0.16418053
249	0xbd54982f	-0.051902946
250	0xbd82cef6	-0.06387131
251	0x3db5fbe1	0.08885933
252	0xbd50606c	-0.050873205
253	0xbc110ab8	-0.008852653
254	0x3db07a67	0.086170964
255	0xbd5343dc	-0.051578388

fc1.bias f4 [64]
0	0xbed5f87a	-0.41791135
1	0xc050b51e	-3.2610545
2	0xbfae2608	-1.3605356
3	0xc10a69a7	-8.650794
4	0xc0009b8d	-2.009494
5	0xc0809fdd	-4.0195146
6	0xc0b945cb	-5.7897696
7	0x3f53d0fa	0.8274075
8	0xc00c7138	-2.1944103
9	0xc0f8bc8e	-7.773017
10	0xc10316d6	-8.193075
11	0xc08a1933	-4.315576
12	0xc08cd5fa	-4.40112
13	0x4025a58b	2.588229
14	0x402fe7d7	2.7485254
15	0xc0e18e11	-7.048592
16	0xc0a1e9b0	-5.0597763
17	0x4039d616	2.9036918
18	0xc0a1a7f3	-5.0517516
19	0xc0ccd1ac	-6.4005947
20	0xc0affb2d	-5.499411
21	0x40030c79	2.0476363
22	0xbea5b382	-0.32363516
23	0xc0d13fed	-6.5390534
24	0xbfda70ae	-1.7065637
25	0x406a116c	3.6573133
26	0xc0e0208a	-7.003972
27	0xc0bb0b99	-5.8451657
28	0xbfb48e2e	-1.410589
29	0xc0b0af2e	-5.5213842
30	0x402b3141	2.6748812
31	0x40a4a45f	5.145065
32	0xbf9ed199	-1.2407714
33	0xbf1cf348	-0.6130872
34	0xc044b34b	-3.0734432
35	0x40b9646d	5.793509
36	0x409806bd	4.7508225
37	0xbe09ed7e	-0.13469502
38	0x40ad55a1	5.4167027
39	0x3e1f1a1c	0.15537304
40	0xc115a1a2	-9.351961
41	0x40c694a5	6.205645
42	0xbfcb054c	-1.5860991
43	0xc0f5db69	-7.6830335
44	0xc05af25f	-3.4210432
45	0xc0c1ef22	-6.060441
46	0xbfee4b29	-1.8616687
47	0xc0d7136e	-6.721122
48	0xbf95c957	-1.1702069
49	0xc1005968	-8.021828
50	0xbdfd18c8	-0.12358242
51	0xc0a6b63b	-5.209745
52	0xc1010f6e	-8.066267
53	0xc024f7b4	-2.5776186
54	0x409eb061	4.9590306
55	0xc0b57dd0	-5.671608
56	0xc0662fe0	-3.596672
57	0xc080c283	-4.023744
58	0xc0826a05	-4.075442
59	0xc07b65a9	-3.9280798
60	0xc06aa4ac	-3.6663008
61	0xc00fed7b	-2.2488697
62	0x40b77f78	5.73431
63	0xc1133052	-9.199297

fc2.weight f4 [64, 64]
0	0x3f9bb9a8	1.2166033
1	0x3f37d8f1	0.718154
2	0x3dd61b0a	0.10454376
3	0x3fbd5aac	1.4793296
4	0xbf347311	-0.7048808
5	0xbebfd991	-0.37470677
6	0x400e130c	2.2199125
7	0xbf7a787a	-0.9784008
8	0x3f05bba2	0.5223943
9	0xc0545944	-3.3179483
10	0xbfbfdcf6	-1.4989307
11	0x3d4ec9a7	0.05048528
12	0xbdf8e592	-0.12153162
13	0x3f74786b	0.95496243
14	0xc0388924	-2.8833704
15	0x3f9c165a	1.2194321
16	0xbff38fcf	-1.9028262
17	0xbfe7f97a	-1.8123009
18	0x3eca708a	0.39538985
19	0x3e44003b	0.19140713
20	0x3eb878ba	0.36029607
21	0x3f998dff	1.1996459
22	0x3f476ff6	0.77905214
23	0x3fe86f70	1.8159008
24	0xbf7be20d	-0.983918
25	0xbf89d348	-1.0767603
26	0x3ebb950b	0.36637148
27	0xbed9b1c8	-0.4251845
28	0xbf234436	-0.63775957
29	0x3ef953ca	0.48696738
30	0xc049fb47	-3.1559618
31	0xbeed6b17	-0.46370766
32	0xbf76ce61	-0.9640866
33	0xbdbb334a	-0.09140642
34	0x3dc290aa	0.09500249
35	0xbe217b3d	-0.15769668
36	0xbe1273b8	-0.14301956
37	0xbd741cb1	-0.059597675
38	0xbdea5d18	-0.114435375
39	0xc00e5436	-2.2238898
40	0xc01ec37b	-2.4806812
41	0xbf5be3d9	-0.8589454
42	0x3f380613	0.7188427
43	0x3f571bc7	0.8402676
44	0x3e4ad1d2	0.19806603
45	0x3fee2209	1.8604137
46	0x3f5cddbd	0.86275846
47	0x4005b255	2.0890095
48	0xbd5da4df	-0.05411231
49	0x3f6b8042	0.9199258
50	0xc0a82b12	-5.2552576
51	0xbf3e9fcb	-0.74462575
52	0x3fc092b4	1.504477
53	0xbd6ba09b	-0.057526212
54	0xbf0e849e	-0.5567111
55	0xbf69b446	-0.912907
56	0x3f62f139	0.88649327
57	0xc00d29b8	-2.2056713
58	0xbd84da35	-0.06486932
59	0x3f4f54a2	0.80988514
60	0xbe32a701	-0.1744652
61	0x3eec7865	0.46185604
62	0xbf652482	-0.8950883
63	0x402fc8db	2.7466342
64	0xbf84780d	-1.0349137
65	0x3f0ff715	0.5623639
66	0x3e77a7f6	0.24185166
67	0xbf085187	-0.532494
68	0x3f75c445	0.9600261
69	0x3f65175c	0.8948877
70	0x3f492b3b	0.7858159
71	0xbf1c08d0	-0.60950947
72	0xbfe6878b	-1.8010114
73	0x3e99c5bf	0.3003368
74	0xbfa41919	-1.2820159
75	0xbecad879	-0.3961828
76	0x3fb6e5d4	1.4288888
77	0xbf5cdb04	-0.8627169
78	0xbf42dd65	-0.7611907
79	0xbfb21fc6	-1.3915946
80	0xbfadcd90	-1.3578358
81	0xbed42dc4	-0.41441166
82	0xbec2d04b	-0.3804954
83	0x403e9bcb	2.9782588
84	0xbe925046	-0.2857687
85	0x3f2a28f4	0.6646874
86	0xbed21f1e	-0.41039366
87	0xbe024081	-0.12719919
88	0x3c8d22d7	0.017228527
89	0x3f4cbd31	0.79976183
90	0xbfa12f4e	-1.2592561
91	0x3fdc48a9	1.7209674
92	0x3d8bc4a7	0.06824618
93	0x3f0ce5b4	0.55038
94	0xbe730c54	-0.23735172
95	0xbe2476bc	-0.16060919
96	0xbef4086a	-0.4766267
97	0x3dcdc0e5	0.10046557
98	0xbfde3d03	-1.7362369
99	0x3f451f87	0.7700123
100	0xbf98b4a5	-1.1930128
101	0xbe3c01f5	-0.18360122
102	0x3e161b30	0.14658809
103	0xbeb1a44e	-0.34695667
104	0x400770ee	2.1162677
105	0xbf1efbdf	-0.62103075
106	0xbd8bd82b	-0.0682834
107	0x3f377f3c	0.7167852
108	0x3f112fba	0.5671345
109	0x3e80c612	0.25151116
110	0x3e8623e4	0.26199257
111	0x3e9014fa	0.28141004
112	0x3f754bf9	0.9581905
113	0xbff8f9e0	-1.9451256
114	0xbf56effb	-0.8395993
115	0xbf990cba	-1.1957009
116	0x3e9a0904	0.30085003
117	0xbe1129d6	-0.14176115
118	0xbe07d723	-0.13265662
119	0x3f916944	1.136025
120	0xc0381797	-2.8764398
121	0x3fc73c83	1.5565342
122	0x3da53832	0.08067359
123	0xbfd74485	-1.6817786
124	0xbdb5d111	-0.08877767
125	0xbf8d9848	-1.1062098
126	0xbda8842e	-0.08228336
127	0xbfb519d4	-1.4148507
128	0x3f1d720f	0.61502165
129	0xc0c182d6	-6.047221
130	0x3e741228	0.23835051
131	0x3e63141b	0.22175638
132	0x3e02829f	0.1274514
133	0xbed720cf	-0.42017218
134	0xbf0e7256	-0.5564321
135	0x3f707985	0.93935424
136	0x3b18140c	0.0023205308
137	0xbe046ff1	-0.12933327
138	0x3fdc9b3c	1.7234874
139	0x3f6d3981	0.9266587
140	0x3f05b3a9	0.52227265
141	0xc03df029	-2.9677832
142	0xbf12c65b	-0.57333916
143	0xc00eb7e9	-2.229975
144	0x3d4ddc2b	0.050258797
145	0xbf462f59	-0.77415997
146	0x3fd143c9	1.6348811
147	0x3f4c75d7	0.7986731
148	0x3fad2182	1.3525851
149	0x3e3a9477	0.18220697
150	0xbf208fd2	-0.6271945
151	0x3ff0db8e	1.8817003
152	0xbe2e6ab6	-0.17032894
153	0x3f30e1ab	0.6909434
154	0x3ef6b17d	0.48182288
155	0x3f7982f3	0.9746544
156	0x3df40f61	0.11916996
157	0x3e0c22aa	0.13685098
158	0xbee888ca	-0.45416862
159	0xbe15b93e	-0.14621446
160	0x3dd56644	0.10419896
161	0xbf2bdc50	-0.67133045
162	0xbecac14f	-0.39600608
163	0xbd9c496f	-0.07631194
164	0xbdbba2ee	-0.09161936
165	0x3f0fddc4	0.5619776
166	0xbf00d0d7	-0.50318664
167	0xbf88d7ae	-1.069082
168	0x3edc856b	0.4307054
169	0xbf2deb96	-0.679376
170	0x3e619ab4	0.22031671
171	0x3ddcfd72	0.10790528
172	0xbea611d9	-0.32435492
173	0xbf3971d5	-0.7243932
174	0xbd28ba8c	-0.04119353
175	0xbdd80f5a	-0.10549803
176	0xbf90f402	-1.1324465
177	0x3f37d276	0.7180551
178	0xbeca000b	-0.39453158
179	0x3df42739	0.11921544
180	0x3b8a987d	0.004229604
181	0x3d8ebaf1	0.0696925
182	0xbf027127	-0.50953907
183	0x3fcc2c7e	1.5951078
184	0x3f07a814	0.5299084
185	0x3fc83d39	1.5643684
186	0xbd42600f	-0.04745489
187	0xc00471a0	-2.0694351
188	0xbe633262	-0.22187188
189	0xbedcd1d0	-0.43128824
190	0xbf0aa629	-0.5415979
191	0xbf9cf423	-1.2262005
192	0xc023c223	-2.5587242
193	0xbf78c305	-0.97172576
194	0xbf957f79	-1.1679527
195	0xbe18b58b	-0.14913003
196	0x3d3e5600	0.046468735
197	0xbd850ba8	-0.06496364
198	0xbf683d7c	-0.9071882
199	0xbfbb0ba5	-1.4612929
200	0xbd4ee4fe	-0.050511353
201	0xbf236694	-0.63828397
202	0xbe40701f	-0.18792771
203	0x402df419	2.7180235
204	0x3fda680b	1.7063001
205	0xbf40525a	-0.7512566
206	0xbf74e300	-0.95658875
207	0x3e66958b	0.22517984
208	0xc0ccff26	-6.406146
209	0x3f5ec31d	0.8701647
210	0xbe29d3f7	-0.16584764
211	0x407b9bf2	3.9313931
212	0xbf4d602c	-0.8022487
213	0xbef33ec7	-0.47508833
214	0x3f9b4239	1.2129585
215	0xbfee2dd7	-1.8607739
216	0x3ee7be04	0.45262158
217	0xbfb3616e	-1.4014108
218	0x3fc5d1ca	1.5454648
219	0x3f682a38	0.9068942
220	0x3e1afcb4	0.15135461
221	0xbefbaaf9	-0.4915388
222	0x3f1aea74	0.60514
223	0xbf01f3b3	-0.5076248
224	0x3e3970e4	0.1810947
225	0x3e95cdf2	0.29258686
226	0xbe9ff32f	-0.31240222
227	0x3e927f93	0.28612956
228	0x3e879160	0.264781
229	0xbfa32bb1	-1.2747709
230	0xbf72bcba	-0.94819224
231	0x3f9efe28	1.2421312
232	0x3f2db902	0.67860425
233	0xbf95f044	-1.1713948
234	0xbfe60a75	-1.7971941
235	0x3f5fc2d1	0.8740664
236	0x3e3401b0	0.17578769
237	0x4015c0bc	2.3398886
238	0x3f2c43ea	0.6729113
239	0xbe436ea4	-0.19085175
240	0xbd80b95f	-0.06285357
241	0x3f88eb29	1.0696765
242	0x3ded1a9b	0.1157734
243	0x3f922eb1	1.1420499
244	0xbf339c71	-0.70160586
245	0xbce8be64	-0.028411098
246	0xbf4c975b	-0.7991845
247	0x3f635fa5	0.88817817
248	0xbdcf124a	-0.1011091
249	0xbe8f9a7e	-0.28047556
250	0xbd2723c6	-0.0408056
251	0x3f36502d	0.7121609
252	0x3ed94de3	0.42442235
253	0xbe609eab	-0.21935527
254	0xbfc41b01	-1.5320741
255	0xbe605b16	-0.21909747

fc2.bias f4 [64]
0	0x4019e5b1	2.4046443
1	0x4063f27f	3.5616758
2	0xbfb7224c	-1.4307342
3	0xbf8b6bb3	-1.0892242
4	0xbffb4313	-1.9629844
5	0x402b3a8b	2.6754482
6	0xbf81f752	-1.0153601
7	0x3fbd6b00	1.4798279
8	0x3fb66ae1	1.4251367
9	0x40098144	2.1485147
10	0x400538b5	2.0815861
11	0xc000bb1f	-2.011421
12	0x3fb4a12e	1.4111688
13	0x400bbfa7	2.1835725
14	0x40841767	4.1278567
15	0x405b49ea	3.4263864
16	0x403c77ac	2.9448042
17	0x3e3f33ed	0.18672152
18	0xbff401f4	-1.9063096
19	0x3f2eab72	0.68230355
20	0x40b18a88	5.5481606
21	0x40090745	2.1410687
22	0x3f214685	0.6299823
23	0x3fbe9c71	1.4891492
24	0x3ef9ece8	0.48813558
25	0x40760b60	3.8444443
26	0xbf2b2fa1	-0.6686955
27	0x402a4f29	2.6610816
28	0xbe7b2331	-0.24525143
29	0xc06cf879	-3.7026656
30	0xbf5d866a	-0.86533225
31	0xbf52c67e	-0.82334125
32	0x40855032	4.1660395
33	0x40b9c319	5.8050656
34	0x40bf7aef	5.9837565
35	0x3fe4af21	1.7865945
36	0xbfe7f406	-1.8121345
37	0x3e81329c	0.25233924
38	0x40b27316	5.5765486
39	0x3f10414f	0.56349653
40	0xbfb32796	-1.3996456
41	0x40701c93	3.751744
42	0x3ff0d22b	1.8814138
43	0xbfbe4139	-1.4863654
44	0xbfa115e6	-1.2584808
45	0xbe880c80	-0.26572037
46	0xbeb6ca65	-0.3570129
47	0xbf3126d6	-0.69199884
48	0x40b2b2af	5.584312
49	0xbec33836	-0.38128823
50	0x3fd7a3ce	1.6846864
51	0x406654fe	3.5989375
52	0x3f1438f7	0.5789942
53	0xbfa8661f	-1.3156165
54	0x40058dd6	2.086782
55	0x3f07b0af	0.5300397
56	0xbeececca	-0.46274406
57	0x40920316	4.5628767
58	0x40339148	2.8057423
59	0xbec70127	-0.38868067
60	0xbfff19ed	-1.9929787
61	0xc0654bc1	-3.5827487
62	0x3f255cc9	0.64594704
63	0x406512ab	3.5792644

fc3.weight f4 [64, 64]
0	0xbd18898f	-0.03724056
1	0xbe1259e0	-0.14292097
2	0xbdc8b4c6	-0.09800105
3	0xbd12e6e5	-0.03586473
4	0x3d3497a4	0.04408993
5	0xbd627e67	-0.055296328
6	0xbe2455f7	-0.16048418
7	0xbd098b8a	-0.03358034
8	0xbd46cdbf	-0.04853606
9	0xbdb5cd7c	-0.08877084
10	0xbba46678	-0.005017098
11	0xbdb2cb3a	-0.08730169
12	0x3d9e9ae6	0.07744388
13	0xbdc508b1	-0.096207984
14	0xbd98a58c	-0.074534506
15	0xbd482563	-0.04886378
16	0xbc9e4101	-0.019318106
17	0x3d01a506	0.03165152
18	0xbde1bdbd	-0.11022518
19	0xbd908793	-0.07057109
20	0xbd011609	-0.031515155
21	0xbda2d051	-0.079498895
22	0xbd710c6b	-0.058849733
23	0xbd94033a	-0.07227178
24	0x3c877526	0.016535353
25	0xbdafcd26	-0.08584051
26	0xbdb38671	-0.08765877
27	0xbdc5739c	-0.09641191
28	0xbd279b48	-0.040919572
29	0xbd429c33	-0.047512244
30	0xbc351bdc	-0.0110540055
31	0xbdaa2a5c	-0.08308861
32	0xbdb975c1	-0.09055663
33	0xbd886620	-0.06660104
34	0xbe32ecae	-0.17473099
35	0xbe432fe2	-0.19061235
36	0xbe256aae	-0.16153976
37	0xbdb4feda	-0.088376716
38	0xbdc6d306	-0.09708218
39	0xbb9ab113	-0.004720816
40	0xbdcec53a	-0.10096212
41	0x3d0df6d6	0.03465923
42	0xbdbef555	-0.09324137
43	0x3d3a4101	0.04547215
44	0x3d2d168e	0.042257838
45	0xbda42de3	-0.08016565
46	0x3d23f3bf	0.040027376
47	0x3da45b5b	0.08025237
48	0xbe595500	-0.21223831
49	0x3d089302	0.033343323
50	0xbe19b232	-0.15009382
51	0x3caccca9	0.021093683
52	0xbd9d0ac1	-0.07668067
53	0xba8553da	-0.0010172084
54	0xbdc15e93	-0.09441867
55	0x3d1e3040	0.038620234
56	0xbcf4b0ca	-0.029869456
57	0xbd9c4459	-0.07630224
58	0xbe2a1944	-0.166112
59	0xbbfec56f	-0.0077750008
60	0xbdd5621d	-0.10419104
61	0xbc93b93c	-0.018032663
62	0xbd91dce9	-0.071222134
63	0xbe3845bf	-0.17995356
64	0xbd2442c4	-0.040102735
65	0xbde2dbb4	-0.11077061
66	0xbc0a7d84	-0.008452777
67	0xbdd3775a	-0.10325499
68	0xbd63b528	-0.055592686
69	0xbd5f643a	-0.054538943
70	0xbd2c27fc	-0.04203032
71	0x3cc5e1b3	0.024155473
72	0x3d0f2f7f	0.034957405
73	0xbddf8884	-0.1091471
74	0xbe3bc3a9	-0.18336357
75	0xbd7eaaab	-0.06217448
76	0x3b2d7b2e	0.0026471126
77	0x3d03e1cb	0.032197755
78	0xbdd5597e	-0.1041746
79	0x3d240035	0.04003926
80	0xbd3b10c2	-0.04567028
81	0xbd83dabb	-0.06438204
82	0xbd8b88c3	-0.068131946
83	0x3d956b73	0.07295885
84	0xbdf5e971	-0.12007416
85	0x3d1e0eec	0.03858845
86	0xbd935249	-0.07193429
87	0xbe26e975	-0.16299994
88	0xbd8ea753	-0.06965508
89	0xbc50c460	-0.012742132
90	0x3cb266c8	0.021777526
91	0xbe10bfa2	-0.14135602
92	0xbde97d5d	-0.11400864
93	0xbd82424c	-0.063603014
94	0x3dc8cc3e	0.09804581
95	0x3d92ee74	0.071743876
96	0xbd703a33	-0.058649253
97	0x3c878ada	0.016545702
98	0xbc980f5c	-0.018562011
99	0xbde33027	-0.11093169
100	0xbd52d9e0	-0.051477313
101	0xbd95ae5c	-0.07308647
102	0xbdc1d83d	-0.09465072
103	0xbdd2c00a	-0.10290535
104	0xbb7f5d96	-0.0038965694
105	0xbda3d764	-0.08000067
106	0xbd442bea	-0.047893442
107	0x3d07e2d8	0.03317532
108	0xbda22e19	-0.07918949
109	0xbe1afbc0	-0.15135098
110	0x3d38fc2c	0.045162365
111	0x3d21f980	0.039544582
112	0xbdbcd202	-0.09219743
113	0xbcf34b85	-0.029699096
114	0xbdd45a0e	-0.10368739
115	0xbe279f25	-0.16369303
116	0xbd061967	-0.03273907
117	0xbdc0917b	-0.09402748
118	0xbdb39086	-0.087678
119	0xbdc19bb4	-0.09453526
120	0xbdaa5705	-0.08317379
121	0xbe0b0db5	-0.13579448
122	0xbc63e780	-0.013910174
123	0xbdeecf1c	-0.11660597
124	0x3ccef6a5	0.025264094
125	0xbd05cac1	-0.032664064
126	0xbd6b553d	-0.057454336
127	0xbde1c1c5	-0.11023287
128	0x3e8bb51c	0.27286613
129	0xbeb036ab	-0.34416708
130	0xbf0531ad	-0.52028924
131	0x3f771abb	0.9652516
132	0x3fe84466	1.8145874
133	0xbed3a68d	-0.41338006
134	0xbe6506cf	-0.22365879
135	0xbfb2b82c	-1.3962455
136	0x3d014beb	0.03156654
137	0x3f3cbd0d	0.7372597
138	0x3faadc52	1.3348486
139	0x3ff91034	1.945807
140	0x3da24e1a	0.07925053
141	0xc01b0101	-2.4219363
142	0x3f503f67	0.81346744
143	0xbd9500e3	-0.0727556
144	0x3e952850	0.29132318
145	0x3ead2e13	0.33824214
146	0x3f02dc5d	0.511175
147	0xbf41ee0c	-0.75753856
148	0xbe0481e2	-0.12940171
149	0x3f411c66	0.7543396
150	0x400f128a	2.2355065
151	0x3e222e62	0.15838006
152	0x3fcc4a1d	1.5960118
153	0xc00cbdf8	-2.1990948
154	0x40000f49	2.000933
155	0xbf83b3c5	-1.0289236
156	0x40132263	2.2989738
157	0x3f15edba	0.58565867
158	0x3ffc42df	1.9707907
159	0x3fb2c878	1.3967428
160	0x3f409cbc	0.7523916
161	0xbfaccfc6	-1.3500907
162	0xbda5cb4a	-0.08095415
163	0x3f4084c4	0.75202584
164	0xc0a26dfe	-5.075927
165	0x3f4f0f8a	0.80883086
166	0x3cf8b26b	0.030358514
167	0x3ee21dd9	0.44163397
168	0x3fdbca13	1.7171043
169	0x3fd0a082	1.6298983
170	0x3f1ce18e	0.6128167
171	0xbc970ec4	-0.018439658
172	0x3ffcac06	1.9739997
173	0x3f53efff	0.8278808
174	0xbfa5532e	-1.291601
175	0x3f37dc38	0.718204
176	0xbd416248	-0.04721287
177	0x3fec9613	1.8483299
178	0xbf39e951	-0.7262164
179	0xbcd89c0d	-0.026441598
180	0x3f73cc3a	0.952335
181	0x3f3c2b67	0.73503727
182	0x3e3ce496	0.18446574
183	0x407f2fe2	3.9872975
184	0x3d238154	0.03991826
185	0xbc883582	-0.016627077
186	0xbf00caf0	-0.5030966
187	0x3d2d56c0	0.04231906
188	0xbfc642e9	-1.5489169
189	0x3f9b30ac	1.2124228
190	0xc07770e1	-3.8662646
191	0x3e2c5dd0	0.16832662
192	0xbd20cd2b	-0.039258163
193	0xbd9f85ad	-0.077891685
194	0xbe3013b7	-0.1719502
195	0xbddd82b0	-0.10815942
196	0x3d9912ea	0.07474311
197	0xbe0fdff1	-0.1405027
198	0xbd751402	-0.059833534
199	0xbe183c54	-0.14866763
200	0xbdc04c71	-0.0938958
201	0xbdc4294d	-0.0957819
202	0x3c2fb0d4	0.010723311
203	0xbc7d4b21	-0.015459807
204	0x3cc2a411	0.023759874
205	0xbd1583a3	-0.03650249
206	0xbd01e731	-0.031714622
207	0xbade263b	-0.001694865
208	0xbd8b3fea	-0.067993
209	0x3d867100	0.06564522
210	0xbceae964	-0.028675742
211	0xbd93a520	-0.072092295
212	0xbd8802db	-0.0664117
213	0x3da265e8	0.07929593
214	0x3cb7ead0	0.022450835
215	0x3d778830	0.060432613
216	0xbb92759d	-0.004469587
217	0x3c3653a2	0.011128338
218	0x3d71cf91	0.05903584
219	0xbe283a24	-0.16428429
220	0xbd03e97f	-0.0322051
221	0xbd9eac43	-0.077477
222	0xbe17bb0e	-0.1481745
223	0xbd98882c	-0.07447848
224	0xbdc0f530	-0.09421766
225	0xbe525b1b	-0.20542566
226	0xbc647edb	-0.01394626
227	0x3a9f5205	0.0012155181
228	0xbb3f8a37	-0.002922667
229	0x3cb7ff96	0.02246074
230	0xbaff4fa5	-0.0019478692
231	0xbd8df5be	-0.06931637
232	0x3d1b3aa9	0.03789774
233	0xbdc907cc	-0.0981594
234	0xbd0980a1	-0.033569936
235	0x3d0cf7d2	0.034416027
236	0xbdf87ea2	-0.12133528
237	0xbdf5e947	-0.12007385
238	0xbe168d46	-0.14702329
239	0xbdcd5d3b	-0.10027548
240	0xbd97f067	-0.074189
241	0x3bf43058	0.007452052
242	0xbdfd1d6e	-0.12359129
243	0x3d627c5a	0.055294372
244	0xbdef30b4	-0.11679211
245	0xbda26723	-0.07929828
246	0xbb9f0ed6	-0.0048540635
247	0xbdef8623	-0.116955064
248	0xbd9d6cd1	-0.07686771
249	0xbe149c85	-0.14512832
250	0xba2427f3	-0.00062620564
251	0x3d476eb3	0.048689555
252	0x3d57c868	0.052681357
253	0xbe00d0f6	-0.12579712
254	0x3cde35db	0.02712529
255	0xbcff14cf	-0.031137852

fc3.bias f4 [64]
0	0xbdb1a323	-0.08673694
1	0xbd2bf21a	-0.041978933
2	0xc083833d	-4.1097703
3	0xbb65c45c	-0.0035059666
4	0xbe5816a9	-0.21102394
5	0xbe52b434	-0.20576555
6	0xbd429711	-0.04750735
7	0xbe6c9128	-0.23102248
8	0x408e48b1	4.4463735
9	0x40b3d98e	5.620307
10	0xc0a14944	-5.0401936
11	0x40cdd2e2	6.4319925
12	0xbe1219f8	-0.14267719
13	0x403d916e	2.9620013
14	0x40c1f76d	6.0614533
15	0xc0105dce	-2.2557254
16	0xbe658173	-0.22412662
17	0xc0415a0a	-3.0211205
18	0x3fd1d37f	1.6392668
19	0xbd81f511	-0.06345571
20	0xbe234057	-0.15942512
21	0xbe3a6520	-0.18202639
22	0xbd16935b	-0.036761623
23	0x408390b6	4.111415
24	0x3ef6fa30	0.48237753
25	0xbe4a192f	-0.1973617
26	0x3fe4420c	1.7832656
27	0x40cda133	6.4259276
28	0xbd6593e5	-0.056049246
29	0xbfcfe44f	-1.6241549
30	0x407f34b6	3.9875922
31	0xc03259fe	-2.7867427
32	0xbe2024a1	-0.15638973
33	0xc00176db	-2.0228794
34	0xc0098b62	-2.1491323
35	0x3ecb25b5	0.39677206
36	0x40cc9676	6.393367
37	0xbde1000d	-0.10986338
38	0x40c0a3f6	6.020015
39	0x40ba5b58	5.8236504
40	0xbd236462	-0.039890654
41	0xbdf9d8e7	-0.12199574
42	0xbf310642	-0.69150174
43	0xbe6a6385	-0.22889526
44	0xbf68dbc0	-0.9096031
45	0x40096ecb	2.1473873
46	0xbd434672	-0.047674604
47	0xbd67139b	-0.05641518
48	0xbd8621a7	-0.065493874
49	0x40d4a932	6.6456537
50	0x3f48fb3f	0.7850837
51	0x40afdeba	5.4959383
52	0xbe3278d3	-0.17428903
53	0xc07d9c4a	-3.9626641
54	0xbc285eb2	-0.010276483
55	0xbe16fa0e	-0.14743826
56	0xbfa13186	-1.2593238
57	0xc0337aef	-2.8043783
58	0xc09561e9	-4.668202
59	0xc08fe13e	-4.4962454
60	0xbe120942	-0.14261344
61	0x4083f615	4.1237893
62	0x40d0092e	6.5011206
63	0x40275d90	2.6150856

q_out.weight f4 [1, 64]
0	0xbcb49bb6	-0.022046905
1	0xbcad85d1	-0.021181973
2	0x3dcf967e	0.10136126
3	0xbb1a7994	-0.0023571001
4	0x3bfe85bf	0.0077674086
5	0xbcd7d7b4	-0.026347972
6	0x3ca5bfcd	0.02023306
7	0xbcdab4f9	-0.026697623
8	0xbe2201b0	-0.15820956
9	0xbe45543b	-0.19270413
10	0x3deb8660	0.11500239
11	0xbe383dce	-0.17992327
12	0x3c20a33a	0.009804541
13	0xbdfc7950	-0.12327826
14	0xbe30aaab	-0.17252605
15	0x3e174b98	0.1477493
16	0x3e3a3bea	0.18186918
17	0x3e61115f	0.21979283
18	0x3e0fbc54	0.14036685
19	0x3bc11c6e	0.0058932817
20	0x3d059564	0.032613173
21	0x3d631ce6	0.05544748
22	0xbb7e4a36	-0.0038801557
23	0xbe66a696	-0.22524485
24	0x3e7c9f23	0.24670081
25	0x3c8fe162	0.017563526
26	0xbe88e005	-0.26733413
27	0xbe4500c5	-0.19238575
28	0x3cd8e843	0.026477939
29	0x3df96273	0.12176981
30	0xbeaf3763	-0.34221944
31	0x3e49fa85	0.19724472
32	0xbcb67331	-0.022271724
33	0x3e66447f	0.22487067
34	0x3e385e7d	0.18004794
35	0x3e829b73	0.25509223
36	0xbe067f23	-0.13134436
37	0xbc9712c6	-0.018441569
38	0xbe1ceac6	-0.15323934
39	0xbdf4da12	-0.11955656
40	0xbee125d5	-0.43974176
41	0xbc9c72e1	-0.019097747
42	0x3e85ea87	0.26155493
43	0xbc68b465	-0.014203166
44	0x3ec07df8	0.37596107
45	0xbf0ead1a	-0.5573288
46	0x3c4bd738	0.012441449
47	0xba9492db	-0.001133527
48	0x3cfd2675	0.030902127
49	0xbea50e8d	-0.32237664
50	0xbe22a165	-0.1588188
51	0xbeab4bf5	-0.33456388
52	0x3ca59c42	0.020216111
53	0x3d966be1	0.07344795
54	0xbc5553ab	-0.013020436
55	0x3b11b054	0.0022230344
56	0x3e3f32bf	0.18671702
57	0x3d9f03ca	0.077643946
58	0x3df42391	0.11920846
59	0x3dbc5a43	0.091969036
60	0x3dee2722	0.11628558
61	0xbdf9b8a0	-0.121934175
62	0xbe581b60	-0.21104193
63	0xbe1c319b	-0.15253298
