train/maddpg-v1/model_hd_par_4/formation_hd_partial_env/agent_2/95_actor_params.pkl (torch, 43215 bytes, 8 tensors)

fc1.weight f4 [64, 24]
000000 91 e3 ff bb a4 b0 1d 3c 76 41 0b be 38 eb 25 3f
       -0.0078091105 0.009624634 -0.1359919 0.6481204
000010 b2 65 9a 3c 01 12 e2 3d e4 f6 dc bd cd 5b e2 bc
       0.01884732 0.1103859 -0.10789278 -0.027631665
000020 c1 73 91 be 09 f8 13 be 6e a0 06 3f 11 63 c8 be
       -0.28408626 -0.14450087 0.52588546 -0.39138082
000030 66 1e f8 3e 0d b9 07 3f 28 1e 67 be 6c 54 4c bd
       0.48460692 0.5301674 -0.22570097 -0.0498852
000040 4b c2 20 be f3 f8 03 be 8c e6 8e bd e8 d6 43 bd
       -0.15699117 -0.12887935 -0.06977567 -0.047812372
000050 8c d7 cb 3d 80 5e 0c bb e4 d1 36 3e 12 80 32 3e
       0.09953222 -0.002141863 0.17853504 0.17431667
000060 b3 0d 58 bd a6 81 67 3c e3 22 cf be 6f 96 ab 3e
       -0.05274744 0.014130032 -0.40456304 0.3351321
000070 d4 68 cc 3e e2 b8 0f bf d2 07 56 3d ea 22 ad 3e
       0.39923728 -0.56141484 0.05225355 0.338157
000080 4a b9 de bc 29 aa 39 be 8b aa bc bd 96 5a 3d 3b
       -0.027187962 -0.18131317 -0.09212216 0.0028893105
000090 7c f2 e8 3e 9b 15 8a 3e 52 08 4b 3e 05 78 89 be
       0.454975 0.2696961 0.19827393 -0.2684938
0000a0 61 45 de be a1 0d 2c 3e 71 9b 2b be df e6 bd bd
       -0.43412307 0.16802074 -0.16758515 -0.09272551
0000b0 80 97 a5 ba d6 ab 1a 3e f9 3d d3 bd 2b e7 13 be
       -0.0012633651 0.15104613 -0.10314555 -0.14443652
0000c0 7a 11 01 bb 28 05 de bc 64 2a c5 3e 81 68 30 3e
       -0.0019694255 -0.027102068 0.38508904 0.17227365
0000d0 fb 51 ac bd 64 f0 20 3f 29 13 13 bb c9 32 a0 3d
       -0.08414074 0.62866807 -0.002244184 0.078221865
0000e0 33 3f 64 3e 61 e7 82 be 4a c7 1b bf ed 4d 31 bf
       0.22289734 -0.25567153 -0.60850966 -0.6925953
0000f0 48 b8 4b 3f b6 48 98 3e 1d c4 0f 3e 90 b7 9c bc
       0.79578066 0.29742974 0.14039655 -0.019130498
000100 cf dd 4b 3e ab b9 27 3e 84 0c 47 be 18 f5 42 bd
       0.19908832 0.1637942 -0.19438368 -0.04759702
000110 1a 32 05 3e 5c 63 47 bd 30 dd 3e be a0 1e 49 bc
       0.13007393 -0.04867874 -0.18639064 -0.012275368
000120 63 42 87 3c bc b3 3e bd 73 90 28 be b1 fc 5f 3d
       0.016511148 -0.046558127 -0.16461353 0.054684345
000130 6d 36 50 be c4 ae 35 3f 22 e9 3a be 08 d9 1c bf
       -0.20333262 0.70969796 -0.18252996 -0.61268663
000140 71 e3 06 3e 09 1e 4e 3d 7b 1c fd 3e 44 32 91 be
       0.131727 0.050321613 0.4943579 -0.28358662
000150 7c cf a3 bd 50 52 39 be f5 6d 72 bd 74 73 fb bd
       -0.07998559 -0.18097806 -0.059186894 -0.1227788
000160 6c 8b 64 bd ea a9 a0 bd 90 a5 dd 3c 18 82 39 3d
       -0.055797026 -0.078449085 0.027056485 0.045290083
000170 a0 c5 ae 3b 10 1c 3e 3e 28 d9 12 be 16 5d d5 bd
       0.0053336173 0.18565392 -0.14340651 -0.10418145
000180 8d 24 82 bc 2f 51 b4 3d ae af 0d 3f e3 0e 25 3f
       -0.01588657 0.08804547 0.5534619 0.6447584
000190 b3 b6 18 bf 48 96 8c be 1c 37 7e 3c 71 9f e5 bd
       -0.59653777 -0.27458405 0.015516069 -0.11212052
0001a0 8e c4 6f be e8 74 ef 3d e2 83 a0 bb b4 f9 b3 be
       -0.23414823 0.1169222 -0.004898534 -0.35151446
0001b0 49 52 3d be 18 33 ed be 58 8a 85 3c 9a 9b 05 3e
       -0.1848842 -0.46328044 0.016301319 0.13047639
0001c0 3c 17 27 3d db bb 84 3d 0e 86 37 3e 09 d1 39 be
       0.040793642 0.06481143 0.17922232 -0.18146147
0001d0 98 4c 18 be e6 46 2e be d0 19 45 be 4f 47 e7 bd
       -0.14872968 -0.17019233 -0.19248128 -0.11292898
0001e0 4e 6d 15 bc 37 f9 08 bd f9 4b b3 3e c9 26 01 be
       -0.009120299 -0.033440795 0.350189 -0.12612452
0001f0 4a 07 5f bf 22 fc 83 bd c8 26 be be b7 d7 cf be
       -0.871205 -0.06444575 -0.37138963 -0.40594265
000200 75 86 2a 3f 1d 90 51 bd 6f 56 53 3e 77 c0 33 3f
       0.66611415 -0.051162828 0.2063844 0.70215553
000210 f9 76 7c 3e c7 1e 10 3d ea 3a 11 3e c9 d9 0a 3d
       0.2465476 0.0351856 0.1418263 0.033899102
000220 23 72 27 3e 3b 9b 03 3c 60 50 0a 3c ab 0d da bd
       0.16352133 0.008032615 0.008442014 -0.10647138
000230 93 9a 24 be cd 09 c8 bd 32 44 28 3e 50 ee c8 3d
       -0.1607459 -0.09767494 0.16432264 0.098110795
000240 e1 b8 ce bc fe ea 47 3d a2 25 93 3d ae 8e 98 3d
       -0.025234642 0.04880809 0.07184912 0.07449089
000250 44 97 6a 3e fc a4 de be 2d d4 0d 3e b9 39 e9 3e
       0.22909266 -0.43485248 0.1385047 0.4555185
000260 8b 1e fc be e3 6e 40 3f ee f9 0a 3e 03 81 3c bf
       -0.49242052 0.751692 0.13571903 -0.73634356
000270 9e a6 04 3e a8 85 03 be 9e 60 23 3a 37 a6 8f 3c
       0.12954184 -0.12843955 0.00062323536 0.017535312
000280 71 34 85 3e 37 68 ce 3d 90 c1 61 bc e8 0b 70 bd
       0.26016572 0.10078471 -0.013779059 -0.058605105
000290 68 18 78 bd 76 62 4e be 34 b3 2a be b2 30 15 3e
       -0.06057015 -0.20154747 -0.16669923 0.14569357
0002a0 8b da d7 bd b4 1c b4 3d 2f ca 17 3e 24 5f 20 bf
       -0.10539731 0.08794537 0.1482322 -0.62645173
0002b0 65 b1 af be ae 0f 97 3e f4 35 b7 3e d0 f0 be be
       -0.3431503 0.2950415 0.3578335 -0.372931
0002c0 f6 30 ca 3c 40 2b 67 3c 7c 39 08 be a7 44 43 3f
       0.02468155 0.014109433 -0.13303179 0.7627663
0002d0 0a 7b c7 3d 00 db 70 be 28 4f 44 3d 94 b6 0d be
       0.09740265 -0.23521042 0.04792705 -0.1383918
0002e0 d5 1c c1 3e 77 31 1e be e5 bd bc bd b6 db 39 3e
       0.3771731 -0.15448557 -0.09215907 0.1815022
0002f0 8c 0f 2f 3e c8 11 97 bc 94 98 05 be 00 6a 5e 3c
       0.17095774 -0.018441096 -0.13046485 0.013575077
000300 8c 5e 67 3b 7e d7 d9 bd 1c d6 1f bd d5 9f 54 3e
       0.0035304157 -0.10636805 -0.03902255 0.20764096
000310 fa 56 04 3f e8 35 39 bf 77 77 5b be 7e a2 01 bf
       0.51695216 -0.7234788 -0.21432291 -0.5063857
000320 95 cf e8 be a9 94 90 3e 03 a3 56 3e f2 87 07 3f
       -0.45470873 0.2823842 0.20960622 0.5294181
000330 fe cf d7 3c d1 18 ab 3e be 3b d9 bd 73 4d 1c 3e
       0.026344296 0.3341737 -0.10607098 0.1526392
000340 e6 4a a9 3d a1 23 02 bd 60 d0 55 bc 9c f0 39 3d
       0.08266239 -0.03177226 -0.013050169 0.04539548
000350 10 f4 7c 3d 44 45 94 3d bc 73 0d bd f8 aa 8c bd
       0.061756194 0.07239774 -0.0345342 -0.06868547
000360 55 6a 91 bd ad 71 88 bd 41 b4 c3 3e 58 c8 66 be
       -0.07100359 -0.06662307 0.3822346 -0.22537363
000370 c8 a0 34 bf c7 84 b3 3e 7d 17 88 3e c2 31 da bc
       -0.7055783 0.3506224 0.2658042 -0.026635054
000380 08 9e 7b 3d a2 59 ca be 95 b5 fb 3d c5 fe 8e 3e
       0.061430007 -0.3952151 0.122904934 0.2792875
000390 e0 10 51 3e 7e 5a 34 3c d4 5f a5 3d 6b 6d 56 be
       0.20416594 0.011007903 0.080749184 -0.20940177
0003a0 ca 43 54 3e 45 4c 80 3e c6 43 ba bd c0 09 03 bc
       0.20728984 0.2505819 -0.09094958 -0.00799793
0003b0 2c 77 27 3e b8 87 bc bc 00 9a 11 3c fc c2 cb 3d
       0.16354054 -0.023013934 0.008886814 0.099493
0003c0 8f 68 9c bd f4 16 d7 3c f8 c9 dc be cb 8d dc bc
       -0.076371305 0.026256062 -0.4312284 -0.02692308
0003d0 94 51 d1 3d 67 f3 9c 3e f2 89 56 3e 13 e7 05 3f
       0.10220638 0.3065445 0.2095106 0.52305716
0003e0 37 5a 2f bd ea 02 ab 3d 79 f6 19 3e 1b e5 36 bf
       -0.042810645 0.08350165 0.15035428 -0.7144334
0003f0 ad 95 06 3d df 47 cf bc e0 77 60 be 4c a7 a1 3e
       0.032857586 -0.025302825 -0.21920729 0.3157295

fc1.bias f4 [64]
000000 73 6d b3 bc 89 83 d0 3e a3 df 30 be 6d ae a9 3e
       -0.021902775 0.40725353 -0.1727281 0.3314089
000010 b5 88 e9 bc ce b3 63 3e 9e b2 c7 bd dc fa a0 3e
       -0.02850757 0.22236559 -0.097508654 0.3144139
000020 fd de 6b 3d 04 14 43 3c c5 ed 67 3e 11 22 d4 3e
       0.057585705 0.011906628 0.22649296 0.4143224
000030 f4 65 b5 3e 64 0b 84 3d a7 3c c5 be f0 3a 1e bd
       0.35429347 0.06447485 -0.38522837 -0.038630426
000040 e8 72 9c 3d 79 05 aa be a5 48 df bd b7 e7 d0 be
       0.07639104 -0.332073 -0.10902528 -0.40801784
000050 d4 ae 53 be cc 7f d6 3e e9 e1 04 bf f6 0f 21 3f
       -0.2067216 0.41894376 -0.5190721 0.6291498
000060 4e c9 f7 3e 1c 5c e1 bd f9 64 5f 3e d5 0d 5b 3e
       0.4839577 -0.110038966 0.21815862 0.21391995
000070 78 55 b4 be 5b a2 14 3f 1a 9f 03 be e8 ab a6 bd
       -0.35221457 0.58060235 -0.12853661 -0.08138257
000080 d2 bb a8 3e e4 91 2f be 92 fb 8e 3e 2f 22 2e 3f
       0.32955796 -0.17145497 0.27926308 0.6802091
000090 7a 9f d9 bc fb ed 36 be 92 f8 d6 3e 5b 27 84 be
       -0.026565302 -0.1786422 0.4198652 -0.25811276
0000a0 ed 82 d9 3e e2 6f 5c bd c4 42 57 3e 0b cd b9 3e
       0.424827 -0.053817637 0.21021563 0.36289248
0000b0 05 69 24 3f 5e 95 b6 3e 1d 2f 4b 3f 98 97 d6 bd
       0.6422275 0.35660833 0.79368764 -0.10478133
0000c0 8d e8 0e 3e a6 3b e2 3e 63 92 0c 3f 4c 58 15 3f
       0.13955899 0.44186133 0.5491087 0.58337855
0000d0 b8 52 cb 3c 31 52 53 3e 27 06 9c 3e 37 ed 7b 3e
       0.024819717 0.20636822 0.30473444 0.24602209
0000e0 97 c1 ab 3e 48 fb 69 3e 83 53 34 3f 39 d7 07 be
       0.33546135 0.22849762 0.7043993 -0.13265695
0000f0 fc bf d5 3e 7c f1 9f bb af 5a bc bc a0 f0 02 3f
       0.41748035 -0.004881082 -0.02299246 0.51148415

fc2.weight f4 [64, 64]
000000 2b 12 49 3d e9 cc 44 3d db 74 ba 3e 87 3d 05 3f
       0.049089592 0.04804698 0.3641728 0.5204701
000010 8f 6b 98 be 04 e2 03 3e 38 ef 5a be 8c 2c 82 be
       -0.2976956 0.12879187 -0.21380317 -0.25424612
000020 ad ef f5 bc ed 34 05 bf f1 5f 39 be 85 be 10 bd
       -0.030021513 -0.52033883 -0.18103005 -0.035337944
000030 cf c1 5e be 98 67 a1 be 83 61 9e 3d 9a c2 0c be
       -0.2175362 -0.31524348 0.07733443 -0.1374611
000040 ed d9 9e 3d a1 5c 8f 3e 8b 8a 31 3e dd df d8 be
       0.0775641 0.28000358 0.17338006 -0.42358294
000050 bb 55 f7 3e 3f 87 2b be 97 74 11 be df e9 64 3e
       0.48307595 -0.16750811 -0.14204632 0.2235484
000060 e0 ca 8e 3e 97 bc c5 bd b4 bb 1e 3d 0b a6 06 bf
       0.27889156 -0.09655111 0.038753226 -0.5259711
000070 f4 06 34 bd 36 03 18 be 5c 4f de bd 69 dd 95 be
       -0.043951944 -0.14844975 -0.1085498 -0.29270485
000080 ac 98 83 bd cd c0 65 3d be c2 27 3e 81 09 b8 bd
       -0.06425604 0.056092072 0.16382882 -0.08986188
000090 21 9c 26 bc bf b3 df 3e db ee d7 be bc 3b 58 3f
       -0.01016906 0.43691823 -0.4217442 0.8446615
0000a0 96 89 e0 3d 23 ba ec 3e ac f1 cb bd 82 c7 6e 3f
       0.109637424 0.4623576 -0.099582046 0.93273175
0000b0 28 6e 12 bf 56 d9 1c 3e 75 0c 96 3e 8b b7 bf 3d
       -0.57199335 0.15317282 0.2930638 0.0936118
0000c0 9f f6 f1 3d 66 a4 8f 3e b9 95 0c be 7f ce 3b 3e
       0.11814617 0.28055114 -0.1372899 0.18340491
0000d0 d6 c1 fd bd b5 cd 3e 3e 14 ae 1b 3f 83 6a 9c 3e
       -0.12390487 0.18633159 0.608125 0.30550012
0000e0 0d 70 d5 3d 7a 2e 39 bc a1 15 d9 3d 1c ca 17 3e
       0.104217626 -0.011302585 0.105998285 0.14823192
0000f0 b4 5a 25 bf 42 1d c5 3d 48 0e 92 be ac 14 0f 3e
       -0.64591527 0.09624721 -0.2852652 0.1397273
000100 dc ba c5 3e 2b 91 bf be 06 49 a1 3d 8c 04 ab 3e
       0.38619125 -0.37415442 0.07875256 0.33401906
000110 57 fc c1 3d 22 c3 86 3e fd 6d 5e 3e a6 dc 89 be
       0.09471958 0.2632075 0.21721645 -0.26926154
000120 91 e3 54 3e 49 f5 8a 3e 0f ef 30 be b1 1f 4d bf
       0.20789935 0.27140263 -0.17278694 -0.8012648
000130 fa d7 4e 3e 3e f4 f4 3a 00 20 4c be f4 ff 00 be
       0.20199576 0.0018688513 -0.19934082 -0.12597638
000140 a4 38 ac be 5d 1e 0b 3d e7 e2 11 3f 72 d0 6a be
       -0.33636963 0.033964504 0.5698685 -0.22931078
000150 5b 4b cc 3d ad cb 2c 3e bb 9a 97 be 98 de e4 be
       0.099753104 0.16874571 -0.29610237 -0.44701076
000160 72 c9 d4 3e cb c5 7f 3c c7 5f 4e be fb cc c1 3e
       0.4155994 0.015611122 -0.20153724 0.378517
000170 cf 67 71 bf b6 10 85 3e 9b 8d 69 be 83 ad 8a 3d
       -0.94299024 0.25989312 -0.22807924 0.06771376
000180 94 0e 50 3f 13 21 1a be e7 17 ea 3d 26 98 25 3f
       0.81272244 -0.1505168 0.1143034 0.64685285
000190 0f 6f 06 bd 16 b4 0a 3f 17 98 1d bf 08 6e c8 3e
       -0.032820757 0.5418104 -0.61560196 0.39146447
0001a0 ce b0 4d bb 02 9a f2 3d 15 c6 00 3e 21 3a b1 bf
       -0.0031385901 0.11845781 0.12575562 -1.3845865
0001b0 68 68 3d be f1 c3 9c 3d e6 9a 1f bd b1 d8 bc 3c
       -0.18496859 0.0765456 -0.038966082 0.023052545
0001c0 5e 49 a3 3e 8e ee 19 3e 9a ce 23 3e c8 8c e6 be
       0.31891912 0.15032408 0.15996781 -0.45029283
0001d0 09 56 83 3e 06 e9 69 be e2 80 33 3f ee 3f 3c bb
       0.25651577 -0.22842798 0.70118535 -0.0028724629
0001e0 62 24 93 be 47 45 91 be fc 08 fd be a7 4f 8f bd
       -0.28738695 -0.28373167 -0.49420917 -0.06997614
0001f0 1b 34 74 be 48 f4 0a 3d 06 37 03 be b3 b7 26 3f
       -0.23848002 0.03392437 -0.12813959 0.6512405
000200 c6 23 0a 3e 25 39 24 3e 53 80 ae be d9 d6 8a 3e
       0.13490209 0.16037424 -0.3408228 0.2711704
000210 87 f4 00 be a2 d3 fd 3d 16 44 0b 3f 0a fa c8 3e
       -0.1259328 0.123938814 0.54400766 0.39253265
000220 08 74 cc be 2f eb 2e be 74 ca 2e 3e 4d 78 84 be
       -0.39932275 -0.17081903 0.17069417 -0.25873032
000230 a1 28 12 be 28 e3 39 3f 9d 82 9b bd 02 17 51 3d
       -0.14273311 0.7261224 -0.07593272 0.051047333
000240 c4 13 51 be 76 7a 14 bf b0 07 fd 3e ff 93 79 bf
       -0.20417696 -0.5799936 0.49419928 -0.9749145
000250 9f 1d cf bd 2f 8f c9 be 00 bb a8 be d9 c5 14 be
       -0.10113072 -0.39367053 -0.3295517 -0.14528598
000260 08 d4 6b be 77 ce b7 3d bb 38 33 bf 18 4e 19 3f
       -0.23030102 0.08974927 -0.7000844 0.59884787
000270 14 16 74 3d df ed 79 bd 43 ea 9f be f2 ff 21 be
       0.059591368 -0.061017867 -0.31233415 -0.15820292
000280 a5 ca fa be f6 32 98 3e 69 d7 0a 3e 6a 52 99 be
       -0.4898273 0.2972638 0.13558735 -0.2994569
000290 4c 24 69 bf dd 91 69 be bc 38 94 3e b4 53 ab 3d
       -0.9107101 -0.22809549 0.28949535 0.083655745
0002a0 5a 75 3c 3e c0 54 80 3e 81 5a 25 3f 6d 4f 07 bf
       0.18404141 0.2506466 0.64591223 -0.5285557
0002b0 fc 5e a2 3e 74 0d 3c bf 3a 55 a8 bc 8a 08 9c be
       0.31713092 -0.7345803 -0.020548452 -0.30475265
0002c0 4b 14 30 be e6 18 03 bf d0 c1 06 3e f4 62 8b 3e
       -0.17195241 -0.51209867 0.13159871 0.27223933
0002d0 75 f4 7b 3d 10 e9 a4 bc b2 83 a7 3e 63 d9 7a 3d
       0.06151243 -0.020130664 0.32717663 0.061242472
0002e0 7d f2 0f 3f f7 fe 3e 3e 51 ec 26 3e d9 7e 07 be
       0.5622938 0.18651949 0.16301085 -0.13231982
0002f0 99 8b d9 bd f5 25 db 3e 9e 70 77 be 36 ad b0 3e
       -0.10622329 0.42802396 -0.24164054 0.3450715
000300 3d dd 32 be 9e ee ff 3d 75 c6 b4 3e 66 5e 6f 3b
       -0.17467208 0.124966845 0.3530766 0.0036524772
000310 6d 08 b6 3e 36 e6 d7 bf cb de 4c bd 20 47 27 be
       0.35553303 -1.686713 -0.05001716 -0.16335726
000320 4e c0 c0 3d c8 fb 4e 3f 2d a0 44 bd 87 ab e8 3e
       0.09411679 0.8085294 -0.048004318 0.45443365
000330 42 a3 d0 3e 60 cf 26 be 3d 26 3e bf 90 83 7a be
       0.40749556 -0.16290045 -0.74277097 -0.2446425
000340 02 eb c4 bb ce b7 c2 3b 5d 00 01 be 07 77 e3 be
       -0.0060094604 0.0059423214 -0.12597795 -0.44426748
000350 15 02 a1 be a6 0d e9 bd da 86 97 be 2b fb c0 3d
       -0.314469 -0.11379556 -0.2959507 0.094229065
000360 e1 0c 72 be 46 b6 79 be 31 dc f7 bc 2c 74 f2 3e
       -0.23637725 -0.24385938 -0.030256363 0.47354257
000370 ea 4f 7d bd c2 5e 4e be fa ae d2 3e 2e 9a 97 3d
       -0.06184379 -0.20153335 0.41149122 0.07402454
000380 f5 5b ac bd bc 01 87 be b9 7d 49 be bf bf 9c 3e
       -0.08415977 -0.2636851 -0.19676866 0.3061504
000390 9e a6 05 3f dd 21 26 be b2 c9 df bd 93 bb d1 3e
       0.5220736 -0.16223855 -0.10927142 0.4096342
0003a0 0c cb 14 3e b9 65 1a 3e b5 c3 8c 3d c3 f0 02 3f
       0.14530581 0.15077867 0.06873266 0.51148623
0003b0 47 6f 0e 3e c5 0b 33 be 11 91 37 bb df 58 9c bd
       0.13909636 -0.17484958 -0.002801005 -0.07634138
0003c0 bd 54 05 3d 68 0b 55 3f 2f 28 b5 3d 48 9a e2 be
       0.032551516 0.8322053 0.08845555 -0.44258332
0003d0 c0 f2 48 be 03 42 23 3b 6b a6 e9 be f4 4f 9a be
       -0.19623852 0.0024911172 -0.4563478 -0.30139124
0003e0 65 e5 27 be 18 92 14 bf 29 bd 65 3e b6 33 0f 3f
       -0.16396101 -0.5803542 0.2243544 0.5593828
0003f0 85 40 ab bd 4a 59 a8 bf e9 a3 69 be 48 2c eb be
       -0.083619155 -1.3152249 -0.22816433 -0.4593222

fc2.bias f4 [64]
000000 ae 9e d9 3d 26 f3 9c bc fe b1 10 3e 7b e1 74 3e
       0.10625969 -0.019158911 0.14130399 0.23914139
000010 70 35 52 3e e3 e9 4e bd 06 29 27 be 41 e9 3c 3d
       0.20528197 -0.05051602 -0.16324243 0.046120886
000020 27 db 9c be e8 e9 7f 3e bd 86 d4 3e f3 a2 7b 3d
       -0.3063595 0.24991572 0.41509047 0.061434697
000030 1b 7b 25 3e d7 d7 f1 3e 92 96 b6 3c 82 89 ee 3d
       0.16160242 0.47234985 0.022288594 0.11647321
000040 ee f4 a6 bd bc 7b 27 3d 17 e7 49 3e 17 60 63 3d
       -0.081521854 0.040889487 0.1971706 0.05551156
000050 57 bd 63 3e d8 f9 4d 3e ca a2 18 3f 08 2b 98 be
       0.22240196 0.20114839 0.59623396 -0.2972033
000060 01 eb 9b be a9 d3 b0 3d fe c6 53 3e 10 48 86 3e
       -0.3045273 0.08634121 0.20681378 0.26226854
000070 32 92 a7 bc 7f b1 13 be a8 a2 4d bb 1d e9 23 be
       -0.020455454 -0.14423178 -0.0031377468 -0.16006894
000080 43 b3 d0 be 37 79 df 3d 37 3b b7 3e c6 8b 03 3e
       -0.40761766 0.10911792 0.35787365 0.12846288
000090 a5 ac fb 3d bc c5 c9 bd 1b 06 fd 3d f3 95 52 3e
       0.12288789 -0.09852168 0.1235468 0.20565014
0000a0 5f 08 0b 3e de ea 59 3e 83 55 0c 3e 85 7e d0 3e
       0.13577412 0.21281001 0.13704495 0.40721527
0000b0 b4 29 57 3e 68 70 9f bc f1 7e 59 be 65 a0 8b 3c
       0.21012002 -0.01946278 -0.2123983 0.017044256
0000c0 7a 91 23 be e4 f1 21 3f 86 bd 57 be 13 00 5d 3e
       -0.15973464 0.6325972 -0.21068391 0.2158206
0000d0 a9 42 79 be 3b e5 97 be 41 9c e2 3e f1 86 48 be
       -0.24341835 -0.29667076 0.44259837 -0.19582726
0000e0 5f 79 06 3e 7e 4c f5 bb 41 47 22 3e e1 a8 40 be
       0.13132237 -0.007485925 0.15847494 -0.18814422
0000f0 0c 95 0a 3e 1b 86 87 3d 91 b2 50 3e e5 7f 6f 3e
       0.1353342 0.066173755 0.20380618 0.23388632

fc3.weight f4 [64, 64]
000000 b0 ad 3f be 90 12 22 3f 2c 12 20 bf 62 12 df 3c
       -0.187186 0.63309574 -0.6252773 0.027230445
000010 5b 99 fc 3e d0 ac 9e bd 7a 80 00 bf 77 c4 8c bf
       0.4933575 -0.07747805 -0.5019604 -1.0997456
000020 a1 49 c8 bc 12 22 07 be f0 ea a8 bd 99 84 eb 3e
       -0.024449171 -0.1319659 -0.08247936 0.459996
000030 7d e0 b1 be d8 ae 9b bc 01 70 e0 3e be ca 53 3f
       -0.34741583 -0.01900427 0.43835452 0.82731235
000040 d0 6f 6e bf a6 76 39 3d 35 40 aa 3e 44 c1 af 3e
       -0.9313936 0.045279168 0.3325211 0.34327137
000050 89 bf 95 3b e5 9b 8a 3f 64 bb 2a 3f b1 c1 60 bd
       0.004569952 1.0828825 0.66692185 -0.05487222
000060 ee 41 30 bf 12 29 8a 3f ae a5 23 bf 03 c8 e6 be
       -0.688506 1.0793784 -0.6392468 -0.45074472
000070 a9 0e c3 bd 34 47 94 be 6b 44 e0 be 32 48 dc 3d
       -0.095242806 -0.28960574 -0.438022 0.10755958
000080 66 ad 86 be ae ef dc 3d fb 96 d1 be 00 a7 c4 3e
       -0.26304168 0.10787903 -0.409355 0.3840866
000090 bc e7 c4 3e e8 2b 69 be b0 cc af be bc fd d4 3d
       0.3845805 -0.22770655 -0.34335852 0.103999585
0000a0 a1 0e 31 bf 51 c0 35 bf 91 6b 22 bf 93 d4 0a 3f
       -0.69162947 -0.70996577 -0.63445383 0.5423061
0000b0 6b 5e 85 3f e5 a0 31 bf 65 68 b0 3e 9d 8f 47 be
       1.0419439 -0.6938613 0.34454647 -0.19488378
0000c0 85 78 37 3f 8f 93 29 be bc ca 06 3f ab a5 14 be
       0.71668273 -0.16560195 0.526531 -0.14516322
0000d0 c6 25 f4 3c a1 c6 16 bf 43 ec e2 be 4a f4 df bd
       0.029803168 -0.58896834 -0.44320878 -0.10935266
0000e0 dc 88 26 be cd 11 d5 3e 15 32 c8 3e d3 ff 9c 3e
       -0.16263145 0.41615143 0.3910071 0.30663928
0000f0 57 f5 62 3d d8 65 1b bd 02 21 41 be 45 85 fb bd
       0.055409756 -0.037938923 -0.18860248 -0.122812785
000100 81 03 82 be c3 e9 0f bf 3c 8d 3f bf 2e 79 d7 3c
       -0.25393298 -0.5621607 -0.7482488 0.0263029
000110 9e bb 11 3f f2 fa 33 3f 96 91 81 bd 27 0f 8a 3e
       0.56926906 0.7030479 -0.063265964 0.26964685
000120 ec ff a0 be 8a a4 92 bd 43 52 95 3f 99 b2 65 bf
       -0.31445253 -0.071602896 1.1665729 -0.89725643
000130 cd 4c ac 3e 78 59 96 be d5 1d c9 be d5 4e 9f bd
       0.33652344 -0.29365134 -0.39280573 -0.07778708
000140 9f 10 eb be 8b f6 b1 be 9c 2b 2c 3d 3a 21 97 3e
       -0.45911118 -0.3475841 0.042033777 0.29517537
000150 40 b1 f3 be b9 9f 7d be 70 97 36 3e d5 0b 42 3f
       -0.4759617 -0.2476796 0.17831206 0.75799304
000160 5f 1e 02 3d e2 0a a2 bd 8b 8d 9d 3d b9 a6 cc bb
       0.031767245 -0.07912232 0.07693013 -0.006245461
000170 4a 1d 3e bf 9f a2 1b 3f 17 8c 8d 3e a2 21 e0 3d
       -0.7426344 0.60795015 0.27645943 0.10943915
000180 80 c9 91 bd c0 3d 9c bd 5e 17 15 be 34 57 e0 3d
       -0.07118511 -0.076289654 -0.14559695 0.10954133
000190 00 73 f3 3e cc 39 72 3e cc 49 29 3f 03 17 35 bf
       0.47548676 0.2365486 0.6612823 -0.7073824
0001a0 d8 97 70 be ba 9d af be a1 c2 ad bd c9 e0 0d bf
       -0.23495424 -0.34300023 -0.08484388 -0.5542112
0001b0 3d 6e 18 3d 49 7f f8 3e 63 e3 b4 3e 8f f0 6a bf
       0.037214506 0.4853461 0.35329732 -0.91773313
0001c0 5f d7 e3 3e 31 45 d6 bd 2f 6e 79 be 9c b9 94 3e
       0.44500253 -0.10462416 -0.24358438 0.2904786
0001d0 c8 9c 12 3e 40 b6 17 be 08 32 b7 3e 60 b4 02 3f
       0.1431762 -0.14815617 0.35780358 0.5105648
0001e0 41 49 1b 3f 06 6e 77 be 6b 58 96 bf 5d 1b 30 3f
       0.6065865 -0.24163064 -1.1745733 0.68791753
0001f0 a8 6d 83 3c bc f5 2d 3f 66 b6 74 3d ba 51 3d 3f
       0.0160435 0.67953086 0.05974426 0.7395283
000200 87 5d e7 bc 3f cc 61 be 10 d0 c6 3e ab 89 35 be
       -0.02824284 -0.2205057 0.38830614 -0.17728297
000210 fe 19 66 3e 00 00 71 3e ac c6 08 3e 9a 32 8c 3d
       0.22470853 0.23535156 0.13357037 0.06845589
000220 21 92 9a 3d 14 d6 38 be 12 10 47 3f b2 1b 88 be
       0.07547403 -0.18050414 0.77758896 -0.2658363
000230 d2 08 3d bc bd ca 5a bf 7e 23 b7 3e 60 36 dd be
       -0.011537747 -0.85465604 0.35769266 -0.43205547
000240 f0 03 09 bf b7 90 36 bf 43 5a 34 bf 6c c0 1e bf
       -0.53521633 -0.7131457 -0.7045023 -0.6201236
000250 06 a8 b6 be 6e fd e6 be 24 d8 90 be f7 3b 5b be
       -0.35675067 -0.45115227 -0.28289902 -0.21409594
000260 83 c4 0f bf 0a ad c6 bf e1 bc 9f 3e 0c a6 62 bd
       -0.5615923 -1.5521557 0.3119879 -0.055334136
000270 09 aa 9b 3c 37 dd 81 bc ec 8c c8 bd e4 c4 20 bd
       0.019001978 -0.015852554 -0.09792504 -0.03925027
000280 19 a2 43 be 76 5d 14 3e 1e 9a 3c bf af 0d bc be
       -0.19104804 0.14488778 -0.73672664 -0.3672919
000290 51 c1 b2 be 2a 97 0d bd 54 f4 a2 3e 39 15 36 bf
       -0.34913114 -0.03456799 0.31827033 -0.71126133
0002a0 92 24 ae 3e 39 d6 d1 3e 67 06 fe bc 65 1c 70 be
       0.34012276 0.4098375 -0.031008912 -0.23448332
0002b0 5f 4b dc 3d 52 6e 21 3a 5e fc 4e 3d 4d 35 5f 3d
       0.107565634 0.00061581016 0.050533645 0.05449419
0002c0 83 2c 1a 3f ec 45 a7 3e 4d f1 ba bd b0 bf 36 3f
       0.6022417 0.32670534 -0.09128056 0.7138624
0002d0 aa e8 07 bf 71 2c 60 bd d4 e5 9b 3e 00 9d 8a 3d
       -0.5308939 -0.054729883 0.30448782 0.067682266
0002e0 a1 4c 0b bf 7d 68 9c be e4 5f d2 3e 2f f8 6c be
       -0.544138 -0.30548468 0.41088784 -0.2314155
0002f0 b8 f9 52 3f 2b 63 03 be ee e4 34 3e c9 bf 79 bf
       0.8241229 -0.12830798 0.17665455 -0.97558266
000300 31 47 44 bf b4 b8 0a bf b0 47 86 3c 25 c5 37 bf
       -0.7667113 -0.54188085 0.016391605 -0.71785194
000310 fa 98 70 3e e2 15 95 be 5e 23 9d be 76 c8 c4 3e
       0.23495856 -0.29118258 -0.30691046 0.3843419
000320 f8 83 6e 3e af c3 f6 3c 7d 8d f4 3e 84 4a 5c bf
       0.2329253 0.030122606 0.47764197 -0.860512
000330 92 23 45 bf 0f 9b 05 bf 44 fc d7 be a5 f2 ef 3e
       -0.770074 -0.52189726 -0.4218465 0.4686481
000340 5c 5a 8b 3d 04 f2 55 3e 40 69 81 3e 36 34 6c 3d
       0.06804344 0.20893103 0.25275612 0.05766698
000350 9c e2 95 3e a5 18 88 3e b4 3f 4d 3c 91 63 39 bf
       0.29274452 0.26581302 0.012527395 -0.7241755
000360 04 fc 8a 3c e4 0f 9c bf 4f 40 00 3f ab 4b 8b 3f
       0.016965874 -1.219235 0.5009813 1.0882467
000370 8e 5c 90 be 2b bf 0f c0 85 35 8f 3e eb 12 aa be
       -0.28195614 -2.246043 0.2797052 -0.33217558
000380 90 5a 94 3e ae 34 21 3e 4d 29 4c bf 46 81 48 be
       0.28975344 0.15742752 -0.7975052 -0.19580564
000390 de 84 d4 3c 66 a2 bc 3e ac bf 62 be 66 2b 51 3e
       0.025942262 0.3684265 -0.2214343 0.20426711
0003a0 56 8c 3e 3f 94 ec 76 3e bb 90 36 3f f4 aa 3e bd
       0.74432886 0.24113685 0.7131459 -0.046549752
0003b0 07 8e ca bf d7 ee ed bd 01 a9 4c be 62 02 32 3e
       -1.5824593 -0.11617821 -0.19986345 0.17383721
0003c0 db a1 9c be 60 5b b2 3d d1 bd 49 3f 29 68 04 3f
       -0.30592236 0.08708835 0.7880526 0.51721436
0003d0 49 1d 2f 3f 39 c8 10 be a3 65 58 be 51 45 ef 3e
       0.6840406 -0.14138879 -0.21132521 0.46732572
0003e0 ca 40 1e bf b8 6a 54 be ac fe 97 be 25 f3 03 bf
       -0.6181761 -0.20743835 -0.29686487 -0.51542884
0003f0 06 11 25 3f 18 72 62 be 59 e0 a3 3d b4 2d 92 3e
       0.644791 -0.22113836 0.08001775 0.28550494

fc3.bias f4 [64]
000000 6f 3c 69 bd f8 b6 86 be 52 e1 4a 3d cb 26 19 bd
       -0.0569424 -0.2631147 0.04953129 -0.03739051
000010 39 c0 4b 3e 40 5e 22 3e ee 70 da 3e f5 7a 55 3e
       0.19897546 0.15856266 0.42664284 0.20847686
000020 0b 67 62 3e e1 3e bd be 2e 04 05 3f 8a 5d a0 be
       0.2210962 -0.36962035 0.519595 -0.31321365
000030 b4 cf 04 3e 3c 37 0a 3f eb 1e ae 3d 38 56 9d 3e
       0.12969857 0.5399053 0.08501991 0.30729842
000040 37 0e 59 3e 2d a3 4f be d9 1b e2 bd 49 83 50 be
       0.21196829 -0.2027709 -0.11040468 -0.20362581
000050 e9 e5 06 bf a0 24 08 3d d1 79 db 3e 7f 7c 4d be
       -0.52694565 0.033238053 0.42866376 -0.20067023
000060 7a 46 ba bd d3 9d b6 3d 62 ef c8 3e d7 40 71 be
       -0.090954736 0.08916821 0.39245135 -0.2355989
000070 7a c9 23 3f fc 14 74 be 5c 65 08 3f c9 ca 5b 3d
       0.63979304 -0.2383613 0.5327966 0.053660188
000080 f5 64 1e 3f fb 73 92 3e 00 b5 04 3e b9 fb 39 3f
       0.618728 0.2860411 0.12959671 0.72649723
000090 fb 74 09 3e 28 4e bc be 63 cf 93 3e c3 5a 32 3e
       0.13423531 -0.36778378 0.2886916 0.17417435
0000a0 3d 50 38 3f 08 ed 37 be f6 76 13 be c0 c4 4d bd
       0.71997434 -0.17961514 -0.14400849 -0.050236464
0000b0 9b 2a 7e be 3c a6 c2 be 94 f5 e9 bd 79 63 46 bf
       -0.2482094 -0.38017452 -0.114237934 -0.77495533
0000c0 ad 8f 82 3e d7 36 74 be 56 cd 1f be 3b 19 d6 bd
       0.2550024 -0.23849045 -0.15605673 -0.10454031
0000d0 c4 19 2f bf 09 f6 c0 be 4b e3 6f 3d 52 67 ca be
       -0.6839869 -0.3768771 0.058566373 -0.39531952
0000e0 b1 f7 ba be 92 fb 34 be a5 a6 60 be 9e 4a a7 bd
       -0.365171 -0.17674091 -0.2193857 -0.08168529
0000f0 66 1c ab bc 2b 50 af 3e 26 44 2b be 53 70 fa 3d
       -0.020887565 0.3424085 -0.16725215 0.122284554

action_out.weight f4 [5, 64]
000000 0c 4e 6d bf 65 b1 d4 be 97 a1 80 3d 18 bf 97 be
       -0.92697215 -0.4154159 0.06280821 -0.2963798
000010 88 31 97 3f 0b d7 70 3e 1d ba 49 bf 1b e1 db bf
       1.1811991 0.23519532 -0.7879961 -1.7178072
000020 c3 37 4d bf 34 f2 10 be 38 3d 15 bf ef 05 4b bf
       -0.8016321 -0.14154893 -0.5829654 -0.7930593
000030 ff 39 74 be 3f a8 4d bf 51 8d 96 3f d7 11 e2 3e
       -0.23850249 -0.8033485 1.1761876 0.44154236
000040 51 6d 70 3f 61 0a 93 bd 2c 89 5a 3f b0 e8 2e 3f
       0.93916804 -0.07179714 0.8536556 0.683238
000050 86 23 ae 3c 76 1f 92 bd 31 3b b2 bf 06 39 ce 3d
       0.021257173 -0.07134907 -1.3924314 0.1006947
000060 2c 3c 2c 3d cd 5a 87 3f 83 4f 23 bf f9 5e fe be
       0.042049572 1.0574585 -0.637932 -0.49681833
000070 70 e7 a8 3f 01 78 c6 3f 80 8e 86 3f 21 f3 2c 3f
       1.3195629 1.5505372 1.0512238 0.67558485
000080 d3 4e e0 3f f0 85 13 3f 5e 54 31 bf d7 b3 b1 bf
       1.7524055 0.5762625 -0.6926936 -1.3883008
000090 27 ad a3 3c 79 f2 b0 3e ad e3 d4 3f a5 d2 8a 3f
       0.019980026 0.34559992 1.6631981 1.0845534
0000a0 87 ba ef bf cd 55 c8 3f d8 e4 b6 be 6e c8 02 bf
       -1.8728799 1.5651184 -0.3572147 -0.5108708
0000b0 d6 e5 9c 3e f6 23 0a 3f 47 5b cf be b5 72 95 3e
       0.306441 0.5396112 -0.40499327 0.29189077
0000c0 87 a0 d1 3d 0c 2b 09 be 9c ed 50 3f a9 83 c0 bf
       0.10235696 -0.13395327 0.81612563 -1.504018
0000d0 f2 b4 43 3f bf 10 95 3f fd 1e 6f bd 8e 53 21 3f
       0.76447976 1.1645736 -0.058379162 0.6301812
0000e0 fc 59 e0 3e 1a 23 26 bf c4 56 77 3f 97 cd ae be
       0.43818653 -0.6489731 0.9661677 -0.34141228
0000f0 c8 82 bb be 1d 55 33 3f ef 41 ec 3d 8a a5 29 bb
       -0.36623216 0.7005175 0.11536013 -0.0025886022
000100 24 63 ce bd d6 72 84 be 30 31 1b 3f f9 1a 70 bf
       -0.10077503 -0.25868863 0.6062193 -0.93791157
000110 b5 f8 41 bf cd 77 0a bf 48 1f af bf 79 71 21 bd
       -0.7577012 -0.5408905 -1.3681421 -0.039414857
000120 86 89 91 bf 10 2f e1 be f3 fa 98 3e 79 2a ea be
       -1.1370094 -0.43981218 0.2987896 -0.4573553
000130 dc 61 08 bf 63 65 51 be 8d 9a 3b 3f e3 bb f8 3e
       -0.5327432 -0.20448832 0.732827 0.48580846
000140 50 48 a9 be 13 28 50 3d 58 4d 7e 3f 85 e3 6e 3f
       -0.33062983 0.050819468 0.9933677 0.9331592
000150 d9 de 6b 3e d8 90 29 3f bf 00 a8 3d 4d 52 19 be
       0.23034228 0.6623664 0.08203267 -0.14972802
000160 f2 f8 c2 3e ff 27 12 bf 06 18 50 bf 5c bd 0d bf
       0.38080555 -0.5709228 -0.81286657 -0.55367064
000170 65 b9 bd be 1a e7 b5 be a2 9d 26 3f 83 27 57 bf
       -0.37055507 -0.3552788 0.6508428 -0.84044665
000180 8e 20 4d be 53 4d a6 be 00 6b e6 3d 00 a6 82 bf
       -0.2003195 -0.3248087 0.112508774 -1.0206909
000190 7b ce 4b 3f f6 a5 88 3f d5 3d 4c 3f 34 59 bc be
       0.7961194 1.0675647 0.7978185 -0.36786807
0001a0 8a 38 8f 3d b1 7a 0a 3e 64 12 69 bf ff 2e 27 3f
       0.06993206 0.13523366 -0.91043687 0.65306085
0001b0 c0 78 17 3e d9 7b 4b 3e 4a 1d fb bd 7c a8 be bf
       0.14792156 0.19871463 -0.12261446 -1.4895167
0001c0 dc 34 a2 3d 9a 7a ad bf c8 a7 d0 3f b3 3f 71 be
       0.079202384 -1.355304 1.6301203 -0.23559456
0001d0 55 a3 5f 3f 3c 23 50 3e 7d 6f 85 3f 5b e0 28 3f
       0.873586 0.20325941 1.0424649 0.6596734
0001e0 29 b9 74 3d e5 c3 36 3e af de 5d 3e 50 e4 37 bf
       0.059746895 0.17848165 0.21666978 -0.7183275
0001f0 15 81 4a 3e 78 85 9b be ec 29 19 be 17 45 d8 3e
       0.19775803 -0.30375266 -0.14957398 0.4224021
000200 36 51 40 3e 76 f8 c0 3d f8 b7 03 bf 37 87 83 3f
       0.1878098 0.0942239 -0.5145259 1.0275639
000210 e8 72 10 3f ce 10 a4 3f da 47 da 3e d2 a7 4c be
       0.56425333 1.2817628 0.42632943 -0.19985893
000220 36 7e c6 3f 3d f2 75 3f 19 4e a0 be e4 6f 0c 3f
       1.5507267 0.9607275 -0.31309584 0.5485823
000230 00 37 4f 3f b5 6f 95 3e 37 9a 7b bf cb df 33 bf
       0.809433 0.29186788 -0.9828219 -0.70263356
000240 4a 22 b7 3e fe 2e 52 3f ab 45 77 bd 30 53 90 bf
       0.35768348 0.82102954 -0.060369175 -1.1275387
000250 26 ec 11 be dc 0f 38 bf dd a2 62 be e7 75 fd 3e
       -0.1425024 -0.718992 -0.2213244 0.49504015
000260 d4 a9 aa bf c1 27 28 3f 28 aa 4a 3f 1b d7 ca 3e
       -1.3333077 0.6568566 0.7916589 0.39617237
000270 da 47 01 3f a6 a6 37 3e d3 3a c0 3e 04 bb 43 3f
       0.5050026 0.17934665 0.3754488 0.7645724
000280 ae 7e 09 3e 8b 98 25 3e 1d 1f 97 3c b4 d7 05 3f
       0.1342723 0.16171472 0.018447453 0.5228226
000290 0b cb 1e bf 17 25 b1 bf e2 2b 89 bf 71 f4 f9 3e
       -0.6202857 -1.3839444 -1.0716517 0.48819306
0002a0 ec d2 8c 3d 6c 29 07 bf fb ca cf 3e c2 f3 f3 be
       0.06876168 -0.5279758 0.4058455 -0.4764691
0002b0 d5 af bd 3d e3 c7 a4 3f 43 b6 2d 3f 1f 3c 88 3f
       0.09262053 1.28735 0.67856234 1.0643348
0002c0 36 f7 1d 3e 1d 8a ae 3f 6d be 89 bf 2e fe 01 3f
       0.15426335 1.3635899 -1.0761238 0.5077847
0002d0 d7 e6 64 bf f8 4a b2 be 72 db 6a bf 0a 7b 9d be
       -0.89414734 -0.34822822 -0.91741097 -0.30757934
0002e0 af df d4 be 04 a5 f0 be 77 23 37 bf d4 0d 73 3f
       -0.41576907 -0.47000897 -0.7153849 0.94942975
0002f0 2a 00 fa be 90 42 e4 be a3 16 2a be a8 15 e3 bd
       -0.4882825 -0.44582033 -0.16610198 -0.11088115
000300 89 1c 18 bf 62 c2 4c 3f e9 f4 f6 3e 80 20 2a bf
       -0.5941854 0.79984105 0.48233727 -0.6645584
000310 a0 84 19 3f 39 f5 a6 3f b3 8d 68 3f 04 9d ef bd
       0.59967995 1.3043586 0.90841216 -0.1169987
000320 d6 68 01 3f 56 af 8e bf 00 3d ab 3e e0 63 7f be
       0.5055059 -1.1147258 0.33444977 -0.24940443
000330 de 62 cb be cc a5 db 3e ca ee d4 be 09 b6 9d 3d
       -0.39723867 0.4289993 -0.41588432 0.07700736
000340 a9 8f 10 3f f8 94 2b 3f 88 aa d4 be b1 11 23 be
       0.5646921 0.67024183 -0.41536355 -0.15924717
000350 0d 77 20 bf d2 e3 f4 3d 64 5c 84 bc be a1 19 bf
       -0.6268166 0.11957516 -0.016157337 -0.60012424
000360 9e eb 64 3f a9 f9 dc be 0e a4 72 3f f3 81 46 bf
       0.89422023 -0.43159226 0.9478158 -0.77542037
000370 e3 66 75 3e 26 20 21 bf 35 46 0b 3f 5f 8e 01 bf
       0.2396503 -0.6293968 0.54404 -0.50607866
000380 a3 5e 6c 3e 46 53 6f bf b0 41 8e 3f 7a da d7 be
       0.23082976 -0.9348644 1.1113796 -0.42158872
000390 4d 4e 1e be cf 6d 12 3f 3d ce cd be 84 4d f4 3e
       -0.15459557 0.57198805 -0.4019641 0.4771539
0003a0 e8 13 f8 bd 42 65 ab 3f bd 9b 89 3c da a2 26 3e
       -0.12113172 1.3390276 0.016797895 0.1627306
0003b0 1a d9 a0 bf 96 9a 40 3e 67 48 1d 3f 7c 05 85 3f
       -1.2566254 0.1880897 0.614386 1.0392299
0003c0 46 6d 61 3f f8 85 df 3d 6b e7 f8 be 9a 21 91 be
       0.88057363 0.109142244 -0.48614058 -0.28345948
0003d0 64 cf 0a bf 52 0e 77 be 44 19 12 3d 1d f9 d3 be
       -0.542227 -0.24126557 0.035668626 -0.41400996
0003e0 0c 72 33 3f 4a 2a 52 bf ee 5a b1 3e af dc 31 3e
       0.70095897 -0.8209578 0.34639686 0.1736934
0003f0 32 0a 18 3f aa 7e 2c 3e 05 8a 38 3f 38 f1 f5 bc
       0.59390557 0.16845194 0.720856 -0.030022249

action_out.bias f4 [5]
000000 53 ae 76 be db e9 e3 bd 63 88 ef bc dd 49 08 3f
       -0.24089937 -0.11128589 -0.029239839 0.53237706
000010 19 5a 9b 3e
       0.30342177
