train/mappo/results/MPE/formation_hd_env/rmappo/check/run31/models/actor.pt (torch, 148003 bytes, 22 tensors)

base.feature_norm.weight f4 [18]
00000000: f2ba 853f 53bd 843f fca5 623f 7030 853f
00000010: 3802 803f 6bbb 833f e939 843f c315 803f
00000020: c1c5 783f 5342 893f 5b3b 703f 09a1 893f
00000030: fa92 7b3f f771 6b3f 9c04 903f c30e 833f
00000040: da2b 903f f716 853f
1.0447676 1.0370277 0.8853452 1.0405407 1.0000677 1.029157 1.0330173 1.0006641
0.9717675 1.0723366 0.9384057 1.0752269 0.98271143 0.9197077 1.1251407 1.023888
1.1263382 1.0397633

base.feature_norm.bias f4 [18]
00000000: 415b 55bc d4b4 9ebd f15c 56bd a814 dc3a
00000010: 4310 aabd 2f79 eabc 104e 283e 16c1 8e3d
00000020: ad5e a1bd 2a03 223c 5315 c23d 3d44 413d
00000030: 6e7b 37bc fdca 7fbb 0259 92bd 8867 883d
00000040: 2274 c13c bbcc 09bd
-0.013022245 -0.07749334 -0.05233473 0.0016790824 -0.08303883 -0.028622238 0.16436028 0.06970422
-0.07879386 0.00988845 0.094767235 0.047184218 -0.0111988615 -0.0039030903 -0.07145883 0.06660372
0.023614947 -0.03364251

base.mlp.fc1.0.weight f4 [64, 18]
00000000: bd8f 063e 6b4a 203d 82cc 86be abd1 dfbd
00000010: 67f3 2ebd 040c bfbd 2d98 8d3d 4286 3e3e
00000020: 4c01 d6be dca9 263e dd58 b63d 4fc0 233d
00000030: 9d5b d83d 0d9d 913e e59f 4fbe 2834 95be
00000040: c497 c1be 825c 82bc 2019 35bd a2e6 0b3e
00000050: da0c 21bd 47f6 f13d dbf6 213e 1dde 2d3d
00000060: 702c 76be 9201 863e a3c8 d8be 5a05 2e3e
00000070: ec91 cd3d c029 063e 2fa5 74be 263e a1bd
00000080: f7dc bfbd 77d7 073d d6ab a03e 21e2 00be
00000090: 89df fbbd cb34 04be 4741 503d 26d2 063e
000000a0: d69f 393e b523 22bd 6e97 b9be 7b07 87be
000000b0: ee11 d3be fb8e ba3c 2b3d 763e 7192 253f
000000c0: f143 af3e 5126 903d 331c 943d e0a3 39be
000000d0: a244 ebbd d073 1a3c dbdd 593c ca58 183e
000000e0: 36f7 41bf 41c4 abbe 4919 f03e e0de a43e
000000f0: 0b3b cfbd 7de1 5f3e 38fa 243d b5ba cd3d
00000100: 8cc2 a8be e41b 57be 7afc 273e 4d7c 2bbd
00000110: 9a91 ea3d ccd9 dcbd 3792 a0be cc16 fe3d
00000120: 572d 383d cc9a 4bbc 6587 3abe 7690 adbd
00000130: d38e abbe 0ec3 ae3d 0907 fa3d 6143 89be
00000140: 2d18 d7bd 3203 4fbd d883 8abe ed7e d53d
00000150: c24e 25be a564 05bc b296 4bbe f4ce 933e
00000160: 56f9 023e 4921 45be c68e 253f 57f9 05be
00000170: 3caf 063e 3df4 f0bd 85b4 733e 783e 363d
00000180: 8a4a 1e3d 23aa 87be 6257 a6be 89da 7e3e
00000190: cf30 25be 06c2 763e 4a76 c4bd 882b e6bd
000001a0: 4ba5 0b3f 685a 36bc c44e 363e a004 323e
000001b0: 205c 5f3e 7c28 91be 3c54 e63d 99fa 263d
000001c0: 2ba7 d5bc 49ef 05be 9a26 3c3e d9c7 80be
000001d0: d74b a5bd 42e6 9d3e 9c12 273e fb10 79be
000001e0: 2fb3 89be a4a7 283d 8e54 173e 2f2a b0bd
000001f0: 708f 023e 3844 7bbd 3c39 0f3d 383c b43e
00000200: 2ae1 98ba a8c1 f4bd ac53 053e 2226 64be
00000210: 52df 173e d0ae 8b3e d247 97be b153 a1bd
00000220: b807 4dbd e95d a33d ed27 4abe 6a83 c4bc
00000230: 102e 9d3d d667 7abe 2c05 89be 16ef f5ba
00000240: 0bc8 a53e 350a a5be 34fe bd3d 7e16 94bd
00000250: 3656 bf3e f9a7 9fbe e99a 953e 67f6 b33e
00000260: 89b9 d13c b556 00bd 0273 353e 2dd1 a13e
00000270: 3356 243e 6339 9abd e13b a6bc fdf6 18bd
00000280: 6cf3 bfbe 77bc e03d 5f86 c4bc a171 e23e
00000290: 02de 4e3e 235c a8bd 5c7d c0bd 6581 8c3a
000002a0: 9bda 833d 369e e13d d036 373e 0864 36be
000002b0: caec 08be f607 2c3e d6e0 7f3e 5a17 d83e
000002c0: 1abb 58be 77d2 b0be 040e 48be ee07 3cbe
000002d0: 9f50 e63d 5088 043d 7638 523e a531 e63d
000002e0: 2b9b d33a 35db f73e c300 8f3c 930c c13e
000002f0: ca40 d53d 467f a13e cbf9 583e 625a 273e
00000300: 63d5 b53c 5e87 0dbd 927e 593e f332 a23e
00000310: f863 61be dfd3 6abe be55 c2bc fa88 2dbd
00000320: 6726 9a3d 63bb e8be f42e a0be b6d1 253e
00000330: 48af abba 3eda d23c 11fe 37bd 90e7 9ebe
00000340: ccfe c33d 0f5f 91be cdab db3e dff2 97be
00000350: 1ce8 bb3e 1ef5 573e 0a89 143e 364c 8e3e
00000360: 9d5e 81be cb77 1bbc f22c 6dbd 7ffc b03d
00000370: 6d76 903c 0deb 0f3f 4912 2bbe 0436 243e
00000380: 6a95 923d b01a 19be 219e 7abe ec29 f63d
00000390: 3e1c 983e 90bf 50be 4fd8 30be b0c3 43be
000003a0: d466 a23e 1630 833c 2f29 74bd 68e5 01bd
000003b0: 6f68 dabc 588a 1c3e 7ff9 023e c3e8 82bc
000003c0: e740 b43e dede 01bc bf0a 8dbd fb0c c5bd
000003d0: bed0 aebe 839a 743e 39aa b9be afb0 01bf
000003e0: 8625 2dbe bad6 74bd 6b64 dbbd c154 003a
000003f0: a2d4 4c3e b04a 253e 3099 af3e 211d 0a3e
0.1314077 0.03913347 -0.26327902 -0.10928663 -0.042712595 -0.09328464 0.06913791 0.18605903
-0.41797864 0.16275734 0.08903668 0.03997832 0.10564349 0.28440133 -0.20275839 -0.29141355
-0.378111 -0.015913252 -0.044213414 0.13662198 -0.039318897 0.11814552 0.15816824 0.04244815
-0.24040389 0.26173073 -0.42340574 0.16994229 0.10037598 0.13101864 -0.23891138 -0.07873182
-0.093683176 0.033164468 0.313811 -0.12586261 -0.12298495 -0.12910764 0.050843503 0.13166103
0.18127379 -0.039584834 -0.36248344 -0.26372895 -0.41224617 0.022773257 0.24046771 0.64676577
0.34231523 0.07038558 0.07231941 -0.1812892 -0.114877 0.009427026 0.013297523 0.1487762
-0.7576784 -0.33548167 0.4689429 0.3220129 -0.101186834 0.2186336 0.04027769 0.10045377
-0.32960927 -0.21006733 0.16404906 -0.04186659 0.114535525 -0.10783729 -0.31361553 0.12406692
0.044965114 -0.012427043 -0.18215711 -0.08474819 -0.33507404 0.085332975 0.12208373 -0.2680922
-0.10502658 -0.050540157 -0.27053714 0.104246 -0.16143325 -0.008141671 -0.19881704 0.2886883
0.12790427 -0.19250979 0.6467098 -0.13083397 0.13152784 -0.11765335 0.23799331 0.04449317
0.038645305 -0.26496992 -0.32488543 0.24888052 -0.161319 0.24097452 -0.09592874 -0.11238772
0.5454909 -0.011129953 0.17803484 0.17384577 0.21812487 -0.283512 0.11246535 0.040766332
-0.026080688 -0.13079561 0.183741 -0.25152472 -0.08071106 0.30839735 0.16315693 -0.24322884
-0.2689452 0.0411755 0.14778349 -0.08601796 0.1275003 -0.061344355 0.034966692 0.35202193
-0.0011663784 -0.119509995 0.130202 -0.22280172 0.14831284 0.2728181 -0.29546982 -0.07877291
-0.05005619 0.07976896 -0.19741793 -0.023988444 0.07674801 -0.24453673 -0.26761758 -0.001876327
0.32379183 -0.3223435 0.09277001 -0.072308525 0.3737046 -0.3118284 0.2921975 0.35148928
0.025601165 -0.03133269 0.17719653 0.316049 0.16048507 -0.07530477 -0.020292224 -0.03734492
-0.37490404 0.10973447 -0.023989854 0.44227317 0.20201877 -0.08220699 -0.093989104 0.0010719715
0.0643818 0.110165045 0.17892003 -0.17811596 -0.13371578 0.16799912 0.24988112 0.42205316
-0.21165124 -0.34535572 -0.19536597 -0.183624 0.11245846 0.03235656 0.2052935 0.11239938
0.0016144266 0.4840943 0.017456418 0.37704906 0.10412748 0.31542414 0.21189038 0.16343072
0.022196477 -0.034552924 0.21239689 0.31679496 -0.22010791 -0.22932385 -0.023722526 -0.04236696
0.07526856 -0.45455465 -0.31285822 0.1619328 -0.0013098503 0.025738832 -0.04492003 -0.31036043
0.09570083 -0.28392836 0.4290451 -0.29677483 0.36700523 0.21089599 0.14505401 0.2779252
-0.25267497 -0.00948901 -0.05790419 0.0864191 0.017634595 0.56218034 -0.16706194 0.1603623
0.07157405 -0.14951587 -0.24474384 0.12019715 0.29709047 -0.20385575 -0.17270015 -0.19117618
0.31719077 0.01601414 -0.05960959 -0.03171292 -0.026661126 0.15287149 0.12790488 -0.01598013
0.35205767 -0.007926671 -0.06886815 -0.096216165 -0.34143633 0.23887067 -0.36262682 -0.5066022
-0.16908845 -0.05977509 -0.107125126 0.0004895442 0.20002988 0.16141772 0.3429656 0.13487674

base.mlp.fc1.0.bias f4 [64]
00000000: 54e1 2d3d e29a dd3c f070 9ebc 3eef f3bd
00000010: d4c9 c33d 431d b6bd 80b6 f53c 6bf2 c7bc
00000020: 19d0 dc3d 1000 513c 7ee2 8ebd 2aab b73d
00000030: c32d 02bc 1012 973c bbca 64bd 7124 f0bc
00000040: 86a9 9bbd 1edf 1b3d bd17 93bd 255a 16bd
00000050: c4a8 453d 2321 38bc 3d14 bb3d bc05 8abd
00000060: 1d61 063e da91 a1bd ed34 ee3b e41d 903d
00000070: 85cb 273e 286e 903c 26df 21bc 7a80 a5bb
00000080: 53e6 13be 0ec4 1bbd a325 113d 5c40 9bbc
00000090: 3a2d 1b3d a10d 42be 93ce 0bbd cec5 013d
000000a0: 1b61 68bd 0b97 8abd 16e0 b43d e397 b8bb
000000b0: 3c2a b63c 64c9 03bd ea74 99bc 5335 2dbd
000000c0: 1f53 493d 0a28 883d ad35 12bd 8e37 53bd
000000d0: b748 aa3c 0a9b ea3b eb10 603d b056 49bc
000000e0: 0370 6c3d bc27 8f3d 39ed a93d 2074 04be
000000f0: b270 bcbc 387b 04bd 1623 a6bd eb8b 95bc
0.042451218 0.027051393 -0.019340962 -0.11910866 0.0955998 -0.088923 0.02999425 -0.024407586
0.10781879 0.012756363 -0.06976794 0.08968194 -0.007945481 0.01844123 -0.0558574 -0.029314252
-0.076006934 0.038054578 -0.07182262 -0.036707062 0.04825665 -0.011238369 0.091347195 -0.06739375
0.13122983 -0.07889147 0.007269493 0.07036951 0.1638623 0.017630652 -0.009879863 -0.005050716
-0.1444333 -0.03802877 0.035436284 -0.018951587 0.03788493 -0.18950512 -0.03413255 0.031682782
-0.056733232 -0.067670904 0.088318035 -0.0056333407 0.022236936 -0.032174483 -0.018732507 -0.042287182
0.049151536 0.06648262 -0.03569572 -0.051566653 0.020786626 0.0071595954 0.054703634 -0.012288734
0.05772401 0.069900006 0.082972 -0.12934923 -0.023002956 -0.032344073 -0.08112161 -0.018255195

base.mlp.fc1.2.weight f4 [64]
00000000: 210d 7a3f 2b84 7d3f f0b6 893f f15d 883f
00000010: a1a9 863f f340 7e3f 8cb5 6e3f 4906 783f
00000020: 7c5d 713f 8d09 863f 3a1d 693f 0fd9 923f
00000030: c78e 713f f980 843f 090a 683f 5ef8 823f
00000040: 2bef 863f 4822 8c3f efc1 703f f206 8f3f
00000050: f762 813f 55b6 903f 15e4 8f3f a3a3 8b3f
00000060: f4e2 7e3f 4d9a 733f fefc 833f 3bc8 8b3f
00000070: 5a15 6a3f b7aa 863f ea86 853f fa6b 713f
00000080: a6d9 703f 3249 6a3f dceb 763f a330 763f
00000090: 66c8 813f 0f0f 823f e903 8f3f 6ee7 823f
000000a0: 2f87 843f 217d 953f 0333 843f 69d3 7a3f
000000b0: 3377 833f 78d0 8a3f c9e5 783f 504b 673f
000000c0: cc33 813f 4740 723f 3d0d 8b3f 84e9 883f
000000d0: d208 7e3f 4be6 813f f7f0 853f 179c 7b3f
000000e0: 7b6f 643f 1202 863f 7eb9 783f c6a7 823f
000000f0: e66c 823f adb7 893f 4ea2 883f 6aeb 813f
0.97676283 0.990298 1.0758953 1.0653669 1.0520517 0.99317855 0.9324577 0.9688459
0.9428327 1.0471665 0.9106022 1.1472491 0.94358486 1.0351859 0.9064031 1.0232046
1.0541738 1.0947962 0.9404592 1.1173995 1.0108327 1.1305643 1.124148 1.0909313
0.99565053 0.9515732 1.0311582 1.092048 0.9143883 1.0520848 1.0431798 0.94305384
0.94082105 0.9151794 0.9645364 0.96167964 1.0139282 1.0160846 1.1173068 1.0226877
1.0353755 1.1678811 1.0328068 0.97978836 1.0270752 1.084487 0.97225624 0.9034929
1.0093932 0.9462933 1.0863415 1.0696263 0.9923221 1.0148405 1.0464162 0.9828505
0.89232606 1.0469382 0.9715804 1.020745 1.0189483 1.0759178 1.0674531 1.0149968

base.mlp.fc1.2.bias f4 [64]
00000000: 58bf 863c 1c4e d63c 2d22 843c 3a6d adbd
00000010: 1131 453d 4418 c3bd a127 433c f937 8cbd
00000020: 1811 843d b88a 0b3c 39a5 5dbd ee79 3a3d
00000030: c913 703c 51f8 2d3d 568a 7ebd 48a5 4dbd
00000040: 2930 9dbd ba26 d23c 02dd a3bd a858 b5bc
00000050: cbc5 3c3d 00b2 f3bc 23d3 e63d 3079 6cbd
00000060: f671 603d 3c2b adbd bd4f 813d ccb3 863d
00000070: a18f 253e 8889 7b3c 0c40 6cbc 7949 c2bc
00000080: f7af 11be 2d8e 18bd f177 b03d 9761 27bd
00000090: bb38 ad3d bc3d 40be 5af0 07bd 7a50 7b3d
000000a0: bffd e5bc 5402 81bd afeb b73d c29e 803b
000000b0: 0c1b b1bc e90a 5bbc 379d e33c ca8c cebd
000000c0: 0cae 86bd 2add b93d cb6f 48bd 7f38 f6bd
000000d0: ab3b a23d 8946 0cbd 8dc4 b03d ef17 aa3c
000000e0: 1454 973d d294 b53d a467 7e3d 6db4 1dbe
000000f0: a2b3 793c 52f2 47bd 453b 92bd 12d9 a03c
0.016448662 0.026160292 0.016129578 -0.08468099 0.048142496 -0.09526113 0.011911304 -0.068466134
0.06448573 0.00851696 -0.054112647 0.045526437 0.014653155 0.04247314 -0.062143646 -0.050206453
-0.076752014 0.025653232 -0.08001138 -0.022137001 0.046087068 -0.029747963 0.1127074 -0.05773276
0.05479618 -0.08455512 0.06314037 0.06577262 0.16168071 0.015352614 -0.014419567 -0.023716675
-0.14227282 -0.037244964 0.08616627 -0.040864553 0.08458086 -0.1877355 -0.0331882 0.061356045
-0.028075097 -0.06299272 0.089805 0.0039251754 -0.021619342 -0.0133693 0.027784927 -0.10085447
-0.065761656 0.09075387 -0.04893474 -0.120224945 0.07921537 -0.034246955 0.08631239 0.020763366
0.073890835 0.08866276 0.06211056 -0.15400858 0.015240582 -0.04881508 -0.07140211 0.019634757

base.mlp.fc_h.0.weight f4 [64, 64]
00000000: 2024 093d 92ad 17be 0151 243d beb4 213e
00000010: 5be3 85be c142 3c3e 8e2c c9bd b0b6 36be
00000020: 3f72 7bbe 80e7 563e 04fb 713d 5cc5 0cbf
00000030: b6eb a9be 79c9 9ebd 086e 82be b829 6e3e
00000040: e234 11bd a454 943e 76e2 2c3e 7e64 bdbb
00000050: fa6e abbd 02ff 993c 60f3 c13e 37ed b9be
00000060: 56e4 20be b0c6 013e 23b4 90be 8204 243e
00000070: b8de 933e b757 30bb 3b33 b6bd c964 09be
00000080: 7ae6 d83e 9c24 99bb dbf8 043c 73d1 26be
00000090: d1b1 703c c425 e8be cd68 c3be 1bf9 0cbd
000000a0: c771 29bd 24f3 833d 5da3 19bd 8df3 4bbe
000000b0: 5307 ad3e 8fb5 1f3b 78e0 30bd 900a 583e
000000c0: 3a43 bfbd 9134 3d3d dd5a a03e 8829 9cbe
000000d0: 20a8 763e 7e95 b73d fba1 743e 3e89 2ebe
000000e0: 9a6d 64be 7c3c 093c 2af1 233e 727b 9f3d
000000f0: 9f2d 24be 4d29 d7bd 0669 2ebe bb8e 0ebe
00000100: 7f1e bc3e 8f75 2ebd 4c30 243d 875e 4fbe
00000110: 30a0 eb3d 7812 1d3f fa3b 1ebf 2f34 e7bd
00000120: e16b aebd 850d fe3c 1c66 97be 14b3 253d
00000130: 346d 6a3d 5216 0f3c 2df0 64be ab42 223d
00000140: 858d 093d 2a71 48be 5324 043e 0179 113d
00000150: 0780 013e 28d9 a9bc 9b65 9e3d 4e4a 8bbd
00000160: 0b00 48bc 8310 dbbe 6d0c c83d 2c09 9b3e
00000170: a0cb 40be 7632 613e 3480 873d 91bf b6bb
00000180: 7bfa 6dbe a2cf dd3d 1a97 aebd 7cfd fe3d
00000190: 89ca 82be 74f5 bd3d 1f98 613e 069e 1b3e
000001a0: bdb2 a3be 21a6 123d 1f92 733e 2daf 58be
000001b0: 83b0 d13e a31d 79be 5366 033e 3869 d73d
000001c0: 5258 1b3d 644d 003e c0f0 0f3d 6cbc 983e
000001d0: ab3a 71bd 58c7 b3be 1dfe 103e d23a 7cbe
000001e0: f4f6 c9bd c001 dcbd dd39 df3d 8756 4f3e
000001f0: 95f4 1d3e 3f02 1cbe ac7c 8c3e 4d65 963b
00000200: 2e70 94be f470 7c3e 876c 5a3e a0f7 9fbd
00000210: 51a9 863c 3797 dbbd 5812 8fbc 5a07 223e
00000220: 842f 8cbe 02b2 673e c850 3fbe 4820 25be
00000230: 467a ee3e 0538 0b3d 9e16 b4bd f32a 0f3c
00000240: ae8d dcbd b2e4 d63e 51e9 293e 2fd1 e53e
00000250: 6f37 393e dc2d 69be 12b4 a33e 6f0f a93e
00000260: 8f07 583e a4db 7c3e 2a5f 763e 8803 4c3e
00000270: 4929 e0bd c5e1 1fbd f2c6 1cbe a414 26be
00000280: f32f d03c 9b6c 20bb bb59 98be 11ed 263e
00000290: 6e70 eabb 202d 2bbe 6a5e 69bd f551 f53d
000002a0: c9c5 f0bb f409 2c3c e2f5 a13e a8c7 d53d
000002b0: 2c33 f3bd 185b 463d 0472 69be 3b10 823d
000002c0: a403 1bbe d8f6 103e 15fe 8a3d acdc 9a3e
000002d0: 0beb 1bbe 76a2 643e 9eb6 bf3e f2e8 8dbc
000002e0: dd98 d23b f7c7 edbd 0948 48be f348 01bf
000002f0: df04 c63d a77b 8fbe a667 fe3d 847b 583e
00000300: 134e fb3d a0f4 a7be 9e2e 84bd 7147 a73b
00000310: f3ec c2bd 49eb 99be cca3 1a3d b131 f53d
00000320: eb32 71be 33ac de3e c287 45be e8ba 17be
00000330: 565c 11bd bef0 8abc 10d0 833e 62ea f4be
00000340: 8659 41bd 0490 85bd 6f81 1cbe 1d8c 273e
00000350: 85ee fcbd 9d86 83bc c202 043e 1f86 a5bd
00000360: f508 ed3e a7f7 60be bd64 a2be 7b74 1abd
00000370: 2835 1fbe 7a2a f13d 6045 e9be 3877 53bd
00000380: 9902 df3d 6741 35be ca58 b73e 4c17 403d
00000390: 5a14 8c3c 1810 9c3e a531 58be 4f8d 0bbe
000003a0: c34b 6b3e 88ec 33be ccb5 4b3e ef99 bdbe
000003b0: 2481 30bd 7288 493e 8884 94bd ca90 2cbe
000003c0: 649d ee3d 41b7 233c f547 0bbe a87b fc3e
000003d0: e752 7c3d 9b3d c1bd 7955 d03d 614c 483c
000003e0: aab1 693c 9c31 69be 7118 423e 064b 923e
000003f0: 3547 a23d 554d b3bd 43a7 48be 8bd5 51be
0.033481717 -0.14812306 0.040116314 0.15791604 -0.2615002 0.1838484 -0.09822951 -0.17843127
-0.245553 0.20986748 0.059077278 -0.54988647 -0.33187646 -0.077532716 -0.25474572 0.23258102
-0.035450824 0.28970826 0.16883263 -0.005779802 -0.083707765 0.018798355 0.37880993 -0.36313793
-0.15712103 0.1267345 -0.28262433 0.16017345 0.28880858 -0.002690775 -0.0889649 -0.13417353
0.4236334 -0.0046735536 0.008115972 -0.16290836 0.014690832 -0.45341313 -0.38165894 -0.034417253
-0.041368272 0.0644286 -0.03750931 -0.19917126 0.3379465 0.0024369692 -0.04318282 0.2109778
-0.09338994 0.04619271 0.31319323 -0.30500436 0.24087572 0.0896406 0.23889916 -0.17044541
-0.22307435 0.008376237 0.16009966 0.07787217 -0.16033028 -0.105059244 -0.17032251 -0.13921635
0.36742017 -0.04259258 0.040085122 -0.20250903 0.11505163 0.61356306 -0.61810267 -0.1128925
-0.0851667 0.031012306 -0.2957009 0.040453985 0.05723305 0.008733349 -0.22357245 0.03961436
0.03358223 -0.19574419 0.12904482 0.03551579 0.12646495 -0.020733431 0.077342235 -0.06801282
-0.0122070415 -0.42786035 0.09767995 0.30280435 -0.18827677 0.21991906 0.0661625 -0.0055770357
-0.23240082 0.108306184 -0.08524914 0.12450692 -0.25545147 0.09275332 0.22030686 0.15197
-0.31972304 0.035802964 0.2378621 -0.21160574 0.4095498 -0.24327712 0.12832002 0.10518116
0.037926026 0.12529522 0.035141706 0.29831254 -0.05889384 -0.35113025 0.14159437 -0.24631813
-0.09861556 -0.10742521 0.108997084 0.20247851 0.15425332 -0.15235232 0.27438867 0.0045897127
-0.28991836 0.24652463 0.21330462 -0.078109026 0.016438158 -0.10722201 -0.017464802 0.15823117
-0.27380002 0.22626498 -0.1868316 -0.16125596 0.46577662 0.03398897 -0.087933764 0.008738267
-0.10769211 0.41971356 0.1659291 0.44886157 0.18087552 -0.227714 0.3197332 0.33019587
0.21096633 0.24693161 0.2405974 0.19923222 -0.109453745 -0.03903367 -0.15310267 -0.16218811
0.025413489 -0.0024478796 -0.2975596 0.16301371 -0.007154516 -0.16716433 -0.056974806 0.11978523
-0.0073477966 0.01050042 0.31632906 0.10438472 -0.11874995 0.048426718 -0.227974 0.06350752
-0.15138108 0.14156663 0.067867436 0.30246484 -0.1522638 0.22327599 0.37444013 -0.017322991
0.006426914 -0.11610406 -0.19558729 -0.50501937 0.09668898 -0.28024027 0.12422113 0.21140867
0.12270751 -0.32803822 -0.06454204 0.005104952 -0.09517851 -0.3006232 0.037753865 0.119723685
-0.2355458 0.43490753 -0.19290069 -0.14817393 -0.03548845 -0.016960498 0.25744677 -0.4783507
-0.047204517 -0.065216094 -0.1528375 0.16362043 -0.123501815 -0.0160554 0.12891677 -0.08082222
0.46295896 -0.21969472 -0.31717482 -0.03770874 -0.15547621 0.1177568 -0.4556074 -0.051627368
0.10889167 -0.1770073 0.35809928 0.046897218 0.017099548 0.3048103 -0.21112688 -0.13628124
0.2297812 -0.17570698 0.19893569 -0.37031505 -0.043091908 0.19680956 -0.07251841 -0.16852108
0.11651114 0.009992422 -0.13601668 0.49313092 0.0616025 -0.094355784 0.101725526 0.012225241
0.01426355 -0.2277283 0.18954636 0.28572863 0.07923738 -0.08754984 -0.19595055 -0.20491616

base.mlp.fc_h.0.bias f4 [64]
00000000: 0000 0000 0000 0000 0000 0000 0000 0000
00000010: 0000 0000 0000 0000 0000 0000 0000 0000
00000020: 0000 0000 0000 0000 0000 0000 0000 0000
00000030: 0000 0000 0000 0000 0000 0000 0000 0000
00000040: 0000 0000 0000 0000 0000 0000 0000 0000
00000050: 0000 0000 0000 0000 0000 0000 0000 0000
00000060: 0000 0000 0000 0000 0000 0000 0000 0000
00000070: 0000 0000 0000 0000 0000 0000 0000 0000
00000080: 0000 0000 0000 0000 0000 0000 0000 0000
00000090: 0000 0000 0000 0000 0000 0000 0000 0000
000000a0: 0000 0000 0000 0000 0000 0000 0000 0000
000000b0: 0000 0000 0000 0000 0000 0000 0000 0000
000000c0: 0000 0000 0000 0000 0000 0000 0000 0000
000000d0: 0000 0000 0000 0000 0000 0000 0000 0000
000000e0: 0000 0000 0000 0000 0000 0000 0000 0000
000000f0: 0000 0000 0000 0000 0000 0000 0000 0000
0.0 0.0 0.0 0.0 0.0 0.0 0.0 0.0
0.0 0.0 0.0 0.0 0.0 0.0 0.0 0.0
0.0 0.0 0.0 0.0 0.0 0.0 0.0 0.0
0.0 0.0 0.0 0.0 0.0 0.0 0.0 0.0
0.0 0.0 0.0 0.0 0.0 0.0 0.0 0.0
0.0 0.0 0.0 0.0 0.0 0.0 0.0 0.0
0.0 0.0 0.0 0.0 0.0 0.0 0.0 0.0
0.0 0.0 0.0 0.0 0.0 0.0 0.0 0.0

base.mlp.fc_h.2.weight f4 [64]
00000000: 0000 803f 0000 803f 0000 803f 0000 803f
00000010: 0000 803f 0000 803f 0000 803f 0000 803f
00000020: 0000 803f 0000 803f 0000 803f 0000 803f
00000030: 0000 803f 0000 803f 0000 803f 0000 803f
00000040: 0000 803f 0000 803f 0000 803f 0000 803f
00000050: 0000 803f 0000 803f 0000 803f 0000 803f
00000060: 0000 803f 0000 803f 0000 803f 0000 803f
00000070: 0000 803f 0000 803f 0000 803f 0000 803f
00000080: 0000 803f 0000 803f 0000 803f 0000 803f
00000090: 0000 803f 0000 803f 0000 803f 0000 803f
000000a0: 0000 803f 0000 803f 0000 803f 0000 803f
000000b0: 0000 803f 0000 803f 0000 803f 0000 803f
000000c0: 0000 803f 0000 803f 0000 803f 0000 803f
000000d0: 0000 803f 0000 803f 0000 803f 0000 803f
000000e0: 0000 803f 0000 803f 0000 803f 0000 803f
000000f0: 0000 803f 0000 803f 0000 803f 0000 803f
1.0 1.0 1.0 1.0 1.0 1.0 1.0 1.0
1.0 1.0 1.0 1.0 1.0 1.0 1.0 1.0
1.0 1.0 1.0 1.0 1.0 1.0 1.0 1.0
1.0 1.0 1.0 1.0 1.0 1.0 1.0 1.0
1.0 1.0 1.0 1.0 1.0 1.0 1.0 1.0
1.0 1.0 1.0 1.0 1.0 1.0 1.0 1.0
1.0 1.0 1.0 1.0 1.0 1.0 1.0 1.0
1.0 1.0 1.0 1.0 1.0 1.0 1.0 1.0

base.mlp.fc_h.2.bias f4 [64]
00000000: 0000 0000 0000 0000 0000 0000 0000 0000
00000010: 0000 0000 0000 0000 0000 0000 0000 0000
00000020: 0000 0000 0000 0000 0000 0000 0000 0000
00000030: 0000 0000 0000 0000 0000 0000 0000 0000
00000040: 0000 0000 0000 0000 0000 0000 0000 0000
00000050: 0000 0000 0000 0000 0000 0000 0000 0000
00000060: 0000 0000 0000 0000 0000 0000 0000 0000
00000070: 0000 0000 0000 0000 0000 0000 0000 0000
00000080: 0000 0000 0000 0000 0000 0000 0000 0000
00000090: 0000 0000 0000 0000 0000 0000 0000 0000
000000a0: 0000 0000 0000 0000 0000 0000 0000 0000
000000b0: 0000 0000 0000 0000 0000 0000 0000 0000
000000c0: 0000 0000 0000 0000 0000 0000 0000 0000
000000d0: 0000 0000 0000 0000 0000 0000 0000 0000
000000e0: 0000 0000 0000 0000 0000 0000 0000 0000
000000f0: 0000 0000 0000 0000 0000 0000 0000 0000
0.0 0.0 0.0 0.0 0.0 0.0 0.0 0.0
0.0 0.0 0.0 0.0 0.0 0.0 0.0 0.0
0.0 0.0 0.0 0.0 0.0 0.0 0.0 0.0
0.0 0.0 0.0 0.0 0.0 0.0 0.0 0.0
0.0 0.0 0.0 0.0 0.0 0.0 0.0 0.0
0.0 0.0 0.0 0.0 0.0 0.0 0.0 0.0
0.0 0.0 0.0 0.0 0.0 0.0 0.0 0.0
0.0 0.0 0.0 0.0 0.0 0.0 0.0 0.0

base.mlp.fc2.0.0.weight f4 [64, 64]
00000000: 4ef3 6e3d a836 40be 7722 123c 38b9 083e
00000010: b02a 55be f25a 293e 6201 b93d 782b 81be
00000020: 8913 a5be 484a 133e bc06 363c efeb 25bf
00000030: 5e84 e8be deb4 8dbd 935d 9dbe 7e49 a23e
00000040: 7a0e 12be bce2 873e 39c1 b83d 96b9 543b
00000050: 3b82 92be 7052 953d d0ef 9f3e 966f cfbe
00000060: 2c4a 58be 6ee4 723e 7603 47be ac63 143e
00000070: d5e7 683e e7da 9c3d a4fc 403c 494a f3bc
00000080: b8fd b93e 9d1d 17bd e238 00be 7663 d9bd
00000090: 459a 463d a69a e7be 2313 b7be 3e12 04bc
000000a0: ecfd 273d 2825 b63d 3b07 0c3d 4e55 c5bd
000000b0: 4f1d d43e 17ce b0bd 0850 c93c 43d1 583e
000000c0: 934a 91bd aba1 a63d 9850 8c3e 4eb4 9bbe
000000d0: 9720 423e db63 fa3d 0587 b63e f825 33be
000000e0: 03a7 1dbe e772 3abd f27e 8d3e 4357 d33d
000000f0: a26c 17be b68d e3bd 0e0a 83be 5cd6 20be
00000100: 947f c53e d038 17bd 8498 8abd 0526 69be
00000110: a8d5 303e 6dc1 0b3f 7c5e 0abf 2288 10be
00000120: a5f4 47bd 523d 38bd 487b 9bbe ed74 c53d
00000130: 29f7 45bd 8040 68bc ac3e 64be ae08 be3d
00000140: c307 03bd 7b50 d7bd dac4 033e f7a6 4b3d
00000150: 7c97 073e 5dc9 773a c036 a93d 45fa b8bd
00000160: 9583 15bd 6fcb ccbe a3d8 1c3e 2d66 5c3e
00000170: 4967 3abe 1092 8c3e 6b01 213e 9752 0abd
00000180: 04c4 a8be 6f33 083e 1fc1 bdbd c6f0 be3d
00000190: 1ae6 7abe e38a 423d 9a6d 893e 90c9 b23d
000001a0: 4d6f cdbe 5e59 cd3d 04bb 853e 545b 79be
000001b0: 659e fd3e e29c a3be 121f de3d 0672 203d
000001c0: 7cee a53c 7ee7 333e eb80 afbd 196b c33e
000001d0: ece0 173d 3a27 bbbe 571d 5d3e 420f 8dbe
000001e0: 9951 363d 46aa 92bd cf03 2c3e d873 f53d
000001f0: a07b 523e 1313 07be b1cb 3d3e a0c1 953d
00000200: bd8f 52be 3884 403e a49d 663e 424e 7bbd
00000210: 7c0e 4b3d ed08 02be 38a0 313c a87d 063e
00000220: 1fdb 6dbe fc6b 833e 988a 9ebe 59fe 2abe
00000230: d8e2 c83e 16ef 8f3d 76d0 cebd 4d32 493d
00000240: 5e02 57be e4d5 c53e 4ab8 103e bb44 0c3f
00000250: d311 223d e4c1 60be ea90 ba3e 7432 8c3e
00000260: 2ca9 923e a460 a73e c8d5 ae3e 50ea aa3e
00000270: 34bb 94bd 2a4e 843d 4b68 59be 4db1 94bd
00000280: c9b8 5abd b071 7e3a b8b1 9abe 6177 673d
00000290: 182d 953c d057 69be 77fd 95bd a227 4b3e
000002a0: 07cc 9c3c cc18 f9bd 3e31 b83e 8c85 863e
000002b0: 766a 57be b701 103d efaf 7cbe 373a a3bc
000002c0: 968b 3bbe 1f01 5c3e d402 503e bee0 903e
000002d0: 5888 e8bd fa38 283e 2c3f d43e c271 a43b
000002e0: 7db5 373c 8112 c5bd 21aa 67be 0bb7 0abf
000002f0: 2fd2 2cbc d3a5 47be 8802 7a3c 2463 ad3d
00000300: 0cad 443e 69b3 d9be fdde 88bd ef93 a93d
00000310: 2be0 dfbc 3833 adbe b4ac 673d 4d2a 823d
00000320: 6060 7bbe 4a2f 023f 30d5 76be baff 8abd
00000330: 61aa 9dbc 0631 bfbd 90a8 1f3e a8f4 eebe
00000340: 175e 4bbd 10f2 19be c519 6ebe 31e3 083e
00000350: 3e42 48be 5a2a 94bc 26c4 323e 5187 8dbd
00000360: eed4 bb3e 132e 5cbe debe a3be 7fa2 a83d
00000370: 798f 11be 2403 1f3e f275 e0be 04f0 38be
00000380: 71d2 913d 64b3 c8bd 86d0 af3e 4d53 b33d
00000390: 3f5e 363d 5514 8c3e c70a 49be c7d6 3fbe
000003a0: 474c 9f3e 7ce3 69be c55b 853e fab6 9abe
000003b0: 6f58 43bd 6a26 473e fcc2 fdbd 5b34 49be
000003c0: 7691 dfbd 9af3 8e3d 6b2f 70bd cbdc 183f
000003d0: b21f 0b3e 8080 3bbe b710 473e 55a4 4a3d
000003e0: e1a3 a93d 6d7f 84be 11e7 fd3d 68c1 8f3e
000003f0: 0d3d 353e 2f9f 3dbd 247b 8ebe 9527 39be
0.058337502 -0.1877085 0.00891935 0.13351905 -0.20817065 0.16538599 0.09033467 -0.25228477
-0.32241467 0.14383805 0.011110004 -0.6481313 -0.45413488 -0.06919263 -0.30735454 0.31696695
-0.14263335 0.26540172 0.09021229 0.003245925 -0.28614983 0.07291114 0.3123765 -0.4051482
-0.21122044 0.23719952 -0.19434914 0.14491147 0.22744687 0.0765894 0.011778984 -0.029698508
0.36326385 -0.036893476 -0.12521699 -0.10614674 0.048486967 -0.45235175 -0.35756788 -0.00806099
0.041013643 0.08893806 0.034186583 -0.09635411 0.4142861 -0.086330585 0.024574295 0.21173577
-0.07094302 0.081363045 0.27405238 -0.30411 0.18957745 0.12226077 0.35649887 -0.17494953
-0.15395741 -0.045519736 0.27635914 0.10319378 -0.14787534 -0.111110136 -0.2559361 -0.15706772
0.38573897 -0.036919415 -0.06767371 -0.2276841 0.17269003 0.5459202 -0.5405042 -0.1411443
-0.048817296 -0.044980355 -0.30367494 0.096414424 -0.048331413 -0.014175534 -0.22289532 0.09278999
-0.031989824 -0.10513397 0.12868062 0.049719777 0.1324138 0.0009452308 0.08262396 -0.0903211
-0.03650244 -0.39998958 0.15317015 0.21523352 -0.18203463 0.27455187 0.15723197 -0.03377017
-0.32962048 0.1330087 -0.092653506 0.09323268 -0.2450184 0.047495734 0.26841432 0.08729851
-0.40123978 0.10026811 0.26119244 -0.24351245 0.49534908 -0.3195563 0.1084577 0.03917124
0.02025532 0.17568776 -0.08569511 0.38167647 0.037079737 -0.36553365 0.21593224 -0.27550703
0.04451141 -0.07161383 0.16798328 0.11984986 0.20554972 -0.1319087 0.18534733 0.07312322
-0.20562644 0.18800437 0.22521073 -0.06135393 0.04957436 -0.12698717 0.010841422 0.13133872
-0.2322812 0.25668323 -0.30965114 -0.16698588 0.39235568 0.07028024 -0.100983545 0.049120236
-0.20996997 0.38639748 0.141328 0.54792374 0.03956778 -0.21948963 0.36438686 0.27382243
0.28644693 0.32690918 0.34147477 0.3338189 -0.07262269 0.06460221 -0.21231191 -0.0726038
-0.05339888 0.0009706272 -0.30213714 0.056510333 0.018209979 -0.22787404 -0.07323735 0.19839337
0.019140257 -0.12162933 0.3597507 0.26273763 -0.21036705 0.035157885 -0.24676488 -0.01992522
-0.18314967 0.21484803 0.20313579 0.28296465 -0.113541305 0.16427985 0.41454446 0.005018444
0.011212704 -0.0962267 -0.22623493 -0.5418555 -0.010548159 -0.1949685 0.015259393 0.08466175
0.19206637 -0.42519692 -0.06683157 0.08280169 -0.027328571 -0.3382814 0.056561187 0.063557245
-0.24548483 0.5085341 -0.24104762 -0.06787057 -0.019246282 -0.09335522 0.15591645 -0.46671033
-0.049650278 -0.15033746 -0.23252018 0.13367917 -0.1955652 -0.018086601 0.17457637 -0.06910575
0.3668589 -0.21501951 -0.31981558 0.08234119 -0.14214887 0.15528542 -0.43839985 -0.18060309
0.07120217 -0.09799841 0.34338778 0.08756123 0.044523474 0.27359262 -0.19633017 -0.18734275
0.31112882 -0.22840685 0.26046577 -0.30217725 -0.04769176 0.19448248 -0.12390706 -0.19648878
-0.10916416 0.06980057 -0.05863897 0.59711903 0.1358631 -0.18310738 0.1943997 0.049473125
0.082832105 -0.25878468 0.12397588 0.28077245 0.1769907 -0.046294387 -0.27828324 -0.18081506

base.mlp.fc2.0.0.bias f4 [64]
00000000: 0ea3 913c 12c7 35bd 8e61 823d f825 e4bb
00000010: cf03 be3a 4278 923d 04ba 493c 34f7 863c
00000020: 03f8 1abd 66e0 303c 8cfa 92bd 6061 823d
00000030: fac6 c3bd f8b7 163d 2338 8ebd c595 8a3c
00000040: 2078 3d3d 0fac bfbd 9ef3 47bd 1d89 7cbd
00000050: ecdd 25bb eea8 0abd 30f1 afbb 9979 1a3c
00000060: cde3 96bd 3075 3c3e 5208 2cbd a531 9e3d
00000070: 280e 1dbe 4e31 873d 176e c73d 622c ea3b
00000080: 04dd 543d a9cc 99bc 78f6 79bd d9fe ecbc
00000090: 5b20 4b3d 93cb b9bc b9c5 a0bc d97e 39bc
000000a0: 8aec 28bd ff4d 983d 71dc 2ebd 07a3 86bd
000000b0: 76f4 ce3d e5f8 4e3d 337d b9bb 18a9 dcbd
000000c0: c3fb 133e be85 20be 7490 4fbb 845f 1abd
000000d0: 4903 b53d 96db 433c fc11 a0bd 41ec 733c
000000e0: b60d 6a3d 8fbf 8d3d b966 19be 8625 bd3c
000000f0: 82e7 963d 8f8e 21bd b56f 5fbd d41e 303e
0.017777946 -0.0443793 0.06366263 -0.006962534 0.0014496985 0.071518436 0.012312416 0.016475298
-0.03783418 0.010795688 -0.07176694 0.06366229 -0.09559436 0.03679654 -0.06944301 0.016917119
0.04625714 -0.093589894 -0.048816316 -0.0616542 -0.0025309278 -0.03385251 -0.005369328 0.009428405
-0.07367668 0.18404078 -0.042000122 0.07724313 -0.15337431 0.06601201 0.09737795 0.007146404
0.05196859 -0.018774347 -0.061026067 -0.028930115 0.049591403 -0.02268008 -0.019625532 -0.011321747
-0.041241206 0.074367516 -0.042690698 -0.06574064 0.10105221 0.050530333 -0.005660677 -0.107744396
0.14451508 -0.15676019 -0.0031671794 -0.037688747 0.08838517 0.011954209 -0.0781593 0.01488787
0.057141982 0.069213025 -0.14980592 0.023089182 0.07368375 -0.039442595 -0.05454989 0.1719926

base.mlp.fc2.0.2.weight f4 [64]
00000000: 52db 8a3f c8d5 823f 6939 8e3f 3ef4 843f
00000010: c6d5 843f 22a2 813f dc62 873f 9723 7f3f
00000020: eb9a 843f 6071 883f b838 883f 996a 793f
00000030: ed91 833f 5304 7b3f 1175 793f b74c 7e3f
00000040: 44b0 8e3f de34 813f d265 873f 6509 713f
00000050: d5a4 833f e863 8a3f 599f 7c3f ad09 803f
00000060: f72b 663f 6fe8 7c3f 9422 7c3f 8eb7 8b3f
00000070: 7df9 963f caf3 723f da59 873f 4605 8a3f
00000080: eefa 893f 7c1a 843f 06b2 753f 26cc 893f
00000090: d249 8e3f 94f6 813f 4af3 6f3f 4949 803f
000000a0: 53ab 813f 73c9 8a3f 8b54 873f 45d2 7a3f
000000b0: 21a1 8f3f 7536 8e3f 4d19 863f 20b5 873f
000000c0: e4d5 903f 5938 7a3f f6e6 843f 60de 8f3f
000000d0: 2b29 8a3f 4791 7a3f 6ee6 923f 5823 7e3f
000000e0: e4d5 703f 801f 713f a4e0 7b3f 5614 893f
000000f0: 66a2 7c3f b5e7 893f d485 6e3f 5c5f 8c3f
1.0848181 1.0221491 1.111127 1.0387037 1.0377738 1.0127604 1.0577044 0.9966368
1.0359777 1.0659599 1.0642309 0.9742828 1.0278908 0.98053473 0.97444254 0.9933581
1.1147542 1.0094259 1.0577948 0.9415496 1.0284678 1.0811739 0.98680645 1.0002953
0.89910835 0.98792166 0.9849026 1.0915391 1.1794888 0.9490324 1.0574296 1.0782859
1.0779703 1.0320582 0.9597477 1.0765426 1.1116278 1.0153375 0.93730605 1.0022365
1.0130409 1.0842727 1.0572675 0.97977096 1.1221048 1.1110369 1.0476471 1.060215
1.1315274 0.9774223 1.0382984 1.1239738 1.0793813 0.97877926 1.1476572 0.9927268
0.9407637 0.9418869 0.9838965 1.0709331 0.986853 1.0773836 0.93172956 1.0966601

base.mlp.fc2.0.2.bias f4 [64]
00000000: 74b9 d23c 7cc2 213d b8bb ef3d 6fd2 f8bc
00000010: 62a8 89bc 62b2 f03d 88f2 ac3c 56b0 053d
00000020: bc37 8fbb cf36 853c d768 1fbd 4f0a f73d
00000030: f0bd c3bd b526 c83c 85f7 713b bcad 273b
00000040: a67a 52bc 1fc1 a9bc 252e 79bd 659d d6bc
00000050: fbfa 8abd 548c 95bc 548b be3d 18fc b43c
00000060: 5a6d babd e44a 203e 4fc0 0f3c c472 8a3d
00000070: 5764 adbd efe2 033e cea4 973d 85b6 8ebc
00000080: abdc 01bd 5e75 acbc 068a f4bc 1998 00bd
00000090: 10ee 6a3d 006f 8bbd 4712 0dbd 77ae 6abc
000000a0: cad5 17bd 62a0 b5bc f5c0 963c af69 acbc
000000b0: ca3c 503a 6ef4 d83b 4250 7ebd 498e 9dbd
000000c0: c6f0 cb3d 41f6 b83b 2b24 893b 30ed aab7
000000d0: 07e7 5f3d 73e0 ecbb 3346 01bd 3e89 b83c
000000e0: a418 b73d 80ba 1fbc 6d91 63bc fa3e 953d
000000f0: 2806 a23c 4335 c1bc 5d2a b43b 4783 8cbc
0.025723197 0.039492115 0.117057264 -0.03037378 -0.016803924 0.11752774 0.021111742 0.03263887
-0.0043706577 0.016261486 -0.038918342 0.12062513 -0.09557712 0.02443252 0.0036921215 0.0025585731
-0.0128466245 -0.02072197 -0.060835022 -0.026198098 -0.06786152 -0.01825539 0.093039185 0.022092864
-0.091028884 0.15653569 0.008773877 0.06760171 -0.08466404 0.12879537 0.07404481 -0.017421016
-0.031704586 -0.021052059 -0.029850971 -0.03139505 0.05735594 -0.06808281 -0.03444126 -0.014323822
-0.03706912 -0.022171203 0.018402556 -0.021046488 0.00079436286 0.006620935 -0.06208826 -0.07693154
0.09958033 0.00564459 0.0041852198 -2.0376028e-05 0.054663684 -0.007228905 -0.031561088 0.02252638
0.08940247 -0.009749055 -0.013889653 0.072874025 0.019778326 -0.023584967 0.005498214 -0.017152442

rnn.rnn.weight_ih_l0 f4 [192, 64]
00000000: 852a ccbb 389a a33b 3686 973c f84e d53d
00000010: 3157 d1bb 1b86 0e3d 0314 48bd eb04 5c3d
00000020: b3d2 823d df0c 77bc afb7 023e 4a90 c6bc
00000030: 14a2 03bd 5d52 ec3d 892b 14be 4868 903d
00000040: 147b 25be 9b98 cfbd 33b1 8f3c 6442 913c
00000050: 5a27 a6bd 9926 653c 776f 0abe b09f 61be
00000060: 3ccc 10be c3aa d33d 1092 f03d 72e7 0a3e
00000070: d82e da3a 1076 08bc 3633 c9bd 5ca4 dabd
00000080: 199f 36be a9ac 383e c84e 323e e303 80be
00000090: 9475 603e 9199 c53d f946 4fbc 277c eebb
000000a0: 6e6f 22be dbc5 003d cec4 62bd c4e4 b93c
000000b0: f041 423e 6735 f1bd 70b4 e8bd 96f9 0bbe
000000c0: b2ee 5f3e ee9f 973d 8f6f 4abd dec9 5cbc
000000d0: 2822 3dbe 10b8 1abe 5149 073e a516 8abd
000000e0: d864 9dbd 2376 203e 3d28 013e eb51 2b3d
000000f0: 45ed 3b3e 2937 fcbd 2cd4 3fbe e5a4 bb3d
00000100: e64c 163c 169f 80bd 653e e6bd 1b19 503e
00000110: 403e b23e 3238 bdbc a542 563d 8fc7 8b3d
00000120: 0720 78bd b56c be3d 1a90 9dbc 51e5 c7bd
00000130: 918b 033e 1772 d83b a710 963d fab6 26be
00000140: 062a 703d 878b 1bbe 785a a1be c074 c43c
00000150: 40d3 44bb 24f8 0e3d 9dfd 923d 04ba a7bd
00000160: 5047 833d 0cc7 16be eb4c d0bd 2f48 913c
00000170: 2045 c73c 4fec 43bd d3b5 fabc 0a11 bfbd
00000180: fb75 e13c ef16 903b 1298 833d f628 a63d
00000190: ad13 48bd 75a4 c33c 8ed3 afbc bc31 1abe
000001a0: bc9a 15be 7214 3f3d a033 56bd 7067 a9bd
000001b0: 8379 833d ae1f 3a3c ea2f 963d fc80 883d
000001c0: 5a2d 413d 929e 6ebd 6a6c 803d b3d1 4b3d
000001d0: 5b9a f53c c5bd 8fbd a014 13bd 3337 473d
000001e0: 2471 ba3d b70a 123e 3d99 7e3d 3dac e43d
000001f0: d34b 87bd c76c c43d 75eb 523e bbd0 7cbd
00000200: a715 853d 27ca 2cbe b8b1 963d 947d b83d
00000210: 9d5c bb3d 8f74 9d3c ce33 5cb9 44cc 503d
00000220: 0396 59bd a584 013d a00f 283d 1723 9c3d
00000230: 3bc5 bb3d 15ae 6fbe 5a39 dbbd 0154 2bbe
00000240: 5aeb d03d a0a0 523e dcd6 fa3c 1aae f63c
00000250: 9eaf bf3d eb6b 9e3e 21fb fb3d 6db3 4bbd
00000260: 1ea1 323e cede 0cba ac2d 1ebe f212 dbbc
00000270: fac8 7a3d 5299 48bd c903 8ebd f6a1 89bd
00000280: 3c5e 963d 62b0 78bd 753e b2bd fb51 f43d
00000290: 85fb 5ebc bf4e 99bd cf5e 4dbc 5bee 033a
000002a0: 93ce 41be a0d6 0b3c 0520 8dbe 0456 c03b
000002b0: 5c6f 60b9 9adf 7ebd c288 c83d 3547 1e3d
000002c0: 4305 783d e969 103d 94e9 6e3e 8faa 923c
000002d0: 0a05 03be b1ea 673d 6562 57be b9d9 14be
000002e0: fb1e b73c 9f0b 8fbc a135 a13d 1050 b23d
000002f0: 5930 27be 7e34 42be 7fbb 6e3e 6cfd f2bd
00000300: a5ae 22bd 50fc 6e3e 157e 79be 2b8c fc3c
00000310: 933b b23a f821 2cbe c107 2dbe f86b 683d
00000320: ac59 e3bd a547 89bd 6ef7 6d3d 90a6 813b
00000330: f270 9e3d c918 4f3d 84b0 b2bb c1e1 47be
00000340: f6b2 083e 5314 263b 1c03 f2bc 186b 8a3d
00000350: 30da 7d3c 9ffa 76bd fb79 9dbd 318f 2cbe
00000360: eeec 2dbe 50d6 09bd 4e9f 07bb 2eb4 07bc
00000370: 7095 843c adcb f5bd 3597 4d3d 4cf7 92bd
00000380: 35fc b7bc 91ce c3bc b3e5 503e 568c 3bbd
00000390: 0921 0abe f690 163e 158d a13c 2485 febd
000003a0: e527 88bd 2789 20be ed0e b33c 969b 693d
000003b0: d05c f53d 2e09 8fbc a940 55bd 64f3 cabd
000003c0: 8cf2 abbd 2e80 4a3d 0fd2 9dbd 55d1 6e3d
000003d0: c395 133e 85a8 de3b f786 253d 018e 213d
000003e0: 377c 5fba 8bd1 e0bd 1cee 6738 7ba2 01be
000003f0: b496 243e 7e27 c43d a039 42bd 3af6 b8b9
-0.0062306547 0.0049927495 0.018496614 0.10415453 -0.006388568 0.03479586 -0.04884721 0.053715628
0.06387844 -0.015078752 0.12765382 -0.024238724 -0.03213699 0.11539147 -0.14469732 0.0705114
-0.16160232 -0.10136529 0.01754055 0.017731853 -0.081129745 0.013986253 -0.13519083 -0.22033572
-0.14140409 0.103353046 0.11746609 0.13564852 0.0016646041 -0.00832893 -0.09824221 -0.1067588
-0.17834128 0.18034615 0.17412865 -0.25002965 0.21919852 0.09648431 -0.012651199 -0.0072779837
-0.1586282 0.03143869 -0.05536347 0.022692092 0.18970466 -0.11777764 -0.11362541 -0.13669428
0.21868399 0.07403551 -0.049422797 -0.013475863 -0.18470061 -0.15109277 0.13211562 -0.067426
-0.0768525 0.15670066 0.12613006 0.04182617 0.1835223 -0.123152085 -0.18733281 0.091623105
0.009173607 -0.06280343 -0.112423696 0.20322077 0.34813118 -0.023098085 0.05230965 0.06825172
-0.06057742 0.09298078 -0.019233752 -0.097605355 0.12846209 0.0066053974 0.07327395 -0.16280738
0.058633827 -0.15189944 -0.31514335 0.023981452 -0.0030033141 0.034904614 0.07177279 -0.081897765
0.06410086 -0.14724368 -0.10170921 0.017734615 0.024324954 -0.047832783 -0.030604279 -0.09329422
0.027522078 0.004397265 0.064254895 0.081132814 -0.04884689 0.02388213 -0.021463182 -0.15058035
-0.14609808 0.046650358 -0.052295327 -0.08271682 0.06419661 0.011360092 0.07333358 0.06665227
0.04716239 -0.058256693 0.06270678 0.04976053 0.029980829 -0.070186175 -0.03590834 0.048636626
0.09103611 0.142619 0.06215786 0.11165664 -0.06606259 0.0959106 0.20597632 -0.0617225
0.064982705 -0.1687399 0.07358116 0.09008327 0.09148524 0.019220619 -0.00021000134 0.050976053
-0.053121578 0.03162064 0.041030526 0.0762388 0.09168478 -0.23406251 -0.10704298 -0.16731264
0.1020114 0.20569086 0.030620031 0.030112315 0.09359668 0.3094171 0.123037584 -0.04973166
0.17444274 -0.00053737767 -0.1544711 -0.026742432 0.061226822 -0.048974343 -0.06934316 -0.06720345
0.073421925 -0.060715087 -0.08703319 0.11929699 -0.013609772 -0.07485723 -0.012534811 0.0005032771
-0.18926458 0.008535057 -0.2756349 0.005869629 -0.0002140379 -0.06222496 0.097917095 0.038642127
0.060551893 0.035257254 0.2333129 0.017903594 -0.12794891 0.056620304 -0.21033628 -0.1453618
0.02235364 -0.017461596 0.07871557 0.08706677 -0.16327037 -0.18965337 0.23313712 -0.11864743
-0.039717335 0.23338437 -0.24364503 0.030828556 0.0013598077 -0.16809833 -0.16897489 0.056743592
-0.11101088 -0.06703118 0.058097295 0.0039566234 0.07736386 0.050560746 -0.005453171 -0.19519712
0.13349518 0.0025341704 -0.029542498 0.06758708 0.0154939145 -0.060297605 -0.076892816 -0.16851498
-0.16984913 -0.03365165 -0.0020694318 -0.008282704 0.016184539 -0.12001739 0.05019303 -0.071760744
-0.022459129 -0.02390221 0.20400123 -0.04578813 -0.13489164 0.14703736 0.019720593 -0.12427738
-0.06648234 -0.1567732 0.021857703 0.057033144 0.11980593 -0.017460432 -0.052063618 -0.09909704
-0.083958715 0.049438648 -0.07706081 0.058305103 0.14412598 0.0067949914 0.040411916 0.039442066
-0.00085252844 -0.10977467 5.529645e-05 -0.12659638 0.16073114 0.09577845 -0.047418237 -0.00035278668

rnn.rnn.weight_hh_l0 f4 [192, 64]
00000000: 8b8e a7bc 2f34 7ebd 2784 b33c e11a 01be
00000010: 8853 a6bc ee21 093e 4f10 c93d 78d2 7e3e
00000020: 0ab1 2ebe 8bdf 12be c113 6ebd 87fe 633d
00000030: 1a54 873d f08b 4a3d da51 64bd 7fb2 03be
00000040: e11f 8e3d 088c f7bd fa74 41be 1e7f 743d
00000050: 5c14 a83d 66ef 853d c2d6 0e3d 252e 6dbc
00000060: 478c b63d a060 e43d 6365 3a3b e4c8 18bc
00000070: 06c5 943d eb99 703d 83a2 5c3d d1c7 c0bd
00000080: 09ea 253d d1db 92bd 568b 813d 0205 a6bd
00000090: 4eed b6bc 86e8 013e 95f3 e33d 8f2f 8b3d
000000a0: 39b5 073d 9e6c 38bd d2b7 17be da44 00ba
000000b0: 9c36 61bd 0c18 06bd 2f82 7d3e d63c 0a3d
000000c0: c2d7 a23c d18a 4ebb a48a 053e a4b1 093e
000000d0: d3f7 c13d acc7 34be 1c03 2d3c 901c cf3b
000000e0: 6d38 0abe f43b 08bd 14f9 f43c b21e 48be
000000f0: de4a 90bd dd86 93bc c3a8 d3bd 5d0a f5bd
00000100: 96e4 923c 5893 13bd d80d acbd 0a42 33be
00000110: 0dc4 cdbd 110a dabd 9d7e a5bc 1c4c 133d
00000120: a1ac f5bd 27bb 1fbc 3dd7 dc3d b559 71bd
00000130: d52f 013e 7e68 fa3d d4f2 5dbe bf12 fabd
00000140: 0bd9 263d 2c2c aa3c e3f5 6c3c b3f8 853d
00000150: 1cf3 423e aa07 22be 8084 85bd 54dd 92bd
00000160: 69d0 573d 80fa 2bbe 5b2f ec3d fc28 fc3d
00000170: 3ddb 68bd 38de 0e3e 055b 013e 581d 373e
00000180: 0044 32bc 9f08 943d 04ce b9bd e932 ec3d
00000190: 0ed2 62be b8bd 80be 0436 9f3c f8e0 183b
000001a0: 6c92 4cbe 0f0a f83d 2eb3 c43d f9d0 193e
000001b0: 1e7f b83b a4be 1abd 1daa 09bd bb4a 213e
000001c0: 0536 7cbd f4b0 b03d 8be7 92bd 81cd 8b3b
000001d0: 9825 053e 1402 4a3e 186f 523b 1ed1 d2bb
000001e0: af1d c2bd df76 a13d 4e4a 673c 436d 8d3d
000001f0: 5246 7f3d f4e8 a13d e2a5 31be 10b4 1c3d
00000200: 9100 0f3c b58c c33d 8b6f 283d 0f6d d53d
00000210: 9d40 09be 0d04 cdbd a01c 20be a77b 553d
00000220: 6830 d33d bc67 9c3c b14f 043e f42f a73d
00000230: 10d5 a7bb 33fd c93b 5c3e 5c3d 9e64 723d
00000240: 6dc6 f03d 1c4c d7bd f26d a63d be22 563e
00000250: ed5b f13d 6dab febc 3332 c1bc 8b08 953d
00000260: 8d19 c53d 983c 683d 965b 883d 760d 333d
00000270: 7549 a4bd c57e 973d e320 a0bc 1fe7 71bd
00000280: 031b 433e 4200 d13d 71db acbd 9d62 c1bd
00000290: 5f7a 08be e87f a6bb e48f 6ebe 1199 a63d
000002a0: d2d7 f0bd 5fe8 3f3e bb0d a3bd e9f9 bc3d
000002b0: 4bfb d8bd 1fe8 9ebd efb7 5dbe e666 c7bd
000002c0: 5455 723d e981 94bc bd1d f6bd 72c5 afbd
000002d0: 8c5c d4bd 44a2 7c3e a169 10bd f3d0 4c3d
000002e0: 330c 3bbe 3059 95bc 605f 92ba 9200 163d
000002f0: 0ea0 bcbc 940d 3fbd 3a30 cbbd c442 be3c
00000300: 120e 87bd 3f10 f1bc 00fd 08be d587 833d
00000310: 8078 d73c a62e cdbd c406 0c3d 5ca8 3e3a
00000320: ac64 bd3c 7b02 a33c c8c1 84bc 716f 21bc
00000330: 5ca4 bbbc ae18 9d3c 9eda 1fbc 6cbd 22be
00000340: 8ba8 063c 2b5f 0bbd d39c 66bc af39 debd
00000350: 9d2b 3ebd 56b0 52bd 7997 18bd ef2a ae3d
00000360: a25b d6bd 19aa d43d 97d7 80bd 272f bd3d
00000370: b9b7 02bb a3ac cebd 37c5 dcbb d051 0d3e
00000380: 7c0c e83b 310b c13d 643b 233d f956 83bc
00000390: 31e1 c1bd a7d7 ad3d 5494 563d 9231 82bd
000003a0: 5184 3e3c 5183 15bd b106 5b3c 318b babd
000003b0: 6bdc 063e 93ea 35be 247e 323e cfcb 983d
000003c0: eae3 7cbd fa6c c53d c380 713e 5fc9 0ebe
000003d0: c68f 853e ae42 49bb 01ef c9bd 4de9 7a3d
000003e0: 1f21 23bd c46e ccbd afac 113e 4437 e93c
000003f0: cf03 233d d481 1ebc 80e7 41bd d866 d93d
-0.020453712 -0.062061485 0.021913601 -0.1260791 -0.020303503 0.1339185 0.09817564 0.24884975
-0.17059723 -0.14343087 -0.058124308 0.055662658 0.06607838 0.04944986 -0.055742122 -0.1286106
0.06939674 -0.12087256 -0.1889228 0.05969154 0.08207008 0.06539802 0.034872778 -0.014476334
0.089134745 0.11151242 0.002844178 -0.00932524 0.07264142 0.058740538 0.05386592 -0.09413112
0.040506396 -0.07170833 0.06325404 -0.08106424 -0.022329953 0.12686357 0.11130444 0.067961805
0.03313181 -0.04502546 -0.14816216 -0.0004893072 -0.05498372 -0.032737777 0.24756692 0.033749424
0.019878272 -0.0031515846 0.13041168 0.13446671 0.09471097 -0.17654294 0.010559823 0.0063205436
-0.13498087 -0.0332603 0.029903926 -0.1954296 -0.0704553 -0.018008644 -0.10334923 -0.11964867
0.017931264 -0.03602919 -0.08401078 -0.1750566 -0.10047159 -0.10646451 -0.020201975 0.035961255
-0.11995817 -0.00974921 0.10783241 -0.058923442 0.12615903 0.122269616 -0.21674663 -0.12210607
0.040734332 0.020773016 0.014462921 0.06541576 0.19038051 -0.15823236 -0.06519413 -0.07171121
0.05268899 -0.16794777 0.1153247 0.12312505 -0.056849707 0.13951957 0.12632377 0.17882288
-0.01088047 0.07228207 -0.090724975 0.11533148 -0.22150442 -0.25144744 0.019434936 0.0023327451
-0.1997773 0.121112935 0.09604488 0.15021123 0.005630388 -0.037779465 -0.0336095 0.15751164
-0.061574955 0.08627501 -0.071730696 0.0042664413 0.13002622 0.19727355 0.0032109674 -0.00643362
-0.09478318 0.07884001 0.014116837 0.06905606 0.062322922 0.079057604 -0.17348436 0.03825766
0.008728162 0.09548322 0.041122 0.10421192 -0.13403554 -0.10010538 -0.1563592 0.052119877
0.10311967 0.019092433 0.12921025 0.08163443 -0.0051218346 0.006164217 0.053770408 0.059177987
0.11756597 -0.105125636 0.08126439 0.2091169 0.117851116 -0.031087602 -0.023583507 0.0727702
0.09624014 0.05669841 0.06658094 0.04371401 -0.08021823 0.07397226 -0.019546932 -0.059058305
0.19053273 0.10205127 -0.084402926 -0.09442637 -0.13327931 -0.0050811656 -0.23297077 0.08134664
-0.117599145 0.18740986 -0.07961603 0.09227354 -0.10594805 -0.07759117 -0.21652196 -0.09736423
0.059163406 -0.018128352 -0.12017391 -0.085825816 -0.103692144 0.24671274 -0.035256986 0.050003957
-0.18266372 -0.018231004 -0.001116734 0.036621638 -0.023025539 -0.04664381 -0.09921308 0.023225196
-0.065944806 -0.029426692 -0.13377762 0.06422392 0.026302576 -0.10018663 0.03418614 0.00072730123
0.023119293 0.019898644 -0.016205683 -0.00985323 -0.022905521 0.019176807 -0.009756712 -0.15892571
0.008218895 -0.034026306 -0.014075476 -0.10850846 -0.04642831 -0.0514377 -0.03725383 0.08504283
-0.10466696 0.10384006 -0.062911205 0.09237509 -0.0019945933 -0.100915216 -0.006737377 0.1380074
0.0070815664 0.09425963 0.03985156 -0.016032683 -0.0946678 0.08488398 0.05238755 -0.06357111
0.011628226 -0.036502186 0.013368295 -0.0910858 0.1317002 -0.17765264 0.17430931 0.074607484
-0.061740793 0.09639926 0.23584275 -0.13944004 0.26086253 -0.003070991 -0.098600395 0.06125765
-0.03982651 -0.09982064 0.1422603 0.028468736 0.039798554 -0.009674508 -0.047339916 0.10615319

rnn.rnn.bias_ih_l0 f4 [192]
00000000: 0694 0b3b c60a 96bd f302 85ba 8f3a 89bb
00000010: 0294 babd f714 4d3d 90ae 0d3d 1abc 76bc
00000020: e6bb 5b3c 11a9 31bd 865b 88bd 6b35 5fbd
00000030: 3df4 b53d 3e96 b9bc a257 c738 9053 f43c
00000040: dac2 293c 0aff 02bd 7c18 a83d 0bc2 a1bb
00000050: 7c0d 93bd 3a71 c4bd a375 bebd 0f17 453d
00000060: 17bc 46bd 294f 2a3d b3b6 e03d 1112 cfbd
00000070: dea6 73bc 01cf b33c bef9 a1bb 83df 68bd
00000080: 0fa1 4abd 1dab 0cbd 2d39 aebc b30c d53c
00000090: bc2d dcbc 5edf 4bbd dd5b b3bc 12c8 a7bd
000000a0: 8059 e6bc 8799 62ba fe18 143a 1152 2ebd
000000b0: e300 813d f49a 11bc 1d29 dabc 955c b93b
000000c0: a8e6 b7bd ca73 7cbc 0da2 503d d671 f2bd
000000d0: edf5 42bc 46c2 90bd f687 d53d 6ab5 14bc
000000e0: cb93 96bc 06d6 6ebd a528 853d eaa5 9b3c
000000f0: 1a30 1a3d b953 23bd 38b5 22bd 1d0b 52bc
00000100: 8e90 633d bceb 023e 21f4 0ebe 8bc0 ae3d
00000110: f9f2 82bc 83dd cebd c4d4 bb3d d706 023e
00000120: f5fc 593d 0e04 053e ca3c f2bc 87c9 4a3b
00000130: 65d6 cb3d eafe 433e f746 87bc 9027 93bd
00000140: 7388 e8bd 5007 9f3d 89c2 d7bd 7386 c1bb
00000150: 22bf c9bc d60a b13d 62cb bb3d 8e5d 823d
00000160: 70fa 2cbe 7f37 d03d 8256 033e a2a2 163e
00000170: 5363 9e3d e3c9 a83c 5482 f5bd 8e7e 14bd
00000180: 9757 9ebc fb77 59bc cac3 ea3c 9abc 253b
00000190: 0176 833d 938a 1e3d 6f62 60bd c013 d43d
000001a0: 993f c3bc f09b 8b3d 774a cf3d d55b 1fbd
000001b0: 2e4c edbb 2be3 3d3d 2fd3 723d d850 1abe
000001c0: 3e85 f7bd 2981 98bd e206 7d3b 2b57 b03c
000001d0: 2d12 25be 486f ff3c 2397 abbc 004f b7bd
000001e0: a571 9b3c 153b a73d ecf4 43be 64a3 fdbd
000001f0: 846e 123d 06f1 713d c389 113d 7a8c bf3d
00000200: 512e 003d 28d1 283c c381 b23d 76cf a63d
00000210: 0317 ea3c b1fc 9f3d 4ebe 86bc 9e67 433d
00000220: e882 96bc 4010 013e c9a5 94bd d033 293b
00000230: b037 22bd f37c 5cbd 73ea 73bd 07e1 d93d
00000240: def1 89bc e44d 1bbd 1bef aebd dd96 303d
00000250: 77db 753d dc0c 433b fc05 a73d 7365 a2bc
00000260: 875e f23c a752 763c e0dd 1fbb 7e6f 003c
00000270: ca28 5e3d 8614 d23d 64da bbbb 577d 843c
00000280: 6f15 0b3d 5f58 5c3d 2f9b b0bc b5c6 f13c
00000290: aa4d 873b de22 ca3c 78b7 5f3d d452 a1bc
000002a0: 1f74 52bd c8a4 c8bd b264 8e3c 9680 a63b
000002b0: 4848 c1bd 563b 4d3d 7567 153c 644d 463c
000002c0: d663 523c 43cc b8bc 1715 9cbd 2d39 1c3d
000002d0: f3c0 66bd cfc8 4abd 4cc0 27bd eb4a 47bd
000002e0: 38db 4a3d 2968 293d efeb 95bd a546 babd
000002f0: 1718 3d3d 8f61 17bd 3cf3 183d 34f4 07be
0.0021297946 -0.073262736 -0.0010147974 -0.004187889 -0.091102615 0.05006882 0.034590304 -0.015059495
0.013411498 -0.043374125 -0.06658082 -0.054494303 0.088844754 -0.022654649 9.505382e-05 0.029825002
0.010361398 -0.031981505 0.08207795 -0.004936462 -0.07180306 -0.09591909 -0.09299781 0.048117694
-0.04851922 0.0415794 0.10972347 -0.10110868 -0.014871327 0.021949293 -0.0049431017 -0.056853782
-0.049470004 -0.034342874 -0.021267498 0.026007032 -0.026877277 -0.049773566 -0.02189439 -0.08192457
-0.028118849 -0.0008644093 0.0005649476 -0.042558733 0.06298997 -0.008887041 -0.026630932 0.0056567886
-0.08979541 -0.015408466 0.050935794 -0.11838119 -0.011899454 -0.07068305 0.10426323 -0.009076456
-0.01838102 -0.058309577 0.06501893 0.019000012 0.03764353 -0.039874766 -0.039723605 -0.012820032
0.05555778 0.12785238 -0.13960315 0.085328184 -0.015984999 -0.10100844 0.09171441 0.12697922
0.053219754 0.12989828 -0.029570002 0.0030942874 0.09953002 0.19140211 -0.01651333 -0.0718528
-0.113541506 0.077650666 -0.105351515 -0.00590592 -0.024627272 0.08644645 0.091696516 0.063655004
-0.1689241 0.10166835 0.12825969 0.14710477 0.07733788 0.02060408 -0.11987749 -0.036253504
-0.019328875 -0.0132732345 0.028657813 0.0025289417 0.06418992 0.038706373 -0.054781374 0.103553295
-0.023834037 0.06816852 0.10121625 -0.038905937 -0.0072417473 0.046359222 0.05928343 -0.15069902
-0.12085961 -0.0744651 0.0038608839 0.02152594 -0.16120215 0.031180993 -0.020946091 -0.08950615
0.018975088 0.08165566 -0.19136399 -0.1238468 0.035749927 0.05906775 0.03553177 0.09352966
0.03129417 0.010303773 0.08716156 0.08145039 0.028575426 0.07811869 -0.016448166 0.04770624
-0.018372968 0.12603855 -0.072581835 0.0025818236 -0.03960389 -0.0538301 -0.05954976 0.10638624
-0.016838964 -0.03791608 -0.085416995 0.043112624 0.06002375 0.0029762303 0.08155438 -0.019823765
0.02958609 0.015034354 -0.0024393722 0.007839082 0.05423812 0.10257821 -0.0057328213 0.016173048
0.033955988 0.053795215 -0.021558372 0.029513696 0.0041291313 0.02467483 0.05461833 -0.019692816
-0.051380273 -0.097970545 0.017382 0.0050812466 -0.09437615 0.050105415 0.009118904 0.012103412
0.012841186 -0.022558337 -0.0762121 0.038140465 -0.056336354 -0.049507912 -0.040954873 -0.04865543
0.04952547 0.0413591 -0.073203914 -0.090955056 0.046165552 -0.036958274 0.03734134 -0.1327675
