train/maddpg-v5/results/formation_hd_env/maddpg/hd_2/run10/models/policy_0/actor.pt (torch, 62825 bytes, 20 tensors)

mlp.feature_norm.weight f4 [12]
-0.16051564 -0.30740237 0.3675629 0.5523586 1.242739 1.4070644 1.3942066 1.454683
1.075172 -1.0249954 1.281107 1.2859944
00000000: 365e 24be d863 9dbe 3431 bc3e 6067 0d3f
00000010: 1212 9f3f b01a b43f 5d75 b23f 0d33 ba3f
00000020: 3c9f 893f 0d33 83bf 50fb a33f 779b a43f

mlp.feature_norm.bias f4 [12]
0.9210358 0.6058128 0.43482265 0.14084868 -0.5133478 0.29845172 0.2684071 0.15162961
-0.11523809 -0.056501377 -0.20066014 -0.46653986
00000000: 01c9 6b3f 8c16 1b3f 13a1 de3e a33a 103e
00000010: c36a 03bf aace 983e a86c 893e cb44 1b3e
00000020: f301 ecbd fd6d 67bd da79 4dbe 50de eebe

mlp.mlp.fc1.0.weight f4 [64, 12]
-0.17448841 0.35364115 -0.564077 -0.75989187 -0.17111635 -0.4163061 -0.56856865 0.57600135
-0.7506358 0.55780625 0.72103304 0.54752207 0.59457403 0.48318973 0.42475247 -0.2983354
0.69506633 0.42963496 -0.7233687 -0.8492964 0.6439216 -0.42839286 -0.43883887 -0.5346032
-0.5757711 -0.28924373 -0.030602071 0.38273805 0.12433298 -0.21815424 -0.055254813 -0.011366912
0.006416044 -0.1390839 0.20220417 0.17011823 -0.5533905 0.06756959 0.40392458 -0.025837071
-0.9366214 0.468977 0.64674735 -0.397474 -0.8078169 -0.047478117 0.013835124 -0.13208242
0.42407882 -0.43383572 -0.6892937 1.0888608 -0.5017984 -0.37675583 0.31577986 0.81118566
0.9216242 -0.22228853 -0.43763563 -0.5319767 0.039128672 -0.3737189 -0.74474406 -0.31071874
0.69321704 0.44973275 -0.4009107 -0.43412933 0.032827653 0.8947242 0.029230507 0.16661648
0.072425626 0.5230074 -0.7229955 0.07351879 0.39465052 0.16087547 -0.12471409 1.2137244
-0.46620795 0.4272249 -1.0755723 -1.1111398 0.22876707 -0.22177862 -0.3851455 1.2237519
-0.17999548 -0.5105497 0.6810938 -0.5777199 -0.951606 0.08405243 0.060064744 0.112284854
-0.3138515 -0.95613855 0.3050409 0.650173 0.14611293 -0.7848961 -0.15827651 1.0360786
-0.07069024 0.69721127 0.36579877 0.74845946 -0.5418852 0.42405352 -0.058654882 -0.31452867
-0.74618584 1.0706465 0.67738956 -0.85476536 -0.5723722 -0.36921334 -0.5021736 -0.27417114
-0.3030973 0.025708739 0.04675156 0.40260527 0.5261714 -0.4076999 -0.5080458 -0.06884528
-0.6998058 0.33631092 -0.22716454 -0.108887926 -0.14580832 0.56335926 0.2692449 0.3889201
-0.8963975 0.6475581 0.39745516 -0.36705065 -0.81572497 -0.44656608 -0.06311895 -0.16831283
-0.5556386 -0.25881863 -0.57262003 0.42692843 0.81055933 -0.11693713 -0.83914524 0.10710009
-0.40703475 0.17285186 0.7077408 0.35279393 -0.32399407 -0.20928721 -0.38613182 -0.45010605
0.07660216 0.08391461 -0.67566407 0.4447108 0.13595335 0.8070923 0.43569338 0.38769045
0.7254736 -1.0928926 -0.9025502 2.2578828 0.22652525 -0.03959548 0.09867974 -0.57541853
-0.024712216 -0.0058199232 -0.56232077 0.10220027 0.38549712 -0.025977837 -0.26804805 0.031964753
0.24188262 -0.99095756 -0.40072483 0.9702563 0.19169183 0.940193 0.19431616 0.06783686
-0.6118344 0.50622356 0.15405253 0.1168294 0.23810905 0.56313956 0.6315678 -0.7794624
-0.40784568 -0.51609737 -0.8321215 -0.30106926 -0.2226547 -0.3326307 0.3706026 -0.008800669
-1.1656213 0.21964505 0.8313945 0.283976 0.85036 0.25134724 -0.5087821 -0.7751312
-0.54485434 -0.35631824 -0.22347137 -0.10542726 0.347217 -0.29326817 -0.2560382 0.2333026
-0.65070033 0.025027031 0.41522032 0.7116657 0.22072957 0.29050288 0.57308435 -0.7122794
-0.95228785 0.46328712 -0.45453787 1.0903834 0.38949937 0.25220218 0.7591938 0.30262578
0.28289846 0.5539174 -0.43356502 -0.29500434 0.9141554 -0.39638588 0.17920248 0.28688627
-0.46601003 -0.65216947 -0.90338045 -1.0747144 -0.51208425 0.25291097 0.1828048 -1.4192194
00000000: 17ad 32be 7410 b53e 5a67 10bf 4688 42bf
00000010: 2039 2fbe 1326 d5be b78d 11bf d374 133f
00000020: ab29 40bf 64cc 0e3f 9f95 383f 682a 0c3f
00000030: 0136 183f a564 f73e 2879 d93e 6bbf 98be
00000040: deef 313f 1df9 db3e b12e 39bf 7d6b 59bf
00000050: 0cd8 243f 4f56 dbbe 7daf e0be c1db 08bf
00000060: bc65 13bf c117 94be 32b1 fabc 3ef6 c33e
00000070: 4aa2 fe3d d363 5fbe df52 62bd 493c 3abc
00000080: ae3d d23b 036c 0ebe 9c0e 4f3e 7933 2e3e
00000090: 00ab 0dbf ed61 8a3d 34cf ce3e 44a8 d3bc
000000a0: 6cc6 6fbf c11d f03e 3c91 253f b681 cbbe
000000b0: 17cd 4ebf 6a78 42bd b7ac 623c 9d40 07be
000000c0: dc20 d93e b71f debe 8d75 30bf ca5f 8b3f
000000d0: dc75 00bf 24e6 c0be e6ad a13e dda9 4f3f
000000e0: 90ef 6b3f 9b9f 63be c711 e0be a02f 08bf
000000f0: 6345 203d 1558 bfbe 8ca7 3ebf 8716 9fbe
00000100: ac76 313f 5f43 e63e 2b44 cdbe 3346 debe
00000110: 4a76 063d a50c 653f d174 ef3c 839d 2a3e
00000120: e353 943d d0e3 053f 3c16 39bf 0591 963d
00000130: a20f ca3e 8abc 243e 1a6a ffbd 525b 9b3f
00000140: cfb2 eebe 39bd da3e 5aac 89bf d439 8ebf
00000150: ea41 6a3e ef19 63be ca31 c5be e7a3 9c3f
00000160: bc50 38be 63b3 02bf 2a5c 2e3f 74e5 13bf
00000170: 739c 73bf ae23 ac3d 7306 763d 9af5 e53d
00000180: 25b1 a0be 7fc5 74bf 522e 9c3e bd71 263f
00000190: a19e 153e f3ee 48bf 3d13 22be 399e 843f
000001a0: 0bc6 90bd 707c 323f fa49 bb3e 0a9b 3f3f
000001b0: fdb8 0abf 8b1d d93e 1a40 70bd e709 a1be
000001c0: 0906 3fbf f20a 893f 6769 2d3f e7d1 5abf
000001d0: fc86 12bf 8809 bdbe 738e 00bf 2960 8cbe
000001e0: 922f 9bbe 229b d23c 907e 3f3d 4722 ce3e
000001f0: 2bb3 063f 0bbe d0be 4a0f 02bf c1fe 8cbd
00000200: 7926 33bf f230 ac3e d29d 68be a200 dfbd
00000210: c74e 15be 5038 103f 78da 893e 8920 c73e
00000220: 4e7a 65bf 5ec6 253f 3e7f cb3e 10ee bbbe
00000230: 5ad3 50bf 4fa4 e4be 8244 81bd 335a 2cbe
00000240: 553e 0ebf e083 84be 3a97 12bf 5d96 da3e
00000250: d180 4f3f bc7c efbd 39d2 56bf 4b57 db3d
00000260: dc66 d0be 1400 313e 802e 353f 68a1 b43e
00000270: 8de2 a5be 634f 56be 12b3 c5be 4d74 e6be
00000280: 98e1 9c3d 6cdb ab3d 52f8 2cbf 22b1 e33e
00000290: 5b37 0b3e 9a9d 4e3f 3413 df3e 5d7f c63e
000002a0: a3b8 393f e8e3 8bbf 880d 67bf 2781 1040
000002b0: 3cf6 673e df2e 22bd 9b18 ca3d a14e 13bf
000002c0: 4671 cabc 0eb5 bebb 41f4 0fbf 604e d13d
000002d0: e15f c53e 79cf d4bc 983d 89be 79ed 023d
000002e0: 14b0 773e 65af 7dbf ce2b cdbe b862 783f
000002f0: dd4a 443e 7db0 703f d1fa 463e 0dee 8a3d
00000300: 2ea1 1cbf de97 013f f2bf 1d3e 4144 ef3d
00000310: dcd2 733e ea29 103f 6dae 213f d98a 47bf
00000320: 26d1 d0be f51e 04bf ea05 55bf c025 9abe
00000330: 98ff 63be 924e aabe a0bf bd3e ae30 10bc
00000340: 1433 95bf a2ea 603e 45d6 543f 4d65 913e
00000350: 31b1 593f 96b0 803e 8b3f 02bf 006f 46bf
00000360: 937b 0bbf 586f b6be aed5 64be 3fea d7bd
00000370: 6dc6 b13e 3f27 96be 7017 83be e0e6 6e3e
00000380: 4c94 26bf 7d05 cd3c c297 d43e b92f 363f
00000390: ef06 623e cbbc 943e a8b5 123f f157 36bf
000003a0: 23c9 73bf f833 ed3e 30b9 e8be af91 8b3f
000003b0: 766c c73e a520 813e 865a 423f c4f1 9a3e
000003c0: 11d8 903e 88cd 0d3f 3cfc ddbe cf0a 97be
000003d0: 1706 6a3f 17f3 cabe db80 373e c2e2 923e
000003e0: de98 eebe 94f4 26bf f143 67bf 3e90 89bf
000003f0: f417 03bf 8c7d 813e 2e31 3b3e fba8 b5bf

mlp.mlp.fc1.0.bias f4 [64]
0.1374609 1.0525002 -0.97746795 -0.45364758 -0.035553113 -0.23533688 0.40964985 0.15269653
0.31440184 -0.4222302 -0.42278928 0.39496398 -0.66082275 -0.48643917 -0.4581109 0.66487116
-0.5941044 -0.24126513 -0.35661694 -0.40300593 -0.15399338 0.1978954 -0.76720417 -0.5724774
-0.90453833 1.1745633 0.56620806 -0.4923194 -0.049856216 -0.5901066 -0.017838206 -0.27859613
0.2124675 0.1329473 -0.33978483 -0.5892983 0.7744658 0.89581734 0.78465366 0.09054733
-0.35379782 1.0707614 0.76299495 -0.48992202 0.62305254 -0.83790463 -0.14681812 0.11825335
-0.08708031 -0.011428455 -0.16773528 0.66605645 0.17968974 -0.6035257 -0.74024916 0.41698852
-1.0009269 0.087536566 0.5573072 0.28948066 -0.17929338 0.19804326 -0.059553426 -0.0480025
00000000: 8dc2 0c3e 54b8 863f 573b 7abf 7f44 e8be
00000010: 24a0 11bd 27fc 70be a0bd d13e 7b5c 1c3e
00000020: 47f9 a03e 8f2e d8be d677 d8be b838 ca3e
00000030: ae2b 29bf 8e0e f9be 838d eabe ff34 2a3f
00000040: 3a17 18bf 350e 77be 7f96 b6be cb56 cebe
00000050: 71b0 1dbe 17a5 4a3e 7e67 44bf e18d 12bf
00000060: d38f 67bf 1758 963f 03f3 103f 4a11 fcbe
00000070: 0836 4cbd 3a11 17bf 6e21 92bc 27a4 8ebe
00000080: 1591 593e 5623 083e 47f8 adbe 41dc 16bf
00000090: 6443 463f 4954 653f 10df 483f e170 b93d
000000a0: fd24 b5be b60e 893f a353 433f 0fd7 fabe
000000b0: 5f80 1f3f eb80 56bf 7d57 16be d02e f23d
000000c0: 2957 b2bd 6a3e 3bbc ccc2 2bbe ad82 2a3f
000000d0: 9600 383e a980 1abf f880 3dbf 857f d53e
000000e0: 5f1e 80bf 5f46 b33d afab 0e3f cf36 943e
000000f0: af98 37be dacb 4a3e 4bee 73bd 459e 44bd

mlp.mlp.fc1.2.weight f4 [64]
1.185498 2.0779781 0.16765192 1.3138363 1.0987065 1.0961825 1.1167893 1.0149463
1.2174177 1.43518 1.1453451 0.59304625 1.504268 0.322609 0.98763764 1.330208
1.5476007 1.5293641 1.0405611 1.1235076 1.5687928 1.2923328 1.1852399 1.0492101
1.2787324 2.064362 1.0343733 1.1675991 0.39179224 1.4320301 1.1173741 1.2572551
1.7581335 1.3456478 1.1824926 0.7598789 1.1681366 0.6281517 1.6213461 0.5988739
1.032061 1.7965539 1.6791832 1.0434567 0.84345466 1.1745104 1.1373487 1.7828841
1.3771465 0.6666889 1.1809522 1.4031845 0.74538565 1.4109932 1.3853123 1.5144075
1.7414544 1.6102802 1.4724314 0.5901362 0.71960795 1.434329 1.1139371 1.3190622
00000000: 66be 973f 98fd 0440 f2ac 2b3e ca2b a83f
00000010: 6aa2 8c3f b54f 8c3f f4f2 8e3f c3e9 813f
00000020: 58d4 9b3f fab3 b73f ab9a 923f e1d1 173f
00000030: db8b c03f 022d a53e d2d5 7c3f 4144 aa3f
00000040: c817 c63f 34c2 c33f 1b31 853f 19cf 8f3f
00000050: 34ce c83f 296b a53f f1b5 973f 844c 863f
00000060: 81ad a33f 821e 0440 5866 843f e373 953f
00000070: fe98 c83e c34c b73f 1d06 8f3f bced a03f
00000080: 850a e13f 303e ac3f eb5b 973f 6c87 423f
00000090: 8085 953f 8dce 203f 4588 cf3f cd4f 193f
000000a0: 931a 843f 7af5 e53f 7aef d63f fd8f 853f
000000b0: a5ec 573f 5b56 963f a494 913f 8c35 e43f
000000c0: 5646 b03f 20ac 2a3f 7129 973f 8d9b b33f
000000d0: 98d1 3e3f 6d9b b43f ea51 b13f 1bd8 c13f
000000e0: fae7 de3f a91d ce3f a278 bc3f 2a13 173f
000000f0: 3a38 383f 1898 b73f 7e95 8e3f 08d7 a83f

mlp.mlp.fc1.2.bias f4 [64]
-0.33307078 0.06681095 0.83434874 0.18256311 0.46233404 -0.50159603 0.3470473 0.04863072
0.8764508 -0.20120701 -0.16961084 0.35624453 -0.6600657 0.33250293 0.47696626 0.37416863
-0.59791577 0.84617615 -0.44222644 0.88850987 -0.44408676 -0.48094645 0.16931716 0.08871802
-0.33872402 0.346684 0.40756238 -0.2319221 0.42082557 0.07593671 -0.14756301 -0.30141097
-0.06923345 0.20669438 0.17422391 0.25874272 -0.05945832 0.32753268 0.12646115 0.23714234
0.22613548 0.21681052 0.16640344 -0.10053208 0.2742025 -0.017834209 0.1697789 0.5255535
0.019618658 0.23866092 0.23260586 0.023158541 0.36791533 -0.346861 0.49201545 -0.19244099
-0.39984486 -0.6128005 -0.5821237 0.29707554 0.23876332 -0.14986344 0.4220907 0.68424785
00000000: 4188 aabe 2ed4 883d e197 553f d3f1 3a3e
00000010: 0cb7 ec3e 9968 00bf 2fb0 b13e 0131 473d
00000020: 145f 603f 3609 4ebe 77ae 2dbe af65 b63e
00000030: 11fa 28bf d33d aa3e ec34 f43e 0893 bf3e
00000040: 0211 19bf 009f 583f 816b e2be 6275 633f
00000050: 575f e3be 9d3e f6be 7a61 2d3e cbb1 b53d
00000060: 3c6d adbe 9180 b13e 04ac d03e fd7c 6dbe
00000070: 7376 d73e b584 9b3d c21a 17be 8a52 9abe
00000080: 44ca 8dbd b1a7 533e c167 323e ed79 843e
00000090: 918a 73bd 5db2 a73e 087f 013e 71d5 723e
000000a0: 0f90 673e 9403 5e3e aa65 2a3e c3e3 cdbd
000000b0: 4564 8c3e 0c19 92bc 85da 2d3e ad8a 063f
000000c0: 4fb7 a03c 8763 743e 3b30 6e3e fbb6 bd3c
000000d0: 665f bc3e c497 b1be 73e9 fb3e 400f 45be
000000e0: 77b8 ccbe 7ee0 1cbf 0f06 15bf 491a 983e
000000f0: 5f7e 743e cd75 19be 461c d83e de2a 2f3f

mlp.mlp.fc_h.0.weight f4 [64, 64]
-0.17464457 -0.2230278 0.097712606 -0.21211225 -0.28089222 0.051162373 -0.12742254 0.32657316
-0.062158257 -0.045509502 -0.14980401 0.12118755 0.07248202 -0.081327155 -0.21362735 -0.058451515
0.1384445 -0.25761154 -0.09573956 -0.27511984 0.063089855 -0.065622434 0.13847302 0.44137904
0.28324518 0.07334279 -0.28402913 0.015297183 -0.012430423 0.23937921 -0.031233728 -0.019458326
0.13802694 0.35354945 -0.1397448 0.086543545 0.121389456 0.06950945 -0.042949017 -0.0020386693
-0.49490476 0.22957997 -0.105301864 -0.06952984 0.041492213 0.06778754 -0.11711142 0.03900742
-0.033381026 0.1935771 0.29227152 0.015545791 -0.14819412 0.06706958 0.029082295 0.018612027
-0.24329875 0.0052055363 0.24344884 0.08093935 -0.09421122 -0.014986107 -0.330217 -0.12711553
0.014667716 0.11120648 0.19710308 0.2705329 -0.1489044 -0.13170788 -0.118200414 0.032535143
-0.15686414 0.18484735 -0.0005320942 -0.31694353 0.048864987 -0.04919087 0.33610868 -0.103578575
0.25376767 -0.03799493 0.14697112 0.02393652 -0.07554846 -0.036082037 0.07180543 0.013095029
-0.095423885 -0.12482965 0.06487839 0.333427 -0.111922376 0.052061852 -0.14806509 -0.3665656
-0.088349745 -0.22127324 -0.24558349 -0.06023453 0.29723653 0.13679828 0.12762226 0.05258997
-0.28421167 0.21709497 0.39291504 0.06461587 -0.025257846 0.13490307 -0.1287124 -0.10499445
-0.07747327 -0.039609335 0.006275465 -0.024179839 0.13666917 -0.53478724 0.09646095 0.08812301
0.3288806 -0.03956611 0.1361328 -0.07165072 -0.22649111 -0.12659432 -0.09905523 0.03093156
-0.2218089 -0.20370804 0.1255386 0.26229355 0.01206124 0.14050376 0.031875663 -0.012687782
0.08697224 -0.30944976 -0.12723248 0.082727514 -0.29422736 -0.09818081 -0.011951776 0.02332777
0.10949904 0.058082946 0.15641244 0.11341458 0.115803055 0.21391486 0.04037063 -0.21016015
-0.14071755 0.13663808 0.29981917 -0.103902176 0.1056298 -0.32920173 0.19285257 0.06287223
0.1555956 0.057061784 -0.030799631 0.16899039 0.13508627 0.086170524 -0.06258846 -0.24684502
-0.10508159 -0.19792268 -0.08331037 0.14144352 0.2548185 0.24538273 -0.015810495 -0.12739071
0.22965327 -0.041456737 0.20258681 0.32252303 -0.008746191 -0.114035785 0.15799165 0.039087962
0.07412002 0.5729171 0.014778376 -0.14952372 -0.13225213 -0.008728476 -0.30628636 -0.22334373
-0.10857518 -0.31801 -0.3342689 0.1171266 0.26629728 0.1312676 -0.0078019635 -0.09294803
0.2258473 -0.19143471 0.13881987 -0.14809604 -0.118459575 0.07738644 0.07393564 0.032049004
0.18029608 -0.09610024 0.10635437 0.13477491 0.05071103 0.23604204 0.2333841 0.06109819
0.1976915 0.0024934418 0.05652694 0.2813797 -0.06708942 -0.07128277 -0.056080736 0.1240624
-0.020516146 -0.23377405 -0.1392255 -0.48869243 -0.0795591 -0.07845051 0.07584157 0.24904433
-0.05997738 0.07953299 0.0062410757 -0.20335023 -0.13478246 -0.12920336 -0.20020564 -0.043791894
-0.16137983 -0.03516686 -0.26526833 -0.014298423 -0.4258645 0.049847588 -0.17409158 -0.16149402
-0.303295 0.14393307 0.17612465 -0.1610799 -0.32256612 0.107274435 0.02990186 -0.16189869
00000000: 07d6 32be 6661 64be 8c1d c83d f433 59be
00000010: 1bd1 8fbe a38f 513d 0e7b 02be 9934 a73e
00000020: a899 7ebd 2c68 3abd 3966 19be 2e31 f83d
00000030: 7471 943d da8e a6bd 21c1 5abe db6a 6fbd
00000040: 65c4 0d3e a9e5 83be 1a13 c4bd 82dc 8cbe
00000050: 4135 813d 0e65 86bd dfcb 0d3e 6ffc e13e
00000060: 8305 913e bf34 963d 446c 91be 09a1 7a3c
00000070: f9a8 4bbc d31f 753e e0dd ffbc 1167 9fbc
00000080: ef56 0d3e 6f04 b53e 4319 0fbe be3d b13d
00000090: 099b f83d f85a 8e3d 4feb 2fbd 329b 05bb
000000a0: 2864 fdbe 0317 6b3e 81a8 d7bd a965 8ebd
000000b0: bdf3 293d 32d4 8a3d 1dd8 efbd 3fc6 1f3d
000000c0: 8bba 08bd 1339 463e 9da4 953e c6b3 7e3c
000000d0: 33c0 17be c75b 893d fe3d ee3c 4078 983c
000000e0: 4f23 79be 3493 aa3b a74a 793e 88c3 a53d
000000f0: d0f1 c0bd 4a88 75bc 3412 a9be 932a 02be
00000100: dc50 703c 39c0 e33d 64d5 493e 4a83 8a3e
00000110: 657a 18be 6ede 06be 0f13 f2bd 9243 053d
00000120: fea0 20be a048 3d3e 3d7c 0bba 6c46 a2be
00000130: a726 483d 5e7c 49bd 7016 ac3e 0121 d4bd
00000140: d6ed 813e 92a0 1bbd 997f 163e 8516 c43c
00000150: 27b9 9abd c2ca 13bd ba0e 933d 888c 563c
00000160: 996d c3bd b0a6 ffbd f6de 843d f2b6 aa3e
00000170: 8f37 e5bd cf3e 553d 609e 17be 7cae bbbe
00000180: b6f0 b4bd 7495 62be 3d7a 7bbe 7cb8 76bd
00000190: 632f 983e d914 0c3e 69af 023e 9568 573d
000001a0: 3184 91be 254e 5e3e 292c c93e 5355 843d
000001b0: 8be9 cebc 0824 0a3e 2fcd 03be 5507 d7bd
000001c0: 4eaa 9ebd 663d 22bd 6aa2 cd3b cc14 c6bc
000001d0: 01f3 0b3e d1e7 08bf 528d c53d d679 b43d
000001e0: 0a63 a83e 1310 22bd 6666 0b3e 9dbd 92bd
000001f0: 49ed 67be f1a1 01be 78dd cabd 2f64 fd3c
00000200: df21 63be d798 50be 318d 003e 574b 863e
00000210: 829c 453c 38e0 0f3e 0e90 023d 6ae0 4fbc
00000220: 801e b23d 3370 9ebe 3b49 02be 0b6d a93d
00000230: f8a4 96be 0513 c9bd 62d1 43bc e119 bf3c
00000240: 0841 e03d 62e8 6d3d 952a 203e e745 e83d
00000250: 272a ed3d 7f0c 5b3e ac5b 253d 3934 57be
00000260: 4318 10be daea 0b3e e681 993e aaca d4bd
00000270: 7054 d83d 218d a8be 257b 453e 28c3 803d
00000280: 7454 1f3e 9eb9 693d 824f fcbc d10b 2d3e
00000290: 0e54 0a3e 2c7a b03d 612e 80bd f1c4 7cbe
000002a0: 0435 d7bd 3eac 4abe a19e aabd 92d6 103e
000002b0: 9277 823e 9c45 7b3e 0385 81bc b672 02be
000002c0: 3a2a 6b3e 8ace 29bd eb72 4f3e bd21 a53e
000002d0: 2f4c 0fbc 988b e9bd 90c8 213e b31a 203d
000002e0: 3dcc 973d b2aa 123f 0021 723c bf1c 19be
000002f0: 1a6d 07be e201 0fbc 91d1 9cbe 38b4 64be
00000300: aa5c debd 35d2 a2be 4b25 abbe 12e0 ef3d
00000310: 1e58 883e 046b 063e 9da7 ffbb 895b bebd
00000320: 8444 673e 7607 44be cc26 0e3e 7da6 17be
00000330: ef9a f2bd c87c 9e3d 926b 973d d145 033d
00000340: 899f 383e 34d0 c4bd 52d0 d93d 6f02 0a3e
00000350: 5eb6 4f3d 01b5 713e 3efc 6e3e 1842 7a3d
00000360: a46f 4a3e 0369 233b cb88 673d 0011 903e
00000370: 2e66 89bd b3fc 91bd eab4 65bd 6d14 fe3d
00000380: 7a11 a8bc 7762 6fbe 2191 0ebe e535 fabe
00000390: e2ef a2bd a9aa a0bd d352 9b3d 7a05 7f3e
000003a0: d7aa 75bd 31e2 a23d f081 cc3b 0b3b 50be
000003b0: 6a04 0abe e34d 04be b502 4dbe 215f 33bd
000003c0: c140 25be 200b 10bd 40d1 87be ef43 6abc
000003d0: e90a dabe fc2c 4c3d 1045 32be b05e 25be
000003e0: 7b49 9bbe 3163 133e 055a 343e 21f2 24be
000003f0: 6327 a5be b3b2 db3d bff4 f43c c5c8 25be

mlp.mlp.fc_h.0.bias f4 [64]
0.0 0.0 0.0 0.0 0.0 0.0 0.0 0.0
0.0 0.0 0.0 0.0 0.0 0.0 0.0 0.0
0.0 0.0 0.0 0.0 0.0 0.0 0.0 0.0
0.0 0.0 0.0 0.0 0.0 0.0 0.0 0.0
0.0 0.0 0.0 0.0 0.0 0.0 0.0 0.0
0.0 0.0 0.0 0.0 0.0 0.0 0.0 0.0
0.0 0.0 0.0 0.0 0.0 0.0 0.0 0.0
0.0 0.0 0.0 0.0 0.0 0.0 0.0 0.0
00000000: 0000 0000 0000 0000 0000 0000 0000 0000
00000010: 0000 0000 0000 0000 0000 0000 0000 0000
00000020: 0000 0000 0000 0000 0000 0000 0000 0000
00000030: 0000 0000 0000 0000 0000 0000 0000 0000
00000040: 0000 0000 0000 0000 0000 0000 0000 0000
00000050: 0000 0000 0000 0000 0000 0000 0000 0000
00000060: 0000 0000 0000 0000 0000 0000 0000 0000
00000070: 0000 0000 0000 0000 0000 0000 0000 0000
00000080: 0000 0000 0000 0000 0000 0000 0000 0000
00000090: 0000 0000 0000 0000 0000 0000 0000 0000
000000a0: 0000 0000 0000 0000 0000 0000 0000 0000
000000b0: 0000 0000 0000 0000 0000 0000 0000 0000
000000c0: 0000 0000 0000 0000 0000 0000 0000 0000
000000d0: 0000 0000 0000 0000 0000 0000 0000 0000
000000e0: 0000 0000 0000 0000 0000 0000 0000 0000
000000f0: 0000 0000 0000 0000 0000 0000 0000 0000

mlp.mlp.fc_h.2.weight f4 [64]
1.0 1.0 1.0 1.0 1.0 1.0 1.0 1.0
1.0 1.0 1.0 1.0 1.0 1.0 1.0 1.0
1.0 1.0 1.0 1.0 1.0 1.0 1.0 1.0
1.0 1.0 1.0 1.0 1.0 1.0 1.0 1.0
1.0 1.0 1.0 1.0 1.0 1.0 1.0 1.0
1.0 1.0 1.0 1.0 1.0 1.0 1.0 1.0
1.0 1.0 1.0 1.0 1.0 1.0 1.0 1.0
1.0 1.0 1.0 1.0 1.0 1.0 1.0 1.0
00000000: 0000 803f 0000 803f 0000 803f 0000 803f
00000010: 0000 803f 0000 803f 0000 803f 0000 803f
00000020: 0000 803f 0000 803f 0000 803f 0000 803f
00000030: 0000 803f 0000 803f 0000 803f 0000 803f
00000040: 0000 803f 0000 803f 0000 803f 0000 803f
00000050: 0000 803f 0000 803f 0000 803f 0000 803f
00000060: 0000 803f 0000 803f 0000 803f 0000 803f
00000070: 0000 803f 0000 803f 0000 803f 0000 803f
00000080: 0000 803f 0000 803f 0000 803f 0000 803f
00000090: 0000 803f 0000 803f 0000 803f 0000 803f
000000a0: 0000 803f 0000 803f 0000 803f 0000 803f
000000b0: 0000 803f 0000 803f 0000 803f 0000 803f
000000c0: 0000 803f 0000 803f 0000 803f 0000 803f
000000d0: 0000 803f 0000 803f 0000 803f 0000 803f
000000e0: 0000 803f 0000 803f 0000 803f 0000 803f
000000f0: 0000 803f 0000 803f 0000 803f 0000 803f

mlp.mlp.fc_h.2.bias f4 [64]
0.0 0.0 0.0 0.0 0.0 0.0 0.0 0.0
0.0 0.0 0.0 0.0 0.0 0.0 0.0 0.0
0.0 0.0 0.0 0.0 0.0 0.0 0.0 0.0
0.0 0.0 0.0 0.0 0.0 0.0 0.0 0.0
0.0 0.0 0.0 0.0 0.0 0.0 0.0 0.0
0.0 0.0 0.0 0.0 0.0 0.0 0.0 0.0
0.0 0.0 0.0 0.0 0.0 0.0 0.0 0.0
0.0 0.0 0.0 0.0 0.0 0.0 0.0 0.0
00000000: 0000 0000 0000 0000 0000 0000 0000 0000
00000010: 0000 0000 0000 0000 0000 0000 0000 0000
00000020: 0000 0000 0000 0000 0000 0000 0000 0000
00000030: 0000 0000 0000 0000 0000 0000 0000 0000
00000040: 0000 0000 0000 0000 0000 0000 0000 0000
00000050: 0000 0000 0000 0000 0000 0000 0000 0000
00000060: 0000 0000 0000 0000 0000 0000 0000 0000
00000070: 0000 0000 0000 0000 0000 0000 0000 0000
00000080: 0000 0000 0000 0000 0000 0000 0000 0000
00000090: 0000 0000 0000 0000 0000 0000 0000 0000
000000a0: 0000 0000 0000 0000 0000 0000 0000 0000
000000b0: 0000 0000 0000 0000 0000 0000 0000 0000
000000c0: 0000 0000 0000 0000 0000 0000 0000 0000
000000d0: 0000 0000 0000 0000 0000 0000 0000 0000
000000e0: 0000 0000 0000 0000 0000 0000 0000 0000
000000f0: 0000 0000 0000 0000 0000 0000 0000 0000

mlp.mlp.fc2.0.0.weight f4 [64, 64]
0.028683366 0.8945996 -0.16069475 -2.6533992 -0.23450306 0.52709955 0.39765677 -0.3886512
-0.2548587 -1.0924911 -0.18275903 -0.56116223 0.7693269 0.42877266 0.74974316 0.7892369
-1.0899748 -0.070686 0.11165113 -0.22120696 0.19058503 0.72724086 -1.2194929 0.35997123
0.12381255 0.181744 0.5029342 0.843616 -0.102623954 0.23936042 0.07548808 -0.014740671
0.5654112 0.6386379 -0.14151339 -0.03613236 0.0005935452 0.18972495 0.5240594 -0.56800145
-0.29924777 0.59216326 0.76758254 0.060550995 0.41780236 0.012575944 -0.39868432 0.1432981
0.4862908 0.6599384 -1.9369465 0.18946268 -1.1479459 0.3420361 0.55300766 0.8051696
-1.0607103 -0.07830141 0.3857672 0.596564 0.4694378 0.040048312 0.27462608 0.2068717
0.5010723 -0.12847674 -0.46717912 -0.09324603 0.5556893 0.29951873 0.43472013 -0.30071768
0.08305124 -0.34020144 0.114643045 0.2879521 0.3052128 -0.76560205 0.88879985 0.5976725
-0.5611759 -1.0486237 0.4710224 -0.7641715 -0.26285508 -0.12550658 0.44493437 0.50719655
-0.09106707 -0.35007724 -0.65291154 1.099261 -0.43369588 1.2276746 0.1358059 -0.75336474
-0.91182506 -0.7281313 0.35537407 0.44510046 0.070081495 0.8277863 0.60815626 -0.24961545
-1.4102973 -0.6180863 1.4078201 -0.366431 -0.22264944 0.29799294 -0.6991679 -0.04761919
-0.38134426 -0.30450478 -0.24073358 0.85518515 0.16420607 -0.3079754 -0.82241267 -0.043396425
0.7909841 -0.51179874 -0.2669641 0.6234904 -1.2838767 -0.101674885 -0.513559 -0.41052678
-0.5331382 -0.5136397 -0.8333832 0.7500646 0.5826683 0.6839013 -0.55277956 -0.5968593
-0.4392792 0.21242975 -0.046810947 -0.23594613 -0.12217411 0.30665982 1.1971889 -0.69873965
0.50884396 0.42089227 0.6475868 -0.24009751 -0.23004468 0.56273115 0.0019120043 -0.78412044
0.6425835 -0.24171577 0.8120888 -0.41513914 0.2708037 0.5417125 1.5893593 0.48877296
0.8425434 0.9600234 0.38605037 0.3022832 -0.41861686 0.5194473 -0.6396775 -0.38040975
-0.008010056 -0.4347295 -0.5520785 0.57859623 -0.44164646 0.5640899 0.57445586 0.26103508
-0.36633724 0.007641362 0.012886406 0.19170837 0.024091104 -1.3146046 0.5050255 0.076469675
0.36361414 0.7892458 0.007055747 -0.43579057 0.73066264 0.50318277 0.40417847 -0.7929756
0.30865368 -2.7879505 -0.050829943 0.67211854 -0.45351475 0.26950523 -0.14755096 0.83422506
-1.3692819 -0.47918928 -0.08028993 -0.33611178 0.5551018 0.44122142 -0.19583055 1.2288065
0.268071 -0.07237168 0.36685374 0.17701598 0.29746062 0.38539135 0.8271219 -0.18874428
0.5545953 0.4619952 -0.3471886 -0.030606942 -0.47260916 -0.32762837 -0.41254464 0.0725953
0.081609026 0.24267359 0.000536689 -0.112364925 0.007549176 0.27998716 1.0765051 -0.29838973
0.39570522 0.3365388 1.008576 -0.00042000157 0.5423028 0.25475287 -0.12646854 -0.40601498
0.6160396 0.03675074 0.12329806 0.015423023 -0.6329365 0.0427024 0.008378316 0.34077638
0.35181192 0.29390624 0.24032052 -1.1574062 -0.4682831 -0.03822103 -1.0888869 -0.122853115
00000000: 61f9 ea3c 7b04 653f 2a8d 24be 4bd1 29c0
00000010: 9221 70be ffef 063f ab99 cb3e 4afd c6be
00000020: d77c 82be c0d6 8bbf 2f25 3bbe 54a8 0fbf
00000030: 9cf2 443f 1788 db3e 2bef 3f3f 6e0b 4a3f
00000040: 4b84 8bbf d2c3 90bd 59a9 e43d 1484 62be
00000050: b928 433e 752c 3a3f 5818 9cbf 264e b83e
00000060: 6f91 fd3d 191b 3a3e 4cc0 003f 38f7 573f
00000070: 822c d2bd e61a 753e 7f99 9a3d db82 71bc
00000080: cabe 103f c67d 233f e3e8 10be 87ff 13bd
00000090: 2598 1b3a 4247 423e c228 063f 8b68 11bf
000000a0: 0137 99be 0398 173f 4a80 443f 5204 783d
000000b0: 31ea d53e 550b 4e3c 5a20 ccbe bdbc 123e
000000c0: 1cfb f83e b9f1 283f dded f7bf 8102 423e
000000d0: e4ef 92bf 5b1f af3e e991 0d3f 981f 4e3f
000000e0: 5bc5 87bf 7d5c a0bd 4783 c53e 6bb8 183f
000000f0: 275a f03e b309 243d ca9b 8c3e 2dd6 533e
00000100: 4646 003f 688f 03be 1a32 efbe c6f7 bebd
00000110: a741 0e3f 855a 993e a393 de3e abf7 99be
00000120: c516 aa3d e22e aebe f9c9 ea3d 756e 933e
00000130: da44 9c3e 7ffe 43bf 6388 633f 1101 193f
00000140: 39a9 0fbf 4d39 86bf d929 f13e bea0 43bf
00000150: f194 86be cc84 00be 70ce e33e a2d7 013f
00000160: 5f81 babd 533d b3be 3625 27bf 96b4 8c3f
00000170: 630d debe 7124 9d3f b410 0b3e 83dc 40bf
00000180: 5e6d 69bf d066 3abf 97f3 b53e 35e4 e33e
00000190: e386 8f3d cee9 533f 21b0 1b3f 319b 7fbe
000001a0: 9f84 b4bf e73a 1ebf 7333 b43f d89c bbbe
000001b0: 37fe 63be 8892 983e abfc 32bf 570c 43bd
000001c0: 8e3f c3be 0de8 9bbe dd82 76be 6aed 5a3f
000001d0: a325 283e f4ae 9dbe a389 52bf 73c0 31bd
000001e0: ef7d 4a3f 3e05 03bf 85af 88be 119d 1f3f
000001f0: 1256 a4bf ec3a d0bd 9a78 03bf 9130 d2be
00000200: bf7b 08bf e47d 03bf 9a58 55bf 3c04 403f
00000210: c029 153f 2814 2f3f f682 0dbf c5cb 18bf
00000220: 34e9 e0be 2f87 593e d6bc 3fbd dd9b 71be
00000230: 6b36 fabd 8402 9d3e 7c3d 993f 9ae0 32bf
00000240: 9943 023f 317f d73e 40c8 253f 1fdc 75be
00000250: d590 6bbe 260f 103f 389c fa3a 1ebc 48bf
00000260: 5a80 243f 5784 77be 0de5 4f3f 1e8d d4be
00000270: c8a6 8a3e acad 0a3f 2070 cb3f 7340 fa3e
00000280: edb0 573f 18c4 753f 65a8 c53e ddc4 9a3e
00000290: f354 d6be 80fa 043f e8c1 23bf 11c5 c2be
000002a0: 9c3c 03bc dd94 debe 0455 0dbf e21e 143f
000002b0: 7c1f e2be 3268 103f 8a0f 133f 64a6 853e
000002c0: 8e90 bbbe 6464 fa3b 8121 533c 334f 443e
000002d0: b55a c53c f744 a8bf 5a49 013f 229c 9c3d
000002e0: a22b ba3e 030c 4a3f e533 e73b f11f dfbe
000002f0: b50c 3b3f 96d0 003f 7bf0 ce3e 7300 4bbf
00000300: db07 9e3e c86d 32c0 0f33 50bd f60f 2c3f
00000310: 1633 e8be 97fc 893e 9917 17be c68f 553f
00000320: a144 afbf 4c58 f5be 0c6f a4bd d816 acbe
00000330: 271b 0e3f c6e7 e13e ce87 48be 8849 9d3f
00000340: 9a40 893e 9a37 94bd 41d4 bb3e ad43 353e
00000350: c24c 983e 0452 c53e 43be 533f 2e46 41be
00000360: f5f9 0d3f a38a ec3e b4c2 b1be 69bb fabc
00000370: d4f9 f1be e8be a7be 0d39 d3be d8ac 943d
00000380: a222 a73d 6d7f 783e 97b0 0c3a 951f e6bd
00000390: 145f f73b 7a5a 8f3e ebca 893f 8ac6 98be
000003a0: e099 ca3e d04e ac3e 0519 813f a833 dcb9
000003b0: 5bd4 0a3f f86e 823e f880 01be 32e1 cfbe
000003c0: c5b4 1d3f f287 163d b183 fc3d d9b0 7c3c
000003d0: 2008 22bf b6e8 2e3d 3445 093c 3e7a ae3e
000003e0: b120 b43e e17a 963e 9516 763e e325 94bf
000003f0: cdc2 efbe a88d 1cbd a560 8bbf 6a9a fbbd

mlp.mlp.fc2.0.0.bias f4 [64]
-0.042408552 0.020813143 -0.62380546 -0.7840589 -0.44526187 -0.84770435 -0.016582394 0.41032746
0.19737951 -0.011890644 -0.2536774 -0.30913213 -0.2823707 -0.7039871 0.08409593 -0.72836083
-0.03602821 -0.09898404 -0.7254531 -0.62946504 -0.45259035 -0.016440049 0.05059696 0.38619345
-0.5780095 -0.5223853 -0.20889024 0.024417978 -0.09032517 -0.23016904 -0.055754688 -0.13841595
-0.3756932 -0.6861234 -0.5584669 -0.2210352 -0.110261686 -0.15205477 -0.032605104 0.124175765
-0.42668414 -0.04766405 -0.10676366 -0.3664331 -0.6986176 -0.17861234 -0.13865866 -0.36207125
-0.5324048 -0.09129363 -0.20224167 0.16319385 -0.16470784 -0.22682141 -0.30595794 -0.5822255
-0.4877268 -0.6430055 -0.5270282 -0.2758202 -0.5243947 -0.51828337 -0.5134468 -0.038034648
00000000: 97b4 2dbd 5380 aa3c b7b1 1fbf 16b8 48bf
00000010: 5df9 e3be 2703 59bf cdd7 87bc 7116 d23e
00000020: db1d 4a3e fad0 42bc 01e2 81be 9146 9ebe
00000030: e492 90be 8038 34bf 7d3a ac3d db75 3abf
00000040: 5192 13bd 25b8 cabd 4bb7 39bf 9f24 21bf
00000050: ecb9 e7be 48ad 86bc c23e 4f3d 26bb c53e
00000060: 6ef8 13bf 0bbb 05bf 53e7 55be 3608 c83c
00000070: 67fc b8bd 6fb1 6bbe 075f 64bd e9bc 0dbe
00000080: dc5a c0be c8a5 2fbf b0f7 0ebf 0d57 62be
00000090: e1d0 e1bd 3fb4 1bbe ee8c 05bd dd4f fe3d
000000a0: 5876 dabe 613b 43bd e8a6 dabd 1f9d bbbe
000000b0: 9ad8 32bf 27e6 36be 89fc 0dbe 6761 b9be
000000c0: ae4b 08bf 28f8 babd 7118 4fbe 4a1c 273e
000000d0: 2ca9 28be df43 68be 85a6 9cbe bb0c 15bf
000000e0: 54b7 f9be 029c 24bf 52eb 06bf 4e38 8dbe
000000f0: bb3e 06bf 38ae 04bf 4071 03bf 38ca 1bbd

mlp.mlp.fc2.0.2.weight f4 [64]
1.2952666 1.1230164 1.0405767 1.4520048 1.1965617 0.7685119 0.9739296 1.3630248
1.1180385 1.1573302 1.61212 1.391335 1.8110023 1.7654012 1.771617 1.1970258
1.8347449 1.2199442 1.3560305 2.0872624 1.4963166 1.0122615 1.2661219 0.66833735
1.4402821 1.1850805 1.4776864 1.2986768 1.316764 1.3246487 1.0314498 1.984998
1.6688416 1.0967661 0.96853876 1.2099671 1.1573058 0.7745276 1.0023831 1.3446276
1.6908538 1.5177466 1.465808 2.0103397 0.6101454 1.6274493 1.0540158 1.2319223
1.3983601 1.4868755 1.3597597 1.311507 1.151177 1.2277626 1.2981665 1.835856
1.7214783 1.9243405 1.1335553 1.5170611 1.0883204 1.095505 1.1984984 1.2401174
00000000: 4ccb a53f 00bf 8f3f 9e31 853f 4bdb b93f
00000010: ef28 993f 32bd 443f 7353 793f 9977 ae3f
00000020: e31b 8f3f 6523 943f f359 ce3f 4417 b23f
00000030: ecce e73f abf8 e13f 59c4 e23f 2438 993f
00000040: ecd8 ea3f 2227 9c3f 6892 ad3f b595 0540
00000050: 4d87 bf3f c991 813f 4810 a23f 2818 2b3f
00000060: 2a5b b83f b8b0 973f d424 bd3f 0b3b a63f
00000070: b98b a83f 178e a93f 8c06 843f 6a14 fe3f
00000080: 9a9c d53f d562 8c3f 28f2 773f 34e0 9a3f
00000090: 9922 943f 7147 463f 174e 803f c21c ac3f
000000a0: e66d d83f 8545 c23f 999f bb3f 68a9 0040
000000b0: 7d32 1c3f 4250 d03f fde9 863f a1af 9d3f
000000c0: 77fd b23f f051 be3f 9b0c ae3f 76df a73f
000000d0: c559 933f 5327 9d3f 522a a63f 54fd ea3f
000000e0: 6759 dc3f ca50 f63f 5718 913f 0f2f c23f
000000f0: 154e 8b3f 8239 8c3f 6568 993f 2bbc 9e3f

mlp.mlp.fc2.0.2.bias f4 [64]
-0.020051641 0.6218836 -0.31302533 -0.14195392 0.09835695 0.09149998 0.33372295 0.43267968
0.6604607 0.5131715 -0.0059249587 0.8036441 -0.46777233 0.1685785 0.20800282 0.29102316
0.109927624 0.41913468 -0.38229033 -0.3494776 -0.34592316 0.4177576 0.35756248 0.73390436
-0.6807384 0.39137122 -0.121922635 0.054011863 0.40449294 0.35243586 -0.2562748 0.7598009
-0.1771721 0.05755552 0.1781878 0.29313952 -0.6023695 -0.043995082 -0.34748024 0.5739155
0.19784805 -0.37199652 0.09099564 -0.20656052 0.74793845 -0.5669181 0.08726265 0.10797885
0.48377743 0.37573817 0.46748096 0.07692893 0.38050848 -0.12745218 -0.11589419 -0.18961851
-0.71213573 -0.6419787 0.3979354 0.25422144 0.6827837 -0.28793284 -0.08120203 0.33190742
00000000: 5743 a4bc c333 1f3f db44 a0be 5e5c 11be
00000010: 5e6f c93d 5764 bb3d bcdd aa3e 3188 dd3e
00000020: f413 293f 355f 033f 2826 c2bb 9fbb 4d3f
00000030: db7f efbe d89f 2c3e b1fe 543e fd00 953e
00000040: bc21 e13d d298 d63e 8fbb c3be baee b2be
00000050: d71c b1be 53e4 d53e 6e12 b73e 28e1 3b3f
00000060: df44 2ebf cf61 c83e 93b2 f9bd 8b3b 5d3d
00000070: b319 cf3e 7972 b43e 7336 83be 5082 423f
00000080: 9a6c 35be 56bf 6b3d dd76 363e 6216 963e
00000090: e334 1abf 3034 34bd eee8 b1be 20ec 123f
000000a0: ae98 4a3e 5476 bebe ec5b ba3d 9a84 53be
000000b0: e578 3f3f 8b21 11bf c3b6 b23d 0424 dd3d
000000c0: adb1 f73e c160 c03e aa59 ef3e ea8c 9d3d
000000d0: 02d2 c23e d382 02be ef59 edbd 5b2b 42be
000000e0: 874e 36bf b758 24bf 30be cb3e 5029 823e
000000f0: eaca 2e3f ef6b 93be 404d a6bd c5ef a93e

mlp.mlp.fc2.1.0.weight f4 [64, 64]
0.17548537 -0.3636276 0.078570016 -0.76421976 -0.40294173 0.41143736 -0.68964124 0.23704298
-0.13885662 0.5751721 0.5678349 -0.17089146 1.1343646 -1.3180313 -0.56710094 -1.1243824
-0.37493858 -1.1298779 -0.38266563 -0.46751624 0.19936845 -0.4216728 -0.15916458 -0.0074757487
-0.09705172 -1.1671048 0.87379736 -0.032053605 0.013642888 0.5204088 0.22060835 -0.28626028
1.0135986 -0.3456841 -0.0009388963 0.43428048 -0.43161362 0.36752063 -0.39522594 -0.45414504
-0.80978507 0.5078009 -0.6555629 -0.68400514 0.22264943 -0.32112744 -0.08592861 0.3549548
-0.7734669 -0.01790012 0.0869861 -0.22337796 -0.34240806 -0.33937767 0.1894718 -0.7017643
-0.3656077 -0.63502806 0.566957 1.3561286 -0.7636981 -0.012374624 -0.08306073 0.09680413
0.5790074 -0.26477596 0.24320352 0.95239913 0.13993804 0.118260674 0.66296625 0.74702877
-0.112741984 0.5037744 0.21881236 -0.8371172 0.20838827 0.088391736 0.889047 -0.26430187
0.066362984 0.076836854 0.34924385 0.523022 0.27119684 -0.30913222 0.209111 -0.31184986
-0.40202254 0.9429639 0.050178185 0.22718145 -0.14724538 0.65345895 0.44095588 -1.0696281
0.036166057 0.69876015 -0.6312777 -0.6175151 -0.3274945 -0.08025321 0.2647786 -0.313586
-0.73079073 -0.07403556 -0.45084086 0.5562103 -0.46870506 0.0461288 0.16233212 -0.047817383
-0.48946753 0.36130595 0.10734317 0.85437346 0.4821088 -0.114067145 -0.4461021 -0.12800494
0.46737593 -0.82910955 0.009565118 0.68870723 -0.25602287 -0.4697872 -0.35013214 -0.54834265
0.4519169 -1.0373651 0.103582814 0.1499398 -0.64600754 0.47981307 -0.40930247 -0.7020427
-0.7516376 0.08771564 0.37938747 -0.29882506 -0.2705116 -0.032985866 -0.27250996 -0.23563793
0.50882506 -0.023209779 0.24587272 0.06424563 0.42002642 0.22166292 -0.29532224 -0.300316
0.09220269 -0.31953895 0.3202366 -0.23064116 -0.58238894 -0.29209837 0.47952428 -1.7535852
0.6956359 -0.11138268 0.10864555 0.79468364 0.12264835 0.481794 -0.73890805 -0.21055946
-0.07902191 0.14223981 0.3099478 0.14622222 0.15136561 0.48108757 -0.3321535 -0.1694818
0.18510218 -0.07557061 0.20984407 0.2540559 0.74948466 0.28545716 0.058926784 -0.34199095
-0.010236686 0.79618394 0.95531124 0.8907166 -0.4985045 0.55275553 0.45468912 0.005063177
-0.6146587 0.09013876 0.17789522 -0.099303134 -0.41177046 -0.15819961 -0.4641123 -0.6764928
-0.21982096 0.51279086 0.75637776 0.08612588 0.57216597 -0.12768887 -0.9731991 0.18588044
-0.10858463 0.74749005 0.1755622 -1.1182011 -0.31569374 0.21424602 -0.047976356 0.47857705
1.060525 1.0783184 -0.014305313 0.72321945 -0.041051157 0.18392289 -0.5303366 0.056701034
0.67745537 0.28853485 -0.12350902 -0.09200968 -0.21833505 0.38394773 -0.7868509 0.9322551
-0.32297498 1.190387 0.44518337 -0.9832617 -0.6415678 -0.35156295 -0.5900585 0.47119096
-0.44186452 0.21957862 -0.12512374 -0.69702584 -0.03198981 0.5016095 -0.42443255 -0.38324025
-0.855001 0.10132879 0.53402025 -0.37825626 -0.2237579 0.21179087 0.13740392 0.50176406
00000000: 70b2 333e 662d babe 51e9 a03d e8a3 43bf
00000010: 614e cebe eba7 d23e 548c 30bf 65bb 723e
00000020: 6e30 0ebe 7b3e 133f a15d 113f 2cfe 2ebe
00000030: dc32 913f 40b5 a8bf 872d 11bf c3eb 8fbf
00000040: f3f7 bfbe d79f 90bf c0ec c3be 4a5e efbe
00000050: 3e27 4c3e 7fe5 d7be 0afc 22be 20f7 f4bb
00000060: 0dc3 c6bd b163 95bf 2fb1 5f3f a44a 03bd
00000070: 6b86 5f3c 8339 053f 28e7 613e b590 92be
00000080: 99bd 813f 82fd b0be 4420 76ba 035a de3e
00000090: 76fc dcbe aa2b bc3e 0e5b cabe b385 e8be
000000a0: 134e 4fbf 3dff 013f f8d2 27bf f61a 2fbf
000000b0: 36fe 633e d16a a4be 57fb afbd a3bc b53e
000000c0: ed01 46bf 46a3 92bc c525 b23d 31bd 64be
000000d0: 1c50 afbe e9c2 adbe e504 423e d3a6 33bf
000000e0: ef30 bbbe 3391 22bf 1824 113f 9f95 ad3f
000000f0: b881 43bf efbe 4abc be1b aabd 3e41 c63d
00000100: d439 143f b790 87be 580a 793e 6ed0 733f
00000110: eb4b 0f3e a732 f23d 28b8 293f 473d 3f3f
00000120: 45e5 e6bd 5cf7 003f 5910 603e 504d 56bf
00000130: bc63 553e ba06 b53d 9698 633f 9352 87be
00000140: 51e9 873d a45c 9d3d 17d0 b23e c5e4 053f
00000150: 50da 8a3e 9446 9ebe 3221 563e c9aa 9fbe
00000160: e6d5 cdbe 1566 713f a487 4d3d 41a2 683e
00000170: 7ec7 16be 1649 273f f8c4 e13e 93e9 88bf
00000180: dc22 143d f2e1 323f 6a9b 21bf 7815 1ebf
00000190: 5cad a7be cc5b a4bd 1091 873e 588e a0be
000001a0: 1a15 3bbf f59f 97bd 9dd4 e6be cc63 0e3f
000001b0: 1cfa efbe 8df1 3c3d 643a 263e 29dc 43bd
000001c0: 7d9b fabe 18fd b83e bcd6 db3d 38b8 5a3f
000001d0: f7d6 f63e 099c e9bd 7f67 e4be ba13 03be
000001e0: e64b ef3e 8640 54bf 03b7 1c3c 1e4f 303f
000001f0: 6e15 83be f387 f0be 8544 b3be 2f60 0cbf
00000200: a761 e73e 61c8 84bf 3a23 d43d d289 193e
00000210: c060 25bf 0faa f53e 1890 d1be 12b9 33bf
00000220: 526b 40bf 42a4 b33d 133f c23e 99ff 98be
00000230: 7f80 8abe 301c 07bd 6d86 8bbe 124b 71be
00000240: 5c42 023f 6f22 bebc 0fc6 7b3e 3693 833d
00000250: b40d d73e 9bfb 623e 7a34 97be 05c3 99be
00000260: c4d4 bc3d 9c9a a3be 0df6 a33e 322d 6cbe
00000270: 7117 15bf eb8d 95be 3584 f53e 7b75 e0bf
00000280: 3215 323f 9a1c e4bd 8f81 de3d 6370 4b3f
00000290: 0f2f fb3d b4ad f63e 1429 3dbf e69c 57be
000002a0: 3dd6 a1bd 50a7 113e 7ab1 9e3e 47bb 153e
000002b0: 96ff 1a3e 1c51 f63e 0610 aabe a38c 2dbe
000002c0: 6d8b 3d3e c4c4 9abd 5de1 563e 9d13 823e
000002d0: 3ade 3f3f 7127 923e 365d 713d 7019 afbe
000002e0: c6b7 27bc b6d2 4b3f 478f 743f 0106 643f
000002f0: fb3b ffbe 6381 0d3f 03cd e83e 02e9 a53b
00000300: 465a 1dbf ac9a b83d 2a2a 363e 715f cbbd
00000310: 94d3 d2be 14ff 21be 21a0 edbe a22e 2dbf
00000320: bf18 61be 4346 033f f9a1 413f c462 b03d
00000330: 7879 123f dfc0 02be 9423 79bf 7157 3e3e
00000340: 9e61 debd 825b 3f3f 94c6 333e 3721 8fbf
00000350: 9ca2 a1be 4f63 5b3e db82 44bd 0d08 f53e
00000360: 48bf 873f 5606 8a3f d560 6abc e924 393f
00000370: 4225 28bd 4856 3c3e 24c4 07bf 583f 683d
00000380: b76d 2d3f d7ba 933e 4cf2 fcbd 926f bcbd
00000390: 3993 5fbe cc94 c43e 106f 49bf 45a8 6e3f
000003a0: fa5c a5be 9a5e 983f 13ef e33e 0ab7 7bbf
000003b0: ca3d 24bf 0f00 b4be 130e 17bf f13f f13e
000003c0: 113c e2be 38d9 603e 7020 00be 4970 32bf
000003d0: bf07 03bd 7b69 003f 394f d9be 1138 c4be
000003e0: 58e1 5abf 7885 cf3d 8db5 083f ceaa c1be
000003f0: ca20 65be b5df 583e 9db3 0c3e 9c73 003f

mlp.mlp.fc2.1.0.bias f4 [64]
0.0031551933 -0.09139683 -0.41337484 -0.07537124 -0.17105033 -0.4183183 -0.50617445 -0.5844348
-0.2980824 -0.09653296 -0.7439312 -0.23952381 -0.5685403 -0.30631706 -0.42904684 -0.11367437
-0.64072204 -0.36543974 -0.46075746 -0.28792948 0.052325632 -0.30333427 -0.60539615 -0.24339877
-0.35295257 -0.28299585 0.030792708 -0.21575744 -0.48659942 -0.19525984 -0.27924493 -0.8049297
-0.2420607 -0.60148966 -0.36247098 -0.5031212 -0.5692094 -0.26228502 -0.4059045 -0.095845714
-0.31463888 -0.3790059 -0.022436885 0.09819744 -0.51572025 0.35627174 -0.5220925 -0.76870793
-0.6946247 0.011094694 -0.07997434 -0.33806753 -0.38495535 0.7152109 -0.19785252 -0.1706298
-0.064308 -0.48731577 -0.18493018 -0.49269608 -0.29807538 -0.36105585 -0.023519404 -0.5492766
00000000: 5cc7 4e3b 432e bbbd dea5 d3be 3d5c 9abd
00000010: d127 2fbe d12d d6be a694 01bf 859d 15bf
00000020: 429e 98be 13b3 c5bd 4672 3ebf bb45 75be
00000030: db8b 11bf 97d5 9cbe 07ac dbbe 1cce e8bd
00000040: 5c06 24bf eb1a bbbe 67e8 ebbe 7e6b 93be
00000050: 6753 563d a14e 9bbe 3efb 1abf 873d 79be
00000060: 33b6 b4be d5e4 90be fd40 fc3c 85ef 5cbe
00000070: 8f23 f9be 32f2 47be 31f9 8ebe df0f 4ebf
00000080: c3de 77be 3afb 19bf cc95 b9be 8dcc 00bf
00000090: b5b7 11bf 394a 86be b7d2 cfbe c24a c4bd
000000a0: 5918 a1be 100d c2be 8fcd b7bc bd1b c93d
000000b0: 3e06 04bf 4069 b63e dba7 05bf 0bca 44bf
000000c0: edd2 31bf 85c6 353c 96c9 a3bd 3017 adbe
000000d0: de18 c5be 1018 373f da99 4abe 94b9 2ebe
000000e0: eab3 83bd 7481 f9be 565e 3dbe a942 fcbe
000000f0: 569d 98be 50dc b8be c4ab c0bc 649d 0cbf

mlp.mlp.fc2.1.2.weight f4 [64]
2.188744 2.1051102 2.1655397 2.1150744 2.4987123 2.7018394 2.307734 2.1866677
2.7722516 2.2798505 2.6027853 2.5315459 2.1704314 2.4635065 2.4390614 2.128104
2.0710242 2.638698 2.5347326 2.3035376 2.2128048 2.741646 2.220209 1.8974192
3.0546813 2.7858653 2.1194077 1.4367429 3.2553084 2.3555346 1.8887981 2.1337779
2.3739307 2.6930153 2.1966145 2.0944626 1.9430383 2.2426167 2.1954005 1.7070649
2.4160945 2.6106915 2.4132545 2.2376075 2.166057 1.6812652 2.9661982 2.4136424
2.7185197 2.3836205 1.6947545 2.0850909 3.6099377 1.6940873 2.6321397 2.5787578
2.3886805 2.2197905 3.0294847 1.6797111 2.5651886 1.8263509 2.4777231 2.120033
00000000: 6214 0c40 20ba 0640 3498 0a40 615d 0740
00000010: e7ea 1f40 f0ea 2c40 eab1 1340 5df2 0b40
00000020: 926c 3140 12e9 1140 0994 2640 d904 2240
00000030: 59e8 0a40 17aa 1d40 9519 1c40 db32 0840
00000040: a98b 0440 6ee0 2840 0f39 2240 296d 1340
00000050: 989e 0d40 2177 2f40 e717 0e40 a2de f23f
00000060: e67f 4340 9e4b 3240 60a4 0740 31e7 b73f
00000070: f956 5040 14c1 1640 23c4 f13f d18f 0840
00000080: 7bee 1740 5d5a 2c40 5595 0c40 ad0b 0640
00000090: 7bb5 f83f 0887 0f40 7181 0c40 1a81 da3f
000000a0: 4ba1 1a40 9215 2740 c372 1a40 f634 0f40
000000b0: aea0 0a40 b333 d73f 31d6 3d40 1e79 1a40
000000c0: 3afc 2d40 3d8d 1840 b7ed d83f 2172 0540
000000d0: 3809 6740 dad7 d83f fa74 2840 5e0a 2540
000000e0: 24e0 1840 0c11 0e40 14e3 4140 c600 d73f
000000f0: 0d2c 2440 dec5 e93f 0493 1e40 9fae 0740

mlp.mlp.fc2.1.2.bias f4 [64]
-0.40551594 -0.2261863 0.040002204 -0.2102586 -0.15353276 -0.06359471 0.49637172 0.12907968
-0.2565276 0.038894024 0.02174552 0.06847417 0.3331336 0.024391785 0.020043911 -0.08954519
0.35722286 -0.0069277626 0.15106809 -0.083594725 -0.12509874 0.24351773 0.31558213 0.010355785
-0.07432144 -0.039719693 -0.21419078 0.067719296 -0.100733794 0.20685141 0.0819139 -0.106067404
-0.12925872 0.19167809 0.07753061 0.11056336 0.13166218 0.11301119 0.16239381 -0.32886234
-0.3829792 0.23628329 0.054925304 -0.3214291 0.18167078 -0.4888375 -0.011562515 0.31048068
-0.4530063 -0.06967048 0.06458009 0.15263493 -0.21979675 -0.43912885 0.18550365 -0.15481019
-0.28027657 0.24671423 -0.24868557 0.4769231 -0.1298635 -0.070128836 0.108665735 0.007972161
00000000: c99f cfbe 629d 67be 5ad9 233d 084e 57be
00000010: b137 1dbe f13d 82bd 6f24 fe3e 772d 043e
00000020: 9657 83be 574f 1f3d a923 b23c 303c 8c3d
00000030: 7d90 aa3e 48d1 c73c 2133 a43c 7863 b7bd
00000040: eae5 b63e 4902 e3bb 98b1 1a3e b633 abbd
00000050: e219 00be b65c 793e fb93 a13e 4fab 293c
00000060: d735 98bd 1eb1 22bd d454 5bbe 6ab0 8a3d
00000070: 854d cebd dbd0 533e 7ac2 a73d de39 d9bd
00000080: 665c 04be 4347 443e 5ec8 9e3d 0b6f e23d
00000090: 73d2 063e 6972 e73d 904a 263e a560 a8be
000000a0: da15 c4be 3ff4 713e 5bf9 603d 5b92 a4be
000000b0: e807 3a3e e948 fabe b470 3dbc 53f7 9e3e
000000c0: 71f0 e7be 66af 8ebd 9142 843d 554c 1c3e
000000d0: 6612 61be 7fd5 e0be abf4 3d3e 9086 1ebe
000000e0: 6980 8fbe a8a2 7c3e 6ea7 7ebe 442f f43e
000000f0: f0fa 04be b59f 8fbd 248c de3d ab9d 023c

act.action_out.weight f4 [5, 64]
0.56760097 0.7809149 1.047371 0.643121 0.668735 0.15317059 0.19431105 0.14258958
0.6027438 0.30048254 0.81100625 0.21942014 0.078313224 0.18684413 0.65968966 0.4538648
1.0741724 0.23951837 0.32598627 0.22847304 0.7727685 0.3378279 -0.2996989 0.22646593
0.47036198 1.3416804 0.013012436 0.26858628 0.48094878 0.4382521 0.8068844 0.19408397
0.7787609 0.6804029 0.76969004 0.7345539 0.24569334 0.08272376 0.14448209 0.8340963
0.87925726 0.09214015 0.014302874 0.8644159 0.7781951 1.1744591 0.2959761 1.2084959
0.09212622 -0.15443952 0.13040876 0.85349596 0.40484983 0.8046708 0.50953484 0.3164199
0.9658697 0.26419014 0.53194255 -0.45943686 0.8307574 0.81356335 0.10569937 0.55327916
1.1210233 0.22052611 0.3005901 -0.41364 -0.139941 -1.7507247 -1.1231557 -0.95662487
1.1711805 0.030466622 -1.2107568 -1.046159 -0.67292994 0.5050703 0.41549197 1.0807487
-0.5939789 0.8948621 -0.7428513 0.17252338 -1.0062339 -1.111849 0.31797802 -0.31451064
-0.7880827 0.75801283 0.16861549 -0.082156084 0.016974172 -0.899051 -0.54793274 0.62429076
1.080575 -1.281105 -0.72530675 -0.08161451 -0.29879177 -1.2205361 0.5544831 0.59581476
0.5334686 0.34428963 -1.4578817 -0.39683267 -0.9146145 -0.12000229 -0.990693 -1.3841237
0.69226557 -0.87353784 0.5021758 -0.20569861 0.60811853 -0.011449361 0.73022795 -0.114585966
1.0783912 0.5270533 1.0169091 -0.8006817 -0.68492395 0.201654 -0.214325 -0.5437006
-1.2063595 -0.88219655 0.13663875 0.49431324 -0.6386047 0.7115414 0.69192654 0.75668824
-1.7547266 -0.62683314 0.9828644 0.6716884 -0.6831096 -1.4466 -0.96724683 0.19633457
0.074295744 -1.0960193 0.66349167 -1.1792452 1.0169468 0.63224393 -1.0679547 0.048589885
0.8717996 -1.1884367 -0.3970965 0.079130195 -0.66979855 1.0041673 -0.013204822 -1.0183386
-1.0946286 0.59391946 -0.016074447 -0.09332852 0.023915881 0.802045 -0.4371807 -0.5369315
-0.8606831 -1.2404925 1.1262931 1.2582178 0.84176904 0.46570858 0.40535605 0.90684754
-1.300042 0.89072776 0.17494075 0.41073278 -1.2504557 0.37933755 -1.3069394 -0.47783718
-1.1899009 -0.9605811 -1.4968635 -0.38817114 0.1571894 -0.607163 0.71040326 0.598677
0.10076718 -0.7403814 -0.8518384 0.42521915 -1.1586298 -0.0371364 1.8720437e-05 0.32705414
-0.16453859 0.8799948 -0.883885 -0.85546196 -0.8513972 -0.43602905 0.2960443 -0.5195908
0.2859601 0.5390438 0.88973147 -1.0734884 -0.1024026 0.56053334 0.6258704 -0.9852868
-1.3532844 -0.28377733 -1.1687186 0.6199253 -1.9011712 0.63189954 0.6059643 -0.8680993
-0.41487303 -0.9253283 1.1378869 0.3827023 0.44610178 -0.48358962 0.11059647 -0.10593585
0.21877436 0.9371678 0.5248139 -0.33128017 -0.24855144 -0.62331885 -1.5502838 -0.18963513
-0.84809655 -0.89875716 0.07697441 0.9106397 -2.1181378 0.8590561 0.28867808 -1.5949731
0.1815174 -0.38546193 -1.0694251 0.08856847 -1.3436196 0.18655537 -1.5780135 -0.6857211
00000000: 4c4e 113f 0aea 473f 4110 863f 94a3 243f
00000010: 3832 2b3f c0d8 1c3e 7af9 463e 0103 123e
00000020: 6b4d 1a3f d9d8 993e 1b9e 4f3f acaf 603e
00000030: af62 a03d 1154 3f3e 6ce1 283f f860 e83e
00000040: 7b7e 893f 4e44 753e ace7 a63e d6f4 693e
00000050: 28d4 453f c7f7 ac3e 2272 99be afe6 673e
00000060: 49d3 f03e 2fbc ab3f 1d32 553c 2484 893e
00000070: eb3e f63e 9462 e03e fa8f 4e3f f3bd 463e
00000080: e05c 473f e22e 2e3f 680a 453f b90b 3c3f
00000090: 0997 7b3e 136b a93d 1df3 133e 5687 553f
000000a0: 0117 613f fab3 bc3d 9a56 6a3c 5c4a 5d3f
000000b0: cb37 473f ad54 963f 2e8a 973e feaf 9a3f
000000c0: acac bc3d 6525 1ebe e089 053e b67e 5a3f
000000d0: 7a48 cf3e e8fe 4d3f e070 023f ca01 a23e
000000e0: 3d43 773f ee43 873e 632d 083f 4f3b ebbe
000000f0: 84ac 543f b045 503f e978 d83d b4a3 0d3f
00000100: b17d 8f3f 99d1 613e f2e6 993e 9fc8 d3be
00000110: b24c 0fbe bf17 e0bf 91c3 8fbf 5ee5 74bf
00000120: 3ee9 953f 2395 f93c 14fa 9abf 8ae8 85bf
00000130: 2345 2cbf 4a4c 013f 5dbb d43e f955 8a3f
00000140: 000f 18bf af15 653f 812b 3ebf f8a9 303e
00000150: 46cc 80bf 1151 8ebf 04ce a23e 8a07 a1be
00000160: cabf 49bf 210d 423f 8aa9 2c3e 7341 a8bd
00000170: 6b0d 8b3c 3528 66bf 5245 0cbf 85d1 1f3f
00000180: 4850 8a3f 40fb a3bf b4ad 39bf 8225 a7bd
00000190: 3cfb 98be 873a 9cbf 9bf2 0d3f 5187 183f
000001a0: 6691 083f bb46 b03e de9b babf a72d cbbe
000001b0: 2d24 6abf c3c3 f5bd 0e9e 7dbf f72a b1bf
000001c0: 5138 313f 2da0 5fbf 988e 003f a8a2 52be
000001d0: a8ad 1b3f 1a96 3bbc 38f0 3a3f 0cac eabd
000001e0: b908 8a3f f7ec 063f 142a 823f 7af9 4cbf
000001f0: 2d57 2fbf 637e 4e3e 0378 5bbe f62f 0bbf
00000200: fd69 9abf a2d7 61bf 07eb 0b3e a016 fd3e
00000210: 997b 23bf 9427 363f 1922 313f 52b6 413f
00000220: e29a e0bf 2378 20bf 009d 7b3f c5f3 2b3f
00000230: 45e0 2ebf 302a b9bf 7d9d 77bf ee0b 493e
00000240: 5e28 983d 5c4a 8cbf 97da 293f 82f1 96bf
00000250: 502b 823f bdda 213f bdb2 88bf 3006 473d
00000260: 422e 5f3f b21e 98bf 3c50 cbbe 030f a23d
00000270: eb77 2bbf 8e88 803f 0a59 58bc eb58 82bf
00000280: ca1c 8cbf 1b0b 183f 8fae 83bc 0623 bfbd
00000290: 3deb c33c d252 4d3f 26d6 dfbe 5874 09bf
000002a0: ba55 5cbf 75c8 9ebf 5f2a 903f 480d a13f
000002b0: 2d7e 573f 5b71 ee3e d48a cf3e 2927 683f
000002c0: c767 a6bf bc06 643f ab23 333e 914b d23e
000002d0: ef0e a0bf 8838 c23e ca49 a7bf 13a7 f4be
000002e0: ac4e 98bf a5e8 75bf 3999 bfbf 5ebe c6be
000002f0: 42f6 203e 096f 1bbf fddc 353f e542 193f
00000300: 065f ce3d a389 3dbf 1512 5abf 53b6 d93e
00000310: fb4d 94bf 561c 18bd d509 9d37 a473 a73e
00000320: ce7c 28be 5747 613f 4a46 62bf 8eff 5abf
00000330: 2bf5 59bf 333f dfbe 1e93 973e e703 05bf
00000340: 5d69 923e c6fe 093f 71c5 633f 1168 89bf
00000350: 74b8 d1bd 1d7f 0f3f 0b39 203f c13b 7cbf
00000360: 6c38 adbf 434b 91be 9298 95bf 6db3 1e3f
00000370: 9459 f3bf 2bc4 213f 7a20 1b3f c13b 5ebf
00000380: 3d6a d4be 51e2 6cbf 47a6 913f 8ef1 c33e
00000390: 7467 e43e 0f99 f7be 6780 e23d e5f4 d8bd
000003a0: 6306 603e 3bea 6f3f 345a 063f 8e9d a9be
000003b0: 4584 7ebe d391 1fbf b36f c6bf b62f 42be
000003c0: db1c 59bf f314 66bf c2a4 9d3d af1f 693f
000003d0: 928f 07c0 1aeb 5b3f 9dcd 933e 1428 ccbf
000003e0: b3df 393e 445b c5be ece2 88bf 6363 b53d
000003f0: bafb abbf 5f08 3f3e 59fc c9bf 6b8b 2fbf

act.action_out.bias f4 [5]
-1.2708286 0.18452545 0.41764265 0.3113164 0.29182774
00000000: 83aa a2bf 3df4 3c3e 42d5 d53e dd64 9f3e
00000010: 726a 953e
