train/maddpg-v5/results/formation_hd_env/maddpg/hd_2/run10/models/policy_0/critic.pt (torch, 66799 bytes, 18 tensors)

mlp.feature_norm.weight f4 [34]
000000 92 e4 9f 3e 58 51 24 3e 70 b4 01 3f e3 21 cf 3e
       0.31229073 0.16046655 0.5066595 0.4045554
000010 99 77 9e 3f 88 18 3d 3f 09 49 c9 3f 93 15 af 3f
       1.2380248 0.73865557 1.5725414 1.3678459
000020 a5 59 1d bf 3c 1f 73 bf 87 35 d6 3f fa 56 0b 40
       -0.6146491 -0.94969535 1.6735085 2.1771836
000030 54 9f d1 3e 11 74 53 3e 23 07 dc 3e f8 82 1a bf
       0.4094187 0.20649745 0.42974195 -0.6035609
000040 48 bb 11 3f 1d fc ca 3f fe cc a6 3e 80 76 c6 3f
       0.56926394 1.5858189 0.32578272 1.5504913
000050 3b d0 41 bf 61 32 7c bf d0 77 08 40 5f 14 d1 3f
       -0.7570836 -0.9851437 2.1323128 1.6334342
000060 a5 f0 a1 3e e4 49 b3 3e ae f6 ba 3e 83 57 ac 3e
       0.3162891 0.35017312 0.36516327 0.33660516
000070 5e 9a b4 3e 0e 1c 39 3f c9 d4 3d 3f f5 76 45 3f
       0.35274023 0.72308433 0.7415281 0.7713464
000080 5f fd 3b 3f 83 00 39 3f
       0.7343349 0.72266406

mlp.feature_norm.bias f4 [34]
000000 3b be dc be 08 4b 1b bd c2 94 e2 bd 68 b3 88 be
       -0.43113884 -0.037913352 -0.110635296 -0.26699376
000010 90 67 b2 be c8 fd a0 bf 3b ed 50 3d 66 e3 84 3f
       -0.34844637 -1.2577448 0.05100749 1.0381896
000020 78 99 00 3f dd 30 6c 3f 15 40 16 3f b0 ca 26 bf
       0.50234175 0.9226206 0.5869153 -0.65153027
000030 63 65 8e be 9e b8 df 3e 26 6e aa 3e 24 c4 e0 3e
       -0.27811727 0.4369554 0.33287162 0.43899643
000040 29 2d 29 bf dc 01 00 3f bb 2d 00 3f 30 bd 7f be
       -0.66084534 0.5000284 0.5006978 -0.24974513
000050 c7 85 b1 3f af a8 65 3f ff 42 58 be f0 4c 15 be
       1.3868951 0.89710516 -0.21119307 -0.1458013
000060 e4 99 1d bf eb 27 f3 be 1b 94 ca be ea 4f 0f bf
       -0.61562943 -0.47491392 -0.3956612 -0.55981314
000070 54 8b c5 be 2a a3 f7 bd d8 52 52 3d 99 5f 1a be
       -0.3858286 -0.12091668 0.051348537 -0.1507553
000080 df 43 d0 3d 18 ac 20 be
       0.101691954 -0.15690649

mlp.mlp.fc1.0.weight f4 [64, 34]
000000 32 26 df bd 75 9d 96 be 22 a3 94 3e 49 52 8f bc
       -0.10895957 -0.29417005 0.2903071 -0.017495291
000010 fa 85 95 3e 17 91 05 bf cc c6 66 bf 9c b1 26 be
       0.29203779 -0.52174515 -0.9014709 -0.1627869
000020 68 5e ac bd f8 98 67 be 57 88 12 3f d3 44 05 be
       -0.08416444 -0.22616947 0.5723929 -0.13014536
000030 8f 6a 1c bf 03 bc 33 bf 9e f4 83 bf 55 47 61 3e
       -0.61100096 -0.7020876 -1.0309026 0.21999867
000040 9c d7 0a 3e ec a9 6b bb ac 62 34 3d e8 5a 1b bf
       0.13558811 -0.0035959436 0.044039413 -0.60685587
000050 68 6a 51 bf c5 94 9a be 52 a4 95 3c b3 61 82 be
       -0.8180299 -0.30191627 0.01826683 -0.25465164
000060 3d e1 c5 be b9 f9 73 be 0a 2c 13 bf 88 34 98 be
       -0.38648406 -0.2382573 -0.57489073 -0.29727578
000070 53 54 e2 be 46 e7 21 bd d6 c4 7f be 69 a3 cc 3d
       -0.4420496 -0.0395272 -0.2497743 0.099921055
000080 38 33 86 bd e4 78 e5 bc c7 bb bb bd 4b 1a 9d 3e
       -0.06552738 -0.028011747 -0.09166675 0.30684122
000090 11 f8 0e 3f ec 64 b0 3f d5 60 73 3c 7d 87 69 bd
       0.5584727 1.3780799 0.0148546295 -0.057013977
0000a0 3d ff 49 be 76 bf c0 3d 81 d0 26 3d db 0b ce 3e
       -0.19726272 0.09411518 0.04072619 0.4024342
0000b0 43 76 56 3f bb 14 2c 3e 2c 30 ae be d5 b9 c8 3e
       0.83774203 0.16804783 -0.34021127 0.3920428
0000c0 af 02 04 bf cf e2 31 bf fc 88 ca bd 6c c3 32 be
       -0.51566595 -0.6948671 -0.09889409 -0.1745736
0000d0 df d7 b2 3e da d4 ff be 7c bc 90 3e 99 c2 2d be
       0.34930322 -0.4996708 0.28268802 -0.16968764
0000e0 6f a8 96 3d c1 10 e2 3e dc 33 57 bf a4 99 f8 be
       0.07356345 0.44153407 -0.84063506 -0.48554718
0000f0 3d 9b 35 bf d4 23 e2 be 69 98 5b bf ac 9c a4 be
       -0.7094 -0.4416796 -0.85779434 -0.3215078
000100 31 b1 c0 be 9a 5e 33 be 12 5f 88 be 04 11 aa be
       -0.37635186 -0.17516556 -0.26635033 -0.33216107
000110 2c d3 0b 3f 95 f9 61 bf 04 73 aa 3e f7 d9 28 bf
       0.546191 -0.88271457 0.33290875 -0.6595759
000120 ea ea 58 3f d3 66 a1 bc c4 65 20 bf de 2f e4 3e
       0.8473345 -0.01970235 -0.6265528 0.4456777
000130 db 41 f1 3e b4 09 e1 3e 02 ef 84 bc 2e 57 b1 3d
       0.47120556 0.43952715 -0.016227249 0.08659206
000140 d4 c9 a1 be 4a 35 34 3f 31 4b a5 be 8c f3 d2 be
       -0.31599295 0.7039381 -0.3228393 -0.41201437
000150 44 2d fd 3e 94 13 75 bf bf d0 3e be 1a 36 2e 3f
       0.49448597 -0.95733 -0.18634318 0.680513
000160 76 33 3f bf cb ba a2 3f d8 5f 0d 3e d0 65 83 3e
       -0.746879 1.2713255 0.13806093 0.25663614
000170 f1 40 9e bd 2e b3 8c 3e aa 6e 9d be 12 9b d8 be
       -0.0772723 0.27480453 -0.30748492 -0.4230581
000180 aa a1 a3 3e fa f5 65 3e 5c 5e c1 3d 18 38 aa 3e
       0.31959277 0.22457114 0.09441826 0.3324592
000190 fd 9b b7 3e e6 85 d9 3d 02 21 33 3e d4 f1 12 bc
       0.35861197 0.10621242 0.1749306 -0.008968789
0001a0 e7 9b cd be b9 d0 01 3f f5 91 b8 bd 31 34 e7 3e
       -0.40158007 0.5070911 -0.09012214 0.45157006
0001b0 36 83 9a 3e 3a 15 9a be f6 33 3f be 02 ef 2e be
       0.3017823 -0.3009432 -0.18672165 -0.17083362
0001c0 cf 1e 4a 3e 41 a0 24 3f 1c d4 f1 3d 2d 1a 54 3f
       0.19738315 0.6430703 0.11808035 0.8285244
0001d0 75 62 15 bf fc 69 a4 bf 38 83 9c be bb e0 26 bd
       -0.5835336 -1.2844844 -0.30568862 -0.040741663
0001e0 d4 2e fc bd d4 83 d2 bc 7c c5 3d be 03 5f 20 be
       -0.12313619 -0.025697626 -0.18532366 -0.15661244
0001f0 45 1b b2 3e 3c 22 6a 3f 07 61 94 3b 51 1c 40 be
       0.3478643 0.9145849 0.004528168 -0.18760802
000200 42 33 64 3d c1 ac 8a be 3c 88 da 3d 02 a9 88 be
       0.055712946 -0.27084926 0.10670516 -0.26691443
000210 10 16 cd be 60 25 b0 be aa 84 9c be 84 cc f2 be
       -0.40055895 -0.34403515 -0.30569965 -0.47421658
000220 d2 c8 21 be 75 ba 82 3e 97 c3 b8 be 67 6d 84 bc
       -0.15799263 0.2553288 -0.36086723 -0.016165448
000230 d0 54 7a 3f 23 8b da 3d 5b 69 84 3f f2 b6 71 bf
       0.97785664 0.106710695 1.0344652 -0.9441978
000240 fa 26 8f 3f 5e a0 c8 3e f0 77 d3 3d c4 58 32 be
       1.118377 0.3918485 0.10325611 -0.17416674
000250 f0 b1 c0 bd ae 21 8a 3e 23 68 00 3f 8c d9 b3 be
       -0.09408939 0.2697882 0.501589 -0.35126913
000260 f5 b4 03 3f 42 5d e5 3d 02 4e 8c 3f ec c3 49 bf
       0.51447994 0.11199428 1.0961306 -0.7881458
000270 e6 b4 9c 3e 73 a5 42 3c 0a 34 d9 bd f7 4b 10 be
       0.30606765 0.0118802665 -0.10605629 -0.14091478
000280 ed 41 af be 43 06 4d be c1 0c 9f be 6f c4 bb bd
       -0.34229985 -0.2002192 -0.31064418 -0.09168326
000290 9e a2 d6 be 77 eb d0 be e4 b4 b9 be 65 9f c0 be
       -0.41920942 -0.40804645 -0.3627082 -0.37621608
0002a0 94 b8 94 be 2f 5b ee be 68 cc 11 3e fa a7 ac 3e
       -0.29047072 -0.46553943 0.14238131 0.33721906
0002b0 c5 5a f0 3d 66 7a 04 3e 40 3f 2f 3f c0 7e 3d be
       0.11736063 0.12937316 0.68455887 -0.18505383
0002c0 3b 45 73 3f 98 0d 92 bd 09 ec b0 3e 58 6d 0b 3f
       0.9502751 -0.07131499 0.3455508 0.5446372
0002d0 59 6c 74 3d 24 f9 64 3f 87 28 8f 3e 61 3e 4d 3f
       0.05967364 0.8944266 0.27960607 0.8017331
0002e0 3d 2a b2 bc e5 2e 68 bf 79 bf 24 3f ad 40 82 bf
       -0.021748656 -0.90696555 0.64354664 -1.0175987
0002f0 be e5 ba 3e 88 25 26 bc 4b 13 4b 3e ec f7 2d 3e
       0.36503404 -0.010140784 0.19831578 0.16989106
000300 bc 0c 39 3e 74 6f bf 3e e9 c1 8f be 7b 19 ae be
       0.18071264 0.3738972 -0.2807763 -0.34003815
000310 86 82 78 be 10 df 96 be 57 8c aa be de 10 97 be
       -0.2426854 -0.29467058 -0.33310196 -0.29505056
000320 23 d8 5f be 19 44 97 be 86 df 50 be c0 82 a9 be
       -0.21859793 -0.29544142 -0.20397767 -0.33107567
000330 a4 0f c4 bd 88 f5 5a be f3 c0 b5 bd 6e c7 40 bf
       -0.09573296 -0.21382725 -0.08874693 -0.75304306
000340 5f 87 91 be 55 39 c2 be 7a f9 a8 be 3d ef 28 3f
       -0.28423592 -0.37934366 -0.33002836 0.6599005
000350 39 dd 64 be 35 2e 43 3f 2d 7f bd 3e f6 ff 8d be
       -0.22350015 0.7624238 0.3701109 -0.27734345
000360 c9 e4 aa 3e f9 67 fc 3e 09 d0 5a 3e 55 27 54 3d
       0.33377674 0.49298075 0.21368422 0.051795322
000370 77 4c f5 be dc cb 9c be 87 ee 18 3d e0 ab 1d 3f
       -0.479099 -0.30624282 0.037336852 0.61590385
000380 e3 76 90 3d 22 b3 b2 3e e5 a9 ed 3c 4f 75 e7 bc
       0.07053926 0.34902292 0.029011676 -0.02825418
000390 a7 fa 82 bd 61 4b c3 bd 21 5e 15 3e 5f 86 b4 bd
       -0.063954644 -0.09535862 0.14586689 -0.08814692
0003a0 61 89 50 3e e9 f0 04 3e 5a ce 9a 3e a4 b6 2b 3d
       0.20364906 0.12982525 0.3023556 0.041922227
0003b0 2c f2 88 3e ca ae f6 3d 7a d2 06 be ea c2 a6 3d
       0.26747262 0.12045057 -0.13166228 0.08142646
0003c0 73 33 dc bd 02 84 6f be 2c 70 33 bf 2a 42 63 3d
       -0.10752001 -0.233902 -0.70093036 0.05548302
0003d0 99 1b 37 3f cd fe 0a 3e 64 13 b9 3f 94 ac 3f 3f
       0.71526486 0.13573761 1.4459043 0.7487271
0003e0 1e 73 02 bc bc 6f ec 3d 2b 94 d8 3e 81 01 34 3f
       -0.007962016 0.11544749 0.42300543 0.70314795
0003f0 e3 0a 8b 3f 98 79 ea be 96 4b 04 bf 21 26 50 3e
       1.0862697 -0.45795894 -0.51677835 0.20327045

mlp.mlp.fc1.0.bias f4 [64]
000000 25 13 85 3e 73 9c c8 be 76 b0 4e be 5a 45 a6 be
       0.2599117 -0.3918186 -0.20184502 -0.32474786
000010 6d 46 d0 bd 7d 8c 50 bf 51 d5 af 3e e0 e3 d4 bd
       -0.10169683 -0.8146437 0.34342435 -0.10395026
000020 65 f5 dc bd b5 51 f7 3e 89 86 fe 3e 21 0e c4 3e
       -0.10788993 0.48304525 0.49712017 0.3829203
000030 67 10 5f 3c 2c b1 c9 3e 67 89 6a 3d 01 dd a3 3e
       0.0136147505 0.39392984 0.057259943 0.3200455
000040 d2 fb 16 bf 63 aa 30 bf d6 b6 1b bf 57 55 28 bd
       -0.58978 -0.6900999 -0.6082586 -0.04109701
000050 be e3 16 bf 3b 19 92 be 7a d1 cc 3e d2 87 1f bf
       -0.58941257 -0.28534874 0.40003568 -0.6231662
000060 4c 58 9f be 98 c9 57 bf 91 88 a5 bd ee 8c f2 be
       -0.31122053 -0.8429198 -0.080826886 -0.47373146
000070 bd 8c 71 bf b7 b2 54 3d 4c f4 33 bf f6 21 41 3e
       -0.94355375 0.05192825 -0.7029464 0.18860611
000080 08 d1 9c be 9e 0b 9c 3e 1d c3 2c 3e f8 c8 82 3e
       -0.30628228 0.30477613 0.16871305 0.25543952
000090 c4 b4 57 bf 13 20 88 bf 5e 86 60 bc 3d 9b 02 bf
       -0.842602 -1.0634788 -0.013703911 -0.51018125
0000a0 fc fc c9 be 83 ba 8c 3e c5 ac 04 bf 0f 4f 3f bf
       -0.39450824 0.27486047 -0.51826125 -0.7473001
0000b0 b7 e6 69 bf 78 2e ab 3e a2 e1 c2 bd e0 23 67 bf
       -0.9136767 0.3343389 -0.09515692 -0.90289116
0000c0 1c 54 72 be 81 a8 21 3d fd fc e9 be 6e 4c 80 3e
       -0.23664898 0.03946734 -0.45700827 0.2505831
0000d0 1d be f9 be c3 9d 23 3d bb 62 48 3e 1f f5 16 bf
       -0.48777857 0.039945375 0.19568913 -0.58967775
0000e0 ce b3 d1 be 40 4e c0 be 2f e4 93 3d 97 77 46 be
       -0.40957493 -0.375597 0.07221257 -0.19381557
0000f0 9a f6 48 bf 62 b5 0a 3f 80 22 d9 bd 11 01 6f bf
       -0.78501284 0.5418302 -0.106022835 -0.93361

mlp.mlp.fc1.2.weight f4 [64]
000000 f2 6c 8b 3f c8 f6 86 3f eb e9 81 3f 9a ab 8d 3f
       1.0892622 1.0544062 1.0149511 1.1067994
000010 ed f0 97 3f 21 ce 85 3f 0a 7f 67 3f da 68 ae 3f
       1.18704 1.045353 0.9042822 1.3625748
000020 92 94 54 3f fd e0 26 3f be f8 2f 3f b2 6d c0 3f
       0.830392 0.65187055 0.68738925 1.5033476
000030 24 15 7c 3f 14 42 47 3f 9d 9d 59 3f 7f 28 6d 3f
       0.9846976 0.778352 0.85006124 0.9263992
000040 a0 da 7a 3f fd c0 95 3f 16 27 88 3f 53 29 83 3f
       0.97989845 1.169952 1.0636928 1.0246986
000050 44 8c 6d 3f 7f 7a a7 3f ec 3f a2 3f a3 92 a0 3f
       0.92792153 1.3084258 1.2675757 1.254475
000060 c9 95 32 3f 96 7c 74 3f 32 dc 50 3f 4a 25 1f 3f
       0.69759804 0.95502603 0.8158599 0.62166274
000070 1d c9 d5 3f 40 f1 82 3f 23 87 6d 3f 3f d9 41 3f
       1.6702 1.0229874 0.9278433 0.75722116
000080 38 92 d0 3e 8a f5 ea 3e 63 1d 80 3f 36 2e 78 3f
       0.40736556 0.45890456 1.0008968 0.9694551
000090 5b c2 8a 3f 58 dc 66 3f ba 6d 51 3f c3 dd a2 3f
       1.0840563 0.9017997 0.81808054 1.2723926
0000a0 bb ad 8a 3f 5d 8d 63 3f 0a ea c3 3f 78 68 9e 3f
       1.0834268 0.8888758 1.5305798 1.2375631
0000b0 8f 6e 80 3f f7 45 6a 3f f9 64 5a 3f bb 04 21 3f
       1.003374 0.9151301 0.8531032 0.62897843
0000c0 a8 ca ac 3f ac 22 43 3f df 9c 40 3f 28 47 8d 3f
       1.3499346 0.7622478 0.75239366 1.103734
0000d0 d3 ee 75 3f 3d 4e 4d 3f e2 48 b2 3f f6 fa 45 3f
       0.9606754 0.8019751 1.3928492 0.7733606
0000e0 a2 fb 93 3f 2a ce 8a 3f b3 ec 5f 3f 9b 3f 9f 3f
       1.1561167 1.0844166 0.8747055 1.2441286
0000f0 5e eb f0 3e bd 9d 9c 3f 30 55 8e 3f 38 d0 b9 3f
       0.4705457 1.2235638 1.1119747 1.4516668

mlp.mlp.fc1.2.bias f4 [64]
000000 c8 52 31 bf 0e 88 96 3d 43 d3 32 3e 73 12 a6 3e
       -0.6926694 0.07350169 0.17463402 0.3243595
000010 53 6f a6 3e e1 8b 33 3f b4 35 5b be 98 5c 62 bb
       0.3250681 0.70135313 -0.21407205 -0.0034540053
000020 78 d1 14 be 80 32 af 3d 62 9e 2b 3d 54 6f 4c be
       -0.14533031 0.08554554 0.041899092 -0.19964343
000030 6c b4 ee 3e 2f f7 e5 3c 2e 37 c5 3e 22 aa 35 bf
       0.46622026 0.028071968 0.3851866 -0.7096273
000040 46 06 80 3e a4 4c 18 3f b1 1c 2d be 8d a3 ae bc
       0.25004786 0.59491944 -0.16905476 -0.021318221
000050 a4 49 ce be 4a 27 0f 3f 3d 9e 04 3e 8e 71 88 3e
       -0.40290558 0.55919325 0.12950988 0.26649135
000060 26 38 d0 bd fb 25 d9 3e 09 2b d4 3e 92 d3 06 3f
       -0.101669595 0.4241179 0.41439083 0.5266658
000070 88 d5 66 be bd 52 db be 94 df 3d 3d 0e 82 33 3f
       -0.22542393 -0.42836562 0.0463558 0.7012032
000080 56 cd 52 3f 2f df 72 3e b1 45 0e 3f ee 08 3b 3d
       0.8234457 0.2371795 0.5557509 0.045662813
000090 92 38 e2 3e 3a fa 1b 3f b0 4a 47 3e d5 24 65 3e
       0.44183785 0.6092869 0.19462085 0.22377332
0000a0 a9 25 7b 3e e4 c7 22 3e 43 17 d4 be c4 f9 4b 3f
       0.24526085 0.15896565 -0.41423997 0.7967799
0000b0 ca 2a 1b 3f 88 4c 28 3e c1 86 9a 3e 01 2e d8 bc
       0.60612166 0.16435444 0.30180934 -0.026389124
0000c0 1d 3f 8a 3c 24 e8 87 3f 61 2d a8 3e 3f c9 44 3e
       0.016875798 1.0617719 0.3284712 0.19217394
0000d0 0f d1 35 3d 19 51 90 3f b6 e2 ca be 15 f4 c8 3e
       0.044388827 1.1274749 -0.39626092 0.3924872
0000e0 96 12 1c 3f 0e ef 45 3e 7c 4a b4 3e 58 47 c1 3e
       0.6096586 0.19329473 0.35213077 0.37749743
0000f0 00 3f 52 3f 7b 48 53 be a1 3f 91 bd 72 1f a9 3e
       0.8212738 -0.20633118 -0.070922144 0.33031803

mlp.mlp.fc_h.0.weight f4 [64, 64]
000000 1c cd 5a bd a2 31 a8 3d 7a f8 21 3e b1 3a 17 3d
       -0.053418264 0.08212592 0.15817443 0.036921207
000010 66 f0 34 bd 81 f8 52 3e 64 e6 b3 bd 81 e2 80 bd
       -0.044174574 0.20602609 -0.08784178 -0.06293202
000020 a9 c0 f3 be 29 4d af bd 34 61 ea bd 59 1e 8a 3e
       -0.47607926 -0.08559639 -0.11444321 0.26976278
000030 d3 62 8c be 2e ca 19 be fa 46 4c 3e 9b f8 3d be
       -0.27419147 -0.15018532 0.1994895 -0.18551867
000040 42 53 18 be d2 b4 91 3e 06 a0 ad 3e 30 a0 a7 3a
       -0.1487551 0.28458267 0.3391115 0.0012788828
000050 8d 87 75 3e 24 0e 9b 3d 1c f8 8a bc 53 24 03 be
       0.2397749 0.075710565 -0.01696401 -0.12806825
000060 27 3b a1 3c ba 47 b6 3e 8c 23 ca bd 2e 42 6c 3c
       0.019681526 0.35601598 -0.09870061 0.014420075
000070 c5 0c 98 3d a1 61 36 3c 33 ee b0 3d 54 99 d3 ba
       0.074243106 0.011131675 0.08639183 -0.0016143718
000080 81 aa 13 3c f5 27 8f bd 36 95 01 be eb 63 c7 bb
       0.009012819 -0.06990043 -0.12654576 -0.006084909
000090 0d 62 28 3e 9f 1a 92 bd 7f d0 85 3e 89 d6 9f be
       0.16443653 -0.07133984 0.26135632 -0.31218365
0000a0 ec c3 42 be 57 bf e6 3c 71 70 06 be 31 2c be 3d
       -0.19020051 0.02816741 -0.1312883 0.092857726
0000b0 bb d5 3a 3e 98 96 02 3a b7 f7 73 be 4c d9 b2 bc
       0.18245594 0.00049815467 -0.23824964 -0.02183213
0000c0 8d cb 88 3b 9a 46 d6 bb 2b 92 4b 3c d6 31 73 3c
       0.004174656 -0.006539178 0.012424986 0.014843425
0000d0 37 d7 33 be 67 8b 1d bd 01 a6 0a 3e 1e b2 ab be
       -0.17562567 -0.038463023 0.13539888 -0.3353433
0000e0 8e 71 7b bd d8 32 df 3d 33 bc 97 3e b2 2b 44 be
       -0.06138759 0.108983696 0.29635772 -0.19157293
0000f0 56 10 cd 3e 23 39 b3 3d a2 52 a1 be 01 96 20 3e
       0.40051526 0.08751132 -0.31508356 0.15682222
000100 3d 59 5e 3e 7c 2e 7e 3e 4f 7f ad bd 27 8f 6d be
       0.21713729 0.2482242 -0.08471548 -0.2319914
000110 27 38 d8 bd b8 3e fa bd 13 67 09 be 39 58 bc 3b
       -0.10557585 -0.12218994 -0.13418226 0.0057478216
000120 12 7e e2 bd a1 db 03 be 2a 5a ff bd c8 38 07 be
       -0.11059202 -0.1287675 -0.12468369 -0.13205254
000130 d8 0b 72 3d 62 81 69 be c6 18 fc 3c b3 a1 48 be
       0.059093326 -0.22803262 0.030773532 -0.19592933
000140 5d 15 f6 3d 13 49 2f be 36 57 26 3e 2b 1f 91 3d
       0.120157935 -0.1711772 0.16244206 0.07086023
000150 01 76 9f bd 69 cb 32 3e 0f 0f f3 3e 20 16 95 be
       -0.07786179 0.17460407 0.47472426 -0.29118443
000160 6a 0a 5d 3d 9e a0 f3 bd d8 6b 46 be 63 19 3d bd
       0.05396501 -0.1189587 -0.19377077 -0.04616679
000170 72 fd 0b bd 04 c6 49 bc 5b 63 90 3d 88 94 a3 bd
       -0.03417725 -0.012315277 0.070502006 -0.079873145
000180 1f a3 82 3e eb ee 2f be bf a4 f3 3d 75 15 9a bd
       0.25515077 -0.17180984 0.11896657 -0.07523624
000190 44 fb 91 be 9c ae 89 3d be 9f 76 bd f1 c5 ad bb
       -0.28512013 0.06722757 -0.060210936 -0.0053031375
0001a0 cb 3d 17 be f9 30 5b 3e 34 ff 17 3d 82 5a 42 3e
       -0.14769666 0.214054 0.037108615 0.18979838
0001b0 4a b5 37 3e fa ba 85 bd 40 7d 4b bd b2 c3 6d be
       0.1794025 -0.065298036 -0.049679995 -0.23219183
0001c0 a3 a9 53 3e 5c 11 bf 3c d5 ec f2 3d 81 76 24 be
       0.2067018 0.023323707 0.118615784 -0.1606083
0001d0 b4 80 dd bb 04 ca 47 be 46 7e 16 be 95 18 a0 3c
       -0.0067597274 -0.19510657 -0.14696607 0.019542972
0001e0 57 b8 be be ae 4f 65 3e f1 0f 05 be 3f 2a d4 3e
       -0.37250015 0.22393677 -0.12994362 0.4143848
0001f0 3d 65 24 3e 41 60 38 3e c7 85 be 3e be 75 0d 3e
       0.16054244 0.18005468 0.3721144 0.13814446
000200 45 f0 8b bd d4 b5 59 3e e5 2e 9b 3e 78 22 ab 3c
       -0.06832937 0.21260768 0.30309215 0.02089046
000210 39 d6 c2 3d 18 75 85 3e 4b 21 30 3d cb d3 f2 bd
       0.09513516 0.26065898 0.0430005 -0.118568026
000220 83 3e e3 bc 18 14 33 be 6a 31 15 3e 71 30 24 3e
       -0.027739769 -0.17488134 0.14569631 0.16034104
000230 82 3e b7 bd de dd 9c 3e c9 81 6d 3e 89 cf b1 bb
       -0.08947469 0.3063802 0.2319404 -0.0054263514
000240 f6 0d 35 3d 81 d1 aa be 1e 97 ca 3d ff a8 0c be
       0.044202767 -0.33362964 0.098921046 -0.13736342
000250 e4 84 1c 3c 64 97 15 be d3 5f 1f be 92 f1 e0 3d
       0.009553168 -0.14608532 -0.15563898 0.10983576
000260 ce f5 66 3e ac 4f fe 3c 91 c1 32 be e9 3c dc 3e
       0.22554705 0.03104385 -0.17456652 0.4301522
000270 05 82 d2 3d 78 df 00 3c 89 1a 2b 3e 3d 81 b4 3d
       0.102787055 0.007865779 0.16709341 0.08813713
000280 d9 57 a9 3d 39 14 fb 3d 25 6a 4b 3e 7c 2f 7a 3e
       0.08268709 0.122597165 0.1986471 0.24432176
000290 6b 07 89 be 1e 04 3d bd e9 c6 41 3d 75 fe 11 be
       -0.26763472 -0.046146505 0.047308836 -0.14257224
0002a0 3d 87 db bd 21 34 cf 3c e4 27 4b 3e 78 8d 32 3e
       -0.10719154 0.025293412 0.19839436 0.17436779
0002b0 9e 0e 64 be d4 d1 6e 3e 4c c6 9c 3d 6a 61 95 be
       -0.22271201 0.2332223 0.076550096 -0.29175884
0002c0 9f 46 d6 3d 1a 52 b9 3e d9 60 21 3e 0f 79 1c 3d
       0.10462689 0.3619545 0.157596 0.038201388
0002d0 32 67 30 3e 31 ae ca bd 95 af 9e bd c1 f9 cf 3d
       0.17226866 -0.098965056 -0.07748333 0.10155059
0002e0 3d 0d 7b 3e 19 b5 90 3e 4f 79 8c be 28 32 98 3d
       0.24516769 0.28263167 -0.274363 0.074314415
0002f0 60 c3 c0 bd 2e e8 b3 3d bd b8 73 be dc 38 96 bd
       -0.09412265 0.08784519 -0.23800941 -0.07335064
000300 97 f7 02 3e 15 df 27 3d f1 6b 15 3e ed 64 3c be
       0.1278976 0.040984232 0.14591958 -0.18397875
000310 1c 15 22 3e 0a 38 5f 3a 3f a9 c5 3d 72 ba 4f bc
       0.15828365 0.00085151254 0.09651422 -0.012678729
000320 38 9e 0b be 27 71 8d be 82 3a ca bd a2 57 ab 3e
       -0.13634574 -0.2762539 -0.09874441 0.33465296
000330 90 12 0b be 62 fc d2 3c 1b 0d ba bd 73 3b a7 3d
       -0.135813 0.025755111 -0.09084531 0.08165636
000340 7e 2c 0f be 94 3b dd bd ee 65 a8 3c df 07 8d bc
       -0.13981816 -0.10802379 0.020556416 -0.017215667
000350 a1 dd 0c 3e b0 54 8b be 1e 4f 35 3d 6a 5c cd 3d
       0.1375642 -0.2721305 0.044264905 0.10027392
000360 6e 33 89 bc a5 1d 50 be b9 b8 06 3e 2f 04 ad be
       -0.016748156 -0.20323808 0.13156404 -0.33792254
000370 51 cb 33 be cf ef b0 bd cd 2e 84 3e c1 90 2b bc
       -0.17558028 -0.0863949 0.25816956 -0.010471524
000380 c2 80 fd be 4c e9 84 bd 56 24 42 3d cf 22 f5 bd
       -0.49512297 -0.0648981 0.047397934 -0.1196953
000390 38 ed fe bd d2 5f cb 3c df 38 99 be a5 0d 36 3d
       -0.1244759 0.024825964 -0.29926202 0.044446606
0003a0 8f 85 6e 3e 0a 66 04 3d 8c a8 35 3e c9 83 fc bd
       0.23293136 0.032323875 0.17740077 -0.123298235
0003b0 09 cb 65 3e 0e 02 04 be a7 2c 8e 3d d7 33 27 3e
       0.22440733 -0.12891409 0.069421105 0.16328369
0003c0 f9 58 48 be b5 90 83 bc b0 a9 a3 3d bb 05 a8 be
       -0.1956519 -0.016060213 0.0799135 -0.32816872
0003d0 74 76 e3 3e 7e 84 7e be 6b ee 91 bd e5 d2 9c bd
       0.4442631 -0.2485523 -0.07125553 -0.076574124
0003e0 26 79 c1 3d fb 00 55 3e ea 0b 97 bd 3b 50 6c be
       0.09446935 0.20801155 -0.07375319 -0.2307748
0003f0 da a4 a5 3e bb fc f1 3c 30 bb b5 3d a3 2f 98 bd
       0.32352334 0.029539457 0.08873594 -0.07430961

mlp.mlp.fc_h.0.bias f4 [64]
000000 00 00 00 00 00 00 00 00 00 00 00 00 00 00 00 00
       0.0 0.0 0.0 0.0
000010 00 00 00 00 00 00 00 00 00 00 00 00 00 00 00 00
       0.0 0.0 0.0 0.0
000020 00 00 00 00 00 00 00 00 00 00 00 00 00 00 00 00
       0.0 0.0 0.0 0.0
000030 00 00 00 00 00 00 00 00 00 00 00 00 00 00 00 00
       0.0 0.0 0.0 0.0
000040 00 00 00 00 00 00 00 00 00 00 00 00 00 00 00 00
       0.0 0.0 0.0 0.0
000050 00 00 00 00 00 00 00 00 00 00 00 00 00 00 00 00
       0.0 0.0 0.0 0.0
000060 00 00 00 00 00 00 00 00 00 00 00 00 00 00 00 00
       0.0 0.0 0.0 0.0
000070 00 00 00 00 00 00 00 00 00 00 00 00 00 00 00 00
       0.0 0.0 0.0 0.0
000080 00 00 00 00 00 00 00 00 00 00 00 00 00 00 00 00
       0.0 0.0 0.0 0.0
000090 00 00 00 00 00 00 00 00 00 00 00 00 00 00 00 00
       0.0 0.0 0.0 0.0
0000a0 00 00 00 00 00 00 00 00 00 00 00 00 00 00 00 00
       0.0 0.0 0.0 0.0
0000b0 00 00 00 00 00 00 00 00 00 00 00 00 00 00 00 00
       0.0 0.0 0.0 0.0
0000c0 00 00 00 00 00 00 00 00 00 00 00 00 00 00 00 00
       0.0 0.0 0.0 0.0
0000d0 00 00 00 00 00 00 00 00 00 00 00 00 00 00 00 00
       0.0 0.0 0.0 0.0
0000e0 00 00 00 00 00 00 00 00 00 00 00 00 00 00 00 00
       0.0 0.0 0.0 0.0
0000f0 00 00 00 00 00 00 00 00 00 00 00 00 00 00 00 00
       0.0 0.0 0.0 0.0

mlp.mlp.fc_h.2.weight f4 [64]
000000 00 00 80 3f 00 00 80 3f 00 00 80 3f 00 00 80 3f
       1.0 1.0 1.0 1.0
000010 00 00 80 3f 00 00 80 3f 00 00 80 3f 00 00 80 3f
       1.0 1.0 1.0 1.0
000020 00 00 80 3f 00 00 80 3f 00 00 80 3f 00 00 80 3f
       1.0 1.0 1.0 1.0
000030 00 00 80 3f 00 00 80 3f 00 00 80 3f 00 00 80 3f
       1.0 1.0 1.0 1.0
000040 00 00 80 3f 00 00 80 3f 00 00 80 3f 00 00 80 3f
       1.0 1.0 1.0 1.0
000050 00 00 80 3f 00 00 80 3f 00 00 80 3f 00 00 80 3f
       1.0 1.0 1.0 1.0
000060 00 00 80 3f 00 00 80 3f 00 00 80 3f 00 00 80 3f
       1.0 1.0 1.0 1.0
000070 00 00 80 3f 00 00 80 3f 00 00 80 3f 00 00 80 3f
       1.0 1.0 1.0 1.0
000080 00 00 80 3f 00 00 80 3f 00 00 80 3f 00 00 80 3f
       1.0 1.0 1.0 1.0
000090 00 00 80 3f 00 00 80 3f 00 00 80 3f 00 00 80 3f
       1.0 1.0 1.0 1.0
0000a0 00 00 80 3f 00 00 80 3f 00 00 80 3f 00 00 80 3f
       1.0 1.0 1.0 1.0
0000b0 00 00 80 3f 00 00 80 3f 00 00 80 3f 00 00 80 3f
       1.0 1.0 1.0 1.0
0000c0 00 00 80 3f 00 00 80 3f 00 00 80 3f 00 00 80 3f
       1.0 1.0 1.0 1.0
0000d0 00 00 80 3f 00 00 80 3f 00 00 80 3f 00 00 80 3f
       1.0 1.0 1.0 1.0
0000e0 00 00 80 3f 00 00 80 3f 00 00 80 3f 00 00 80 3f
       1.0 1.0 1.0 1.0
0000f0 00 00 80 3f 00 00 80 3f 00 00 80 3f 00 00 80 3f
       1.0 1.0 1.0 1.0

mlp.mlp.fc_h.2.bias f4 [64]
000000 00 00 00 00 00 00 00 00 00 00 00 00 00 00 00 00
       0.0 0.0 0.0 0.0
000010 00 00 00 00 00 00 00 00 00 00 00 00 00 00 00 00
       0.0 0.0 0.0 0.0
000020 00 00 00 00 00 00 00 00 00 00 00 00 00 00 00 00
       0.0 0.0 0.0 0.0
000030 00 00 00 00 00 00 00 00 00 00 00 00 00 00 00 00
       0.0 0.0 0.0 0.0
000040 00 00 00 00 00 00 00 00 00 00 00 00 00 00 00 00
       0.0 0.0 0.0 0.0
000050 00 00 00 00 00 00 00 00 00 00 00 00 00 00 00 00
       0.0 0.0 0.0 0.0
000060 00 00 00 00 00 00 00 00 00 00 00 00 00 00 00 00
       0.0 0.0 0.0 0.0
000070 00 00 00 00 00 00 00 00 00 00 00 00 00 00 00 00
       0.0 0.0 0.0 0.0
000080 00 00 00 00 00 00 00 00 00 00 00 00 00 00 00 00
       0.0 0.0 0.0 0.0
000090 00 00 00 00 00 00 00 00 00 00 00 00 00 00 00 00
       0.0 0.0 0.0 0.0
0000a0 00 00 00 00 00 00 00 00 00 00 00 00 00 00 00 00
       0.0 0.0 0.0 0.0
0000b0 00 00 00 00 00 00 00 00 00 00 00 00 00 00 00 00
       0.0 0.0 0.0 0.0
0000c0 00 00 00 00 00 00 00 00 00 00 00 00 00 00 00 00
       0.0 0.0 0.0 0.0
0000d0 00 00 00 00 00 00 00 00 00 00 00 00 00 00 00 00
       0.0 0.0 0.0 0.0
0000e0 00 00 00 00 00 00 00 00 00 00 00 00 00 00 00 00
       0.0 0.0 0.0 0.0
0000f0 00 00 00 00 00 00 00 00 00 00 00 00 00 00 00 00
       0.0 0.0 0.0 0.0

mlp.mlp.fc2.0.0.weight f4 [64, 64]
000000 7c 5d b7 3e 12 99 b9 3d d4 0c b5 bd 95 57 8a bf
       0.3581351 0.09062399 -0.088403374 -1.0807978
000010 e8 2e d9 3e 3b a4 09 be ff 8d 46 3e 9e 0e 46 be
       0.424186 -0.13441555 0.19390105 -0.19341514
000020 a2 cc 57 3d e0 cb a1 3e f5 e9 ed 3e 40 39 46 bf
       0.052685387 0.31600857 0.46467558 -0.77431107
000030 31 aa 22 bf 6c ce 3a bf a6 bd c0 be 35 fd 33 3e
       -0.6354094 -0.72971225 -0.3764469 0.1757706
000040 5d ee 23 bf cf a4 f6 be e7 f9 90 3e db b3 81 3f
       -0.6403559 -0.48172614 0.2831566 1.0133013
000050 42 23 0f be 26 67 0e bf 8f 8c 2a 3f 53 02 d8 bd
       -0.13978294 -0.5562614 0.66620725 -0.10547318
000060 9b d2 ce bf f6 99 a3 3e 1e c6 b9 3e 35 86 b0 3d
       -1.6158022 0.319534 0.36283964 0.08619348
000070 81 95 04 bf 03 b9 c2 3e b7 e5 0c 3e 7c 04 1b 3e
       -0.51790625 0.38031778 0.13759504 0.1513843
000080 58 54 02 bf 6b f5 83 be 53 44 40 bf 4e 5a 73 3f
       -0.5090995 -0.25773177 -0.75104254 0.9505967
000090 b5 9b 12 bf 33 b7 8d bf a3 ae 73 3f f0 a7 85 3e
       -0.5726884 -1.1071533 0.9518835 0.2610469
0000a0 15 06 87 be fd d5 df bf 63 71 a3 be 0d 44 4e bf
       -0.26371828 -1.7487179 -0.31922445 -0.8057259
0000b0 a8 b2 25 bf 45 82 81 3f e4 a5 72 bf f3 60 09 bf
       -0.6472573 1.011788 -0.9478438 -0.5366356
0000c0 cb ef 13 bf ce 03 77 3e a9 f6 9b be 3e ac aa 3e
       -0.5778777 0.24122545 -0.30461624 0.33334535
0000d0 42 65 cb 3d bd d0 5a 3e 60 a7 8f 3f 6b 8c 45 3f
       0.09931423 0.2136869 1.1222954 0.77167386
0000e0 2a 76 8d 3f 09 3e 88 be cf 25 99 be f0 73 58 bd
       1.1051686 -0.2660983 -0.29911658 -0.05284494
0000f0 b9 2e dd 3e d4 28 80 be fd a5 97 bf e6 a8 91 be
       0.4319971 -0.2503115 -1.1847531 -0.28449172
000100 38 11 b0 3e 40 ab 70 3f c1 68 78 bd 7e 90 a1 3e
       0.34388137 0.94011307 -0.060646776 0.3155555
000110 85 89 b3 bd 18 d3 b3 be 2d 44 62 be 7a 4f 05 3e
       -0.08766464 -0.3512199 -0.2209632 0.13018599
000120 92 32 67 be 62 51 2e bf e0 ce 14 3e f0 00 07 bf
       -0.22577885 -0.6809293 0.14532042 -0.52735806
000130 3a 73 93 be 68 00 b6 3e a1 b5 09 bf 50 63 ce 3d
       -0.28798848 0.35547185 -0.5379277 0.10077536
000140 33 37 3c bf 39 bf b0 3e 23 ab 58 3f 9c f7 1d bf
       -0.7352173 0.3452089 0.84636134 -0.61705947
000150 7d c8 9d be 22 07 80 3f 45 ef d9 be 28 ad a8 bf
       -0.30817023 1.0002177 -0.4256536 -1.3177843
000160 b5 6a 0c 3f 18 60 52 3f dc 89 1e bf f4 02 92 bd
       0.5485032 0.8217788 -0.61929107 -0.071294695
000170 7b 73 14 3e ba 2d 31 be dc 0f 1f 3f d3 27 9b be
       0.14497177 -0.173026 0.62133574 -0.3030382
000180 c6 2c 5d 3d 04 fa ba bc 62 68 42 be c8 ec 13 3e
       0.053997777 -0.022824295 -0.18985131 0.14445794
000190 ec 5c b1 3e cd 95 21 bc 88 50 d7 be fd d7 38 3f
       0.34641206 -0.009862375 -0.42053628 0.7220457
0001a0 34 4b 12 be 65 3a 2b 3f 53 e0 3c 3f e6 ab 4c be
       -0.142865 0.6688598 0.7377979 -0.19987449
0001b0 66 9e 2b 3f 2d 30 10 bf f1 a6 79 bd ad de 4c bf
       0.6703857 -0.5632351 -0.060950223 -0.80027276
0001c0 0a 94 1d 3f a3 42 d6 be fe 70 73 be 16 22 8b be
       0.61554015 -0.41847715 -0.23773572 -0.27174443
0001d0 92 e8 d5 3e 9a 24 fe be b8 d1 8c be dd 67 20 bf
       0.41779 -0.496373 -0.27503753 -0.6265848
0001e0 0c ad 93 3d 15 9f 77 3e d5 5e 05 bf 9f 31 ae bd
       0.072107404 0.24181779 -0.5209783 -0.08505558
0001f0 73 90 eb be d1 7e ae 3d d3 17 bf be dd 02 98 3e
       -0.46008644 0.08520282 -0.37322864 0.29689685
000200 fb c6 58 bf 77 7f a4 be 11 66 3c be d9 d5 85 be
       -0.8467862 -0.32128498 -0.1839831 -0.26139715
000210 f2 85 8a 3e 66 94 7b 3f a8 38 90 be e2 6e 76 3e
       0.27055317 0.98273313 -0.28168225 0.24065736
000220 73 0a 31 3c d3 82 d6 3e 0c bc 2f 3e ab 66 47 bc
       0.010805714 0.41896686 0.17161578 -0.012170474
000230 4f ae 2e 3c ff 52 10 bf 96 c7 f6 3e cb b2 1c c0
       0.010661676 -0.5637664 0.48199147 -2.4484127
000240 1c a5 65 be 7f 15 39 bf 6e 5d 7b be f7 0f bc bd
       -0.22426265 -0.72298425 -0.2454736 -0.091827326
000250 b0 98 28 bf b9 2f 6a 3f 0d 5b 12 bf 34 3a 21 3f
       -0.6585798 0.9147907 -0.5717018 0.62979436
000260 db 43 84 bd ac 29 21 3e 48 78 4a bf 61 1c 8a 3f
       -0.06458255 0.15738553 -0.79089785 1.078991
000270 37 73 8c be b3 ee 84 bf b2 09 92 be e0 c7 0b 3f
       -0.27431652 -1.0385345 -0.28523022 0.5460186
000280 31 78 69 be 11 7b 08 3f c2 1f 4a be c6 33 34 3e
       -0.22799756 0.53312784 -0.19738677 0.17597875
000290 30 07 65 be a4 09 ab 3f 89 b6 16 bf 7c 05 54 bf
       -0.22366023 1.3362317 -0.58872277 -0.8282087
0002a0 92 fa af be 95 cd f9 3e e9 69 90 3e bb 78 76 3f
       -0.34370857 0.4878966 0.28205803 0.9627797
0002b0 06 bf 99 be b2 d1 7d be be 5a 84 3f 8f 34 35 3f
       -0.30028552 -0.24787024 1.0340192 0.70783323
0002c0 64 9f 4f 3f a9 b8 b8 3e fa a8 c7 3e 42 18 17 3f
       0.81102586 0.36078385 0.38996106 0.5902139
0002d0 98 99 26 3f bb eb e7 3e 16 50 96 bd 58 88 84 3f
       0.65078115 0.45297036 -0.07339494 1.0354109
0002e0 a3 ed 0b 3f 5b dd 9d bc 50 da cc 3e ad 4c de 3f
       0.5465948 -0.01927059 0.4001031 1.736715
0002f0 71 29 66 3e 4c 71 d2 be db a6 6e be 8a b1 1b 3e
       0.22476746 -0.41102064 -0.23305838 0.15204445
000300 9c 83 5c 3d cc 4d 57 3e 3d 97 24 3f 0f c5 40 3f
       0.05383645 0.21025771 0.6429327 0.7530069
000310 21 ca 3b 3f 75 28 0b 3e 78 3a f4 be ab 09 99 be
       0.733553 0.13589652 -0.47700858 -0.2989019
000320 ce ae e4 bd 1a ba 89 3e 8b d1 de 3e 99 e6 40 be
       -0.11166154 0.26899797 0.43519244 -0.18837966
000330 89 86 b2 3d 78 c4 bc be 9b 5c 67 3f b3 d1 07 bf
       0.08717067 -0.36868644 0.9037568 -0.5305435
000340 eb 19 01 bf 01 a4 81 3e c9 89 4f be 76 22 50 3e
       -0.5043017 0.25320438 -0.20267405 0.20325646
000350 e5 8a e2 3c d4 13 2e 3f b3 e7 14 bf 31 04 2a 3e
       0.02765412 0.67999005 -0.58166045 0.16603161
000360 1c 2b 0f bd a4 7e c1 bd ed 58 d8 be b2 04 14 3e
       -0.03495322 -0.09447983 -0.42255345 0.14454916
000370 39 56 4e bf a1 46 9a be b9 91 93 3e 4e 05 3d bd
       -0.80600315 -0.3013201 0.28822115 -0.046147637
000380 80 42 91 bd a2 f2 df be f8 78 ee be 1f c0 9e be
       -0.07092762 -0.43739802 -0.46576667 -0.31005952
000390 10 0b 8a 3e b5 6d 0e 3f 95 61 8a 3d 65 f4 ec be
       0.26961565 0.5563615 0.067568935 -0.46280208
0003a0 29 5e 8d 3f 59 19 c3 3d ce c8 0c 3d 8f 86 0d 3e
       1.104436 0.09526319 0.03437119 0.13820861
0003b0 4f 0d b9 bd 82 5a 7a bf 83 3e 23 be 82 7d 98 3d
       -0.090357415 -0.97794354 -0.15941815 0.07445814
0003c0 8e 05 8d 3d 61 18 ec be 6b af 25 3f ad 5e a9 be
       0.06885825 -0.4611235 0.6472079 -0.33080044
0003d0 52 42 e4 3e 2a 82 40 3e 0d cc ab 3e f7 f0 d6 3e
       0.44581848 0.18799654 0.33554116 0.41980717
0003e0 90 e2 16 bf 82 9c ba 3e 84 f9 35 bf 82 bb 0d bf
       -0.58939457 0.3644753 -0.71083856 -0.5536424
0003f0 86 80 28 be 59 13 6a 3e f2 46 87 3e 62 b1 65 3f
       -0.16455278 0.22858943 0.26421314 0.8972379

mlp.mlp.fc2.0.0.bias f4 [64]
000000 b2 b5 a4 be ec c9 12 bf e2 79 16 3d 8e 14 37 bd
       -0.32169873 -0.5733936 0.03673733 -0.044697337
000010 f5 cc 89 be 94 50 32 bf a2 ba 81 be 9f 1a 0a be
       -0.26914182 -0.696542 -0.25337702 -0.13486718
000020 ef 5f cc 3e 8f 79 b5 3d 81 99 fb be fb 43 09 3c
       0.39916942 0.08861076 -0.49140552 0.008378024
000030 74 a9 17 bf 69 06 2f bf 8e 51 24 3d b2 31 91 3e
       -0.5924294 -0.68369156 0.04011684 0.28358227
000040 b2 57 26 be 0f 7e f7 be 42 5f 6a 3e 18 02 f8 3e
       -0.1624439 -0.48338363 0.228879 0.48439097
000050 a7 ee 3f bf 64 ca fe bd af 08 83 3d 45 b9 48 bf
       -0.7497353 -0.12440947 0.06398141 -0.784077
000060 22 02 52 3d 15 fb 9f 3e 09 8a 31 3e f5 24 40 3e
       0.051271565 0.31246248 0.17337812 0.18764098
000070 34 3d 80 be 38 d7 cc bd e2 34 82 bd be a1 02 bf
       -0.25046694 -0.10001987 -0.06357743 -0.5102805
000080 c4 94 99 be ee 85 06 bd cb c5 84 3d bb 34 dc be
       -0.29996312 -0.03284257 0.064830385 -0.4300898
000090 98 39 c2 be 47 ba ec be 95 9e 63 be 5b 73 bc be
       -0.37934566 -0.46235868 -0.22228463 -0.3680676
0000a0 af 60 12 bf 5a 26 07 bf 1d 73 97 3c 3a 73 07 bf
       -0.5717878 -0.52792895 0.018487507 -0.52910197
0000b0 63 73 b0 be b6 c4 0a be 87 49 87 bf 0d ef 05 3e
       -0.34463033 -0.13551602 -1.0569314 0.13079472
0000c0 07 01 2b 3d 17 2b e8 bc 9a 23 3a bf a1 e8 c7 be
       0.041749027 -0.02834086 -0.72710574 -0.3904467
0000d0 5b a2 5c bf e4 c7 25 be 21 80 7d bf 77 bb 2e be
       -0.86185235 -0.16189533 -0.99023634 -0.170637
0000e0 12 8a 87 be eb de 9c be 89 d3 a6 be 23 92 a1 be
       -0.26472527 -0.30638823 -0.32583264 -0.31556806
0000f0 de e3 d4 be 04 20 39 bf 6c 34 8c 3e c8 80 d0 be
       -0.415801 -0.72314477 0.27383745 -0.40723252

mlp.mlp.fc2.0.2.weight f4 [64]
000000 90 59 cc 3f 07 b6 d4 3f b7 cc b9 3f 4f be 60 3f
       1.5964832 1.661805 1.4515599 0.8779039
000010 27 1d 92 3f 9e 80 d4 3f 9e 55 48 3f 35 a3 2f 3f
       1.1415147 1.6601751 0.7825564 0.6860841
000020 f3 05 f4 3f 75 f8 80 3f 1a 7f 86 3f 75 68 68 3f
       1.9064316 1.0075823 1.0507538 0.9078439
000030 6e cf af 3f 70 53 b3 3f b3 dc 01 3f 0c 02 93 3f
       1.3735178 1.4009838 0.50727385 1.1485
000040 e3 e2 77 3f 3d 34 93 3f ad bd b6 3f 2e de 9e 3f
       0.96830577 1.1500317 1.4276634 1.2411554
000050 e2 d7 78 3f 8a dc 8a 3f ef b5 a7 3f 52 de ab 3f
       0.9720441 1.0848553 1.3102397 1.3427222
000060 46 83 bb 3f 03 81 e7 3f 55 14 c6 3f 86 50 ea 3f
       1.4649436 1.8086246 1.5474955 1.8305824
000070 b3 df b9 3f e7 71 86 3f c3 fe b3 3f 26 81 9c 3f
       1.4521393 1.050351 1.4062122 1.2226913
000080 c9 86 56 3f 7f 90 3b 3f cd 0d b3 3f 87 3f 8f 3f
       0.83799416 0.7326736 1.3988587 1.1191262
000090 f8 6d ba 3f 9d 70 9c 3f 5e b9 bd 3f 02 7f cb 3f
       1.456481 1.2221867 1.4822195 1.5898135
0000a0 6b d7 84 3f de 9f 80 3f 5d 7b 15 40 d3 5b 77 3f
       1.037824 1.0048788 2.3356545 0.9662449
0000b0 f0 9f b2 3f c1 ff c3 3f 51 3d b2 3f cc 59 98 3f
       1.3955059 1.5312425 1.3924962 1.1902404
0000c0 30 bd 2f 3f 88 b0 8d 3f 47 9c 00 40 f2 d2 ac 3f
       0.6864805 1.1069498 2.0095384 1.3501875
0000d0 b0 5f fe 3f 6e ff 8e 3f 08 88 ad 3f ec c1 8c 3f
       1.9872952 1.1171701 1.3557138 1.099668
0000e0 90 77 b7 3f fb ec 9f 3f 6e a4 a6 3d 44 45 00 be
       1.4333363 1.2494196 0.08136831 -0.12526423
0000f0 6b 63 c2 3e 51 76 a2 3f 37 50 48 3f de 6d 6b 3f
       0.37966475 1.2692357 0.782474 0.9196452

mlp.mlp.fc2.0.2.bias f4 [64]
000000 bd 0f 24 bf f2 ce 53 bf 3c 3b b1 3d 1a 06 35 be
       -0.64086515 -0.8273765 0.08653876 -0.17678109
000010 92 d0 c1 be d1 98 01 bf 1f 85 82 3e 20 85 06 3e
       -0.3785444 -0.50623804 0.25492188 0.1313672
000020 43 d1 1c bd c1 6f d6 3d 89 d3 26 be 11 87 0a 3f
       -0.038285505 0.10470534 -0.16291632 0.54112345
000030 5e fc c6 be a5 a6 b3 3e 1d dc a5 be 93 65 fc 3e
       -0.38864416 0.35088077 -0.32394496 0.49296245
000040 3e df f3 bc 47 47 e3 3d 6f 82 73 be a7 9b d1 3e
       -0.029769536 0.110975794 -0.23780225 0.40939066
000050 10 d9 81 be 66 ee 0c 3f 2f 8f 3a be cd f5 a2 be
       -0.25360918 0.5505127 -0.18218683 -0.31828156
000060 f2 f6 2b 3f 2b 18 e1 3d 22 fc 11 be 54 ac 13 3f
       0.67173684 0.10990938 -0.14256337 0.57684827
000070 e7 6d 2f bf 43 45 a4 3e 83 14 27 bf d7 64 d7 bb
       -0.6852707 0.32084092 -0.65265673 -0.0065733003
000080 1e ef c9 be 96 3f 84 3e 0a 6e be be 24 9e af bd
       -0.39440244 0.25829762 -0.37193328 -0.08575085
000090 94 8c 55 bd 13 3f 85 bf 50 f0 ba be a4 db d2 3e
       -0.05213602 -1.0409874 -0.3651147 0.41183197
0000a0 88 6c 6c be 28 2f 1a 3e 52 c9 f0 bd 47 79 24 3f
       -0.23088276 0.15057051 -0.11757149 0.64247555
0000b0 ff 3c 1d 3f 98 f7 d1 be 98 8f cd bd 91 42 b8 3e
       0.614212 -0.41009212 -0.10037154 0.35988286
0000c0 78 67 d0 3d 94 42 1f 3d a7 1e 5b bf bd b3 6b 3e
       0.10175985 0.038881853 -0.85593647 0.23017783
0000d0 a6 17 45 bf 97 b0 1c 3f 10 5e 25 bf 53 02 c8 bd
       -0.7698921 0.61206955 -0.64596653 -0.09766068
0000e0 ba 95 35 3e 61 5b 46 3e 80 61 0a be fe da 19 bf
       0.17732897 0.19370796 -0.13513756 -0.6009978
0000f0 bb 53 cf 3d 26 33 1a be 0c 4f b0 3e 53 70 71 be
       0.10123392 -0.15058574 0.34435308 -0.23578005

mlp.mlp.fc2.1.0.weight f4 [64, 64]
000000 a9 cd f9 be f3 7e 88 3f ad 39 b6 bf 20 a3 c7 3e
       -0.4878972 1.0663742 -1.4236351 0.38991642
000010 b5 f6 14 bf b9 c2 a4 3f 8a 0c 8a 3e aa 96 27 3e
       -0.58188945 1.2871925 0.26962692 0.16366068
000020 e9 24 98 3e 5c 72 36 3e 38 73 1e bf ae cf 1a bf
       0.2971566 0.17817062 -0.6189456 -0.60473144
000030 02 75 43 3f 57 c8 c5 bd 29 78 66 3e 6e bd 3e bd
       0.76350415 -0.096573524 0.22506775 -0.046567373
000040 67 ac 99 3b 7c de 50 be 53 37 52 bf 87 bd 6a bf
       0.0046897414 -0.20397371 -0.8211567 -0.91695446
000050 db 4c e5 3e 83 ac 66 bf d2 25 70 bd 95 fc 99 be
       0.447852 -0.9010698 -0.05862982 -0.30075517
000060 a4 a0 68 3e c9 2f 8c 3f 4b 53 0c 3e 27 4d cc bf
       0.2271753 1.0952083 0.13703649 -1.5961045
000070 e2 37 08 3f 8f 1a ca bf 56 71 37 3e 7b 3c 0a be
       0.5321027 -1.5789355 0.17914328 -0.13499634
000080 78 76 36 bf be fa 2f bf 7b b5 ec 3e 2b d0 a3 bf
       -0.7127452 -0.6874198 0.4623221 -1.2797903
000090 b8 b3 22 3f bc e2 0c bf 1b a2 c1 3d 72 00 2a 3e
       0.6355548 -0.5503347 0.09454747 0.16601732
0000a0 31 57 0f 3f b5 0e cd 3e 05 30 5d 3f 56 6d 60 3d
       0.5599242 0.40050283 0.86401397 0.05479177
0000b0 4a 07 9d bf b4 1a 7d 3e 27 6a eb 3d 2c 6a ee be
       -1.226785 0.24717218 0.11494856 -0.46565378
0000c0 6d 5d 05 bf 18 02 ff 3e dc be 36 3f e2 77 94 3e
       -0.5209568 0.49806285 0.7138498 0.28997713
0000d0 10 1b 93 3e 9b 50 92 be c6 81 82 3f af d8 97 be
       0.28731585 -0.28577122 1.0195854 -0.29657504
0000e0 60 c2 18 be c2 5b 98 bd 43 6b 9a be 7b c9 67 3e
       -0.14917898 -0.074393764 -0.3015996 0.22635452
0000f0 43 57 2f 3e 0f b9 14 be ea ff e0 3d bf f3 6d 3e
       0.17123131 -0.14523719 0.10986312 0.23237513
000100 93 4e ad 3d af e7 a6 3e ec 05 df 3d 6e c8 77 3e
       0.084622525 0.32598636 0.108898014 0.24197552
000110 02 27 36 3d d7 e1 05 3e 18 2f 92 3e 0d 61 52 3e
       0.044470794 0.13074432 0.28551555 0.20544834
000120 94 73 2c bf 78 12 8c 3d 64 6f 40 3d b6 44 33 be
       -0.6736386 0.0683946 0.04698123 -0.1750668
000130 78 a8 7d 3e 68 8b 37 bc c4 33 4b 3f 8d 7f d6 be
       0.24771297 -0.011202671 0.79375863 -0.4189419
000140 90 a1 b6 3c 06 a9 dc bd a6 c3 66 3d 41 15 76 be
       0.022293836 -0.10774426 0.05633893 -0.24031545
000150 7a fd 4b 3e 6c dd af be 51 77 20 3e 59 2a 04 be
       0.19920912 -0.3434862 0.15670516 -0.1290678
000160 92 58 57 bc 22 9d 40 3d 2c 08 26 bf 87 82 06 bf
       -0.013143675 0.047024854 -0.6485622 -0.5254292
000170 06 53 50 3e 30 8c e1 bd ef c2 3c 3e 05 ae d4 bd
       0.20344171 -0.11013067 0.18433736 -0.10384754
000180 38 8f f4 3d 7f f4 8b 3d 37 e7 23 3e 6c 84 4f be
       0.11941379 0.06833743 0.1600617 -0.20265359
000190 50 a3 a8 3e 55 0e 9e bc 84 a2 f9 3d 74 c1 6e be
       0.32937098 -0.019293943 0.121892005 -0.23315984
0001a0 23 75 06 3e 69 37 83 bc fd 0f 8c 3e 64 18 bf 3e
       0.13130622 -0.016017633 0.27355948 0.37323296
0001b0 91 f0 32 be 66 98 34 3e 3e 9a dd 3d cc db 2d be
       -0.17474581 0.1763626 0.10820435 -0.16978377
0001c0 7a 40 fe 3e a0 a3 50 3e d4 fa 26 3f c7 0d 30 3f
       0.49658567 0.20374918 0.65226483 0.6877102
0001d0 71 7d 91 3e e0 7c 5b be a7 15 87 3e 98 ea 7e 3e
       0.28416017 -0.21434355 0.26383707 0.24894178
0001e0 4b 4f ec 3e ac d0 bd 3e 44 8f 58 3d 6f a2 33 3e
       0.46154246 0.37073267 0.052871004 0.17542432
0001f0 b0 35 c3 bd 34 ac 52 3d 15 62 6a 3e 82 f7 47 3e
       -0.095317245 0.051433757 0.22888978 0.1952801
000200 46 f0 12 bf ab 2d 02 3f f3 e9 c3 be db 92 67 bf
       -0.5739788 0.50850934 -0.38264427 -0.9045846
000210 06 40 99 3e 13 14 8b 3f 68 8a df 3d a3 df 84 be
       0.29931659 1.0865501 0.10915071 -0.2595187
000220 62 1f 69 3e c6 d6 6b 3f 53 45 c2 3f 29 a3 81 bf
       0.22765878 0.92124593 1.5177406 -1.0127918
000230 66 da 9d 3e 96 3f 37 3f ca e7 0a 3e e3 da c9 bf
       0.30830687 0.715814 0.13564983 -1.5769924
000240 15 7d 23 be 24 dd bf be 7d 13 8e bf bd 30 77 bf
       -0.15965684 -0.37473404 -1.1099697 -0.96558744
000250 a2 4e 33 3f a1 6f 3b bf 56 56 52 be 8c 30 4a 3f
       0.7004186 -0.7321721 -0.20540747 0.78980327
000260 b1 b6 ab 3f 75 b0 1d 3e 7a 8c 02 bf bc 8e c7 3e
       1.3415128 0.15399344 -0.509956 0.38976085
000270 68 1e 89 3c 6c 93 86 3f 10 73 19 be f1 ad 74 be
       0.016738132 1.051374 -0.14985299 -0.23894478
000280 a9 bd 8d bf f0 9b 91 bf ad ca 34 3d f1 86 35 bf
       -1.1073505 -1.1375713 0.0441386 -0.7090903
000290 ed 25 81 bd 3e 9e 59 be 61 41 eb bd bd 89 39 bf
       -0.06306062 -0.21251771 -0.114870794 -0.72475797
0002a0 d8 a6 44 be c1 31 42 be b8 7d 3f bf 42 54 21 3f
       -0.19204271 -0.18964292 -0.74801207 0.6301919
0002b0 4e c4 73 3f 75 f1 ac 3e ca b3 54 bd d4 41 a2 bf
       0.9522141 0.33777967 -0.051929273 -1.2676339
0002c0 2d 9d 6c 3e 40 7a c6 be 6f 2a cf 3d 8f a4 68 bd
       0.23106833 -0.38765144 0.101155154 -0.05679756
0002d0 5f 29 43 3d f8 fb ee be 0d 6c 05 3e 5c 87 4a 3f
       0.047646876 -0.46676612 0.130295 0.7911279
0002e0 b7 d4 b9 3e cb 77 a0 3f 1e 43 4c 3f 85 89 92 be
       0.362951 1.2536558 0.7978991 -0.28620544
0002f0 c7 18 3e bf 24 5f f1 3e 3c 58 de be b0 ed 94 3e
       -0.7425656 0.471429 -0.43426692 0.2908759
000300 e5 d3 be 3e 65 03 0e 3f 5b fc 18 3e 71 13 7b bf
       0.37271038 0.5547393 0.14940016 -0.9807654
000310 14 61 5b 3e bd 9c be 3f 1a cc 0c 3e 27 84 22 bd
       0.21423751 1.4891583 0.13749734 -0.03967681
000320 15 bb de bd 7a 9c 00 bf d1 3e b5 3e 2d 3d 1c 3f
       -0.10875527 -0.50238764 0.35399488 0.61030847
000330 90 46 50 3e 15 a1 ff 3e f4 69 7d 3d 89 e9 ed be
       0.20339417 0.49927583 0.061868623 -0.46467236
000340 9d 69 92 bd 6c 6b 44 3d d5 34 1d bf fe 51 53 bf
       -0.071490504 0.047954008 -0.6140874 -0.82546985
000350 d1 26 7b be 48 3e b8 bf 36 ea 09 3e 7d dc 6a be
       -0.24526526 -1.4394007 0.1346825 -0.22935672
000360 03 fa c3 3e 52 c3 3c 3e 03 ef 62 3d 9e 97 a0 bf
       0.3827668 0.18433884 0.05540372 -1.254627
000370 7a 17 9b 3e b5 76 61 bf a3 2b fb 3e fd 1b 10 3f
       0.3029135 -0.8807176 0.4905673 0.56292707
000380 ba 2b f4 be 5a 84 58 be 60 8c 22 be a6 69 31 3d
       -0.4768961 -0.21144238 -0.15873861 0.043313645
000390 c8 63 24 bf 6d 1c e1 3e ea 7c e8 3c ab ef 41 bf
       -0.64214754 0.43967 0.028379876 -0.7575633
0003a0 7c 60 1d be 2a b6 d9 3e 59 5b ce 3e 2b 6e b7 3e
       -0.15368837 0.42521793 0.40304068 0.3582624
0003b0 86 5a 94 3e 9b 87 47 3e 2c 8b 42 3e 6b 65 0c bf
       0.28975314 0.19485323 0.18998402 -0.5484225
0003c0 97 d3 d4 3d 0b 4e dd be e7 9d aa 3e 3b 64 0b be
       0.1039192 -0.43223605 0.33323595 -0.13612454
0003d0 49 63 c2 3e bc dc 1a bf 7a 4c d5 3e b3 35 b3 3e
       0.37966374 -0.60493064 0.4165991 0.35001907
0003e0 fb 64 b1 3e ab da 87 bd 98 c3 02 be 5c 8b 79 3e
       0.34647354 -0.066335045 -0.12769926 0.24369568
0003f0 de 56 64 be 82 78 9b 3f 0f 25 45 3f 4c 78 ad 3e
       -0.22298762 1.2146151 0.7700967 0.33880842

mlp.mlp.fc2.1.0.bias f4 [64]
000000 2e a0 51 bf 73 34 26 bf b0 17 39 bf 85 2c 10 bf
       -0.8188504 -0.6492378 -0.7230177 -0.5631793
000010 b0 d5 12 bf fc 4e 8d bf 59 22 0d bf c4 ae 8f be
       -0.5735731 -1.1039729 -0.55130535 -0.28063023
000020 a4 2a 59 bf 1b 5a ce be f4 71 73 bf 19 e9 45 bf
       -0.8483069 -0.4030312 -0.95095754 -0.77308804
000030 1f b2 cd be 6e ac 03 bf e7 88 4d bf d5 72 a1 be
       -0.40174958 -0.5143498 -0.8028702 -0.31532922
000040 79 e1 88 bf df 33 3e bf 03 d4 e3 be ff 51 28 bf
       -1.0693809 -0.742979 -0.4449769 -0.65750116
000050 81 cc 41 be af 45 f2 be aa f4 0b bf be b6 38 bf
       -0.18925668 -0.4731879 -0.546702 -0.7215384
000060 25 b9 36 bf 9c ca 60 be 69 bf 6f be 4c a5 76 be
       -0.7137626 -0.2195229 -0.23412861 -0.24086493
000070 87 0b 08 bf f2 ff 0b bf 05 13 bb be 6e 46 16 bf
       -0.5314259 -0.54687417 -0.36537948 -0.5870122
000080 9a 7d 57 bf 3f e8 5f bf 69 02 3b bf 02 87 dc be
       -0.8417603 -0.87463754 -0.7305055 -0.43071753
000090 61 da 21 bf 35 b4 30 bf a9 25 22 bf a5 09 98 be
       -0.63223845 -0.69024974 -0.63338715 -0.29694858
0000a0 39 b3 45 bf 8b 77 10 bf 50 b2 47 bf 84 bb 37 bf
       -0.772266 -0.5643241 -0.7800646 -0.717705
0000b0 b7 2b c8 bd 83 c2 98 bf ee ca 16 bf 35 1f 83 bf
       -0.09773963 -1.193436 -0.58903396 -1.0243899
0000c0 fc 69 66 bf 5c 6b 83 bf df 0b 24 bf 19 c9 52 bf
       -0.9000547 -1.0267138 -0.64080614 -0.823381
0000d0 4c a5 13 bf 85 ff 56 bf ae c3 1e bf 97 25 1c bf
       -0.576741 -0.8398364 -0.62017334 -0.6099486
0000e0 85 9a 78 bf a4 c6 72 bf 59 21 30 bf 75 48 57 bf
       -0.9711078 -0.9483435 -0.68800884 -0.84094936
0000f0 be af 37 bf d2 c0 5e bf 2b 70 6f bf d9 33 1d bf
       -0.71752536 -0.8701297 -0.9353053 -0.6140724

mlp.mlp.fc2.1.2.weight f4 [64]
000000 c0 8d 5c 42 58 e3 92 c0 ac 96 f7 41 cc 4a 1b 42
       55.138428 -4.590252 30.94857 38.823044
000010 96 bd 80 42 c6 1e 26 42 c9 b9 a9 41 a3 e9 3d c0
       64.370285 41.530052 21.215715 -2.967385
000020 34 98 86 3e 97 c6 8b 41 53 25 a9 40 2e 95 19 42
       0.26287997 17.471968 5.285806 38.395683
000030 ea 65 55 41 a1 cf b5 40 bd ca 3a 42 d4 2a 57 41
       13.337381 5.6815953 46.697987 13.447956
000040 8d aa 84 42 fc 47 a2 40 ff ab 53 41 70 1c ad 41
       66.33311 5.071287 13.229491 21.638885
000050 3b b4 46 41 99 11 4f 41 dc 0d 8a 41 e8 24 22 41
       12.419002 12.941796 17.256767 10.13401
000060 7a 8a 00 42 6c 02 4c 41 ad b6 06 41 fe 4a bf 41
       32.13523 12.750591 8.419599 23.911617
000070 54 d9 73 42 50 2d d3 bf 6e 94 88 41 f7 41 84 41
       60.962234 -1.6498203 17.072475 16.53221
000080 5e bc cc 3f 0f 71 6f 40 cc ef fb 3f 9d 61 6a 41
       1.5994985 3.7412755 1.9682555 14.648831
000090 a3 85 14 42 8b 80 a6 40 bd 90 7c 42 82 fc 1a 41
       37.130505 5.2031913 63.141346 9.686647
0000a0 43 9d 38 42 21 51 12 42 01 b6 a2 bd d1 17 b5 41
       46.153576 36.579227 -0.07944871 22.63663
0000b0 7e c5 85 41 56 7f 8e 42 f0 9c 45 42 93 28 97 41
       16.721432 71.2487 49.40326 18.894812
0000c0 90 c4 4d 42 6e 5d 63 40 10 4d 11 be 65 3f a2 3e
       51.441956 3.5525775 -0.14189553 0.3168899
0000d0 63 ed bd 41 72 f1 ca be 6f b6 29 41 29 9f 31 41
       23.740911 -0.39637333 10.607039 11.101357
0000e0 44 d1 1d 42 88 d9 14 42 e1 44 b3 be 2e 82 33 3f
       39.45436 37.212433 -0.35013488 0.70120513
0000f0 75 2b 95 42 7b 71 f6 41 1f 0e 15 42 2d b4 cf 41
       74.58488 30.80541 37.26379 25.962976

mlp.mlp.fc2.1.2.bias f4 [64]
000000 cf a5 27 3f 67 5a 5a bf ee 2a fb 3e 0b 92 4a 3f
       0.6548738 -0.85294193 0.4905619 0.79129094
000010 2c bc 26 bf de a1 25 3f bc 03 54 3f 57 5f 59 bf
       -0.6513088 0.64700115 0.828182 -0.849111
000020 da a0 dd 3c 7d ac 5a 3f 67 50 32 3f 88 56 46 bf
       0.027054239 0.85419446 0.69653934 -0.77475786
000030 60 71 53 3f 05 02 eb 3e 9b 84 4c 3f ae d3 54 3f
       0.8259487 0.45899978 0.7988984 0.831355
000040 15 c2 3b 3f 84 f0 86 bd a9 43 55 3f 82 a2 4a 3f
       0.7334302 -0.065888435 0.83306366 0.7915422
000050 35 67 4a 3f d4 a5 43 3f 2f 64 52 3f 32 9a 39 3f
       0.7906373 0.7642491 0.8218412 0.7250091
000060 07 2c 0b bf 9d 98 52 bf 2e 5e 5a bf 68 f1 54 bf
       -0.54364055 -0.8226412 -0.85299957 -0.83180857
000070 70 e9 34 bf b6 0e 0f bf 16 cc 54 3f c3 e7 52 bf
       -0.706687 -0.5588182 0.8312391 -0.8238489
000080 88 b4 40 bf be 35 b2 bd 90 33 89 bb 6e a1 5a 3f
       -0.7527547 -0.08701657 -0.004187055 0.8540257
000090 ae 36 32 bf a7 dc 1e 3f c6 09 45 bf ff 62 57 bf
       -0.69614685 0.6205544 -0.7696804 -0.8413543
0000a0 9b da c9 be 22 5e 4c bf eb a2 ba be d3 e6 de 3e
       -0.39424595 -0.79831135 -0.36452422 0.4353548
0000b0 7f 1c 59 bf d5 d0 25 3f e3 23 48 bf 12 96 50 bf
       -0.84809107 0.6477178 -0.7817976 -0.8147899
0000c0 54 98 4f 3f 36 c8 ea 3e 9c 67 30 bf f1 b9 4a bf
       0.8109181 0.45855874 -0.68908095 -0.79189974
0000d0 33 58 4f 3f 7a 6f 27 3f 16 ec 4d 3f a9 95 3b 3f
       0.80993956 0.65404475 0.80438364 0.7327524
0000e0 a0 f4 25 3f 3a dc 45 3f c2 c4 4c 3f 42 b4 1e 3d
       0.64826393 0.77289164 0.7998773 0.038746126
0000f0 94 17 41 bf 43 cc 4a 3f 27 c3 2f bf 74 2e 53 3f
       -0.754266 0.7921793 -0.68657154 0.82492757
