train/maddpg-v1/model_hd_mini/formation_hd_env/agent_0/39_actor_params.pkl (torch, 41679 bytes, 8 tensors)

fc1.weight f4 [64, 18]
00000000: 4431 83bd 4603 14ba 30d5 0b3e c372 1d3e
00000010: b2bc b1bd 0548 cdbe 3d93 acbc 8d20 b93e
00000020: d21c ac3e 9803 76bd 714b 293e 9c46 8a3e
00000030: 2021 6c3a 09d6 0dbe b318 4f3e 31d5 213e
00000040: b216 59be eff3 203e 9009 8d3d 70bb 5f3d
00000050: dd0c 74bd 948e 553d e3b7 a7be edb0 fa3d
00000060: 9081 183f 9206 6f3e 54e2 aabd c51c e6be
00000070: 1219 923e 3dda dabd 85ec bebe c33e 6fbe
00000080: 41f6 36be 9cec 1cbe 7679 2ebe eccb 6dbe
00000090: c2dc f93d 8ffd bebe 9e3b 87bd 42f0 c43d
000000a0: 6f42 ddbd 4e78 86be b58f 98bd 490c 19be
000000b0: ae2f a83e 80c8 053e af28 0e3e 27f8 c53e
000000c0: b221 343c afb7 693e 3624 38be 08da 0cbe
000000d0: 8aa0 893d 6bb3 013e d6da 513d 7dd0 0ebc
000000e0: 9da1 743d b641 383c d010 373e 578f 8fbe
000000f0: 01f7 173e 703c a6be a69b 65be a1f3 763c
00000100: 5843 47bd 0547 b13d 05c8 93bd 58a0 b63d
00000110: 28d0 f73c 63b4 5f3e 8055 04bc 9804 f2bd
00000120: 9b27 61bb d00c 413d ba65 c63d 1e1f 39bd
00000130: acea f1be 658e 0ebd 6d33 13bd 95d5 03bf
00000140: cfe6 fb3e 6adc c93e c6d9 893e 2abd 7f3d
00000150: 3a8d 4ebe ec0b a2be 31ed 343e f472 1e3d
00000160: 82fd d13d b942 14be 706d 883d 6740 91bd
00000170: c7c0 daba c88b d43c 28b3 573e ed46 66be
00000180: 080e 713e dede aabe 6109 e7be bdca 193f
00000190: 434a 6abe 7cfa 733e 0607 8fbe 024a be3e
000001a0: 00e6 6eba f0a6 b5bc 2086 0ebc cae8 87bd
000001b0: 4f24 15bd e43a cfbd 4465 523d 4657 80bd
000001c0: db53 b33e c8ca b43e c4fe 853e 6515 4d3d
000001d0: 772e 36bf 6dec 2abe 6e86 acbe f31e 9cbe
000001e0: 8999 89be fb9f 2bbd c245 8a3d aa41 f0bd
000001f0: a318 3d3e d62b adbd 9cdd e2bd ef1b e33d
00000200: 8ec7 58be bd9d d9bd c5bb 6abd f390 07bd
00000210: 5e85 64be 098b edbd d386 cc3e 6958 103f
00000220: 0e8b 613e df99 d83d fe56 f9bc 9ee4 173d
00000230: c68a d83d 41a1 1bbe 6c70 733d 1ca4 78bd
00000240: b59b a8bb 1662 113d 29d6 90bd e9d3 983d
00000250: 19b6 57be bb65 a0bc 67d0 d0be 6439 83bd
00000260: 5437 2a3f 0182 c9bd bf14 9c3e 4602 43bd
00000270: f792 9f3e 4751 b33e ecbe 373d 8061 9eba
00000280: c26c a03d 4180 f4bd a9f9 803e 62f8 953e
00000290: a426 743d 5c98 b3bd 6ce9 c3be 9d4f a0be
000002a0: 725e ebbd d473 4ebe df39 e13e 6628 0a3f
000002b0: 54bc 9d3e 2922 743e 6e3b 7c3e 8d22 163e
000002c0: 96c1 d53d bcf9 9ebd 60a0 51be 3b44 f1bd
000002d0: 6977 a8b9 dcff 92bd 4772 4abd 9d53 833d
000002e0: 22f6 b9be f514 f33e 4a0d 9f3e 5da3 123e
000002f0: 13be c53e 444c f63d 1134 7d3b fa77 d4bd
00000300: 7a51 1a3e e256 98ba 245c 413d 543d c3bd
00000310: 4068 2bbd 1ceb 533d 9b05 9bbc 197c 803c
00000320: b4b1 6c3d e7ff 8a3d dda8 d23e 043a 9bbe
00000330: 7e79 04bf e92c 7c3e 1fca 7fbe 1e2d d33e
00000340: 4849 4ebe c3e2 dc3e a166 803e 8020 31be
00000350: 36a8 d63d bd5f 603e 9461 313d 8b84 493e
00000360: e472 e03c 3520 cbbb 4bd6 ecbc 66e0 463d
00000370: 410d c03e f211 913d fd0a 2d3e dd1b e53e
00000380: ed17 06bf 5cd3 28bf 2068 e5be 5f85 e6bd
00000390: 1f8c 0ebe eea0 4fbe 7a01 8e3d b5ac 5b3e
000003a0: 0b98 243e a2ad e63d ab48 8b3c ebbd 95bd
000003b0: 7e5c 113d e550 3a3c 5385 d13d 7178 10bf
000003c0: f6dc bc3d 0e48 943d 0c33 e13e 63ff 2b3f
000003d0: 0747 7b3d 3e57 bd3e 09af 413e a1f0 a43d
000003e0: 0004 2139 80ee 613b 0076 9cbc 6e6f b13d
000003f0: 7abc dd3d b588 5a3d fa0c ae3d 344d 803d
-0.06405881 -0.000564624 0.13655543 0.1537581 -0.08678569 -0.4009401 -0.021066302 0.36157647
0.33615738 -0.06006202 0.16532685 0.27006996 0.00090076216 -0.13851179 0.20224266 0.15803982
-0.21200064 0.15718053 0.068865895 0.054622114 -0.05958258 0.052137926 -0.32757482 0.12240777
0.59572697 0.2334235 -0.0834395 -0.44943824 0.28534752 -0.10686157 -0.37289825 -0.23363785
-0.17867376 -0.15324634 -0.17038521 -0.23222321 0.12200309 -0.37302825 -0.06603168 0.09616138
-0.10803687 -0.2626366 -0.07449285 -0.14946093 0.32848877 0.13064766 0.13882707 0.38665888
0.010994362 0.22823976 -0.17982563 -0.13755047 0.067200735 0.12666099 0.05123409 -0.0087167
0.05972444 0.011246135 0.17877507 -0.28039047 0.14840318 -0.32467985 -0.22422656 0.015072734
-0.04864821 0.08656124 -0.07215885 0.08917302 0.030250624 0.21846156 -0.008077025 -0.118172824
-0.0034355882 0.04713136 0.096873716 -0.04519569 -0.47249353 -0.034803767 -0.035937715 -0.51497775
0.4919953 0.39425975 0.2692396 0.06243626 -0.20171061 -0.3164972 0.17668606 0.038683847
0.10253431 -0.14478578 0.066614985 -0.07092362 -0.0016689532 0.02594556 0.21064436 -0.22487994
0.23540509 -0.3337316 -0.45124343 0.6007498 -0.22879891 0.23826021 -0.27935046 0.37165838
-0.0009113252 -0.022174329 -0.00869897 -0.06636198 -0.03641158 -0.10118654 0.051366106 -0.06266646
0.35024914 0.3531096 0.26170933 0.05006923 -0.7116465 -0.16691752 -0.33696312 -0.30492362
-0.2687495 -0.041900616 0.067515865 -0.117312744 0.1846643 -0.08455627 -0.11077425 0.11089312
-0.21169874 -0.10625789 -0.057307977 -0.03309722 -0.223165 -0.115987845 0.39946613 0.56384903
0.22025701 0.105762236 -0.030436989 0.03708326 0.10573344 -0.15198232 0.059433386 -0.060703382
-0.005145515 0.035493933 -0.07072098 0.07462294 -0.21065558 -0.019579759 -0.40783998 -0.06407431
0.66490674 -0.098392494 0.30484578 -0.04760959 0.31166813 0.35022947 0.04485981 -0.0012083501
0.07833244 -0.11938525 0.25190476 0.29291064 0.059607163 -0.087692946 -0.38264024 -0.3131074
-0.114926234 -0.20161372 0.43989465 0.53967893 0.30807745 0.23841156 0.24632046 0.14661618
0.10437314 -0.07762477 -0.20471334 -0.11780592 -0.00032132425 -0.071777076 -0.04942539 0.06412432
-0.36320597 0.47476926 0.31064826 0.1432013 0.38621578 0.12026265 0.003863577 -0.10374446
0.15070143 -0.0011622573 0.047207013 -0.09533182 -0.041847467 0.05173789 -0.018923571 0.015684174
0.05778666 0.06787091 0.41144457 -0.303177 -0.5174788 0.24626507 -0.24979447 0.4124536
-0.20145142 0.43141755 0.250783 -0.17297554 0.104813024 0.21911521 0.04330595 0.19679467
0.027398534 -0.0061989077 -0.028910777 0.048553847 0.37510112 0.07083501 0.16898723 0.4474782
-0.5238026 -0.6594751 -0.44806004 -0.11255907 -0.1392064 -0.20276234 0.069338754 0.21452601
0.16073625 0.112635866 0.017002424 -0.073116146 0.035488598 0.011371826 0.10230508 -0.5643378
0.092218325 0.07240306 0.43984258 0.67186564 0.061347034 0.36980623 0.18914427 0.08053709
0.00015355647 0.0034474432 -0.019099236 0.08663832 0.10826965 0.05335303 0.08498569 0.06264725

fc1.bias f4 [64]
00000000: 86e6 d93d 3ab9 4d3e ed4a 133e 8d1d 013f
00000010: 28b9 323e f9b0 463e 143a 863d a2f2 a73e
00000020: 1dfa 583d d66e 023e c076 9dbe c924 c3bd
00000030: 1045 4e3d 6270 923d bec4 0dbd 5fa2 813e
00000040: 149d 623d 75f5 863d 1f13 f43e a06b 993e
00000050: 5e0c d53e af56 87bc 2910 c2bc e061 743e
00000060: 1fb2 91be e4e2 773e 80b4 803e 4850 043e
00000070: 6f52 9dbd aad7 f83d 7c30 dc3e 16cf 143e
00000080: 2b03 903d 8f2a 453e 6c3f aabd 19cd 633e
00000090: e109 963e da0b 093f 79c7 123e 0111 6e3e
000000a0: 0fed ac3b c63a d43e c944 90bd 3d33 f83d
000000b0: 84a4 bd3e 5836 bb3e d2da 823e 5324 bcbd
000000c0: 83d0 403e d2c2 013d 55d1 633d 5bbc 9cbd
000000d0: cde5 45be 96f0 843d 6e37 463e 19bf 003d
000000e0: d99f 263e 7379 98bc 2a10 223e baec 9fbe
000000f0: 51a8 8a3d 58be da3e c364 32bc 2037 c03e
0.10639672 0.2009019 0.1438405 0.50435716 0.17453444 0.19403447 0.06554046 0.32802302
0.0529729 0.12737593 -0.30754662 -0.095285006 0.050358832 0.071503416 -0.034611456 0.25319192
0.055325583 0.06589786 0.47670838 0.29964924 0.41610998 -0.016520826 -0.023689346 0.23865461
-0.28456208 0.24207646 0.2513771 0.1292125 -0.076817386 0.1215051 0.4300574 0.14532122
0.07031854 0.19254516 -0.08312878 0.22246207 0.29304412 0.5353371 0.14333905 0.23248674
0.005277283 0.4145109 -0.0704437 0.12119148 0.37039578 0.36564898 0.25557572 -0.09186616
0.18829541 0.031679936 0.055619556 -0.076531135 -0.19325943 0.064912006 0.19357082 0.031432245
0.16271915 -0.018612599 0.15826479 -0.31235296 0.06770385 0.42723346 -0.010888281 0.37542057

fc2.weight f4 [64, 64]
00000000: 6f18 b2bd 622c 5b3e 402b dfbc 518e 0ebe
00000010: 5dc5 843d c3a3 123f ad17 18be fd9e f0bc
00000020: 8c2f 17be d04c 99bc cc18 e9bc 4374 3e3c
00000030: 18be 85bc ec6c cf3d 9baa 8e3e 2d85 95bd
00000040: 712b a03d a9d3 3f3d eb00 1abc d6fc 633c
00000050: be1f 1c3e 95a4 a93e 06d1 14bd c4cb 173c
00000060: a94d 4f3e 7621 b5be fcce 3e3d 7b87 6d3d
00000070: 1ae6 073e ad50 28bc b545 ccbd a906 0a3e
00000080: 8320 ad3d c877 4dbe 9db2 30be 11b0 363e
00000090: 9a79 3c3e ff6b 793e 8f19 fd3d 0f67 823e
000000a0: 5c3a 87be 48ea a53c c363 1d3e 01ac 9fbe
000000b0: 3b2c 4f3c 866c 873d 2088 4b3e 1a84 1cbd
000000c0: 1b02 ca3d 9d89 1ebe 9359 673d 7f0c 973e
000000d0: 0708 b03c ece8 96bb ef81 653d 7563 343e
000000e0: 02e1 023e e547 223e 328a 85bc 25ac 6b3e
000000f0: 6f62 b6be 6bc5 7e3e 41a3 a13e a9f8 dd3d
00000100: 911e cc3d b7f1 c73e 689a b3be 537f d4bd
00000110: 349c 05bf 1a98 453e 4304 513d 662f ecbe
00000120: e8b8 c33d 308f 60be e5f9 0bbf 711a ffbd
00000130: a74f 743d e8bc 7bbf a7d8 38be fe2a ac3d
00000140: e4bd 4fbf 37eb 993c fd90 1f3e a61f e4bd
00000150: 1f26 cf3d d2d9 7c3d a950 bf3e 1eb8 7b3e
00000160: 1bca 2f3e 97db 583e 1254 463e 589f e0be
00000170: 2ac0 143d fd8d de3b 62cd ccbd 2ae2 1dbf
00000180: 7d3d 51bd 31b3 55be c230 dc3c b4b5 593e
00000190: ad9b 01be d8d6 0b3c f775 ff3d 63df 0c3e
000001a0: 6148 bdbe d445 e2be db6b 06bf d618 14be
000001b0: 6877 1fbe 676c 0ebe 281d 45be d1a0 893e
000001c0: 0da8 70bb f11f 763c 7065 6d3e 0e68 21be
000001d0: 95a3 893d 1634 933d c61e 873e b289 9bbe
000001e0: b5e4 e43a 075c a5be cb76 083e 51c5 6d3e
000001f0: e855 a93d c005 8dbe 378f 2a3e b268 f73b
00000200: d5e8 243e 54af 8c3d a05c 15be 0f7d 3d3e
00000210: 3710 533d a332 6abe 5ed6 8cbe dc94 a73d
00000220: 24ea 1cbf 71c7 d63d 3cec 2d3e 4190 493d
00000230: b23e 9a3d 080c 3d3e dbb6 0b3e c1c3 e9bd
00000240: a187 4b3e cba3 6abe d58f 553e a7a4 63be
00000250: 6887 13be d6e9 a83d 06dd 7fbd 98c3 bbbd
00000260: 1f10 813e 155f 873d 4b18 86bd 7e39 0bbe
00000270: 68db 3f3e 80e1 06bd a4ad 343d 74a4 d5bd
00000280: fd54 62bd 9b27 6bbc 7611 ecbd 06ea babd
00000290: ba6c e5bc f3e4 e3bd 5761 3c3d e5e5 d33d
000002a0: da58 e23e b678 c53c 67a2 3abe 6ebf 503e
000002b0: 7941 1ebd fd22 923e 2b33 ff3d 98a0 003e
000002c0: 2988 04be 87d7 c53d 9803 b73d 7f99 d6bc
000002d0: a973 123d c2ad 01be a0b1 91be 96aa 8c3c
000002e0: 2d53 d53d e4de 423d 1b34 a63d 1754 8cbe
000002f0: 84bd abbb 8caf 623e 4245 39bb 7513 7b3d
00000300: 7327 40be 6a3d 343d adb7 553d 17fb c8bd
00000310: 6b8b c83d e4bc 87be e6eb cb3d 14a5 e43d
00000320: 9f90 8b3d 50c1 3ebd 5198 5c3e f7f3 b43c
00000330: b8be 15bd feba 44be ca4d dd3d 644e 1b3e
00000340: 0bcc 02be 3c0c 393e e69a 54bc 886b 92bd
00000350: 4e4e 823d e6ee 02bd 3475 133a 606b 853e
00000360: 0cfa 903d 9447 0e3b 6208 933d a8ae ef3d
00000370: d150 11be 79af f73d c27a 2c3c d149 503e
00000380: 0e46 483e 3aea c53d 0dcd 1f3e 1dcf d63d
00000390: dd1b 813d 4f19 c43d dfd5 a73d 5881 013e
000003a0: 7211 953e 3f8e aebe 3301 763e bf7c 023e
000003b0: 9e33 f13d 8c8f 243e 494f 183e 51b7 273e
000003c0: 0ad8 1e3e 98ac 27be 7830 503e 6221 bb3d
000003d0: 5c1d 9f3e c260 523e 8e33 493e 2b0b 283e
000003e0: 9b4b 353e 88ea 2a3e 6bec 483e cb9a d73d
000003f0: c1ed 0b3c 7ecc 83bd 6a4b 413e 5720 c53d
-0.086960666 0.2140365 -0.027242303 -0.13921477 0.064829566 0.5728113 -0.14852782 -0.029372687
-0.14764231 -0.018713385 -0.028454207 0.011624399 -0.016325995 0.10128197 0.27864537 -0.07300792
0.07820786 0.046832714 -0.009399633 0.013915261 0.15246484 0.3313338 -0.036332153 0.00926489
0.20244469 -0.3537709 0.046584114 0.057990532 0.1327137 -0.010273141 -0.09974233 0.13479103
0.08453467 -0.20065224 -0.17255636 0.17840602 0.18405762 0.24357603 0.123583905 0.25469252
-0.26411712 0.020253316 0.15370087 -0.31185916 0.012644823 0.06612496 0.19876146 -0.03821192
0.09863683 -0.15482183 0.05648191 0.2950172 0.021488203 -0.004605403 0.056032117 0.17616065
0.12781146 0.15847738 -0.016301248 0.23014887 -0.35621974 0.24879996 0.31569865 0.10838444
0.099667676 0.390516 -0.3507874 -0.10375848 -0.5219147 0.19296303 0.051029455 -0.46129912
0.095567524 -0.21929622 -0.54678184 -0.12456215 0.059646275 -0.98335123 -0.18051396 0.084066376
-0.81149125 0.018788917 0.15582652 -0.11138849 0.10114693 0.061731167 0.37366226 0.24581954
0.17166941 0.21177517 0.19368008 -0.4387157 0.036316074 0.0067918287 -0.10000111 -0.61673224
-0.05108403 -0.20869137 0.026878718 0.2126072 -0.12657042 0.008535109 0.12473672 0.1375709
-0.36969283 -0.441939 -0.52508324 -0.14462599 -0.15572894 -0.1390854 -0.19249403 0.26880506
-0.003672126 0.015022264 0.23183227 -0.1576235 0.06720654 0.07187669 0.26390666 -0.3037849
0.001746318 -0.32296774 0.13326566 0.23219801 0.082683384 -0.2754345 0.16656195 0.0075503225
0.16104443 0.06869379 -0.14586115 0.18504737 0.051529136 -0.22870879 -0.275073 0.081826895
-0.6129477 0.10487259 0.16984648 0.049209837 0.075314894 0.18461621 0.13643973 -0.1141429
0.19875957 -0.22914045 0.20855649 -0.22230779 -0.14407122 0.08247726 -0.062466644 -0.09168166
0.25207612 0.06609932 -0.06547602 -0.1359615 0.1873604 -0.032929897 0.04411091 -0.104317576
-0.055256832 -0.014352704 -0.11526768 -0.09126668 -0.028005946 -0.11127653 0.045991268 0.10346583
0.44208413 0.024105411 -0.18226014 0.20385525 -0.03863666 0.2854232 0.124609314 0.12561262
-0.12942566 0.09660249 0.08936232 -0.02619624 0.035754833 -0.1266394 -0.2845583 0.017171185
0.10416255 0.047575846 0.08115407 -0.27407905 -0.005241098 0.22137278 -0.002827004 0.061297853
-0.18765049 0.04400388 0.05217712 -0.098135166 0.09792217 -0.265113 0.099571034 0.11164299
0.06814694 -0.046571076 0.21542479 0.022088988 -0.036558837 -0.19211957 0.10805853 0.15166622
-0.12773149 0.18071073 -0.012976384 -0.07149416 0.06362592 -0.031966113 0.00056250696 0.26058483
0.07078943 0.0021710144 0.07179333 0.11703235 -0.14190985 0.12094016 0.010527315 0.20340659
0.19557974 0.09663816 0.15605564 0.104887225 0.063041426 0.0957514 0.081950895 0.12646997
0.29114872 -0.340929 0.24023895 0.127429 0.11777423 0.16070384 0.14873995 0.16378523
0.155121 -0.16374433 0.2033099 0.09137227 0.31077087 0.20544723 0.19648573 0.1641051
0.17704622 0.16691029 0.19621436 0.10527571 0.008540572 -0.06435488 0.18876424 0.09625309

fc2.bias f4 [64]
00000000: 6519 1a3e 5720 5ab9 4a43 453e 6322 363d
00000010: 6d36 6dbe b0cf 2b3e b8fa c63d 62e7 68be
00000020: f174 063e 90f3 803d 8094 d03c e222 2e3e
00000030: a613 933d 4e28 2b3d 698c 83bd abf0 613d
00000040: 3ba6 05bd 63e1 4ebd dab6 f3bd 669b a53d
00000050: d3f3 163e 96f6 293d d70b 79bd 184e 3e3e
00000060: efc3 11be 7c99 8cbc 4671 843d 16a9 b1bd
00000070: d5a6 823e e1e2 32bd 79e7 8fbd b4dc f5bd
00000080: 0acf 72bc 5ec7 003e a6e3 a8bd 98af 263d
00000090: 8b0e 18bd a114 123c 36b9 c43d 124b 843d
000000a0: b4ce bbbd cc4c 333d 67f9 c23d 5ff1 883d
000000b0: 1a6c e33d 7a9e 2ebe 2809 27be eb08 b93d
000000c0: 4e49 47be 5581 e53b 8309 34be d8d5 9e3d
000000d0: adc8 0dbd bf03 593d 73be fbba fdf7 7abc
000000e0: 45aa f03d 2b04 053d 66e2 4d3e f342 143c
000000f0: 966b f73c 4cab 393e b20f 1abe 88b9 063d
0.1504875 -0.00020802148 0.1926395 0.044466387 -0.23165293 0.16778445 0.097157896 -0.22744516
0.13130547 0.06296456 0.025461435 0.17005494 0.07181482 0.041786484 -0.064232655 0.05516116
-0.032629233 -0.050507914 -0.119001105 0.080862805 0.14741449 0.04149493 -0.060802307 0.18584478
-0.14234899 -0.01716303 0.06466918 -0.08674829 0.25517908 -0.0436734 -0.07026572 -0.120049864
-0.01481987 0.12576053 -0.082465455 0.040694803 -0.037123244 0.008916051 0.09605639 0.06459631
-0.09170285 0.04377441 0.09520226 0.06686663 0.11104603 -0.17052642 -0.16312087 0.09034904
-0.19461557 0.007003943 -0.17581753 0.07755631 -0.034615207 0.05298209 -0.0019206539 -0.015317914
0.11751226 0.032474678 0.20105895 0.009049165 0.030202668 0.18131751 -0.1504505 0.03289178

fc3.weight f4 [64, 64]
00000000: f398 97be 8057 403f f4a3 a23e 75d4 59bc
00000010: 3725 e23d 59f9 263e 84a6 9b3e f3ce 793e
00000020: 3f40 463e 4f77 893c c935 f0be 0b2b 93bd
00000030: f4ba 633e 5bf4 8e3e 94f5 b0be ca44 003e
00000040: bac6 303d 9e97 0e3e 55d9 a7bd d2fd d2bc
00000050: e58f 163e 5d0d 513e 85c7 043e e5e5 9a3c
00000060: 0786 3e3e fbd2 f6be 4e82 cbbd 38cd dbbd
00000070: f2a8 d43d f9f3 053f ddb9 853d aa38 fd3e
00000080: ff83 92bd 6f72 933d 1af8 1abf a3ee 893e
00000090: bccb aabe f272 7ebe d994 adbd 5da0 cd3e
000000a0: 7242 07be aeab a9be 5cbd ee3e f4e6 413f
000000b0: 2828 cebe 1726 9cbe 6608 ac3d 8315 d93e
000000c0: 6cc8 963d bcbf 993e 5bfc d4be 5b3b 353e
000000d0: 5f3c 9f3e 7e50 8fbe 2844 043e dea5 87bd
000000e0: f951 25be 3ad9 c3bd 1250 283d c310 0a3e
000000f0: 5331 48be e01a 583e aca0 37bd 0e08 92be
00000100: 6484 a8bd 5e74 a6bd be13 443e ce9c 423e
00000110: 9708 92bd 1b5d 71be 6cec e23e 0792 b9be
00000120: df60 93bd 5b19 b93e 3e9b a53e b847 6abe
00000130: 92cd 8a3d d86d 88bc 7cee d7be 22d4 223e
00000140: 14fc 8c3e 6e48 943e 90c8 d8be c51e 00bf
00000150: ce68 a63b 6fe0 023f f849 273e dcd7 de3d
00000160: cbe6 1a3c 675c 17bf 380a cc3c c515 8dbd
00000170: c1a5 eb3e 3a6e cb3d 54a5 afbd a40c a33e
00000180: c48d e43d d042 0e3f 26eb a2be 79ab d1bb
00000190: 6f0c 893e b3d1 e8be 0ac2 663e cebb 313e
000001a0: d69a 1c3e 32e6 ce3e bc50 9f3e 9cc9 44be
000001b0: 35cd dabd 18fb 933d e6dd 1bbe 7580 813e
000001c0: 9d5b cabd 286a 1abe 8085 55bf 7cc0 073e
000001d0: a47b 973c 6259 45bf 65e0 b53e 3df4 5bbd
000001e0: db4c 9f3d 0bf2 643e 342b 52bf 1207 333e
000001f0: 1156 3dbe 89b7 993b 8b42 49be bb10 a63d
00000200: 3619 ad3e 3ebb 05bf a4d2 5ebc 9ef7 473e
00000210: 475c a9bd 8b1c 24be 67b2 08be 3c23 ccbe
00000220: 0458 36be c717 f63c cbb8 0d3f 2630 c23e
00000230: 5a70 90be 42d1 953c 652a 8b3e dc1e 4c3b
00000240: efd2 03be 2221 133e 1f94 eb3d a68c ac3c
00000250: a85b 1f3e fefd 4bbe 43c1 c83d 1315 973b
00000260: b9ed 123e 1cc7 da3e 0790 973d da7f c2bc
00000270: 3776 97bd fe1b 49bf 7f3c 943e d62b e8bd
00000280: f971 973d 3847 5ebe 6038 c63e d888 453e
00000290: eb1a c93e 3637 403e dbe0 da39 667c 603e
000002a0: 8409 863e 0f97 003f 7822 2bbf c0cb 43bf
000002b0: 9172 9e3e 5ec8 d03e 2ffb 7b3d 0fa3 e23d
000002c0: 4bcd e73c 794e 023e 48a3 c2be ff35 03be
000002d0: 80fe d0bd 5fb7 133f ef3d 43be 9cad db3d
000002e0: 9e78 ad3c beb5 95be c251 7d3e 431d 12bd
000002f0: 32bb 843e 17c1 0bbd ab4f 0f3c 9537 06be
00000300: 0534 b63e 4787 8c3d ff2f 80be fe4a 933d
00000310: e7ea 8cbb 49af 84be 9ab2 abbc d123 1c3d
00000320: 03c1 0dbe ce74 66be 8f9b 933e 8ad7 373e
00000330: 24ca b4bd a01e 123e 4ec2 453d 421d bf3d
00000340: 86b1 5a3e 42e5 993e 3ec6 d8bd c5ff 76bd
00000350: 8501 c13d e9ff e73d 269a 2bbe 1bc1 0abb
00000360: 9464 d1bd f1e2 2e3f e952 57be 3674 5f3e
00000370: 7c19 673d 68c0 2ebf 8de8 343e 1657 5ebe
00000380: 680c 0dbe 1a91 383e 3d34 3fbd d5be 203e
00000390: 36ec 203e a34b 053d 8c0d ca3d 0499 babd
000003a0: 1b32 793d 88af e53e 533e 47be 362f 5fbf
000003b0: d6f4 de3e 6f6c 013f 0ede cfbc 538f 453e
000003c0: 5be5 6c3e ed94 a2be eea4 383c 8d1f 143c
000003d0: 3eec e7bd 3287 4f3f f43d c4ba 0d1c 1d3e
000003e0: c9da c3bb 5035 683d e059 0e3f 2487 47bd
000003f0: 1db4 703c a691 6fbd 60af 433e e621 d63e
-0.29608878 0.75133514 0.3176571 -0.013295283 0.110422544 0.16306056 0.3040048 0.24395351
0.19360445 0.016780524 -0.46916035 -0.07185944 0.22239286 0.27920803 -0.3456236 0.12526241
0.04315827 0.13925025 -0.0819575 -0.025755797 0.14703329 0.20415254 0.12966736 0.01890845
0.18605815 -0.4820784 -0.09936963 -0.10732502 0.10383786 0.523254 0.06529591 0.49457294
-0.071540825 0.07199561 -0.6053482 0.26939878 -0.33358562 -0.24848536 -0.08475656 0.4016141
-0.1320894 -0.33138794 0.46628845 0.7574303 -0.40265012 -0.3049781 0.084000394 0.42399225
0.07362446 0.30029094 -0.41598782 0.17698424 0.31100747 -0.27991098 0.12916625 -0.066234335
-0.16144551 -0.09562917 0.041091986 0.13482957 -0.19550066 0.21104002 -0.044830963 -0.2852177
-0.082283765 -0.08127664 0.19148156 0.19005129 -0.07130545 -0.23570673 0.44321 -0.36244223
-0.07196211 0.36152157 0.32345003 -0.22878921 0.06777491 -0.01665394 -0.42174137 0.15901235
0.2753607 0.2896151 -0.42340517 -0.5004695 0.0050784117 0.5112371 0.1633681 0.10881016
0.009454439 -0.5912537 0.024907216 -0.06888918 0.46024898 0.099331334 -0.08576456 0.31845582
0.11159852 0.555707 -0.3182003 -0.006398615 0.267673 -0.45472488 0.22534958 0.17356798
0.1529344 0.4041 0.31116283 -0.19217533 -0.106836714 0.07225627 -0.15221366 0.25293317
-0.09880755 -0.15079558 -0.8340683 0.1325702 0.018491574 -0.7708951 0.35522762 -0.05369972
0.07778331 0.22357957 -0.8209717 0.17483166 -0.18489863 0.0046910685 -0.1965429 0.0810866
0.33808297 -0.52238834 -0.013600025 0.19528052 -0.08269554 -0.16026513 -0.13349305 -0.39870632
-0.17807013 0.030040635 0.55360097 0.3792736 -0.28210717 0.018288258 0.27180782 0.0031146323
-0.12873434 0.14368108 0.11502861 0.02106316 0.15562308 -0.19921109 0.09802487 0.0046106665
0.14348496 0.42730033 0.07400518 -0.023742605 -0.073955946 -0.7855834 0.28952405 -0.11336486
0.073947854 -0.21706855 0.38714886 0.19290483 0.3927835 0.18771061 0.0004174773 0.21922454
0.26179135 0.502305 -0.6684947 -0.7648277 0.30946782 0.40777868 0.061518844 0.11066257
0.028296134 0.12725247 -0.380152 -0.12813567 -0.10204792 0.5770168 -0.19066595 0.10726473
0.021175679 -0.2924022 0.2473822 -0.035672437 0.2592407 -0.03411969 0.008747022 -0.1310714
0.35586563 0.068617396 -0.25036618 0.07192038 -0.0043004635 -0.25914982 -0.020959187 0.038120095
-0.1384316 -0.22505495 0.2882962 0.17953315 -0.08827618 0.14269495 0.048281007 0.09331752
0.21356782 0.30057722 -0.10584687 -0.060302515 0.09424118 0.11328108 -0.16758022 -0.0021172229
-0.10224262 0.68315035 -0.21027721 0.21821675 0.05642079 -0.6826234 0.17666836 -0.21712908
-0.13774264 0.18024102 -0.046680678 0.15697797 0.15715107 0.032542836 0.09865865 -0.09111217
0.0608388 0.44860482 -0.19457369 -0.87181413 0.4354617 0.5055608 -0.025374439 0.19292955
0.23134367 -0.31754246 0.011269791 0.009040725 -0.113243565 0.81065667 -0.0014972077 0.15342732
-0.005977009 0.056691468 0.5560589 -0.048712865 0.01469138 -0.05848851 0.19109869 0.41822737

fc3.bias f4 [64]
00000000: 49b5 c83d 1ce8 863e 1f4b 85bd cff3 253d
00000010: 944e 0f3d dd36 79bd fcdd 623d e68d 933e
00000020: dc6a 20be a522 78be b55a ab3d bc40 903d
00000030: e0b4 3fbe 1a8d 31be bbdb a0bc e730 71be
00000040: 633f be3e d960 e73d 5d07 6bbe 4037 14bd
00000050: 15f5 a23d 3e55 9d3d 2592 973e e635 4b3e
00000060: 737f 8abe 2098 a43d 1d37 313e b829 543d
00000070: 7df4 1f3d c758 1a3e d52f 103d d6ce 7d3d
00000080: 340b 033d 5ebf cf3c 0ffb a1be c938 6c3e
00000090: 14c3 e33d 6108 f43c 0016 5d3d 5dd0 823d
000000a0: 8007 3c3d a45a 51bd cc03 b83d a4fe 643e
000000b0: 2be6 a13d 7ddb 2bbe 52b3 5f3e 38d5 abbd
000000c0: 3459 ec3d 23c6 b3be b132 8b3e f350 133e
000000d0: 2fb6 b83e 32f0 f7bd 92af 87be f2b9 2c3e
000000e0: 5f47 1f3e 6502 1fbe 9133 f2bd b28e 14be
000000f0: b6f5 77be be96 563d 16ca 473e 9cc6 da3d
0.098002024 0.2634896 -0.06508469 0.040515717 0.034987047 -0.060843337 0.055387482 0.28819197
-0.15665764 -0.24231966 0.0836691 0.07043597 -0.18721342 -0.17338982 -0.019636026 -0.23553811
0.37157735 0.11297769 -0.22952028 -0.036185503 0.07956902 0.07682274 0.29603687 0.1984478
-0.2705036 0.08036828 0.1730618 0.0517976 0.03905152 0.15072928 0.035201866 0.061964832
0.031993106 0.025359806 -0.31636855 0.23068537 0.111211926 0.029789152 0.05397606 0.063873984
0.04590559 -0.051111832 0.08985099 0.22362763 0.07905229 -0.16782947 0.21845749 -0.083902776
0.11540452 -0.35112104 0.27187112 0.14386348 0.36076495 -0.121063605 -0.26501137 0.16867808
0.1555457 -0.15528257 -0.11826242 -0.14507559 -0.24214825 0.052389853 0.19510683 0.10682413

action_out.weight f4 [5, 64]
00000000: 0a8d 5b3f 6a10 863f fdb2 b4be 0f1d 863e
00000010: e70c 4cbe efe1 1bbf de27 863e 251b 51bf
00000020: 8a5d 08bf 7873 22bf ddb8 bc3e b85e 74bf
00000030: 9819 2dbf 2f46 b33f 81c2 49be d4bb 83bf
00000040: f876 1b3f 8ff1 d0be d9b1 9c3f e64d d2bd
00000050: 8820 2e3f a032 efbe 7c6c 9d3e 0fb6 a03e
00000060: 864a 9e3f f483 0ebf b586 13bf c910 0b3e
00000070: 08cd b03e ff31 dcbd 2506 0f3f 7dbd 8fbe
00000080: 58fd 4b3f 8770 9dbe 845e 963e 64ef 03bf
00000090: 184a 08bf d4be 96bf deae 123f f3c1 2b3f
000000a0: 31bd 0c3f 2762 73bd 111d 413f 2fa0 323f
000000b0: 9e29 2b3f 5a54 30bf c970 3eba 873e d8be
000000c0: 4e32 063f cbc3 653e fe42 e73d cf54 8c3e
000000d0: 3a40 b6bf a333 95be 62f2 e1be fc82 d8be
000000e0: abbf 0fbf 3d70 48bf 3916 c13e 8c63 7ebf
000000f0: d9fa a83d 57f1 b23d 0e7c bbbe 1d87 33bf
00000100: 9717 8e3d d826 043d 26db 6ebe c3b8 b2be
00000110: 22f2 d1be ef6f a83e 9559 2dbe a8ad 173f
00000120: f46f 3bbe 0b14 1e3f b986 773f f06b 1d3e
00000130: 3fd2 b73e 5579 003d 3b5e da3e 6a85 d6be
00000140: c25c 643f 1379 90be 05b0 e13e 08a0 27be
00000150: 43eb 3dbe e53a aebd 8521 74be f336 3fbe
00000160: 11e6 1ebe 18f5 9bbe 9633 eabd e8f5 0eba
00000170: 9fc0 a93d 2d93 9cbc 26fb 463c a03f a03e
00000180: 1e36 1e3f 8b9b 3c3e cca1 bebd 7add 843e
00000190: 2388 1d3f f446 873e d7af fb3e 66c4 ecbd
000001a0: bafc 453d af43 7bbe f1b6 adbd a07f c2bc
000001b0: ace8 1fbf 44c7 013e 7e0e 7abe 2056 d2bc
000001c0: 7420 3c3e ba3f 663f 05f1 9dbe 29a8 653e
000001d0: 2c7c 1e3e 269a 91bf 4c12 e13f a92c 6a3e
000001e0: 047c f93e 1ccd 0d3f fddd 843d 6bbc 6e3c
000001f0: 2708 93bf 3a14 9b3e e5ef 93be 63bf d8be
00000200: 25f5 b4be b425 f4bd 70ec ab3e 278f 3c3e
00000210: 7674 603e bbfe 3bbe c113 8c3d d0bf 3e3f
00000220: d447 3a3f 9dc2 f9be 861b 9dbf d575 2dbe
00000230: ded2 25be b8d3 263e cf82 fa3b b770 b83e
00000240: fc8c 423f 2838 613e 3f3a 0cbd b333 b2bc
00000250: ea35 3a3e 9f6e 06be 5e11 f43c 06bd 92bc
00000260: cbc1 9c3e acb6 733e b1be c1bd 41a7 853e
00000270: 6da9 083e 143a babd 8395 babd cef2 80be
00000280: e63e 3e3d 614c 64be 96ba c1bd b015 03be
00000290: d6d8 6abf 1286 88be fc35 1bbf b10e a83d
000002a0: f014 8dbe f147 af3e f5df 1d3e 1b07 083d
000002b0: b501 eb3e d07d b7be f397 8bbe 2ae7 06be
000002c0: 0e86 8dbe 7e27 1fbf c40c 14bd eb6a c3be
000002d0: 357f a7bc 80f7 5b3f 4f65 52bf 6bab adbe
000002e0: 1ef1 a3be c7e4 7bbf 236d ff3c 244a fa3d
000002f0: 6052 853f affa aabe ec67 d63d 2e80 5d3d
00000300: 04b7 d63e bdbb 31be 7ada 6b3c 545d 0abe
00000310: 559b 393c fc0b 823d 34db ac3e 52fa 4d3e
00000320: e565 b4be 5c5f 713e 2956 f83c 8665 dd3e
00000330: 8a25 863e 9884 033f d384 063f 8370 11bf
00000340: b9b1 1ebe c62f 4cbe ed12 84bf 3254 6dbf
00000350: 7283 9cbe 6676 48be 0a2c 793e d1c6 913e
00000360: 645d ca3e 8062 f33c c16d acbe c56a 4d3e
00000370: fbe2 99be 5c02 24be 44fa 813f 11a8 e2bd
00000380: 3047 e9bd f54b 61be 0916 653f 5c02 8cbe
00000390: ca9e ad3e 87e0 4d3e e7ee 8f3d cb3c 80be
000003a0: 6adc a2be 87f3 bc3c 63ba 55be 2cd6 503e
000003b0: b6a3 b63e af94 5dbe 4098 82be 7ac7 143e
000003c0: 3b2e 07bc e243 593d 5577 d9be 5967 5c3b
000003d0: 7b99 0abf 6e72 763f f887 71be b4ea e93d
000003e0: d749 5c3f d65b 553e 0e8d b5bf 0b1c 46bd
000003f0: cef8 413e 248b 823d 4ce1 453e 2157 773d
0.85762084 1.0473759 -0.35292807 0.26194045 -0.19926797 -0.6089162 0.2620229 -0.81682044
-0.5326773 -0.6345744 0.3685979 -0.9545703 -0.6761718 1.4005793 -0.19703104 -1.0291696
0.60728407 -0.40809295 1.2241775 -0.10268764 0.6801839 -0.4671831 0.3074683 0.313889
1.2366493 -0.55670094 -0.5762742 0.13580622 0.34531426 -0.107517235 0.5586875 -0.28074256
0.79683447 -0.30749914 0.29368985 -0.51537156 -0.5323806 -1.1776986 0.57298076 0.6709282
0.54976183 -0.059419777 0.75434977 0.6977567 0.6686038 -0.6887871 -0.0007264731 -0.42235205
0.5242051 0.2243797 0.112920746 0.27408454 -1.423835 -0.29140958 -0.44130236 -0.42287433
-0.5615184 -0.7829626 0.37712267 -0.99370646 0.082509704 0.08737438 -0.36618084 -0.7012804
0.06938093 0.032263607 -0.23325786 -0.34906587 -0.41005045 0.328979 -0.16928704 0.59249353
-0.18304425 0.61749333 0.96689945 0.15373206 0.35902593 0.03136571 0.42650017 -0.41898662
0.8920404 -0.28217372 0.44079605 -0.16369641 -0.18546776 -0.08507327 -0.23840912 -0.18673305
-0.15517451 -0.3046043 -0.114356205 -0.0005453513 0.08288693 -0.019113148 0.012144839 0.31298542
0.61801326 0.1841871 -0.09308204 0.25950223 0.61535853 0.2642132 0.49157593 -0.115608975
0.048336722 -0.24537538 -0.08482159 -0.023742497 -0.62464404 0.1267367 -0.24419591 -0.025675833
0.18371755 0.8994099 -0.30847946 0.2242743 0.15477055 -1.1375167 1.7583709 0.22868599
0.4872743 0.553911 0.064876534 0.0145712895 -1.1486863 0.3028887 -0.28893963 -0.42333516
-0.3534328 -0.11921254 0.33578825 0.18413983 0.21919426 -0.1835889 0.06839705 0.7451143
0.7276585 -0.4878129 -1.2274024 -0.1693948 -0.1619372 0.16291702 0.007644988 0.36023495
0.75996375 0.21994078 -0.034235235 -0.021753168 0.18184629 -0.13128136 0.029793438 -0.017912399
0.30616602 0.23800153 -0.094601996 0.26104167 0.13345881 -0.09093109 -0.09110548 -0.25185245
0.046446703 -0.22294761 -0.094594166 -0.12801242 -0.91737115 -0.26664788 -0.6062925 0.08205927
-0.27555037 0.34234574 0.15417464 0.0332099 0.4589974 -0.35838175 -0.27264366 -0.1317412
-0.27641338 -0.62169635 -0.036144987 -0.3816751 -0.0204464 0.8592453 -0.82185835 -0.33919844
-0.32019895 -0.9839596 0.03117997 0.122211725 1.0415764 -0.3339438 0.1046904 0.05407732
0.41936505 -0.17356773 0.014395351 -0.13512164 0.011328538 0.06349942 0.3376099 0.20115021
-0.3523399 0.23571533 0.030314522 0.4324152 0.26200515 0.51374197 0.52546424 -0.56812304
-0.15497483 -0.19940099 -1.0318276 -0.92706597 -0.30569035 -0.19576415 0.24333206 0.28471997
0.39524376 0.029710054 -0.33677486 0.2006026 -0.30055985 -0.16016525 1.01545 -0.110672124
-0.11390531 -0.22001632 0.8948675 -0.2734555 0.3391021 0.20105182 0.07027989 -0.2504638
-0.31808788 0.023065342 -0.20871882 0.203942 0.35671777 -0.2163875 -0.25506783 0.1452922
-0.008250768 0.053043254 -0.42473856 0.0033630936 -0.5414044 0.96268356 -0.23587024 0.11421719
0.8605017 0.20835814 -1.4183671 -0.048366588 0.18942568 0.06374195 0.19324225 0.060385827

action_out.bias f4 [5]
00000000: 4d42 bb3e ad59 94be e483 34be c13d a83c
00000010: a8f6 f33d
0.3657402 -0.28974667 -0.17628437 0.020537259 0.1191228
