train/maddpg-v5/results/formation_hd_env/rmaddpg/hd_5/run1/models/policy_0/actor.pt (torch, 150188 bytes, 22 tensors)

rnn.feature_norm.weight f4 [28]
0.8723525 0.9211512 1.1926233 1.2069025 1.0940076 1.2198825 1.1652533 1.157876
1.0675027 1.1239486 1.1373637 1.1813582 0.9972906 0.68616027 0.88879776 0.6906099
0.9116439 0.8455069 0.7999211 0.84759665 0.9130858 1.0615779 0.85740685 1.0390753
0.88546664 0.8151787 1.1051687 1.1145777
00000000: 7e52 5f3f 91d0 6b3f e1a7 983f c87b 9a3f
00000010: 7108 8c3f 1c25 9c3f 0527 953f 4835 943f
00000020: eea3 883f 8cdd 8f3f 2295 913f bf36 973f
00000030: 704e 7f3f 33a8 2f3f 4088 633f cfcb 303f
00000040: 7f61 693f 2473 583f a1c7 4c3f 18fc 583f
00000050: febf 693f c9e1 873f 047f 5b3f 6b00 853f
00000060: f1ad 623f 8daf 503f 2b76 8d3f 7baa 8e3f

rnn.feature_norm.bias f4 [28]
-0.10117352 -0.123735785 0.023864886 0.08893732 0.11780329 0.06741674 0.026830027 -0.109738
0.22855775 0.039060466 -0.15742092 -0.0011658435 -0.04361039 0.023726005 -0.0018164434 -0.05406048
-0.011062624 -0.018475419 -0.047252063 0.14655906 -0.13744958 -0.025477227 -0.009051283 0.013475852
-0.0052439226 0.005326612 -0.031291816 0.020281631
00000000: 1034 cfbd 3069 fdbd 4b80 c33c c524 b63d
00000010: da42 f13d ca11 8a3d a5ca db3c 51be e0bd
00000020: 0b0b 6a3e defd 1f3d f332 21be 37cf 98ba
00000030: cfa0 32bd 0a5d c23c ba15 eeba 866e 5dbd
00000040: 0240 35bc c359 97bc 618b 41bd 9413 163e
00000050: 95bf 0cbe 9eb5 d0bc d54b 14bc d2c9 5c3c
00000060: 36d5 abbb dc8a ae3b d92b 00bd aa25 a63c

rnn.mlp.fc1.0.weight f4 [64, 28]
-0.36298147 -0.34394738 -0.53084534 0.202896 0.26147968 0.01453 0.28365654 -0.071990564
0.03393062 -0.04010904 0.35471877 -0.100213386 -0.10870205 0.36875623 0.10207638 0.06359341
0.26509055 0.005440377 0.054057207 -0.29824448 -0.10382109 -0.4703868 0.24995454 -0.15617883
-0.12162867 -0.426212 0.023704577 -0.033087775 0.6163852 -0.0007729495 0.100684 0.033179883
-0.05027691 -0.25593108 0.0815558 -0.04234545 -0.152922 -0.04907759 -0.059304968 0.26845127
-0.15769345 0.26565415 0.17877392 0.028599765 -0.15611354 -0.03265186 -0.47155157 -0.006517119
-0.02056277 0.10432516 0.16822696 0.1696103 -0.02127228 0.38912785 0.070131205 -0.12639576
-0.07064417 -0.20657806 0.09740734 -0.11250198 0.26894507 0.14659299 -0.16930449 -0.4160767
-0.12568681 -0.06806278 0.0623222 -0.3907118 0.13943285 -0.03494766 -0.14237387 0.25721645
0.088087544 0.18405706 0.12610482 -0.12457189 0.2187866 0.0036127754 0.16103478 -0.10747118
0.10754326 -0.046133146 0.16735038 0.29885277 0.14279021 -0.1880469 0.21796243 -0.26012716
0.26379392 0.037414726 0.021700867 0.21172969 -0.34007263 0.06350947 0.32160214 -0.26956812
-0.019823132 -0.0392642 0.052091856 0.18427247 0.18611887 -0.2598869 -0.222912 0.18040225
-0.025998846 -0.15744613 0.00027491394 -0.062449567 -0.25803986 -0.3698974 -0.21497445 -0.57337826
0.13579851 -0.3158942 -0.2430044 -0.3156076 0.19031923 -0.42229047 -0.41048482 0.1552577
-0.24336012 -0.16275872 0.38703674 0.09524508 -0.02087678 0.0777362 -0.16516103 0.31923762
-0.013966344 0.20138863 -0.042811234 -0.068717636 -0.40253395 -0.06758535 0.11446656 0.25710824
0.07020788 -0.048193935 0.26359826 0.08387926 0.30164102 -0.5004608 0.06937387 0.4029403
-0.0010336441 -0.019751778 0.15021414 0.3493268 -0.17410223 0.44455642 0.060035393 0.03511304
0.09304854 -0.096509255 -0.06533625 0.04816835 -0.14254473 0.02197715 0.051115893 0.0059670936
-0.091399744 0.2551247 0.21667422 0.0703636 -0.1414617 0.011184836 0.049896978 0.47432616
0.10823244 -0.078412496 0.3729511 -0.07055861 0.19756535 0.2739888 0.20995921 -0.18510574
0.24564958 0.3577054 -0.03485801 -0.2397983 -0.012583736 0.18738195 0.18193662 -0.038005
0.25413662 -0.010431388 0.09797682 0.5064541 -0.39203867 -0.014995889 -0.042767055 0.013269867
-0.17108071 -0.104515776 -0.316913 -0.21561745 0.21606651 -0.09671197 0.26220262 0.2450175
0.09121306 -0.23451422 -0.54091924 -0.5228817 -0.06725205 0.071563646 0.38797018 -0.017239211
-0.27932733 0.16597776 0.0717083 0.14148992 -0.35330656 0.035471056 -0.044280663 0.0822192
0.16851614 -0.16257274 0.26122072 -0.3377695 -0.2327463 -0.040187977 -0.02573642 -0.048528224
-0.02304462 0.46370986 0.20514423 0.36753115 0.082151815 -0.5217935 0.010273991 -0.021253906
-0.19420648 0.075292215 0.17987238 -0.0522311 0.0764359 -0.30716833 0.38710237 0.25816485
0.22257927 -0.07878796 -0.23495425 -0.15631543 0.12084358 -0.04576537 -0.28772265 0.265216
0.113641106 -0.04511511 0.024391767 0.026820699 0.053762708 -0.07371815 0.054535136 0.3789069
00000000: b5d8 b9be df19 b0be 7be5 07bf f8c3 4f3e
00000010: aae0 853e 3d0f 6e3c 6e3b 913e ca6f 93bd
00000020: d5fa 0a3d 6049 24bd b39d b53e ad3c cdbd
00000030: 2e9f debd 9ecd bc3e 6c0d d13d 433d 823d
00000040: f3b9 873e 3145 b23b 176b 5d3d 80b3 98be
00000050: 27a0 d4bd 8ad6 f0be 15f4 7f3e 58ed 1fbe
00000060: 7418 f9bd 7638 dabe 1a30 c23c 0c87 07bd
00000070: 6ccb 1d3f c39f 4aba 6a33 ce3d a1e7 073d
00000080: 29ef 4dbd 6609 83be ba06 a73d 6c72 2dbd
00000090: 9697 1cbe 9505 49bd c4e9 72bd 7272 893e
000000a0: 647a 21be d203 883e 8310 373e 0e4a ea3c
000000b0: 3adc 1fbe f5bd 05bd 356f f1be 8e8d d5bb
000000c0: 4173 a8bc 6ea8 d53d b043 2c3e 53ae 2d3e
000000d0: 3443 aebc c43b c73e f3a0 8f3d e46d 01be
000000e0: e4ad 90bd 3389 53be 807d c73d 7067 e6bd
000000f0: 2bb3 893e 791c 163e 285e 2dbe 0108 d5be
00000100: 0bb4 00be 8064 8bbd 9045 7f3d 610b c8be
00000110: 7cc7 0e3e 4725 0fbd 75ca 11be e0b1 833e
00000120: 3e67 b43d 7479 3c3e 9f21 013e 8c1f ffbd
00000130: 9809 603e 50c4 6c3b 4de6 243e da19 dcbd
00000140: a43f dc3d 1cf6 3cbd e65d 2b3e 3b03 993e
00000150: 9937 123e 5e8f 40be 8b31 5f3e 632f 85be
00000160: ff0f 873e 2f40 193d 04c6 b13c abcf 583e
00000170: 001e aebe 4111 823d 09a9 a43e d504 8abe
00000180: 1f64 a2bc 7fd3 20bd 455e 553d ecb1 3c3e
00000190: f295 3e3e e50f 85be 0b43 64be 5ebb 383e
000001a0: 88fb d4bc 8f39 21be 5322 9039 1ecb 7fbd
000001b0: cd1d 84be 3163 bdbe 4322 5cbe ebc8 12bf
000001c0: c40e 0b3e e2bc a1be 25d6 78be 5297 a1be
000001d0: 0be3 423e 7536 d8be 112b d2be e0fb 1e3e
000001e0: 6533 79be 39aa 26be ae29 c63e da0f c33d
000001f0: c805 abbc 2834 9f3d f91f 29be 1d73 a33e
00000200: 18d3 64bc d238 4e3e d55a 2fbd d5bb 8cbd
00000210: ee18 cebe 306a 8abd 726d ea3d b1a3 833e
00000220: 26c9 8f3d 0167 45bd 5af6 863e e4c8 ab3d
00000230: b170 9a3e 331e 00bf e313 8e3d 314e ce3e
00000240: 577b 87ba 7bce a1bc bcd1 193e f6da b23e
00000250: db47 32be e69c e33e ace7 753d b1d2 0f3d
00000260: 3c90 be3d a5a6 c5bd 03cf 85bd 2d4c 453d
00000270: 3ff7 11be 6d09 b43c e65e 513d 9c87 c33b
00000280: ca2f bbbd b49f 823e d9df 5d3e cb1a 903d
00000290: 56db 10be 9a40 373c c660 4c3d e1da f23e
000002a0: f8a8 dd3d bb96 a0bd 72f3 be3e 0881 90bd
000002b0: 924e 4a3e 4348 8c3e 8cff 563e 5c8c 3dbe
000002c0: 908b 7b3e 2a25 b73e 46c7 0ebd b08d 75be
000002d0: 042c 4ebc 0ee1 3f3e 984d 3a3e 22ab 1bbd
000002e0: 321e 823e 6ae8 2abc 12a8 c83d faa6 013f
000002f0: 4bb9 c8be 51b1 75bc 822c 2fbd db69 593c
00000300: c82f 2fbe 5e0c d6bd 6c42 a2be d2ca 5cbe
00000310: 8a40 5d3e ed10 c6bd 6c3f 863e dee5 7a3e
00000320: eacd ba3d 7f24 70be af79 0abf 93db 05bf
00000330: 71bb 89bd f68f 923d 07a4 c63e 3f39 8dbc
00000340: fe03 8fbe 13f6 293e cddb 923d bce2 103e
00000350: 99e4 b4be 194a 113d a45f 35bd 8a62 a83d
00000360: 7f8f 2c3e 7879 26be b9be 853e 20f0 acbe
00000370: 0c55 6ebe 269c 24bd 2fd5 d2bc 88c5 46bd
00000380: 12c8 bcbc 616b ed3e 5411 523e 0b2d bc3e
00000390: 363f a83d 4294 05bf 3e54 283c ac1c aebc
000003a0: 10de 46be ce32 9a3d 7730 383e 47f0 55bd
000003b0: 6d8a 9c3d 2b45 9dbe 4832 c63e 2f2e 843e
000003c0: d2eb 633e 955b a1bd d997 70be 2711 20be
000003d0: d77c f73d 7874 3bbd 6250 93be 64ca 873e
000003e0: abbc e83d 9fca 38bd 3ed1 c73c 15b7 db3c
000003f0: 4936 5c3d 8bf9 96bd 3c60 5f3d 1600 c23e

rnn.mlp.fc1.0.bias f4 [64]
-0.044352416 0.040428504 0.055880453 -0.036084313 -0.0041760462 0.12489324 0.24089916 -0.15812771
0.090166405 -0.10393579 -0.01635307 -0.07274421 -0.034661356 -0.25388056 0.030183567 0.02504471
0.064189985 -0.0077657327 -0.025896177 0.10211433 0.04393975 0.075046346 -0.04052076 0.16317916
-0.12651269 -0.062156714 0.10038795 -0.086001165 0.00539079 -0.040205754 -0.014436412 0.2066066
0.11437358 -0.15848908 -0.023004124 0.054562654 -0.029480478 0.3011508 -0.16719219 -0.0081486525
0.073465064 0.1614258 -0.0816306 0.0372715 -0.08407612 0.003925694 -0.09420683 -0.095349595
-0.19445063 -0.13615076 -0.004564561 -0.067399345 -0.046006527 0.17991722 -0.0685821 -0.0106969755
-0.019736217 -0.092125826 -0.054133594 -0.036770202 0.006677604 -0.024526622 0.07317166 -0.13089293
00000000: e1aa 35bd 5c98 253d e7e2 643d 25cd 13bd
00000010: 37d7 88bb 07c8 ff3d 45ae 763e 3bec 21be
00000020: 2aa9 b83d 4adc d4bd e0f6 85bc ebfa 94bd
00000030: 11f9 0dbd a2fc 81be 8743 f73c 902a cd3c
00000040: 0a76 833d b077 febb 3824 d4bc 5121 d13d
00000050: 2bfa 333d e6b1 993d 19f9 25bd 7018 273e
00000060: 8b8c 01be 0a98 7ebd 3398 cd3d 6121 b0bd
00000070: 39a5 b03b caae 24bd b386 6cbc ae90 533e
00000080: b23c ea3d f64a 22be 2573 bcbc 177d 5f3d
00000090: 0b81 f1bc 7030 9a3e 6e34 2bbe ed81 05bc
000000a0: da74 963d ce4c 253e f22d a7bd 00aa 183d
000000b0: 1a30 acbd 1ca3 803b 83ef c0bd a646 c3bd
000000c0: 111e 47be 1b6b 0bbe 5092 95bb ab08 8abd
000000d0: 5771 3cbd 383c 383e c674 8cbd 5e42 2fbc
000000e0: d9ad a1bc 77ac bcbd 30bb 5dbd 5a9c 16bd
000000f0: cdcf da3b 0eec c8bc 06db 953d cc08 06be

rnn.mlp.fc1.2.weight f4 [64]
1.116954 0.9314418 0.9641422 0.8946857 1.0108539 0.91826737 1.0268902 0.87674075
1.0312374 1.070549 0.99340063 0.9146494 0.9883128 1.0712024 1.0190881 1.1032087
1.1374015 1.0430135 1.0079027 1.0031646 1.0619943 1.019912 0.94392455 0.937905
0.9164517 1.0609502 1.0559722 0.9628105 1.0901803 0.95407486 0.9781321 1.0884833
0.97994816 1.1253551 1.0175656 1.2153631 0.921374 0.9534294 0.9562277 1.1244715
1.1503892 0.9905373 1.1441984 0.9542305 0.98320234 1.1161022 1.0520258 1.1334757
1.0898062 1.1124305 0.8579207 1.1054105 1.1253321 1.112078 0.9200353 0.9965707
0.9779089 1.1098351 1.0520719 1.0502803 0.9720262 1.0197415 1.103464 1.0360155
00000000: 59f8 8e3f f872 6e3f 06d2 763f 1f0a 653f
00000010: a963 813f 9213 6b3f 2371 833f 1572 603f
00000020: 96ff 833f c007 893f 814f 7e3f 7726 6a3f
00000030: 1102 7d3f 291d 893f 7b71 823f f135 8d3f
00000040: 5f96 913f 7781 853f f502 813f b367 803f
00000050: 6eef 873f 7a8c 823f 0aa5 713f 8b1a 703f
00000060: 949c 6a3f 37cd 873f 192a 873f c07a 763f
00000070: 078b 8b3f 403e 743f de66 7a3f 6c53 8b3f
00000080: e2dd 7a3f a30b 903f 973f 823f 0591 9b3f
00000090: 2bdf 6b3f f313 743f 57cb 743f afee 8f3f
000000a0: f43f 933f da93 7d3f 1875 923f 7348 743f
000000b0: 26b3 7b3f 70dc 8e3f c8a8 863f bb15 913f
000000c0: c57e 8b3f 1f64 8e3f b1a0 5b3f 177e 8d3f
000000d0: e20a 903f 9258 8e3f 6f87 6b3f 421f 7f3f
000000e0: 3d58 7a3f 140f 8e3f 4baa 863f 966f 863f
000000f0: b6d6 783f e486 823f 4f3e 8d3f 289c 843f

rnn.mlp.fc1.2.bias f4 [64]
0.073875785 0.0591532 0.016558712 0.024836577 -0.029591888 -0.115063645 0.008586349 0.08031076
-0.016760664 0.022569496 0.06528188 0.08420935 0.06922478 -0.08046404 0.05600178 -0.04441727
-0.081804335 0.061658144 -0.09322018 -0.06635714 -0.056524184 -0.025814628 -0.007972155 0.13339576
0.055997085 0.12311714 0.021147875 0.13919568 -0.06954583 0.05356492 0.14554593 -0.04819002
0.064336546 0.019510437 -0.11067376 0.012699715 0.108719565 0.045341186 0.040562678 -0.01569772
-0.10639751 0.019039204 -0.074074075 -0.041591756 0.013438172 0.041818842 0.055950418 0.06803882
-0.010044192 -0.0135554 0.11534882 0.05106083 0.08375985 -0.012512597 0.036466703 0.06683755
-0.014418801 0.16153695 0.062003855 -0.045690004 -0.07990634 0.07070968 -0.088819906 0.005311509
00000000: 304c 973d a04a 723d 23a6 873c 1476 cb3c
00000010: b06a f2bc 7da6 ebbd c2ad 0c3c f879 a43d
00000020: a94d 89bc aae3 b83c 82b2 853d f475 ac3d
00000030: b9c5 8d3d 55ca a4bd 1f62 653d e2ee 35bd
00000040: 0889 a7bd 408d 7c3d 39ea bebd 41e6 87bd
00000050: e785 67bd 3379 d3bc a49d 02bc e698 083e
00000060: 335d 653d d724 fc3d 4f3e ad3c 5089 0e3e
00000070: 0b6e 8ebd e466 5b3d fe09 153e e662 45bd
00000080: e1c2 833d 5ad4 9f3c eda8 e2bd 7712 503c
00000090: 5da8 de3d aeb7 393d 0d25 263d 8198 80bc
000000a0: f0e6 d9bd 1bf8 9b3c 26b4 97bd 1e5c 2abd
000000b0: c72b 5c3c 3c4a 2b3d 442c 653d f057 8b3d
000000c0: 6590 24bc 7817 5ebc 013c ec3d 2925 513d
000000d0: 498a ab3d a301 4dbc 1c5e 153d 20e2 883d
000000e0: d63c 6cbc f169 253e c1f7 7d3d 7125 3bbd
000000f0: efa5 a3bd 3dd0 903d 36e7 b5bd 2b0c ae3b

rnn.mlp.fc_h.0.weight f4 [64, 64]
-0.090073206 0.120498225 0.100986734 0.114749566 -0.022859573 -0.20803373 0.140334 -0.23505075
0.23771632 0.2034831 0.04358556 -0.18639797 0.12679629 0.17321514 0.054651175 0.10120509
0.017066685 0.123255275 0.06961459 0.038938608 0.53497267 -0.18856469 -0.19166008 0.11320012
-0.15536548 0.18539254 -0.19892159 -0.10810166 0.072731316 -0.05868963 0.056055076 0.16700523
0.13470373 0.0067058164 -0.12551007 -0.40623719 -0.08084833 0.053163093 -0.15491794 -0.02745679
0.28166333 0.02797676 0.008048668 -0.04800694 -0.10435934 -0.305592 -0.30938125 -0.12050145
-0.08136297 0.08968843 -0.14987598 -0.30507183 0.02062477 0.0127279665 -0.35780385 -0.087319314
-0.18184662 0.3571917 -0.059929013 -0.020014137 0.2289214 -0.06413503 0.2800889 -0.050769866
0.22719361 -0.12198691 -0.18471235 -0.043773185 0.4752559 0.15268528 0.25547412 0.08595486
-0.20142198 0.20386335 0.05794057 0.18326357 -0.02640354 -0.20831347 -0.22292121 -0.3559713
0.00038135587 0.012624028 -0.007348613 -0.018161451 0.042984605 -0.06970391 -0.047675062 -0.17161343
-0.11744547 0.20257534 0.0017198574 -0.09365078 0.16509828 -0.19422778 -0.09222799 -0.0675268
-0.049831547 0.3958404 0.0066894977 0.15976265 0.15569423 0.25073934 -0.11063698 -0.003100319
0.13933294 -0.15903261 0.05207546 0.31325138 0.2908116 0.15205458 -0.20453908 0.23536347
-0.30123305 0.16033053 -0.01759992 0.092207335 -0.010583454 0.02937433 -0.23732977 0.07783424
0.31913173 0.2313674 0.13771361 0.06736292 0.17461395 0.033812236 0.14239924 -0.03813141
0.008067524 -0.07857759 -0.20295314 -0.28393108 -0.4204421 0.09560234 0.022457477 0.05106639
-0.076156855 -0.00018774305 0.2360678 -0.20531692 0.41606313 -0.15367661 0.11135528 -0.009692829
0.08884317 0.14937301 -0.06328755 -0.05944562 -0.020688117 0.23187579 0.2735262 -0.03787739
-0.11035561 -0.0137107195 0.18329078 0.034392703 -0.010193766 -0.15543056 0.14088959 0.1400741
0.11736264 0.011391175 0.20511712 -0.41142648 0.26755366 0.39683154 -0.03927334 -0.018732421
0.017709583 0.0106247375 -0.12262781 0.393609 0.166696 -0.064676896 0.076239094 -0.035810746
-0.071939014 0.15143369 -0.21510431 -0.22440565 -0.18263736 0.26891157 0.09317855 -0.05545543
-0.14136589 -0.10882855 0.0669913 0.08740074 -0.08556492 0.20818363 -0.2622599 -0.14050049
-0.11578482 -0.20338592 -0.038677458 0.11074518 0.06804763 0.13149215 -0.11805684 -0.18457651
-0.35227022 -0.22465053 -0.0056943777 -0.08718542 -0.0099214 -0.010889668 -0.13983414 -0.12545483
0.05419138 0.13034484 0.08504853 0.3619624 0.42018932 -0.011187013 -0.17737798 0.11677132
0.2736659 0.024208214 0.41534036 0.09552582 -0.047495488 -0.045325056 -0.082301416 0.32686153
-0.1914256 -0.080932446 0.2386158 0.12036993 0.192547 -0.025009181 -0.30993173 -0.33089596
-0.17072272 0.03695125 0.1045124 0.021963995 0.12703055 -0.057166804 -0.039654564 -0.2501596
0.022055076 0.015841043 0.0999243 0.13436869 0.30042753 0.11213419 -0.014724259 -0.03808244
-0.07812141 -0.030762294 -0.36456963 0.29872626 0.019038385 -0.18636902 -0.063695386 -0.062230945
00000000: 4d78 b8bd c6c7 f63d 22d2 ce3d d201 eb3d
00000010: 0044 bbbc cb06 55be b7b3 0f3e 25b1 70be
00000020: e86b 733e e05d 503e c686 323d 1cdf 3ebe
00000030: e3d6 013e 4f5f 313e e9d9 5f3d 9d44 cf3d
00000040: 6fcf 8b3c 436d fc3d 1892 8e3d 177e 1f3d
00000050: f8f3 083f 1a17 41be 8a42 44be 77d5 e73d
00000060: 2118 1fbe 8bd7 3d3e 1ab2 4bbe 6764 ddbd
00000070: 28f4 943d 8a64 70bd 029a 653d 6b03 2b3e
00000080: c6ef 093e 77bc db3b b685 00be 52fe cfbe
00000090: cf93 a5bd 8bc1 593d cfa2 1ebe 10ed e0bc
000000a0: 2d36 903e 852f e53c 8fde 033c eda2 44bd
000000b0: 5aba d5bd 8e76 9cbe 3867 9ebe 77c9 f6bd
000000c0: a1a1 a6bd 91ae b73d 1779 19be 6032 9cbe
000000d0: 47f5 a83c f688 503c 1132 b7be 78d4 b2bd
000000e0: 0036 3abe d5e1 b63e 2078 75bd b0f4 a3bc
000000f0: 5f6a 6a3e 3a59 83bd d067 8f3e 10f4 4fbd
00000100: 71a5 683e 46d4 f9bd 3c25 3dbe 834b 33bd
00000110: be54 f33e 8859 1c3e 81cd 823e 1a09 b03d
00000120: 9041 4ebe 8ec1 503e 1753 6d3d 72a9 3b3e
00000130: 3d4c d8bc 2050 55be 7545 64be df41 b6be
00000140: b8f0 c739 03d5 4e3c a2cc f0bb 53c7 94bc
00000150: a010 303d ecc0 8ebd ed46 43bd 6ebb 2fbe
00000160: 4087 f0bd e96f 4f3e d76c e13a fbcb bfbd
00000170: 860f 293e a6e3 46be 07e2 bcbd 7e4b 8abd
00000180: 2a1c 4cbd 98ab ca3e 9333 db3b d298 233e
00000190: 4f6e 1f3e e860 803e a495 e2bd b92e 4bbb
000001a0: 4bad 0e3e 72d9 22be 144d 553d 7c62 a03e
000001b0: 42e5 943e 32b4 1b3e b172 51be 1f03 713e
000001c0: 383b 9abe b02d 243e b52d 90bc 33d7 bc3d
000001d0: 3966 2dbc 6fa2 f03c 9306 73be 8f67 9f3d
000001e0: 3c65 a33e 93eb 6c3e cc04 0d3e 92f5 893d
000001f0: 00ce 323e b37e 0a3d 1bd1 113e ae2f 1cbd
00000200: a62d 043c 4aed a0bd f3d2 4fbe 6a5f 91be
00000210: 3044 d7be 29cb c33d bef8 b73c fe2a 513d
00000220: 20f8 9bbd e4dc 44b9 c2bb 713e 993e 52be
00000230: 3a06 d53e 675d 1dbe 3d0e e43d acce 1ebc
00000240: 68f3 b53d 3df5 183e e79c 81bd 407d 73bd
00000250: 207a a9bc d970 6d3e a00b 8c3e 5225 1bbd
00000260: 1f02 e2bd eda2 60bc 94b0 3b3e 5ddf 0c3d
00000270: c103 27bc 3029 1fbe 5c45 103e 966f 0f3e
00000280: d35b f03d 0da2 3a3c 390a 523e 7ea6 d2be
00000290: cbfc 883e 812d cb3e 15dd 20bd bc74 99bc
000002a0: b013 913c 6113 2e3c 4a24 fbbd 1e87 c93e
000002b0: 5bb2 2a3e 5275 84bd 3e23 9c3d 4aae 12bd
000002c0: c354 93bd 6f11 1b3e 4e44 5cbe 98ca 65be
000002d0: 4a05 3bbe c7ae 893e 65d4 be3d 3c25 63bd
000002e0: 38c2 10be 81e1 debd bc32 893d 29ff b23d
000002f0: a93c afbd 172e 553e ee46 86be 5cdf 0fbe
00000300: 9720 edbd 6644 50be 416c 1ebd 5ece e23d
00000310: 8e5c 8b3d e1a5 063e c9c7 f1bd a001 3dbe
00000320: c35c b4be ca0a 66be e797 babb 458e b2bd
00000330: 5e8d 22bc 946a 32bc ae30 0fbe 3b77 00be
00000340: c8f7 5d3d 1e79 053e ec2d ae3d 2353 b93e
00000350: 0e23 d73e bc49 37bc 93a2 35be cd25 ef3d
00000360: f01d 8c3e 4e50 c63c 7ea7 d43e 0ba3 c33d
00000370: a18a 42bd c4a6 39bd a58d a8bd 655a a73e
00000380: 1305 44be e9bf a5bd b357 743e 8384 f63d
00000390: 0a2b 453e 0ee0 ccbc 5faf 9ebe 326b a9be
000003a0: f0d1 2ebe 325a 173d 990a d63d d6ed b33c
000003b0: 4c14 023e bd27 6abd d36c 22bd eb14 80be
000003c0: d9ac b43c 13c5 813c 1da5 cc3d f297 093e
000003d0: a3d1 993e 9ca6 e53d 053e 71bc 55fc 1bbd
000003e0: 1efe 9fbd 3501 fcbc dfa8 babe a6f2 983e
000003f0: 63f6 9b3c 85d7 3ebe ba72 82bd e0e5 7ebd

rnn.mlp.fc_h.0.bias f4 [64]
0.0 0.0 0.0 0.0 0.0 0.0 0.0 0.0
0.0 0.0 0.0 0.0 0.0 0.0 0.0 0.0
0.0 0.0 0.0 0.0 0.0 0.0 0.0 0.0
0.0 0.0 0.0 0.0 0.0 0.0 0.0 0.0
0.0 0.0 0.0 0.0 0.0 0.0 0.0 0.0
0.0 0.0 0.0 0.0 0.0 0.0 0.0 0.0
0.0 0.0 0.0 0.0 0.0 0.0 0.0 0.0
0.0 0.0 0.0 0.0 0.0 0.0 0.0 0.0
00000000: 0000 0000 0000 0000 0000 0000 0000 0000
00000010: 0000 0000 0000 0000 0000 0000 0000 0000
00000020: 0000 0000 0000 0000 0000 0000 0000 0000
00000030: 0000 0000 0000 0000 0000 0000 0000 0000
00000040: 0000 0000 0000 0000 0000 0000 0000 0000
00000050: 0000 0000 0000 0000 0000 0000 0000 0000
00000060: 0000 0000 0000 0000 0000 0000 0000 0000
00000070: 0000 0000 0000 0000 0000 0000 0000 0000
00000080: 0000 0000 0000 0000 0000 0000 0000 0000
00000090: 0000 0000 0000 0000 0000 0000 0000 0000
000000a0: 0000 0000 0000 0000 0000 0000 0000 0000
000000b0: 0000 0000 0000 0000 0000 0000 0000 0000
000000c0: 0000 0000 0000 0000 0000 0000 0000 0000
000000d0: 0000 0000 0000 0000 0000 0000 0000 0000
000000e0: 0000 0000 0000 0000 0000 0000 0000 0000
000000f0: 0000 0000 0000 0000 0000 0000 0000 0000

rnn.mlp.fc_h.2.weight f4 [64]
1.0 1.0 1.0 1.0 1.0 1.0 1.0 1.0
1.0 1.0 1.0 1.0 1.0 1.0 1.0 1.0
1.0 1.0 1.0 1.0 1.0 1.0 1.0 1.0
1.0 1.0 1.0 1.0 1.0 1.0 1.0 1.0
1.0 1.0 1.0 1.0 1.0 1.0 1.0 1.0
1.0 1.0 1.0 1.0 1.0 1.0 1.0 1.0
1.0 1.0 1.0 1.0 1.0 1.0 1.0 1.0
1.0 1.0 1.0 1.0 1.0 1.0 1.0 1.0
00000000: 0000 803f 0000 803f 0000 803f 0000 803f
00000010: 0000 803f 0000 803f 0000 803f 0000 803f
00000020: 0000 803f 0000 803f 0000 803f 0000 803f
00000030: 0000 803f 0000 803f 0000 803f 0000 803f
00000040: 0000 803f 0000 803f 0000 803f 0000 803f
00000050: 0000 803f 0000 803f 0000 803f 0000 803f
00000060: 0000 803f 0000 803f 0000 803f 0000 803f
00000070: 0000 803f 0000 803f 0000 803f 0000 803f
00000080: 0000 803f 0000 803f 0000 803f 0000 803f
00000090: 0000 803f 0000 803f 0000 803f 0000 803f
000000a0: 0000 803f 0000 803f 0000 803f 0000 803f
000000b0: 0000 803f 0000 803f 0000 803f 0000 803f
000000c0: 0000 803f 0000 803f 0000 803f 0000 803f
000000d0: 0000 803f 0000 803f 0000 803f 0000 803f
000000e0: 0000 803f 0000 803f 0000 803f 0000 803f
000000f0: 0000 803f 0000 803f 0000 803f 0000 803f

rnn.mlp.fc_h.2.bias f4 [64]
0.0 0.0 0.0 0.0 0.0 0.0 0.0 0.0
0.0 0.0 0.0 0.0 0.0 0.0 0.0 0.0
0.0 0.0 0.0 0.0 0.0 0.0 0.0 0.0
0.0 0.0 0.0 0.0 0.0 0.0 0.0 0.0
0.0 0.0 0.0 0.0 0.0 0.0 0.0 0.0
0.0 0.0 0.0 0.0 0.0 0.0 0.0 0.0
0.0 0.0 0.0 0.0 0.0 0.0 0.0 0.0
0.0 0.0 0.0 0.0 0.0 0.0 0.0 0.0
00000000: 0000 0000 0000 0000 0000 0000 0000 0000
00000010: 0000 0000 0000 0000 0000 0000 0000 0000
00000020: 0000 0000 0000 0000 0000 0000 0000 0000
00000030: 0000 0000 0000 0000 0000 0000 0000 0000
00000040: 0000 0000 0000 0000 0000 0000 0000 0000
00000050: 0000 0000 0000 0000 0000 0000 0000 0000
00000060: 0000 0000 0000 0000 0000 0000 0000 0000
00000070: 0000 0000 0000 0000 0000 0000 0000 0000
00000080: 0000 0000 0000 0000 0000 0000 0000 0000
00000090: 0000 0000 0000 0000 0000 0000 0000 0000
000000a0: 0000 0000 0000 0000 0000 0000 0000 0000
000000b0: 0000 0000 0000 0000 0000 0000 0000 0000
000000c0: 0000 0000 0000 0000 0000 0000 0000 0000
000000d0: 0000 0000 0000 0000 0000 0000 0000 0000
000000e0: 0000 0000 0000 0000 0000 0000 0000 0000
000000f0: 0000 0000 0000 0000 0000 0000 0000 0000

rnn.mlp.fc2.0.0.weight f4 [64, 64]
0.22439311 0.02143838 -0.064063154 0.18774642 -0.13394922 -0.3081443 0.13089265 -0.5446562
0.5041254 0.124930196 -0.12677981 -0.027191214 0.10507454 0.21322721 0.07697157 0.16545112
0.027315315 0.1312879 -0.3113369 -0.13302384 0.7022364 0.05584954 -0.16919558 0.03974844
-0.4075575 0.37468433 0.0505593 0.021519013 0.14390409 -0.010496305 0.1033094 0.18497765
-0.150631 0.039538532 0.07343784 -0.14987 -0.0036614672 -0.06088533 -0.28606948 -0.00490908
0.2347109 0.1746181 -0.27777353 -0.111066684 -0.18208899 -0.1463182 -0.23161061 0.13416474
-0.0066587576 -0.0715229 -0.05962222 -0.2624466 -0.0938196 -0.31731683 -0.5441469 -0.036311913
-0.19467084 0.14844461 0.0067185485 0.3155845 0.39674026 -0.063500166 0.3659511 -0.1109145
0.21417165 0.08241222 0.10127321 0.028712435 0.43335176 0.004528788 0.45160332 0.083791144
-0.4101711 0.42468125 0.28786346 -0.1441923 0.14590238 0.036155526 -0.0750464 -0.016273428
0.0760637 0.0029688843 -0.08901726 0.13641031 -0.39073265 0.114018455 -0.1362804 -0.59881383
-0.12020353 0.2862372 0.0956542 -0.26937672 0.14480531 -0.011995414 -0.08957851 -0.062359493
-0.22270256 0.5679952 0.1967381 -0.20146568 0.07955513 0.2941487 0.047683287 -0.080099486
-0.124665834 -0.053640325 0.03121623 0.38534206 0.21357875 0.045843534 -0.07438295 -0.066908576
-0.5063699 -0.120218605 -0.0038136446 0.04695747 0.0011762846 0.17547193 -0.16435774 0.025374163
0.3376237 0.41892022 0.13560942 -0.249448 0.19368464 0.16737577 0.03422848 0.09440838
-0.08359392 -0.070445344 -0.053047057 -0.024622241 -0.36007404 0.06605433 0.17847994 0.11711728
0.008858567 0.009088455 0.35529208 -0.1363049 0.43636847 -0.2056057 0.0021567862 -0.121220775
0.25199413 -0.103261955 -0.08966786 -0.05226903 0.06488552 0.20580569 0.010109589 0.09046105
0.10143441 0.005780675 0.21371788 0.12075504 -0.03738054 -0.5855509 0.20373707 0.10699675
0.23428737 -0.17991526 0.13710588 -0.38703352 0.2878858 0.42049107 0.0076624984 -0.030551903
0.07784279 -0.03112061 0.25069624 0.13434333 0.03395299 0.03331598 0.015062561 0.34126797
-0.015182634 0.19133304 -0.26278567 -0.18218921 -0.3849672 0.258617 0.017362017 0.04345794
0.19535874 -0.09183207 0.0013670459 0.038115725 -0.117315 0.047815613 -0.5025039 -0.2340306
-0.447728 -0.12329943 0.03090839 0.41589937 0.23823148 -0.25020906 -0.1684711 -0.17129603
-0.38561988 -0.25092044 -0.059506923 -0.18747322 0.048348054 0.3280746 -0.21329966 -0.106751546
-0.08420027 0.33935556 0.012236765 0.3311026 0.51192784 0.056497935 -0.08454639 0.28441852
0.32048413 -0.044779085 0.2329801 -0.012089518 -0.062040552 -0.038470786 0.15560831 0.44715437
-0.04106997 -0.3083219 0.43055972 0.27596214 0.04447257 -0.49708107 -0.32505596 -0.14509201
-0.13357702 0.09874593 0.14964025 0.3290525 0.13333231 -0.10430548 0.027396861 -0.42766705
0.2105784 0.10940231 -0.27473816 -0.14277089 -0.055432647 -0.11275013 -0.1188409 -0.13370028
-0.02055785 -0.09440577 -0.10090933 -0.017361227 0.21013303 -0.17356572 0.027255768 0.1537012
00000000: 4fc7 653e 8b9f af3c 8b33 83bd 9940 403e
00000010: fc29 09be 17c5 9dbe b908 063e 976e 0bbf
00000020: 5d0e 013f 67db ff3d 91d2 01be 1cc0 debc
00000030: 5231 d73d 3c58 5a3e 45a3 9d3d 056c 293e
00000040: 5ec4 df3c 5670 063e 8d67 9fbe 6737 08be
00000050: c4c5 333f 7dc2 643d 9b41 2dbe 43cf 223d
00000060: 60ab d0be a0d6 bf3e 4517 4f3d a448 b03c
00000070: 985b 133e b2f8 2bbc e193 d33d c86a 3d3e
00000080: 033f 1abe 28f3 213d 9466 963d 8577 19be
00000090: 3af5 6fbb e562 79bd b377 92be 59dc a0bb
000000a0: 0e58 703e 16cf 323e 5538 8ebe ee76 e3bd
000000b0: 8975 3abe 70d4 15be 552b 6dbe 7b62 093e
000000c0: b531 dabb 997a 92bd 6e36 74bd 675f 86be
000000d0: 7e24 c0bd 5a77 a2be 364d 0bbf cdbb 14bd
000000e0: cb57 47be dd01 183e 4527 dc3b 4b94 a13e
000000f0: 8a21 cb3e 600c 82bd f15d bb3e 2427 e3bd
00000100: d04f 5b3e bdc7 a83d 5468 cf3d 5736 eb3c
00000110: 48e0 dd3e 3a66 943b 8d38 e73e b19a ab3d
00000120: f201 d2be d26f d93e d762 933e 25a7 13be
00000130: 6f67 153e d117 143d edb1 99bd da4f 85bc
00000140: 49c7 9b3d 9d91 423b ae4e b6bd 25af 0b3e
00000150: 1c0e c8be 8282 e93d 178d 0bbe dd4b 19bf
00000160: 452d f6bd af8d 923e 59e6 c33d bfeb 89be
00000170: d847 143e 6a88 44bc f074 b7bd ab6c 7fbd
00000180: 240c 64be 2268 113f b675 493e 054d 4ebe
00000190: cded a23d a99a 963e 8d4f 433d 330b a4bd
000001a0: cd50 ffbd f5b5 5bbd 2eb9 ff3c 8e4b c53e
000001b0: 63b4 5a3e 6ec6 3b3d 1756 98bd 5d07 89bd
000001c0: 75a1 01bf 2c35 f6bd 57ee 79bb 7a56 403d
000001d0: 902d 9a3a eaae 333e 654d 28be 7add cf3c
000001e0: 03dd ac3e b67c d63e 32dd 0a3e 4c6f 7fbe
000001f0: 4455 463e 8e64 2b3e 2a33 0c3d 2e59 c13d
00000200: 4a33 abbd a645 90bd df47 59bd 95b4 c9bc
00000210: a05b b8be 7e47 873d 72c3 363e 2fdb ef3d
00000220: 8623 113c bee7 143c d8e8 b53e 8393 0bbe
00000230: b06b df3e 4d8a 52be de58 0d3b 9942 f8bd
00000240: 6005 813e 017b d3bd c8a3 b7bd 0d18 56bd
00000250: b3e2 843d babe 523e b1a2 253c a543 b93d
00000260: d8bc cf3d d16b bd3b dcd8 5a3e 6b4e f73d
00000270: 561c 19bd aae6 15bf 73a0 503e 1d21 db3d
00000280: 07e9 6f3e b53b 38be 7c65 0c3e 4229 c6be
00000290: c465 933e 9b4a d73e b215 fb3b fc47 fabc
000002a0: 0a6c 9f3d a6f0 febc 425b 803e 4c91 093e
000002b0: 4a12 0b3d 5676 083d f6c8 763c adba ae3e
000002c0: 95c0 78bc cfec 433e d88b 86be cf8f 3abe
000002d0: 6c1a c5be 7369 843e ca3a 8e3c f400 323d
000002e0: 1f0c 483e 7412 bcbd 732e b33a 3c1f 1c3d
000002f0: d942 f0bd 4eda 433d 18a4 00bf b8a5 6fbe
00000300: 9b3c e5be 6984 fcbd 9833 fd3c c3f0 d43e
00000310: f4f2 733e 671b 80be b083 2cbe 3a68 2fbe
00000320: f86f c5be a578 80be 88bd 73bd fbf8 3fbe
00000330: 9c08 463d 65f9 a73e 3a6b 5abe 8ea0 dabd
00000340: 3171 acbd 03c0 ad3e b67c 483c 4886 a93e
00000350: b40d 033f 616a 673d a826 adbd 4e9f 913e
00000360: 7f16 a43e 466a 37bd 5692 6e3e 1d13 46bc
00000370: 3c1e 7ebd 8b93 1dbd c957 1f3e 6bf1 e43e
00000380: fc38 28bd 5edc 9dbe 5372 dc3e e94a 8d3e
00000390: df28 363d 6981 febe bc6d a6be 0093 14be
000003a0: 6ac8 08be 4e3b ca3d 4b3b 193e 9279 a83e
000003b0: 4488 083e 1d9e d5bd 626f e03c 2df7 dabe
000003c0: dda1 573e 510e e03d 7baa 8cbe 8832 12be
000003d0: 580d 63bd 8ae9 e6bd dc62 f3bd bae8 08be
000003e0: f068 a8bc d057 c1bd 8da9 cebd 2239 8ebc
000003f0: 1d2d 573e 36bb 31be 7d47 df3c d963 1d3e

rnn.mlp.fc2.0.0.bias f4 [64]
0.0018034951 -0.069571964 0.12144341 -0.0783622 -0.10997279 -0.21053632 -0.09103332 -0.057199426
0.0003948567 0.0043163453 -0.09773627 -0.03797444 -0.12176037 0.025557622 -0.05072499 -0.06347894
0.18129776 -0.10800197 -0.056389622 -0.11377303 0.074156165 0.012865844 -0.032302205 0.04038693
-0.06772233 -0.06428903 0.026484689 -0.0418729 -0.159702 0.038117375 -0.1391361 -0.06178481
-0.05340288 -0.0090029985 -0.10571303 -0.05191107 -0.03108183 -0.025895014 -0.006428164 -0.12776339
-0.018930098 -0.09578627 -0.038633116 -0.09153735 0.08280371 -0.14186242 -0.19020095 0.123363875
-0.036426738 -0.044896748 -0.025813254 -0.017220799 -0.18640317 0.00051256537 -0.054030452 0.12855364
-0.07317363 0.0022179075 -0.10313771 0.019398285 -0.09652292 0.048875947 -0.08384331 -0.17749517
00000000: 4163 ec3a bf7b 8ebd 53b7 f83d 5c7c a0bd
00000010: 6a39 e1bd d596 57be ad6f babd f249 6abd
00000020: c504 cf39 2170 8d3b f429 c8bd 168b 1bbd
00000030: 805d f9bd 385e d13c 02c5 4fbd 3f01 82bd
00000040: 1fa6 393e 2330 ddbd cef8 66bd d601 e9bd
00000050: 30df 973d 43cb 523c 514f 04bd c46c 253d
00000060: 01b2 8abd f8a9 83bd 6bf6 d83c eb82 2bbd
00000070: ec88 23be f720 1c3d b279 0ebe 1212 7dbd
00000080: fabc 5abd 5081 13bc 1380 d8bd b4a0 54bd
00000090: 529f febc c821 d4bc 59a3 d2bb 68d4 02be
000000a0: 4b13 9bbc 982b c4bd c23d 1ebd ef77 bbbd
000000b0: fe94 a93d 6244 11be 0ac4 42be 33a6 fc3d
000000c0: 3434 15bd a7e5 37bd 5176 d3bc a212 8dbc
000000d0: 79e0 3ebe ae5d 063a 094f 5dbd 91a3 033e
000000e0: 0edc 95bd 505a 113b dd39 d3bd 27e9 9e3c
000000f0: cfad c5bd 2532 483d 0bb6 abbd 4bc1 35be

rnn.mlp.fc2.0.2.weight f4 [64]
1.2387024 1.301558 1.1954345 1.2780604 1.1526828 1.3591869 1.1191115 1.0751132
1.1845907 1.3346201 1.3317796 1.2242765 1.2116987 1.2510391 1.108073 1.1024847
1.3296396 1.3317429 1.2210137 1.3691233 1.2650338 1.2094857 1.1174891 1.3328264
1.1612241 1.2778431 1.4210153 1.2674961 1.3445468 1.2819387 1.1378276 1.2035712
1.2558786 1.1776631 1.170082 1.4128671 1.2063141 1.2331192 1.1934834 1.2134814
1.2418019 1.178208 1.2802569 1.3860555 1.3272334 1.2421501 1.2948365 1.285863
1.3171717 1.1643909 1.2800771 1.2370619 1.3415188 1.1821852 1.2516594 1.2335286
1.2401664 1.1649758 1.1584795 1.1843388 1.2298985 1.2775936 1.2832772 1.4255081
00000000: cd8d 9e3f 7499 a63f ff03 993f 7c97 a33f
00000010: 1c8b 933f d6f9 ad3f 0c3f 8f3f 4f9d 893f
00000020: aba0 973f d5d4 aa3f c177 aa3f 18b5 9c3f
00000030: f118 9b3f 0d22 a03f 56d5 8d3f 381e 8d3f
00000040: a131 aa3f 8d76 aa3f 2d4a 9c3f 6f3f af3f
00000050: a1ec a13f 6dd0 9a3f e209 8f3f 0e9a aa3f
00000060: fea2 943f 5d90 a33f d4e3 b53f 503d a23f
00000070: 1c1a ac3f 9116 a43f 56a4 913f 9f0e 9a3f
00000080: a1c0 a03f aabd 963f 3fc5 953f d4d8 b43f
00000090: 8068 9a3f dad6 9d3f 10c4 983f 5c53 9b3f
000000a0: 5df3 9e3f 85cf 963f 75df a33f 446a b13f
000000b0: c9e2 a93f c6fe 9e3f 34bd a53f 2997 a43f
000000c0: 1599 a83f c30a 953f 91d9 a33f 0b58 9e3f
000000d0: e3b6 ab3f d851 973f 6036 a03f 44e4 9d3f
000000e0: c6bd 9e3f ed1d 953f 0e49 943f 6a98 973f
000000f0: 506d 9d3f 3088 a33f 6d42 a43f 0d77 b63f

rnn.mlp.fc2.0.2.bias f4 [64]
0.064552344 -0.00415402 -0.06675059 -0.07018453 -0.086017765 0.03259964 0.009959547 -0.017927386
0.013513962 0.0629624 -0.047622338 -0.055569343 -0.0040031066 0.10298331 0.02179442 0.06895689
-0.037065804 0.036800887 0.104576215 0.020887751 0.038142964 0.0560224 0.046168778 0.013094192
-0.0693966 -0.013475243 0.020740023 -0.11823751 0.065265186 0.060397148 -0.0319352 -0.01429232
0.19928499 0.07331058 0.028639993 -0.09755263 0.1307643 0.093652286 -0.13534947 0.0062254923
-0.016351271 0.026045848 0.038523357 0.17855819 0.023656957 -0.0016505792 -0.008092132 0.022148876
-0.053280514 0.11400265 -0.089819595 0.10580012 -0.2224945 -0.09182171 -0.02615942 0.05585817
0.015083944 0.022093952 -0.059493214 -0.05416217 -0.042104684 -0.017686862 -0.0027223513 -0.15099825
00000000: 0534 843d 721e 88bb 89b4 88bd e8bc 8fbd
00000010: 152a b0bd 3387 053d 5e2d 233c 74dc 92bc
00000020: aa69 5d3c 6ef2 803d a40f 43bd ae9c 63bd
00000030: 7e2c 83bb eae8 d23d 368a b23c 4539 8d3d
00000040: 50d2 17bd 87bc 163d 0e2c d63d ca1c ab3c
00000050: cc3b 1c3d be77 653d 791b 3d3d 0689 563c
00000060: ce1f 8ebd 44c7 5cbc fbe6 a93c 8226 f2bd
00000070: c1a9 853d 0063 773d 7cce 02bd 562a 6abc
00000080: 5d11 4c3e db23 963d 6b9e ea3c acc9 c7bd
00000090: 14e7 053e c5cc bf3d 0d99 0abe 37ff cb3b
000000a0: 1af3 85bc 1a5e d53c abca 1d3d f5d7 363e
000000b0: 3ccc c13c 3f58 d8ba dd94 04bc 8f71 b53c
000000c0: ab3c 5abd 397a e93d 56f3 b7bd bcad d83d
000000d0: 99d5 63be 050d bcbd 484c d6bc 89cb 643d
000000e0: a622 773c 60fe b43c 28af 73bd 27d9 5dbd
000000f0: f675 2cbd 0ae4 90bc 7a69 32bb 499f 1abe

rnn.rnn.rnn.weight_ih_l0 f4 [192, 64]
0.007661519 0.44812232 -0.39778462 -0.16897234 -0.0011100112 0.030292053 0.13720912 0.3617171
-0.22304404 -0.053931806 0.1700429 -0.24183783 -0.23581427 0.3417809 -0.0002922507 0.21078865
0.5843151 0.13716869 -0.07647175 0.134999 -0.12343823 -0.47154754 0.36142892 -0.095275916
-0.17590275 0.2221317 -0.18182012 0.07733411 0.18424928 -0.23049408 0.025799597 0.071188524
0.050012782 0.17918874 -0.03324764 -0.50542164 0.3183718 0.18048416 -0.078934975 0.21487798
0.023893645 0.062337607 -0.28370768 -0.5130421 -0.21458802 0.038441274 0.18936323 -0.16529164
0.13940735 0.16998503 0.14071281 -0.035652522 0.22820537 -0.090413354 0.044242248 0.17574635
-0.0040733675 0.16018511 0.018460643 -0.17702948 -0.061875127 -0.3076941 0.33268303 -0.26732233
0.42432353 -0.027088407 -0.14120124 0.39027494 0.12552848 -0.18922791 -0.14135472 -0.21104105
0.007118452 -0.07930978 0.09766123 -0.04059359 -0.012473624 -0.5143345 -0.32240453 0.31578216
-0.032273773 0.353744 0.07831371 0.103650905 -0.23410842 -0.19011997 -0.15839474 -0.12756808
-0.011539763 -0.20980833 -0.26220846 0.09026151 -0.28232574 -0.10242622 -0.21803644 0.13442835
0.05024066 0.24088204 0.20070468 -0.23942499 0.20975466 0.32465103 0.35074505 -0.041210756
0.4632978 0.025393201 0.1351154 -0.007644038 0.12976794 -0.005139971 0.027855428 -0.24112658
0.010736594 0.23149699 0.36658856 0.42637774 0.10999037 0.1742626 0.15886903 0.15480615
-0.2082321 -0.20889467 0.01562693 -0.094226524 -0.34128302 0.085860886 -0.0051856446 -0.313953
-0.026641304 -0.32015768 -0.17386211 0.048600767 0.15188515 -0.20434138 0.16594465 0.030887367
0.116588 0.13458525 -0.36731124 -0.2201518 0.12189249 0.0008801177 -0.24096407 0.18090124
0.05761661 -0.031146728 0.0720495 -0.02923472 0.23310395 -0.33174703 -0.14751442 0.42544997
-0.020189093 0.13095728 0.27237403 0.06472284 -0.27259535 -0.16106486 0.05189199 0.26971957
0.0679775 0.07499075 -0.3326829 -0.18683149 0.016008088 0.27034917 0.030687522 -0.25325206
-0.08382189 0.16496593 0.006046706 0.25261462 0.0520148 -0.016396794 0.010323166 0.23910362
-0.24424112 -0.38371843 0.18728292 0.08057891 0.23009232 0.10229676 -0.11672839 0.06493498
-0.14370011 -0.22616617 -0.16938573 0.02235301 0.07735467 -0.27037624 -0.24757311 -0.14271663
0.38659096 -0.4892936 -0.2896243 0.24256843 -0.15409796 0.06680076 -0.1565595 0.26215485
0.20569082 0.15215589 0.4122216 -0.005015749 0.076495685 -0.13602833 -0.1261711 -0.04592815
0.21264248 -0.20439275 -0.23830487 -0.098402195 0.29440105 0.015898623 -0.010827049 -0.5952658
-0.15826821 -0.4002352 0.274033 -0.11234313 -0.54736364 0.22502856 0.014105935 0.3342869
0.03505417 0.29620397 0.36147663 -0.3458547 0.1413332 0.46646115 0.053683236 0.16275103
0.1274212 0.104534656 0.13936208 -0.4270008 0.079441756 -0.06217953 -0.10814407 -0.07963738
-0.009671905 -0.08565066 -0.04666299 0.008528947 -0.28224593 0.076567195 0.23715246 0.09573112
0.12196466 -0.05301783 0.17607267 0.0263352 -0.15661362 0.5292587 -0.26263773 -0.44081166
00000000: 7b0d fb3b 4a70 e53e 6daa cbbe 1607 2dbe
00000010: cc7d 91ba 0a27 f83c 8c80 0c3e fc32 b93e
00000020: a865 64be 99e7 5cbd ba1f 2e3e 56a4 77be
00000030: 4c79 71be e8fd ae3e 3a39 99b9 fbd8 573e
00000040: ad95 153f f375 0c3e 399d 9cbd 2e3d 0a3e
00000050: 2fcd fcbd ae6e f1be 360d b93e 0520 c3bd
00000060: da1f 34be 7e76 633e 0e2f 3abe 5961 9e3d
00000070: d8ab 3c3e a406 6cbe ad59 d33c 4acb 913d
00000080: 34da 4c3d 417d 373e ad2e 08bd 5063 01bf
00000090: a101 a33e d7d0 383e a9a8 a1bd f908 5c3e
000000a0: 9bbc c33c b855 7f3d 2242 91be ba56 03bf
000000b0: f6bc 5bbe 9974 1d3d 6fe8 413e 3642 29be
000000c0: cdc0 0e3e 8e10 2e3e 0517 103e 6108 12bd
000000d0: abae 693e a32a b9bd 5c37 353d daf6 333e
000000e0: e279 85bb 9107 243e c63a 973c 3747 35be
000000f0: c670 7dbd 158a 9dbe 6e55 aa3e 79de 88be
00000100: ef40 d93e 82e8 ddbc 0f97 10be 1ed2 c73e
00000110: 8a8a 003e f6c4 41be 4bbf 10be 251b 58be
00000120: e741 e93b 2a6d a2bd 9c02 c83d 7745 26bd
00000130: 2c5e 4cbc 6dab 03bf 3512 a5be 33ae a13e
00000140: 8131 04bd ef1d b53e f062 a03d ed46 d43d
00000150: 1eba 6fbe cfae 42be 3b32 22be 35a1 02be
00000160: 4611 3dbc ffd7 56be 3040 86be 07db b83d
00000170: 008d 90be d7c4 d1bd f244 5fbe 96a7 093e
00000180: 26c9 4d3d c8a9 763e 8785 4d3e d32b 75be
00000190: edc9 563e a938 a63e db94 b33e 9ccc 28bd
000001a0: 5f35 ed3e 6705 d03c b15b 0a3e d77a fabb
000001b0: e3e1 043e 346d a8bb 1131 e43c e3e9 76be
000001c0: 8ae8 2f3c 8c0d 6d3e 7fb1 bb3e 2f4e da3e
000001d0: a242 e13d e571 323e 90ae 223e 8185 1e3e
000001e0: cc3a 55be 7ce8 55be 0c04 803c d6f9 c0bd
000001f0: a6bc aebe d5d7 af3d 57ec a9bb 73be a0be
00000200: dd3e dabc b5eb a3be e908 32be 9911 473d
00000210: c887 1b3e de3e 51be 65ed 293e 8107 fd3c
00000220: b0c5 ee3d b7d0 093e 3810 bcbe 796f 61be
00000230: c5a2 f93d b3b7 663a 49bf 76be 2d3e 393e
00000240: 65ff 6b3d 6c27 ffbc b08e 933d a77d efbc
00000250: cdb2 6e3e bfda a9be 050e 17be 94d4 d93e
00000260: 9963 a5bc aa19 063e 9c74 8b3e 698d 843d
00000270: 9e91 8bbe 30ee 24be b28c 543d af18 8a3e
00000280: ca37 8b3d c094 993d 6a55 aabe c150 3fbe
00000290: 6523 833c 356b 8a3e 6664 fb3c 41aa 81be
000002a0: d0aa abbd d4ec 283e 7223 c63b b456 813e
000002b0: 790d 553d 9252 86bc 7f22 293c 94d7 743e
000002c0: 581a 7abe be76 c4be 18c7 3f3e 8e06 a53d
000002d0: 529d 6b3e f780 d13d 4b0f efbd a1fc 843d
000002e0: 1f26 13be 1b98 67be 7473 2dbe a91d b73c
000002f0: 206c 9e3d c16e 8abe ce83 7dbe 4f24 12be
00000300: 40ef c53e b184 fabe a349 94be dc63 783e
00000310: dbcb 1dbe d6ce 883d 2251 20be 2939 863e
00000320: 9da0 523e c1ce 1b3e b60e d33e 275b a4bb
00000330: c5a9 9c3d 034b 0bbe ff32 01be 281f 3cbd
00000340: f3be 593e 554c 51be 3106 74be 1787 c9bd
00000350: bcbb 963e d43d 823c ef63 31bc 5763 18bf
00000360: 1011 22be a1eb ccbe 0e4e 8c3e 2814 e6bd
00000370: 0620 0cbf e36d 663e 941c 673c a727 ab3e
00000380: f694 0f3d 0ca8 973e 7713 b93e de13 b1be
00000390: a6b9 103e ffd3 ee3e f4e2 5b3d 35a8 263e
000003a0: b47a 023e 4416 d63d efb4 0e3e d99f dabe
000003b0: 5cb2 a23d f6af 7ebd a37a ddbd ec18 a3bd
000003c0: e976 1ebc 9d69 afbd b121 3fbd ffbc 0b3c
000003d0: 8a82 90be 43cf 9c3d 18d8 723e ad0e c43d
000003e0: 9cc8 f93d 3929 59bd 654c 343e ebbc d73c
000003f0: 525f 20be 807d 073f 7478 86be 11b2 e1be

rnn.rnn.rnn.weight_hh_l0 f4 [192, 64]
0.13168564 0.03306783 -0.04488132 0.09601188 0.24241681 -0.0625593 0.15126927 0.06942129
0.036766835 0.2319225 0.049758837 -0.06483852 -0.11549343 -0.22611663 0.12015424 -0.14278202
-0.29013556 -0.1639428 -0.34114665 0.3637349 0.48192614 0.17475325 -0.027393539 -0.052961193
0.34766337 0.13770366 0.37554145 0.1522607 -0.19933687 0.103208914 -0.18547834 -0.38581207
-0.01280118 -0.15704155 0.10262017 0.009359641 0.026256667 -0.12967348 0.08978414 -0.14724095
-0.037849095 -0.24923289 -0.1909593 -0.31062967 0.06039725 0.12739883 -0.08748222 -0.13102919
0.41381052 0.092482656 -0.3368294 0.31696773 -0.30034673 -0.2142201 0.21974944 -0.33794066
0.19047762 0.31072035 -0.14353672 -0.26354635 0.29024702 0.29184166 -0.08904424 0.25959638
0.088591814 0.083227225 -0.15550156 -0.040360536 -0.0015961976 0.20245849 0.279432 -0.28270388
-0.33012512 0.31772467 -0.047615062 -0.23271622 0.044806737 -0.1594717 -0.20136353 0.036573555
-0.16031682 -0.038152125 -0.041703988 0.073030576 0.17921616 0.05387849 0.35424706 0.34670448
-0.15035917 0.29894212 0.40278023 -0.29392722 -0.12392598 -0.07895716 -0.07879369 0.006268127
0.37386498 -0.004589502 -0.121361375 -0.058313955 -0.5113656 -0.059330925 -0.0035893444 0.030009178
0.04011943 0.40134016 -0.105407804 -0.058802295 -0.03519805 -0.18838033 0.34036624 -0.10678181
0.32570264 0.3669368 0.120880626 -0.37900594 -0.16704912 0.081443794 -0.11454796 -0.06318556
0.071089484 0.36993223 0.39862347 0.08729703 -0.05351057 0.39465147 -0.018938009 0.2885444
-0.026207328 0.20683968 0.07005765 -0.39042732 -0.075289786 -0.094444275 -0.15887815 -0.06604112
0.19062193 -0.04228576 -0.024190968 -0.2876874 -0.30769664 0.23730244 0.17748591 0.014529513
0.5362701 -0.027540741 0.18891121 -0.24114296 -0.06758145 -0.16462927 -0.15778027 -0.034120623
0.05023323 -0.3144592 -0.051198047 0.20004474 0.21315277 0.18884599 0.2117065 0.5965909
-0.27635533 -0.27183178 -0.22946867 -0.13122223 -0.02810819 -0.39536074 0.013851801 -0.2559189
0.37924677 0.113137424 -0.5990049 -0.32024157 -0.08050379 -0.09195262 0.34137744 -0.2735938
-0.41489658 0.17665659 -0.2338239 0.23272394 0.2542112 -0.10801898 0.14193887 -0.19271718
-0.003866044 0.1069423 -0.018569259 0.047845032 -0.20110486 0.02968413 -0.017731352 -0.22369893
-0.2974764 0.24136068 -0.17422979 -0.027436625 0.09698123 0.20397921 0.07229703 0.16368218
0.26346552 -0.006238153 0.4302481 -0.0066486564 0.22219792 -0.12486147 -0.0031691578 -0.045677904
-0.044438295 -0.01602185 -0.05744465 0.17251104 0.4881893 0.121324636 -0.24143028 -0.03997713
0.29984674 -0.026843073 0.21311802 -0.20892233 -0.0043388843 -0.094882205 0.0060115904 0.022917582
0.28461364 -0.24395615 0.04217036 0.011817887 0.038913652 -0.093142346 0.0115736285 -0.099999994
0.2530388 0.19599366 -0.030660128 0.008835532 -0.3280391 -0.11687333 -0.24525325 -0.25356397
-0.16186816 0.15607792 0.3756376 0.14991555 0.0770655 -0.27231246 -0.076666005 0.116150215
-0.03821164 0.22151375 0.23030613 0.1465399 -0.232099 -0.18808112 -0.054979432 -0.093488015
00000000: 9ad8 063e 2272 073d 7ad5 37bd e0a1 c43d
00000010: 1d3c 783e 171f 80bd 55e6 1a3e c02c 8e3d
00000020: d298 163d 187d 6d3e eccf 4b3d 0fca 84bd
00000030: d287 ecbd 1e8b 67be 6d13 f63d 7335 12be
00000040: a68c 94be 9fe0 27be c6aa aebe 763b ba3e
00000050: 06bf f63e 84f2 323e 6a68 e0bc d6ed 58bd
00000060: ef00 b23e 3002 0d3e f846 c03e 3bea 1b3e
00000070: f71e 4cbe 325f d33d 09ee 3dbe 2989 c5be
00000080: 0abc 51bc 80cf 20be 862a d23d 2e59 193c
00000090: 3918 d73c 20c9 04be bfe0 b73d 55c6 16be
000000a0: a707 1bbd e836 7fbe d68a 43be da0a 9fbe
000000b0: 1b63 773d d774 023e e129 b3bd 842c 06be
000000c0: f9de d33e 8c67 bd3d e774 acbe 9849 a23e
000000d0: 0cc7 99be 845c 5bbe ff05 613e 8f06 adbe
000000e0: 910c 433e bd16 9f3e 4afb 12be 8cef 86be
000000f0: 429b 943e 456c 953e d45c b6bd d1e9 843e
00000100: a06f b53d 0973 aa3d cd3b 1fbe 1751 25bd
00000110: 8137 d1ba 4751 4f3e b611 8f3e 90be 90be
00000120: 2906 a9be cfac a23e 0308 43bd 294d 6ebe
00000130: 4587 373d 8d4c 23be 3e32 4ebe 27ce 153d
00000140: 182a 24be 6745 1cbd cdd1 2abd 0e91 953d
00000150: 7184 373e b1af 5c3d df5f b53e 4083 b13e
00000160: c1f7 19be f10e 993e 3639 ce3e a17d 96be
00000170: e7cc fdbd 4bb4 a1bd 965e a1bd dc64 cd3b
00000180: 3b6b bf3e 8863 96bb 508c f8bd 9dda 6ebd
00000190: dbe8 02bf fc04 73bd 353b 6bbb cfd5 f53c
000001a0: 4554 243d 757c cd3e 0ce0 d7bd adda 70bd
000001b0: d52b 10bd c6e6 40be 7c44 ae3e 6cb0 dabd
000001c0: 7fc2 a63e 24df bb3e 4390 f73d 110d c2be
000001d0: ed0e 2bbe 01cc a63d 1f98 eabd 6e67 81bd
000001e0: 5d97 913d c267 bd3e 6018 cc3e c9c8 b23d
000001f0: e62d 5bbd c20f ca3e e223 9bbc 17bc 933e
00000200: c0b0 d6bc c8cd 533e 637a 8f3d 17e6 c7be
00000210: 8831 9abd 006c c1bd f4b0 22be 9140 87bd
00000220: 6532 433e d533 2dbd 232c c6bc c34b 93be
00000230: 6a8a 9dbe 69ff 723e debe 353e 320d 6e3c
00000240: ff48 093f 1f9d e1bc f171 413e 2eee 76be
00000250: 2568 8abd 9394 28be 2791 21be 11c2 0bbd
00000260: 5cc1 4d3d cc00 a1be 0bb5 51bd 87d8 4c3e
00000270: b844 5a3e d860 413e 97c9 583e 2eba 183f
00000280: 727e 8dbe 892d 8bbe d6f9 6abe 1f5f 06be
00000290: 2643 e6bc b96c cabe aaf2 623c cd07 83be
000002a0: a22c c23e 98b4 e73d 6358 19bf b4f6 a3be
000002b0: 2cdf a4bd a851 bcbd 06c9 ae3e 7d14 8cbe
000002c0: 536d d4be 77e5 343e 886f 6fbe 2f4f 6e3e
000002d0: f827 823e 0e39 ddbd 6c58 113e a757 45be
000002e0: 755d 7dbb 9104 db3d 8f1e 98bc 27f9 433d
000002f0: 6fee 4dbe 222c f33c 5741 91bc 5511 65be
00000300: d44e 98be 4127 773e 4b69 32be c6c2 e0bc
00000310: 189e c63d eddf 503e 7710 943d 4d9c 273e
00000320: f4e4 863e 6c69 ccbb 7b49 dc3e f9dc d9bb
00000330: da87 633e 5fb7 ffbd a5b1 4fbb c118 3bbd
00000340: ee04 36bd 4140 83bc 154b 6bbd bca6 303e
00000350: f3f3 f93e 0d79 f83d 8039 77be 0fbf 23bd
00000360: 8385 993e 01e6 dbbc 9c3b 5a3e bcef 55be
00000370: 332d 8ebb 9a51 c2bd e0fc c43b a7bd bb3c
00000380: e1b8 913e a4cf 79be d4ba 2c3d d09f 413c
00000390: ec63 1f3d 6ac1 bebd 519f 3d3c cccc ccbd
000003a0: 4d8e 813e 90b2 483e f32a fbbc e8c2 103c
000003b0: bef4 a7be 495b efbd ab23 7bbe 23d3 81be
000003c0: c4c0 25be e4d2 1f3e 9253 c03e 7683 193e
000003d0: 84d4 9d3d 8a6c 8bbe 1103 9dbd 2ae0 ed3d
000003e0: cf83 1cbd 80d4 623e 5fd5 6b3e 8e0e 163e
000003f0: 5cab 6dbe 5698 40be 1d32 61bd a576 bfbd

rnn.rnn.rnn.bias_ih_l0 f4 [192]
0.17419197 0.38953078 0.4289664 0.06207095 0.41294724 0.38511392 0.18674213 0.3197626
-0.03180321 0.13236354 0.23685223 -0.030537944 0.4480145 0.18100005 0.14952698 0.36953533
0.08401302 0.21748795 0.28832352 0.31575656 0.23638459 0.059318606 0.24928959 0.102921955
0.29884842 0.25355417 0.3159128 0.2716286 0.15976562 0.10137313 0.6083027 0.20487428
0.30862468 0.23238073 0.23863126 0.04402596 0.35696408 0.22280923 -0.023283955 0.14578316
0.22581574 0.35827154 0.041912533 -0.12915528 0.26219633 0.15862751 0.23867647 -0.12392961
0.19133075 0.19565964 0.23456112 0.07062153 0.40915823 0.1893831 0.100987636 0.30324858
0.21991466 0.4761524 0.022446085 0.06245021 -0.024913307 0.30361798 0.14076382 0.2998044
0.09903233 0.18467343 0.008660161 0.14234178 -0.017759189 0.17568623 0.04453567 0.27830234
-0.11626308 -0.22687297 0.071463734 0.04721049 -0.13011283 -0.1994879 0.0683455 -0.15727219
-0.0692778 0.1454341 0.17702797 0.14837646 -0.05274757 -0.033479095 0.1668936 0.09193481
-0.27236181 0.07211897 -0.04520176 0.13791333 -0.2401867 -0.2204372 -0.2155006 -0.47554132
0.00065615494 0.021641813 0.21182321 0.11171643 -0.08426613 0.05118313 0.11673332 0.15611881
0.19128922 0.26915506 0.26404804 -0.1435894 0.10207536 0.016706446 0.041748855 -0.07395433
0.11942904 0.09731059 0.0855553 -0.24387549 -0.15581337 -0.22001424 -0.15753749 0.22587398
0.009343009 0.20238385 0.03180774 -0.32661727 0.07346599 0.24461643 -0.122180566 -0.023118956
-0.021552583 -0.13493094 0.40225428 -0.023401938 0.07376532 0.01663907 0.00634483 0.092876285
0.14971396 -0.05705276 -0.011621237 0.04816527 -0.14805874 0.14163965 0.09047543 -0.09057525
0.0561327 0.082341745 0.037948232 0.19972746 -0.042538747 0.09672653 -0.20302972 0.15664768
-0.21368535 0.11872503 0.003725068 -0.003292741 -0.18903215 0.10399765 0.040579684 -0.020178827
-0.23977767 -0.11995098 0.2688925 0.009334703 -0.22717318 -0.26916632 0.07327017 0.22139093
0.010057138 -0.1574625 -0.012401095 -0.2111507 0.16655539 0.021834712 0.23997833 0.24874863
-0.1581402 0.14953123 0.031009667 -0.12843095 -0.056167185 -0.10701949 -0.15807828 0.1851215
0.05815858 0.2079797 -0.024459131 -0.19776566 0.07712794 0.27114633 -0.042222492 0.16121072
00000000: 615f 323e 9470 c73e 7ca1 db3e 1c3e 7e3d
00000010: d26d d33e a72d c53e 5439 3f3e ecb7 a33e
00000020: 1544 02bd 4f8a 073e 6489 723e b62a fabc
00000030: 2862 e53e 1458 393e 9a1d 193e bc33 bd3e
00000040: 050f ac3d 29b5 5e3e 249f 933e d8aa a13e
00000050: cd0e 723e 11f8 723d c545 7f3e bfc8 d23d
00000060: a902 993e dad1 813e 53bf a13e e712 8b3e
00000070: 9999 233e b79c cf3d bab9 1b3f 90ca 513e
00000080: 0e04 9e3e 37f5 6d3e c15b 743e 9154 343d
00000090: ffc3 b63e 1a28 643e febd bebc 2e48 153e
000000a0: 3e3c 673e 5e6f b73e 7aac 2b3d 4841 04be
000000b0: 993e 863e 406f 223e 9b67 743e cfce fdbd
000000c0: 35ec 433e 005b 483e ca30 703e 05a2 903d
000000d0: 307d d13e a5ed 413e 9bd2 ce3d 6643 9b3e
000000e0: 4f31 613e 3fca f33e dae0 b73c cbcb 7f3d
000000f0: fe16 ccbc d173 9b3e 6424 103e f67f 993e
00000100: 76d1 ca3d 081b 3d3e 59e3 0d3c 0bc2 113e
00000110: b87b 91bc 17e7 333e 096b 363d a57d 8e3e
00000120: 561b eebd 6351 68be 945b 923d c95f 413d
00000130: 4c3c 05be 8e46 4cbe baf8 8b3d f60b 21be
00000140: 85e1 8dbd adec 143e d246 353e 00f0 173e
00000150: d60d 58bd 6021 09bd 28e6 2a3e 5148 bc3d
00000160: 0273 8bbe 1cb3 933d 7b25 39bd 2739 0d3e
00000170: 81f3 75be 4aba 61be 30ac 5cbe 277a f3be
00000180: d001 2c3a 2c4a b13c 2fe8 583e 95cb e43d
00000190: b993 acbd 67a5 513d e111 ef3d 9cdd 1f3e
000001a0: 52e1 433e b1ce 893e 4e31 873e 1a09 13be
000001b0: e30c d13d f5db 883c d900 2b3d 5e75 97bd
000001c0: 3697 f43d c64a c73d 9e37 af3d 7fba 79be
000001d0: 8a8d 1fbe 6a4b 61be 8251 21be 824b 673e
000001e0: 6c13 193c b63d 4f3e d548 023d 613a a7be
000001f0: 5675 963d bb7c 7a3e ce39 fabd f763 bdbc
00000200: 0b8f b0bc 562b 0abe 46f4 cd3e 6cb5 bfbc
00000210: 4612 973d a94e 883c 4be8 cf3b ec35 be3d
00000220: 9e4e 193e 28b0 69bd 0067 3ebc f248 453d
00000230: b69c 17be fc09 113e 2f4b b93d 847f b9bd
00000240: 67eb 653d caa2 a83d 9b6f 1b3d 5b85 4c3e
00000250: 1c3d 2ebd 8f18 c63d 06e7 4fbe 4068 203e
00000260: 55d0 5abe 1c26 f33d 4520 743b 07cb 57bb
00000270: a591 41be b8fc d43d e236 263d 114e a5bc
00000280: 4788 75be dca8 f5bd 47ac 893e 95f0 183c
00000290: 16a0 68be 2bd0 89be ac0e 963d 4eb4 623e
000002a0: b2c6 243c d93d 21be f62d 4bbc e437 58be
000002b0: 7f8d 2a3e b6de b23c e1bc 753e f6b7 7e3e
000002c0: 81ef 21be b71e 193e fc07 fe3c 6783 03be
000002d0: 900f 66bd 092d dbbd 46df 21be 7e90 3d3e
000002e0: b137 6e3d a1f8 543e 845e c8bc 1583 4abe
000002f0: 41f5 9d3d b1d3 8a3e 7ef1 2cbd 6c14 253e
