train/maddpg-v5/results/formation_hd_env/maddpg/hd_2/run13/models/policy_1/actor.pt (torch, 62825 bytes, 20 tensors)

mlp.feature_norm.weight f4 [12]
0	0x3f713243	0.9421732
1	0x3f70761c	0.9393022
2	0x3f796ce1	0.9743176
3	0x3f73f030	0.9528837
4	0x3f729bc2	0.9476892
5	0x3f72a289	0.9477926
6	0x3f7e3071	0.99292666
7	0x3f7fbf59	0.9990135
8	0x3f870abf	1.0550154
9	0x3f8876df	1.0661277
10	0x3f7668e1	0.9625378
11	0x3f74829c	0.95511794

mlp.feature_norm.bias f4 [12]
0	0xbd59b028	-0.05314651
1	0x3d7b6abd	0.06138109
2	0xbc46face	-0.012144757
3	0xbd89b4a5	-0.06723908
4	0xbd6f939d	-0.058490384
5	0x3d06bad1	0.032893006
6	0x3d82ee28	0.06393081
7	0x3a241436	0.0006259115
8	0x3d6f70a7	0.058457043
9	0xbd0a9762	-0.033835776
10	0xbab791be	-0.0014005227
11	0x3d8636b8	0.065534055

mlp.mlp.fc1.0.weight f4 [64, 12]
0	0xbd32d7b8	-0.043662757
1	0xbdcf5c24	-0.10124996
2	0xbe2b0e45	-0.16704662
3	0x3d5526fa	0.052039124
4	0xbded56bc	-0.11588809
5	0xbd47b42c	-0.04875581
6	0xbd1e3a9d	-0.038630117
7	0xbda7dd18	-0.08196467
8	0xbc319a55	-0.010840018
9	0xbe441bbd	-0.19151206
10	0xbe685708	-0.2268945
11	0xbe938b57	-0.28817245
12	0x3e3ccb2e	0.18436882
13	0xbd06dce6	-0.03292551
14	0xbbfae65f	-0.007656857
15	0xbc363317	-0.011120579
16	0xbb9f3846	-0.0048590032
17	0x3e68aac9	0.227214
18	0xbda1e572	-0.07905091
19	0xbe3406bf	-0.17580698
20	0x3da8286a	0.08210833
21	0xbebed58d	-0.372723
22	0x3e23756e	0.15962765
23	0xbe27c363	-0.16383128
24	0xbe4ef440	-0.20210361
25	0xbcdc5af2	-0.026898835
26	0xbb882eb1	-0.0041559567
27	0x3e89cf8c	0.26916158
28	0xbd0be1b3	-0.03415079
29	0x3e1a4e16	0.1506885
30	0x3e13b915	0.14426072
31	0x3e738895	0.2378257
32	0xbe474446	-0.19459638
33	0xbd51ad5c	-0.05119072
34	0xbe537bae	-0.20652649
35	0x3c1133e7	0.008862472
36	0x3e472bf5	0.19450362
37	0x3e11a2c9	0.14222254
38	0x3e25af0c	0.16180056
39	0x3c8939f8	0.016751274
40	0x3e0a73ce	0.13520738
41	0x3e24ac1a	0.16081277
42	0xbe13e6d3	-0.14443521
43	0x3dabfe9a	0.08398171
44	0x3d006b79	0.031352494
45	0xbe288cf8	-0.16460025
46	0x3df0c134	0.117556006
47	0x3d1746b9	0.03693268
48	0xbd509820	-0.050926328
49	0xbea4d723	-0.32195386
50	0xbe604023	-0.21899466
51	0xbe44c145	-0.19214351
52	0x3d5ba56a	0.053624548
53	0xbdf4171d	-0.11918471
54	0xbdee6728	-0.11640769
55	0xbe249e57	-0.16076027
56	0xbe5d7c49	-0.21629442
57	0xbe1b0c39	-0.15141381
58	0xbe0b264d	-0.1358883
59	0xbe2f740e	-0.17134115
60	0xbdfe5ece	-0.12420426
61	0x3e58798a	0.21140113
62	0xbd7027d0	-0.05863172
63	0x3e0b6ff5	0.13616927
64	0xbd2014cd	-0.039082337
65	0x3d226bd7	0.039653625
66	0x3e30a343	0.1724978
67	0xbdace350	-0.08441794
68	0x3ecd40f6	0.40088624
69	0xbe723c6a	-0.23655859
70	0xbe493b5d	-0.19651552
71	0xbbbcec93	-0.0057655065
72	0x3ebed498	0.3727157
73	0x3df1c4fa	0.118051484
74	0xbe99601c	-0.29956138
75	0xbda1dcab	-0.07903417
76	0x3e8b78ee	0.272407
77	0x3cd41346	0.025888097
78	0x3e4a63a4	0.19764572
79	0x3e249346	0.16071805
80	0xbed1c9d4	-0.40974295
81	0x3e50a887	0.20376788
82	0xbdc198eb	-0.09452995
83	0xbe051a21	-0.12998249
84	0xbe855072	-0.26037937
85	0xbd4221ec	-0.04739563
86	0xbe358f6f	-0.17730497
87	0xbddb0208	-0.10693747
88	0x3d0ff4d5	0.0351456
89	0xbc5b4b5d	-0.013384667
90	0x3d083952	0.03325779
91	0x3da73e73	0.08166208
92	0x3eba8454	0.36429083
93	0xbc33f687	-0.01098407
94	0xbe3963f6	-0.18104538
95	0xbd9358ee	-0.07194696
96	0x3e1ab666	0.15108642
97	0xbe27d7ca	-0.1639091
98	0x3c2f1d34	0.010688115
99	0x3dc6098e	0.09669791
100	0x3e285f63	0.16442637
101	0x3e631dec	0.22179383
102	0xbda54afd	-0.080709435
103	0xbdf86299	-0.12128181
104	0xbbd370e0	-0.0064526647
105	0x3d576b17	0.052592363
106	0xbe1902c7	-0.14942466
107	0xbda3ea8e	-0.08003722
108	0xbbd9134a	-0.006624614
109	0x3d076630	0.033056438
110	0xbe15d49d	-0.14631887
111	0x3e02f32a	0.12788072
112	0x3df14035	0.11779825
113	0x3dbf5ee1	0.093442686
114	0xbe06dfd5	-0.13171323
115	0x3b839d8f	0.004016585
116	0x3e220e3b	0.15825741
117	0x3e490479	0.19630612
118	0x3e4f1ca0	0.20225763
119	0xbe9d5718	-0.3073051
120	0xbde691b6	-0.11258261
121	0x3da28fc8	0.0793758
122	0xbe750916	-0.23929247
123	0xbbe2027a	-0.006897268
124	0xbe3a4df3	-0.18193798
125	0x3dfd8141	0.12378169
126	0x3daf0924	0.08546665
127	0x3e8c55ea	0.27409297
128	0x3ecb383f	0.3969135
129	0xbe412d74	-0.18864995
130	0xbdff697b	-0.12471291
131	0x3e0ef99f	0.1396241
132	0x3e8d9b57	0.27657577
133	0x3d755d92	0.05990369
134	0xbe907f9c	-0.28222358
135	0xbe35702d	-0.17718573
136	0xbe95c1f4	-0.29249537
137	0x3e5ad1a3	0.21369033
138	0xbc4ed967	-0.012625075
139	0x3c25b507	0.010113961
140	0x3ebe980e	0.37225384
141	0x3ad8dbbb	0.0016544977
142	0xbca4cb19	-0.020116376
143	0x3e898895	0.26862016
144	0xbddae072	-0.10687341
145	0xbd74b4d9	-0.059742782
146	0xbd848946	-0.06471495
147	0x3dd4fa50	0.10399306
148	0xbdd6f5ec	-0.104961246
149	0xbe3cec14	-0.18449432
150	0x3d4a6833	0.04941578
151	0x3e9edc0c	0.31027257
152	0xbea70aa4	-0.32625306
153	0xbe2064bd	-0.15663429
154	0x3bbfb90f	0.005850918
155	0x3dfb6745	0.122755565
156	0x3e5f1d26	0.21788463
157	0x3e2b1c8b	0.16710107
158	0xbd0425e9	-0.032262716
159	0xbe448f02	-0.19195178
160	0xb7cf7547	-2.4730934e-05
161	0x3cf7e798	0.0302618
162	0x3d910bb8	0.07082313
163	0xbd93e6d3	-0.072217606
164	0xbe1e3ea6	-0.15453586
165	0x3f189c35	0.59613353
166	0xbdda2ddc	-0.10653278
167	0x3ea92bcf	0.33041236
168	0x3e0f75a1	0.14009716
169	0xbd9aa899	-0.07551689
170	0x3d2731a3	0.04081882
171	0xbcd64405	-0.026155481
172	0x3e29a71d	0.16567655
173	0x3e27abc9	0.16374125
174	0xbe68d11a	-0.22736016
175	0xbda91c92	-0.082574025
176	0x3e16512f	0.14679407
177	0x3e32b779	0.17452802
178	0xbe981536	-0.29703683
179	0xbd2e12e9	-0.042498503
180	0x3ea4a5b3	0.32157668
181	0xbe1827c6	-0.14858922
182	0xbd4d02f2	-0.050051637
183	0xbe8db44e	-0.27676624
184	0x3b5cd6d7	0.003369739
185	0x3e0a1e10	0.1348803
186	0x3df44f3d	0.11929176
187	0x3c8094dc	0.015695982
188	0xbe08ec6b	-0.13371436
189	0x3d5a7cfb	0.053341847
190	0xbdf75e36	-0.12078516
191	0xbe2b4e74	-0.16729146
192	0x3d43f15c	0.0478376
193	0xbc89559d	-0.016764456
194	0xbda57078	-0.08078092
195	0xbd86c6db	-0.065808974
196	0xbb72d019	-0.0037050305
197	0x3c745274	0.0149122365
198	0x3e9389e3	0.28816137
199	0x3d8aed13	0.067834996
200	0xbd670fd7	-0.05641159
201	0x3d125182	0.035722263
202	0x3ea75eb7	0.3268945
203	0xbf05b12b	-0.5222346
204	0xbd9e9ddc	-0.07744953
205	0xbdc2a2a0	-0.095036745
206	0x3db46896	0.08809011
207	0xbeac5e36	-0.33665627
208	0xbe018976	-0.12650093
209	0x3d753b6e	0.05987113
210	0xbe859f35	-0.26098028
211	0x3e39db90	0.18150163
212	0xbd991aed	-0.07475839
213	0x3ec7a5ae	0.3899359
214	0x3eecad67	0.46226045
215	0xbe563437	-0.20918356
216	0x3ce403e8	0.027833894
217	0xbc9cbe98	-0.019133851
218	0xbebd07ec	-0.36920106
219	0xbd74ab3f	-0.059733626
220	0xbd8b84d7	-0.068124466
221	0xbe495804	-0.19662482
222	0xbe37c109	-0.17944731
223	0x3cb4f62d	0.022090042
224	0x3c1b35db	0.009473289
225	0xbcd79235	-0.026314834
226	0xbe027b56	-0.12742361
227	0x3de4b959	0.11168165
228	0xbd86b447	-0.06577354
229	0xbcf38098	-0.029724404
230	0xbd7ae03c	-0.061249003
231	0xbe301ed2	-0.17199257
232	0xbe7d2b80	-0.24723625
233	0xbeefe3a1	-0.46853355
234	0xbead59d8	-0.33857608
235	0x3e51c94f	0.2048695
236	0x3dd8e307	0.10590177
237	0xbe181882	-0.14853099
238	0xbe1c5481	-0.1526661
239	0xbdcfc7ef	-0.10145556
240	0xbe71cd96	-0.23613581
241	0x3c6d4669	0.014482119
242	0xbe87a605	-0.2649385
243	0x3dae8de1	0.08523155
244	0x3e5de487	0.21669208
245	0xbd827090	-0.06369126
246	0xbe49379b	-0.19650118
247	0xbe0a93a9	-0.1353289
248	0xbc848db1	-0.016180845
249	0xbba9c451	-0.0051808734
250	0x3dc490a2	0.09597899
251	0xbe49f799	-0.19723357
252	0x3e047904	0.12936789
253	0x3c3c6fc0	0.011501253
254	0x3c3238d4	0.010877807
255	0xbd4e1fcd	-0.050323296

mlp.mlp.fc1.0.bias f4 [64]
0	0xbd7b6345	-0.061373968
1	0x3d40e717	0.047095384
2	0x3d6fb49a	0.058521844
3	0xbd745357	-0.05964979
4	0xbd66bb5b	-0.05633102
5	0x3d684a35	0.056711394
6	0x3c052119	0.008125567
7	0x3d3e45b4	0.046453193
8	0xbd89011c	-0.06689665
9	0xbb2edc05	-0.0026681435
10	0x3d611c34	0.054958537
11	0x3d88b09e	0.06674312
12	0x3c63debe	0.013908086
13	0x3d8db109	0.069185324
14	0xbd7104ab	-0.058842342
15	0x3d4ef7c8	0.05052927
16	0xbd804378	-0.06262869
17	0x3d6e8792	0.05823476
18	0xbd87a9f4	-0.06624213
19	0x3d7facbc	0.06242059
20	0xbd32c059	-0.04364047
21	0xbd001bdd	-0.031276572
22	0xbd4fc58e	-0.050725512
23	0x3d702467	0.058628466
24	0xbcbf6aaf	-0.0233663
25	0x3d18fc38	0.03734991
26	0xbd83adf5	-0.06429664
27	0xbd221593	-0.039571356
28	0xbd155d14	-0.03646572
29	0xbd65ef20	-0.05613625
30	0x3c895bce	0.016767409
31	0x3d4f5b24	0.050624028
32	0xbd2b75a0	-0.041860223
33	0x3d02b4ef	0.031910833
34	0xbd965350	-0.07340109
35	0x3d928d90	0.07155907
36	0xbd4d3260	-0.05009687
37	0xbd564386	-0.05231049
38	0x3ce3fc92	0.027830396
39	0x3d89fe8e	0.067380056
40	0x3d8522ff	0.065008156
41	0x3d49238c	0.049106166
42	0x3d7a9413	0.06117637
43	0xbd13c609	-0.036077533
44	0xbd6bbb38	-0.057551593
45	0x3d763a9e	0.060114495
46	0x3d882b97	0.06648939
47	0xbd0f8840	-0.035042048
48	0x3d5e0bad	0.054210354
49	0x3d341168	0.043961912
50	0xbd7a3f8d	-0.061095763
51	0xbd800c3a	-0.06252332
52	0xbd8585bc	-0.065196484
53	0x3d721b6d	0.059108187
54	0x3c5453fd	0.0129594775
55	0xbd2aab0b	-0.041667026
56	0xbd59ec0e	-0.053203635
57	0x3d3809d8	0.044931263
58	0xbd696cb0	-0.056988418
59	0xbd1c3a55	-0.038141567
60	0x3d891725	0.066938676
61	0xbce79329	-0.028268414
62	0x3d625524	0.055256978
63	0xbd934a74	-0.07191935

mlp.mlp.fc1.2.weight f4 [64]
0	0x3f854da9	1.0414325
1	0x3f82d0a7	1.0219926
2	0x3f7462ca	0.9546324
3	0x3f815240	1.0103226
4	0x3f878636	1.0587833
5	0x3f83d373	1.0298904
6	0x3f75178a	0.9573904
7	0x3f7e2566	0.99275815
8	0x3f859cbd	1.0438458
9	0x3f798594	0.9746945
10	0x3f82a516	1.020663
11	0x3f78df01	0.97215277
12	0x3f7f481e	0.9971942
13	0x3f80caed	1.0061928
14	0x3f8342df	1.0254782
15	0x3f79fa9a	0.9764801
16	0x3f861768	1.0475893
17	0x3f842650	1.0324192
18	0x3f7cdaea	0.98771536
19	0x3f72ac41	0.9479409
20	0x3f77bbd2	0.96770966
21	0x3f7b70f0	0.98219204
22	0x3f711449	0.9417158
23	0x3f73c580	0.95223236
24	0x3f7b3ab1	0.9813643
25	0x3f732154	0.9497273
26	0x3f8810e0	1.063015
27	0x3f808edd	1.0043598
28	0x3f78e54b	0.97224873
29	0x3f8355e2	1.0260584
30	0x3f81d4b7	1.014304
31	0x3f81bbd4	1.0135446
32	0x3f803ce7	1.0018586
33	0x3f758d79	0.95918995
34	0x3f83d4b7	1.029929
35	0x3f771587	0.96517223
36	0x3f805819	1.0026885
37	0x3f846867	1.0344361
38	0x3f7cd0ff	0.987564
39	0x3f7a2d2e	0.9772519
40	0x3f84407c	1.0332179
41	0x3f702326	0.9380363
42	0x3f771363	0.96513957
43	0x3f7ed996	0.9955076
44	0x3f853a8c	1.0408492
45	0x3f758495	0.9590543
46	0x3f802bea	1.0013402
47	0x3f797b3b	0.9745366
48	0x3f75d04a	0.9602095
49	0x3f7509fa	0.9571835
50	0x3f7f1624	0.9964316
51	0x3f7e48e3	0.99329966
52	0x3f879e46	1.0595176
53	0x3f7e8b1e	0.99431026
54	0x3f78ef45	0.97240096
55	0x3f7ca9a4	0.9869635
56	0x3f7d56b5	0.9896043
57	0x3f76dea8	0.96433496
58	0x3f7e0202	0.99221814
59	0x3f754b0c	0.9581764
60	0x3f7df703	0.99205035
61	0x3f73422e	0.9502286
62	0x3f7f8f69	0.998282
63	0x3f829e39	1.0204536

mlp.mlp.fc1.2.bias f4 [64]
0	0xbd8f3189	-0.0699187
1	0x3d40fb83	0.04711486
2	0x3d6263ff	0.055271145
3	0xbd7da6fa	-0.06192682
4	0xbd7cc30f	-0.06170946
5	0x3d6031de	0.054735057
6	0x3c4ed595	0.012624164
7	0x3d500cd7	0.050793495
8	0xbd9027ff	-0.07038879
9	0x3bb0d7c6	0.005396816
10	0x3d6218d9	0.055199478
11	0x3d916ba3	0.07100608
12	0x3c3e7116	0.0116236415
13	0x3d949cb6	0.07256453
14	0xbd8145f7	-0.06312173
15	0x3d5e63ba	0.054294325
16	0xbda625dd	-0.081126906
17	0x3d703034	0.05863972
18	0xbd990ea9	-0.07473499
19	0x3d801d9f	0.0625565
20	0xbd63db07	-0.055628803
21	0xbcf250b9	-0.029579507
22	0xbd4aa82f	-0.0494768
23	0x3d75ca8d	0.06000762
24	0xbd1c7a7f	-0.03820276
25	0x3d3480bc	0.044068083
26	0xbd894625	-0.06702832
27	0xbca14a7e	-0.019688841
28	0xbce5c423	-0.028047627
29	0xbd688f13	-0.05677707
30	0xbc10fe97	-0.008849761
31	0x3d4ca8f8	0.04996583
32	0xbd808527	-0.06275397
33	0x3d2d0018	0.042236418
34	0xbda08e78	-0.07839674
35	0x3da00ee3	0.078153394
36	0xbd5445be	-0.051824324
37	0xbd7aa8a0	-0.06119597
38	0x3c801a4c	0.01563754
39	0x3d85f959	0.065417
40	0x3d9056f7	0.07047837
41	0x3d728fbc	0.059219107
42	0x3d82de0a	0.06390007
43	0xbd6f6312	-0.05844409
44	0xbd813c17	-0.06310289
45	0x3d617ede	0.05505263
46	0x3d84f584	0.06492141
47	0xbd26df60	-0.04074037
48	0x3d885a77	0.0665788
49	0x3d4f34e3	0.050587546
50	0xbd940f55	-0.07229487
51	0xbd972120	-0.07379365
52	0xbd8e4a50	-0.06947768
53	0x3d621507	0.055195834
54	0x395d3be1	0.00021098509
55	0xbd64e560	-0.05588281
56	0xbd6ec5f6	-0.05829426
57	0x3d3a772e	0.045523815
58	0xbd834052	-0.064087525
59	0xbce8bde8	-0.028410867
60	0x3d9192b5	0.0710806
61	0x3c0b5c77	0.008505932
62	0x3d686fbb	0.05674718
63	0xbd9618af	-0.07328927

mlp.mlp.fc_h.0.weight f4 [64, 64]
0	0xbe61f5c1	-0.22066404
1	0xbe92fe1c	-0.28709495
2	0xbe982c64	-0.29721367
3	0xbe7c6a55	-0.24649937
4	0x3e0200bc	0.12695593
5	0xbce7597f	-0.028240917
6	0x3e2f0454	0.17091495
7	0xbe0918b7	-0.13388334
8	0xbd97e4c9	-0.07416684
9	0xbcf6e76f	-0.030139653
10	0xbc7607b1	-0.015016482
11	0x3e23269f	0.15932702
12	0xbdc70012	-0.0971681
13	0xbbbd9f79	-0.005786833
14	0xbe30a719	-0.17251243
15	0xbe004b04	-0.12528616
16	0x3da87534	0.0822548
17	0xbde600ba	-0.11230607
18	0x3e3d32f2	0.18476465
19	0x3bc71e9f	0.0060766484
20	0xbe08c9b0	-0.13358188
21	0x3e4a0060	0.19726706
22	0xbe454e51	-0.19268157
23	0xbe3f33b1	-0.18672062
24	0x3e9e7620	0.30949497
25	0xbe8e2db4	-0.27769244
26	0xbe14c09a	-0.14526597
27	0xbe0e4abb	-0.13895695
28	0x3dc3b94b	0.09556826
29	0x3e4cfd41	0.20018484
30	0xbd27a122	-0.040925153
31	0x3e8b96e3	0.27263555
32	0x3dc4acf9	0.096033044
33	0xbe691548	-0.22762024
34	0xbdd4f6ac	-0.103986114
35	0xbe3d9b31	-0.18516232
36	0xbe4b1afc	-0.19834512
37	0xbd962dec	-0.07332978
38	0x3e94892b	0.290109
39	0x3dd888e1	0.105729826
40	0x3e189a4b	0.14902608
41	0xbcfb443b	-0.030672183
42	0x3c3788f2	0.011202084
43	0xbe68bb8a	-0.2272779
44	0xbca88530	-0.020571321
45	0x3db62855	0.088944115
46	0x3d63e92b	0.05564229
47	0x3e684e22	0.22686055
48	0x3cd250d5	0.02567331
49	0xbda10650	-0.07862532
50	0x3c671ea7	0.014106429
51	0x3e18f3c2	0.14936736
52	0xbefaf001	-0.49011233
53	0xbe4fccaa	-0.20292917
54	0x3e0d1af5	0.13779815
55	0xbe47c3e9	-0.19508328
56	0x3ecbf336	0.39833993
57	0x3d1e1038	0.038589686
58	0x3e9dbf0b	0.30809817
59	0xbe26db3a	-0.16294566
60	0x3d7119f0	0.058862627
61	0x3d11701a	0.0355073
62	0xbdca91f5	-0.0989112
63	0xbacb3830	-0.0015504416
64	0xbd468f01	-0.048476223
65	0x3d5059c5	0.05086686
66	0xbda55f05	-0.08074764
67	0x3dd570f9	0.104219384
68	0x3e3b78d5	0.18307813
69	0xbc9bfc8b	-0.01904132
70	0x3d09f4b8	0.033680648
71	0xbc8a51f8	-0.016884789
72	0xbd42e3ab	-0.047580402
73	0x3e6c6378	0.2308482
74	0x3d55009e	0.05200254
75	0x3e87597f	0.26435468
76	0xbd8884ec	-0.06665978
77	0xbef108cb	-0.4707702
78	0xbd0c7889	-0.03429464
79	0x3da6e859	0.081497855
80	0xbc7fd7d9	-0.015615427
81	0x3daf9d61	0.085749395
82	0x3eef25b1	0.46708444
83	0xbe0a2d07	-0.13493739
84	0x3e8a1a2f	0.26973101
85	0xbccc7b01	-0.024960997
86	0x3c069e75	0.00821649
87	0x3e0af59c	0.13570255
88	0x3e585a44	0.21128184
89	0xbdbce6c3	-0.09223702
90	0xbd92fc87	-0.07177072
91	0xbc208964	-0.0097983815
92	0x3e428893	0.18997411
93	0x3e86b587	0.2631037
94	0xbe6f406e	-0.23364422
95	0xbeb0e397	-0.34548637
96	0x3d0632de	0.032763354
97	0x3cd2a160	0.025711715
98	0x3d48fed5	0.04907115
99	0x3e8cd1df	0.2750387
100	0x3e15813f	0.14600085
101	0x3e84d59b	0.25944218
102	0xbde8af03	-0.11361506
103	0xbe7a49a2	-0.24442151
104	0x3d5bab9e	0.053630464
105	0xbdeb1e48	-0.11480385
106	0xbd713a2b	-0.058893364
107	0x3dfcdd1b	0.1234686
108	0x3e62ae87	0.2213689
109	0x3e6adcbb	0.22935764
110	0xbedb2de1	-0.4280844
111	0x3dbb4411	0.09143842
112	0xbe216794	-0.15762168
113	0x3d072104	0.03299047
114	0x3e317bbf	0.17332362
115	0xbe96873c	-0.2940005
116	0xbe047fe2	-0.12939408
117	0x3e2d26b6	0.16909298
118	0x3dd1e582	0.10248853
119	0xbe3447a0	-0.17605448
120	0xbe133541	-0.14375784
121	0x3cc2f380	0.02379775
122	0x3db9fbc8	0.090812266
123	0x3d7ed27d	0.062212456
124	0xbcc1bd52	-0.023649845
125	0x3de356d9	0.11100549
126	0xbdec6543	-0.11542752
127	0xbe62abd4	-0.2213586
128	0xbbde5d13	-0.0067859977
129	0x3e856465	0.26053157
130	0x3dc2213b	0.094789945
131	0x3ea74f20	0.32677555
132	0xbe34f755	-0.17672475
133	0x3e4866e2	0.19570497
134	0xbd1e5b7d	-0.03866147
135	0x3e87fef6	0.26561707
136	0xbe54f575	-0.2079676
137	0x3eb90182	0.36133963
138	0x3e2326aa	0.15932718
139	0xbcb818c5	-0.022472749
140	0xbe91c5fb	-0.2847136
141	0xbe36c973	-0.17850284
142	0xbe04eb31	-0.12980343
143	0x3d713f57	0.058898296
144	0xbe2bb0cb	-0.1676666
145	0xbe954d3a	-0.29160482
146	0xbe39b745	-0.18136318
147	0x3e6dfb57	0.2324041
148	0x3e96f455	0.29483286
149	0xbc30e231	-0.010796116
150	0xbdd5ccca	-0.10439451
151	0x3e1734cf	0.14766239
152	0x3e661064	0.2246719
153	0x3dc166df	0.09443449
154	0x3e6290b7	0.22125517
155	0xbe1e5040	-0.154603
156	0xbd96340c	-0.07334146
157	0x3cdbcfa5	0.026832411
158	0xbd8a8d8e	-0.06765281
159	0xbe00ab84	-0.12565428
160	0x3d8a804b	0.06762751
161	0xbc98b35d	-0.018640215
162	0xbdbe1b49	-0.09282548
163	0xbe01c00b	-0.12670915
164	0xbe600f9e	-0.21880957
165	0xbe11844a	-0.1421062
166	0xbd08ebff	-0.03342819
167	0x3d9992c6	0.07498698
168	0xbc615279	-0.013752573
169	0x3db14c02	0.086570755
170	0x3e47e466	0.19520721
171	0x3db1180c	0.08647165
172	0x3cc4fab5	0.024045328
173	0xbe0a650f	-0.13515113
174	0x3e8d45a8	0.27592206
175	0xbd35d33a	-0.044390894
176	0x3d9e58ea	0.07731803
177	0xbdd09fa9	-0.10186703
178	0xbe407deb	-0.18798034
179	0xbe8718b5	-0.26386037
180	0xbe667c22	-0.2250829
181	0xbeb09ab5	-0.34493032
182	0x3e676ad6	0.22599348
183	0xbeb77ee4	-0.35838997
184	0xbccee667	-0.025256349
185	0x3d31c672	0.043402143
186	0xbd17a49d	-0.03702222
187	0x3e06fd78	0.13182628
188	0x3d076f98	0.03306541
189	0x3e1a8c65	0.15092619
190	0x3db88858	0.090103805
191	0x3e95338f	0.291409
192	0x3ea28fbf	0.31750295
193	0xbcf1e3e2	-0.029527608
194	0x3c027b48	0.007963963
195	0xbdae7d2c	-0.085199684
196	0x3e2b0bde	0.16703746
197	0xbddf1850	-0.10893309
198	0x3e3143a3	0.17310958
199	0x3e213099	0.15741195
200	0x3d3d0593	0.046147894
201	0x3edd0542	0.43168074
202	0x3ee0616c	0.43824327
203	0xbd104879	-0.035225365
204	0xbd5463dd	-0.05185305
205	0xbe6fbeb5	-0.23412593
206	0xbd1c3c4d	-0.038143445
207	0x3d1892fb	0.037249546
208	0x3d8f3b0d	0.06993685
209	0xbdd771a3	-0.10519721
210	0x3eb870c2	0.36023527
211	0x3d82e3c9	0.06391103
212	0xbea0887f	-0.31354138
213	0x3e1b4d11	0.15166117
214	0x3d68cb9b	0.0568348
215	0xbd41c201	-0.047304157
216	0xbd0dd8d1	-0.0346306
217	0xbe5fa26f	-0.21839307
218	0x3ea58535	0.3232819
219	0x3ea7e81b	0.3279427
220	0x3da380b2	0.07983531
221	0xbdad098f	-0.08449089
222	0x3d8f4bea	0.06996901
223	0x3e5afe0a	0.2138597
224	0xbde5c6b1	-0.11219538
225	0x3e2b775d	0.16744752
226	0xbc82486e	-0.015903678
227	0xbdf42ef3	-0.11923017
228	0x3c9b8cd8	0.018988058
229	0x3e311d99	0.17296447
230	0x3d62abda	0.05533967
231	0x3deec864	0.11659315
232	0x3dab0d60	0.083521605
233	0x3df2a3a9	0.11847622
234	0x3d1528c3	0.036415827
235	0xbdd1c684	-0.10242942
236	0x3dfb620f	0.122745626
237	0xbeaac105	-0.33350387
238	0x3dd5fbc3	0.1044841
239	0xbe8aa550	-0.27079248
240	0x3d56fe8d	0.052488852
241	0xbe51e3e4	-0.2049709
242	0xbddcbfde	-0.10778783
243	0xbd3bbe9c	-0.045836076
244	0x3da2b3e0	0.07944465
245	0x3e45de0c	0.19322985
246	0x3de0076b	0.10938915
247	0x3e9e1a1d	0.30879298
248	0x3e327cc6	0.1743041
249	0xbe14d94c	-0.14536017
250	0x3e1a0975	0.1504267
251	0x3ea936c3	0.33049592
252	0xbd62541a	-0.055255987
253	0xbd836761	-0.06416202
254	0xbd3d89d2	-0.046274014
255	0xbd92ebb0	-0.0717386

mlp.mlp.fc_h.0.bias f4 [64]
0	0x00000000	0.0
1	0x00000000	0.0
2	0x00000000	0.0
3	0x00000000	0.0
4	0x00000000	0.0
5	0x00000000	0.0
6	0x00000000	0.0
7	0x00000000	0.0
8	0x00000000	0.0
9	0x00000000	0.0
10	0x00000000	0.0
11	0x00000000	0.0
12	0x00000000	0.0
13	0x00000000	0.0
14	0x00000000	0.0
15	0x00000000	0.0
16	0x00000000	0.0
17	0x00000000	0.0
18	0x00000000	0.0
19	0x00000000	0.0
20	0x00000000	0.0
21	0x00000000	0.0
22	0x00000000	0.0
23	0x00000000	0.0
24	0x00000000	0.0
25	0x00000000	0.0
26	0x00000000	0.0
27	0x00000000	0.0
28	0x00000000	0.0
29	0x00000000	0.0
30	0x00000000	0.0
31	0x00000000	0.0
32	0x00000000	0.0
33	0x00000000	0.0
34	0x00000000	0.0
35	0x00000000	0.0
36	0x00000000	0.0
37	0x00000000	0.0
38	0x00000000	0.0
39	0x00000000	0.0
40	0x00000000	0.0
41	0x00000000	0.0
42	0x00000000	0.0
43	0x00000000	0.0
44	0x00000000	0.0
45	0x00000000	0.0
46	0x00000000	0.0
47	0x00000000	0.0
48	0x00000000	0.0
49	0x00000000	0.0
50	0x00000000	0.0
51	0x00000000	0.0
52	0x00000000	0.0
53	0x00000000	0.0
54	0x00000000	0.0
55	0x00000000	0.0
56	0x00000000	0.0
57	0x00000000	0.0
58	0x00000000	0.0
59	0x00000000	0.0
60	0x00000000	0.0
61	0x00000000	0.0
62	0x00000000	0.0
63	0x00000000	0.0

mlp.mlp.fc_h.2.weight f4 [64]
0	0x3f800000	1.0
1	0x3f800000	1.0
2	0x3f800000	1.0
3	0x3f800000	1.0
4	0x3f800000	1.0
5	0x3f800000	1.0
6	0x3f800000	1.0
7	0x3f800000	1.0
8	0x3f800000	1.0
9	0x3f800000	1.0
10	0x3f800000	1.0
11	0x3f800000	1.0
12	0x3f800000	1.0
13	0x3f800000	1.0
14	0x3f800000	1.0
15	0x3f800000	1.0
16	0x3f800000	1.0
17	0x3f800000	1.0
18	0x3f800000	1.0
19	0x3f800000	1.0
20	0x3f800000	1.0
21	0x3f800000	1.0
22	0x3f800000	1.0
23	0x3f800000	1.0
24	0x3f800000	1.0
25	0x3f800000	1.0
26	0x3f800000	1.0
27	0x3f800000	1.0
28	0x3f800000	1.0
29	0x3f800000	1.0
30	0x3f800000	1.0
31	0x3f800000	1.0
32	0x3f800000	1.0
33	0x3f800000	1.0
34	0x3f800000	1.0
35	0x3f800000	1.0
36	0x3f800000	1.0
37	0x3f800000	1.0
38	0x3f800000	1.0
39	0x3f800000	1.0
40	0x3f800000	1.0
41	0x3f800000	1.0
42	0x3f800000	1.0
43	0x3f800000	1.0
44	0x3f800000	1.0
45	0x3f800000	1.0
46	0x3f800000	1.0
47	0x3f800000	1.0
48	0x3f800000	1.0
49	0x3f800000	1.0
50	0x3f800000	1.0
51	0x3f800000	1.0
52	0x3f800000	1.0
53	0x3f800000	1.0
54	0x3f800000	1.0
55	0x3f800000	1.0
56	0x3f800000	1.0
57	0x3f800000	1.0
58	0x3f800000	1.0
59	0x3f800000	1.0
60	0x3f800000	1.0
61	0x3f800000	1.0
62	0x3f800000	1.0
63	0x3f800000	1.0

mlp.mlp.fc_h.2.bias f4 [64]
0	0x00000000	0.0
1	0x00000000	0.0
2	0x00000000	0.0
3	0x00000000	0.0
4	0x00000000	0.0
5	0x00000000	0.0
6	0x00000000	0.0
7	0x00000000	0.0
8	0x00000000	0.0
9	0x00000000	0.0
10	0x00000000	0.0
11	0x00000000	0.0
12	0x00000000	0.0
13	0x00000000	0.0
14	0x00000000	0.0
15	0x00000000	0.0
16	0x00000000	0.0
17	0x00000000	0.0
18	0x00000000	0.0
19	0x00000000	0.0
20	0x00000000	0.0
21	0x00000000	0.0
22	0x00000000	0.0
23	0x00000000	0.0
24	0x00000000	0.0
25	0x00000000	0.0
26	0x00000000	0.0
27	0x00000000	0.0
28	0x00000000	0.0
29	0x00000000	0.0
30	0x00000000	0.0
31	0x00000000	0.0
32	0x00000000	0.0
33	0x00000000	0.0
34	0x00000000	0.0
35	0x00000000	0.0
36	0x00000000	0.0
37	0x00000000	0.0
38	0x00000000	0.0
39	0x00000000	0.0
40	0x00000000	0.0
41	0x00000000	0.0
42	0x00000000	0.0
43	0x00000000	0.0
44	0x00000000	0.0
45	0x00000000	0.0
46	0x00000000	0.0
47	0x00000000	0.0
48	0x00000000	0.0
49	0x00000000	0.0
50	0x00000000	0.0
51	0x00000000	0.0
52	0x00000000	0.0
53	0x00000000	0.0
54	0x00000000	0.0
55	0x00000000	0.0
56	0x00000000	0.0
57	0x00000000	0.0
58	0x00000000	0.0
59	0x00000000	0.0
60	0x00000000	0.0
61	0x00000000	0.0
62	0x00000000	0.0
63	0x00000000	0.0

mlp.mlp.fc2.0.0.weight f4 [64, 64]
0	0xbe78ec18	-0.24308813
1	0xbe9532ef	-0.29140422
2	0xbea1dda3	-0.31614408
3	0xbe8547e0	-0.260314
4	0x3e09ebb6	0.13468823
5	0xbcd2b9db	-0.025723388
6	0x3e1c77dc	0.15280098
7	0xbdf276fb	-0.118391
8	0xbd5e7b3b	-0.05431674
9	0xbd05dbbd	-0.032680262
10	0xbc9e8138	-0.019348726
11	0x3e28eff1	0.1649778
12	0xbe032e54	-0.12810642
13	0x3c1883d4	0.009308774
14	0xbe0ef0a6	-0.13958988
15	0xbdf8d269	-0.121495076
16	0x3d372ed0	0.04472238
17	0xbdbeb84b	-0.09312495
18	0x3e25728d	0.16156979
19	0xbbc16d33	-0.00590291
20	0xbe0a35d3	-0.13497095
21	0x3e33f6ed	0.17574663
22	0xbe1cf484	-0.1532765
23	0xbe331181	-0.17487146
24	0x3e9aed26	0.30259055
25	0xbe8ddb41	-0.2770634
26	0xbe29763e	-0.16549012
27	0xbe2811c7	-0.16413032
28	0x3dc7a072	0.097473994
29	0x3e3818b9	0.17978181
30	0xbd75dad9	-0.060023163
31	0x3ea04ad3	0.31307086
32	0x3d781eec	0.060576364
33	0xbe6c41ca	-0.23071972
34	0xbdd9c3c6	-0.10633044
35	0xbe2178d5	-0.1576875
36	0xbe3696cf	-0.17830966
37	0xbd6c426a	-0.057680525
38	0x3e85d38b	0.26137957
39	0x3dbd945d	0.09256814
40	0x3e12e145	0.14343746
41	0xbd1ec9e3	-0.038766753
42	0xbc23a51a	-0.009988094
43	0xbe7a3359	-0.2443365
44	0xbd3bf9bb	-0.04589246
45	0x3db77ab2	0.08958949
46	0x3d8f0082	0.06982519
47	0x3e6e9678	0.23299587
48	0x3ba5d755	0.00506107
49	0xbd7e838b	-0.062137168
50	0x3cac5fcb	0.021041771
51	0x3e0e6aac	0.1390788
52	0xbef9ad7f	-0.4876518
53	0xbe425cc3	-0.18980698
54	0x3de97a98	0.11400336
55	0xbe5ada5b	-0.21372359
56	0x3eccdba6	0.40011328
57	0x3d030b1a	0.03199301
58	0x3e9cd261	0.30629256
59	0xbe2275bc	-0.15865225
60	0x3db68157	0.08911388
61	0x3d81c6fe	0.06336783
62	0xbdb578fe	-0.08860968
63	0x3c3a9aed	0.011389476
64	0xbc30e770	-0.0107973665
65	0x3d719fa5	0.05899014
66	0xbd2854f5	-0.041096646
67	0x3e021b81	0.12705804
68	0x3e4a3807	0.19747935
69	0xbd14d6aa	-0.036337532
70	0x3c510955	0.012758573
71	0xbd41bfd7	-0.047302093
72	0xbc924b46	-0.017858159
73	0x3e7911d4	0.24323207
74	0x3d120559	0.03564963
75	0x3e7cdbaa	0.2469317
76	0xbd2c4a74	-0.04206319
77	0xbee7460c	-0.4517063
78	0xbc4e6251	-0.012596683
79	0x3dcbb132	0.09945907
80	0x3cf208de	0.029545244
81	0x3df1e049	0.11810357
82	0x3ee22ef0	0.44176435
83	0xbe128dbd	-0.14311881
84	0x3e78a51d	0.24281736
85	0x3c8ebea5	0.01742489
86	0x3cc469b8	0.023976192
87	0x3deb214c	0.1148096
88	0x3e39ea32	0.18155745
89	0xbdc5079f	-0.09620594
90	0xbcbb5f51	-0.022872599
91	0x3d167654	0.03673394
92	0x3e3f4006	0.18676767
93	0x3e940674	0.28911173
94	0xbe44abb4	-0.19206125
95	0xbea1f7fd	-0.31634513
96	0x3d2f5b4a	0.04281167
97	0x3d96938d	0.07352362
98	0x3db6463f	0.08900117
99	0x3e70eb93	0.23527364
100	0x3df87ff2	0.12133779
101	0x3e80678c	0.25079
102	0xbdaa38cc	-0.083116144
103	0xbe92dd3e	-0.2868442
104	0x3d105143	0.035233747
105	0xbe06bb6c	-0.13157433
106	0xbd91b74f	-0.071150415
107	0x3dedcd75	0.116114534
108	0x3e7f347e	0.24922368
109	0x3e56f77f	0.2099285
110	0xbed8af43	-0.42321214
111	0x3da2f681	0.07957173
112	0xbe30139d	-0.17194982
113	0xbc89ddc5	-0.01682938
114	0x3e29ca7e	0.16581151
115	0xbe8c9b27	-0.27462122
116	0xbdef6ab3	-0.11690273
117	0x3e19d8f5	0.15024169
118	0x3ddd6f2e	0.108122215
119	0xbe0feaa4	-0.14054352
120	0xbdc1974d	-0.094526865
121	0xbaafec31	-0.0013421831
122	0x3dd2896d	0.10280118
123	0x3d62ad72	0.05534119
124	0xbd6b1cad	-0.057400394
125	0x3e0a263a	0.13491145
126	0xbe0eb60a	-0.1393663
127	0xbe3b92e8	-0.18317759
128	0xbcb74afe	-0.022374626
129	0x3e96758c	0.29386556
130	0x3dff8020	0.1247561
131	0x3eaa93a2	0.3331576
132	0xbe726775	-0.23672278
133	0x3e754fbf	0.23956202
134	0xbdc212d6	-0.09476249
135	0x3ea81724	0.32830155
136	0xbe8401fc	-0.25782764
137	0x3eb16fea	0.34655696
138	0x3e595f5a	0.2122778
139	0x3cbc22be	0.022965785
140	0xbe80e21b	-0.25172505
141	0xbe56e4b3	-0.2098568
142	0xbe34c261	-0.17652275
143	0x3a3a701d	0.0007112043
144	0xbe6d68db	-0.2318453
145	0xbe9d3de4	-0.3071128
146	0xbe2d6b50	-0.16935468
147	0x3e855b7c	0.2604636
148	0x3e9bb403	0.30410776
149	0xbc8080b0	-0.015686363
150	0xbe013323	-0.12617163
151	0x3dd8e3b7	0.10590308
152	0x3e4260b0	0.18982196
153	0x3dfb7c10	0.122795224
154	0x3e29449d	0.1653008
155	0xbe56e44a	-0.20985523
156	0xbdc93dff	-0.09826278
157	0xbd134261	-0.035951976
158	0xbd3db430	-0.04631442
159	0xbdeca902	-0.11555673
160	0x3daa90a5	0.0832837
161	0xbd6b863e	-0.05750107
162	0xbe0b7970	-0.13620543
163	0xbdb3b2a3	-0.087743066
164	0xbe749674	-0.23885518
165	0xbe45fd2e	-0.19334862
166	0xbbf03ec0	-0.007331699
167	0x3e082c7f	0.13298224
168	0x3ca8a686	0.020587217
169	0x3e103edd	0.1408648
170	0x3e6b614d	0.22986336
171	0x3ded6b01	0.11592675
172	0xbd2fbf36	-0.042906962
173	0xbdf01222	-0.117222086
174	0x3ea70c7d	0.32626715
175	0xbdca28c4	-0.09871057
176	0x3ddb471c	0.107069224
177	0xbd4a07e3	-0.049323928
178	0xbe61803e	-0.22021577
179	0xbea117b2	-0.3146339
180	0xbe92dc83	-0.28683862
181	0xbe93b93d	-0.28852263
182	0x3e5a90d2	0.21344307
183	0xbece0665	-0.40239254
184	0xbd926432	-0.07148017
185	0x3dd815e6	0.10551052
186	0xbdc2a034	-0.095032126
187	0x3dc9761c	0.09836981
188	0xbb1fc067	-0.0024376155
189	0x3de276fc	0.11057851
190	0x3df0616a	0.1173733
191	0x3e80c491	0.25149968
192	0x3ea54b4b	0.32284006
193	0xbd04f453	-0.03245957
194	0xbd184468	-0.037174612
195	0xbd56b0f3	-0.052414846
196	0x3e590faa	0.21197382
197	0xbe12a80b	-0.14321916
198	0x3e2addf3	0.1668623
199	0x3df4742e	0.11936222
200	0x3d970ff7	0.07376092
201	0x3eea6ae1	0.45784667
202	0x3ec8a99b	0.391919
203	0xbd9a3b84	-0.07530883
204	0xbdaf7aac	-0.0856832
205	0xbe726a45	-0.23673351
206	0x39cd929c	0.0003920988
207	0x3d772233	0.06033535
208	0x3dbc05c1	0.09180785
209	0xbdf3d06f	-0.1190499
210	0x3eb790d3	0.3585268
211	0x3d094509	0.033513103
212	0xbe894fb0	-0.2681861
213	0x3dee094e	0.116228685
214	0x3db3a40a	0.08771522
215	0xbc28b252	-0.010296421
216	0x3be73741	0.0070561473
217	0xbe75cc8f	-0.24003814
218	0x3ebb3ce0	0.3656988
219	0x3eb498dd	0.35272875
220	0x3de64d21	0.1124518
221	0xbd296c79	-0.041363213
222	0x3d2e998a	0.042626895
223	0x3e4287b6	0.18997082
224	0xbdd14722	-0.10218646
225	0x3e0672f9	0.13129796
226	0x3cac78c9	0.021053689
227	0xbdae2b45	-0.08504347
228	0x3d647359	0.055774067
229	0x3e5c7ce8	0.21532023
230	0x3d1459ef	0.03621858
231	0x3dfd4393	0.123664044
232	0x3d1b2e31	0.03788585
233	0x3db26850	0.08711302
234	0x3cde0b08	0.02710487
235	0xbdd8416f	-0.105593555
236	0x3e296a5d	0.1654448
237	0xbe97d36a	-0.29653484
238	0x3d869040	0.06570482
239	0xbe69874c	-0.22805518
240	0x3d49d525	0.049275536
241	0xbe2244f9	-0.15846623
242	0xbdb31cf5	-0.087457575
243	0xbd150641	-0.036382917
244	0x3de6a6ba	0.11262269
245	0x3e2b33a5	0.1671892
246	0x3e0798f9	0.13241948
247	0x3e905643	0.28190812
248	0x3e2839d5	0.16428311
249	0xbe2c17e1	-0.16805984
250	0x3e3b8735	0.18313296
251	0x3eaf7829	0.34271362
252	0xbc8e03ca	-0.017335791
253	0xbce76a1f	-0.028248845
254	0xbd67928a	-0.056536235
255	0xbd362ea3	-0.04447807

mlp.mlp.fc2.0.0.bias f4 [64]
0	0x3cae67f0	0.021289796
1	0xbd50c317	-0.050967302
2	0x3d75e338	0.060031146
3	0xbd501959	-0.050805423
4	0xbc92999f	-0.017895518
5	0x3d11776c	0.03551428
6	0xbd5db643	-0.054128896
7	0xbd7a193c	-0.06105922
8	0xbd70633a	-0.05868838
9	0xbd55d2fd	-0.052203167
10	0x3d87cba9	0.06630642
11	0x39894a32	0.00026185956
12	0xbd8186d8	-0.063245475
13	0xbd5ef927	-0.05443683
14	0xbd524036	-0.051330768
15	0xbd529bdd	-0.051418174
16	0xbd4ad822	-0.049522527
17	0xbd66ab40	-0.05631566
18	0x3d925da5	0.071467675
19	0x3d856a3b	0.065144025
20	0xbd412e8f	-0.047163542
21	0x3d823aa2	0.063588396
22	0xbd3f115a	-0.046647407
23	0xbcac671e	-0.021045264
24	0xbd78b429	-0.06071869
25	0xbd652419	-0.05594263
26	0xbd59c41a	-0.053165533
27	0xbd50344b	-0.05083112
28	0x3d99a91b	0.075029574
29	0xbd690a42	-0.05689455
30	0x3d58d948	0.05294159
31	0xbd58114a	-0.052750863
32	0xbbfe3df9	-0.0077588526
33	0x3d79d613	0.060995173
34	0x3cc2bd7b	0.023771992
35	0xbd72d84e	-0.059288315
36	0xbcad6591	-0.021166595
37	0x3d95858b	0.07300862
38	0xbc99d7dd	-0.01877969
39	0x3d8bb1c0	0.068210125
40	0x3d843ee0	0.06457305
41	0xbd201974	-0.039086774
42	0xbd4b4146	-0.049622796
43	0x3d6ae138	0.05734369
44	0x3d3508a8	0.04419771
45	0xbd872db1	-0.06600512
46	0xbd02e743	-0.03195883
47	0x3d540213	0.05175979
48	0xbd30fa4b	-0.043207448
49	0x3c76eaa3	0.01507059
50	0xbd818503	-0.06324198
51	0xbd45cbdb	-0.048290115
52	0x3d39a8fa	0.045327164
53	0xbd4ede40	-0.050504923
54	0xbc91551e	-0.017740782
55	0x3ccae1ca	0.024765868
56	0x3d685edf	0.0567311
57	0xbd20d13c	-0.03926204
58	0x3cfd7844	0.030941136
59	0xbd3d10e8	-0.0461587
60	0x3d609d54	0.05483754
61	0x3cb322f3	0.021867251
62	0xbd49ca86	-0.049265407
63	0xbd55f41a	-0.052234747

mlp.mlp.fc2.0.2.weight f4 [64]
0	0x3f710104	0.94142175
1	0x3f879acd	1.0594116
2	0x3f818a7d	1.0120388
3	0x3f86c69c	1.0529361
4	0x3f7019cf	0.9378938
5	0x3f74c4eb	0.9561297
6	0x3f813618	1.0094633
7	0x3f7fb386	0.99883306
8	0x3f85738f	1.0425891
9	0x3f85da79	1.0457298
10	0x3f748cd5	0.9552739
11	0x3f7393f8	0.9514766
12	0x3f72bb44	0.94816995
13	0x3f871b50	1.055521
14	0x3f88c9c5	1.0686575
15	0x3f84efc4	1.0385671
16	0x3f851382	1.0396578
17	0x3f863e23	1.0487713
18	0x3f8063f1	1.00305
19	0x3f74038d	0.9531792
20	0x3f7737f7	0.9656977
21	0x3f707096	0.9392179
22	0x3f81c6b9	1.013877
23	0x3f7cc82f	0.98742956
24	0x3f8646cf	1.0490359
25	0x3f88bb5e	1.068218
26	0x3f806097	1.0029477
27	0x3f7863b0	0.9702711
28	0x3f807927	1.0036973
29	0x3f894e12	1.072695
30	0x3f6dea3b	0.9293553
31	0x3f8849c5	1.0647513
32	0x3f72c6a0	0.9483433
33	0x3f6d7155	0.92751056
34	0x3f7101d9	0.94143444
35	0x3f815175	1.0102984
36	0x3f75b074	0.9597237
37	0x3f8857c5	1.0651785
38	0x3f7dc498	0.99128103
39	0x3f84967e	1.0358427
40	0x3f7ff5db	0.9998452
41	0x3f86926f	1.0513438
42	0x3f839af7	1.0281667
43	0x3f731dc1	0.94967276
44	0x3f70beb6	0.94041
45	0x3f89227f	1.0713652
46	0x3f744e66	0.95432127
47	0x3f816ad6	1.0110729
48	0x3f7410c2	0.9533807
49	0x3f714e12	0.9425975
50	0x3f88225d	1.0635487
51	0x3f7ffa18	0.9999099
52	0x3f700be6	0.93768156
53	0x3f7b4f5e	0.9816798
54	0x3f6eccfb	0.93281525
55	0x3f738182	0.9511949
56	0x3f6f52a7	0.9348549
57	0x3f721cff	0.94575495
58	0x3f707511	0.9392863
59	0x3f792ad5	0.9733098
60	0x3f77b818	0.9676528
61	0x3f7466bd	0.95469266
62	0x3f7ef086	0.9958576
63	0x3f8367ce	1.0266054

mlp.mlp.fc2.0.2.bias f4 [64]
0	0x3d8c46ca	0.068494394
1	0xbd99b0c5	-0.07504419
2	0x3d88a38b	0.06671818
3	0xbd93583f	-0.07194566
4	0xbcf78e6f	-0.030219285
5	0x3d25acc5	0.04044797
6	0xbd84bf90	-0.0648185
7	0xbd842de0	-0.064540625
8	0xbd745486	-0.05965092
9	0xbd5fe31a	-0.05465994
10	0x3d8e7e61	0.069576986
11	0x3d053b70	0.032527387
12	0xbd5e3a99	-0.0542551
13	0xbdab255f	-0.08356737
14	0xbd9e8061	-0.0773933
15	0xbd6d4f4c	-0.05793695
16	0xbd56403f	-0.052307364
17	0xbd894943	-0.06703427
18	0x3d93946f	0.07206046
19	0x3d8989f1	0.06715763
20	0xbd466bc3	-0.048442613
21	0x3d87f0b2	0.06637706
22	0xbd0e439f	-0.034732457
23	0xbc9c25b0	-0.01906094
24	0xbd8b7edd	-0.068113066
25	0xbd8cf357	-0.06882351
26	0xbd5b596b	-0.053552072
27	0xbd91075d	-0.070814826
28	0x3d927c6c	0.07152638
29	0xbd9d188a	-0.07670696
30	0x3d8e0405	0.069343604
31	0xbd87aecd	-0.066251375
32	0x3bd363ac	0.006451091
33	0x3d93983d	0.072067715
34	0x3cfce49d	0.03087073
35	0xbd99dbc3	-0.07512619
36	0xbcc6cc74	-0.024267413
37	0x3d93a76f	0.0720967
38	0xbd13b56c	-0.03606169
39	0x3d99a5b3	0.07502308
40	0x3d9f6e8c	0.07784757
41	0xbd5acc21	-0.05341733
42	0xbd981bc9	-0.074271746
43	0x3d6b4a57	0.057443943
44	0x3d5d3f84	0.05401565
45	0xbda61e8e	-0.081112966
46	0xbd0d56ae	-0.034506492
47	0x3d654645	0.055975217
48	0xbd10be57	-0.035337772
49	0x3ce4fb4a	0.027951855
50	0xbdb78189	-0.08960254
51	0xbd844b8b	-0.06459721
52	0x3d651c33	0.055935096
53	0xbd6b14ca	-0.057392873
54	0x3ba6b226	0.005087155
55	0x3d39f6b0	0.045401275
56	0x3da22436	0.07917063
57	0xbcffeb6e	-0.031240191
58	0x3d8d7f75	0.06909076
59	0xbd301e34	-0.042997554
60	0x3d6b86c7	0.05750158
61	0x3cf2dd11	0.029646428
62	0xbd71d1e5	-0.05903806
63	0xbd671eaf	-0.056425747

mlp.mlp.fc2.1.0.weight f4 [64, 64]
0	0xbe60d1b3	-0.21954994
1	0xbeb422e0	-0.35182858
2	0xbe4f13b2	-0.20222357
3	0xbe9e9b8e	-0.30978054
4	0x3e3eba54	0.18625766
5	0xbb4f6e45	-0.003165142
6	0x3e005fd4	0.12536556
7	0xbe438251	-0.1909268
8	0xbe0f9cee	-0.14024708
9	0xbdcf5eb1	-0.10125483
10	0x3d81b697	0.063336544
11	0x3e5b9447	0.21443282
12	0xbdae9551	-0.085245736
13	0xbd9fc4d9	-0.078012176
14	0xbe7a0670	-0.24416518
15	0xbe44f4c5	-0.19233997
16	0x3c4a3ed6	0.012344083
17	0xbe3e21bf	-0.1856756
18	0x3e57afbc	0.21063131
19	0x3daae7a7	0.083449654
20	0xbe2405f5	-0.16017897
21	0x3e738864	0.23782498
22	0xbe87a5b5	-0.26493612
23	0xbe2a23f9	-0.16615285
24	0x3e8585a5	0.26078525
25	0xbeb2e974	-0.34943736
26	0xbe58d8da	-0.21176472
27	0xbe2ba834	-0.16763383
28	0x3df64d7f	0.120265
29	0x3dfeb59d	0.12436984
30	0x3ca674cd	0.020319367
31	0x3e491ded	0.19640322
32	0x3cd10fc0	0.025520205
33	0xbe2a6249	-0.16639055
34	0xbd5e391c	-0.054253682
35	0xbe8153fe	-0.25259393
36	0xbe8a4061	-0.27002242
37	0x3c5ae846	0.013361042
38	0x3e85056f	0.25980708
39	0x3dbe6859	0.092972465
40	0x3de634da	0.112405494
41	0xbddb0802	-0.10694887
42	0xbd109297	-0.03529605
43	0xbe12dfbc	-0.1434316
44	0x3d781d71	0.060574953
45	0x3cf0ae4a	0.029379983
46	0x3c811642	0.015757684
47	0x3ea0c4d4	0.31400168
48	0x3c96e2cc	0.018418692
49	0xbd42d166	-0.04756298
50	0xbd6e7490	-0.05821663
51	0x3d96d517	0.073648624
52	0xbedc66a3	-0.43047056
53	0xbe6cafdb	-0.23113959
54	0x3e01b7b7	0.12667738
55	0xbe453d29	-0.19261612
56	0x3eac27ad	0.3362402
57	0x3c1f2cf6	0.009715309
58	0x3e7d86b4	0.24758416
59	0xbe6483d0	-0.22315907
60	0x3e0f90c9	0.14020075
61	0xbcad9e5e	-0.02119368
62	0xbd8f9995	-0.07011715
63	0xbd8639e4	-0.065540105
64	0xbd33c0f4	-0.043885186
65	0x3d5cb3f8	0.05388257
66	0xbd8c6fc2	-0.068572536
67	0x3db59ee2	0.08868195
68	0x3e3d6deb	0.18498962
69	0x3c81f499	0.015863704
70	0x3d809d53	0.06280007
71	0xbb675206	-0.0035296693
72	0xbd38de30	-0.04513377
73	0x3e5d79a3	0.21628432
74	0x3d72881e	0.059211843
75	0x3e8e58b1	0.2780204
76	0xbdbde05f	-0.09271311
77	0xbef97af2	-0.48726612
78	0xbcff1f2f	-0.0311428
79	0x3d9c6f2a	0.0763839
80	0xbd1c54c7	-0.038166787
81	0x3dc7abfe	0.09749602
82	0x3ee4bf45	0.44677177
83	0xbdc28ba7	-0.09499293
84	0x3e65526f	0.22394727
85	0xbd28587e	-0.041100018
86	0x3c04ac9b	0.008097793
87	0x3e03103d	0.12799163
88	0x3e64bc5a	0.22337475
89	0xbdcb320f	-0.09921657
90	0xbdad0959	-0.084490485
91	0xbc18043b	-0.009278352
92	0x3e18f344	0.14936548
93	0x3e82a5cd	0.2551712
94	0xbe46ac78	-0.19401729
95	0xbeb770f8	-0.35828376
96	0x3c0c4d3b	0.008563335
97	0x3d86e502	0.065866485
98	0x3d825f5b	0.06365844
99	0x3e79a150	0.24377942
100	0x3df080b3	0.117432974
101	0x3e7155fb	0.23567955
102	0xbdab9a33	-0.083790205
103	0xbe530a37	-0.20609365
104	0x3d666cda	0.056256153
105	0xbe0274bb	-0.12739842
106	0xbd416974	-0.04721971
107	0x3de523a1	0.11188436
108	0x3e3e3d05	0.18577965
109	0x3e60b4e5	0.21944006
110	0xbed328c6	-0.41242045
111	0x3ddabea2	0.106808916
112	0xbe1e69db	-0.15470068
113	0x3ca38e41	0.019965293
114	0x3e30aae3	0.17252688
115	0xbe94d555	-0.2906901
116	0xbda3e0bf	-0.08001851
117	0x3e194a10	0.14969659
118	0x3dcd1208	0.10013205
119	0xbe19604f	-0.14978145
120	0xbe0c7641	-0.13716985
121	0x3d66de5f	0.056364413
122	0x3d925677	0.07145398
123	0x3d675129	0.056473885
124	0x3c8d91f9	0.01728152
125	0x3dad74ff	0.08469581
126	0xbd97ba5e	-0.074085936
127	0xbe679ede	-0.22619197
128	0xbc58955d	-0.013219205
129	0x3e8e4a17	0.277909
130	0x3d9d495a	0.07680006
131	0x3ebc16a9	0.36736038
132	0xbe37988e	-0.17929289
133	0x3e1d2e55	0.15349706
134	0xbcb27140	-0.021782517
135	0x3e97d7f9	0.29656962
136	0xbe2fc0be	-0.17163369
137	0x3ebb9c22	0.36642557
138	0x3de39143	0.11111691
139	0x3cbcc2c1	0.023042085
140	0xbe775999	-0.24155273
141	0xbe17727e	-0.14789769
142	0xbdbb805c	-0.09155342
143	0x3da6f8fc	0.08152959
144	0xbe19e060	-0.15026999
145	0xbe8610f5	-0.26184812
146	0xbe2fd3f6	-0.171707
147	0x3e7a145d	0.2442183
148	0x3e99ce7e	0.30040354
149	0xbd53a642	-0.051672228
150	0xbdb9aee1	-0.09066559
151	0x3e29d53c	0.16585249
152	0x3e742427	0.23841916
153	0x3e039e67	0.12853394
154	0x3e808a46	0.25105494
155	0xbde1f2db	-0.11032649
156	0xbddbbee7	-0.10729771
157	0x3d8d34e8	0.06894857
158	0xbcfb753d	-0.030695552
159	0xbdb34ae3	-0.08754518
160	0x3da19081	0.0788889
161	0xbcc5ccef	-0.024145572
162	0xbd3832b8	-0.044970244
163	0xbddc70be	-0.10763691
164	0xbe5f1926	-0.21786937
165	0xbe3b8e05	-0.18315895
166	0xbd1daec3	-0.038496744
167	0x3d1a5c52	0.0376857
168	0xbd54bdc9	-0.051938806
169	0x3ded6deb	0.11593231
170	0x3e6b496e	0.2297723
171	0x3d1737d5	0.03691848
172	0x3ae91061	0.001778137
173	0xbdf133c1	-0.117774494
174	0x3e7da9ef	0.24771856
175	0xbd923002	-0.07138063
176	0x3dc63ebe	0.09679936
177	0xbdb2a3b6	-0.08722632
178	0xbe2bf9e0	-0.16794538
179	0xbe73a34c	-0.23792762
180	0xbe609ab7	-0.21934019
181	0xbea28cf4	-0.31748164
182	0x3e60e5cb	0.21962659
183	0xbeaa0d1a	-0.3321312
184	0xbd4a5247	-0.049394872
185	0x3d9dc89b	0.07704278
186	0xbd54dfb2	-0.051971145
187	0x3e102f0f	0.14080451
188	0x3bda88c4	0.0066691358
189	0x3e1fd6fc	0.15609354
190	0x3e0ceb66	0.13761672
191	0x3e8f52eb	0.2799295
192	0x3e928a07	0.28620932
193	0xbdd6c6ea	-0.104871586
194	0x3d8a3e9d	0.06750224
195	0xbe2b7456	-0.16743597
196	0x3e323928	0.17404616
197	0xbd70aa2a	-0.05875603
198	0x3dee5ef9	0.11639208
199	0x3dc3813d	0.095461346
200	0x3b390645	0.0028232497
201	0x3eb8e25c	0.36110198
202	0x3efa014f	0.48829123
203	0xbc925e00	-0.017867088
204	0xbd8f5fd7	-0.07000702
205	0xbe80d69c	-0.25163734
206	0xbded5220	-0.1158793
207	0xbc906f9e	-0.017631348
208	0x3cd7c605	0.02633954
209	0xbe211a07	-0.15732585
210	0x3ecbafe6	0.39782637
211	0x3deab48e	0.11460219
212	0xbec14ea3	-0.37755308
213	0x3e4282a2	0.18995145
214	0xb8a39b76	-7.8014025e-05
215	0xbdd72e7e	-0.105069146
216	0xbda87f1a	-0.08227368
217	0xbe82e702	-0.2556687
218	0x3e834d0b	0.25644717
219	0x3e8bff72	0.27343327
220	0x3e103821	0.14083911
221	0xbe2a5e84	-0.16637617
222	0x3de74f6a	0.11294444
223	0x3e076587	0.13222323
224	0xbdd2e7d0	-0.10298121
225	0x3e63285b	0.22183363
226	0x3c0b3f89	0.008499035
227	0xbe25328d	-0.16132565
228	0xbc925056	-0.017860573
229	0x3e82958a	0.25504714
230	0x3cb234da	0.021753717
231	0x3e1df939	0.15427102
232	0x3df088de	0.11744855
233	0x3d19198b	0.037377875
234	0xbd369b07	-0.04458144
235	0xbd440df8	-0.047864884
236	0x3e28d64d	0.16488
237	0xbed172a6	-0.40907782
238	0x3d9a7868	0.07542497
239	0xbe5ee353	-0.21766405
240	0x3c56f412	0.013119714
241	0xbe4d257e	-0.20033833
242	0xbe2b09d9	-0.16702975
243	0xbdf5b4d0	-0.11997378
244	0x3e02f870	0.12790084
245	0x3e2f75f4	0.1713484
246	0x3d70837b	0.05871914
247	0x3e9aae02	0.30210882
248	0x3e2186d4	0.15774089
249	0xbe4fcf09	-0.20293821
250	0x3e2bad52	0.16765335
251	0x3e92190c	0.28534734
252	0x3c140d5c	0.009036388
253	0xbdce83c3	-0.10083725
254	0xbdc29842	-0.09501697
255	0xbde975af	-0.113993995

mlp.mlp.fc2.1.0.bias f4 [64]
0	0x3d9e6d94	0.07735744
1	0x3c453c08	0.012038238
2	0xbd2ad5fd	-0.04170798
3	0x3daa9a66	0.083302304
4	0xbd1c876b	-0.038215082
5	0xbd2ef536	-0.04271432
6	0x3cb0e76e	0.02159473
7	0xbd325009	-0.04353336
8	0x3da68b37	0.08132022
9	0x3d6205cb	0.055181306
10	0xbd5ae3d3	-0.053439926
11	0x3d772f79	0.060348008
12	0xba7fb104	-0.00097538554
13	0xbd336d74	-0.043805555
14	0x3d68087f	0.056648728
15	0xbd316764	-0.04331149
16	0xbd16cf23	-0.036818635
17	0x3d91e11d	0.07123015
18	0x3d6377f2	0.05553431
19	0x3c9c8a97	0.019109054
20	0xbd77a972	-0.06046433
21	0xbd4fff6a	-0.05078069
22	0xbd668f0a	-0.056288756
23	0xbd22a78e	-0.039710574
24	0xbd3aa65b	-0.045568805
25	0x3caf24d7	0.021379871
26	0xbd3db85d	-0.0463184
27	0x3d9af316	0.07565896
28	0xbd24a870	-0.040199697
29	0xbd4a3ffd	-0.04937743
30	0x3d6b9264	0.057512656
31	0x3d6b4f04	0.057448402
32	0xbd4b7192	-0.049668856
33	0xbd36862c	-0.04456155
34	0x3d7fd3b4	0.062457755
35	0x3d8acc88	0.067772925
36	0x3d65b8f8	0.056084603
37	0x3d4294e3	0.04750527
38	0xbced21f9	-0.028946863
39	0x3da87124	0.08224705
40	0xbd5dce12	-0.054151602
41	0xbd2d18ee	-0.042260103
42	0xbd478d6e	-0.048718862
43	0xbd508c61	-0.050915126
44	0xbd32a87d	-0.043617714
45	0xbd1ca70d	-0.03824525
46	0x3ccfe127	0.025375916
47	0xbd3a2ee2	-0.045454867
48	0xbd03cb0e	-0.03217607
49	0x3d5b014d	0.053468037
50	0xbd537f03	-0.0516348
51	0xbd31edd3	-0.043439697
52	0xbd3a175f	-0.045432445
53	0x3d882f7c	0.06649682
54	0x3d43ddc4	0.047818914
55	0xbd3df8f2	-0.04637999
56	0x3d556d9f	0.052106496
57	0x3d73f2f3	0.059557866
58	0xbd2e694c	-0.042580888
59	0x3d415618	0.047201246
60	0x3d575a32	0.05257625
61	0xbcb89f27	-0.022536827
62	0x3d475dc5	0.04867341
63	0xbd22c9f6	-0.039743386

mlp.mlp.fc2.1.2.weight f4 [64]
0	0x3f8e7b38	1.1131353
1	0x3f8500fc	1.0390925
2	0x3f8e4887	1.1115884
3	0x3f8e27a8	1.1105852
4	0x3f8c6e61	1.0971185
5	0x3f8c4ad4	1.0960336
6	0x3f856bd4	1.0423532
7	0x3f8c7695	1.0973688
8	0x3f8f315c	1.1186938
9	0x3f8cb304	1.0992131
10	0x3f8d8d35	1.1058718
11	0x3f8bf57f	1.0934294
12	0x3f86e58b	1.0538801
13	0x3f8bf85b	1.0935167
14	0x3f8b6fa1	1.0893441
15	0x3f8dae48	1.1068811
16	0x3f8ce3aa	1.1006978
17	0x3f8f7af3	1.1209396
18	0x3f8ce6a1	1.1007882
19	0x3f872ce9	1.056058
20	0x3f8d283b	1.1027902
21	0x3f8dd285	1.107987
22	0x3f8d3376	1.103133
23	0x3f8c45fd	1.0958859
24	0x3f8cade1	1.0990564
25	0x3f851cb6	1.0399387
26	0x3f8d4360	1.1036186
27	0x3f8db7f2	1.1071761
28	0x3f8d44cb	1.1036619
29	0x3f8d1359	1.102153
30	0x3f8cec4a	1.100961
31	0x3f8c0b5f	1.094097
32	0x3f8d3038	1.103034
33	0x3f8e8baf	1.1136378
34	0x3f8df141	1.108925
35	0x3f8d9343	1.1060566
36	0x3f8bf475	1.0933977
37	0x3f8c844d	1.0977875
38	0x3f8cd8e8	1.1003695
39	0x3f8d18b5	1.1023165
40	0x3f8d4bd2	1.1038764
41	0x3f8d4417	1.1036404
42	0x3f8cee25	1.1010176
43	0x3f8cc524	1.0997663
44	0x3f8cc006	1.0996101
45	0x3f8c1bf3	1.094603
46	0x3f87d511	1.0611898
47	0x3f8de804	1.108643
48	0x3f8d4548	1.1036768
49	0x3f8579ae	1.0427759
50	0x3f8c6338	1.0967779
51	0x3f8c396c	1.0955024
52	0x3f8cfc04	1.1014409
53	0x3f8d5c1f	1.1043738
54	0x3f8c8413	1.0977806
55	0x3f8c9bb5	1.0985018
56	0x3f83e3ef	1.0303935
57	0x3f8c6ea8	1.097127
58	0x3f8ca99d	1.0989262
59	0x3f8c7152	1.0972083
60	0x3f8c829c	1.0977359
61	0x3f8e875d	1.113506
62	0x3f8c54af	1.0963343
63	0x3f8c72a0	1.0972481

mlp.mlp.fc2.1.2.bias f4 [64]
0	0x3dcfdd46	0.101496264
1	0x3d057838	0.032585353
2	0xbdd28309	-0.10278899
3	0x3dc94e00	0.098293304
4	0xbdba3539	-0.09092183
5	0xbdb9a660	-0.09064937
6	0xbd0863be	-0.033298247
7	0xbdbe3304	-0.09287074
8	0x3de5eab8	0.1122641
9	0x3dc20e9b	0.09475442
10	0xbdc65f07	-0.09686094
11	0x3db8f3e1	0.09030891
12	0x3c9719cf	0.018444924
13	0xbdb1a471	-0.08673943
14	0x3db5b96d	0.08873258
15	0xbdd0faaa	-0.102040604
16	0xbdbfd4bc	-0.09366748
17	0x3dd746f3	0.10511579
18	0x3dbdc5e0	0.09266257
19	0x3c85a71d	0.016315037
20	0xbdc4cc1d	-0.09609244
21	0xbddc29b9	-0.107501455
22	0xbdc32e38	-0.095303
23	0xbdb95cd7	-0.09050911
24	0xbdbe7058	-0.092987716
25	0x3d5b0d31	0.053479377
26	0xbdbe2fdc	-0.09286472
27	0x3dc23269	0.09482271
28	0xbdc87b79	-0.097891755
29	0xbdbf278c	-0.09333715
30	0x3db325c9	0.08747441
31	0x3db55bc7	0.08855396
32	0xbdc66c56	-0.09688632
33	0xbdd1b315	-0.10239235
34	0x3dd49605	0.103801765
35	0x3dc42573	0.09577455
36	0x3db46d0e	0.08809863
37	0x3db68aa9	0.08913166
38	0xbdc28789	-0.094985075
39	0x3de0f7a7	0.10984736
40	0xbdcb7c8f	-0.09935867
41	0xbdbde200	-0.09271622
42	0xbdc3b117	-0.095552616
43	0xbdbb0409	-0.09131629
44	0xbdbe3668	-0.09287721
45	0xbdb29d08	-0.087213576
46	0x3d8b1c86	0.0679255
47	0xbdd541d9	-0.1041295
48	0xbdab5007	-0.083648734
49	0x3dbff27d	0.09372423
50	0xbdbbe3d7	-0.091743164
51	0xbdb6e115	-0.0892965
52	0xbdba2378	-0.090887964
53	0x3dc3e5de	0.09565328
54	0x3dc09b4a	0.09404619
55	0xbdc274a5	-0.094949044
56	0x3d178c2e	0.03699892
57	0x3dc45137	0.09585803
58	0xbdbdd551	-0.092692025
59	0x3dbfb1ef	0.0936011
60	0x3dba1e6c	0.09087834
61	0xbda30ecb	-0.07961806
62	0x3dbf805c	0.093506545
63	0xbdbc94e0	-0.09208083
