train/maddpg-v5/results/formation_hd_env/rmaddpg/inbox/rmaddpg_3_3/models/policy_0/actor.pt (torch, 147052 bytes, 22 tensors)

rnn.feature_norm.weight f4 [16]
000000 d5 48 60 3f a7 4d 5b 3f 51 d7 82 3f ec 6e 85 3f
       0.8761113 0.85665363 1.0221959 1.0424476
000010 0c d9 81 3f 2c 47 85 3f 1f 4d 7b 3f a1 60 82 3f
       1.0144362 1.0412345 0.9816455 1.0185739
000020 29 c6 8a 3f d1 d2 87 3f ea 52 72 3f ff f6 86 3f
       1.0841724 1.0611211 0.94657767 1.0544127
000030 79 f4 86 3f 86 fa 81 3f 04 03 87 3f 35 dd 79 3f
       1.0543357 1.0154579 1.0547795 0.9760316

rnn.feature_norm.bias f4 [16]
000000 7f 68 6e bc 82 c9 04 3c f0 72 91 bc 03 0d 2d bd
       -0.014551281 0.008104684 -0.017755002 -0.042248737
000010 ab e9 8e 3c af ac a9 3c af bb b7 3d 64 95 1f 3d
       0.017445406 0.020712225 0.08971345 0.03896083
000020 bd c8 05 3d c6 86 9d 3d ea 3e a2 bd 45 b4 03 3d
       0.032662142 0.076917216 -0.07922156 0.03215434
000030 2b a9 25 bd 03 51 8b 3c de 4e 85 bd e6 65 ab bb
       -0.040444534 0.017006403 -0.06509183 -0.005230653

rnn.mlp.fc1.0.weight f4 [64, 16]
000000 ad d5 14 3d 6e 98 bd be 8f f5 87 be 1a 87 ad be
       0.03633659 -0.37030357 -0.26554534 -0.33892137
000010 64 ea bd bd 72 35 36 3e 32 a1 62 3e 71 c8 54 bd
       -0.09273222 0.17793825 0.22131804 -0.05194897
000020 6b 50 4b bd 07 22 15 3e c6 93 0b bd a1 f5 d2 bc
       -0.04963724 0.14563762 -0.034076475 -0.02575189
000030 ea 92 52 be 37 5f fc bd 1b 93 4f 3e 56 b0 89 bd
       -0.20563856 -0.12322848 0.2027096 -0.067230865
000040 9f 71 b9 3d fc 44 26 be 16 e0 a3 be 4b 87 e8 3e
       0.09054875 -0.16237253 -0.32006902 0.4541572
000050 d7 8b 9d 3e 0a 62 08 3e 32 99 d6 bd 5d b4 36 be
       0.30770752 0.13318649 -0.104784384 -0.1784224
000060 44 28 2a 3e e0 75 20 be 29 4d 53 3e 60 2e cc bd
       0.16616923 -0.15669966 0.20634903 -0.09969783
000070 c2 fd a9 3e db 92 08 bd b2 14 06 bc 7a d4 44 3d
       0.33201414 -0.033343177 -0.008183645 0.048054196
000080 50 50 db 3e c5 ef 29 3d df 97 16 3e 76 55 dc 3d
       0.4283471 0.041488428 0.14706372 0.10758488
000090 b4 27 52 3e b7 51 07 3e 38 7a 80 bd bb 75 0d be
       0.20522958 0.13214765 -0.062733114 -0.13814442
0000a0 46 d8 40 bd 49 7a b2 be 91 1d 7b be 4a e4 31 bd
       -0.047081254 -0.3485892 -0.24522997 -0.043430604
0000b0 a1 d6 da 3d f6 1d 0e 3e e7 32 80 3e 20 72 72 3e
       0.106854685 0.13878617 0.25038835 0.23676348
0000c0 76 e0 c8 be 89 7e ac be b4 e4 63 3e 3a 9d 80 be
       -0.3923375 -0.3369029 0.22255212 -0.25119954
0000d0 ae dc 14 be da bb b3 3e ff 65 a4 3e 92 f5 b2 bd
       -0.14537308 0.35104257 0.32109067 -0.08738245
0000e0 2d df d4 bd a5 b3 01 3d 7c b9 91 3e 57 e2 89 3e
       -0.1039413 0.031665463 0.28461826 0.26930496
0000f0 6a 0f 05 be 42 57 8d bc 54 00 6d 3e 2e a1 b0 be
       -0.12994161 -0.017253522 0.23144656 -0.3449797
000100 08 48 6f 3e d3 8b 00 3e 43 34 8d 3e 79 86 c6 bd
       0.23367321 0.12553339 0.27578935 -0.096936174
000110 9d 2c 76 be af f8 86 3d 93 02 2d 3e 0a 09 c7 bc
       -0.24040456 0.065904014 0.16895513 -0.024296302
000120 25 e4 d4 bd 0c 88 47 be 17 57 ec bd 60 9b bb 3d
       -0.103950776 -0.19485492 -0.115400486 0.09160495
000130 30 fb 02 3f 86 00 9d 3d 1c ed 79 3e af 22 7f bc
       0.5116453 0.076661155 0.24406856 -0.015572234
000140 b0 a5 39 bd 87 82 d5 3d a4 93 92 be ae 3c 29 3e
       -0.045324028 0.10425287 -0.28628266 0.16527054
000150 35 00 c2 3e d7 04 33 3d 7a 8b 93 bd 0e 1b fc bb
       0.37890783 0.043705788 -0.072043374 -0.007693655
000160 7d ca 7b 3c cd 68 58 bd 50 59 77 3e 0b fe db 3c
       0.015368101 -0.05283432 0.24155164 0.026854536
000170 55 5d 08 3e 80 19 68 3a 7c 7a 4f bd f7 e1 02 3e
       0.13316853 0.00088538975 -0.05065392 0.12781511
000180 db ef d1 bd ba 2e 89 bd de 8b 37 be 67 ff 3a 3d
       -0.10250827 -0.066983655 -0.17924449 0.045653727
000190 6c 91 28 3e 85 1c fe 3c 46 ab a8 be f3 b4 38 be
       0.16461724 0.031019459 -0.3294317 -0.18037777
0001a0 ad 6f ce 3d e1 15 9a 3e 54 55 74 3c b9 ec 1e bd
       0.10079894 0.30094817 0.014912922 -0.038799975
0001b0 7f 9f ee be 44 10 1a be 64 8e 54 bb 7b 38 1d bf
       -0.4660606 -0.15045267 -0.0032433504 -0.6141431
0001c0 95 c4 a7 3e 14 55 ac 3e be b3 8e 3c 94 df e4 bb
       0.32767168 0.3365866 0.017419692 -0.0069846604
0001d0 2d 2d f8 3d 43 68 d4 ba c2 72 e0 3c 9d 16 a1 3d
       0.121179916 -0.0016205389 0.02739847 0.07865641
0001e0 cc 53 89 3e 17 e1 7d 3e 54 22 6b be 8e e6 62 be
       0.26821744 0.24792896 -0.22962314 -0.22158262
0001f0 5a fd ed 3d ff 2c 9c bc 9d 65 d8 bd 7f 2d b5 bd
       0.116205886 -0.019064425 -0.10566256 -0.08846568
000200 e5 84 b1 3d d8 52 ab 3d 4f 3c a3 bd 62 d6 c1 3d
       0.08667926 0.083654106 -0.07970487 0.094647184
000210 96 cf 86 be 9b f7 9a 3d 54 0d a6 3d b0 13 f2 3b
       -0.2633025 0.07566758 0.08108011 0.007387601
000220 c3 b4 00 bf f4 87 5c 3e b7 fa 13 3d 0c 1c 0e bc
       -0.5027582 0.21536237 0.036127772 -0.008673679
000230 04 a8 36 3e 11 9b c6 3d 01 22 2a bd be e6 31 be
       0.1783753 0.09697545 -0.041536335 -0.17373177
000240 f6 82 99 bd 9f 6d 2e b9 10 27 64 3c 1f 97 00 3d
       -0.07495682 -0.0001663477 0.013925329 0.03139412
000250 05 76 8e 3d e3 2b f4 3c 5b 86 81 3d 36 39 06 bd
       0.06956104 0.029806083 0.063244544 -0.032769404
000260 1b 7f 9a bd 2e 9d ea bc 04 ee f2 be 50 67 65 3e
       -0.07543775 -0.028639402 -0.47447217 0.22402692
000270 ff 38 75 3e c5 7f 27 bd 88 59 c4 bd ef 87 60 bd
       0.23947524 -0.040893335 -0.09587389 -0.054817136
000280 ad 2c 64 bd ce 79 2b be 2e 35 8d 3e 83 3d 50 be
       -0.05570667 -0.16745684 0.27579635 -0.20335965
000290 fa 19 95 be 6d 54 b3 be dc fc 68 3c 3a ac 4e 3e
       -0.2912138 -0.3502535 0.014220443 0.20182887
0002a0 96 1d cb bd f3 9d 06 3e b3 a2 b9 be c5 b0 22 bd
       -0.099177524 0.1314619 -0.36256942 -0.03971936
0002b0 bd 46 6c be 37 75 92 bd 6f b2 6f 3e 9a 33 b4 3c
       -0.2307386 -0.07151263 0.23407911 0.021997262
0002c0 85 4b db 3d 5d f8 09 3d 19 56 fd 38 87 8a 7c 3d
       0.107077636 0.033684123 0.00012080017 0.061655547
0002d0 6c a2 fd 3d 48 f9 48 3e dd cd 19 be 32 4f 86 3e
       0.12384495 0.19626343 -0.15019937 0.26232296
0002e0 bf 85 04 bf 4c 08 06 bc 82 22 c6 3e 75 63 96 3e
       -0.5176658 -0.008180689 0.38698202 0.29372755
0002f0 a8 ee 53 be 2b b1 8b 3b 4b 7b 4d be 04 32 06 3d
       -0.20696509 0.0042630634 -0.20066564 0.032762542
000300 f0 cf 84 be fc 3b 2e be d9 56 1b bc db a1 5c be
       -0.25939894 -0.1701507 -0.009481155 -0.21546118
000310 f3 62 63 3e 03 2d aa be b7 63 92 be be c5 f1 3d
       0.22205715 -0.33237466 -0.285917 0.118052945
000320 41 4f a2 3d e9 0f 33 be 04 ff f3 bc ad c9 60 3d
       0.07925273 -0.17486538 -0.029784687 0.054879833
000330 c8 3b e2 bb b9 22 a0 3d 97 e6 b7 3d 00 e2 46 be
       -0.006904099 0.07819123 0.089795284 -0.1942215
000340 1d 8b 4b be cf ea ea 3c 7f 1b 23 be 3d 10 06 bc
       -0.19877286 0.028676419 -0.15928458 -0.008182582
000350 e2 0b 0d be 35 ed 6e 3d e0 aa 76 be 89 84 0e 3e
       -0.13774064 0.058331687 -0.24088621 0.13917746
000360 16 46 2e 3e c3 d4 60 be ed 84 18 3f a4 3e 73 3c
       0.17018923 -0.21956162 0.5957783 0.014846478
000370 f0 69 58 3e b8 0f b2 bd 2c 27 d9 3d fd ab a5 3d
       0.21134162 -0.08694404 0.106031746 0.08089445
000380 89 36 01 3e 2d d5 df bd 7d 67 ad be bf 06 35 3e
       0.1261846 -0.10929332 -0.33868018 0.17678355
000390 6e a9 39 be de ff 52 3e eb 49 f6 3d 25 df 69 3e
       -0.18131039 0.20605418 0.120258175 0.22839029
0003a0 2e 18 01 3e d4 4a a8 3d a8 8e 99 bc 2f da 00 bd
       0.1260688 0.08217397 -0.018744782 -0.031458076
0003b0 bd c7 1d 3d f1 70 60 be 8d de 2f bc 45 d4 a3 bc
       0.038520563 -0.21918084 -0.010734213 -0.019998679
0003c0 12 c1 9f bd 83 dc 20 be 37 e6 46 3e 53 10 06 be
       -0.07800497 -0.15709119 0.19423757 -0.13092165
0003d0 ad e1 00 bd 11 57 ab 3e c9 99 2b bd b5 d5 7d be
       -0.03146522 0.33464864 -0.041894708 -0.24788554
0003e0 29 6f 88 be 12 7b 14 3e 66 44 33 3d 68 71 b3 bd
       -0.26647308 0.14500073 0.0437664 -0.08761865
0003f0 45 c5 23 bd 84 b6 c1 be e1 02 f5 bd ed 8c e2 3d
       -0.039983053 -0.3783456 -0.1196344 0.11062036

rnn.mlp.fc1.0.bias f4 [64]
000000 3d bd b2 bd 02 6e c0 3b 11 bd d4 3d 1d 89 25 3e
       -0.087275006 0.005872489 0.10387624 0.16165586
000010 ad 99 a0 3d e5 25 c1 bd f8 b9 36 bd 31 69 50 3d
       0.07841811 -0.09431056 -0.044610947 0.05088157
000020 37 92 86 3b 9f 09 8c bd db c7 7e 3d 4c 16 8f 3d
       0.0041067856 -0.068377726 0.062202316 0.06986675
000030 09 b8 34 bc 36 e9 3c be f7 29 81 bd e7 de 62 bd
       -0.0110302055 -0.18448338 -0.06306832 -0.055388357
000040 ce 54 ec 3c 57 34 a1 3d 51 b6 a9 bc 19 f7 69 bd
       0.028849032 0.07871311 -0.020716818 -0.057120416
000050 50 87 cc bc 45 54 6e bc 72 fd fe bc 9b b7 18 bd
       -0.024966866 -0.014546459 -0.031126712 -0.037284475
000060 8f 21 2b bc aa 77 0a be cc c4 04 3d 24 61 ec 3b
       -0.010445013 -0.1352221 0.032414243 0.0072137285
000070 ae 3b b0 3c b2 57 26 be 00 70 68 3d 76 8d b7 3d
       0.021512832 -0.1624439 0.056747437 0.089625284
000080 35 d9 28 bd ea 4c a1 3d 15 31 85 3a 1b a8 a6 3d
       -0.04122277 0.07875998 0.0010161722 0.08137532
000090 cf a3 82 3c be 66 60 3d 32 69 2b bd 57 d1 22 be
       0.01594725 0.054785483 -0.04184837 -0.1590017
0000a0 b7 8b 02 be 97 d0 35 bd 00 c1 67 bd 1e d9 f1 3a
       -0.1274861 -0.04438838 -0.056580544 0.0018451547
0000b0 ab 82 a3 bd 3b bc 0c be f3 d7 38 bd 54 40 06 3d
       -0.07983907 -0.13743679 -0.04512782 0.03277619
0000c0 75 e4 17 bc d2 86 80 3d 45 c8 60 bd 7f 16 07 be
       -0.009270777 0.06275715 -0.054878492 -0.13192175
0000d0 2a 33 a1 bd 0f 2e b9 3d 9c cf b4 bb bc 3d e8 bc
       -0.07871087 0.09041988 -0.005517913 -0.02834975
0000e0 14 7a fa bc b1 87 9e bd 8c f6 8b 3d c9 c9 24 be
       -0.03057579 -0.07740725 0.068341345 -0.160926
0000f0 77 0f fd bd a2 fe 80 bd 1d 41 5c bd fc ac d5 3d
       -0.12356465 -0.06298567 -0.053773034 0.10433385

rnn.mlp.fc1.2.weight f4 [64]
000000 ab 1b 82 3f c4 80 85 3f df dd 81 3f 83 e1 7d 3f
       1.0164694 1.0429921 1.0145835 0.9917223
000010 97 57 89 3f 3b b2 87 3f d7 d0 86 3f a8 51 5a 3f
       1.0729855 1.0601267 1.0532483 0.8528085
000020 58 f6 81 3f b1 b1 7a 3f 00 33 7d 3f 24 6c 80 3f
       1.0153303 0.97927386 0.98905945 1.0033002
000030 d7 cf 85 3f 51 c1 80 3f 8a b9 7a 3f 36 24 81 3f
       1.0454053 1.0058995 0.9793936 1.0089176
000040 e5 c1 8d 3f d5 0f 7d 3f dc 3e 83 3f 30 b1 86 3f
       1.1074797 0.9885228 1.0253558 1.0522823
000050 9d ca 80 3f e7 36 67 3f 9a 3d 82 3f e6 6b 8b 3f
       1.0061833 0.9031815 1.0175049 1.0892303
000060 26 c1 65 3f 92 a6 69 3f 39 c4 8b 3f 32 ee 7a 3f
       0.89747846 0.9126979 1.0919257 0.9801971
000070 fc 7b 8d 3f f4 8c 80 3f 30 33 72 3f f6 92 81 3f
       1.1053462 1.0043015 0.94609356 1.0122974
000080 02 f4 8e 3f b4 a9 8c 3f ae 15 68 3f 53 4a 81 3f
       1.1168215 1.0989289 0.9065808 1.0100807
000090 b8 33 74 3f 74 30 80 3f 8e 01 7d 3f 26 3e 87 3f
       0.95391417 1.0014787 0.988305 1.0565841
0000a0 97 97 78 3f ac cb 90 3f 51 23 6b 3f 6f 4f 88 3f
       0.9710631 1.1312156 0.91850764 1.0649241
0000b0 1d 55 82 3f 3a 9b 76 3f a9 b4 8d 3f ed e7 84 3f
       1.0182225 0.96330607 1.1070758 1.0383278
0000c0 6c ce 73 3f fe b2 82 3f f3 57 81 3f 68 9d 67 3f
       0.9523685 1.0210874 1.0104965 0.9047456
0000d0 6d 5b a0 3f 45 4e 84 3f 89 23 90 3f 0b 3e 70 3f
       1.2527901 1.0336386 1.1260844 0.9384467
0000e0 c9 d9 7b 3f 71 1a 72 3f 11 6c 8a 3f 8c 72 8f 3f
       0.9837919 0.94571596 1.0814229 1.1206832
0000f0 0c 22 79 3f dc 57 7b 3f 68 07 8d 3f 1d 38 7f 3f
       0.97317576 0.9818094 1.1017885 0.99695

rnn.mlp.fc1.2.bias f4 [64]
000000 5c d5 39 bc 28 de 07 3e 8b c6 3e bd b2 48 14 3e
       -0.011342373 0.1326834 -0.046576064 0.14480856
000010 bc 0c 3a 3d c2 41 de bc cd aa 9d bd 02 09 36 3c
       0.0454223 -0.027130965 -0.07698593 0.011110546
000020 fd 8b 8b 3d 0c af e9 bb b6 d2 a6 3d ca 63 99 3d
       0.0681381 -0.007131463 0.08145659 0.074897364
000030 00 6a b7 bd a3 e8 c6 3c c1 e1 9d bd 8a e2 de 3c
       -0.08955765 0.024280852 -0.07709075 0.027207632
000040 a3 29 91 bc 34 87 b1 3d 62 b7 25 bd 29 3b 2e 3d
       -0.01772005 0.08668366 -0.04045809 0.04253689
000050 26 9c e8 bc 73 03 4f bc 47 51 be 3c 68 1c 5d 3d
       -0.02839477 -0.0126351 0.023232115 0.05398217
000060 3e c9 1c 3d 31 c1 97 b9 84 30 30 3d 51 d7 44 bc
       0.038277857 -0.00028944903 0.043015018 -0.012014226
000070 84 48 08 3e 64 86 f2 bc 53 21 20 bd d7 d7 2d 3d
       0.13308913 -0.029605098 -0.03909428 0.04244217
000080 26 89 db bc 62 9b d2 bd 2a 35 f9 3d 66 f6 18 3a
       -0.026798796 -0.10283543 0.12168343 0.0005835056
000090 50 d4 ad bc fd f4 4e 3d ba d4 16 3d 05 af ba bc
       -0.021219403 0.050526608 0.036823966 -0.022788534
0000a0 70 16 90 bd cd ed 68 bd a6 ad 05 3e 3c 88 a7 bd
       -0.070355296 -0.05686741 0.13054523 -0.081802815
0000b0 eb 56 e5 bc 36 ba 35 3d 6b 0a 1d bd a0 ac c6 3c
       -0.027995547 0.044367038 -0.038340013 0.024252236
0000c0 46 4b c0 3d 9f 2e d6 3d 67 2f 61 3c 7a 5d 0e 3a
       0.09389357 0.10458111 0.013744212 0.0005430799
0000d0 b4 4d ce bc fd a1 dc bc 20 9e e8 3d 58 13 0d bc
       -0.025183536 -0.02693271 0.11358285 -0.008610569
0000e0 87 a1 3a 3d 40 b8 03 bd ae 10 45 bc f0 29 e4 bd
       0.0455642 -0.032158136 -0.0120279025 -0.111408114
0000f0 95 72 d1 3c 54 06 25 3d b6 84 28 be f3 ee c2 3d
       0.025567332 0.040289238 -0.16456875 0.09518232

rnn.mlp.fc_h.0.weight f4 [64, 64]
000000 54 8e 93 be 63 67 76 be 3e 01 05 3e 0f 2a 40 3e
       -0.28819525 -0.24062876 0.12988755 0.18766044
000010 77 9a 94 be 62 3d 53 be 78 2d 37 be a0 8c e0 bd
       -0.29024097 -0.20628884 -0.17888439 -0.10964322
000020 20 83 35 3e 41 c8 7f bd 43 50 88 be 89 28 82 bc
       0.17725801 -0.062446836 -0.26623735 -0.01588847
000030 86 55 ba 3d da c4 51 be 8a 0d 26 bd cb ee 80 be
       0.090983436 -0.20485249 -0.040540256 -0.25182185
000040 fa 76 db bd 68 bd a3 3e dd aa 15 3e 07 91 60 bd
       -0.10716052 0.31980443 0.1461596 -0.05482581
000050 bb 2f 39 bd c7 d9 a1 3e 87 b9 37 be 2e 52 03 3d
       -0.045211535 0.31611463 -0.17941867 0.032060795
000060 38 eb d3 bd 6a ae 7d 3d 47 ef 71 be 50 9a 30 3e
       -0.10347599 0.061933912 -0.23626433 0.17246366
000070 31 c7 8e 3d f6 74 73 bd 9f ad 1a be 0a 65 05 3e
       0.069715865 -0.059437715 -0.15105294 0.13026825
000080 29 91 0b 3d bb 51 06 be e8 6f 27 3d 75 e2 f9 3d
       0.034073982 -0.13117115 0.040878206 0.122013964
000090 02 62 53 be 85 66 66 3e cf 86 4f 3e f7 1e cb 3d
       -0.20642856 0.22500046 0.20266269 0.099180155
0000a0 5d cd d6 3e 77 47 34 3e 9f 15 e3 3d a4 93 85 be
       0.41953555 0.17605387 0.11088108 -0.26089203
0000b0 9f 32 64 3e 5a 33 22 be 42 2d 34 be 4b b8 51 3e
       0.22284935 -0.15839902 -0.1759539 0.20480458
0000c0 9d 3f 42 bd 9e c6 ab ba 4f 0d c0 3a d9 4c 95 be
       -0.047423948 -0.0013105457 0.0014652404 -0.29160193
0000d0 09 57 0c be a1 cc c0 3d 33 03 b5 be 94 46 72 3e
       -0.13705076 0.0941403 -0.35354003 0.23659736
0000e0 59 3e 67 3d cb 0c 6a 3d 10 46 a6 3d 5f 74 2b 3e
       0.056455944 0.057141107 0.08118832 0.16743611
0000f0 b7 7b c6 3d 69 cd ad 3c 1b 78 14 bd ac fa 32 3e
       0.096915655 0.021216111 -0.036247354 0.17478436
000100 93 d5 cc 3d 43 ae 47 bd ad 99 58 3e a0 84 9b 3d
       0.100016735 -0.048750173 0.21152373 0.075936556
000110 7e d5 64 be f0 a7 86 3d 99 b1 2a bd 13 28 0e 3d
       -0.22347066 0.06575 -0.041673277 0.034706187
000120 66 05 2e 3e 1a 59 73 3e 40 f8 26 be 85 39 fb 3d
       0.16994247 0.23764458 -0.16305637 0.1226683
000130 a5 4b 1f 3e 48 9c 89 bd cf c9 15 be 21 d1 da be
       0.155562 -0.067192614 -0.14627765 -0.42737678
000140 4c 7b fa 3d 06 81 40 3e a7 f8 a2 3e 11 7f 7b bd
       0.12230548 0.18799219 0.31830332 -0.061400477
000150 cb 71 56 be e2 17 69 bd fa 5c 6c be b6 2c e7 3d
       -0.20941846 -0.056907542 -0.23082343 0.11287825
000160 62 23 a9 3e 1a 47 81 bc b2 1c 15 3e 44 88 87 be
       0.33034807 -0.015780974 0.14561728 -0.2647115
000170 36 19 1f be b1 bc 31 be 63 06 a2 3d a2 ee 7c 3e
       -0.15536961 -0.17357136 0.079113744 0.24700406
000180 da b5 a2 3d 35 06 0d 3e b7 16 41 be b3 66 1f be
       0.07944842 0.13771899 -0.18856321 -0.1556652
000190 f9 4e eb 3d a5 fa e7 bd d8 cd fb 3d af f7 05 be
       0.11489672 -0.113271035 0.12295121 -0.13082765
0001a0 4c a0 a3 be eb e1 32 3c 85 96 1d be fa 81 df bc
       -0.31958234 0.010918121 -0.1538945 -0.027283657
0001b0 e8 e6 12 be 81 01 89 be 97 d8 59 3e fc 6e a5 3d
       -0.14345896 -0.2675896 0.21274029 0.08077809
0001c0 a4 26 84 bd c3 d1 01 bd e1 e7 3f be 92 f0 10 3e
       -0.064526826 -0.031694185 -0.18740799 0.1415427
0001d0 88 0c 64 3e e3 26 e2 3d cb 86 8a bc 64 1b 6b bd
       0.22270405 0.11042573 -0.016909977 -0.05739917
0001e0 40 68 b2 bd a6 ae dd be 20 5e c0 3e 98 b9 7a 3c
       -0.0871129 -0.4329731 0.37571812 0.015303038
0001f0 08 85 2f be 04 95 16 3e 91 55 00 3d 3b 54 16 bd
       -0.17140591 0.14705282 0.031331602 -0.036701422
000200 d9 c5 4b bc 0f 95 89 be 4f 6e 80 3c 37 49 30 bd
       -0.012437307 -0.26871535 0.0156776 -0.043038573
000210 ef e3 a9 be 58 83 b3 3d a6 4b 8b 3e 8b 66 a1 bd
       -0.33181712 0.08765286 0.27206153 -0.07880887
000220 89 b4 8b be 14 22 ba bd c7 56 10 be a4 b1 9d be
       -0.27286175 -0.09088531 -0.14095603 -0.30799592
000230 a4 ae 39 3e 5c ca fa bd 44 ef 8e 3e 89 1f a4 3e
       0.18133026 -0.12245628 0.2791692 0.3205531
000240 a7 81 50 3d 88 b1 44 3e 98 f8 e2 bd 92 7a d9 3d
       0.050904896 0.19208348 -0.11082572 0.106190816
000250 44 65 32 3d 16 24 65 bc ba 1e 84 bd c1 3e 02 3b
       0.043553606 -0.013985654 -0.06451173 0.001987383
000260 ce 29 bc 3d b9 30 86 3d de 3d 36 3e 24 ef 8b be
       0.09187661 0.06552262 0.17797038 -0.27330887
000270 dd 6a 18 bd e2 ad 37 3e 40 fa a2 bc cb 90 bb 3a
       -0.037211288 0.17937425 -0.01989472 0.001431012
000280 01 94 0a 3d 91 e0 a8 be b0 7d e2 3c b9 4a 1f 3e
       0.033832554 -0.3298383 0.027647823 0.15555848
000290 6c 83 88 bd d1 fc 83 bd a9 14 ba 3d 02 c6 f4 3d
       -0.06665692 -0.06444705 0.09085972 0.119518295
0002a0 6c 82 24 3d e0 21 b8 be d3 9d b3 3d f2 53 d4 3d
       0.040163442 -0.35963345 0.08770337 0.10367574
0002b0 82 dd 22 be 3c 21 5c be fb 01 bf 3d 47 08 12 bf
       -0.15904811 -0.21497053 0.093265496 -0.5704388
0002c0 28 3e 7b 3d 17 5b 0f 3e 58 53 9a be f4 75 06 be
       0.061338574 0.13999592 -0.3014171 -0.13130933
0002d0 7a 8a 05 bd 1c 0a c4 3d 6b c3 50 3c 9c 5c 02 be
       -0.032602765 0.09572241 0.012741904 -0.1273064
0002e0 13 fc 1c bd ac 9a 42 3d 96 9a 79 3e af f1 eb 3d
       -0.038326334 0.047510788 0.24375376 0.11520707
0002f0 75 db 30 3e b1 09 e9 3d ab f7 21 3d cc 2f 90 3e
       0.17271216 0.113788016 0.039542835 0.28161466
000300 0c aa 19 3e 30 60 8f 3d 78 0b e3 3d 41 c3 17 3d
       0.15006274 0.07000768 0.11086172 0.037051443
000310 1d 15 df bd a6 69 2f be 07 92 c3 3b d0 3d ab bd
       -0.10892699 -0.17130145 0.0059683356 -0.08361399
000320 f6 0c b4 bd d7 03 0d be 98 45 4d 3d a8 22 fc 3c
       -0.087915346 -0.13770996 0.050115198 0.030778244
000330 8e 66 69 be 63 38 74 be 29 09 f1 3d 09 b8 33 bb
       -0.22793028 -0.23849635 0.11769325 -0.0027422926
000340 96 a0 9e 3d 32 87 9f bb 7b 8f e0 bc fb 72 55 3d
       0.07745473 -0.0048684115 -0.027412167 0.052111607
000350 cf bd 4c be 0f f5 45 bd 22 93 ce be a7 c3 1d 3d
       -0.19994281 -0.04832941 -0.40346628 0.038516667
000360 de c1 10 be cc cb b3 bd 25 54 49 3d 92 21 64 be
       -0.14136454 -0.087791055 0.049152512 -0.22278431
000370 00 c0 25 bd 25 9d 7e 3d a8 91 1b 3e 83 ee 0f 3e
       -0.04046631 0.062161583 0.15192282 0.14055829
000380 71 76 89 bd d7 fb b3 3e 32 e8 ae bd 98 82 c6 bc
       -0.06712044 0.35153076 -0.085403815 -0.024232194
000390 79 12 0d 3d a8 37 09 3c 89 1b 10 3d b9 c7 a4 3e
       0.034441445 0.008375086 0.03518251 0.32183626
0003a0 2e 59 c0 3d 8b eb c1 bd f2 6d c9 3d 9b 6c 85 3d
       0.0939201 -0.094687544 0.098354235 0.065148555
0003b0 1e 5e d3 3d 7d bb c9 bd 89 8f ac bd 51 3a a9 3d
       0.10320686 -0.09850214 -0.08425815 0.08263076
0003c0 33 68 8f bd 07 d5 a2 3e 1d 1e 71 be 3f d1 3e bd
       -0.07002296 0.31803152 -0.23546644 -0.04658627
0003d0 c7 4d fe be 2c d7 d0 be 03 6d 8c 3e 09 f3 3c bc
       -0.49668714 -0.40789163 0.2742692 -0.0115325535
0003e0 d1 a5 37 bd 9a ff 99 3c 4f 73 8e 3a 81 75 82 3e
       -0.04483587 0.018798638 0.0010868105 0.25480273
0003f0 c7 78 cc bc a2 d2 5a be 03 b3 71 be cc 7e 08 bf
       -0.024959935 -0.21369413 -0.23603444 -0.53318477

rnn.mlp.fc_h.0.bias f4 [64]
000000 00 00 00 00 00 00 00 00 00 00 00 00 00 00 00 00
       0.0 0.0 0.0 0.0
000010 00 00 00 00 00 00 00 00 00 00 00 00 00 00 00 00
       0.0 0.0 0.0 0.0
000020 00 00 00 00 00 00 00 00 00 00 00 00 00 00 00 00
       0.0 0.0 0.0 0.0
000030 00 00 00 00 00 00 00 00 00 00 00 00 00 00 00 00
       0.0 0.0 0.0 0.0
000040 00 00 00 00 00 00 00 00 00 00 00 00 00 00 00 00
       0.0 0.0 0.0 0.0
000050 00 00 00 00 00 00 00 00 00 00 00 00 00 00 00 00
       0.0 0.0 0.0 0.0
000060 00 00 00 00 00 00 00 00 00 00 00 00 00 00 00 00
       0.0 0.0 0.0 0.0
000070 00 00 00 00 00 00 00 00 00 00 00 00 00 00 00 00
       0.0 0.0 0.0 0.0
000080 00 00 00 00 00 00 00 00 00 00 00 00 00 00 00 00
       0.0 0.0 0.0 0.0
000090 00 00 00 00 00 00 00 00 00 00 00 00 00 00 00 00
       0.0 0.0 0.0 0.0
0000a0 00 00 00 00 00 00 00 00 00 00 00 00 00 00 00 00
       0.0 0.0 0.0 0.0
0000b0 00 00 00 00 00 00 00 00 00 00 00 00 00 00 00 00
       0.0 0.0 0.0 0.0
0000c0 00 00 00 00 00 00 00 00 00 00 00 00 00 00 00 00
       0.0 0.0 0.0 0.0
0000d0 00 00 00 00 00 00 00 00 00 00 00 00 00 00 00 00
       0.0 0.0 0.0 0.0
0000e0 00 00 00 00 00 00 00 00 00 00 00 00 00 00 00 00
       0.0 0.0 0.0 0.0
0000f0 00 00 00 00 00 00 00 00 00 00 00 00 00 00 00 00
       0.0 0.0 0.0 0.0

rnn.mlp.fc_h.2.weight f4 [64]
000000 00 00 80 3f 00 00 80 3f 00 00 80 3f 00 00 80 3f
       1.0 1.0 1.0 1.0
000010 00 00 80 3f 00 00 80 3f 00 00 80 3f 00 00 80 3f
       1.0 1.0 1.0 1.0
000020 00 00 80 3f 00 00 80 3f 00 00 80 3f 00 00 80 3f
       1.0 1.0 1.0 1.0
000030 00 00 80 3f 00 00 80 3f 00 00 80 3f 00 00 80 3f
       1.0 1.0 1.0 1.0
000040 00 00 80 3f 00 00 80 3f 00 00 80 3f 00 00 80 3f
       1.0 1.0 1.0 1.0
000050 00 00 80 3f 00 00 80 3f 00 00 80 3f 00 00 80 3f
       1.0 1.0 1.0 1.0
000060 00 00 80 3f 00 00 80 3f 00 00 80 3f 00 00 80 3f
       1.0 1.0 1.0 1.0
000070 00 00 80 3f 00 00 80 3f 00 00 80 3f 00 00 80 3f
       1.0 1.0 1.0 1.0
000080 00 00 80 3f 00 00 80 3f 00 00 80 3f 00 00 80 3f
       1.0 1.0 1.0 1.0
000090 00 00 80 3f 00 00 80 3f 00 00 80 3f 00 00 80 3f
       1.0 1.0 1.0 1.0
0000a0 00 00 80 3f 00 00 80 3f 00 00 80 3f 00 00 80 3f
       1.0 1.0 1.0 1.0
0000b0 00 00 80 3f 00 00 80 3f 00 00 80 3f 00 00 80 3f
       1.0 1.0 1.0 1.0
0000c0 00 00 80 3f 00 00 80 3f 00 00 80 3f 00 00 80 3f
       1.0 1.0 1.0 1.0
0000d0 00 00 80 3f 00 00 80 3f 00 00 80 3f 00 00 80 3f
       1.0 1.0 1.0 1.0
0000e0 00 00 80 3f 00 00 80 3f 00 00 80 3f 00 00 80 3f
       1.0 1.0 1.0 1.0
0000f0 00 00 80 3f 00 00 80 3f 00 00 80 3f 00 00 80 3f
       1.0 1.0 1.0 1.0

rnn.mlp.fc_h.2.bias f4 [64]
000000 00 00 00 00 00 00 00 00 00 00 00 00 00 00 00 00
       0.0 0.0 0.0 0.0
000010 00 00 00 00 00 00 00 00 00 00 00 00 00 00 00 00
       0.0 0.0 0.0 0.0
000020 00 00 00 00 00 00 00 00 00 00 00 00 00 00 00 00
       0.0 0.0 0.0 0.0
000030 00 00 00 00 00 00 00 00 00 00 00 00 00 00 00 00
       0.0 0.0 0.0 0.0
000040 00 00 00 00 00 00 00 00 00 00 00 00 00 00 00 00
       0.0 0.0 0.0 0.0
000050 00 00 00 00 00 00 00 00 00 00 00 00 00 00 00 00
       0.0 0.0 0.0 0.0
000060 00 00 00 00 00 00 00 00 00 00 00 00 00 00 00 00
       0.0 0.0 0.0 0.0
000070 00 00 00 00 00 00 00 00 00 00 00 00 00 00 00 00
       0.0 0.0 0.0 0.0
000080 00 00 00 00 00 00 00 00 00 00 00 00 00 00 00 00
       0.0 0.0 0.0 0.0
000090 00 00 00 00 00 00 00 00 00 00 00 00 00 00 00 00
       0.0 0.0 0.0 0.0
0000a0 00 00 00 00 00 00 00 00 00 00 00 00 00 00 00 00
       0.0 0.0 0.0 0.0
0000b0 00 00 00 00 00 00 00 00 00 00 00 00 00 00 00 00
       0.0 0.0 0.0 0.0
0000c0 00 00 00 00 00 00 00 00 00 00 00 00 00 00 00 00
       0.0 0.0 0.0 0.0
0000d0 00 00 00 00 00 00 00 00 00 00 00 00 00 00 00 00
       0.0 0.0 0.0 0.0
0000e0 00 00 00 00 00 00 00 00 00 00 00 00 00 00 00 00
       0.0 0.0 0.0 0.0
0000f0 00 00 00 00 00 00 00 00 00 00 00 00 00 00 00 00
       0.0 0.0 0.0 0.0

rnn.mlp.fc2.0.0.weight f4 [64, 64]
000000 ab 13 3d be 02 7f bc be 50 57 1b 3e 20 25 31 3e
       -0.18464534 -0.3681565 0.15170026 0.17299318
000010 20 47 9a be 35 af db be 86 6d 3b be cb 6d 1f be
       -0.3013239 -0.4290711 -0.18303499 -0.15569226
000020 36 07 e9 3d 61 63 44 3d f2 08 a1 be f8 2a cf bd
       0.113783285 0.047946338 -0.31452137 -0.101156175
000030 e0 05 ec 3d d1 2a 0a 3c ad 0e b0 bc 67 fd 9f be
       0.11524558 0.00843306 -0.021491373 -0.31248018
000040 13 79 d3 3c 3e 9b 89 3e 02 90 a5 3c 0c 7e 2e 3d
       0.025814569 0.26876253 0.02021027 0.042600676
000050 cd 66 cb 3d 19 e5 b7 3e 4f 7b 01 be 93 b9 82 bd
       0.09931717 0.35916975 -0.12644695 -0.06383052
000060 de 2c b8 3c c2 18 07 3e ce 6b 2e be 43 5b b3 3d
       0.022482332 0.13193038 -0.17033312 0.08757641
000070 bb 98 41 3e fd da be bd 9c e8 02 39 b8 55 07 3e
       0.18905918 -0.093191124 0.0001248442 0.13216293
000080 e5 ed 5d 3e 44 57 d6 bd b4 2d 04 3e 9c a5 01 3e
       0.21672781 -0.10465863 0.1290806 0.12660831
000090 f2 18 01 be 35 81 14 3e 1e ae 99 3e be 85 3b 3b
       -0.12607172 0.14502414 0.30015653 0.0028613652
0000a0 12 55 d0 3e ae 25 20 3c 68 21 da bd 71 1b c1 be
       0.40689903 0.009774609 -0.10650903 -0.3771625
0000b0 e2 12 14 3e a2 69 0e be f5 5a 1c be 5b 0d bb 3e
       0.14460328 -0.13907483 -0.15269072 0.36533627
0000c0 04 90 9e 3d c4 ed 20 bd 6d 63 de 3d 46 d5 b1 be
       0.077423126 -0.03928925 0.10858808 -0.34733027
0000d0 c3 7a b6 bd 3f d7 86 3e 28 f6 96 be 37 69 48 3e
       -0.08910134 0.26336095 -0.29484677 0.19571386
0000e0 ab 25 b0 bd 2e 0e 3d 3e d2 ac c2 3c db bd 64 3e
       -0.086009346 0.1846244 0.023764048 0.22338049
0000f0 6b ee 1d be 02 1a aa 38 f4 fe a1 bd 5b b0 7b 3e
       -0.1542298 8.111076e-05 -0.079099566 0.24578993
000100 d1 d8 3f 3e 99 f7 02 be f7 4d f3 3d 56 23 a3 3e
       0.18735053 -0.12789764 0.11880105 0.31862897
000110 3a dc 2e be ee d8 b9 bc 10 a8 d8 bd 01 d6 f6 3d
       -0.17076197 -0.022686448 -0.105789304 0.12052537
000120 0d 8f 13 3e 61 12 a6 3e 64 0e 10 be a3 16 87 3d
       0.14410038 0.32435897 -0.1406799 0.065961145
000130 33 9d 09 3e 4d 79 c5 bd 93 6a ce bc 76 ed 23 be
       0.13438873 -0.09642277 -0.025197303 -0.16008553
000140 bc e7 9e 3d 10 fb 1e 3e 08 11 8e 3e 41 46 00 3e
       0.077590436 0.1552546 0.2774737 0.125268
000150 f5 4e 6a be f3 86 3a 3c a6 fe 20 be 3d d7 11 bc
       -0.22881682 0.011384713 -0.1572214 -0.008901414
000160 04 e9 88 3e 2d dd ef 3d 9e fc 75 3d 09 bc c3 be
       0.26740277 0.11712108 0.060055368 -0.38229397
000170 dd a0 4c be 79 33 f9 bd 22 ab dc 3d 0b 9f 52 3e
       -0.1998324 -0.12168021 0.107748285 0.20568483
000180 9f 21 34 3e 4a 88 7c 3d d6 6b 32 be a0 40 a6 bd
       0.1759095 0.061653413 -0.17423949 -0.08117795
000190 a6 55 c7 3c 3b f1 4a bc fd b9 7e 3d 6e 32 38 be
       0.024332833 -0.012386615 0.06218909 -0.17987987
0001a0 0b 56 90 be ea 8f 57 3d 27 79 57 be 8e 12 c9 bd
       -0.28190646 0.05262748 -0.2104231 -0.09817992
0001b0 e0 10 5e be e4 5c b0 be f3 54 76 3e 49 fa ae 3d
       -0.21686125 -0.3444587 0.24055843 0.08543832
0001c0 02 09 92 3d 50 c7 d5 bd f7 fc 3b be c0 67 47 3d
       0.07130624 -0.104384065 -0.18358217 0.048682928
0001d0 fe 31 a5 3e ed 1a e3 3d 28 1d 88 bd 10 26 55 bd
       0.32264704 0.1108912 -0.06646186 -0.052038252
0001e0 58 c3 73 be 3c 7d ae be 35 ca 98 3e 82 b8 37 3e
       -0.23804986 -0.3407992 0.29841772 0.17941478
0001f0 06 21 77 be 41 bf 1d 3d fb 0f 77 bc 06 a0 4f bd
       -0.24133691 0.038512472 -0.015079494 -0.05068972
000200 47 a9 bb 3d 6d a6 8f be c8 8c ff 3b 52 d7 5b bd
       0.091631465 -0.2805666 0.007798765 -0.053672142
000210 ab ee 8f be 92 4f 03 3e b1 19 e2 3e 07 26 e5 bd
       -0.28111777 0.12823322 0.44160226 -0.11188894
000220 c6 8e 0f be ef 21 d5 bd c8 61 29 be 51 ee 9d be
       -0.14019307 -0.10406863 -0.16541207 -0.30845883
000230 d6 fc 58 3e ae 35 e6 bd 57 c7 77 3e bf 22 c9 3e
       0.211902 -0.11240707 0.24197136 0.39284322
000240 02 64 0a 3e fa 0a 33 3e 1e a3 74 be 40 79 98 3d
       0.13514712 0.17484656 -0.2389035 0.074450016
000250 d0 66 9b bc 93 ab d1 3b 0a 45 14 be 77 e8 d8 3c
       -0.018969923 0.006398627 -0.14479461 0.026478035
000260 2e 49 e3 3d e0 16 25 bd cc ea 58 3e 95 0e 9b be
       0.11097942 -0.04030502 0.21183318 -0.30284563
000270 9b a5 19 3e 16 8b 36 3e 3f 47 75 3d f0 cc 80 3c
       0.1500458 0.17826495 0.0598824 0.015722722
000280 48 42 9b bd 95 43 ea be 65 df d2 bd 3a 0d 26 3e
       -0.075810015 -0.45754686 -0.102965154 0.16215983
000290 e7 40 96 3c b8 48 b9 3b d0 4e d7 3d 93 b7 99 3d
       0.018341495 0.0056544207 0.10513079 0.07505717
0002a0 c9 f4 bc bb e2 0f d9 be 5e 52 b9 3c fe 86 43 3e
       -0.0057664854 -0.4239493 0.022622284 0.19094464
0002b0 5c a6 ea bd 20 a2 af bd ce bd 96 3c ea 96 c9 be
       -0.11457512 -0.08575845 0.018401053 -0.3937295
0002c0 ba 06 f7 3c 0c c8 1e 3e e8 b4 af be 89 64 0c be
       0.030154575 0.15506 -0.34317708 -0.13710226
0002d0 9f cf c5 bd ab 35 bf bd 54 13 1c 3e 01 a6 eb bd
       -0.09658741 -0.09336408 0.15241748 -0.11506272
0002e0 ca 5e ab be 85 ed 14 bd 24 d6 a4 3e 65 fc 04 3e
       -0.33470756 -0.03635933 0.32194626 0.12986906
0002f0 38 9d 87 3e 54 8f e3 3d 8e 9e 4d bd 68 30 8c 3e
       0.26487136 0.11111322 -0.050200038 0.2738068
000300 52 83 91 3e d2 86 1d 3d 89 83 6b 3d 5c de c9 bc
       0.28420502 0.038458653 0.05749849 -0.024642162
000310 f2 2d 66 be 99 92 00 be cd 2b d7 bd f7 8f 74 bd
       -0.22478464 -0.12555923 -0.10506401 -0.059707608
000320 5a d8 19 3d 61 df 55 bd 45 1a 99 3d 22 2f 2d be
       0.037559845 -0.052214984 0.07475714 -0.16912511
000330 53 06 6c be 83 22 25 be 74 cd c6 3d ca 72 97 bc
       -0.23049287 -0.16126446 0.09707156 -0.018487353
000340 f6 38 61 3e 50 ed 5b 3e 54 63 a5 bd 64 6c eb 3d
       0.21994385 0.21477246 -0.08075586 0.11495283
000350 27 7f a4 be 4d 5d 81 3d a4 ce d7 be 66 c0 20 3e
       -0.3212826 0.06316624 -0.42149842 0.15698394
000360 31 71 fb bd 5e 63 3d 3e 49 21 84 3e 0e 71 a5 be
       -0.12277449 0.18494937 0.25806645 -0.32312816
000370 16 6a 2e be 8c 52 8d 3d 67 fa b0 3d 06 6f d9 3d
       -0.17032656 0.0690051 0.086415105 0.10616879
000380 56 66 04 be 9d 6f a1 3e 53 40 b8 bd e4 29 fb 3d
       -0.12929663 0.31530467 -0.08996644 0.122638494
000390 e8 f1 c5 3c a3 ca 5f 3c 2d 04 ad bc ca ab 15 3e
       0.024163201 0.013659152 -0.021120155 0.14616314
0003a0 8a f4 35 3e a5 7a d0 bd 26 06 80 bd eb 1c 7a bd
       0.17769065 -0.101796426 -0.06251173 -0.061062735
0003b0 7a da 6a bd 4d 7b c7 bc bb 3c c7 bd 0b 1e e4 3d
       -0.05733726 -0.024350787 -0.0972838 0.11138543
0003c0 df 58 da bc 9c eb cf 3e 3b 2c ab be 48 52 43 be
       -0.026653705 0.40609443 -0.33432183 -0.19074357
0003d0 d3 f4 1d bf 9d fe c1 be e9 92 0e 3e 8a a6 dc 3c
       -0.617017 -0.37889567 0.1392323 0.02693488
0003e0 ca e8 ec bd 5e 1a b2 3c af f4 98 3d 1b f9 ab 3e
       -0.115678385 0.021741088 0.07468545 0.3358849
0003f0 7a 80 99 3d ae 94 8a be 5c 3f 68 be 85 fe 0a bf
       0.07495208 -0.2706656 -0.2268042 -0.54294616

rnn.mlp.fc2.0.0.bias f4 [64]
000000 cc 9a 21 bd 1b f9 eb bc 86 50 3f bd f8 8e ac bc
       -0.039454266 -0.028805306 -0.046707653 -0.021064267
000010 9b 30 1f bc bc 90 2e bd b2 a8 d7 3b b9 c2 31 3c
       -0.009716178 -0.0426185 0.0065813893 0.010849648
000020 68 42 b4 bd 6d 80 24 be e7 35 66 bb 9a 2e 10 be
       -0.088017285 -0.16064616 -0.0035127343 -0.14080277
000030 62 c3 b4 bc 52 27 f6 bd d8 e8 e3 bd 6c f7 73 3b
       -0.022065822 -0.120192185 -0.11128396 0.0037226332
000040 32 38 df bc 71 12 f4 bd e7 b0 88 bd cf 83 e1 bd
       -0.027248476 -0.1191758 -0.066743664 -0.110114686
000050 eb 96 96 bd 03 86 e3 bd 84 d7 fc 3d 94 66 99 bd
       -0.07353004 -0.11109545 0.12345794 -0.07490268
000060 80 0d d3 bd 59 a3 42 bc 88 d7 b2 bd 5e d8 cb 3b
       -0.10305309 -0.011879765 -0.087325156 0.0062208613
000070 3d a2 7e bd 11 bd 54 bd 71 16 8b bd 36 26 af 3c
       -0.06216644 -0.05193812 -0.0679139 0.021380525
000080 c7 e1 ca bc a1 e7 88 bd ff 7b 4a bd 92 e4 0d be
       -0.024765862 -0.06684805 -0.04943466 -0.13856724
000090 79 8f 6e 3c 2e 89 b9 ba df 29 97 bd f3 80 3a bd
       0.014560574 -0.0014155263 -0.07381033 -0.04553313
0000a0 56 92 ec bd 55 ba 51 bd d6 57 02 bd 23 1a 34 bd
       -0.11551349 -0.05120309 -0.031822048 -0.04397024
0000b0 e8 63 7a bd 03 71 d4 bd 13 c3 8b bd 3e 38 25 bd
       -0.061130434 -0.10373118 -0.06824317 -0.04033684
0000c0 ac d6 a7 3d 6f de 31 bc 08 f4 d3 3b 60 03 dc bc
       0.08195242 -0.010856255 0.0064683 -0.026857078
0000d0 3a b4 ad bd a8 7c 8f bd e3 55 04 be 60 b5 2f bd
       -0.08481641 -0.07006198 -0.12923388 -0.042897582
0000e0 20 b4 32 3c f2 ea 1d be c1 f6 6f 3b d1 c2 a1 bd
       0.010907203 -0.15421656 0.0036615583 -0.078984864
0000f0 24 51 ce bd 9a a6 8d 3d d4 a9 a3 bd 5c 5d 85 3c
       -0.1007407 0.06916542 -0.079913765 0.016279869

rnn.mlp.fc2.0.2.weight f4 [64]
000000 fe b0 89 3f d0 79 8f 3f db bd 92 3f b8 72 95 3f
       1.0757139 1.1209049 1.1464189 1.1675634
000010 2f 14 91 3f 69 fb 9b 3f 79 bb 8b 3f 77 9b 9c 3f
       1.1334285 1.2186099 1.0916587 1.2234944
000020 75 96 83 3f 27 a3 83 3f b7 34 8f 3f cd b1 98 3f
       1.0280291 1.0284165 1.1187962 1.192926
000030 0d 16 8d 3f 5b f3 94 3f a5 d1 90 3f b4 65 91 3f
       1.1022354 1.1636766 1.1313978 1.1359162
000040 05 07 91 3f 2c f4 88 3f 11 11 8d 3f 97 ff 98 3f
       1.1330267 1.0699515 1.1020833 1.1953
000050 b8 86 8b 3f 6b 13 8d 3f 29 ab 87 3f 63 57 95 3f
       1.0900488 1.1021551 1.0599109 1.1667293
000060 2f 8e 8a 3f 0e f6 87 3f 14 f3 88 3f c3 1e 89 3f
       1.0824641 1.0621965 1.0699182 1.0712513
000070 3b d8 8c 3f 0a 69 89 3f cd bd 8e 3f 8f d1 81 3f
       1.1003488 1.073518 1.1151673 1.0142077
000080 83 d2 89 3f 1f 5d 8a 3f c2 e2 8f 3f bc 2c 8b 3f
       1.0767368 1.0809668 1.1241076 1.0873027
000090 ee 8e 96 3f c4 fd 86 3f 48 28 7d 3f cc b4 82 3f
       1.1762369 1.0546193 0.9888959 1.0211425
0000a0 a9 1c 94 3f b4 f8 88 3f 72 8a 87 3f 4c cb 8e 3f
       1.1571246 1.0700898 1.0589125 1.1155791
0000b0 33 e6 91 3f d1 f7 8b 3f 5f 1a 89 3f 00 e1 8c 3f
       1.1398376 1.0935003 1.0711173 1.1006165
0000c0 4e 36 8b 3f fb fa 8f 3f bb 03 88 3f 71 21 84 3f
       1.0875947 1.1248468 1.0626138 1.0322706
0000d0 dc 74 90 3f b3 6f 85 3f 46 f0 90 3f 2f 77 80 3f
       1.1285663 1.0424713 1.1323326 1.0036372
0000e0 b0 70 96 3f 78 76 8f 3f 8f 2a 8c 3f e7 33 88 3f
       1.175314 1.1208029 1.0950488 1.0640839
0000f0 43 48 93 3f 03 54 87 3f 0a 9e 87 3f 12 aa 8d 3f
       1.1506428 1.0572513 1.0595105 1.1067526

rnn.mlp.fc2.0.2.bias f4 [64]
000000 26 88 91 3d 7e ed bf bd b4 13 d8 bd 1f 51 c3 3c
       0.071060464 -0.0937147 -0.10550633 0.023842392
000010 df d8 75 3d a7 e1 80 bc d7 29 53 3d 4a 1f 90 bc
       0.060021278 -0.0157326 0.051553573 -0.017593045
000020 e9 0c fb 3c 66 21 e9 bd 51 f0 ff 3b f7 82 46 bd
       0.030645804 -0.11383323 0.0078106304 -0.04846474
000030 50 6a 3d 3d d7 4b fc bc a5 98 08 bd 9a 12 2d 3d
       0.046243966 -0.030797882 -0.0333487 0.042254068
000040 f6 d1 3b bd e1 ae 94 3d e6 19 5e bc 4a fa a8 bc
       -0.04585453 0.07259918 -0.013555979 -0.02062716
000050 f6 f5 ed 3c 07 c3 a9 bd 9a 88 f3 3d 57 7a 2b bd
       0.029047947 -0.08289152 0.11891289 -0.04186472
000060 99 ad 3d bd 41 3f a3 3c 6a d4 1b 3c bc 38 52 3d
       -0.046308134 0.019927623 0.009511093 0.051323637
000070 68 4c fd 3c 5b 1c 86 3d 4d bc 34 bd 33 6d 86 3d
       0.030920222 0.06548377 -0.04412489 0.06563797
000080 5b 86 b7 bb 85 48 84 bd b8 a6 8a 3c 29 e5 64 bd
       -0.005600733 -0.064591445 0.0169252 -0.055882607
000090 81 f8 b1 3d ab 89 3e bd a1 76 c2 bd 33 11 f8 3c
       0.086899765 -0.04651801 -0.09495283 0.030281639
0000a0 fa 06 7b 3c bc be 62 bd 14 8f 48 3d ee 2d d3 3c
       0.015321488 -0.05535768 0.048964575 0.025778737
0000b0 68 58 4a 3d b9 d7 67 bd 0c 06 76 3d ef e9 ca 3b
       0.049400717 -0.056602214 0.06006436 0.006192438
0000c0 1e 0e 6e 3d 5b a8 42 3c be 96 b4 3d 19 bb 04 bd
       0.058118932 0.011880959 0.08817814 -0.032404993
0000d0 43 ce f9 3c 42 b6 85 3d 46 22 a5 bc 91 dd 64 3c
       0.030493861 0.065289035 -0.020157944 0.013968841
0000e0 c5 44 37 3d 38 2a a4 bd fc c1 85 bc a2 85 04 bd
       0.044743318 -0.08015865 -0.01632785 -0.032354005
0000f0 c7 5d 6a bd b8 b6 99 3d a9 49 f4 3c b0 47 d4 bc
       -0.05721834 0.07505554 0.02982028 -0.02591309

rnn.rnn.rnn.weight_ih_l0 f4 [192, 64]
000000 99 d5 fd bd aa 69 1d bc a0 cc 3c bb 95 6c b8 3d
       -0.12394256 -0.009607712 -0.002880849 0.090050854
000010 c7 a4 b3 bc 24 88 cc bd b8 da ff bd a6 9b 9a be
       -0.021929158 -0.09986904 -0.12492889 -0.30196875
000020 e7 79 a3 3d ee fa 4c 3d d3 f4 2e be 40 7f 0f 3e
       0.079822354 0.050043993 -0.1708558 0.14013386
000030 17 58 b6 3d 4b b3 25 3e 93 73 ec bc 59 a8 4a 3e
       0.089035206 0.16181676 -0.028863704 0.19790782
000040 ab c6 78 3e aa e3 0b be 2e 10 2f be 44 8d 20 bd
       0.24294536 -0.13661066 -0.17096016 -0.03919722
000050 c6 f6 13 3e b0 e3 13 3e 2a d4 26 3d 1e f9 87 3b
       0.14449605 0.14442325 0.04072968 0.00414957
000060 8c ba f5 bc 5e 3f 10 3e 96 8c 36 3c f2 28 b3 bd
       -0.029996179 0.14086673 0.011141917 -0.08748044
000070 9a c7 cf bd b8 18 ee 3d db 2e d3 bb f4 1c 9f 3e
       -0.10145493 0.116258085 -0.0064447946 0.31076777
000080 58 a1 5c 3e 2d 12 fb 3c 5c 23 09 be d0 ad 20 be
       0.21545923 0.030648315 -0.13392395 -0.15691304
000090 c8 96 63 be 67 11 b8 3d c7 23 51 bb 45 cb 09 be
       -0.22225487 0.08987694 -0.0031912194 -0.13456447
0000a0 53 10 b4 bd 24 0a 8a bd 67 36 25 be 63 e9 64 3e
       -0.08792176 -0.067402154 -0.16134034 0.22354655
0000b0 94 1f 70 3d fa c3 0f 3e 50 17 bc 3c ff f8 02 3e
       0.058623865 0.14039603 0.022960335 0.12790297
0000c0 54 8a 30 bd cf 8e 9d be 42 14 b8 bd 43 fc a1 3e
       -0.04310067 -0.30773017 -0.08988239 0.31637773
0000d0 a6 2a a7 bd 7b af 9f 3b fa 95 d6 bc 45 e9 38 bd
       -0.081624314 0.004873214 -0.026194561 -0.04514434
0000e0 e4 2a de bd 27 cd e5 3d 90 f6 2e bd 88 c7 37 3e
       -0.108480245 0.1122077 -0.04271561 0.17947209
0000f0 48 dd 0d be aa 71 46 bc 09 27 99 3c da 15 a8 bd
       -0.13853943 -0.012112061 0.018695371 -0.08207293
000100 9b 4b b9 3d b7 c2 3e bd ff 16 94 3d b0 43 95 bc
       0.09047624 -0.046572413 0.07230949 -0.018220752
000110 21 d4 21 3d aa 87 f7 3d 2f 70 22 be e7 67 3e 3d
       0.039508943 0.12086423 -0.15863107 0.046485808
000120 c9 d4 4d bd 3a 1c cc bd 2f 28 5d bd d8 6f 5e bd
       -0.050251756 -0.09966321 -0.0539934 -0.05430588
000130 79 17 0f be 9a 6b 7e 3d 89 de 8e bc 29 63 44 bc
       -0.13973798 0.062114336 -0.017440097 -0.011986532
000140 7a 1b 92 3e 75 8c 5a bd 8c 7f f9 bd cc e9 bf 3d
       0.28536588 -0.053356607 -0.12182531 0.09370765
000150 a5 b5 9c bc 36 0a 63 be ae 90 5f bd 8f c2 85 be
       -0.019129584 -0.22171864 -0.054581337 -0.26125
000160 98 39 39 be 10 af 6a 3e a7 92 0d 3e 3a 01 09 be
       -0.18088377 0.22918344 0.13825475 -0.13379374
000170 6e f8 2d be a7 64 f7 bc 30 91 82 be 69 4a 63 bc
       -0.169893 -0.030199362 -0.25501394 -0.013872721
000180 c1 e5 dc bd c9 ec ab 3d 31 58 ed 3d da 7a 86 3d
       -0.107860096 0.083947726 0.11589087 0.06566401
000190 8f 6c a7 bc f0 a7 89 3e 51 e4 df 3d 1d 38 25 3d
       -0.020437507 0.2688594 0.1093222 0.040336717
0001a0 64 ad 46 3d b3 e6 11 be 13 f4 21 3e c2 58 bc bc
       0.048505202 -0.14248161 0.15815763 -0.022991542
0001b0 e6 12 e1 3d 6b 93 cc bb ea e4 04 3c e8 32 63 be
       0.10989933 -0.0062431595 0.008111218 -0.22187388
0001c0 39 6d 88 be 7d 90 4f 3d cc 97 8b bd 1d 6d 7d 3d
       -0.2664583 0.050674904 -0.06816062 0.061871637
0001d0 6b cf 44 be 29 94 1c bd c5 80 e0 39 01 76 9d be
       -0.19219749 -0.038227234 0.0004282055 -0.30754092
0001e0 d1 75 95 3c 57 da 63 3d a6 2e 99 3d ae e9 0a 3e
       0.018244656 0.055628147 0.074796006 0.13565704
0001f0 af 86 e9 3d d4 ec 46 3c b2 4a e9 3e d8 fa d8 bd
       0.11402642 0.012141425 0.455648 -0.1059472
000200 f3 16 1a 3e 8e 44 4d 3e d9 f1 75 be 8e c6 0e 3d
       0.15047817 0.20045683 -0.24018039 0.034857325
000210 45 f9 8b 3e 33 33 77 be 0b fc 80 39 14 87 56 be
       0.27338615 -0.24140625 0.0002460185 -0.20949966
000220 59 80 03 3e 03 83 9a 3e 71 f9 5e bd 72 b7 ab be
       0.1284193 0.3017808 -0.054437105 -0.33538395
000230 f5 33 63 3e b2 80 8d bc 10 e3 e4 bd 1f 6f 99 3d
       0.22187789 -0.01727328 -0.11176121 0.07491898
000240 24 21 73 3d ed 66 5d be 9e 6c 15 be 5c 1b 2b bd
       0.059357777 -0.21621294 -0.14592215 -0.04177414
000250 28 04 63 be 7c 34 9c bd 4f 2b e7 3d 86 42 f0 3b
       -0.22169554 -0.07627198 0.11287557 0.007332149
000260 3e 65 86 bc e8 eb e8 3d ee 82 21 3e 8f ec a6 bd
       -0.016405698 0.113731205 0.15772602 -0.08150589
000270 3d 88 49 3e bc 7a f2 bc 71 16 87 3c 85 ec 07 3d
       0.19680877 -0.02959954 0.016490193 0.033184547
000280 36 2c ad 3e 4b cc 57 bd b3 e4 cc bd 20 41 23 3c
       0.33822793 -0.052685063 -0.100045584 0.0099642575
000290 03 c5 22 3d fe ed d4 bd c3 0d cb bd 1e 24 11 bd
       0.039738666 -0.10396956 -0.09914734 -0.035434835
0002a0 71 18 c4 bd 13 3c 4e 3d a5 01 56 3e 32 95 6f 3c
       -0.09574974 0.05035026 0.20899065 0.014622973
0002b0 65 71 f0 bc 0c 20 20 3e fc 82 73 3e 5f 4f 5f bd
       -0.029350946 0.15637225 0.23780435 -0.054519054
0002c0 4e 64 08 be 4e ba 07 be f2 53 e6 3d e1 a1 fe bd
       -0.13319513 -0.13254663 0.1124648 -0.1243322
0002d0 3c 34 35 3c e3 98 4e 3e d0 8e 6d 3e 0e d7 3a bc
       0.011059817 0.20175509 0.2319901 -0.011403812
0002e0 20 16 49 be 10 56 c5 3d d7 09 0e 3d a4 48 c0 bc
       -0.19637346 0.09635556 0.034677353 -0.023472138
0002f0 c8 53 00 3e 0c 8f 83 3d 43 b9 7f 3d 7f 37 3f bc
       0.1253196 0.064237684 0.06243254 -0.011670946
000300 7f 2a b7 3d 6a 5e a1 3d 38 29 56 3b 53 a6 dd bd
       0.08943652 0.07879336 0.0032678377 -0.108227395
000310 8e b8 39 3d 1d af 85 bc 5d b0 27 be 5c 3b 9a 3d
       0.04534202 -0.016318852 -0.16375871 0.07530853
000320 c8 68 e2 3d b4 e2 cf 3d df 26 de 3d c4 ac e7 3b
       0.11055142 0.10150662 0.10847258 0.007070156
000330 ee 62 6f be 6a fb 35 3e 49 06 1c 3e 49 6f 9e 3e
       -0.23377582 0.17771688 0.15236773 0.3094428
000340 df 3b 3a be 27 5d 3b bc d1 83 66 3c eb 4f 9d 3d
       -0.18186902 -0.0114357835 0.014069513 0.07681259
000350 58 68 a4 3d 20 83 e2 3d 90 c0 c0 3d ed 38 0d be
       0.080277145 0.11060166 0.094117284 -0.13791247
000360 06 54 ce 3c f2 4a 0f 3e af 74 25 be 62 63 d3 bc
       0.02518655 0.13993433 -0.16157793 -0.025804225
000370 a3 7e 02 3d fe 24 85 3e fd 4f c2 bd aa 84 4f bd
       0.03185905 0.26004785 -0.09487913 -0.050663628
000380 a4 5e b0 bd 1b 2f 0b bd 93 80 66 be b6 72 42 be
       -0.08611801 -0.03398047 -0.22509985 -0.18989071
000390 27 cd 64 be 24 5c 08 3b 3e 08 06 3e 42 17 d1 bd
       -0.22343884 0.0020806873 0.13089082 -0.10209514
0003a0 14 51 85 bd f2 a0 1b bd 60 79 4f 3c ad 81 c3 3c
       -0.06509605 -0.037995286 0.012663215 0.023865545
0003b0 f7 a5 9c bd d5 8d 34 be 34 04 f9 3c 7d 75 63 3c
       -0.07648843 -0.1763223 0.030397512 0.013882992
0003c0 06 dd ea bd bf ad 97 3d ed 85 d8 3d 84 80 21 3c
       -0.11467938 0.07406186 0.10572419 0.009857301
0003d0 00 f7 fd bd b2 92 7c 3e 66 12 a4 3d 66 fc 4f 3d
       -0.12400627 0.24665335 0.08011322 0.050777815
0003e0 ec 23 60 3d 86 cd 12 be 92 25 1c bd 78 c2 e6 bc
       0.054721758 -0.14336213 -0.038121767 -0.028168902
0003f0 a3 77 57 be 85 d7 12 3e ad 67 47 3e 77 63 2a 3d
       -0.21041732 0.14340027 0.19473143 0.041598763

rnn.rnn.rnn.weight_hh_l0 f4 [192, 64]
000000 11 ef bd 3e 85 75 36 bd 2a be f7 3d f9 55 4c bd
       0.37096456 -0.04454567 0.12096818 -0.049886677
000010 8e 6e 7c bc f9 4c 30 3e e8 75 95 bb 7a 8b 06 3d
       -0.015407218 0.17216863 -0.0045611747 0.03284786
000020 d9 98 84 bd 0b 11 25 be 98 d5 d9 bc 2d 25 fd 3c
       -0.06474466 -0.16119783 -0.026591107 0.030901516
000030 5e 1d 12 3e 1a f0 7a bd e2 59 23 3d ec 39 84 bd
       0.14269015 -0.061264135 0.03988064 -0.0645636
000040 2f ac 95 bd f1 58 55 bd 80 dc 18 bd e1 dd 5b 3d
       -0.07308232 -0.052086774 -0.03731966 0.053678397
000050 61 58 95 be 06 e1 2c 3e 3d 9c f7 bc 6f 58 b0 3d
       -0.2916899 0.16882715 -0.030225867 0.08610617
000060 55 44 ca 3b 64 26 d8 bd 89 f6 a8 bd a5 c1 bd 3d
       0.0061726966 -0.105541974 -0.08250148 0.092654504
000070 13 bd 60 3e 1e e8 27 3c 0a 8f 20 be a3 66 99 bd
       0.21947126 0.010248212 -0.15679565 -0.074902795
000080 14 09 68 3d a8 4d 47 3c 2d 4b d4 bd 02 01 00 bd
       0.056649283 0.012164511 -0.10365901 -0.03125096
000090 00 f6 ae 3d cc 9a 35 bc 65 89 3c 3d b4 77 c5 3d
       0.085430145 -0.01108427 0.046029467 0.09641972
0000a0 64 94 97 3c aa 48 1a be 20 a6 30 be e5 e7 bb bd
       0.018503375 -0.15066782 -0.17250872 -0.0917509
0000b0 67 b4 5f bd 97 36 6c 3d ef 27 f0 bc 03 5a e8 3d
       -0.054615404 0.05766925 -0.029315917 0.113452934
0000c0 16 90 35 3d 4f 49 6c 3e 19 b9 54 3d d2 fc 97 3c
       0.044326864 0.2307484 0.051934335 0.018553171
0000d0 2b ef 24 3e 0d 35 53 3d 71 b2 8b 3d b1 14 0e bd
       0.1610686 0.051564265 0.06821144 -0.0346877
0000e0 a5 98 c9 bb 23 5b e5 3d 23 5f 9e bd 27 b5 21 bd
       -0.00615223 0.111990236 -0.0773299 -0.0394794
0000f0 0e 2c f4 3c 05 3c 10 bd 03 5a 07 bd b5 e5 56 3e
       0.029806163 -0.03521349 -0.033044826 0.20986064
000100 cf e0 4e bd 3e 87 81 bd 08 72 0b 3e e0 38 ad bd
       -0.050507363 -0.063246235 0.13617718 -0.08458114
000110 5c 9b 31 3d b9 a4 42 bd 3f 16 1f be 2f 57 21 3e
       0.043361053 -0.047520373 -0.1553583 0.15755914
000120 e8 27 a7 3e 38 33 dc 3e 73 52 c8 bd 16 bc f3 bc
       0.32647634 0.43007827 -0.09781351 -0.029752772
000130 81 fe 87 bc bb be 94 bc 0d e9 66 bd f9 26 0f be
       -0.01660085 -0.018157354 -0.0563746 -0.1397971
000140 83 b6 9f 3d ad 3b fb bc 97 53 20 3c bd 94 c4 3d
       0.07798483 -0.030668104 0.009785554 0.09598682
000150 58 ea 15 bd 09 3e b9 bc 7b 54 07 bd 41 86 c8 3d
       -0.03660044 -0.022612588 -0.03303955 0.09791232
000160 aa 92 bd bd f7 a4 9a bc 66 d3 6c 3d bb 22 f3 bc
       -0.092564896 -0.01887749 0.057818793 -0.029679647
000170 fc d8 ab bd c8 94 a3 bd 42 c9 82 bd 9c 2f fe 3c
       -0.08390996 -0.07987362 -0.06386043 0.031028561
000180 c6 2d 9e bc 82 2b e5 3d c9 6b 7d bd 9b 08 f4 3d
       -0.019308936 0.11189939 -0.06187037 0.11915704
000190 2b f7 76 3d 92 09 54 be 3d 69 83 3c db a6 dd 3d
       0.06029431 -0.20706776 0.016041392 0.10822841
0001a0 50 de 00 be fa 08 ea bc af c6 58 be 04 56 30 3c
       -0.12584805 -0.028568733 -0.21169542 0.010762695
0001b0 3c 82 99 3d 43 35 2f be a6 f8 13 3c 27 60 2f bd
       0.07495543 -0.17110161 0.00903145 -0.042816307
0001c0 41 23 54 bc 55 e1 42 3e 5c 8b d0 bd ae 50 af 3d
       -0.012947858 0.1903127 -0.10182831 0.0856031
0001d0 78 fa dd 3d 7b 31 c1 3b 82 71 9b bd ee 25 21 3e
       0.10838789 0.005895791 -0.07590009 0.15737125
0001e0 67 39 e1 3d c8 69 53 be 2e eb 6a 3d 06 2c 83 3e
       0.10997277 -0.20645821 0.05735319 0.25619525
0001f0 8e 3d 15 3d 5b ca 43 be dd 11 51 3e 09 85 12 3e
       0.036435656 -0.19120161 0.2041697 0.14308561
000200 b0 c0 69 3e 6c 30 36 3d 55 bc 51 be 6c f1 38 be
       0.2282741 0.044479772 -0.20481999 -0.18060845
000210 75 f7 d2 bc c4 d7 78 3d 40 40 6a be 22 dd 02 3e
       -0.025752762 0.060752645 -0.22876072 0.12779668
000220 98 d9 15 bd 3d f4 f5 bc 28 ac 0a 3d 4e c0 39 3d
       -0.036584467 -0.030023688 0.033855587 0.04534941
000230 de 39 fe bd 5d 6b 1e be 7d 6d f0 3d 2a fd 99 3d
       -0.12413381 -0.15470643 0.11739633 0.0751899
000240 fd 66 32 3d 05 0d c1 bd ff c1 88 bc 71 0f 24 3d
       0.04355525 -0.094263114 -0.016694067 0.04005379
000250 56 88 88 bc 24 d1 1a 3d ed 9c 68 3d 39 d0 2d 3d
       -0.016666573 0.03779711 0.05679028 0.042434905
000260 44 93 5c 3c a9 b3 b7 bb 85 e2 00 be 44 22 9d 3e
       0.013462845 -0.005606134 -0.1258641 0.30690205
000270 a1 a2 0b 3e 51 5a 98 bd d4 1d 1e be e3 63 2d bd
       0.13636257 -0.074391015 -0.15441066 -0.042331588
000280 04 7e c2 3d 7a dd 42 3e d8 89 40 bd 9e 25 17 bd
       0.09496692 0.19029799 -0.047006458 -0.03690111
000290 da 42 c2 bc 02 3a 80 bd 6e b4 cc 3d 57 52 45 3c
       -0.023713518 -0.06261064 0.09995352 0.012043557
0002a0 f6 07 44 3d 2e 91 ab 3d d1 cd 58 bd 9c 6c e6 bc
       0.047859155 0.083773 -0.052930657 -0.02812796
0002b0 83 7d f4 3d 62 9b 39 3e 28 3e 24 be 14 c5 00 3d
       0.11938002 0.1812568 -0.16039336 0.03143795
0002c0 de 6f f7 bb 3f 39 fb bc 98 9f 3b 3e a6 b8 fe 3c
       -0.0075511774 -0.030666946 0.18322599 0.031093907
0002d0 39 87 f6 3d 63 70 9e 3d 02 b9 3b bc f5 01 47 bd
       0.120375104 0.0773628 -0.0114576835 -0.04858585
0002e0 e0 39 8d 3d 26 a2 31 bd b5 d6 10 be 75 a8 82 3c
       0.068958044 -0.043367527 -0.14144404 0.015949467
0002f0 29 51 61 3c 9c c2 a5 3d 8b 81 03 3b 9b 03 d7 3d
       0.01375226 0.080937594 0.0020066227 0.104987346
000300 b7 ed 00 bd d3 81 43 3d 76 bf c0 bd b2 e0 f4 3a
       -0.031476703 0.047731232 -0.09411518 0.0018682687
000310 3f 79 bc 3d 26 af fc 3d cd 46 c0 3e b0 24 00 be
       0.09202813 0.123380944 0.37554017 -0.12513995
000320 e2 2e af 3d 6f 6a d5 3d 6e 62 c7 3d 42 1b 82 3d
       0.08553864 0.10420691 0.09735571 0.06352855
000330 c2 87 ab bd ca 3d 8d bd f9 01 01 3e 98 43 78 3e
       -0.08375503 -0.06896551 0.12598409 0.24244535
000340 36 b7 0a 3d 6e 87 eb bc 22 d2 00 be 36 ba e8 bd
       0.03386613 -0.028751101 -0.1258016 -0.11363642
000350 9a 37 d5 3c 0e 44 e1 3d fb 8d 6b 3d 37 71 27 3d
       0.02602749 0.109993085 0.05750845 0.040879454
000360 42 42 84 3d 27 c8 05 3c 09 4a 5a 3d d0 d9 bc bd
       0.0645795 0.008165396 0.05329326 -0.09221232
000370 4c de c7 bd b2 79 8a 3d c4 2b b3 bd ab fd 50 3d
       -0.09759197 0.06761493 -0.08748582 0.051023167
000380 23 8b 84 bc 15 30 a2 3d 06 b8 68 bc 64 b7 0b 3b
       -0.016179627 0.07919327 -0.014204031 0.0021319026
000390 0b 3a 02 be ba 11 8a bd 45 9d 84 bd 13 1b 39 3e
       -0.12717454 -0.06741662 -0.06475309 0.18076734
0003a0 4b 7b 5a 3c b6 51 09 bd 7b e7 1c be f3 cc 53 3d
       0.013335059 -0.03352519 -0.15322678 0.051709127
0003b0 0f 56 98 bd 7e d6 65 3e 0b 44 10 3d 01 ef 3e bd
       -0.074382894 0.22445104 0.03522114 -0.04661465
0003c0 57 f4 50 3d 8d 0b 8b bb b8 2a ff 3c f4 d9 d8 bd
       0.05101427 -0.0042433203 0.0311483 -0.10588446
0003d0 d0 86 3c be 88 10 16 bd a6 d8 60 bc c3 81 1b 3e
       -0.18410802 -0.03663686 -0.013723528 0.15186219
0003e0 9f 13 c8 be e1 e5 84 bc 27 21 77 bc 09 54 89 bd
       -0.3907747 -0.016222896 -0.015083588 -0.067054816
0003f0 af 51 35 bc db 52 00 3d bb 4e 78 3d 2c ac 41 bd
       -0.011066838 0.031329017 0.06062196 -0.047283337
