train/maddpg-v5/results/formation_hd_env/maddpg/hd_9/run12/models/policy_0/critic.pt (torch, 197999 bytes, 18 tensors)

mlp.feature_norm.weight f4 [531]
0	0x3f7f8803	0.9981691
1	0x3f8426b1	1.0324308
2	0x3f83d03b	1.0297922
3	0x3f8890ce	1.0669191
4	0x3f7b3caa	0.9813944
5	0x3f7c699b	0.9859864
6	0x3f7c8775	0.9864419
7	0x3f821d7c	1.0165248
8	0x3f805a19	1.0027496
9	0x3f7e3f39	0.9931522
10	0x3f7dc288	0.99124956
11	0x3f837b4f	1.0272006
12	0x3f8186aa	1.0119221
13	0x3f7ef274	0.99588704
14	0x3f811dac	1.008718
15	0x3f7b1d1e	0.98091304
16	0x3f73e5a5	0.95272285
17	0x3f834aa5	1.0257155
18	0x3f7a697c	0.97817206
19	0x3f83f294	1.0308404
20	0x3f7b2f04	0.98118615
21	0x3f7d3076	0.9890207
22	0x3f798096	0.9746183
23	0x3f829e6d	1.0204598
24	0x3f7db746	0.9910778
25	0x3f7ab406	0.97930944
26	0x3f77395b	0.9657189
27	0x3f82cd82	1.0218966
28	0x3f83fd8b	1.031175
29	0x3f7f8f7e	0.99828327
30	0x3f7edb19	0.99553066
31	0x3f8082cc	1.0039916
32	0x3f83ddc5	1.0302054
33	0x3f82884a	1.0197842
34	0x3f7efb50	0.9960222
35	0x3f839fad	1.0283104
36	0x3f801f43	1.000954
37	0x3f820fce	1.0161073
38	0x3f7cb525	0.98713905
39	0x3f8046b9	1.0021583
40	0x3f80b359	1.0054733
41	0x3f7d507e	0.98950946
42	0x3f7ea422	0.99469197
43	0x3f81a031	1.0127012
44	0x3f7f7bc9	0.99798256
45	0x3f7e69ac	0.9937999
46	0x3f7d05c0	0.988369
47	0x3f7e80c4	0.9941523
48	0x3f828b2f	1.0198725
49	0x3f7cf57e	0.9881209
50	0x3f7d6292	0.9897853
51	0x3f7de5ee	0.9917897
52	0x3f7ebb59	0.9950462
53	0x3f805493	1.002581
54	0x3f7d2569	0.9888521
55	0x3f8026ba	1.0011818
56	0x3f7976c4	0.97446847
57	0x3f82b523	1.0211529
58	0x3f7df232	0.99197686
59	0x3f7c975b	0.9866845
60	0x3f7a65f9	0.9781185
61	0x3f7d4ccb	0.989453
62	0x3f8002f4	1.0000901
63	0x3f76dab9	0.96427494
64	0x3f75501b	0.95825356
65	0x3f7ff256	0.9997915
66	0x3f8217ab	1.0163473
67	0x3f812696	1.00899
68	0x3f828ef1	1.0199872
69	0x3f7f28ac	0.99671435
70	0x3f7f8f86	0.99828374
71	0x3f7ddddc	0.99166656
72	0x3f7e49cd	0.9933136
73	0x3f7ecfd3	0.99535865
74	0x3f835fd8	1.0263624
75	0x3f7d65ba	0.9898335
76	0x3f76a1a6	0.96340406
77	0x3f7ef48b	0.9959189
78	0x3f830c96	1.0238216
79	0x3f81a76f	1.0129222
80	0x3f76e48c	0.96442485
81	0x3f7c449b	0.98542184
82	0x3f813bf0	1.0096416
83	0x3f79619a	0.97414553
84	0x3f812f93	1.0092643
85	0x3f7bd71a	0.98375094
86	0x3f7f1d52	0.99654114
87	0x3f816779	1.0109702
88	0x3f814b81	1.0101167
89	0x3f7f516f	0.9973363
90	0x3f81d9fb	1.0144647
91	0x3f75b1a9	0.9597421
92	0x3f7a68e6	0.9781631
93	0x3f8103d4	1.0079293
94	0x3f7dfbed	0.99212533
95	0x3f80f458	1.0074568
96	0x3f7b2b43	0.9811289
97	0x3f8289de	1.0198324
98	0x3f80efb7	1.0073155
99	0x3f812a3b	1.0091013
100	0x3f7b964d	0.98276216
101	0x3f76ce2a	0.9640833
102	0x3f83aae6	1.0286529
103	0x3f819917	1.0124844
104	0x3f7d3057	0.98901886
105	0x3f811658	1.0084944
106	0x3f7f29b8	0.9967303
107	0x3f7b8294	0.9824612
108	0x3f7a45ba	0.97762644
109	0x3f79ef9c	0.9763124
110	0x3f83d96e	1.0300729
111	0x3f7fb980	0.99892426
112	0x3f7edea2	0.9955846
113	0x3f773938	0.96571684
114	0x3f7a05a5	0.9766486
115	0x3f829322	1.0201151
116	0x3f80c110	1.0058918
117	0x3f7edf24	0.99559236
118	0x3f81e51c	1.0148044
119	0x3f843814	1.0329614
120	0x3f811335	1.0083987
121	0x3f7ae9c2	0.98012936
122	0x3f82177d	1.0163418
123	0x3f7ec069	0.99512345
124	0x3f7bf813	0.98425406
125	0x3f82e0dc	1.0224872
126	0x3f7980d4	0.974622
127	0x3f809b5b	1.0047411
128	0x3f81ebbe	1.0150068
129	0x3f7be975	0.984031
130	0x3f807a3f	1.0037307
131	0x3f82f0ad	1.0229698
132	0x3f7dd427	0.99151844
133	0x3f7c6007	0.98584026
134	0x3f837f22	1.0273173
135	0x3f7be58a	0.98397124
136	0x3f8011c1	1.0005418
137	0x3f80a3c9	1.0049983
138	0x3f8031cf	1.00152
139	0x3f81468a	1.0099652
140	0x3f7ceaf1	0.9879599
141	0x3f82733e	1.0191419
142	0x3f81471d	1.0099827
143	0x3f824794	1.0178094
144	0x3f76c681	0.9639664
145	0x3f80b95e	1.005657
146	0x3f77ad21	0.9674855
147	0x3f7bd3ce	0.98370063
148	0x3f80406d	1.0019661
149	0x3f807878	1.0036764
150	0x3f812136	1.008826
151	0x3f7f7d3f	0.99800485
152	0x3f7f874b	0.99815816
153	0x3f812b92	1.0091422
154	0x3f7e417e	0.99318683
155	0x3f814059	1.0097762
156	0x3f8128c4	1.0090566
157	0x3f806837	1.0031804
158	0x3f7e3ec3	0.99314517
159	0x3f7a5785	0.97789794
160	0x3f7fb10c	0.9987953
161	0x3f7459f8	0.9544978
162	0x3f7f8ee6	0.9982742
163	0x3f808240	1.0039749
164	0x3f7a68cf	0.97816175
165	0x3f82add0	1.0209293
166	0x3f80a2be	1.0049665
167	0x3f7f3751	0.9969378
168	0x3f814783	1.0099949
169	0x3f80e36e	1.0069406
170	0x3f7c9f6e	0.9868077
171	0x3f7b7c03	0.982361
172	0x3f809055	1.0044047
173	0x3f80929b	1.004474
174	0x3f82085a	1.0158799
175	0x3f8247cb	1.017816
176	0x3f8258c5	1.018334
177	0x3f82d4cf	1.0221194
178	0x3f848c7a	1.035537
179	0x3f824a0a	1.0178845
180	0x3f7e3864	0.99304795
181	0x3f799a4d	0.9750107
182	0x3f8370e6	1.0268829
183	0x3f7a6faf	0.97826666
184	0x3f804b4a	1.0022976
185	0x3f8149f8	1.0100698
186	0x3f812906	1.0090644
187	0x3f7b6193	0.9819576
188	0x3f7dbe96	0.99118936
189	0x3f7bbd39	0.98335606
190	0x3f8033ff	1.0015868
191	0x3f8058b7	1.0027074
192	0x3f7bcdde	0.98361003
193	0x3f7d7c91	0.990182
194	0x3f803cc6	1.0018547
195	0x3f82a848	1.0207605
196	0x3f8058d6	1.002711
197	0x3f7e1553	0.9925129
198	0x3f7ff417	0.99981827
199	0x3f7d193e	0.9886664
200	0x3f798ad9	0.9747749
201	0x3f821085	1.0161291
202	0x3f8167a8	1.0109758
203	0x3f78abac	0.9713695
204	0x3f751181	0.95729834
205	0x3f7fb599	0.9988647
206	0x3f7b91ae	0.98269165
207	0x3f802e8f	1.0014209
208	0x3f7b67ad	0.9820507
209	0x3f812087	1.0088052
210	0x3f81c5b3	1.0138458
211	0x3f7bafee	0.9831532
212	0x3f811086	1.0083168
213	0x3f7ac9ad	0.9796398
214	0x3f7267ef	0.9468984
215	0x3f7a82ba	0.9785572
216	0x3f75db78	0.9603801
217	0x3f7d5bb3	0.98968047
218	0x3f854035	1.041022
219	0x3f7f7fff	0.9980468
220	0x3f82e2de	1.0225484
221	0x3f74a0fd	0.9555815
222	0x3f7d70b8	0.9900012
223	0x3f80da91	1.0066701
224	0x3f777d98	0.96676016
225	0x3f832ea1	1.0248605
226	0x3f80003c	1.0000072
227	0x3f818d12	1.0121176
228	0x3f79a6c0	0.97520065
229	0x3f7bec9b	0.98407906
230	0x3f830ffa	1.0239251
231	0x3f816416	1.0108669
232	0x3f7d712c	0.9900081
233	0x3f801ddb	1.0009111
234	0x3f7a3d51	0.9774981
235	0x3f81bd59	1.0135909
236	0x3f805f76	1.0029132
237	0x3f77d7eb	0.9681384
238	0x3f7f6807	0.9976811
239	0x3f819ddd	1.0126301
240	0x3f7302e5	0.9492629
241	0x3f7eb940	0.9950142
242	0x3f8481d7	1.0352124
243	0x3f81a61d	1.0128819
244	0x3f83069e	1.0236394
245	0x3f801717	1.0007046
246	0x3f82eb82	1.0228121
247	0x3f7db782	0.99108136
248	0x3f781bbc	0.9691732
249	0x3f809981	1.0046846
250	0x3f7f7aee	0.9979695
251	0x3f80a533	1.0050415
252	0x3f823e45	1.0175253
253	0x3f7d3734	0.9891236
254	0x3f7f8f30	0.9982786
255	0x3f7d2e74	0.98899007

mlp.feature_norm.bias f4 [531]
0	0x39d4d02c	0.0004059089
1	0xbc784188	-0.015152343
2	0x3c974c25	0.018468926
3	0xbb12eea6	-0.0022420078
4	0xbcc2cb86	-0.023778688
5	0x3ac7f77a	0.0015256249
6	0xbcffbae8	-0.031217054
7	0xbc6aa65d	-0.014321891
8	0xbc78b3ea	-0.015179614
9	0xbbc35089	-0.0059605283
10	0x3c30c807	0.010789878
11	0xbc150dce	-0.00909753
12	0xbc80a841	-0.01570523
13	0xbd21c5fb	-0.03949545
14	0xbd1c0f9f	-0.038100835
15	0xbcfbf10d	-0.03075459
16	0xbccfb975	-0.025356987
17	0x3cc3a6f6	0.023883324
18	0x3c1c8801	0.00955391
19	0x3b55ac0b	0.0032603766
20	0x3cc7969f	0.024363814
21	0xbc965a3a	-0.01835357
22	0xb9dbb50d	-0.00041905828
23	0x39a65ef4	0.00031732733
24	0xbcb9df40	-0.022689462
25	0xbbbadc7c	-0.0057025533
26	0x3bf72a27	0.0075428667
27	0x3c5f6b97	0.013636491
28	0x3bc47abe	0.0059960773
29	0x3c5b2729	0.013376036
30	0x3b671f56	0.003526648
31	0x3c99a28a	0.018754262
32	0xbcc3812e	-0.023865309
33	0x3b9ba9a9	0.0047504497
34	0xbd19e09e	-0.037567727
35	0xbb201d40	-0.0024431497
36	0xbbc4e5b2	-0.006008827
37	0x3aeacc45	0.001791366
38	0xba45e6b2	-0.000754933
39	0xbc752271	-0.014961825
40	0x3cda7a22	0.026669566
41	0x3bed2cd9	0.0072380123
42	0x3be00f4e	0.006837762
43	0xbcef5445	-0.029214988
44	0xbcb869c2	-0.022511367
45	0xbd0b42a3	-0.033999097
46	0x3c83ede9	0.016104655
47	0xbbceed2f	-0.0063148956
48	0xbc1e9f48	-0.00968153
49	0xbd001e65	-0.031278986
50	0xbc4152ad	-0.011799497
51	0xbd12d9ec	-0.035852358
52	0xbc96c06c	-0.0184023
53	0xbc9622a2	-0.018327061
54	0xbbff742b	-0.0077958307
55	0x3b4ea00c	0.00315285
56	0xbb89c1c8	-0.0042040087
57	0xbcc9776a	-0.024593074
58	0x3cb31dad	0.021864736
59	0x3cfde326	0.030992102
60	0x3c1c9710	0.0095575005
61	0xbb52d589	-0.0032170734
62	0x3a74b342	0.0009334573
63	0xbbe9ecc5	-0.007138821
64	0x3cb75693	0.022380149
65	0xbbc0d3da	-0.0058846297
66	0x3b8cac4f	0.0042930017
67	0xbc49ed4b	-0.012324641
68	0xbcb56ac4	-0.022145636
69	0x3d26b0a7	0.040695813
70	0xbb756719	-0.0037445484
71	0xbca19180	-0.0197227
72	0x3b5fcfed	0.0034151033
73	0x3c1139c5	0.008863871
74	0xbc0c8529	-0.00857667
75	0x3b16c57a	0.0023005889
76	0xbd280a2d	-0.04102533
77	0x3c398b21	0.011324675
78	0x3c7bb882	0.015363814
79	0xbd0e9088	-0.034805804
80	0xbc63875b	-0.013887252
81	0xbc12c318	-0.008957647
82	0x3c9323b6	0.017961364
83	0x3c3c9ec5	0.011512463
84	0xbab327d5	-0.0013668487
85	0x3c558a64	0.013033483
86	0x3ca45109	0.020058172
87	0x3c1fb105	0.009746795
88	0xbc4fe532	-0.012688922
89	0xbd2c1237	-0.04200956
90	0x3b625586	0.003453584
91	0xbbfa173f	-0.0076321657
92	0xbcfad6f7	-0.030620081
93	0x3bcda92b	0.00627627
94	0x3c161dcc	0.009162378
95	0xbcb4d6e9	-0.022075133
96	0x3c66e28a	0.014092097
97	0x3b7a3704	0.0038179765
98	0x3c4713e2	0.0121507365
99	0xbc6c05bd	-0.014405665
100	0xbb0fafd3	-0.0021924868
101	0xbccd0cbd	-0.025030488
102	0x3b5e19de	0.003388993
103	0xbc190deb	-0.009341697
104	0xbd1165f9	-0.03549764
105	0x3c82747d	0.015924687
106	0xbccb375f	-0.024806676
107	0x3a05a385	0.00050979137
108	0x3b705f4f	0.0036677902
109	0x3cab53a5	0.020913908
110	0xbbf52ae5	-0.00748192
111	0x3d46f6f2	0.04857535
112	0xbcd30b54	-0.025762238
113	0xbb6ccae5	-0.0036131677
114	0xbc196690	-0.009362832
115	0x3c5225f5	0.0128264325
116	0xbd3f9326	-0.04677119
117	0x3d215679	0.039389107
118	0xbbab80ff	-0.0052338834
119	0xbd28a7a1	-0.04117549
120	0xbd0006ee	-0.03125661
121	0xbb4d53b4	-0.0031330409
122	0x3c57686b	0.013147454
123	0xbcc03415	-0.023462335
124	0x3c6bc59e	0.014390377
125	0xbc743bfd	-0.01490688
126	0xba5adc67	-0.00083488825
127	0xbb11c821	-0.002224453
128	0x3ca7da60	0.020489872
129	0x3bb31619	0.0054652807
130	0xb63d0a18	-2.816907e-06
131	0xbbd127f0	-0.0063829347
132	0xbc457c74	-0.012053598
133	0xbcb8c3f7	-0.02255438
134	0xb9adfc46	-0.0003318509
135	0x3c934033	0.017974949
136	0x3bb1c216	0.005424748
137	0xbb5c09ef	-0.0033575257
138	0xbbf9ba6a	-0.0076210992
139	0xbcd923be	-0.026506301
140	0x3c41e3e3	0.011834118
141	0xbb4c675a	-0.0031189532
142	0xbb6f5f89	-0.003652545
143	0x3bab9f18	0.0052374713
144	0x3cb68a0d	0.022282625
145	0xba0c0a76	-0.0005342135
146	0x3bc63485	0.0060487413
147	0xbce33d4a	-0.027739186
148	0xbcd46635	-0.025927642
149	0x3c145855	0.009054263
150	0xbbc01331	-0.005861663
151	0xbc9f96a0	-0.019481003
152	0x3c9d0341	0.01916659
153	0x3c02ac4d	0.00797565
154	0xbbd4f590	-0.006499
155	0x3b3ac156	0.0028496585
156	0x3ab36cea	0.0013689075
157	0xbd3b064e	-0.04566031
158	0x3d1e9fcc	0.038726613
159	0xbbfa9712	-0.0076474035
160	0x3c54ecdb	0.012995924
161	0x3b63fd48	0.0034788419
162	0x3bd374c6	0.0064531295
163	0xbbf49275	-0.007463748
164	0xbb81faf4	-0.0039666835
165	0xbc1edf11	-0.009696738
166	0x3c6425b7	0.013925008
167	0x3a246fb1	0.0006272747
168	0xbb8d4238	-0.0043108724
169	0x3c2c8a5a	0.010531032
170	0x3b05779e	0.0020365487
171	0x3b97033e	0.004608541
172	0xbcb315ea	-0.021861035
173	0xba9a8167	-0.0011787832
174	0x3d1847cb	0.037177842
175	0x3d1a262a	0.037634052
176	0xbb640d5f	-0.003479801
177	0x3b148861	0.0022664296
178	0xbc44b081	-0.012004972
179	0xbbb8923e	-0.005632668
180	0xba084847	-0.00051987584
181	0x3bc138ad	0.005896649
182	0x3cd2ed0b	0.025747797
183	0xbc0e21c7	-0.008675045
184	0xbc850d4f	-0.016241698
185	0xbacdb0eb	-0.0015692984
186	0x3c08ae3d	0.008342323
187	0x3cb6d481	0.022318127
188	0xbb523fa5	-0.0032081392
189	0x3c201d84	0.009772662
190	0xbd120d53	-0.03565724
191	0xbc8b2ca6	-0.016989063
192	0x3bb101f5	0.0054018446
193	0x3c6b92ec	0.014378291
194	0xbc60c972	-0.013719903
195	0xbc09b42e	-0.008404775
196	0xbc5ad113	-0.013355511
197	0x3d0786af	0.03308743
198	0x3c1a9e60	0.009437174
199	0xbca8b622	-0.02059466
200	0xbcc54874	-0.0240824
201	0xba4c69d2	-0.0007797751
202	0x3b75a820	0.0037484244
203	0xbc7dad56	-0.015483221
204	0xbccd3ad2	-0.025052462
205	0xbc960875	-0.01831458
206	0xbc0d7859	-0.00863465
207	0xbd2e7c8a	-0.04259924
208	0x3cc56fcb	0.024101159
209	0x3c446342	0.0119865555
210	0xbbeebd0b	-0.0072857193
211	0x3c34a8c1	0.011026562
212	0xbcfacd1f	-0.030615387
213	0xbd01d229	-0.031694565
214	0x3cd49fa7	0.025955034
215	0xbccd64cd	-0.02507248
216	0x3c673731	0.01411228
217	0xbb3891f3	-0.0028163164
218	0x3c2fa57d	0.010720608
219	0xbbffbb08	-0.0078042783
220	0xbc3e0a19	-0.011599087
221	0xbcebead4	-0.028798498
222	0x3cdb5dc2	0.026778106
223	0xbc25fa80	-0.010130525
224	0xbc6c6550	-0.014428452
225	0xbc063e40	-0.0081935525
226	0xba3ca191	-0.0007195706
227	0x3ce035f9	0.027369486
228	0xbc60f769	-0.013730862
229	0x3cdb1797	0.026744647
230	0x3a179522	0.00057824154
231	0x3ccbb62c	0.02486714
232	0xbcbfe44c	-0.02342429
233	0xbb056e30	-0.0020359866
234	0xbc33c462	-0.010972114
235	0xbcfaf3a8	-0.030633762
236	0x3c3bece1	0.011470051
237	0x3c930657	0.017947359
238	0xbc59fff0	-0.013305649
239	0x3ab6a1e8	0.001393375
240	0xbce0a181	-0.027420761
241	0x3c0bef52	0.008540945
242	0xbb4bcd5d	-0.0031097748
243	0xbc8c90b3	-0.017158842
244	0x3ce5667b	0.028002968
245	0x3c1bc9b3	0.009508538
246	0xbd030b43	-0.031993162
247	0x3c173713	0.009229439
248	0xbcb17911	-0.021664174
249	0x3b122614	0.0022300528
250	0xbb05a2c3	-0.0020391203
251	0x3b275450	0.0025532432
252	0x3b949bad	0.0045351596
253	0xbd033ffc	-0.032043442
254	0xb8d19038	-9.9927594e-05
255	0xbc9a599c	-0.018841557

mlp.mlp.fc1.0.weight f4 [64, 531]
0	0x3bf43705	0.007452848
1	0x3d02c3c7	0.03192499
2	0x3d97c1ef	0.07410037
3	0x3c8f360f	0.017481832
4	0x3c110e22	0.008853467
5	0x3ce71a8a	0.028210897
6	0x3cc69660	0.024241626
7	0x3d9a03e6	0.07520275
8	0x3cc477e1	0.023982944
9	0x3e10b962	0.14133218
10	0x3dba502f	0.09097325
11	0x3d9ffbaa	0.07811673
12	0x3cb65306	0.022256386
13	0x3d2e89d0	0.042611897
14	0xbd5eae26	-0.0543653
15	0xbcc6150d	-0.02417996
16	0xbcbde32b	-0.023179611
17	0xbdff2da7	-0.12459879
18	0x3dc12b4e	0.09432088
19	0xbcb2b997	-0.021817012
20	0x3b836025	0.004009264
21	0x3da06943	0.07832577
22	0x3d2b9b42	0.041896112
23	0xbb8724e4	-0.0041242708
24	0xbd583540	-0.05278516
25	0x3d259bae	0.04043167
26	0x3d17a1e9	0.037019644
27	0xbc8cf809	-0.017208116
28	0xbca9d6ef	-0.020732371
29	0x3ca00470	0.019533366
30	0xbdce4b1d	-0.100729205
31	0xbd3b3c34	-0.04571171
32	0x3ce6e887	0.02818705
33	0xbdaddf09	-0.08489806
34	0xbd71e461	-0.05905569
35	0xbce843ed	-0.028352702
36	0xbd27b9e1	-0.040948752
37	0xbdd2f6df	-0.10300993
38	0x3bb0bc8e	0.005393571
39	0xbdaecc83	-0.08535101
40	0x3b74ebf5	0.0037372087
41	0xbd54dc32	-0.051967807
42	0xbccdec25	-0.025137017
43	0xbd02bc63	-0.03191794
44	0xbdf50578	-0.11963934
45	0xbe2cf3d1	-0.16889884
46	0xbe10ee2c	-0.14153355
47	0xbc93f975	-0.018063286
48	0xbb94c799	-0.0045403955
49	0xbd956ff6	-0.072967455
50	0xbce01c3a	-0.02735721
51	0xbd3759e7	-0.044763472
52	0xbdb25430	-0.08707464
53	0xbda5efa4	-0.081023484
54	0xbdca8499	-0.09888572
55	0xbd91f1bc	-0.07126185
56	0x3d2011bd	0.039079417
57	0xbdbb9937	-0.09160083
58	0x3b67e2c9	0.0035382977
59	0x3da38559	0.079844184
60	0xbd55d3d7	-0.05220398
61	0x3d6186b0	0.05506009
62	0xbbcb41e4	-0.006202923
63	0x3d225de2	0.039640315
64	0xbdc3a1c6	-0.0955234
65	0x3d3a3991	0.045465056
66	0xbd5abb81	-0.053401474
67	0xbdaff401	-0.08591462
68	0x3d11aeb5	0.035567004
69	0xbcaae789	-0.020862358
70	0xbc95db44	-0.01829303
71	0xbd51bf43	-0.051207792
72	0x3d3e7cb9	0.046505664
73	0xbb9dbafc	-0.00481355
74	0xbe1bac34	-0.15202409
75	0x3dd60478	0.10450071
76	0x3ce78eda	0.02826636
77	0xbd0e6592	-0.034764834
78	0xbd95b2fd	-0.0730953
79	0xbcfb8947	-0.030705107
80	0xbc0a02a0	-0.008423477
81	0x3c10865f	0.008821099
82	0xbc75f949	-0.0150130475
83	0x3d5dcc66	0.054150008
84	0xbd2b69af	-0.041848835
85	0x3dc5f297	0.09665411
86	0xbd9a1f33	-0.07525482
87	0xbcbf5d3e	-0.023359891
88	0xbd850575	-0.064951815
89	0x3d3040c5	0.04303052
90	0x3dc4b2c5	0.0960441
91	0xbc07f3b8	-0.008297853
92	0xbc394a66	-0.011309242
93	0xbdf96b4f	-0.121786706
94	0xbdcc13ff	-0.099647515
95	0xbd0fd842	-0.03511835
96	0x3c6be9fb	0.014399047
97	0xbd2db824	-0.04241194
98	0xbb6a70bc	-0.0035772761
99	0xbdc5635c	-0.09638092
100	0x3c6f956f	0.01462303
101	0xbd9aa03d	-0.07550094
102	0xbd18ece1	-0.03733528
103	0x3cb9ea86	0.022694837
104	0x3d706c8f	0.05869728
105	0xbd89234f	-0.06696188
106	0xbd687593	-0.056752753
107	0x3bea4cfd	0.007150291
108	0x3dd8fe9f	0.1059544
109	0xbc53df04	-0.012931589
110	0x3dc7bfea	0.097534016
111	0x3dbe6b00	0.092977524
112	0xbcf89d50	-0.03034845
113	0x3e052b23	0.13004737
114	0xbd9237e4	-0.071395665
115	0xbd4bff33	-0.049803924
116	0xbc7d0dab	-0.015445153
117	0xbccdbb0e	-0.025113609
118	0x3d1055c5	0.035238046
119	0x3d49eba9	0.04929701
120	0xbdb2c9af	-0.08729874
121	0xbd0e9c07	-0.034816768
122	0xbd07d02e	-0.03315752
123	0xbc88f4e6	-0.01671834
124	0xbabf8c94	-0.0014614039
125	0xbcc0922b	-0.023507198
126	0xbd90ca2a	-0.0706981
127	0x3cdd3521	0.027002873
128	0xbdcbcefd	-0.09951589
129	0x3cca6fed	0.024711573
130	0x3c6e9ac8	0.01456327
131	0x3d800e86	0.0625277
132	0x3c9deeae	0.01927885
133	0xbbd2e9fd	-0.006436585
134	0xbd19740f	-0.037464198
135	0xbc0f11c5	-0.008732264
136	0x3c60e708	0.013726957
137	0x3c4f4f06	0.012653118
138	0xbcd657eb	-0.02616497
139	0x3c21ab97	0.00986757
140	0x3c8c1e88	0.017104402
141	0x3dbbbf79	0.0916738
142	0xbd5b4b96	-0.05353888
143	0x3d2e2cbd	0.042523134
144	0xbc255deb	-0.010093193
145	0xbc944409	-0.018098848
146	0xbdeae8d4	-0.1147019
147	0x3c425a31	0.011862324
148	0xbe043c6e	-0.12913677
149	0xbd8a36b3	-0.06748714
150	0xbd4da93a	-0.050210215
151	0xbcde73cd	-0.027154827
152	0x3d7e151d	0.062031854
153	0xbd2dc89a	-0.042427637
154	0xbd881291	-0.06644166
155	0x3bf792aa	0.0075553255
156	0x3d05242c	0.0325052
157	0xbc199022	-0.009372743
158	0xbc4d3a94	-0.012526173
159	0xba548ca6	-0.00081081165
160	0x3c9d105e	0.019172844
161	0x3ceda506	0.029009353
162	0x3df6d1f3	0.120517634
163	0xbc1a83ef	-0.0094308695
164	0x3ddb8c0f	0.107200734
165	0x3e0508d8	0.12991655
166	0x3d3eaf4d	0.0465539
167	0x3c7599bd	0.014990267
168	0x3ceb37f2	0.0287132
169	0x3c755c5d	0.014975634
170	0xbd78d30d	-0.06074815
171	0xbac33306	-0.0014892526
172	0xbc365dae	-0.011130733
173	0xbcfaf8e2	-0.030636255
174	0xbe05acb3	-0.13054161
175	0xbdc1f279	-0.09470076
176	0xbc5a14f3	-0.013310659
177	0x3c69ceb9	0.014270478
178	0x3d9ef6d2	0.07761921
179	0x3cf8fa00	0.030392647
180	0x3dd34f3e	0.103178486
181	0x3da966bc	0.08271548
182	0xbdd6ba51	-0.10484756
183	0x3d7851eb	0.060624998
184	0xbba0bdf2	-0.0049054557
185	0x3d8c8609	0.06861503
186	0x3cdc1f23	0.026870316
187	0x3cff6405	0.031175623
188	0x3ca230cc	0.019798659
189	0xbd5d7f0a	-0.054076232
190	0xbdac90e9	-0.08426077
191	0xbdeb8f71	-0.11501969
192	0xbd1ed9d1	-0.038781945
193	0x3d07d5f4	0.033163026
194	0x3da0a37c	0.07843682
195	0x3dbe4281	0.09290028
196	0xbd04edca	-0.032453336
197	0x3c84464c	0.016146801
198	0xbd05b67f	-0.032644745
199	0xbbaf195d	-0.0053435997
200	0xbbfe160e	-0.007754094
201	0xbe154975	-0.14578803
202	0xbd1e9514	-0.03871639
203	0xbc439928	-0.011938371
204	0x3d38d44a	0.04512433
205	0xbd1ac289	-0.03778318
206	0xbd40f4b2	-0.04710836
207	0xbe0dd2e3	-0.13849978
208	0x3cd82326	0.026383948
209	0xbb13bbff	-0.0022542474
210	0xbda8b586	-0.08237748
211	0xbdd5ddf8	-0.10442728
212	0xbc8921b6	-0.016739707
213	0xbd5522f1	-0.052035276
214	0xbbc68887	-0.006058756
215	0x3d5cd86f	0.053917345
216	0xbccde816	-0.025135081
217	0x3db1aa5b	0.08675071
218	0x3b467fa3	0.003028848
219	0x3de9e459	0.11420507
220	0xbcf0b550	-0.029383332
221	0x3c02db9d	0.00798693
222	0x3c8098be	0.015697833
223	0xbd93aba9	-0.07210476
224	0x3dd27eb0	0.1027807
225	0x3d3dc4f3	0.046330404
226	0x3cbfe522	0.023424689
227	0x3c9a99f2	0.018872235
228	0x3d4a5e2c	0.049406216
229	0x3d855012	0.06509413
230	0x3d55cc74	0.052196935
231	0xbb9956f1	-0.0046795537
232	0xbc40360f	-0.011731639
233	0xbdc3ca4e	-0.09560071
234	0x3e347a0c	0.17624682
235	0x3db56fcb	0.088592134
236	0xbad2bafd	-0.0016077455
237	0xbd5a12b7	-0.053240504
238	0x3c7e4164	0.01551852
239	0xbd891df3	-0.066951655
240	0xbd60deb2	-0.05489988
241	0x3d9d4906	0.07679944
242	0xbdca19ff	-0.098682396
243	0xbd161025	-0.03663649
244	0x3d6d5be3	0.057948958
245	0xbd87cec4	-0.06631234
246	0xbdabb5e3	-0.083843015
247	0x3a4bce17	0.0007774545
248	0xbc3ce254	-0.01152857
249	0x3d2f6021	0.042816285
250	0x3df8f6ce	0.12156449
251	0x3d81bf86	0.06335358
252	0xbd8aee6a	-0.06783755
253	0x3c9bf910	0.01903966
254	0xbd59e408	-0.053195983
255	0xbcae7197	-0.021294398

mlp.mlp.fc1.0.bias f4 [64]
0	0xbae0f859	-0.0017163857
1	0x3cb731f6	0.02236269
2	0x3b73c043	0.0037193454
3	0x3bc4e917	0.006009232
4	0xbcc318c4	-0.02381552
5	0xb9abfc25	-0.00032803524
6	0x3c126db0	0.008937284
7	0xbc1b6b06	-0.009485966
8	0xbb881b82	-0.00415367
9	0xbc91966d	-0.017771924
10	0xbc4e8139	-0.012604051
11	0xbca3f727	-0.020015312
12	0xbbd6b477	-0.006552275
13	0xbc3933b7	-0.011303834
14	0x3d1555d3	0.0364588
15	0x3d117983	0.035516273
16	0xbb9302b6	-0.004486407
17	0x3d1f3fe7	0.0388793
18	0x3c6a4adc	0.014300074
19	0x3bdc1208	0.0067160167
20	0xba8dd541	-0.0010821001
21	0xbb47c1f4	-0.0030480595
22	0xbc383730	-0.0112436265
23	0x3bf7cd6f	0.0075623314
24	0x3c9f2e39	0.01943122
25	0x3b71a9b9	0.0036874844
26	0xbc0a173e	-0.008428393
27	0xbabf1f34	-0.0014581443
28	0x3c8c0505	0.017092237
29	0xbd177d72	-0.03698487
30	0x3a94380f	0.0011308211
31	0x3c3a2a0d	0.011362565
32	0xbc4d6365	-0.0125359045
33	0x3ab3e1de	0.001372393
34	0xbc14443c	-0.0090494715
35	0xbc2d85c7	-0.010590977
36	0x3b36ba5c	0.0027882075
37	0x3b579ab5	0.003289861
38	0x3cce4448	0.025179043
39	0xbbd8be00	-0.0066144466
40	0x3cc274d8	0.023737356
41	0x3d280ff0	0.041030824
42	0xbb0dadd8	-0.0021618512
43	0x3c8b2e24	0.016989775
44	0xbbc865cc	-0.0061156508
45	0x3bd2bf12	0.0064314688
46	0x3c3de609	0.011590489
47	0xbcae1d35	-0.021254161
48	0x3b6f2614	0.0036491202
49	0x3ba250ac	0.0049534645
50	0x3c7cc317	0.015427372
51	0xbc84e4f9	-0.016222464
52	0x3cc3ec99	0.02391653
53	0x3c02eae7	0.007990575
54	0x3ce98837	0.028507335
55	0x3d206498	0.039158434
56	0xbc3db833	-0.011579561
57	0xbbafb2bf	-0.0053618844
58	0x3c023111	0.007946269
59	0xbbbb1d0c	-0.0057102498
60	0x3c962f91	0.018333228
61	0xbc036e14	-0.00802185
62	0xbd0f7534	-0.035023883
63	0xbcbd20b1	-0.023086878

mlp.mlp.fc1.2.weight f4 [64]
0	0x3f818a95	1.0120417
1	0x3f836ddd	1.0267903
2	0x3f8050fd	1.0024716
3	0x3f7b3333	0.98125
4	0x3f7e99d2	0.9945346
5	0x3f83c097	1.0293149
6	0x3f78d734	0.97203374
7	0x3f81a10b	1.0127271
8	0x3f81aaa2	1.0130198
9	0x3f7e615b	0.993673
10	0x3f809c85	1.0047766
11	0x3f7f250c	0.99665904
12	0x3f80d85f	1.0066031
13	0x3f863262	1.0484126
14	0x3f7e31e5	0.99294883
15	0x3f83bfb7	1.0292882
16	0x3f7a1f3f	0.9770393
17	0x3f81e51f	1.0148047
18	0x3f81346c	1.0094123
19	0x3f7d0ea4	0.98850465
20	0x3f826cf7	1.0189503
21	0x3f85720f	1.0425433
22	0x3f81f5e6	1.0153167
23	0x3f8302fb	1.0235285
24	0x3f81c984	1.0139623
25	0x3f7ee852	0.9957324
26	0x3f79b9c3	0.97549075
27	0x3f83afed	1.0288063
28	0x3f78791e	0.9705981
29	0x3f8075a9	1.0035907
30	0x3f73e440	0.95270157
31	0x3f7df67a	0.9920422
32	0x3f85da16	1.045718
33	0x3f782dad	0.96944696
34	0x3f7decee	0.9918965
35	0x3f808a04	1.0042119
36	0x3f80c10c	1.0058913
37	0x3f7f25f5	0.9966729
38	0x3f797f01	0.9745942
39	0x3f814287	1.0098428
40	0x3f7d6809	0.9898687
41	0x3f81813f	1.0117568
42	0x3f7c9da9	0.9867807
43	0x3f7d3674	0.98911214
44	0x3f7d28c2	0.98890316
45	0x3f7dccf3	0.9914085
46	0x3f822684	1.0168004
47	0x3f837319	1.02695
48	0x3f7c1ed0	0.98484516
49	0x3f84ad5b	1.0365404
50	0x3f81bde4	1.0136075
51	0x3f7af62c	0.9803188
52	0x3f79b316	0.9753889
53	0x3f7e6027	0.99365467
54	0x3f83e298	1.0303526
55	0x3f841f32	1.032202
56	0x3f763cd9	0.96186596
57	0x3f780c26	0.9689354
58	0x3f79b5ad	0.9754284
59	0x3f8054e7	1.002591
60	0x3f7c1ec0	0.9848442
61	0x3f834663	1.0255855
62	0x3f8178af	1.0114955
63	0x3f7e2317	0.9927229

mlp.mlp.fc1.2.bias f4 [64]
0	0xbade3685	-0.0016953504
1	0x3ce94f4d	0.028480196
2	0x3ccf3caf	0.02529749
3	0x3cc53de0	0.024077356
4	0xbc7574ec	-0.01498149
5	0xbcc648ae	-0.024204578
6	0x3d0432df	0.032275077
7	0xbc8b535e	-0.017007526
8	0xbc828a2d	-0.015935028
9	0xbc5bfe17	-0.013427279
10	0xbbf222b3	-0.0073893904
11	0xbd2d1d3f	-0.04226422
12	0x3c573622	0.013135465
13	0xbd14e3f2	-0.036350198
14	0x3d1ea700	0.038733482
15	0x3d46614e	0.04843264
16	0x3a88223e	0.0010386182
17	0x3d514937	0.051095214
18	0xbc96934d	-0.018380785
19	0x3cef0209	0.029175775
20	0xbc888ba0	-0.01666814
21	0xbcd2991d	-0.025707776
22	0xbd1ef124	-0.03880419
23	0x3923a445	0.00015606087
24	0x3c674ad7	0.014116964
25	0xbb0c3536	-0.002139402
26	0x3c24372e	0.0100229215
27	0xbcb6edc7	-0.022330178
28	0x3c691f14	0.014228601
29	0xbd074973	-0.03302903
30	0x3cf1e6b8	0.02952896
31	0x3caa25ca	0.020769972
32	0xbd7d6793	-0.061866354
33	0x3bf34934	0.007424498
34	0xbbec5304	-0.0072120447
35	0x3cc5d873	0.024151063
36	0x3c7c07dd	0.015382734
37	0x3b2abef1	0.0026053751
38	0x3d04cf60	0.03242433
39	0x3ba0b922	0.004904882
40	0x3c553511	0.01301314
41	0x3cd4a124	0.025955744
42	0x3c4d75f7	0.012540332
43	0x3ce20c78	0.027593836
44	0x39913003	0.00027692327
45	0x3c18dc38	0.009329848
46	0xbb5536d8	-0.003253391
47	0xbd6cb0f0	-0.05778593
48	0x3c618b3b	0.013766105
49	0xbbffa7e4	-0.0078019965
50	0x3cfb05fa	0.030642498
51	0xbaa870ba	-0.0012850978
52	0x3cb14a4a	0.02164187
53	0x3c07a050	0.008277968
54	0xbb35a60c	-0.002771738
55	0x3d09c754	0.03363736
56	0x3c2c7c8b	0.01052774
57	0x3c21e9d3	0.009882408
58	0x3ca0a708	0.019610897
59	0xbcaa3bc9	-0.02078046
60	0x3c8986c7	0.0167879
61	0xbc56b7d6	-0.013105353
62	0xbcea577e	-0.028606173
63	0xbcfbab4e	-0.030721333

mlp.mlp.fc_h.0.weight f4 [64, 64]
0	0x3da61dab	0.081111275
1	0x3cce80c8	0.025207892
2	0xbe10104f	-0.14068721
3	0x3d09fef7	0.03369042
4	0x3e97ca2f	0.2964644
5	0x3e163bd2	0.14671257
6	0xbc1e6772	-0.009668218
7	0x3c82238d	0.015886093
8	0xbb8e97e4	-0.004351603
9	0xbd970f30	-0.07375944
10	0xb952b956	-0.00020096204
11	0x3e912c5c	0.28354156
12	0xbd1a884c	-0.03772764
13	0xbddc9a16	-0.10771577
14	0xbe5b002d	-0.21386786
15	0x3e7e9419	0.24861182
16	0x3e96a546	0.2942297
17	0x3de87897	0.11351126
18	0x3d9216b5	0.07133237
19	0xbe9da573	-0.3079029
20	0xbe3e7b5a	-0.18601742
21	0x3e3e59ff	0.18589018
22	0xbe0c6bf2	-0.13713053
23	0xbd1936ca	-0.037405767
24	0x3e3ebf00	0.18627548
25	0x3dfca44b	0.12336024
26	0x3de8fa91	0.11375917
27	0xbd4fa1bc	-0.05069135
28	0xbe89c87c	-0.2691077
29	0xbcb836c3	-0.02248705
30	0xbda583fd	-0.080818154
31	0xbe14cb0a	-0.14530578
32	0xbecf7771	-0.40520814
33	0x3e4e036d	0.20118494
34	0x3dbd3905	0.09239391
35	0xbead6b4e	-0.3387093
36	0x3e07fbc1	0.1327963
37	0x3e70a52a	0.23500505
38	0x3db08455	0.0861899
39	0x3e1834b3	0.14863853
40	0xbd1cfc67	-0.038326647
41	0xbe6ab1e2	-0.2291942
42	0xbdd4147b	-0.10355469
43	0x3b8e7f1c	0.0043486487
44	0x3e05142b	0.12995975
45	0x3c65f2a9	0.0140349055
46	0x3e562867	0.2091385
47	0xbe1717e4	-0.14755207
48	0xbdb178e0	-0.08665633
49	0xbd327983	-0.043572914
50	0x3d568b42	0.0523789
51	0xbe6e353b	-0.23262493
52	0x3d282a99	0.04105625
53	0xbe3c17c7	-0.18368445
54	0xbdc13fc6	-0.09435992
55	0xbe7fc84c	-0.24978751
56	0xbea90285	-0.33009735
57	0xbd40db77	-0.047084298
58	0x3d7f4ef6	0.062331162
59	0x3e072a2e	0.13199684
60	0x3edb0027	0.42773554
61	0xbccf2d9d	-0.025290305
62	0xbe97cb6b	-0.29647383
63	0x3e5c6bab	0.21525447
64	0x3eb0569b	0.34441075
65	0xbd1006a4	-0.035162583
66	0xbd9bfe54	-0.076168686
67	0xbe0089ca	-0.12552562
68	0xbde3b601	-0.11118699
69	0xbdeae889	-0.11470134
70	0x3dd3dea3	0.10345199
71	0x3bfc887b	0.0077066994
72	0xbea385f5	-0.3193814
73	0xbc543068	-0.012950994
74	0x3e70c9cc	0.2351448
75	0x3e059d3f	0.13048266
76	0x3db44ff9	0.08804316
77	0xbea5a317	-0.3235099
78	0x3ddfd307	0.10928922
79	0xbc83ccaf	-0.016088812
80	0xbe72c775	-0.237089
81	0xbe2acd25	-0.16679819
82	0x3e7872dd	0.24262567
83	0x3d742db5	0.059613902
84	0xbe5c4e94	-0.2151435
85	0xbe682edd	-0.22674127
86	0x3bee2275	0.007267291
87	0xbe8c94c0	-0.27457237
88	0xbb3a2234	-0.0028401734
89	0x3e2881ff	0.1645584
90	0xbe140859	-0.1445631
91	0x3db67aff	0.089101784
92	0x3dee4ca3	0.11635711
93	0xbe465dc2	-0.19371703
94	0x3c849ac3	0.016187077
95	0x3e1db213	0.15399961
96	0xbe53d0a6	-0.20685062
97	0x3eb22c97	0.34799644
98	0xbe139ab3	-0.14414482
99	0x3e8b1679	0.27165583
100	0x3e27bd10	0.16380715
101	0xbda46131	-0.0802635
102	0x3eb4fb7a	0.3534811
103	0x3dfd5acf	0.12370836
104	0x3e09fca5	0.13475282
105	0x3e3211a0	0.17389536
106	0xbe2df7c7	-0.16989051
107	0xbea81ded	-0.32835332
108	0x3d45e15e	0.04831063
109	0x3e91ef38	0.28502822
110	0x3dea0599	0.11426849
111	0xbe5fe0fe	-0.21863171
112	0x3dbdbf95	0.09265057
113	0xbd861f81	-0.06548978
114	0xbca8ac08	-0.020589843
115	0x3e1af13a	0.15131083
116	0xbe69b2df	-0.2282214
117	0xbc82ce1e	-0.015967425
118	0x3daa9e1b	0.083309375
119	0xbeaf1f70	-0.34203672
120	0xbe3ec7dd	-0.1863093
121	0x3dd03da6	0.101680085
122	0xbdfa46b1	-0.122205146
123	0xbd78c97e	-0.060739033
124	0xbe1e4b30	-0.1545837
125	0xbb5f9693	-0.003411685
126	0x3d45324c	0.04814367
127	0xbdbfe1d4	-0.09369245
128	0xbe83dc73	-0.25754127
129	0xbdbab8f7	-0.091173105
130	0xbed1278d	-0.40850487
131	0xbe45a7b6	-0.19302258
132	0xbe34b903	-0.17648701
133	0xbd440beb	-0.04786293
134	0xbde0b7a8	-0.1097253
135	0x3d15a38d	0.036532927
136	0xbea2f7a3	-0.31829557
137	0x3d28babf	0.04119372
138	0x3d7e34b9	0.062062
139	0x3d1ca964	0.03824748
140	0x3d33715b	0.043809276
141	0xbe8e2b21	-0.2776728
142	0xbe25da3b	-0.1619653
143	0x3e85601d	0.2604989
144	0xbbe1a020	-0.0068855435
145	0x3e1a98d4	0.15097362
146	0xbe02cb53	-0.12772875
147	0xbbe0b04f	-0.006856955
148	0x3e307a57	0.17234169
149	0x3e22ac6a	0.15886083
150	0xbe8ee324	-0.2790767
151	0x3dfeffca	0.12451132
152	0x3e1d318c	0.15350932
153	0xbe654fd1	-0.22393729
154	0x3e2dee68	0.16985476
155	0xbe46cfd4	-0.19415218
156	0x3e19a75a	0.15005246
157	0x3e088772	0.13332918
158	0xbe141800	-0.1446228
159	0xbeed0bf5	-0.46298185
160	0x3dc4d8b4	0.09611645
161	0xbdbf7110	-0.09347737
162	0xbdff6aed	-0.12471566
163	0xbe4841dc	-0.19556373
164	0x3d16d189	0.036820922
165	0xbdde26f1	-0.10847271
166	0x3e7a152f	0.24422143
167	0x3e4ee36e	0.20203945
168	0xbe225bae	-0.15855286
169	0xbdcf18cd	-0.10112152
170	0xbd35734d	-0.044299413
171	0xbe1adcb5	-0.15123256
172	0x3ca2caf5	0.019872168
173	0x3de44e76	0.11147778
174	0x3e8630b9	0.26209047
175	0x3db13a7d	0.08653734
176	0xbe1c5e7e	-0.15270421
177	0x3d108fcc	0.035293385
178	0xbe253d69	-0.16136707
179	0xbdf199e6	-0.11796932
180	0xbdace12b	-0.08441385
181	0xbdebe948	-0.11519104
182	0x3e5992df	0.21247433
183	0x3e37cd1c	0.17949337
184	0x3e1c8e58	0.15288675
185	0x3e37b3d5	0.17939694
186	0xbe83e68d	-0.25761834
187	0xbdbe6805	-0.09297184
188	0xbeafb8dd	-0.34320727
189	0xbcb7e50f	-0.02244809
190	0x3dc5afe8	0.09652692
191	0xbe3e7ebd	-0.18603034
192	0xbe79d643	-0.2439814
193	0x3e3ad5f9	0.18245687
194	0xbda37861	-0.07981945
195	0x3e271963	0.16318278
196	0xbe92bd9f	-0.28660294
197	0xbe1ab489	-0.15107931
198	0xbdd25661	-0.10270382
199	0xbe6639e0	-0.22483015
200	0x3e4ed82d	0.20199652
201	0xbe179b0e	-0.14805242
202	0x3d74917b	0.059709053
203	0x3d8fc1f8	0.070194185
204	0x3cdcaf66	0.026939105
205	0x3e01d2d2	0.12678078
206	0x3e9111fd	0.28334036
207	0xbda3b9cb	-0.079944216
208	0xbd462311	-0.048373286
209	0xbe3f134f	-0.1865971
210	0x3c9b0837	0.018924816
211	0xbe1f63d5	-0.15565427
212	0xbe0d82d9	-0.13819446
213	0x3e4cf3c4	0.20014864
214	0x3d5cc93a	0.053902842
215	0xbdd21af9	-0.10259051
216	0x3d22b305	0.039721508
217	0xbd93da7a	-0.072194055
218	0xbd5637cf	-0.052299317
219	0xbe293f09	-0.16527952
220	0x3eb33d4a	0.35007697
221	0x3c28b044	0.010295931
222	0xbe1a5db7	-0.15074812
223	0xbe557a10	-0.20847344
224	0x3d048f36	0.03236314
225	0x3e3b609c	0.18298572
226	0x3cd79de3	0.026320403
227	0x3d7050bf	0.058670755
228	0x3e0c4f1e	0.13702056
229	0xbb3970ac	-0.0028295917
230	0x3e87ea11	0.26545766
231	0xbbc80115	-0.0061036446
232	0xbc8f1802	-0.017467503
233	0xbccc117d	-0.024910683
234	0xbe812f0a	-0.252312
235	0x3ecab575	0.39591566
236	0x3d9e47b2	0.077285185
237	0xbd2dbed8	-0.04241833
238	0x3d9c0b17	0.07619303
239	0x3dbcfb8a	0.09227665
240	0xbe1fd5a2	-0.15608838
241	0x3eb49ac6	0.35274333
242	0x3e53b864	0.20675808
243	0x3e363223	0.17792563
244	0x3ec618b7	0.3869073
245	0xbcc4f35f	-0.02404183
246	0xbdca7dcf	-0.09887277
247	0xbeac25ae	-0.33622497
248	0xba98b92c	-0.0011651865
249	0xbe344acf	-0.17606662
250	0xba8fd9ca	-0.001097494
251	0xbf026c96	-0.5094694
252	0x3c43db65	0.011954163
253	0xbdb1bf95	-0.086791195
254	0xbd402015	-0.046905596
255	0x3d950cb8	0.072778165

mlp.mlp.fc_h.0.bias f4 [64]
0	0x00000000	0.0
1	0x00000000	0.0
2	0x00000000	0.0
3	0x00000000	0.0
4	0x00000000	0.0
5	0x00000000	0.0
6	0x00000000	0.0
7	0x00000000	0.0
8	0x00000000	0.0
9	0x00000000	0.0
10	0x00000000	0.0
11	0x00000000	0.0
12	0x00000000	0.0
13	0x00000000	0.0
14	0x00000000	0.0
15	0x00000000	0.0
16	0x00000000	0.0
17	0x00000000	0.0
18	0x00000000	0.0
19	0x00000000	0.0
20	0x00000000	0.0
21	0x00000000	0.0
22	0x00000000	0.0
23	0x00000000	0.0
24	0x00000000	0.0
25	0x00000000	0.0
26	0x00000000	0.0
27	0x00000000	0.0
28	0x00000000	0.0
29	0x00000000	0.0
30	0x00000000	0.0
31	0x00000000	0.0
32	0x00000000	0.0
33	0x00000000	0.0
34	0x00000000	0.0
35	0x00000000	0.0
36	0x00000000	0.0
37	0x00000000	0.0
38	0x00000000	0.0
39	0x00000000	0.0
40	0x00000000	0.0
41	0x00000000	0.0
42	0x00000000	0.0
43	0x00000000	0.0
44	0x00000000	0.0
45	0x00000000	0.0
46	0x00000000	0.0
47	0x00000000	0.0
48	0x00000000	0.0
49	0x00000000	0.0
50	0x00000000	0.0
51	0x00000000	0.0
52	0x00000000	0.0
53	0x00000000	0.0
54	0x00000000	0.0
55	0x00000000	0.0
56	0x00000000	0.0
57	0x00000000	0.0
58	0x00000000	0.0
59	0x00000000	0.0
60	0x00000000	0.0
61	0x00000000	0.0
62	0x00000000	0.0
63	0x00000000	0.0

mlp.mlp.fc_h.2.weight f4 [64]
0	0x3f800000	1.0
1	0x3f800000	1.0
2	0x3f800000	1.0
3	0x3f800000	1.0
4	0x3f800000	1.0
5	0x3f800000	1.0
6	0x3f800000	1.0
7	0x3f800000	1.0
8	0x3f800000	1.0
9	0x3f800000	1.0
10	0x3f800000	1.0
11	0x3f800000	1.0
12	0x3f800000	1.0
13	0x3f800000	1.0
14	0x3f800000	1.0
15	0x3f800000	1.0
16	0x3f800000	1.0
17	0x3f800000	1.0
18	0x3f800000	1.0
19	0x3f800000	1.0
20	0x3f800000	1.0
21	0x3f800000	1.0
22	0x3f800000	1.0
23	0x3f800000	1.0
24	0x3f800000	1.0
25	0x3f800000	1.0
26	0x3f800000	1.0
27	0x3f800000	1.0
28	0x3f800000	1.0
29	0x3f800000	1.0
30	0x3f800000	1.0
31	0x3f800000	1.0
32	0x3f800000	1.0
33	0x3f800000	1.0
34	0x3f800000	1.0
35	0x3f800000	1.0
36	0x3f800000	1.0
37	0x3f800000	1.0
38	0x3f800000	1.0
39	0x3f800000	1.0
40	0x3f800000	1.0
41	0x3f800000	1.0
42	0x3f800000	1.0
43	0x3f800000	1.0
44	0x3f800000	1.0
45	0x3f800000	1.0
46	0x3f800000	1.0
47	0x3f800000	1.0
48	0x3f800000	1.0
49	0x3f800000	1.0
50	0x3f800000	1.0
51	0x3f800000	1.0
52	0x3f800000	1.0
53	0x3f800000	1.0
54	0x3f800000	1.0
55	0x3f800000	1.0
56	0x3f800000	1.0
57	0x3f800000	1.0
58	0x3f800000	1.0
59	0x3f800000	1.0
60	0x3f800000	1.0
61	0x3f800000	1.0
62	0x3f800000	1.0
63	0x3f800000	1.0

mlp.mlp.fc_h.2.bias f4 [64]
0	0x00000000	0.0
1	0x00000000	0.0
2	0x00000000	0.0
3	0x00000000	0.0
4	0x00000000	0.0
5	0x00000000	0.0
6	0x00000000	0.0
7	0x00000000	0.0
8	0x00000000	0.0
9	0x00000000	0.0
10	0x00000000	0.0
11	0x00000000	0.0
12	0x00000000	0.0
13	0x00000000	0.0
14	0x00000000	0.0
15	0x00000000	0.0
16	0x00000000	0.0
17	0x00000000	0.0
18	0x00000000	0.0
19	0x00000000	0.0
20	0x00000000	0.0
21	0x00000000	0.0
22	0x00000000	0.0
23	0x00000000	0.0
24	0x00000000	0.0
25	0x00000000	0.0
26	0x00000000	0.0
27	0x00000000	0.0
28	0x00000000	0.0
29	0x00000000	0.0
30	0x00000000	0.0
31	0x00000000	0.0
32	0x00000000	0.0
33	0x00000000	0.0
34	0x00000000	0.0
35	0x00000000	0.0
36	0x00000000	0.0
37	0x00000000	0.0
38	0x00000000	0.0
39	0x00000000	0.0
40	0x00000000	0.0
41	0x00000000	0.0
42	0x00000000	0.0
43	0x00000000	0.0
44	0x00000000	0.0
45	0x00000000	0.0
46	0x00000000	0.0
47	0x00000000	0.0
48	0x00000000	0.0
49	0x00000000	0.0
50	0x00000000	0.0
51	0x00000000	0.0
52	0x00000000	0.0
53	0x00000000	0.0
54	0x00000000	0.0
55	0x00000000	0.0
56	0x00000000	0.0
57	0x00000000	0.0
58	0x00000000	0.0
59	0x00000000	0.0
60	0x00000000	0.0
61	0x00000000	0.0
62	0x00000000	0.0
63	0x00000000	0.0

mlp.mlp.fc2.0.0.weight f4 [64, 64]
0	0x3d8551f1	0.0650977
1	0xbc12f43d	-0.008969364
2	0xbe305c28	-0.17222655
3	0x3cbd1f56	0.023086231
4	0x3e84d3aa	0.25942737
5	0x3e03102c	0.12799138
6	0xbd1a17b4	-0.03762026
7	0x3ccceacf	0.02501431
8	0xbc81dff4	-0.01585386
9	0xbdbb65a7	-0.09150248
10	0xbce71cb4	-0.028211929
11	0x3e97ebf0	0.29672194
12	0xbca782ad	-0.020448053
13	0xbe008a30	-0.12552714
14	0xbe4a5a6b	-0.19761054
15	0x3e7ef6d7	0.2489885
16	0x3e9d949d	0.30777445
17	0x3db4ff5b	0.08837768
18	0x3dc99a94	0.098439366
19	0xbe994b26	-0.29940146
20	0xbe39a335	-0.18128665
21	0x3e32a904	0.17447287
22	0xbe109ac5	-0.1412154
23	0xbcd4355f	-0.025904356
24	0x3e5e5d3d	0.21715255
25	0x3e0fb0af	0.14032243
26	0x3e1cf634	0.15328294
27	0xbd02e036	-0.031952105
28	0xbea32c07	-0.31869528
29	0xbc54f92c	-0.01299886
30	0xbd8b5136	-0.06802599
31	0xbe17453a	-0.14772502
32	0xbeccdfcf	-0.40014502
33	0x3e646274	0.22303182
34	0x3d61f7a5	0.055167813
35	0xbe96e81d	-0.29473963
36	0x3e285e27	0.16442166
37	0x3e486b16	0.195721
38	0x3dac6d18	0.084192455
39	0x3e311324	0.17292458
40	0xbd3be216	-0.04586991
41	0xbe620671	-0.2207277
42	0xbddd7a7d	-0.108143784
43	0x3cbcc1e6	0.023041677
44	0x3de86b78	0.11348623
45	0x3c03ab25	0.0080364095
46	0x3e401455	0.18757756
47	0xbe0d6007	-0.13806163
48	0xbd9e1203	-0.07718279
49	0xbc67e315	-0.014153262
50	0x3c819135	0.01581631
51	0xbe7a0b41	-0.24418356
52	0x3d6336a0	0.055472016
53	0xbe3a9ebd	-0.18224616
54	0xbd6f0a42	-0.058359392
55	0xbe71be1f	-0.23607682
56	0xbea5b9ea	-0.32368404
57	0xbccf661f	-0.02531725
58	0x3d50ec23	0.051006448
59	0x3e218d17	0.15776478
60	0x3ee1f3b4	0.44131243
61	0xbccd8314	-0.025086917
62	0xbe9a25ab	-0.30106863
63	0x3e61dc77	0.22056757
64	0x3eb0c026	0.34521598
65	0xbd4c8639	-0.049932692
66	0xbd7e6245	-0.062105436
67	0xbe21ade2	-0.15788987
68	0xbde9f03b	-0.114227735
69	0xbdc39ec2	-0.09551765
70	0x3d9cdc48	0.07659203
71	0xbd112a78	-0.035440892
72	0xbeaaa77f	-0.33330914
73	0xbca9da69	-0.020734029
74	0x3e5ba2b8	0.21448791
75	0x3e2c53cd	0.16828842
76	0x3dbbe3e7	0.09174328
77	0xbeb15ee0	-0.34642696
78	0x3df07c1d	0.11742423
79	0xbc14b1d8	-0.009075604
80	0xbe64d049	-0.2234508
81	0xbe488f03	-0.19585805
82	0x3e6cb9f4	0.2311781
83	0x3d783553	0.06059773
84	0xbe67dc68	-0.22642672
85	0xbe8f0100	-0.2793045
86	0x3d4f755a	0.050649025
87	0xbe86e067	-0.2634308
88	0x3c10f9df	0.008848636
89	0x3e374ea1	0.17901088
90	0xbe28be99	-0.16478957
91	0x3def79c5	0.116931476
92	0x3e112b10	0.14176583
93	0xbe838776	-0.25689286
94	0xbb8fd176	-0.0043889834
95	0x3e22b875	0.15890677
96	0xbe634ad2	-0.2219651
97	0x3eaff5e1	0.34367278
98	0xbe2f9b9f	-0.17149208
99	0x3e9fe000	0.31225586
100	0x3e4e602f	0.20153879
101	0xbd88688b	-0.06660565
102	0x3ecedeaf	0.4040427
103	0x3e22ec05	0.15910347
104	0x3df0c6b0	0.11756647
105	0x3e4db2d2	0.20087746
106	0xbe4f00bb	-0.20215122
107	0xbe8ead96	-0.2786681
108	0x3c8c107a	0.0170977
109	0x3e86ee7a	0.26353818
110	0x3de22fff	0.11044311
111	0xbe68caca	-0.22733608
112	0x3db738f8	0.08946413
113	0xbd37695e	-0.04477822
114	0xb9a53eb7	-0.0003151798
115	0x3e42f4f7	0.19038759
116	0xbe56833c	-0.209485
117	0xbd1a5eb0	-0.037687957
118	0x3dc16f39	0.09445042
119	0xbec7efa2	-0.39050013
120	0xbe34912e	-0.17633507
121	0x3dd7a034	0.10528603
122	0xbe2b5f4f	-0.16735576
123	0xbd2d8207	-0.042360332
124	0xbe25ef8f	-0.16204666
125	0xbd1fc63a	-0.039007403
126	0x3c6a5dfa	0.014304632
127	0xbdbd19d8	-0.09233445
128	0xbe79bf7e	-0.24389455
129	0xbd6ad8f4	-0.05733581
130	0xbed8d6aa	-0.42351276
131	0xbe4b9ff6	-0.19885239
132	0xbe015b83	-0.12632565
133	0xbd1e80bd	-0.038696993
134	0xbd4f5bd6	-0.05062469
135	0x3d8a4b29	0.06752617
136	0xbea8e657	-0.32988235
137	0x3d4bd4d9	0.049763534
138	0x3dc5880c	0.096450895
139	0x3d1f5df8	0.038907975
140	0x3c3976e3	0.011319849
141	0xbe6d3c20	-0.23167467
142	0xbe1ba970	-0.15201354
143	0x3e83df3c	0.25756252
144	0x3cc2e0f8	0.023788914
145	0x3e1b5b82	0.15171626
146	0xbe2659f0	-0.16245246
147	0xbcece28d	-0.028916622
148	0x3e3c2198	0.1837219
149	0x3e517e8e	0.20458433
150	0xbe9850d8	-0.2974918
151	0x3dc12f5d	0.09432862
152	0x3df80cd2	0.1211182
153	0xbe7bb12c	-0.24579304
154	0x3e2bd5b5	0.16780742
155	0xbe496962	-0.19669107
156	0x3e494cd4	0.19658214
157	0x3dd9d023	0.10635402
158	0xbe1464d1	-0.14491583
159	0xbeee6675	-0.46562544
160	0x3d8c2821	0.068435915
161	0xbd952976	-0.07283299
162	0xbe0699bc	-0.13144583
163	0xbe5b934f	-0.21442913
164	0x3c49cb57	0.012316546
165	0xbd652745	-0.055945653
166	0x3e70692e	0.23477623
167	0x3e5bad00	0.21452713
168	0xbe21a159	-0.15784205
169	0xbe0fd253	-0.14045076
170	0xbd53be91	-0.05169541
171	0xbe285dae	-0.16441986
172	0x3cfb7545	0.030695567
173	0x3dd7cebb	0.105374776
174	0x3e8495c8	0.25895524
175	0x3d80ce9c	0.062894076
176	0xbe0a5f99	-0.1351303
177	0xb861f73f	-5.3874446e-05
178	0xbdcb55ad	-0.09928451
179	0xbdc8b982	-0.09801008
180	0xbdb2a2f3	-0.08722486
181	0xbddeebf0	-0.10884845
182	0x3e27be3e	0.16381165
183	0x3e3846b5	0.17995723
184	0x3e12a43b	0.14320461
185	0x3e1a5d78	0.15074718
186	0xbe643920	-0.22287416
187	0xbdddb9bb	-0.10826441
188	0xbebb0625	-0.36528125
189	0xbc517f59	-0.01278671
190	0x3dce2e4e	0.10067426
191	0xbe3c3bf5	-0.18382247
192	0xbe78c5d4	-0.24294215
193	0x3e4f6497	0.20253216
194	0xbdb3902b	-0.08767732
195	0x3df96843	0.121780895
196	0xbea0bdb3	-0.3139473
197	0xbe4204e8	-0.18947184
198	0xbe0b2c60	-0.13591146
199	0xbe511609	-0.20418562
200	0x3e2d8d79	0.16948499
201	0xbdf48936	-0.119402334
202	0xbc44d1e1	-0.01201293
203	0x3db99eb7	0.090634756
204	0x3d04a093	0.032379698
205	0x3dca432e	0.09876095
206	0x3e833b12	0.25631005
207	0xbdaf1283	-0.08548453
208	0xbd63028d	-0.055422354
209	0xbe8936de	-0.26799673
210	0x3d130624	0.035894528
211	0xbe15048e	-0.14552519
212	0xbe28fac7	-0.16501914
213	0x3e2e2e6f	0.170099
214	0x3dc274b2	0.09494914
215	0xbd03904f	-0.032120045
216	0x3d2cf086	0.04222157
217	0xbd08885f	-0.03333318
218	0xbd9407bf	-0.0722804
219	0xbe06faff	-0.13181685
220	0x3e95a164	0.29224694
221	0xbc8e494f	-0.01736894
222	0xbe2a0fb8	-0.16607559
223	0xbe418598	-0.18898618
224	0x3cec8084	0.028869875
225	0x3e1f6ad0	0.1556809
226	0x3d0ece00	0.034864426
227	0x3dddb43e	0.10825394
228	0x3e25f6ec	0.16207474
229	0x3cb2875d	0.021793062
230	0x3e8db790	0.2767911
231	0xbcd574d8	-0.026056692
232	0xbca1476a	-0.019687373
233	0x3d097555	0.033559162
234	0xbe525a6a	-0.20542303
235	0x3eb5bfac	0.35497797
236	0x3db2d0e9	0.08731253
237	0xbc3817f4	-0.01123618
238	0x3d93ac8b	0.07210644
239	0x3dde4541	0.10853053
240	0xbe10e69c	-0.1415047
241	0x3ed704af	0.4199576
242	0x3e4f979f	0.20272683
243	0x3e3996b1	0.1812389
244	0x3ec8ec62	0.39242846
245	0xbab56a81	-0.0013840945
246	0xbda31057	-0.07962101
247	0xbec614fa	-0.3868788
248	0x3bcfdfd0	0.006343819
249	0xbe3208af	-0.17386125
250	0xbc540027	-0.012939489
251	0xbf05e412	-0.5230113
252	0x3be7e308	0.007076625
253	0xbd93f7e5	-0.072250165
254	0xbd465fe7	-0.048431303
255	0x3ddfb809	0.10923774

mlp.mlp.fc2.0.0.bias f4 [64]
0	0x3bd4abae	0.0064901924
1	0x3d2989f9	0.041391347
2	0xbc733c48	-0.014845915
3	0x3bee7e00	0.007278204
4	0xbd738fea	-0.05946342
5	0xbc4f33f2	-0.012646662
6	0x3c859c64	0.016309924
7	0x3bec4b6a	0.0072111385
8	0xbcc219ca	-0.023693938
9	0x3c6824cc	0.014168929
10	0xbc5f8748	-0.013643093
11	0xbcf0ce2e	-0.02939519
12	0xbb32b3ef	-0.0027267893
13	0x3c96c3e6	0.018403959
14	0xbd01d82b	-0.031700294
15	0x3c1d0f74	0.009586204
16	0x3b1eb4a4	0.0024216557
17	0x3b1801e9	0.0023194498
18	0x3cb12bb4	0.021627285
19	0x3cefb077	0.02925895
20	0xbd16c159	-0.036805484
21	0xbb58f948	-0.0033107568
22	0x3bca41dc	0.006172402
23	0x3c2016d7	0.00977107
24	0xbcf3f911	-0.02978185
25	0xbb07f3d7	-0.0020744705
26	0xbcd8af7f	-0.02645087
27	0x3c97842b	0.01849564
28	0x3d10098c	0.035165355
29	0xbb364cc6	-0.0027816757
30	0x3cb6ed94	0.022330083
31	0xbcfdeeeb	-0.030997714
32	0x3baf400d	0.0053482116
33	0x3c6d37c3	0.014478627
34	0xbad2a3f5	-0.0016070592
35	0xb8fd953c	-0.00012091777
36	0xba8e20d8	-0.0010843528
37	0x3d092770	0.033484876
38	0xbc8db5a1	-0.017298521
39	0x3c9898a2	0.018627468
40	0x3c89853a	0.01678716
41	0x3cf1c891	0.029514583
42	0x3c488f3e	0.012241183
43	0x3d18772e	0.037223034
44	0xbbf38044	-0.007431062
45	0xbc4da7a0	-0.012552172
46	0x3c8c91cc	0.017159365
47	0xbd13cbc4	-0.036082998
48	0xbc053cfd	-0.0081322165
49	0x3c7b0abb	0.015322383
50	0x3bb8b1ff	0.005636453
51	0xbc53570f	-0.012899174
52	0xbbc8d8b6	-0.0061293496
53	0xbca793b6	-0.020456176
54	0xbc9c6a9a	-0.0190938
55	0x3c422220	0.011848956
56	0xbc51919b	-0.012791063
57	0xbd1ef9ab	-0.03881232
58	0x3c6acab2	0.014330553
59	0xbcaa22b8	-0.020768508
60	0x3c3040a5	0.0107576
61	0x3ddf438f	0.10901558
62	0xbd5cf389	-0.05394319
63	0xbb2c76f7	-0.0026316026

mlp.mlp.fc2.0.2.weight f4 [64]
0	0x3f7d306d	0.98902017
1	0x3f831bcb	1.0242857
2	0x3f81193a	1.0085824
3	0x3f802cd2	1.0013678
4	0x3f7a7bce	0.9784516
5	0x3f7e1c43	0.99261874
6	0x3f82c324	1.0215802
7	0x3f775145	0.9660838
8	0x3f74a05b	0.95557183
9	0x3f7b7d48	0.9823804
10	0x3f7f1c8d	0.9965294
11	0x3f82f694	1.02315
12	0x3f7e2dc1	0.99288565
13	0x3f78f1ec	0.97244143
14	0x3f81321e	1.009342
15	0x3f770b96	0.96502054
16	0x3f750f64	0.9572661
17	0x3f784a8b	0.96988744
18	0x3f7fa064	0.9985411
19	0x3f8284cc	1.0196776
20	0x3f767c73	0.96283644
21	0x3f791ac0	0.9730644
22	0x3f79572e	0.9739865
23	0x3f785370	0.97002316
24	0x3f81f407	1.0152596
25	0x3f81b1d3	1.0132393
26	0x3f83b2ad	1.0288903
27	0x3f813928	1.0095568
28	0x3f8576bd	1.0426861
29	0x3f7ceba1	0.9879704
30	0x3f8308a8	1.0237017
31	0x3f7d57f0	0.98962307
32	0x3f79b911	0.97548014
33	0x3f8272c8	1.0191278
34	0x3f780ec6	0.9689754
35	0x3f7d58ca	0.98963606
36	0x3f874884	1.0569005
37	0x3f7fb5a8	0.9988656
38	0x3f80fe3e	1.0077589
39	0x3f772da0	0.96553993
40	0x3f788362	0.97075474
41	0x3f823746	1.0173118
42	0x3f78c729	0.97178894
43	0x3f8279ab	1.019338
44	0x3f7af636	0.9803194
45	0x3f790c72	0.97284615
46	0x3f831901	1.0242006
47	0x3f8115c2	1.0084765
48	0x3f7bb014	0.9831555
49	0x3f8908f3	1.0705856
50	0x3f859ff9	1.0439445
51	0x3f816bf6	1.0111072
52	0x3f84f28d	1.0386521
53	0x3f80c4a0	1.0060005
54	0x3f7dcb77	0.9913859
55	0x3f7879ba	0.9706074
56	0x3f76cd1f	0.9640674
57	0x3f834ad6	1.0257213
58	0x3f83987c	1.028091
59	0x3f7d0f20	0.98851204
60	0x3f7fe998	0.9996581
61	0x3f8e0b43	1.1097187
62	0x3f7dd939	0.9915958
63	0x3f7eaec2	0.9948541

mlp.mlp.fc2.0.2.bias f4 [64]
0	0x3c35a920	0.011087686
1	0x3d8e2377	0.06940358
2	0xbd639d14	-0.055569723
3	0x3b234c12	0.0024917168
4	0xbd250e26	-0.040296696
5	0xbcd13e6e	-0.025542464
6	0x3c9ec858	0.01938264
7	0x3cdfe0d6	0.02732889
8	0xbcb2038d	-0.021730209
9	0x3cd1d751	0.025615366
10	0xbd0e4cc5	-0.034741182
11	0xbd8612c0	-0.06546545
12	0xbbd3381c	-0.0064458977
13	0x3ce5fa40	0.02807343
14	0xbd13ce9a	-0.036085702
15	0x3cc264a5	0.023729632
16	0x3c302aaf	0.010752364
17	0x3c46bc11	0.012129799
18	0x3ce3bb1b	0.02779918
19	0x3cb95668	0.02262421
20	0xbccc69f2	-0.024952862
21	0x3c217cfd	0.00985646
22	0x3cdbc42f	0.026826946
23	0x3d0d0ac8	0.03443411
24	0xbd43e1b3	-0.047822665
25	0xbd00ce17	-0.031446543
26	0xbd8fe835	-0.07026712
27	0x3b51b568	0.0031998996
28	0x3cd0c582	0.025484804
29	0xbb602ae2	-0.0034205248
30	0x3d03ee08	0.032209426
31	0xbd3c1877	-0.04592177
32	0x3cecce02	0.028906826
33	0x3c900ddc	0.017584734
34	0x3caa799a	0.020809937
35	0xba4981d1	-0.00076868857
36	0xbb344519	-0.0027507006
37	0x3d333263	0.043749224
38	0xbc75b087	-0.014995701
39	0x3d2d2c3f	0.042278524
40	0x3cc035ec	0.023463212
41	0x3d4bdf8f	0.04977375
42	0x3cda3470	0.026636332
43	0x3d04bee6	0.032408617
44	0xb8473933	-4.7498568e-05
45	0x3c948cca	0.01813354
46	0x3c69d5a8	0.014272131
47	0xbd42c3e9	-0.047550116
48	0x3c2956bc	0.0103356205
49	0x3b81bba3	0.0039591356
50	0xbd238a63	-0.039926898
51	0xbd00e777	-0.031470742
52	0x3be62f82	0.0070247063
53	0xbc5772f6	-0.013149967
54	0xba41032c	-0.00073628384
55	0x3cc38177	0.023865445
56	0xbc81e489	-0.015856044
57	0xbd798fcc	-0.06092815
58	0x3c9d20f8	0.01918076
59	0xbd01cea2	-0.0316912
60	0x3bc5fd6b	0.0060421727
61	0x3dc8c324	0.09802845
62	0xbcfa46a3	-0.03055126
63	0xbc2283a8	-0.009919085
