train/maddpg-v1/model_hd_obs_4/formation_hd_obs_env/agent_3/79_actor_params.pkl (torch, 44751 bytes, 8 tensors)

fc1.weight f4 [64, 30]
000000 7a 46 22 bd 0e b1 ea bd 3f 1a c8 bd d1 79 96 bd
       -0.039617993 -0.11459552 -0.09770631 -0.073474534
000010 a4 9c cb 3c 36 a1 07 bc 75 ef 91 3d 0d 32 45 3e
       0.024854966 -0.008278182 0.07125751 0.19257374
000020 1a ec d6 3d b3 da 4f 3b 21 29 0b 3e 6a fb 09 3d
       0.104942515 0.0031716048 0.13589908 0.033687033
000030 15 82 0d be 8b 16 bc 3c c3 a0 59 3d e3 67 11 3d
       -0.13819154 0.022959968 0.05313183 0.035499465
000040 a3 04 a2 3b e4 08 e4 bd 38 e4 0a bf 28 82 15 3c
       0.0049444004 -0.11134508 -0.54254484 0.00912527
000050 86 30 13 bd 9a 95 46 bd c1 ad d4 be ec 3b 93 3e
       -0.035934947 -0.048482515 -0.41538814 0.28756654
000060 f2 78 04 3e 90 0b 38 3e 60 5c 4f bc 50 e0 32 3e
       0.12936762 0.1797316 -0.012656301 0.17468381
000070 00 13 df bc 68 fe 4e 3d ba db ae 3a 8e 19 9b 3c
       -0.02723074 0.05053559 0.001334063 0.018933084
000080 d8 39 4e be aa ea 8e 3c e3 a0 e6 be 91 9a 06 be
       -0.20139253 0.01744588 -0.45044622 -0.131449
000090 bf 36 73 3e 20 e1 fd bd c3 6f ad 3e d9 15 b0 3d
       0.23751353 -0.12396455 0.3387433 0.08597917
0000a0 d1 f1 7b bd 9e 83 75 3e 8d b6 ec 3d 80 6c 20 bd
       -0.06150991 0.23975989 0.11558256 -0.039165974
0000b0 81 ae 8d be 75 53 4c 3e c9 d0 35 3d 90 36 57 bd
       -0.27672198 0.19953711 0.044388566 -0.05254227
0000c0 a9 42 3b 3e c4 70 8e be 86 63 c5 bd 71 a4 62 be
       0.18287148 -0.27820408 -0.09638123 -0.22133042
0000d0 72 22 37 bd a3 3d fe 3d 28 18 0c 3e a4 83 87 3d
       -0.044710584 0.124141 0.1368109 0.06616905
0000e0 70 4e a6 3d 18 dd 15 be 90 0c c0 3d 58 8d dc 3d
       0.081204295 -0.14635122 0.09377396 0.10769147
0000f0 d4 5c e7 bd 13 b3 6f bd 8e 2c 93 3c 0f fb 79 bd
       -0.112970024 -0.058520388 0.017965581 -0.061030444
000100 9c 94 ef be 0e 6a 02 be 38 7a 72 3e 9a 5f 8c 3d
       -0.46793067 -0.12735769 0.23679435 0.06854172
000110 18 5b 2a be 24 68 3c 3e 94 df 8e be 37 4d 8f bd
       -0.16636312 0.18399101 -0.27904952 -0.069971494
000120 3e 1a 80 bd f7 66 08 bb df 55 dd 3d 3e 6e e2 3c
       -0.06255005 -0.0020813325 0.10807394 0.027640458
000130 7f db 6b 3d 15 10 65 3d 83 2b 6d be cb a5 b5 bd
       0.057582375 0.05592354 -0.2316113 -0.08869513
000140 16 1a 98 3e d6 61 d2 3e 45 c3 b7 bc 1c 04 15 3f
       0.29707402 0.41090268 -0.022431979 0.58209395
000150 2a 3a 24 3e 11 4b 02 be fc 0e 1e be f1 4f cc bd
       0.16037813 -0.12723948 -0.15435404 -0.09976185
000160 b8 d2 b9 3c 34 1f 35 bd 8c 80 20 3d 6d 19 cc bc
       0.022683486 -0.04421921 0.03918509 -0.024914468
000170 0d 6e 92 3b 3a ad 5b bd e9 48 66 be 50 da 75 be
       0.0044686855 -0.053632 -0.2248875 -0.24009061
000180 f5 18 35 be f4 b0 28 3f b9 42 8c 3c 8b f2 60 be
       -0.17685302 0.6589501 0.01712166 -0.21967523
000190 59 b0 28 3f 00 d4 bd 3e 66 10 fa bd fc 60 dd 3d
       0.65894085 0.37075806 -0.12210159 0.10809514
0001a0 20 34 5b bd 8c 77 aa 3d 05 5a 05 3e 38 92 6d bd
       -0.053516507 0.08323583 0.13022621 -0.058000773
0001b0 69 52 38 3e 45 40 52 be 5f 79 00 3e b5 60 32 3d
       0.18000187 -0.2053233 0.125463 0.04354926
0001c0 2c 29 eb 3e 9f 59 36 be 6e 3d 11 3e a0 17 95 3d
       0.4592985 -0.17807625 0.1418359 0.07279897
0001d0 80 d0 34 3c e8 60 e7 bd 2c 6b b0 3d 4c 80 6f 3d
       0.011036038 -0.1129778 0.086141914 0.058471963
0001e0 f3 aa ae bd c7 fb e4 bb cb b2 68 bd ff 23 d3 bd
       -0.085287 -0.006988022 -0.056811135 -0.103096
0001f0 54 4c 02 be 64 48 51 3e 65 30 a0 3d fa 95 41 3e
       -0.1272443 0.20437771 0.078217305 0.18904868
000200 59 08 c5 bc 19 c6 9c bd 65 60 96 bd bb 8a 76 3e
       -0.024051832 -0.07654972 -0.073426045 0.24076359
000210 47 67 1f bd 10 e5 f8 bd e4 f4 1c 3e b2 9b 73 3c
       -0.038916852 -0.12153065 0.15327793 0.014868664
000220 5f 61 12 be af a7 9c 3d 11 a2 74 3f 39 64 b7 3d
       -0.14294957 0.076491706 0.95559794 0.08954663
000230 21 bf b7 3e ef c4 9c 3d ed 99 ca 3e c7 8d 6f 3d
       0.35888007 0.076547496 0.3957056 0.05848482
000240 ec 57 17 3e a8 25 9c 3c e2 9d 0b 3e 84 98 f6 bd
       0.14779633 0.019060925 0.13634446 -0.12040809
000250 c4 1d f4 3d 3c 8a 6a 3d dd dc b5 bc 63 97 3f 3d
       0.1191974 0.057260737 -0.022200042 0.046775233
000260 7a 39 56 bb 9d 5a 15 3e f0 cb f6 bc 90 47 94 3e
       -0.0032688067 0.14585347 -0.030126542 0.28960848
000270 36 b8 ad bd cc e7 30 be 5f 05 c0 3d ce f8 75 3e
       -0.08482401 -0.17275923 0.093760245 0.24020693
000280 c2 5c 52 3d e0 97 ab 3d f2 85 0d be 77 db 24 bc
       0.051357992 0.08378577 -0.13820627 -0.01006209
000290 3f b4 5a be 61 54 1a bd c3 c1 bf 3e 63 58 26 3d
       -0.21357821 -0.037678126 0.37452516 0.040611636
0002a0 00 bf ea bc ce fa 4f bd 9b fe f2 be 32 0e 5b 3e
       -0.028655529 -0.050776295 -0.47459874 0.21392134
0002b0 45 c5 c2 bd f6 62 50 3e f0 ce fe 3c 00 57 60 ba
       -0.095102824 0.2035025 0.031104535 -0.0008557886
0002c0 f0 a0 32 3e 78 c1 ca 3c 5c f3 3a bd 88 fd 9d bd
       0.17444205 0.024750456 -0.04564224 -0.07714373
0002d0 9c 7f 43 3d 8c e7 a7 3b 67 9e 5c be 0c 43 8b bc
       0.04772912 0.005124038 -0.215448 -0.016999744
0002e0 c5 4b 33 3f 24 7d 25 3f 42 95 ae bd e2 86 2e 3f
       0.7003749 0.64644074 -0.085245624 0.68174565
0002f0 45 78 01 be c5 21 5b be 99 f2 72 3e b9 b5 e2 bd
       -0.12643535 -0.21399601 0.23725356 -0.11069817
000300 3b 06 0b 3e ec fb 65 bd 29 3b 2f bc aa 45 71 bd
       0.13576595 -0.056148455 -0.010695257 -0.058904327
000310 81 60 40 be f6 98 f4 3d 48 f1 98 be 78 00 8a 3e
       -0.18786813 0.119432375 -0.29871583 0.26953483
000320 56 1a e6 bd a8 e2 68 be 9d 27 92 3e 7c 0a 87 bc
       -0.11235492 -0.22742712 0.28545848 -0.016484492
000330 84 2e 37 bd 3a 16 0a 3e d3 2c bf bd 76 41 81 3d
       -0.044722095 0.13485041 -0.093347214 0.06311314
000340 56 31 2c 3e 64 cd 28 bd 36 74 6a 3d b6 59 b8 3d
       0.16815695 -0.0412115 0.057239734 0.09001486
000350 b1 06 20 3e a4 34 cb 3c f6 59 9a be 72 27 6d 3d
       0.15627553 0.024805374 -0.3014676 0.057898946
000360 21 5d 22 3f e7 2a 1a be 17 3a 37 bf c1 b2 8d be
       0.63423353 -0.15055428 -0.71573013 -0.2767544
000370 c7 f6 c5 bb d9 1d 41 be b2 a0 9a 3e 79 11 1f 3d
       -0.006041381 -0.18859042 0.30200726 0.038835023
000380 b9 71 65 be 7a f8 d7 bd 41 27 2c bd d5 0d 0a 3d
       -0.22406663 -0.1054544 -0.042029623 0.033704598
000390 80 a2 a9 bd 9b 97 ec 3d 8c 3c 88 3e d6 53 31 be
       -0.082829475 0.11552354 0.26608694 -0.17317137
0003a0 bb 0e 45 be 84 02 8d be 9f 37 20 be 63 8b 2e be
       -0.192439 -0.27540982 -0.15646218 -0.1704536
0003b0 82 c8 11 be ac 62 96 3d 08 ae d8 bd ea c8 77 bd
       -0.14236644 0.07343039 -0.10580069 -0.06049434
0003c0 04 2a 77 bd 66 ec 47 bd b3 9c 2e bd 49 3d b2 3d
       -0.060342804 -0.04880943 -0.04262991 0.087030955
0003d0 98 a0 fa 3e 99 50 8d be 7f d1 2a bd 3f 3a 42 3e
       0.48950648 -0.27600554 -0.041703697 0.18967532
0003e0 2f 37 91 be 33 de c1 be e9 fb d5 3d 1f ed 12 3f
       -0.28362414 -0.37864837 0.10448439 0.5739307
0003f0 43 c5 fd bc 8e 8a 42 bd b9 cb 2c 3e fb ab 8a 3d
       -0.03097785 -0.047495417 0.16874589 0.06771084

fc1.bias f4 [64]
000000 43 ec 86 bf 29 fb fc 3e 25 39 2f be 67 c6 c7 3c
       -1.0540851 0.4941037 -0.17111643 0.024386598
000010 40 f0 95 be b0 f8 1f 3f 58 ed c0 3e 26 fe b6 3e
       -0.2928486 0.6248884 0.3768108 0.35740775
000020 49 4e d9 bd 35 72 38 3e 90 36 a6 bd b7 95 d8 3e
       -0.10610635 0.18012317 -0.08115876 0.42301723
000030 45 ee d1 3e 15 4c 11 3f a0 2f 19 3f b5 5d c4 3d
       0.41002098 0.56756717 0.59838295 0.09588186
000040 cc b6 c6 3e 57 0c 48 be 38 d3 ca bc 53 4e f7 3e
       0.38811338 -0.19535957 -0.02475892 0.48301944
000050 41 da 43 3e 8d a1 08 be 54 d6 21 3e 7d ef 10 bb
       0.19126226 -0.13342877 0.15804416 -0.0022115402
000060 61 7a 44 3e a1 df 93 3e e3 52 bc 3e 8e 0f 7c 3e
       0.19187309 0.28881553 0.36781988 0.24615309
000070 6d fb 89 3e 4e 89 68 3d b1 42 29 3f 8c e6 3f 3d
       0.26949635 0.05677157 0.6611739 0.046850726
000080 51 ea 8f bd c1 2a 51 3d f6 63 0c 3f ac 60 ca be
       -0.07027114 0.051066164 0.5484003 -0.3952688
000090 de 90 ca 3e 44 0a e3 be 85 a4 45 3e e6 85 ed be
       0.3956365 -0.4434377 0.1930104 -0.4639122
0000a0 48 c2 f4 3e 3c a8 b3 3e 35 5b 95 3e dd 96 a7 bd
       0.47804475 0.3508929 0.29171148 -0.08183072
0000b0 fd 1c b3 3e 1b b2 ce 3e 75 e3 a6 3e 35 ff 44 3f
       0.34983054 0.4037026 0.3259541 0.76951915
0000c0 14 a7 05 3f f9 e9 85 3f 17 46 42 3f 6a 80 a0 3d
       0.52208066 1.0462028 0.758882 0.07836993
0000d0 cb e1 20 3e 1c 2b 08 3f 40 9e dd 3e 70 73 f8 3d
       0.15711133 0.5319078 0.43284798 0.12131393
0000e0 fb 53 ea be 5f b9 47 bd cc cb 8f 3e 80 7c c5 3e
       -0.45767197 -0.048760768 0.28085172 0.38571548
0000f0 37 1a e7 3e 3d 2e 62 be 95 ed 4c 3e 36 bb 16 3f
       0.45137188 -0.22087951 0.20012505 0.5887941

fc2.weight f4 [64, 64]
000000 4e 1b 0a bf 24 29 26 bd f9 3b 5a 3e b0 f7 ad 3e
       -0.53947914 -0.04056658 0.2131194 0.33978033
000010 04 65 dd bd 8b d5 6f 3d d7 93 e9 3c 43 26 37 3e
       -0.10810283 0.05855326 0.028512878 0.1788569
000020 f6 8b 55 be d2 b7 a8 3d e9 99 a3 bd f5 59 50 3d
       -0.20854172 0.08238186 -0.079883404 0.05086704
000030 7f 9a 03 bc 41 6f db 3e 5e 36 20 be 40 a4 06 bf
       -0.00803244 0.42858317 -0.1564574 -0.52594376
000040 43 71 52 be 0f dd 7b bc 78 f4 e8 3d c0 e2 ec 3e
       -0.20551018 -0.015372529 0.11374754 0.46266747
000050 3a 9f 08 3d 41 43 2b bd 8e c4 80 be 5b 27 18 bd
       0.033354975 -0.041812185 -0.2514996 -0.037146907
000060 75 ce 68 bc d1 a2 18 3e 69 cb c1 3d 5a 1f 4e be
       -0.014209379 0.1490586 0.094626255 -0.20129147
000070 2b e5 1b 3e a7 c5 8c 3e 21 27 9b be fe 67 9c ba
       0.1522414 0.27494547 -0.3030329 -0.0011932848
000080 ed a3 5c 3e f6 fd a8 3e a2 2e 76 be 7a 15 45 be
       0.21546908 0.33006257 -0.24041227 -0.19246474
000090 19 2f 1e bd c5 f8 f0 be 80 a3 0e 3e 23 2c 08 3e
       -0.038619135 -0.47064796 0.13929558 0.13298087
0000a0 ed 7b 44 bd 1a 9d fb bc 38 ba ac 3e 92 8c 15 bd
       -0.047969747 -0.03071456 0.33735824 -0.03651101
0000b0 20 ee 22 bf c5 24 31 3e 8b 3e 9d 3d 14 db 2f 3e
       -0.636446 0.17299183 0.07677945 0.17173415
0000c0 a9 23 3e be ee 2d a6 be 4f 4b 9b 3e 40 1b e0 be
       -0.18568291 -0.32456917 0.30330893 -0.4377079
0000d0 da 5a 93 3d cc 17 4d be 86 3d 10 bf 0c bb a2 3e
       0.07195063 -0.20028609 -0.5634388 0.3178333
0000e0 6d 04 66 be 97 81 04 bf ed 77 af be a4 2a 6c 3e
       -0.22462626 -0.5176024 -0.34271184 0.23063141
0000f0 fe 90 9f be 98 9b 99 3e 1c 9a 9c 3d 8f 55 0c 3e
       -0.31165308 0.3000152 0.076465815 0.13704513
000100 43 20 48 3f 81 3d 1f bd 0f e6 19 3e a4 04 ca bd
       0.7817423 -0.038877014 0.15029167 -0.098641664
000110 b3 7a 03 3e 99 ae db 3d 74 bb 39 be a9 14 9f 3c
       0.12839775 0.10726661 -0.18137914 0.019419031
000120 63 98 d3 3e b8 29 2e 3e 94 55 29 3f b6 c5 9d 3e
       0.413272 0.17008102 0.66146207 0.30814904
000130 06 6d 91 3e 7a 92 8e be ee 61 21 be b1 1e 7e 3e
       0.2840349 -0.27846128 -0.15760013 0.24816395
000140 37 0e b6 be 09 7e 3e 3d 0d f5 89 3e ef 6c 3d 3e
       -0.3555772 0.046506915 0.2694477 0.18498586
000150 98 e4 25 be 2a 93 c3 3e a4 d9 3f 3e 02 b6 09 be
       -0.16200483 0.38198215 0.18735367 -0.13448337
000160 c1 fb c1 be 80 a8 a0 be e3 63 28 3e 4f 6a 48 be
       -0.37887385 -0.31378555 0.16444354 -0.19571804
000170 a8 67 2e 3d 34 ad 60 bd 38 db be 3c cc f8 1e be
       0.042579323 -0.05485268 0.023297891 -0.15524596
000180 e4 b4 c1 3e 3a 87 f4 3c c7 17 b8 be f8 37 2b 3f
       0.3783332 0.029849637 -0.3595564 0.66882277
000190 25 57 cd 3e 1c 13 f0 3e 21 6a e8 be f9 3e e1 3e
       0.40105549 0.4688958 -0.4539347 0.43993357
0001a0 2b 76 5e be b6 65 52 3e 80 97 75 be 54 1e e7 3c
       -0.21724765 0.20546612 -0.23983574 0.028212704
0001b0 2f fd fa bd 81 2f 3e be 8b 40 67 bc 1b fc 75 be
       -0.12255322 -0.18572809 -0.014114509 -0.24021952
0001c0 43 37 90 be 8a 94 1e bf 46 c0 e5 be 7d 78 09 bf
       -0.2816716 -0.619454 -0.44873255 -0.53699476
0001d0 ef 0d 91 be 02 d4 1c be 10 df 6a 3e 58 76 82 3e
       -0.28330943 -0.1531525 0.22936654 0.25480914
0001e0 ec 8e ad bd 57 69 da be 73 44 ee 3d 4b 71 82 be
       -0.08474526 -0.42658493 0.116341494 -0.2547706
0001f0 c8 ea 45 3e 2b b5 19 bb 78 4e 5b 3d 92 33 16 be
       0.19327843 -0.0023453932 0.05354163 -0.1466811
000200 1b 32 0a 3f 2f 9f 5f 3e 58 3f 46 3e 71 f0 1f 3e
       0.53982705 0.21838067 0.19360101 0.15619065
000210 f8 42 fa be 24 13 b5 3d d5 19 17 bf 5d 9d 34 3d
       -0.48879218 0.088415414 -0.5902379 0.044095386
000220 5f 3f 0c 3f b9 2a ee 3e f0 4b a3 3e b2 4b 6d bb
       0.54784197 0.4651697 0.31893873 -0.0036208448
000230 a6 03 ad 3c 44 3e 33 bc e1 ff fe be e0 56 06 be
       0.021119904 -0.010940138 -0.49804595 -0.13119078
000240 40 ad 4a bf 64 b4 f8 be ff 2c b4 3d 1c 1e 91 be
       -0.7917061 -0.48575127 0.08797645 -0.28343284
000250 ce 4e e1 3e 59 d4 64 3d 0a e3 14 be 39 3a 13 bd
       0.44005436 0.055866573 -0.14539734 -0.035944197
000260 9b 2f 84 3d e1 23 12 3e 05 a8 5c be d3 53 ce 3e
       0.064543925 0.14271499 -0.2154847 0.40298328
000270 c1 88 cf 3e 67 3f a7 bd 00 bc 22 be d5 b2 35 3e
       0.40534022 -0.0816639 -0.15892029 0.17744
000280 43 19 43 3d bb 8d e5 3d bf 7f bf 3e aa 6f fa bd
       0.047631513 0.112086736 0.3740215 -0.122283295
000290 50 92 aa 3d d5 2e 1e 3e b3 61 c8 3c 0b f7 43 be
       0.08328688 0.15447553 0.02446065 -0.19137208
0002a0 e3 fc 02 3e cc b5 97 3d 41 ba 3c 3e b8 cd 01 3e
       0.12791781 0.07407722 0.18430425 0.12676132
0002b0 a3 a0 a1 be 81 b6 97 3e 48 b3 c0 3e 0e 92 02 be
       -0.3156787 0.29631427 0.3763678 -0.12751028
0002c0 60 82 9e 3d 50 c4 7b 3e 87 6d 29 3e 2f d8 a7 3e
       0.07739711 0.24586606 0.16545688 0.32782122
0002d0 66 a5 3f be 86 79 c4 bc 19 ee 00 be 16 56 2b 3e
       -0.18715438 -0.023983728 -0.12590827 0.16732058
0002e0 76 19 3e bd ae e3 97 3d be ea 8a bd 52 e4 93 bd
       -0.046411 0.07416473 -0.06783055 -0.07221283
0002f0 5f f5 12 be da 8a fd 39 14 44 48 3e b2 bc 85 3d
       -0.14351414 0.00048359373 0.1955722 0.065301314
000300 f7 8c 10 3e 77 07 19 be c5 a3 c0 bd 58 27 29 3e
       0.14116274 -0.14944254 -0.094062366 0.16518915
000310 00 63 61 3c f2 4a 27 be 12 80 02 bd 7f 97 15 3e
       0.013756514 -0.16337183 -0.03186042 0.14608572
000320 27 3b b0 3d ab 39 fb 3d af fb 0c bd ce 4e 56 be
       0.086050324 0.12266859 -0.03441971 -0.20928499
000330 be e5 e8 3c 56 bf da 3c 96 56 8a bc 68 cd b0 be
       0.028429862 0.026702564 -0.01688699 -0.34531713
000340 63 98 21 bf 65 ad 6f 3c aa 73 4a 3e 0f 4f 27 3e
       -0.6312315 0.014628743 0.19770685 0.16338752
000350 ba cc 37 3e 67 76 84 be d5 1d 7e 3d 97 f8 bf bb
       0.1794919 -0.25871584 0.06204017 -0.0058584916
000360 94 71 17 be 3e 68 32 bd 61 2b fe bd 93 9f 55 3e
       -0.1478942 -0.043556444 -0.124106176 0.20861654
000370 96 dd 93 3e fe 55 f1 be 79 94 a8 bd f8 c9 d6 3c
       0.28879994 -0.4713592 -0.08231444 0.026219353
000380 12 4e 9f be 38 57 0f 3f 91 6e ad 3d 94 a4 57 bd
       -0.3111425 0.5599246 0.084683545 -0.05264719
000390 08 b2 a7 be aa 27 0f 3e b8 18 34 bd e2 4c ae 3e
       -0.32753015 0.13979974 -0.043968886 0.34043032
0003a0 da dc 98 bd f4 b2 46 bb 49 d5 49 3e 6b b4 ce be
       -0.07463999 -0.0030319067 0.19710268 -0.40372023
0003b0 5c 61 d3 bd d9 58 4c 3c 52 61 c4 3e 7a 0e 95 3e
       -0.10321304 0.012472355 0.383555 0.29112607
0003c0 06 d6 21 3e 63 93 e3 bd 6a 0c 00 3e 54 ce 74 3d
       0.158043 -0.11112096 0.12504736 0.059767082
0003d0 61 be 7f be b4 87 67 be 01 9d ba be 61 5f 3f 3d
       -0.24974968 -0.2261036 -0.3644791 0.04672182
0003e0 26 02 0e 3f cd bf 00 3e a6 34 2a bd b0 7c d3 be
       0.5547203 0.12573166 -0.041554116 -0.41306067
0003f0 36 b1 0c be a4 17 a5 3e f5 06 d9 3d c6 b9 da bd
       -0.13739476 0.322446 0.1059703 -0.10679965

fc2.bias f4 [64]
000000 7a 5d cb 3d 65 33 c5 be 9d 02 7d bd 1e 07 da bd
       0.099299386 -0.38515773 -0.06177007 -0.10645889
000010 4c 7b d1 3e 7c 20 13 bd b8 d2 94 3e 0f b6 44 be
       0.4091438 -0.03591965 0.29067016 -0.19210075
000020 f2 87 c5 3e 40 00 5b be fd 0a 03 3e 52 cb 3b 3d
       0.3858028 -0.21386814 0.1279716 0.0458482
000030 e4 e5 46 be f2 62 6b 3d 12 1e 91 3e a3 c5 a5 be
       -0.19423634 0.05746741 0.28343254 -0.32377347
000040 5c 00 1d 3e 04 bc c8 bd 9c e0 fa 3d f1 66 f1 3b
       0.15332168 -0.09801486 0.12249872 0.007367008
000050 13 52 a0 3e 6a fe 14 bd 11 ef 4b be d7 c1 8c bc
       0.31312618 -0.03637544 -0.19915415 -0.017182274
000060 82 e9 eb 3d 30 06 95 bd 7e 20 d1 3d 90 df 4e 3e
       0.115191475 -0.07276571 0.102112755 0.2020247
000070 6d f7 8c 3e 68 c6 d0 3e cc 31 0a bc 56 68 08 bc
       0.2753252 0.40776372 -0.008434724 -0.008325657
000080 0f 9c 27 3d 97 ed 20 3e aa db 7b bd 5d 52 d5 bd
       0.040920313 0.15715633 -0.061488785 -0.104161
000090 86 e0 3c 3e 58 a8 9a 3c 8c 11 80 3e 7f 29 9b 3e
       0.18445024 0.0188791 0.25013387 0.30305097
0000a0 3f 22 ce 3e 36 48 6b 39 63 49 48 3e bf d2 58 bc
       0.40260503 0.00022438247 0.19559245 -0.0132338395
0000b0 3d 70 a1 3d b7 1b de bc 4c 81 9c be 6d 02 b9 3e
       0.07882736 -0.027112825 -0.30567396 0.36134663
0000c0 c4 55 d0 3c 2e d1 ac 3e b0 61 60 3e 40 72 e9 3d
       0.025431521 0.3375334 0.21912265 0.113987446
0000d0 46 6a 15 bd cf 74 d8 3c d4 64 a7 3e 86 f2 9c 3d
       -0.036478303 0.026422886 0.32694113 0.07663445
0000e0 d0 d6 4d 3e a6 62 96 be d6 93 81 3e c1 ae 2f 3d
       0.20101476 -0.29372138 0.25308102 0.042891268
0000f0 fb a4 29 be 4e e4 2a be 0d d2 0a 3e c8 61 17 3e
       -0.16566841 -0.16688654 0.1355669 0.14783394

fc3.weight f4 [64, 64]
000000 44 41 a7 3e c0 70 a9 bf 3d e8 b2 be 54 0f dc bd
       0.3266698 -1.3237534 -0.3494281 -0.10745111
000010 bd 57 8f be 9e 48 f0 be be 69 db 3e a7 1a 89 3e
       -0.27996626 -0.46930403 0.42854112 0.26778147
000020 2c 2a c7 3c 99 85 9f bd d5 dd b7 be 35 0c 8f 3e
       0.024312101 -0.077891536 -0.35911432 0.27939
000030 f2 a7 6c bf 85 d5 e2 3e a7 12 73 3e 8e bd 16 3f
       -0.92443764 0.44303527 0.23737584 0.5888299
000040 9b af 7c bf 46 bc 60 be d2 00 0c bf b4 5d 6f 3e
       -0.9870545 -0.2194682 -0.5468875 0.23375589
000050 77 14 b2 bc d7 64 94 3e c6 bc 1f 3f c0 e9 ee be
       -0.021738274 0.28983185 0.6239742 -0.46662712
000060 8d 3f 18 be d0 dc d1 3d 93 8d ab be 8e 39 86 bf
       -0.14867993 0.10247195 -0.3350645 -1.0486314
000070 20 d1 21 3d 39 0b 99 be 20 03 d6 be d7 17 26 be
       0.039506078 -0.29891375 -0.4179926 -0.16220032
000080 f9 56 d6 3d 0a 34 7d bd e1 56 82 bf 35 45 03 bf
       0.104658075 -0.061817206 -1.0182763 -0.51277477
000090 30 05 e3 be 1f 21 2b bf f7 67 4a 3e 47 9c e2 3e
       -0.44339895 -0.66847414 0.19766222 0.44259855
0000a0 5a 07 fc 3d 7c 2f 3d 3f 77 1a 10 3e 9c f7 9a be
       0.1230609 0.7390058 0.14072596 -0.30267036
0000b0 04 eb c4 bc 0b 68 6a bf 3d 0b 08 bf b5 14 1b bd
       -0.024037845 -0.91565007 -0.5314215 -0.037861545
0000c0 0d 01 db 3d 88 05 3b 3f d0 52 13 3f 4b ee 90 be
       0.1069356 0.73055315 0.57548237 -0.28306803
0000d0 60 86 82 3e 01 3f 27 3e 5b 39 f4 3e 2c 6a 79 3d
       0.25493145 0.16332628 0.4770001 0.06089227
0000e0 66 1e 35 3e ae d5 2a bf d7 7d 11 3f 81 96 3c 3d
       0.17687377 -0.667323 0.5683264 0.04604197
0000f0 7b 4d 9e bd 5f 93 c0 bb 3d 26 23 3f da 84 06 3e
       -0.07729622 -0.005876943 0.6373022 0.13136616
000100 0a 63 26 3f ef cb 51 bf 9b ba d0 be 5d 24 e6 bd
       0.6499487 -0.819518 -0.4076737 -0.112374045
000110 0c 07 8c 3e ca e5 21 bf eb b7 f2 3d 54 ec c2 3e
       0.27349126 -0.63241255 0.11851486 0.3807093
000120 d8 97 91 3d 42 a8 60 3d 20 2e a1 3c 41 a8 61 3e
       0.0710904 0.054847963 0.019675314 0.2203684
000130 83 7c 12 bd 12 a7 f4 3e cb 10 21 3e a9 38 b4 3e
       -0.035763275 0.47783715 0.15729062 0.35199478
000140 07 b1 30 be 1f 67 82 bf d3 f8 14 bc 6a e5 17 be
       -0.1725503 -1.018772 -0.009092527 -0.14833608
000150 c8 96 be 3d d3 9e 48 be ec fb c1 3d 9d a2 a8 bf
       0.09306103 -0.19591837 0.094718784 -1.3174626
000160 99 2b 3c be ed 49 cd bd 28 fa cf be 28 5e 34 3e
       -0.18376006 -0.10023866 -0.40620542 0.17614043
000170 c5 21 47 bf a1 dd 43 bd 2e 12 f8 3e 84 15 0b bf
       -0.77785903 -0.047818784 0.4845137 -0.54329705
000180 f0 00 2a be 57 46 2e be 4d c9 b1 bf c1 00 6c 3e
       -0.1660192 -0.1701902 -1.3889557 0.23047163
000190 bf 26 d3 be ce e4 91 be 6e 7c ae be 5d fb ea 3e
       -0.41240498 -0.28494877 -0.34079307 0.458949
0001a0 c9 d1 0d bd e3 04 94 3e b4 85 6f 3e 2f e1 8e bd
       -0.034623895 0.28909978 0.23390847 -0.06976544
0001b0 68 f8 63 3d 6e 6a 73 bf 99 54 7e 3e bd eb bf bc
       0.05565682 -0.95084274 0.24836959 -0.023427838
0001c0 db 38 34 be d1 c0 f8 3d 90 3a ed 3e 89 f4 dc 3e
       -0.17599814 0.12146152 0.46333742 0.43155316
0001d0 85 2f 0b be 80 95 9e 3e 48 6a bf be 9b e1 86 3e
       -0.13592346 0.30973434 -0.37385774 0.26343998
0001e0 11 3d 9f be c8 7d 4e bf 71 19 1e 3d cb 21 33 3f
       -0.31101277 -0.80660677 0.03859848 0.6997344
0001f0 4a 73 05 bf 42 1a af 3c 19 18 cb 3e bf 76 c4 3e
       -0.5212904 0.021374825 0.39666823 0.38371846
000200 4f ff 5c be bb da 8f 3d 3a 43 82 3e d8 f6 df bd
       -0.21581767 0.070241414 0.25441915 -0.109357536
000210 0c 80 5b 3d 1a 09 16 be 8f ee 15 bf 32 d2 63 be
       0.053588912 -0.1465191 -0.58567137 -0.22248152
000220 78 01 01 bf 8c 05 ad be 74 ad 7e be 0e a2 68 be
       -0.50392866 -0.33793294 -0.24870855 -0.22718069
000230 11 13 af be 20 52 13 3d 73 fe 24 bf 8b 71 1c bd
       -0.34194234 0.035966992 -0.6445076 -0.03819422
000240 74 a4 c7 3e a1 d4 00 bd 5d 4c 6b be 9d 75 1b 3f
       0.38992655 -0.03145278 -0.22978349 0.6072634
000250 94 07 23 3f db 49 22 3f cd e7 18 3f 5d bf 25 bd
       0.6368344 0.63393945 0.597287 -0.0404657
000260 d3 5a ff be fb 53 59 3f a0 18 9f 3e 5c 8f 7e 3e
       -0.4987398 0.8489377 0.31073475 0.24859375
000270 93 3b e3 bc 9d 3d 3d be ea 43 e7 3c 5b cd ac 3e
       -0.027738368 -0.18480535 0.028230626 0.33750424
000280 11 29 21 bf 5e b1 6d bb 3a dd 00 3e 37 40 55 3e
       -0.6295329 -0.003626905 0.12584391 0.20825277
000290 66 f5 5b 3e 2a df db 3e 56 1a 85 3e d0 d5 2d be
       0.21480331 0.42943698 0.25996655 -0.16976094
0002a0 40 bf 8b bf df 65 31 3e f9 cd 27 3c 8e 9a 76 be
       -1.091774 0.17324017 0.010241979 -0.24082395
0002b0 8c 68 08 bf 79 fc 0f be 70 6a e3 be c9 b0 9d 3d
       -0.53284526 -0.14061154 -0.44417143 0.07699735
0002c0 3a 40 03 3e a3 a3 32 be 90 4b c5 3e 17 f8 15 be
       0.12817469 -0.17445235 0.38534212 -0.1464542
0002d0 eb fa f2 3e c8 f7 41 3f b6 4b fb bd 50 10 15 3f
       0.4745706 0.7576871 -0.122703 0.58228016
0002e0 19 ba 87 3e 52 a6 be 3b eb 71 e2 3e d6 dd 07 3d
       0.2650917 0.005818167 0.44227538 0.033170544
0002f0 f6 08 d3 be d7 1f 29 3e a7 20 52 3e 0e 40 89 3e
       -0.41217774 0.16516052 0.20520268 0.26806682
000300 31 2d cf 3e ad c4 62 3d df 10 2a bf 1d b7 1a 3f
       0.40464166 0.055363346 -0.66431993 0.6043566
000310 29 5b b7 3e e8 ac 18 bf dd ce 6a 3f 11 f9 22 3f
       0.35811737 -0.59638834 0.917219 0.63661295
000320 45 a2 36 bc d6 38 4d 3e 57 7d 5a be dc 2d 0f 3f
       -0.0111470865 0.20041212 -0.21336876 0.5592935
000330 56 e5 b9 be ed a9 b1 3d 1b af a7 3e f4 5d 07 3f
       -0.36307782 0.08674989 0.32750782 0.52877736
000340 ee c7 91 be f1 ac 95 3d 8d e4 88 be 93 0c 7a be
       -0.28472847 0.073083766 -0.2673687 -0.24418859
000350 12 f8 87 be 19 fb 9f bc c0 c5 0e bf 98 86 f8 be
       -0.2655645 -0.019528912 -0.5577049 -0.48540187
000360 27 42 0b 3e c4 d7 e7 be b7 e3 dd be 76 3f 84 3e
       0.13599454 -0.45281804 -0.43337795 0.25829667
000370 71 c1 9f be 9f 99 21 3e c2 cb d5 3e 01 1d e6 bd
       -0.31202272 0.15781258 0.41757017 -0.11236001
000380 32 e1 68 3e 23 c9 9c 3e bb 51 98 3e 63 ea 9e bd
       0.22742155 0.30622205 0.29749855 -0.077595495
000390 d4 66 e7 3c 8c 26 8a be e3 c0 a1 bf 26 9b c8 bd
       0.028247274 -0.26982534 -1.2636989 -0.09795217
0003a0 66 b9 bd 3e d6 2f 20 bf b1 a7 66 be d9 1a 6d be
       0.3705551 -0.6257299 -0.22524907 -0.23154773
0003b0 11 86 c9 3e 2a c6 5e 3d 72 c4 a0 3e 36 fb e2 3e
       0.39360097 0.054388203 0.31399876 0.44332284
0003c0 7b 9a 36 3e 7d b7 20 bf 9a 91 16 be 1c a4 2e 3f
       0.17832367 -0.6277998 -0.1470398 0.6821916
0003d0 3b ca 6b 3d 76 7d 2f bf d2 9a 0f bf 35 ce 06 bf
       0.05756591 -0.68550813 -0.5609561 -0.52658397
0003e0 38 51 a0 be a5 28 0e bf 10 7b 4a be e1 80 8d be
       -0.31311965 -0.5553077 -0.19773507 -0.2763739
0003f0 09 76 b9 be 28 22 63 be 67 25 a6 be 4b a2 23 be
       -0.36222866 -0.22180998 -0.3245041 -0.15979879

fc3.bias f4 [64]
000000 68 44 9a 3d c6 22 3b bc a9 f8 d9 be 71 27 aa be
       0.07532579 -0.011421865 -0.42572525 -0.33233216
000010 a8 70 e5 bd 6c 71 29 3d ca 4e 09 be a8 0d 0b be
       -0.11203128 0.041367933 -0.13408962 -0.13579428
000020 a8 9e 35 be 40 7c bb 3c ca c6 04 bf 7c fc 51 3e
       -0.17736304 0.022886395 -0.5186583 0.20506471
000030 84 4c d4 bd 06 4e 8e 3c 4a 0d c0 3e 4d 01 fc 3d
       -0.10366157 0.017371189 0.3751014 0.123049356
000040 88 30 96 be b9 8d 89 3e 47 4f 41 be 4c ab 64 3e
       -0.293339 0.26865938 -0.18877898 0.2233097
000050 b2 19 88 3e 57 e7 17 be f9 6b 50 be 02 df 46 3d
       0.26582104 -0.14834343 -0.20353688 0.04855252
000060 ca 74 a3 3e 66 63 27 3d 8d ed 0b 3e 2b 96 a6 be
       0.3192504 0.040866278 0.13664837 -0.32536444
000070 36 dc 88 3d e7 16 b0 3e 1d 46 13 3c 1b 20 7d 3c
       0.06682627 0.34392473 0.008988884 0.015449549
000080 1d 49 a2 be 4d a8 d2 3e 1a 26 89 3e 4e a1 d6 3d
       -0.31696406 0.41144028 0.26786882 0.10479985
000090 05 ab 57 3e 53 d0 1e be fa 99 d5 be c8 97 7c be
       0.21061333 -0.15509157 -0.41719037 -0.24667275
0000a0 d8 c3 96 3d 04 bd ef be ed 8f 4d 3e ad 7d 9b be
       0.07361573 -0.46823895 0.20074435 -0.3036932
0000b0 c9 73 6f bd d1 e5 92 3e af b0 f0 be e6 ff 97 3e
       -0.05846003 0.2869096 -0.470098 0.29687423
0000c0 fc 0f dd 3d c7 34 d8 3d 68 4d 4d 3d 4f 25 67 be
       0.107940644 0.105569415 0.05012265 -0.22572826
0000d0 a4 09 19 3e b8 f5 03 3e 48 17 88 3e 42 24 4b 3e
       0.14945084 0.12886703 0.26580262 0.1983805
0000e0 24 e6 ba 3d e3 cb f0 bd 52 2e b0 3e b8 0f 33 3d
       0.09125927 -0.11757638 0.3441034 0.043716162
0000f0 bd ba 79 3e 39 85 d6 3b 91 34 b1 3d c9 ff e7 3d
       0.24387641 0.006546643 0.08652604 0.11328084

action_out.weight f4 [5, 64]
000000 04 bc 16 be 6d 17 fc be 07 be b7 3e 1a 3c 88 3e
       -0.1472016 -0.49236622 0.35887167 0.26608354
000010 d3 c3 da 3e c1 d8 95 bf f4 02 c0 bd ce b0 46 3f
       0.42727527 -1.1706773 -0.09375563 0.7761353
000020 4b c6 0a be 05 5f 5f 3e d3 ae a1 3e e1 46 9a 3e
       -0.13552205 0.21813591 0.31578693 0.301322
000030 d2 79 67 3f c6 fd ca 3e 5d 9a 42 3d 84 47 81 3e
       0.9042026 0.3964674 0.047510494 0.25249875
000040 0c fe 74 3f cc 23 d7 3e 7d 81 c2 bd 90 43 4b bf
       0.95700145 0.42019498 -0.09497354 -0.7939997
000050 68 9b a2 bf 93 aa 91 be 85 c5 c3 3d 66 49 9d 3d
       -1.2703676 -0.2845045 0.09559158 0.07680015
000060 29 0f 05 3e 17 35 88 be ab 4d 60 3f af dd 00 3f
       0.12994064 -0.26603004 0.8761851 0.5033826
000070 14 6a 37 3f 84 2f ce 3e 5a 37 a0 bf 50 74 cf be
       0.7164624 0.40270627 -1.2516892 -0.40518427
000080 a0 37 50 3f b0 e6 b5 3b d1 37 9a bf 77 ca cf be
       0.81334877 0.0055511817 -1.2048284 -0.40584156
000090 66 bf e9 be 16 8d fb 3e 2b 25 89 3e 99 48 ff 3d
       -0.45653838 0.49131078 0.2678617 0.12465019
0000a0 cc 0a 8a be 3f 03 03 bd e1 df 83 be b6 17 23 3e
       -0.26961362 -0.031985518 -0.25756744 0.15927014
0000b0 fd 4c 6d 3f fc 1e c6 be cb 67 40 3e 22 71 e7 be
       0.926956 -0.38695514 0.18789594 -0.452035
0000c0 7f a5 e6 be b9 37 fb 3e be b0 9f 3e 1b 55 47 3e
       -0.45048138 0.4906595 0.3118953 0.19466059
0000d0 9e 3c ff 3e d5 94 ae be 1d 40 8f 3c ec 1c 33 be
       0.49850935 -0.34097925 0.017486626 -0.17491502
0000e0 c0 44 f4 be cb 1d 56 bd 4c 02 95 3e e3 ce bc bd
       -0.47708702 -0.052274507 0.29103315 -0.09219148
0000f0 a5 64 79 bf 47 f0 83 be d6 45 1e 3e 51 2d 04 be
       -0.97419196 -0.25769255 0.15456328 -0.12907912
000100 2d 7d 08 3f a2 1d 96 3e 83 56 e8 3e ab f7 e1 bd
       0.53316003 0.29319483 0.45378503 -0.11033567
000110 cc 0f 45 3e 83 1c b5 3e 51 a0 48 3f e6 0b af be
       0.19244307 0.35373315 0.78369623 -0.34188765
000120 95 d6 bf 3d 53 ac 1e be 5e 69 10 bf 49 37 88 bd
       0.093671 -0.15495424 -0.5641078 -0.0665117
000130 8d 89 67 be 4c ec 45 3f bf 75 31 bd 4f 1a 83 3e
       -0.22611065 0.77313685 -0.043325182 0.2560601
000140 0a 64 9e 3e 75 fc 85 3c 97 72 69 3f 93 d9 9c 3e
       0.309357 0.016355732 0.91190475 0.30634746
000150 55 c5 48 be 4f 24 37 be ce 8e 18 3e 6c 9b 3b be
       -0.19606526 -0.17884944 0.14898226 -0.18321007
000160 75 39 3a 3e 3e 52 68 3f d6 73 1a 3e bb e6 c0 be
       0.1818598 0.9075049 0.1508325 -0.37676033
000170 e5 ef a1 3d 8f 58 60 bd 7a 74 5f be 6b d1 04 bf
       0.079070844 -0.054771956 -0.21821776 -0.51882046
000180 55 72 07 3e 7e d3 dc bd 05 b2 c6 bd 85 a2 a4 be
       0.13227208 -0.107825264 -0.09701923 -0.32155243
000190 fd f5 23 3d ce bd 1f be cc 63 d3 3e ed 89 b5 bf
       0.040029515 -0.15599748 0.41287076 -1.4182717
0001a0 e5 a1 a3 3e 66 2f c0 be 90 11 a0 be 5a 50 88 3b
       0.31959453 -0.37536162 -0.312634 0.0041599693
0001b0 b6 9a e5 3e c8 7a 77 3f 28 db 52 3e 5d df bc be
       0.44844598 0.96671724 0.20591414 -0.36889163
0001c0 75 1d 7d 3e 85 a4 e6 3b 69 1e 83 bf 88 e3 72 3e
       0.24718268 0.007038655 -1.0243655 0.23719609
0001d0 e7 00 28 3f 77 8d 3f bc a5 4e 07 3e 8d 64 1e 3f
       0.65626377 -0.011691443 0.13213594 0.6187218
0001e0 94 13 f2 3e e8 3c 82 bf e4 c8 35 3e 75 54 11 3f
       0.47280562 -1.0174837 0.17752415 0.56769496
0001f0 3a 78 e3 3e 48 98 89 be 5a bb 6d 3f eb 57 8a 3e
       0.44427663 -0.26873994 0.92864 0.270202
000200 dd 3e 11 bf 0d 07 8a be ac e4 b4 be 71 a9 82 bc
       -0.56736547 -0.26958504 -0.35330713 -0.015949937
000210 c5 86 76 be ef f4 b4 3e c8 5c 32 bf 24 46 42 bc
       -0.24074848 0.3534312 -0.6967282 -0.011857543
000220 c9 10 aa 3e 97 54 85 3e 57 b0 76 3f 53 eb 65 bf
       0.3321593 0.260411 0.96362823 -0.898122
000230 2a 72 af 3c 60 54 48 bf 39 34 a7 3e 88 09 b6 be
       0.021416742 -0.78253746 0.3265703 -0.35554147
000240 32 b1 d7 3d 81 dc c6 39 ad 21 ca be b9 1c b2 3e
       0.10531844 0.0003792979 -0.39478818 0.3478754
000250 fe e0 24 bf fe fb 22 3e 71 39 93 3e 1f a8 a4 3e
       -0.6440581 0.1591644 0.28754762 0.32159516
000260 14 92 b5 be 04 2e 37 bf a4 16 2d bf f7 c2 e6 bd
       -0.3546301 -0.7155459 -0.6761267 -0.11267655
000270 c2 2d b0 3c ef 35 1b bf 33 01 5c 3d 9e 3f 55 3e
       0.021506194 -0.6062917 0.05371208 0.2082505
000280 4e a8 25 be f1 f7 e9 be d8 77 9e 3d f5 67 c5 3d
       -0.16177484 -0.45696977 0.07737702 0.09638969
000290 2c 10 a3 3e 00 4d 9b 3e fc d5 b8 be a3 d4 84 3f
       0.31848276 0.30332184 -0.36100757 1.0377392
0002a0 4e 82 1d 3f 0f 21 80 3e 35 8a b6 3e 5e 59 8d 3e
       0.61526954 0.25025222 0.3565232 0.27607244
0002b0 9b 5a 39 3f 67 22 6f bf cb 06 a8 bd 1a d7 68 be
       0.7240388 -0.9341187 -0.08204421 -0.22738305
0002c0 05 d1 67 bf 9b 33 0f be c2 25 22 3f c9 d1 58 3d
       -0.90553313 -0.1398453 0.63338864 0.05293444
0002d0 d3 8d 42 3e 7c 7a dc bc 72 d1 48 3c 5b 51 5e be
       0.18999414 -0.026913874 0.012256967 -0.21710722
0002e0 93 2e 71 be f1 a7 0a 3f 16 1c 9b be 8e 26 67 bf
       -0.23552923 0.5416251 -0.30294865 -0.90293205
0002f0 2d 25 2a bf 32 ff d1 3e 51 9f 31 be 46 66 ff be
       -0.66462976 0.4101501 -0.1734593 -0.49882716
000300 96 5f fe be 6e d3 39 bf d6 72 1c be 09 2a 32 bf
       -0.496823 -0.7258824 -0.15278181 -0.6959539
000310 8a 4b 63 3f 98 52 00 bf 2e b8 ab 3e 89 6d 93 3e
       0.8878714 -0.5012603 0.33538955 0.28794506
000320 7e 42 3a 3e 0c 82 a1 be c9 f4 c3 3e 31 20 7a 3e
       0.18189427 -0.3154453 0.38272694 0.24426343
000330 c4 52 0a 3c 8f 9a 88 3e d3 e2 85 3e 9d bb 9a be
       0.008442584 0.2668042 0.26149616 -0.30221263
000340 c4 57 4c 3d 41 38 62 bf 7a 52 1d 3e 0e 26 04 3e
       0.049888387 -0.88367087 0.15363494 0.12905142
000350 f6 92 01 3f e0 84 75 bf 05 be 1f 3f 62 2e 21 bf
       0.5061487 -0.95905876 0.6239932 -0.629614
000360 f3 b2 17 3f 7d b7 3d bf 4b aa de bd f1 66 1b bf
       0.5925743 -0.74108106 -0.108723246 -0.6070395
000370 f7 08 6f bd fc 6c 8c bd f1 e3 5d be 86 92 11 3c
       -0.05835816 -0.068567246 -0.21668984 0.008885032
000380 4e aa 9e be 5c 8a f3 3e 83 3f cf be a8 c0 65 3e
       -0.30989307 0.47566497 -0.40478143 0.22436774
000390 51 63 86 bf ac 32 32 be 3e d3 04 3f 06 33 88 3e
       -1.0499059 -0.17402142 0.5188483 0.26601428
0003a0 dd e4 bd 3e 10 23 47 3f fb 4e c1 3e b5 68 c6 3d
       0.3708867 0.77787876 0.3775557 0.0968794
0003b0 4b e1 d0 3d 09 f3 25 3d 1e 59 9f 3e 55 b4 d5 be
       0.10199221 0.04051498 0.3112268 -0.41739145
0003c0 da d5 1a 3f 0a 43 0b 3f cf 64 0d 3e c3 90 59 3e
       0.6048256 0.5439917 0.13807987 0.21246628
0003d0 0f b5 bc bd b9 5d a3 3f e1 67 63 3f 72 1a 85 3e
       -0.09214222 1.2762977 0.8883038 0.2599674
0003e0 4c a9 3e bc 3f 85 e3 bc 55 9b 2c bf a0 e9 b0 be
       -0.011637043 -0.027773498 -0.6742452 -0.34553242
0003f0 8b c0 7b be e2 6d 0a be eb 92 6c 3e 8a 98 cb 3e
       -0.24585168 -0.1351848 0.2310292 0.39764816

action_out.bias f4 [5]
000000 87 44 a9 3c d9 1b a9 3d 95 5b 09 be 4d e8 05 3e
       0.02066256 0.08257265 -0.13413842 0.13076897
000010 42 97 11 3f
       0.56871426
