train/mappo/results/MPE/formation_hd_env/rmappo/check/run35/models/critic.pt (torch, 156329 bytes, 21 tensors)

base.feature_norm.weight f4 [54]
00000000: 06a8 7f3f 8f4b 7f3f 670c 7c3f 5034 7d3f
00000010: c77e 7b3f a794 763f cbb5 7d3f 1bab 7f3f
00000020: aaf7 7d3f a6ca 7d3f 49f3 7f3f c03d 7d3f
00000030: a7cd 7d3f 2a56 7f3f 1b6c 7c3f 6249 803f
00000040: 423e 803f 99d6 7b3f 1f3b 813f 635e 7f3f
00000050: 903e 763f e4c6 7d3f c234 7b3f 0388 793f
00000060: 1bf5 7d3f adee 773f 0196 7c3f e783 7c3f
00000070: 5f59 803f b73f 7b3f 663f 803f e927 803f
00000080: e6a2 803f df20 803f 4752 7e3f ac17 7e3f
00000090: 734c 7e3f ab90 803f a5a6 6d3f 6d7f 7d3f
000000a0: 3cb6 793f ddf3 753f dd1e 7d3f ec9c 723f
000000b0: 8e5b 7d3f 8668 793f c595 7e3f de9e 803f
000000c0: 9dcb 6f3f 9d64 7f3f 5a65 7d3f 5b5a 7f3f
000000d0: 0681 7e3f 0bab 7e3f
0.9986576 0.9972467 0.98456424 0.9890795 0.9824032 0.96320575 0.9910552 0.9987046
0.9920603 0.9913734 0.999806 0.9892235 0.99141926 0.9974085 0.98602456 1.0022395
1.0019 0.98374325 1.0096167 0.997534 0.9618921 0.9913161 0.9812738 0.9747316
0.99202126 0.96848565 0.9866639 0.98638767 1.0027274 0.98144096 1.0019348 1.001218
1.0049713 1.0010031 0.99344295 0.9925487 0.993354 1.0044149 0.92832404 0.9902256
0.9754369 0.9607523 0.9887522 0.94770694 0.98967826 0.97425115 0.9944728 1.0048482
0.93670064 0.997629 0.98982775 0.99747247 0.99415624 0.9947974

base.feature_norm.bias f4 [54]
00000000: 5bcd b8bc ee3d bc3d 622b ca3d b54d 8abd
00000010: 0a71 93bd f053 863d c6a0 b03d 46bc 403d
00000020: 4680 903d b912 9e3d c649 59bd 757b ea3c
00000030: 6f76 b23d d37a ba3d 3f8f e2bd a991 5b3d
00000040: 251b be3d 61d5 f2bd 7123 f63b c7c5 c73d
00000050: 839a 8e3d c59e cb3d 6cf2 bf3c 901f ba3d
00000060: 0fcc 9a3d 2a30 ca3d 2ed9 603d a27f 4bbd
00000070: 8df8 9dbd f22b 083c 3ab1 fabc 6e2a c0bd
00000080: 2658 bb3d d61f 733d ff6f 8dbd b37d bdbd
00000090: e71e 723c 67d5 b53d 4730 b23d a899 c1bd
000000a0: 3e2c c93d d2bc f6bd 9168 a3bd 8fa2 a3bd
000000b0: a4a2 5f3b b01d ca3d f94d ba3d 834e 513d
000000c0: c64b 753d 56a7 e3bd aca9 4d3d b950 663d
000000d0: 0be5 a5bd 6130 a2bd
-0.022558859 0.091915 0.09871556 -0.06753103 -0.07199295 0.065589786 0.08624415 0.04705455
0.07055716 0.07718415 -0.05304887 0.028623322 0.08713996 0.09105458 -0.11062478 0.05360571
0.09282521 -0.11857105 0.007511549 0.0975452 0.069630645 0.09942392 0.023431025 0.09088051
0.07558452 0.09872468 0.05489462 -0.049682267 -0.07713423 0.008311259 -0.030602086 -0.09383093
0.09147672 0.059356533 -0.06906127 -0.09252491 0.0147778755 0.08878594 0.087006144 -0.09453136
0.09822892 -0.12047733 -0.07978929 -0.0798999 0.003412404 0.09868944 0.09096903 0.051100265
0.059886716 -0.11115901 0.05021064 0.056229327 -0.08100327 -0.07919384

base.mlp.fc1.0.weight f4 [64, 54]
00000000: f2de 2fbe 63f2 dd3e 0246 d53d 1200 493e
00000010: f3ef c6bd 7e39 a6bc 3c61 51bd 0d67 0a3d
00000020: 8b2e e03d d4c1 973d 37ef 513e 4002 2fbe
00000030: a309 3fbe bb59 943d 4ece 91be 5492 b93e
00000040: 65f6 423e f95d 0b3f 90ef dfbd 4983 96be
00000050: e601 3fbe e954 29be c25e b4bd 61f7 303e
00000060: c9d4 8d3e 37d4 093e f0e0 b83d 22d9 f13d
00000070: 1b84 32bc 0891 243e 5fc5 913e 10b6 673e
00000080: 31a1 d33e 71e4 a5be 648d b1bd 1800 92be
00000090: 037a 233d 51b9 323d aad7 c1bd c9bd 4ebd
000000a0: a360 51be bec3 2cbe d73d e83d ac95 b33d
000000b0: 17fc 95be a757 d93d 2be2 a73e 8d36 683e
000000c0: 5cf7 9c3e 2c68 09be c368 13be 0c02 dc3a
000000d0: 7a89 b6bc b20c 21bd beb4 973e cf90 ad3d
000000e0: e0e1 6d3e bcbb cabc 8e94 00be 04d6 d53d
000000f0: 1bc9 d93e fd31 fbbd cdfd 273f 179e 873e
00000100: 87ca 943d e812 22be 7989 8dbd 4532 6c3d
00000110: 46d1 8d3e 6645 ec3d 1dec 243d c8c8 8fbe
00000120: 9698 a93e 6969 01be 2373 f23d 8e25 953e
00000130: 5d38 fbbd 2c5d b23c 5910 2e3d 6575 93be
00000140: ac34 4ebe 79e4 223d bf47 89be e260 623e
00000150: 84f9 503e 7dbf 38be f381 933d 4889 e83c
00000160: c8ab b3bd 7a40 debc c58c 6a3e 3a05 303e
00000170: 30bb fe3d a113 123e 0dc9 17bd bd3e f03d
00000180: eadf c6be 8e91 08bd cd8d a7bd c627 49be
00000190: aec3 d43c 4384 23bd 4f96 ff3c 4018 90be
000001a0: 8327 2fbe 3ebe b63c a682 f33e 5eca 0f3e
000001b0: 8f81 b63e 57a5 393e 747c e0bc 8658 18bf
000001c0: 9c05 113e 594f 2b3e 8150 4e3d 1134 113d
000001d0: 2830 e2bd 3cc7 493e 3555 f03d 7e81 2f3d
000001e0: 935c 0c3e 1bf6 c83d 81eb 91bd ff0e e3bd
000001f0: d851 633e 3d9f 4b3e 1edd 873e 8729 5fbe
00000200: 0a24 0fbe 1f06 043e e120 a93e e0f6 28be
00000210: 0212 80ba 998f c53e 81b4 843e b8a6 b83c
00000220: a249 1dbd 2bfd 9f3e 7462 4cbc f37c dd3e
00000230: ac8d 6dbe 95e2 b23d 1159 75be bfd8 803e
00000240: 8a0f acbd 38d0 d2bd dcba 803e 6d25 04bd
00000250: 1f47 e23e 0abc 4fbe bc29 9dbe fb6b 623e
00000260: 52ad 7fbe 5fc3 6e3d 85e5 963c a8a0 983d
00000270: 19a4 883e 6d72 2cbe 1d42 b3bd 0ed3 83bd
00000280: b61b 0b3e 8435 a2be 7fe1 9a3d 12c3 273d
00000290: f2dc 95be a04d 7bbe 96c6 bf3c 0035 33be
000002a0: 9437 88bd 1da9 8d3e 8f7e aebe 36a6 f0bc
000002b0: 719b 263e e0c5 6d3d ae6c 6cbe cb38 633e
000002c0: 43c0 dfbd dbeb 633e f40c 633e 0e7f 30be
000002d0: 0dbe f53e f042 c73d a135 c9be 98d2 bf3d
000002e0: 152b d43c 443b 683e b47b e9bd baa1 a53e
000002f0: 7c73 8d3e 0f09 bbbd b329 f23d a722 d9bd
00000300: 93e5 90bd fef9 16be d32f 8d3e 85a5 863e
00000310: 1f94 6b3e d78f 13be 0659 50bd 9cf2 033f
00000320: 602a 18be 0c0d 3ebe d7a2 433c db04 593d
00000330: 7243 7abe 43b7 ebbe 9b62 083e 1545 03be
00000340: 8d54 a33e 8470 bd3d b936 b4bd 41c4 f0bd
00000350: 65ae dbbc d5df 873e 7738 12be af63 383e
00000360: 7ab7 353e 548d 873e 5d57 3c3e 7bed 0cbe
00000370: 2709 7abc 5168 25be 372b 5e3e 2cff b8be
00000380: 79c9 a83d f2b4 f0bd 43a2 27be 1ea7 573e
00000390: ae6c 7bbe 60ff 203c 6c66 363e ac45 c93d
000003a0: cfaf fd3e cf4d 293e 902a 45be 084a 11bd
000003b0: cb2b d1bd 8caf 97be ad9d e4bb aeff 283e
000003c0: 6516 67be 7018 83bd 351c bdbd a296 803d
000003d0: 57df 14be a288 023c fa34 333d aee1 93bd
000003e0: 6cfb 7abd b951 923e e8b9 a6be baa7 8c3e
000003f0: a3a5 55be 193d 7ebe 8eee a6be 700a 80be
-0.1717489 0.4334899 0.104137436 0.19628933 -0.097137354 -0.020291086 -0.05111812 0.033789683
0.10946377 0.07410017 0.2050141 -0.17090702 -0.1865602 0.07243677 -0.2847771 0.36244452
0.19039305 0.54440266 -0.10934365 -0.29397038 -0.18653068 -0.16536297 -0.08807136 0.17281868
0.27701405 0.1345986 0.090272784 0.11808993 -0.010895754 0.1607095 0.28470895 0.22628045
0.41333917 -0.3240085 -0.08669546 -0.28515697 0.03991128 0.043633763 -0.09464963 -0.050473962
-0.2044702 -0.16871545 0.1133992 0.08768782 -0.29293892 0.106124215 0.3278974 0.2267706
0.3065747 -0.13418645 -0.14395432 0.0016785278 -0.02228235 -0.039318748 0.29630083 0.08474886
0.23230696 -0.024747722 -0.12556669 0.10441211 0.42536244 -0.12265394 0.65621644 0.264878
0.072651915 -0.15827525 -0.069109865 0.05766513 0.27698725 0.11536674 0.040264238 -0.2808287
0.33124226 -0.12637867 0.11838367 0.29130214 -0.1226661 0.021772943 0.04249606 -0.28800502
-0.2013728 0.03976867 -0.2681255 0.2210727 0.20407683 -0.18041797 0.0720252 0.028385773
-0.08772999 -0.027130354 0.22905262 0.17189494 0.12438047 0.142653 -0.03705697 0.117307164
-0.38842708 -0.033341937 -0.08181343 -0.19644079 0.025972214 -0.039921056 0.031199602 -0.281435
-0.17104916 0.022307511 0.47560614 0.1404204 0.3564572 0.18129478 -0.027403094 -0.59510076
0.14162296 0.16729487 0.050369743 0.035450045 -0.11044341 0.19704908 0.11735002 0.042848103
0.1370719 0.09812566 -0.07124997 -0.11086845 0.2219919 0.19884963 0.26535887 -0.21793185
-0.13978592 0.1289296 0.33032897 -0.16500425 -0.0009770992 0.3858612 0.25918964 0.022540435
-0.0384003 0.3124784 -0.012474645 0.4325939 -0.23198575 0.08734623 -0.23959757 0.25165364
-0.08401401 -0.10293621 0.25142562 -0.032262255 0.44194886 -0.20286575 -0.30695903 0.22111504
-0.2496846 0.05829179 0.01841999 0.07452518 0.26687697 -0.16840525 -0.087528445 -0.0643674
0.1358479 -0.31681454 0.07562541 0.040957518 -0.2927013 -0.2454133 0.023410123 -0.17500687
-0.06651226 0.27668086 -0.34080932 -0.02937613 0.16270234 0.058050036 -0.23088333 0.22189634
-0.10925343 0.2225794 0.2217291 -0.17235968 0.4799656 0.09729564 -0.39298728 0.093663394
0.02589945 0.22678858 -0.114005476 0.3234995 0.2762717 -0.09132587 0.1182436 -0.106023125
-0.07075038 -0.14743802 0.2757555 0.26298156 0.23005722 -0.1441034 -0.05086615 0.5154207
-0.14859915 -0.18559664 0.0119406795 0.052983146 -0.24439791 -0.46038255 0.13318865 -0.12819321
0.31900445 0.09249976 -0.087995 -0.117561825 -0.026816556 0.26537958 -0.14279352 0.18006776
0.17745772 0.26475012 0.18392701 -0.13762467 -0.015260971 -0.16153075 0.21696173 -0.3613218
0.08241553 -0.117532626 -0.16370492 0.21059844 -0.24553177 0.009826511 0.17812508 0.09827742
0.49548194 0.16533588 -0.19254518 -0.035470992 -0.10213431 -0.2962612 -0.006976804 0.16503784
-0.22567137 -0.064011455 -0.09233896 0.06278731 -0.14538322 0.007967146 0.043751694 -0.07220779
-0.06127493 0.28577974 -0.3256371 0.27471715 -0.20863967 -0.24827994 -0.32603878 -0.25007963

base.mlp.fc1.0.bias f4 [64]
00000000: 1604 b83d ef03 b63d 6f00 a93d d675 a63d
00000010: d721 8d3d 9c59 aabd 5fc1 853c 0444 dd3c
00000020: db0e 8fbc edcd 553c b8ff 68bd 34ef 83bd
00000030: 8ba2 be3d 0d5a c53d db42 e03a efa8 9ebd
00000040: 548e 4a3c eaaa ad3b 30dd 62bd 7d98 b0bd
00000050: 6b7f d0bd 05b4 b13d 25b2 533d f03b ae3d
00000060: 83ae d33d 29ea 8bbb a736 713c b2b9 a7bd
00000070: a0ac d3bd f7f3 603c d789 c93d b15d cabc
00000080: 23b0 583d 871c b63d 0615 873d 50e5 ab3d
00000090: ca44 c1bd bf30 823d 40a9 7bbd 0510 213d
000000a0: c207 b83c cb3d e23b 5809 aebd 8890 d73c
000000b0: 5e28 a1bd 1188 903d 7704 bbbd d932 a8bd
000000c0: 9c70 b4bd 20b4 5a3d aff4 bcbd 0126 e0bd
000000d0: 6114 98bd 0619 aebc af22 8ebd fe9f 883d
000000e0: 0992 a5bc 3949 8ebd 6878 94bd 6870 acbd
000000f0: 4e0e a8bc e528 c93d 4c2d 51bd 98e0 b1bd
0.08985154 0.08887469 0.08252036 0.08127944 0.0689122 -0.08317873 0.016327558 0.027009971
-0.017463138 0.013049585 -0.056884497 -0.06442109 0.09308346 0.096363164 0.0017109768 -0.07747065
0.012363035 0.0052999156 -0.055386722 -0.08622835 -0.10180553 0.08676914 0.051683564 0.08507526
0.1033602 -0.0042698574 0.014722503 -0.081897154 -0.1033566 0.013730041 0.09840744 -0.024702879
0.052902352 0.0889216 0.06595807 0.08393347 -0.094369486 0.06356954 -0.061440706 0.039321918
0.022464637 0.006904339 -0.08497876 0.026314035 -0.078690276 0.070572026 -0.09131711 -0.082128234
-0.08810541 0.053394437 -0.09226357 -0.10944749 -0.07425762 -0.021252166 -0.06940209 0.06671141
-0.020211237 -0.0694756 -0.07249528 -0.08419877 -0.020514634 0.09822253 -0.05106859 -0.08685416

base.mlp.fc1.2.weight f4 [64]
00000000: acf2 783f d593 7f3f a96d 803f 1159 7f3f
00000010: 9602 803f 7e37 7e3f 3115 7d3f e1e0 7d3f
00000020: d5de 7a3f 3efa 7a3f 75b4 7c3f d95d 773f
00000030: be70 6e3f 9a16 703f d345 7b3f 6320 773f
00000040: 73d0 753f 5fb1 783f b26c 773f ba5a 7d3f
00000050: 6457 853f c8d7 7a3f 7fa8 7b3f 520a 7b3f
00000060: aa62 7f3f 9cad 7a3f eb1d 753f 3dfa 7f3f
00000070: 4928 7b3f 058b 7f3f 1bc0 813f 3cfa 7a3f
00000080: ee49 7a3f fba9 7a3f e93f 783f 949f 7e3f
00000090: cf4e 7d3f 9cf4 733f b90a 813f d94a 7e3f
000000a0: 28dc 7a3f 2831 753f f537 7a3f 59fd 7d3f
000000b0: 07c9 7e3f 0496 803f 9f71 7f3f 6ec9 7e3f
000000c0: 5339 7f3f 7beb 7f3f 1f17 813f c061 833f
000000d0: 564b 803f 19c8 6b3f ae4a 7e3f e436 823f
000000e0: 6d8c 7c3f a1a7 7f3f fc50 7f3f 4fb1 7d3f
000000f0: c415 773f 5e7e 7b3f 5213 793f e3a6 7e3f
0.9724529 0.9983495 1.0033466 0.9974528 1.0000789 0.99303424 0.9886046 0.9917126
0.97996265 0.9803809 0.98712856 0.96627575 0.9314078 0.9378449 0.9815342 0.96533793
0.96021193 0.97145647 0.9665023 0.9896656 1.0417295 0.97985506 0.9830398 0.9806262
0.99759924 0.97921157 0.95748776 0.9999121 0.98108345 0.998215 1.0136751 0.9803808
0.9776906 0.9791562 0.9697252 0.99462247 0.9894838 0.9529512 1.0081397 0.9933296
0.9799218 0.9577813 0.97741634 0.992147 0.99525493 1.0045781 0.9978275 0.9952611
0.99696845 0.9996869 1.0085181 1.0264206 1.0022991 0.921022 0.993327 1.0173001
0.9865177 0.99865156 0.9973295 0.99098676 0.96517587 0.98239696 0.97295105 0.994734

base.mlp.fc1.2.bias f4 [64]
00000000: 75f7 b93d 685c b23d 273a a33d 0efc b43d
00000010: dbcc 983d 5400 c5bd e827 eb3c a73b 2b3d
00000020: 9fb1 dfbc 3da3 00bd 4f16 7cbd 7284 8abd
00000030: 591e b23d 2be4 d23d a7d3 bebb 4278 d3bd
00000040: fe27 773b 5e2e 893c 2249 a0bd 6ed0 b0bd
00000050: a2c0 bfbd 2cf8 c13d 5caf 9e3d 3e6c ad3d
00000060: decb ca3d 4819 29bc 18d4 f93b ca98 a2bd
00000070: 46d1 cbbd a9c1 7a3b 8dbf bd3d 8ce0 c8bc
00000080: 373e 8f3d 579c b03d 688d 7c3d 39bc a23d
00000090: 0599 aebd 9d39 923d a52e aabd 09d5 e13c
000000a0: 9323 e03c c6da 2dbc ea56 82bd 937e 223d
000000b0: 196f bcbd 5b79 913d f455 cebd 3371 a7bd
000000c0: ebd3 a1bd 51d1 723d 59d3 c5bd 8f2d e0bd
000000d0: 0fea b0bd 6e50 9bbc 527f 86bd 0960 b83d
000000e0: e9c7 f5bc a2b6 91bd e22f 94bd 9b15 c0bd
000000f0: 7b11 babc 0f62 c83d 9b97 58bd bc79 c0bd
0.09080402 0.08709031 0.07970076 0.08837138 0.07460948 -0.09619203 0.028705552 0.041804936
-0.027306376 -0.031405676 -0.061544713 -0.06763543 0.086971946 0.10297426 -0.005823571 -0.10325672
0.0037713046 0.016745742 -0.07826449 -0.08633505 -0.09362914 0.09471163 0.07748291 0.08467911
0.09902166 -0.010320969 0.0076241605 -0.079392985 -0.09952025 0.0038262403 0.09265051 -0.024521135
0.069942884 0.086235695 0.061658293 0.07946057 -0.0852528 0.07139895 -0.08309678 0.027567403
0.027360713 -0.010611242 -0.06364234 0.03967149 -0.09200878 0.07103225 -0.10074988 -0.08175888
-0.07901748 0.05928165 -0.09659452 -0.109461896 -0.08638393 -0.01895925 -0.06567253 0.09002692
-0.030002551 -0.071149126 -0.072356954 -0.09379121 -0.022713413 0.09784328 -0.052878957 -0.09398219

base.mlp.fc_h.0.weight f4 [64, 64]
00000000: 6a0e 0d3e 2f99 04bc 5f78 8bbe 1eee 593e
00000010: 5f07 f93e 8310 083e 9e58 d7be a1de 0d3c
00000020: 2634 d83e 6f6b 3c3e cd80 9ebc 6ad7 ba3d
00000030: 1abd 363d 5199 47be cb7c c8be 65fe 82be
00000040: 9394 b43d ccc3 7cbe 6b89 8e3e 1d09 bbbe
00000050: b388 e6bd 8c8e b8be e479 85be 6fe3 863e
00000060: ff5c 9abe 8d7f 363e b610 5e3e 7422 2f3d
00000070: fadd 2fbe 0707 b0bd a0dd 653d 6097 c23d
00000080: 626b 48be eb1a 663e 194b 943e e3a0 d43d
00000090: 2ad0 f1b9 065d f63d 94ae e03d bee8 64be
000000a0: de3a 12be 0ea3 25be f14e ce3d 4622 ed3b
000000b0: ebf8 313e 0054 83be 10e0 233d e9a3 48be
000000c0: 54e8 873d eee2 473e 9e5d 873c 667b e7bc
000000d0: a0b3 743e a8f8 d23d 4ea7 aabd c79c 69bd
000000e0: c9f8 6abe 697a 1c3e c972 23be feae a83d
000000f0: 235f 1ebe 225a 973e 3ef5 73be 4102 a0be
00000100: 7f3d 69be f256 c9bc e115 afbd 9f1c 80be
00000110: de71 cabd 7954 62be 11ca 6a3e c667 cd3e
00000120: a051 153d 35e9 edbd 28d9 07be 7a0b 8b3e
00000130: 6b62 2b3d c789 34be cec9 903e 544f 6dbd
00000140: 259f a63e 159c 6cbe f1f1 8fbc 34d7 8bbe
00000150: 7ead 833d 11c6 923e 1a12 0b3e e992 4bbe
00000160: 792e 5d3d 275b ec3d 4fc8 243d bbc7 313e
00000170: 07ed 5bbe 008d 84bd 60ea 75bc d328 603e
00000180: 0144 c3bd 7152 863e 3bcb 503e a74c 2cbc
00000190: 40a5 913e 96b1 3cbe 37cd cfbe 3050 04bc
000001a0: 89fe cdbd a367 1fbe 38e7 8c3e 4076 2d3c
000001b0: 170f 1b3d 0c7f ba3e 8f51 01bd dc59 88be
000001c0: 715b 863e e8f2 603e dd41 efbd 22ea a7bd
000001d0: d576 2c3b 4fb0 bb3e 6e2b 783e 3e69 173f
000001e0: 5cfa 3f3e 9c72 88be 3f85 063e 587f 733d
000001f0: ddf4 3cbc e229 473e e4a5 7dbd 63b1 88be
00000200: bcda d73e ddf3 7bbd 98f2 d43d b2e0 11be
00000210: 34ba a73c 5d05 be3e cea4 923d 0fba 293d
00000220: ab40 d83d 2940 5d3e da7c 1fbd 5999 87bc
00000230: ebde d4bd c6b5 933d 656e 95bd 2e05 87bd
00000240: d0f8 003e c13c 1abe 924e bf3e bbbc e1bd
00000250: 8329 063e 28e7 a6bd a9f7 7a3e 1597 58bd
00000260: 5109 52bd fd04 4abd f49c 3f3e 3ac9 be3e
00000270: 2946 b93e e5e9 f13c 13be 263d 7163 083f
00000280: 8f07 48be 8308 07be b27f 0abd 95b6 893e
00000290: 5c21 46be 341f 46be 0953 71be c1dc 5cbe
000002a0: ce20 0fbe bd59 00be 315d aabe 6dad c5bd
000002b0: 091e edbd d85e 863e 3a6f c43e 1b36 3bbe
000002c0: fef8 20be 944c abbe 0eb9 45be 0622 afbe
000002d0: c600 0a3e 9d92 63be 30c8 483d 4be4 cf3c
000002e0: 08c0 e23e ff69 af3d 5c64 0cbd ad7f 80bd
000002f0: 07fe 4dbd a1d6 20bd e658 6d3e 4a78 a93e
00000300: 9007 f03d 35dc 34bd 5b97 693c a87d 63be
00000310: eece 933e 5a95 583e 8e45 f5bd 0620 04be
00000320: 1f0f c33e 8813 b63e 6a1a 273e b7a9 5bbd
00000330: efee 69bd e2bb 41be b1b6 183e cb46 df3e
00000340: 5187 443e d47a 463e b833 6ebd 0645 e1bd
00000350: 7527 2bbd f4f2 72be 6cdc 9ebb 7c7c edbe
00000360: ba9a 28bd fb78 dbbd 087a 92be 70a8 0ebe
00000370: b537 72be f039 fb3d 8622 7dbe c4cc 4abe
00000380: 5f4e 0d3d 54ea 883e f572 143e e7e4 893d
00000390: 583d 44be f929 fbbd f7ee 303c fdf6 f93e
000003a0: 9577 693e 0b24 c23d 97c4 7bbd 1ec9 51be
000003b0: c764 793e d1a7 6dbb f461 393d 9fb8 61be
000003c0: ccdc b5bd 36be d63c 6099 1d3e da16 22bc
000003d0: 52b7 42be 5830 a6be 689c 4d3e f5cc 71be
000003e0: fcd7 ca3e 9d2d d1be b7ef 3a3e d102 10bd
000003f0: 3bb3 8abc 003d 2b3e 7603 0e3e c06b 88be
0.1377503 -0.008093162 -0.27240273 0.21282241 0.48638436 0.13287549 -0.42059797 0.008659036
0.42227286 0.18400358 -0.019348526 0.09123118 0.044613935 -0.1949208 -0.3915771 -0.25584713
0.08817401 -0.24684066 0.27839217 -0.3653039 -0.11256542 -0.36046255 -0.26069558 0.26345393
-0.30149075 0.17822094 0.21686062 0.042757466 -0.17174521 -0.0859509 0.05611956 0.09501529
-0.19572213 0.22471206 0.28963545 0.10382249 -0.00046122196 0.120294616 0.10970798 -0.22354409
-0.14280269 -0.16175482 0.10073651 0.0072367517 0.17380111 -0.25650024 0.040008605 -0.19593777
0.0663611 0.1952016 0.016524132 -0.028257083 0.23896646 0.10301334 -0.08332692 -0.05703428
-0.22946467 0.15281071 -0.15961756 0.08236502 -0.1546598 0.29560953 -0.23824021 -0.3125172
-0.22777365 -0.024577592 -0.08549095 -0.25021836 -0.09885 -0.22102536 0.22928645 0.40118235
0.036454797 -0.11616746 -0.13266432 0.27157193 0.041841906 -0.17630683 0.28278965 -0.05793698
0.32543293 -0.23106416 -0.017571421 -0.27312624 0.064295754 0.28666738 0.13581124 -0.1988026
0.053999398 0.115408234 0.04023009 0.17361347 -0.21477138 -0.06472206 -0.015009493 0.21890573
-0.09534455 0.26234773 0.20390026 -0.010516322 0.28446388 -0.18427119 -0.40586254 -0.008075759
-0.10058314 -0.15566878 0.27520156 0.010587275 0.037856188 0.36425054 -0.03157192 -0.26631057
0.2624164 0.21967661 -0.11682484 -0.08198954 0.0026315947 0.3665795 0.24235317 0.5914496
0.18747848 -0.2664994 0.13136767 0.059447616 -0.011532989 0.19449571 -0.061925784 -0.26697835
0.4215907 -0.061511863 0.103978336 -0.1424587 0.02047453 0.37113467 0.0716034 0.041437205
0.105592094 0.21606506 -0.038937427 -0.016552614 -0.10394081 0.07212405 -0.07296447 -0.06592785
0.12594914 -0.15062238 0.37364632 -0.110223256 0.13101773 -0.08149558 0.24508537 -0.052878458
-0.051278416 -0.049321163 0.18712217 0.372629 0.3618634 0.029530475 0.040708613 0.53276736
-0.19534133 -0.1318684 -0.033813186 0.26897112 -0.19348663 -0.1934784 -0.23566832 -0.21568586
-0.13977358 -0.12534232 -0.33274224 -0.09652219 -0.115779944 0.26244235 0.3836611 -0.18282358
-0.15719983 -0.33456862 -0.19308874 -0.34205645 0.13476858 -0.22223897 0.04901904 0.025377413
0.44287133 0.08565139 -0.034275398 -0.06274352 -0.050291087 -0.039267186 0.23178443 0.33099586
0.117201924 -0.04415532 0.014257277 -0.22215903 0.28868812 0.21150723 -0.11976157 -0.12902841
0.38097474 0.35561776 0.1631867 -0.05362865 -0.05711263 -0.18919328 0.14913441 0.43608698
0.19192244 0.19382793 -0.05815479 -0.10999493 -0.041785676 -0.23725492 -0.0048480537 -0.46384037
-0.041163184 -0.107164346 -0.28608727 -0.13931441 -0.23654063 0.1226691 -0.24720201 -0.19804674
0.03449857 0.26741278 0.14496978 0.06733113 -0.19164026 -0.12263865 0.010799161 0.4882125
0.22799523 0.09479531 -0.06146678 -0.20486876 0.2435485 -0.0036263356 0.04525943 -0.22043084
-0.08880004 0.026213747 0.15390539 -0.009893144 -0.19015244 -0.32458758 0.20079195 -0.23613341
0.39617908 -0.40855113 0.18255506 -0.035158936 -0.016931167 0.16722488 0.13868508 -0.26644707

base.mlp.fc_h.0.bias f4 [64]
00000000: 0000 0000 0000 0000 0000 0000 0000 0000
00000010: 0000 0000 0000 0000 0000 0000 0000 0000
00000020: 0000 0000 0000 0000 0000 0000 0000 0000
00000030: 0000 0000 0000 0000 0000 0000 0000 0000
00000040: 0000 0000 0000 0000 0000 0000 0000 0000
00000050: 0000 0000 0000 0000 0000 0000 0000 0000
00000060: 0000 0000 0000 0000 0000 0000 0000 0000
00000070: 0000 0000 0000 0000 0000 0000 0000 0000
00000080: 0000 0000 0000 0000 0000 0000 0000 0000
00000090: 0000 0000 0000 0000 0000 0000 0000 0000
000000a0: 0000 0000 0000 0000 0000 0000 0000 0000
000000b0: 0000 0000 0000 0000 0000 0000 0000 0000
000000c0: 0000 0000 0000 0000 0000 0000 0000 0000
000000d0: 0000 0000 0000 0000 0000 0000 0000 0000
000000e0: 0000 0000 0000 0000 0000 0000 0000 0000
000000f0: 0000 0000 0000 0000 0000 0000 0000 0000
0.0 0.0 0.0 0.0 0.0 0.0 0.0 0.0
0.0 0.0 0.0 0.0 0.0 0.0 0.0 0.0
0.0 0.0 0.0 0.0 0.0 0.0 0.0 0.0
0.0 0.0 0.0 0.0 0.0 0.0 0.0 0.0
0.0 0.0 0.0 0.0 0.0 0.0 0.0 0.0
0.0 0.0 0.0 0.0 0.0 0.0 0.0 0.0
0.0 0.0 0.0 0.0 0.0 0.0 0.0 0.0
0.0 0.0 0.0 0.0 0.0 0.0 0.0 0.0

base.mlp.fc_h.2.weight f4 [64]
00000000: 0000 803f 0000 803f 0000 803f 0000 803f
00000010: 0000 803f 0000 803f 0000 803f 0000 803f
00000020: 0000 803f 0000 803f 0000 803f 0000 803f
00000030: 0000 803f 0000 803f 0000 803f 0000 803f
00000040: 0000 803f 0000 803f 0000 803f 0000 803f
00000050: 0000 803f 0000 803f 0000 803f 0000 803f
00000060: 0000 803f 0000 803f 0000 803f 0000 803f
00000070: 0000 803f 0000 803f 0000 803f 0000 803f
00000080: 0000 803f 0000 803f 0000 803f 0000 803f
00000090: 0000 803f 0000 803f 0000 803f 0000 803f
000000a0: 0000 803f 0000 803f 0000 803f 0000 803f
000000b0: 0000 803f 0000 803f 0000 803f 0000 803f
000000c0: 0000 803f 0000 803f 0000 803f 0000 803f
000000d0: 0000 803f 0000 803f 0000 803f 0000 803f
000000e0: 0000 803f 0000 803f 0000 803f 0000 803f
000000f0: 0000 803f 0000 803f 0000 803f 0000 803f
1.0 1.0 1.0 1.0 1.0 1.0 1.0 1.0
1.0 1.0 1.0 1.0 1.0 1.0 1.0 1.0
1.0 1.0 1.0 1.0 1.0 1.0 1.0 1.0
1.0 1.0 1.0 1.0 1.0 1.0 1.0 1.0
1.0 1.0 1.0 1.0 1.0 1.0 1.0 1.0
1.0 1.0 1.0 1.0 1.0 1.0 1.0 1.0
1.0 1.0 1.0 1.0 1.0 1.0 1.0 1.0
1.0 1.0 1.0 1.0 1.0 1.0 1.0 1.0

base.mlp.fc_h.2.bias f4 [64]
00000000: 0000 0000 0000 0000 0000 0000 0000 0000
00000010: 0000 0000 0000 0000 0000 0000 0000 0000
00000020: 0000 0000 0000 0000 0000 0000 0000 0000
00000030: 0000 0000 0000 0000 0000 0000 0000 0000
00000040: 0000 0000 0000 0000 0000 0000 0000 0000
00000050: 0000 0000 0000 0000 0000 0000 0000 0000
00000060: 0000 0000 0000 0000 0000 0000 0000 0000
00000070: 0000 0000 0000 0000 0000 0000 0000 0000
00000080: 0000 0000 0000 0000 0000 0000 0000 0000
00000090: 0000 0000 0000 0000 0000 0000 0000 0000
000000a0: 0000 0000 0000 0000 0000 0000 0000 0000
000000b0: 0000 0000 0000 0000 0000 0000 0000 0000
000000c0: 0000 0000 0000 0000 0000 0000 0000 0000
000000d0: 0000 0000 0000 0000 0000 0000 0000 0000
000000e0: 0000 0000 0000 0000 0000 0000 0000 0000
000000f0: 0000 0000 0000 0000 0000 0000 0000 0000
0.0 0.0 0.0 0.0 0.0 0.0 0.0 0.0
0.0 0.0 0.0 0.0 0.0 0.0 0.0 0.0
0.0 0.0 0.0 0.0 0.0 0.0 0.0 0.0
0.0 0.0 0.0 0.0 0.0 0.0 0.0 0.0
0.0 0.0 0.0 0.0 0.0 0.0 0.0 0.0
0.0 0.0 0.0 0.0 0.0 0.0 0.0 0.0
0.0 0.0 0.0 0.0 0.0 0.0 0.0 0.0
0.0 0.0 0.0 0.0 0.0 0.0 0.0 0.0

base.mlp.fc2.0.0.weight f4 [64, 64]
00000000: b990 003e 6f80 e0bc 5362 6dbe bc7f 6b3e
00000010: 1760 f93e 8355 b73d 5148 d6be 3488 bd3c
00000020: 2c8e ce3e 4d8d 503e 8895 93bc a795 523d
00000030: bc41 153d 5ae3 36be 0dbc d6be 68de 7bbe
00000040: cf0b c33d bd66 7abe 8dc2 6d3e 7b2e c1be
00000050: 573f 32be ef65 b6be b700 88be 147b 863e
00000060: 68c9 87be 8490 4d3e 03f6 3f3e 83be 1b3d
00000070: 2d14 41be 8a1b 91bd 11b4 e63d 0c2f ec3d
00000080: 73d7 46be c62a 5d3e 358d 983e a657 c53d
00000090: 1cd5 b1bc a440 153e 94f8 953d 2b03 61be
000000a0: 74a3 05be 0738 24be 6f31 1a3e 7442 8c3b
000000b0: affb 303e 1200 75be 53b8 443c 2abd 42be
000000c0: e32f 873d c026 653e 817a 823c 5740 a8bd
000000d0: 8802 3b3e 069d e53d 5c97 b1bd 6cfd 86bd
000000e0: 06ce 6ebe 93bb 0d3e 46c1 2abe 8be7 f63d
000000f0: 72f2 10be 3fc8 b13e 8a8e 82be ae50 98be
00000100: 84e9 30be d4c2 01bc b1bd 8cbd bb36 71be
00000110: 2427 a4bd 32cc 65be ccbc 633e 6cf7 cd3e
00000120: acad 0f3d 291c f0bd afa6 14be 3726 773e
00000130: a380 853d e838 2fbe 8d89 8c3e f7df 79bd
00000140: 2141 a43e e57d 6cbe 1122 bbbc 2b3d 8dbe
00000150: aec3 39bb 4ac6 9d3e e428 093e 9c18 40be
00000160: ec20 b13d 2861 063e 9e13 6d3d 527b 2c3e
00000170: 2d58 64be 6b53 87bd d932 743c c21d 5e3e
00000180: 6b70 b8bd 0b2e 913e db00 533e f0d1 eebb
00000190: 92f0 833e b567 2fbe d0d0 d6be 6505 92bb
000001a0: 991c c4bd 17bf 19be 96d5 723e 4319 0239
000001b0: 8b83 ea3c 3789 bf3e e17f a9bd 9009 8cbe
000001c0: fea9 823e 7a0e 713e ca95 02be 554d f0bd
000001d0: 034d 5fbd c290 b93e 83de 773e e047 213f
000001e0: 05c7 413e 1af1 9bbe f7f8 ca3d df1b 413d
000001f0: 1d7a 88bc edb9 753e 6c58 c9bd b3af 8fbe
00000200: 0713 b43e 87e3 d6bd 4514 d53d c319 28be
00000210: 4d34 4dbc a744 bd3e c8f4 6e3d f9a1 613d
00000220: 09d6 153e b54c 683e 2060 69bd 3700 28bd
00000230: 90a8 01be 9096 853d 785e a7bd 6153 87bc
00000240: f783 093e 6cfe 23be b886 b73e 66d0 c2bd
00000250: bda6 103e 12bd e0bd 4393 5c3e 209f 7fbd
00000260: ad51 acbd abd8 46bd 2dc5 343e a38b bc3e
00000270: 70e4 af3e 5412 d53c e943 363d 1743 0b3f
00000280: 6155 4fbe 8b70 1bbe ffbd 25bd 548e 883e
00000290: 2a60 2bbe 61f2 53be cb6c 6bbe e512 6bbe
000002a0: 9d7c 0ebe ff8a f8bd d9f4 89be 9a3f afbd
000002b0: 25df e3bd 21ee 813e 3d26 ce3e bede fcbd
000002c0: 059c 11be ebfe b1be caa5 31be 0edc 96be
000002d0: 7e36 633e 0eb7 54be b09e 373d d0ca 4abc
000002e0: fc5a ea3e d0ce d43d 6713 993c 68fb 5fbd
000002f0: e5c0 b43a e3d5 72bd dac1 5f3e 7d19 ca3e
00000300: a543 ca3d 63c2 21bd 12da 6ebc b8f5 6abe
00000310: 5114 903e 0348 643e 7b4e e3bd eaae 01be
00000320: aa22 c53e 803a b73e 282f 483e 914f 3fbd
00000330: 5747 a3bd feeb 47be 4f3f 0c3e e5d1 e33e
00000340: c09f 423e d25a 3e3e a873 62bd e7cc ccbd
00000350: aae8 253c ac60 86be 048b 313c d7ae efbe
00000360: 2c2a 67bd dac6 cabd 734e 90be 3123 0ebe
00000370: 0b6a 66be 3cd2 de3d a387 85be 6e2f 46be
00000380: 0383 023d 67b1 673e cf78 0d3e 69cf 8c3d
00000390: 98c1 38be 9750 0bbe 9f65 a33c 44b7 fe3e
000003a0: 5a3a 5e3e a0d8 b33d 6533 49bd d2b9 47be
000003b0: c600 783e e777 42bc dc94 fc3c 5e89 71be
000003c0: d7e5 a3bd a62d db3c 0d8e 243e 1ef5 873b
000003d0: 4d47 1fbe 6a41 a5be f07a 493e 3fa7 71be
000003e0: e5ce c83e 08fe c9be 951c 423e 23d2 f1bc
000003f0: 34da 18bd ac1e 2a3e eaaa 123e b4b6 85be
0.12555207 -0.027404992 -0.23182039 0.22997946 0.48706123 0.08951857 -0.41852048 0.023136236
0.40342844 0.20366402 -0.018015638 0.05141225 0.036439642 -0.17860165 -0.41940346 -0.2459656
0.09523737 -0.24453254 0.23218746 -0.37730774 -0.17406975 -0.35624644 -0.26563045 0.26265776
-0.26520848 0.2007466 0.1874619 0.038023483 -0.18855353 -0.07085331 0.11264814 0.11532411
-0.19418125 0.21598348 0.29795232 0.09635858 -0.021708064 0.1457544 0.07322803 -0.21973865
-0.13050634 -0.16036998 0.1505792 0.004280383 0.1728351 -0.23925808 0.012006837 -0.19017473
0.066009305 0.22378063 0.015927555 -0.08215397 0.18262684 0.112115905 -0.08671448 -0.06591305
-0.23320779 0.13841085 -0.1667529 0.12055882 -0.14154986 0.34723088 -0.25499374 -0.29749054
-0.17276579 -0.007919986 -0.06872118 -0.23556034 -0.08015278 -0.22441176 0.22239989 0.4022783
0.035077736 -0.11724121 -0.1451671 0.24135672 0.06518676 -0.17111552 0.27448693 -0.061004605
0.3208094 -0.230949 -0.022843393 -0.2758573 -0.0028345394 0.30815345 0.13394505 -0.18759388
0.086488575 0.13123 0.057880037 0.16843918 -0.22299261 -0.066077076 0.014904701 0.21691039
-0.09005817 0.2835544 0.20605795 -0.00728821 0.25769478 -0.17129405 -0.41956186 -0.0044562095
-0.09575767 -0.15014301 0.23714289 0.00012407177 0.028627178 0.37409374 -0.08276344 -0.27351046
0.2552032 0.23540679 -0.12752452 -0.117335 -0.054516803 0.36243254 0.24205975 0.630003
0.18923576 -0.30457383 0.099107675 0.04714572 -0.01665979 0.23996706 -0.09831318 -0.28063735
0.35170767 -0.10492616 0.10404257 -0.16416077 -0.0125246765 0.3696644 0.05833891 0.05508611
0.14632429 0.22685511 -0.056976438 -0.04101583 -0.12661958 0.06522858 -0.08172315 -0.01651925
0.13429247 -0.16015023 0.3584497 -0.09512405 0.14126106 -0.10973562 0.21540551 -0.062407613
-0.08414016 -0.048546474 0.17653342 0.36825284 0.3435397 0.026009716 0.044498358 0.54399246
-0.20247413 -0.1517965 -0.040464398 0.26671088 -0.16735902 -0.20697929 -0.2299072 -0.22956426
-0.13914724 -0.121358864 -0.26944616 -0.08557053 -0.11126546 0.2537699 0.40263548 -0.12347172
-0.14219673 -0.347648 -0.173484 -0.29464763 0.22188756 -0.20772955 0.04482907 -0.012377456
0.4577254 0.10391009 0.01868601 -0.05468312 0.0013790397 -0.05928601 0.21851292 0.3947257
0.098761834 -0.039492022 -0.014578359 -0.22945297 0.281405 0.22293095 -0.11098953 -0.1266438
0.3850301 0.3578682 0.19549239 -0.04670674 -0.07972591 -0.19523618 0.13696025 0.44496074
0.19006252 0.18589333 -0.05528608 -0.100000195 0.010126272 -0.2624563 0.010836367 -0.4681308
-0.056436703 -0.09901209 -0.28184852 -0.13880612 -0.2250139 0.10879943 -0.26080045 -0.1935403
0.031863224 0.22626267 0.13815616 0.06875498 -0.180426 -0.13604961 0.019945918 0.49749196
0.21701947 0.08781552 -0.04912128 -0.19504479 0.24219045 -0.011869407 0.0308327 -0.23587558
-0.08002823 0.026755165 0.16069813 0.0041490933 -0.15554543 -0.3227647 0.19675803 -0.23598956
0.39220348 -0.39451623 0.18956216 -0.029519146 -0.03731747 0.16613263 0.14323011 -0.26115954

base.mlp.fc2.0.0.bias f4 [64]
00000000: 0774 9e3d 351a c63d 38f4 98bd 9f1f afbd
00000010: fbe3 b73d 4487 b23d 477e 733d 1777 b9bd
00000020: 7edd 8bbd e7f6 a73d 44da cd3d c7ae 033d
00000030: 8f34 933d 546a a73d c468 5e3d d282 ba3d
00000040: 86b0 a3bd bc31 9ebd 24a6 5abd 9c2c d2bd
00000050: bbb8 c3bc a315 f0bc 8cb0 ccbc 1570 513d
00000060: 568e cabd 6b24 803d b900 afbd 0d29 e13d
00000070: d823 90bd a060 c0bd 219c edbd e852 44bd
00000080: 9999 b43d 8b0e a2bd 97ee 62bd 2158 663d
00000090: 96f1 803d 0dd6 e93c 216e aebd 7d41 453d
000000a0: 3ea6 b9bd b53b 463d 07c5 923d 1f47 a13d
000000b0: 5837 a4bd 74a8 483d 33a2 c33d b185 af3d
000000c0: cab5 a7bd 8a8d 80bd f33c 9fbd d4e1 143d
000000d0: 8b67 92bd b0bb ac3d 54d6 843d 59ef 72bd
000000e0: e6c5 393d a1dd 4ebd b868 2a3d b5b5 7f3d
000000f0: b120 7bbd 2e08 6ebd 0f04 a33d f1ac 74bd
0.07736974 0.09672967 -0.07468456 -0.08550953 0.08979031 0.08717206 0.0594466 -0.09055918
-0.06829356 0.0820139 0.100513965 0.032149103 0.07187759 0.08174577 0.05429913 0.09106983
-0.079926535 -0.0772433 -0.0533811 -0.10262415 -0.023891797 -0.029307192 -0.024986528 0.05113228
-0.0989043 0.06256946 -0.0854506 0.10994158 -0.07038087 -0.0939343 -0.11602045 -0.047930628
0.08818359 -0.0791293 -0.05540332 0.05623639 0.06296079 0.02854445 -0.08517099 0.048158158
-0.09064911 0.048396785 0.07166486 0.078748934 -0.080183685 0.048988774 0.095524214 0.085704215
-0.081889704 -0.062769964 -0.07775297 0.03634818 -0.071486555 0.08434236 0.06486192 -0.05931029
0.045354746 -0.05050433 0.041603774 0.06242915 -0.061310474 -0.05811327 0.079597585 -0.059735242

base.mlp.fc2.0.2.weight f4 [64]
00000000: cd08 6e3f 5f5f 803f 60da 7c3f abe5 6e3f
00000010: fd15 853f d785 843f fba1 793f b662 7b3f
00000020: 21cc 773f be12 743f 2462 7c3f 489f 7a3f
00000030: 0302 783f 39d2 803f 6aca 783f 7e64 7b3f
00000040: 959d 6e3f b64d 7e3f e700 7e3f fb32 813f
00000050: 9aab 723f cfc7 6a3f 4ff5 743f 6d42 733f
00000060: f9ac 803f bb8e 7b3f 38fe 803f 444a 7a3f
00000070: d98c 7c3f 26ed 803f 5400 883f 7dcc 793f
00000080: 58bf 7e3f 578e 763f 66d2 803f 3b1c 7c3f
00000090: 7c90 773f 2ee8 763f 129f 823f 145e 7a3f
000000a0: 9f82 763f 2dd7 653f 07db 7c3f c7ed 793f
000000b0: 7dab 803f 81b5 783f 269e 783f 0d58 7b3f
000000c0: 51e6 7d3f 689e 7f3f b398 7e3f de16 7d3f
000000d0: 4864 773f cd02 7c3f 3aae 713f 2cb2 6e3f
000000e0: f66f 743f e0e8 713f 8bd7 653f 6c43 6c3f
000000f0: 4083 793f 0e72 7c3f fac2 703f 2a4b 803f
0.9298218 1.0029105 0.98770714 0.93319196 1.0397335 1.0353345 0.9751279 0.98197496
0.9679585 0.953411 0.9858725 0.97899294 0.9687807 1.0064155 0.9718386 0.98200214
0.932092 0.9933733 0.99220127 1.0093683 0.94793093 0.91711134 0.9568681 0.9502323
1.0052787 0.98264664 1.0077581 0.9776957 0.98652416 1.0072372 1.06251 0.9757765
0.9951072 0.96310943 1.0064209 0.98480576 0.9670484 0.9644803 1.0204794 0.977998
0.9629306 0.8978146 0.9877171 0.97628444 1.0052334 0.97151953 0.97116315 0.9818123
0.9917956 0.99851084 0.9945175 0.9886302 0.9663739 0.98441774 0.94406474 0.9324062
0.9548334 0.94495964 0.8978202 0.9229038 0.97465897 0.98611534 0.9404751 1.0022938

base.mlp.fc2.0.2.bias f4 [64]
00000000: 9f5c a03d 6e56 be3d 3911 a2bd 84f0 d5bd
00000010: d6cf c13d 9ca6 ad3d 68a1 9f3d 3f99 b3bd
00000020: 5a72 99bd 36b5 be3d 36ba c63d 01af fa3b
00000030: 1043 a63d d6dd ac3d 6969 9b3d 6def af3d
00000040: fc01 a9bd e2f7 adbd 3f38 96bd 60a7 d3bd
00000050: 8b44 45bd d77a 2cbd c083 21bd b4ff 453d
00000060: 2760 d5bd 8ae3 a63d 36f4 aabd c402 ca3d
00000070: 5aaf 90bd 447e c0bd 4e62 f2bd b8c1 5ebd
00000080: 8525 b03d 1f9e a2bd 55eb a5bd cefb 703d
00000090: 34f5 a63d 5942 fb3c 2bd2 c3bd d55d 843d
000000a0: 4131 babd 56d1 443d 4108 7b3d 411c 9e3d
000000b0: ff48 a4bd f8cf 303d 7f17 d03d eb4c a63d
000000c0: 9461 a8bd 7879 9dbd 6844 a5bd 0616 8f3d
000000d0: 8e03 9ebd a9a8 ae3d 5e32 853d 6f59 93bd
000000e0: a0d5 8a3d b4aa 9bbd 4590 153d 56c2 973d
000000f0: 48cd 8ebd 0f5d 89bd adfa 923d 2393 b1bd
0.07830166 0.09293829 -0.07913441 -0.10446265 0.0946347 0.08479044 0.07794458 -0.08769464
-0.07492514 0.09311907 0.09703486 0.0076502566 0.0811826 0.08440749 0.07588465 0.08590589
-0.082523316 -0.084945455 -0.07334947 -0.103346586 -0.04816107 -0.042109337 -0.039432287 0.04833956
-0.1041873 0.081488684 -0.08347361 0.09863809 -0.07064696 -0.09399083 -0.118351564 -0.054383963
0.08600906 -0.079403155 -0.08101527 0.05883389 0.081522375 0.030671285 -0.09561571 0.064632095
-0.09091426 0.0480512 0.06128717 0.07720233 -0.080217354 0.043167084 0.101607315 0.0812014
-0.082217366 -0.07689184 -0.08069688 0.069866225 -0.07715522 0.08528263 0.065037474 -0.071947925
0.06779027 -0.076009184 0.03651454 0.074101135 -0.06972748 -0.06707203 0.07176719 -0.08670642

rnn.rnn.weight_ih_l0 f4 [192, 64]
00000000: 8465 a2bd 1764 fdbd 8bc9 043d 4960 11bd
00000010: 9bdf e33d a1fd 4fbd 49c3 ca3c bdbd 5ebd
00000020: 6716 5bbb 2914 13be 41e5 803d b3ab 81bd
00000030: ed32 d839 699e c83d 4c5c 123d 9639 9c3d
00000040: daaa 36bd 2ca8 b63d 084d 873c b457 fbbb
00000050: ac6c fe38 f2b7 793c 769e 62bd fde1 24be
00000060: f006 dabd 580c 0dbd d9af d4bb e5db cdbd
00000070: 58ac 273e a4ab b3bd 87e0 423d 7760 8b3d
00000080: 4c94 933d f0ea 5e3d e25d 903c a2f5 7e3c
00000090: 9471 f83d 72c6 02bd 93d9 c63b 3d7f c63b
000000a0: 145e 983c 5d64 783d b174 89bd 5940 91bd
000000b0: 2166 a4bb 5f1a 353d b576 ae3c 1d52 973d
000000c0: ed44 27bb 977d c9bb 1032 bbbc 41e5 903d
000000d0: 4fcc 783d fa1c 96bd 5ba5 ca3d f6ef 27bd
000000e0: e38b 9dbd 81fa 41bc d25e 75bc 11bf 82bd
000000f0: ec35 d9bd 828c 0abe 6f6d 913d afca 063d
00000100: ccaf 263d e2c6 d0bc 2079 bdbb 4c95 84bc
00000110: 6a1a bf3d 502f d43d 8703 093e 33c5 5e3d
00000120: f756 6cbd 82a3 efbd 216f 613c 5dee c5bc
00000130: 3964 24be fbd9 403c 2873 72bd a7e9 133d
00000140: 279d 8ebd 8e15 2b3d 167b df3c 4f05 efbd
00000150: 6cb8 e3bc 967b 51bd 1893 a4bd 3e9d 693d
00000160: d738 91bb 8c93 a7bb 07f3 103e 9961 963d
00000170: a733 bebc 7938 883d 1857 cfbb 8f17 f6bd
00000180: a92e 433d ee15 7a3d 2ebd acbd 0e15 01bd
00000190: cedf db3d ae8b 38bd 8762 313b a909 b73c
000001a0: 4588 e7bc b981 993c 6559 323d e9a6 32bc
000001b0: 639c b0bd 5fe3 debc ba79 243e a34e 0fbc
000001c0: c231 3d3d a215 23bc b6c1 fdbc 651b 8e3c
000001d0: c308 1e3d a559 bbbd ddd1 933d b867 c63d
000001e0: fd38 13bd cc5d bbbb b54b 61bd d7dd 31bd
000001f0: 0c9f 40bb 332a dbbd 75ef 963d ba9d b9bc
00000200: c507 08bd 5554 3cbc dda8 2c3d 8085 6bbd
00000210: 0db8 a23d 2c0b 95bb 1ea9 d23d f186 cf3d
00000220: 4964 993c b1c8 b73d d87c bfbd 68c0 c93b
00000230: 803f f0bd 7c08 8e3d 91e7 d8bb dc84 e0bd
00000240: f726 563c 5849 713c 9f5d 7a3c 2696 32bc
00000250: 4478 933d 5a58 64ba e971 8abb fc3d 143d
00000260: 384a 3cbd 8112 073e e2a9 63bd 5e1e 333c
00000270: 9cf4 17bd 3d4d 3cbd fa8f 733d a8d6 4a3d
00000280: b5ef 8b3d 1aeb 003c 8fe0 50bd 8942 ecbd
00000290: 10dc 223d 84f5 bbbc 71d0 0bbe 881a d13d
000002a0: 285c 81bd 305d 89bd 3d58 58bd eadc 153e
000002b0: 67b6 3bbd acc5 2a3e e4e0 dbbd 9c29 123d
000002c0: 6659 4d3e bdd6 b53d 54d5 aebc 3f13 063d
000002d0: 8001 02be 9ea6 523e 6050 313b dff9 23bd
000002e0: dc91 743c 0bac 273d 41f6 723d b14b 703d
000002f0: 9a27 0f3e 5dc0 bcbd c147 aebb cbb2 bbbd
00000300: db2d 78bd 47c9 fc3c d11e 51bd a8fe a8bb
00000310: 1de4 e1bd d04b 323d fd48 49bc 594d 17be
00000320: f3d4 2fbe 48e7 f1bc 14e9 1e3b 432c 9abd
00000330: 0c76 193d 7eab 51bd 11a3 e4bd bbad 243b
00000340: bd11 273d 0cb0 a0bd 4267 babd 9522 aebc
00000350: 0d09 a23d 50cd 95bd ff21 0a3d da3c 3c3d
00000360: 079b 89bd 47c3 efba 616a 53bc d64c 913d
00000370: a9a7 ee3b 254c b5bd 092e a23d 398e 1fbd
00000380: c1d7 cfbc 23d8 83bd b80c 833d acac 923d
00000390: ee10 1b3c d177 f93d d8d8 0fbe 880d 7b3d
000003a0: ba13 b7bd 60bd d03d 2ed0 f8bb 376f 2e3d
000003b0: 9e79 67bb 34f5 3b3d 78f6 1c3e 8f76 013e
000003c0: 56f2 893c 274f be3c 0c5f 64bd 15e8 a73d
000003d0: ac66 b2bd 9fba 623d a6ef 3cbc b10b e73c
000003e0: a7d4 a7bd fee6 c63d a446 13bd e869 28bd
000003f0: e20b 8fbd 3e27 62bb 2c61 37bd f395 02bd
-0.07929519 -0.12372606 0.03241877 -0.035492215 0.11126634 -0.05077899 0.024751322 -0.054380167
-0.00334301 -0.14363159 0.06293727 -0.06331577 0.00041236673 0.09795839 0.035732552 0.07628171
-0.04459653 0.08918795 0.016516224 -0.007670367 0.000121319055 0.01524161 -0.0553269 -0.16101833
-0.106458545 -0.0344356 -0.0064906892 -0.10051707 0.16374338 -0.08772972 0.047577407 0.068055086
0.0720602 0.054423273 0.017622892 0.015561493 0.12131038 -0.031927533 0.0060684173 0.0060576485
0.018599547 0.06064259 -0.0671171 -0.070923515 -0.0050170575 0.044214603 0.021296838 0.07388709
-0.002552326 -0.0061490047 -0.02285102 0.07074977 0.06074172 -0.073297456 0.0989482 -0.04100033
-0.07692697 -0.01183951 -0.01497622 -0.06384099 -0.10605988 -0.13530162 0.07100951 0.032908138
0.040694997 -0.02548546 -0.0057822615 -0.016184472 0.0933121 0.10360587 0.13380252 0.054387283
-0.057700124 -0.117011085 0.013759405 -0.024161512 -0.16053857 0.011770721 -0.059191853 0.0361115
-0.06963568 0.041768603 0.027280372 -0.116709344 -0.0277979 -0.05114325 -0.080358684 0.057034723
-0.0044318247 -0.0051140245 0.14155208 0.07342834 -0.02321799 0.06651396 -0.006327521 -0.12016212
0.04765192 0.06105607 -0.08434521 -0.03151422 0.10736047 -0.045055084 0.0027066784 0.022343474
-0.02826322 0.018738614 0.043542285 -0.010904052 -0.086235784 -0.027208028 0.1606206 -0.008746776
0.04619003 -0.009953888 -0.030976158 0.017347047 0.038582575 -0.09147958 0.072177626 0.096877515
-0.03594302 -0.0057179686 -0.05500384 -0.043424454 -0.0029391674 -0.10701408 0.073698916 -0.022658218
-0.033210535 -0.011494716 0.042153228 -0.057500362 0.07945261 -0.004548451 0.10286163 0.1013316
0.018724578 0.08973826 -0.09349984 0.00615697 -0.11730862 0.06935212 -0.0066194017 -0.10962841
0.013070813 0.014726959 0.01528111 -0.010900056 0.07200673 -0.0008710675 -0.004225005 0.036191925
-0.045969218 0.13190652 -0.055581935 0.010932533 -0.037098512 -0.045972098 0.05946348 0.04952112
0.0683283 0.007868553 -0.050995406 -0.11536128 0.03976065 -0.02294422 -0.13653733 0.102101386
-0.063164055 -0.06707227 -0.052818526 0.14635053 -0.04582825 0.16676968 -0.10736254 0.035684213
0.20053634 0.08878849 -0.021341957 0.0327332 -0.12695885 0.20571372 0.0027055964 -0.040033218
0.014927354 0.040935557 0.059316877 0.058665935 0.1397995 -0.09216378 -0.0053186123 -0.091649614
-0.060590606 0.030857695 -0.05105478 -0.0051573105 -0.11029837 0.04352933 -0.012285468 -0.147756
-0.17171077 -0.029529229 0.0024247812 -0.075279735 0.037466094 -0.05118894 -0.11163915 0.0025127965
0.0407884 -0.07846078 -0.09101726 -0.021256724 0.079118825 -0.07314551 0.033723827 0.04595647
-0.06719022 -0.001829245 -0.012903781 0.070947334 0.0072831702 -0.08852414 0.07918937 -0.038953993
-0.025371434 -0.06437709 0.0639891 0.07161841 0.009464486 0.12181056 -0.14047563 0.0612922
-0.089393094 0.101923704 -0.0075931763 0.04258653 -0.0035320292 0.04588814 0.15328395 0.12642883
0.016839188 0.023231102 -0.055754706 0.08198563 -0.08710989 0.055353757 -0.011531746 0.028203817
-0.08194857 0.09712027 -0.03595604 -0.041116625 -0.06984688 -0.0034508253 -0.044770405 -0.031881284

rnn.rnn.weight_hh_l0 f4 [192, 64]
00000000: 8787 eabd f363 31bd b9c6 063e cefb d33d
00000010: 86e3 343d cd25 09be 3ce2 a13d 4891 a53c
00000020: b0b6 163c 3a43 fdbc 36c0 e2bd cc4e 1a3d
00000030: 25da abbd 89c2 b43d 85fa 87bd b1af eabd
00000040: df9c 2c3d 10b8 70bd ba7e 94bd 66c5 00be
00000050: 86b1 d73d 8976 eebd 41e2 e33d 59ed b63d
00000060: 2605 0a3e 53e6 0a3e 68c4 afbc 8ceb c83d
00000070: 4689 b23d 4cd4 823d c9db 9e3c 93b6 c5bd
00000080: c006 eabb f063 91bc 5ac6 8abd f97d 913d
00000090: cf89 16bd 4f7b dfbd 4685 b5bd 3e0b 223d
000000a0: d750 9fbd fdc4 f8bc c226 8fbd 2d45 a13d
000000b0: 7063 edbc b07a 4cbc 0d70 0e3e 49d3 693c
000000c0: ab90 733c 01b8 803c 73a0 523d c5f3 643d
000000d0: a142 d83c 55a8 283d 9033 1bbe b4f9 853d
000000e0: 8260 4abd 3838 883c c822 103d d74e 093e
000000f0: 6ca1 aabd a1ce 04bc 3deb a6bc 81b1 8bbd
00000100: ad28 7c3b 2c03 9cbd 027f 63bd f396 c1bd
00000110: 7fa2 d7bd 3f82 fc3d fa1f be3c de22 aebd
00000120: 732b 4a3b 0508 ee3d 5678 aabd 40d4 51bc
00000130: 2aae 95bd 434d ef3b f254 993c 2455 e9bc
00000140: 23cb dbbd 8050 04be 4672 103e 6d3b 48bc
00000150: 4b06 a83d f19b 4c3d ce56 263d d6b8 e43c
00000160: 9c9d ac3c ec84 53bd 7b83 b23d 44f1 e8bd
00000170: 933e 793c 3ab8 64bc f8f7 ac3d ed5a 97bc
00000180: 833d 30bd 346b c33d 5286 b13d 5840 d63d
00000190: 6e27 713d 2547 25bc 0e77 0bbc d3f7 3fbd
000001a0: cc34 cdbc 0500 c5bd ab1f 853d 3bc5 3ebd
000001b0: e628 50bd 5347 c73d f20c 08bd deea 213e
000001c0: 65bb 34bd c936 afba 05e7 913d 63f2 ae3d
000001d0: e90f 053e fe46 babd ed5a 43bc 7658 403e
000001e0: d79a 473c 5ee8 74bd cb9a eb3d 8b95 10bc
000001f0: b462 5bbc 2032 5d3d 45b2 4c3c 476b 24bd
00000200: bb20 dbbd 88fb 88bc e245 2fbd 2529 22bd
00000210: 3128 2b3d 789b fb3c 23c0 a53d b5f9 57bc
00000220: 4450 6c3c 4d78 e8bd 31af eebc 23e1 2f3b
00000230: 57c9 183d ae47 d2bc c304 2b3e 4ae8 b0bc
00000240: 18de 103d 3c2b e4bd e2e0 e7bc b620 98bc
00000250: 2a62 81bd 9a7f be3d 1acf 693d 2416 8cbd
00000260: e944 163d c471 b23d c632 00be 36eb 733d
00000270: 26c2 4c3d 56a8 4c3d 767b c83b f6a3 bebd
00000280: 668e 233e fc6b d5bc f51f 80bb 3eb9 6c3c
00000290: 3bcd 903d 252e 99bd ed0e 00bd ce35 0a3e
000002a0: 083f ae3d eb97 0f3c 4706 d73c e878 693c
000002b0: 6ae7 60bc e7de 5e3d 3e8c 6bbc 3c3f 893d
000002c0: 408a c93d a22d f03d 0d73 a4bc 8d27 42bd
000002d0: 9da4 5d3d afda 40bd 4d1e 2c3d 7a8f 4f3d
000002e0: 060a 22bb 8103 87bd 6539 c13d 8472 55bd
000002f0: 6ae5 02bd 0a32 40bd 5dd4 2abe de62 033e
00000300: 1d20 3a3c d251 ebbd 8880 b33d a3be 0b3d
00000310: cfb7 c2bc 1812 dabc 597e a93c ea0a 66bd
00000320: f5fb 1e3c 70a9 d8bc b8f6 413d e5df 48bd
00000330: 76b8 81bd b971 4b3c 74c8 86bd f442 debd
00000340: dd71 febc be4f 583c 6c7d 783d ff29 c33d
00000350: 8fed febc 81ca 0a3d a4bb 1f3d 0c95 bcbc
00000360: d9a3 d7bd 336c 0fbd efce a63b d8f1 38bc
00000370: 4f62 313d 0164 92b8 c15a 2c3b 5259 0abe
00000380: 96f4 a43d 93b6 603d 4ed3 acbd 4c74 9ebd
00000390: e309 d0bd 398a be3d dcb2 f2bd 183f 3a3d
000003a0: d9a6 c23d 45db 8c3d 9cd7 d7bd 0a69 f9bd
000003b0: 0def ec3c 241a 5d3d d9fc 06ba c4fb 52bd
000003c0: bcbf d3bc 65f1 54bd 9158 a9bd dcbd 84bd
000003d0: 8d5e 853d d8c9 62bb 7c9f 9d3b 7e0e bc3d
000003e0: becd db3c c624 14be 313d c83d a20e 2f3e
000003f0: 2e41 b43d 3a75 3a3d ca6c 0d3d d626 d0bc
-0.11451631 -0.04330821 0.13161744 0.10350762 0.044162296 -0.13393326 0.07904479 0.020210877
0.0091988295 -0.030915845 -0.110718176 0.037672803 -0.08391217 0.08826167 -0.0663958 -0.11459292
0.04214179 -0.058769286 -0.07250734 -0.12575302 0.10531907 -0.116437025 0.11127139 0.08931989
0.13478526 0.13564424 -0.021455958 0.09810552 0.08717589 0.06388149 0.019391911 -0.09653964
-0.007141918 -0.01774785 -0.06776114 0.071041055 -0.03675252 -0.10912191 -0.088633105 0.039561503
-0.07779091 -0.030367369 -0.06989814 0.07874522 -0.02897808 -0.012480423 0.13909931 0.014271566
0.0148660345 0.01571274 0.051422548 0.05589654 0.026398959 0.04117616 -0.15156388 0.06541768
-0.049408443 0.01662837 0.03518942 0.13408981 -0.0833157 -0.008105905 -0.020375842 -0.068209656
0.0038476393 -0.076177925 -0.055541046 -0.094526194 -0.105290405 0.1232953 0.023208607 -0.08502744
0.0030848652 0.11622623 -0.083237335 -0.012806952 -0.0730861 0.0073029115 0.018717263 -0.028482981
-0.10732105 -0.12921333 0.14106092 -0.012221199 0.08204325 0.049953405 0.040610127 0.027920168
0.021071248 -0.051640436 0.08716484 -0.11374143 0.015212673 -0.013959939 0.08445734 -0.018475974
-0.043027412 0.09541932 0.08668198 0.10461491 0.058875494 -0.010087763 -0.008512272 -0.046867203
-0.02504959 -0.09619144 0.06500181 -0.046574812 -0.050820254 0.09730401 -0.03321547 0.15812251
-0.044124026 -0.0013367768 0.071241416 0.08542325 0.1299435 -0.09095572 -0.011923534 0.18783745
0.012182913 -0.059791915 0.11504134 -0.008824716 -0.013390232 0.05400288 0.012493675 -0.04014137
-0.10699602 -0.016721502 -0.042791255 -0.03959002 0.041786376 0.030713782 0.08093288 -0.013182093
0.014423434 -0.113510706 -0.029136272 0.0026837073 0.037301388 -0.025668945 0.16701035 -0.021595139
0.035368055 -0.11141059 -0.028305475 -0.018570285 -0.063175514 0.09301682 0.057082273 -0.068401605
0.03668681 0.08713105 -0.12519369 0.059550487 0.049989842 0.049965225 0.0061182333 -0.09308617
0.1597229 -0.026052468 -0.0039100596 0.014448462 0.070703946 -0.074795045 -0.031264234 0.13497087
0.08508116 0.008764247 0.02624811 0.014250018 -0.013727048 0.054411795 -0.014376698 0.06701514
0.09840822 0.11727454 -0.020074392 -0.047401 0.054112066 -0.047083553 0.042021085 0.05067394
-0.0024725213 -0.06592465 0.09434775 -0.052111164 -0.031957068 -0.04692272 -0.16682573 0.12830684
0.011360195 -0.11490215 0.0876475 0.034117352 -0.023769287 -0.026619956 0.02069013 -0.056162752
0.009703626 -0.026447982 0.04735443 -0.049041647 -0.06334011 0.01241725 -0.06581202 -0.10852614
-0.031060154 0.013202606 0.060666487 0.095294945 -0.031119136 0.03388453 0.038997307 -0.02302029
-0.10529298 -0.035015296 0.0050905864 -0.011288129 0.043306645 -6.98045e-05 0.002629921 -0.13510635
0.080544636 0.054861616 -0.08438741 -0.077370256 -0.10158136 0.09303708 -0.11850521 0.045470327
0.0950448 0.0687776 -0.10539171 -0.12178238 0.028922582 0.053980008 -0.00051493716 -0.051509634
-0.025848262 -0.051988024 -0.08268846 -0.06481525 0.06512175 -0.0034605172 0.004810272 0.09182452
0.026831504 -0.14467153 0.09777296 0.17095426 0.088014945 0.045521952 0.034527577 -0.025409143
