train/mappo/results/MPE/formation_hd_env/rmappo/hd_5/run1/models/critic.pt (torch, 178668 bytes, 21 tensors)

base.feature_norm.weight f4 [140]
1.935336 1.9245044 1.1392791 1.2447981 1.2008257 0.9249456 1.2077594 1.0820457
1.3179288 1.0743319 1.2063249 1.4037737 0.10662285 -0.056323797 0.08158256 0.046739448
-0.034185268 0.02056345 -0.072836 0.16850524 1.0718347 0.9183566 0.8371913 0.76407695
0.93812853 0.7389537 0.88718814 1.141835 2.0148659 1.8183062 1.3073931 1.1914432
1.4020407 0.9220893 1.199792 1.1947169 1.0367883 1.2450444 1.1496105 1.261386
0.004613728 0.061694752 0.04453221 0.14759852 0.055528417 0.17095317 0.1323139 0.060659874
0.83980244 1.0122114 0.86391413 0.8898702 0.893987 0.919266 1.0674158 1.0045297
1.9677224 1.9749899 0.96127695 1.0420845 1.3076911 1.2240739 1.152129 1.1183393
1.1304508 1.0635524 1.043018 1.0313499 -0.108197786 0.09844712 0.044375528 0.106411256
0.05497179 0.019505968 0.0859198 0.0027392996 0.80365765 1.1636835 0.8570594 1.1286672
0.94204855 1.22958 0.87939245 0.921583 1.97888 1.9298403 1.0465965 1.0806268
1.0435456 0.94627327 1.1987373 1.0166137 0.9402535 1.0208133 1.0245222 1.1817734
0.14479384 -0.0017283364 0.10174058 0.10925502 0.018614154 -0.0083187185 0.028281892 -0.014075922
1.1108705 1.3967135 0.8644064 0.86150694 0.9303729 0.9073522 0.8874985 0.8790381
1.9469216 1.9029179 0.7865722 1.0719416 1.156479 1.2025125 1.0719012 1.0418236
1.3776205 1.0253901 1.0958931 1.0430658 0.14500734 0.096612334 0.0707418 0.109966844
0.17709164 0.04592721 0.14216289 0.052773032 1.2184136 0.91780674 0.92625237 1.067308
0.76622975 0.83332974 0.84708166 0.8709683
00000000: 17b9 f73f 2956 f63f e6d3 913f 8b55 9f3f
00000010: a8b4 993f 3cc9 6c3f dc97 9a3f 7980 8a3f
00000020: e4b1 a83f b583 893f db68 9a3f dbae b33f
00000030: 155d da3d c8b3 66bd c214 a73d dd71 3f3d
00000040: da05 0cbd ae74 a83c 0a2b 95bd a38c 2c3e
00000050: e131 893f 6b19 6b3f 2b52 563f 8c9a 433f
00000060: 3129 703f 122c 3d3f c31e 633f a627 923f
00000070: 90f3 0040 42be e83f a858 a73f 3681 983f
00000080: 1276 b33f 0b0e 6c3f c992 993f 7cec 983f
00000090: 7bb5 843f 9d5d 9f3f 7026 933f 1975 a13f
000000a0: c12e 973b a3b3 7c3d 6867 363d 1124 173e
000000b0: c471 633d 590e 2f3e 4c7d 073e 7d76 783d
000000c0: 4bfd 563f 2590 813f 7a29 5d3f 89ce 633f
000000d0: 55dc 643f 0455 6b3f 15a1 883f 6e94 803f
000000e0: 54de fb3f 78cc fc3f 3f16 763f 0663 853f
000000f0: 6c62 a73f 74ae 9c3f f778 933f be25 8f3f
00000100: 9db2 903f 7c22 883f 9d81 853f 4603 843f
00000110: cd96 ddbd a59e c93d 1dc3 353d 25ee d93d
00000120: 1a2a 613d fbca 9f3c b8f6 af3d d285 333b
00000130: 82bc 4d3f 95f3 943f 3f68 5b3f 2b78 903f
00000140: 182a 713f e162 9d3f dd1f 613f ddec 6b3f
00000150: f14b fd3f 0205 f73f e0f6 853f fb51 8a3f
00000160: e792 853f f73e 723f 3970 993f 6620 823f
00000170: 74b4 703f 03aa 823f 8b23 833f 5a44 973f
00000180: d644 143e 5989 e2ba 5d5d d03d 19c1 df3d
00000190: b67c 983c 3c4b 08bc 6daf e73c b29e 66bc
000001a0: 0131 8e3f 82c7 b23f bd49 5d3f b88b 5c3f
000001b0: eb2c 6e3f 3c48 683f 1a33 633f a408 613f
000001c0: ba34 f93f d092 f33f cc5c 493f 6235 893f
000001d0: 8107 943f eeeb 993f 0f34 893f 7a5a 853f
000001e0: de55 b03f fc3f 833f 3a46 8c3f 2e83 853f
000001f0: ce7c 143e b0dc c53d 14e1 903d 4c36 e13d
00000200: 8357 353e 2c1e 3c3d 2693 113e 8928 583d
00000210: faf4 9b3f 62f5 6a3f e01e 6d3f 8c9d 883f
00000220: a227 443f 1955 553f 58da 583f c7f7 5e3f

base.feature_norm.bias f4 [140]
-0.2253366 0.32577822 -0.13206796 -0.07182567 0.034490656 -0.061407436 0.08355809 -0.05077739
-0.045578048 -0.1692737 -0.039627425 -0.062066223 -0.10783251 0.019156147 -0.06741848 0.02593691
-0.027945856 -0.027535306 -0.0007904849 0.26740828 -0.006878336 0.2824875 -0.15479802 -0.035562776
0.5254457 -0.048463196 -0.0015438775 -0.046644125 -0.109572604 0.27328786 0.1030001 0.010186574
-0.2571308 0.14857411 0.022526123 -0.025812153 -0.4444379 0.21920823 -0.059918772 0.017915906
-0.042425435 0.013163375 0.019330988 -7.891679e-06 -0.058500078 0.020948026 -0.12460343 0.038404375
0.24929442 -0.10708911 -0.003663871 0.48833755 0.21021937 0.12769015 -0.23097578 0.19061291
-0.13358887 0.28871277 0.06674544 -0.23987314 0.02323258 0.07492583 0.09230124 -0.22458823
-0.034832597 0.16741538 0.11777953 -0.26661977 -0.006045397 0.07343363 0.035779558 -0.045737725
-0.05853378 -0.048818525 -0.035245802 -8.437846e-05 -0.028330015 -0.18667558 -0.02464636 0.1886141
0.22478901 -0.6255195 0.3603421 0.2844177 0.06914906 0.34477684 0.19839583 0.011871814
0.01812633 0.110944316 0.11210886 -0.2619433 0.1451615 -0.09876278 0.07306523 0.123312026
-0.0036020284 -0.04434214 -0.022026267 -0.024678534 0.18843785 -0.016137158 -0.006075201 -0.015130948
-0.37446642 -0.57288593 -0.05962151 0.2929663 0.44244602 0.034738965 -0.013669495 -0.059239697
-0.030599587 0.419394 0.06594852 0.23280606 0.090631895 -0.30748057 0.08892417 0.0428038
0.36949003 -0.17030075 0.10116842 -0.33345303 -0.08741789 0.063657425 0.02195681 -0.005971217
-0.022209037 0.08077033 0.031155048 -0.045591082 -0.5758029 0.1742088 0.2166323 0.30826584
-0.08481022 -0.012110155 0.04146094 0.0058325017
00000000: a3be 66be 67cc a63e d33c 07be 5619 93bd
00000010: 1346 0d3d 5d86 7bbd 8120 ab3d f4fb 4fbd
00000020: 0cb0 3abd 1656 2dbe 5e50 22bd 2739 7ebd
00000030: 4ad7 dcbd 5aed 9c3c b312 8abd a579 d43c
00000040: b5ee e4bc b991 e1bc 8b38 4fba bde9 883e
00000050: aa63 e1bb 34a2 903e 5f83 1ebe 46aa 11bd
00000060: 9c83 063f 5881 46bd ef5b caba e90d 3fbd
00000070: 9a67 e0bd 63ec 8b3e b7f1 d23d 97e5 263c
00000080: a6a6 83be d023 183e b488 b83c 0274 d3bc
00000090: 5d8d e3be 1f78 603e 636d 75bd 61c4 923c
000000a0: 4bc6 2dbd 32ab 573c 055c 9e3c 8166 04b7
000000b0: c79d 6fbd 329b ab3c 1530 ffbd e84d 1d3d
000000c0: 0947 7f3e 8951 dbbd 8e1d 70bb 6107 fa3e
000000d0: bf43 573e 35c1 023e ea84 6cbe 0830 433e
000000e0: 85cb 08be 29d2 933e d5b1 883d 4ea1 75be
000000f0: 4052 be3c b772 993d 6f08 bd3d 75fa 65be
00000100: a0ac 0ebd f06e 2b3e 6536 f13d 6382 88be
00000110: 7718 c6bb 5f64 963d 968d 123d 7b57 3bbd
00000120: 1ec1 6fbd eff5 47bd e75d 10bd 57f4 b0b8
00000130: 5914 e8bc e227 3fbe 2ae7 c9bc 0e24 413e
00000140: 172f 663e 0c22 20bf c27e b83e 329f 913e
00000150: 069e 8d3d 9786 b03e 4728 4b3e ff81 423c
00000160: ab7d 943c c636 e33d 5499 e53d 6f1d 86be
00000170: 37a5 143e 2444 cabd 39a3 953d 048b fc3d
00000180: 0210 6cbb 1ba0 35bd 6e70 b4bc a32a cabc
00000190: daf5 403e 1332 84bc 7b12 c7bb cce7 77bc
000001a0: 10ba bfbe a7a8 12bf af35 74bd aeff 953e
000001b0: 4988 e23e 724a 0e3d 04f6 5fbc 53a5 72bd
000001c0: fcab fabc cfba d63e 0510 873d b664 6e3e
000001d0: 379d b93d 186e 9dbe e01d b63d 0a53 2f3d
000001e0: cc2d bd3e 5263 2ebe 6331 cf3d 5bba aabe
000001f0: 2708 b3bd d35e 823d c5de b33c 33aa c3bb
00000200: baef b5bc ea6a a53d df38 ff3c b7bd 3abd
00000210: d267 13bf cb63 323e dcd4 5d3e 05d5 9d3e
00000220: fbb0 adbd ac69 46bc f2d2 293d 921e bf3b

base.mlp.fc1.0.weight f4 [64, 140]
0.70293546 -1.0373262 0.02653002 -0.12206983 0.23270516 0.18465915 0.05001637 0.25913605
-0.09115474 0.11387986 -0.10678834 -0.16406187 -0.27647683 -0.15529269 0.007554153 0.009505014
0.09364034 -0.5453272 0.28191227 -0.32659796 -0.11846968 0.13240594 -0.05407232 0.10037459
-0.047472037 0.052022498 -0.08161837 -0.07629878 1.3187774 0.26434407 -0.027546596 0.07782959
0.08418109 -0.09635501 0.059882823 -0.056908738 0.14330612 -0.048216805 0.21955265 -0.005246353
0.15542045 0.37398475 0.1921236 0.20010088 0.2468362 -0.37225416 -0.026567148 -0.15610513
-0.1376677 -0.049084503 -0.1187742 -0.12980275 0.010637812 -0.07549336 -0.14953251 0.036652427
0.67162776 -0.23158291 0.18844861 0.095928915 0.005751108 -0.125966 -0.0143322395 -0.117431715
-0.17781802 0.22004542 -0.14400914 0.074079655 0.1635673 0.113528594 -0.14642979 -0.04758538
0.114320695 -0.104994655 -0.096622095 -0.2481421 -0.1074691 0.029477648 0.05477522 -0.15583262
-0.2792662 -0.037814967 -0.20766588 0.009222287 0.36678475 0.09922712 0.04124719 0.16937174
-0.09623333 0.20989819 0.08866808 -0.025692185 -0.067888685 -0.123314984 0.0064164116 -0.03365909
-0.01753506 0.1307361 -0.2955789 0.04517345 -0.10624924 0.14775105 -0.0444254 -0.107847735
0.038386896 0.05138146 -0.05172505 -0.009649266 -0.117942356 -0.15356368 -0.16150163 -0.047963094
-0.7901923 0.29308313 0.07886102 -0.060747992 -0.2609225 -0.16086751 0.1953943 -0.04784657
0.16113922 -0.24132499 -0.051406424 -0.09200921 -0.14925188 0.21268244 0.030885074 0.18813165
-0.33239195 0.20630547 -0.08764931 0.09159299 -0.109204985 -0.19394754 -0.15663888 -0.11407334
-0.21710777 -0.10212041 -0.25349182 -0.1675417 -0.3350368 0.38325512 0.1000843 0.05192509
0.17227057 -0.17395757 0.15838382 0.22198232 0.16099375 -0.106154636 -0.2271053 0.109079495
-0.11986692 0.19960713 -0.21768844 -0.18160933 0.112530224 0.016334191 -0.09957046 -0.12632073
-0.3021011 -0.22835611 -0.107543714 -0.15666501 -0.39241588 -0.22730695 -0.50734127 -0.117497176
-0.2452791 0.3535165 0.012762756 0.19229256 0.027664313 0.22266918 0.037281066 -0.009758861
0.2187276 -0.023394704 0.26791152 -0.18739931 0.22401175 -0.21637242 0.04749738 -0.27738756
0.36734957 -0.63526714 0.04883505 -0.5188783 -0.3410867 -0.25473505 -0.33811414 -0.2364957
-0.42980376 -0.13851531 -0.0072671985 -0.21452692 0.057393044 0.46023676 0.051983226 0.09119242
0.18343467 -0.05044483 0.15985245 0.15711918 0.25001788 0.06364747 0.3084895 0.1483976
0.25765124 -0.021940088 0.07425572 0.18066074 0.2594649 0.023516852 0.13532278 -0.14646396
-0.2836005 -0.04451539 -0.45541972 -0.3244045 -0.36853456 -0.08701018 0.015503174 -0.22742538
-0.5859122 0.6322853 0.025579926 -0.0047647133 0.18413506 0.018533757 -0.032881983 0.11635946
0.47454908 -0.040349502 0.094873555 0.042240657 -0.2508824 -0.028132522 -0.48494187 0.2004817
-0.48339728 0.2541614 -0.43243143 -0.22251163 -0.081166126 -0.059246276 -0.30182782 -0.18756321
-0.2210405 -0.425161 -0.18705101 -0.17626299 -0.32475728 0.40704855 0.23411845 -0.0027544524
00000000: 94f3 333f 1bc7 84bf 7c55 d93c bfff f9bd
00000010: 434a 6e3e 4a17 3d3e f7dd 4c3d 7bad 843e
00000020: 56af babd d839 e93d d8b3 dabd d6ff 27be
00000030: 5f8e 8dbe 0c05 1fbe d488 f73b ebba 1b3c
00000040: 82c6 bf3d 909a 0bbf ce56 903e d937 a7be
00000050: 3ba0 f2bd 6c95 073e f07a 5dbd 3191 cd3d
00000060: 0a72 42bd 8b15 553d 8827 a7bd 8942 9cbd
00000070: b3cd a83f 1b58 873e 66a9 e1bc 1f65 9f3d
00000080: 2367 ac3d c755 c5bd b147 753d 2319 69bd
00000090: d7be 123e fc7e 45bd 69d2 603e 99e9 abbb
000000a0: 8a26 1f3e ee7a bf3e 0dbc 443e 3fe7 4c3e
000000b0: a1c2 7c3e 1998 bebe 59a3 d9bc 06da 1fbe
000000c0: c3f8 0cbe d50c 49bd e33f f3bd 03eb 04be
000000d0: 384a 2e3c 439c 9abd 0d1f 19be db20 163d
000000e0: ccef 2b3f 1224 6dbe acf8 403e 6176 c43d
000000f0: ca73 bc3b 3bfd 00be c5d1 6abc 0a80 f0bd
00000100: ed15 36be 9653 613e 2277 13be 13b7 973d
00000110: 307e 273e ae81 e83d b1f1 15be e3e8 42bd
00000120: f820 ea3d 7007 d7bd cee1 c5bd f618 7ebe
00000130: c218 dcbd 1c7b f13c fb5b 603d 9692 1fbe
00000140: fbfb 8ebe dee3 1abd 5da6 54be 1319 173c
00000150: 36cb bb3e 9737 cb3d d0f2 283d c96f 2d3e
00000160: fb15 c5bd 8def 563e 9c97 b53d 6b78 d2bc
00000170: 3909 8bbd 918c fcbd c340 d23b 1dde 09bd
00000180: b0a5 8fbc afdf 053e 1e56 97be cc07 393d
00000190: 3499 d9bd 0d4c 173e 69f7 35bd 46df dcbd
000001a0: 943b 1d3d 5e75 523d a5dd 53bd f417 1ebc
000001b0: c38b f1bd cc3f 1dbe af60 25be f374 44bd
000001c0: 0b4a 4abf fe0e 963e e381 a13d e3d2 78bd
000001d0: a297 85be 74ba 24be 7215 483e c4fa 43bd
000001e0: ae01 253e e61d 77be 8b8f 52bd 536f bcbd
000001f0: 7cd5 18be 6dc9 593e b202 fd3c 95a5 403e
00000200: 472f aabe be41 533e 7b81 b3bd 1b95 bb3d
00000210: dda6 dfbd 2f9a 46be f165 20be 499f e9bd
00000220: 8051 5ebe 8124 d1bd aec9 81be 0d90 2bbe
00000230: f289 abbe 043a c43e fff8 cc3d 67af 543d
00000240: b267 303e ef21 32be 5e2f 223e 554f 633e
00000250: 8cdb 243e 9a67 d9bd 4b8e 68be 1265 df3d
00000260: ca7c f5bd d065 4c3e b8e9 5ebe ccf7 39be
00000270: 3f76 e63d 48cf 853c 99eb cbbd 395a 01be
00000280: ffac 9abe 2fd6 69be e13f dcbd cb6c 20be
00000290: bcea c8be 27c3 68be 1ee1 01bf 5ca2 f0bd
000002a0: 722a 7bbe 1d00 b53e e11a 513c 57e8 443e
000002b0: 45a0 e23c 6403 643e 08b4 183d a1e3 1fbc
000002c0: 21fa 5f3e 40a6 bfbc b32b 893e 9be5 3fbe
000002d0: 5663 653e bb90 5dbe 9d8c 423d be05 8ebe
000002e0: 3e15 bc3e dea0 22bf 4307 483d 35d5 04bf
000002f0: eaa2 aebe a26c 82be 4c1d adbe ee2b 72be
00000300: 3d0f dcbe f5d6 0dbe ae21 eebb f2ac 5bbe
00000310: f814 6b3d 27a4 eb3e 5dec 543d 17c3 ba3d
00000320: 4cd6 3b3e 3d9f 4ebd 5cb0 233e dae3 203e
00000330: 5802 803e 9b59 823d 56f2 9d3e 8af5 173e
00000340: ddea 833e b3bb b3bc 6213 983d 21ff 383e
00000350: 95d8 843e 6aa6 c03c 0e92 0a3e a6fa 15be
00000360: 1634 91be c555 36bd c62c e9be 5918 a6be
00000370: 90b0 bcbe 6532 b2bd 0601 7e3c 33e2 68be
00000380: 58fe 15bf 73dd 213f fe8c d13c 5021 9cbb
00000390: e78d 3c3e 1bd4 973c 42af 06bd de4d ee3d
000003a0: 19f8 f23e 8545 25bd 114d c23d 8a04 2d3d
000003b0: a873 80be 2d76 e6bc 4d4a f8be 134b 4d3e
000003c0: d97f f7be 7121 823e a767 ddbe 17da 63be
000003d0: 6d3a a6bd 39ac 72bd 2d89 9abe 9210 40be
000003e0: 7158 62be b4ae d9be 4d8a 3fbe 497e 34be
000003f0: 9646 a6be ab68 d03e bfbc 6f3e 0b84 34bb

base.mlp.fc1.0.bias f4 [64]
0.01398347 -0.06998069 -0.017063396 0.5902645 -0.04860975 -0.0642602 -0.01427591 -0.1645094
0.09973495 0.16083524 -0.1353319 -0.20050627 0.91010916 -0.15944988 -0.0694145 -0.14544591
0.7161152 -0.16340111 0.31400383 -0.05867934 -0.057912815 -0.07571361 0.69972205 -0.10540674
-0.06880146 -0.23298475 -0.14963916 -0.054566488 -0.0033933262 -0.124694 0.85842395 0.06928823
-0.09517878 0.05290445 -0.09589048 -0.11611532 -0.26929638 -0.011231887 -0.14349164 -0.19401444
0.2995113 0.12628251 -0.07019351 0.8090425 0.10984306 0.5587152 -0.10430667 0.5353776
-0.26827794 -0.017428325 -0.16179936 0.30049324 -0.021671211 -0.055969425 0.11722342 -0.13260476
-0.2823879 -0.09899143 -0.085641444 -0.084226854 -0.098676026 -0.023910059 0.07063088 0.43268982
00000000: ed1a 653c 0952 8fbd 89c8 8bbc 931b 173f
00000010: 041b 47bd da9a 83bd 82e5 69bc 2775 28be
00000020: d641 cc3d feb1 243e 7294 0abe 8451 4dbe
00000030: eafc 683f d446 23be 3029 8ebd c6ef 14be
00000040: 5353 373f 9f52 27be 1cc5 a03e bf59 70bd
00000050: fd35 6dbd bd0f 9bbd fc20 333f 7ddf d7bd
00000060: c8e7 8cbd 8e93 6ebe 023b 19be 1c81 5fbd
00000070: 9162 5ebb 915f ffbd acc1 5b3f fde6 8d3d
00000080: 18ed c2bd 56b2 583d 3a62 c4bd decd edbd
00000090: 37e1 89be f305 38bc 79ef 12be b9ab 46be
000000a0: 8c59 993e 3450 013e 9dc1 8fbd 691d 4f3f
000000b0: 66f5 e03d f607 0f3f bc9e d5bd 820e 093f
000000c0: ba5b 89be d9c5 8ebc bbae 25be 40da 993e
000000d0: d387 b1bc 3240 65bd d512 f03d 8bc9 07be
000000e0: 2695 90be 05bc cabd c864 afbd 217f acbd
000000f0: a816 cabd 07df c3bc eca6 903d 8589 dd3e

base.mlp.fc1.2.weight f4 [64]
1.2399061 1.2008015 1.1547954 0.756914 0.98439354 1.395571 0.9952566 1.0135347
0.9505815 1.1957201 0.91885245 0.9635125 1.2512773 1.0712836 1.1807232 0.8295633
1.1446987 1.018799 0.98741627 0.9710154 0.82212365 1.0582258 1.0313743 0.986355
0.8265594 1.0198147 1.0021577 1.115575 1.186064 0.97073644 1.5219889 0.65187526
1.4165477 0.67455393 1.0565711 0.9928555 1.3548623 1.1782984 0.8801963 1.1869371
1.1111664 0.79844415 1.0510083 1.1030307 0.98220146 0.9186736 1.3407125 0.76889837
1.2647579 1.1923257 0.78699374 0.7507595 1.3052083 1.2017095 1.2566137 0.9958793
1.2880194 0.94927144 1.3399177 1.2839067 0.82765037 1.2014312 1.0792476 0.4543779
00000000: 3eb5 9e3f ddb3 993f 56d0 933f 1ec5 413f
00000010: 3701 7c3f 12a2 b23f 23c9 7e3f 81bb 813f
00000020: 4f59 733f 5b0d 993f ea39 6b3f c1a8 763f
00000030: db29 a03f d21f 893f f021 973f 435e 543f
00000040: 7d85 923f 0168 823f 50c7 7c3f 7794 783f
00000050: b276 523f f173 873f 1304 843f c381 7c3f
00000060: 6699 533f 4a89 823f b446 803f 29cb 8e3f
00000070: f2d0 973f 2f82 783f 88d0 c23f 4ce1 263f
00000080: 6f51 b53f 91af 2c3f b93d 873f c72b 7e3f
00000090: 216c ad3f 7bd2 963f 8b54 613f 8eed 973f
000000a0: b33a 8e3f d666 4c3f 7187 863f 1c30 8d3f
000000b0: 8e71 7b3f 312e 6b3f 789c ab3f 86d6 443f
000000c0: 96e3 a13f 219e 983f 6c78 493f c631 403f
000000d0: 1111 a73f 9ed1 993f b8d8 a03f f2f1 7e3f
000000e0: d2dd a43f 7403 733f 6c82 ab3f 0e57 a43f
000000f0: e5e0 533f 7fc8 993f c924 8a3f 38a4 e83e

base.mlp.fc1.2.bias f4 [64]
-0.115852036 -0.2644613 0.11559248 0.25482503 -0.07391432 -0.13569671 0.16170347 -0.34151235
-0.057877976 -0.06625663 0.06092676 0.009321853 0.3981977 -0.35543174 0.1331358 0.013372333
0.21772587 0.06692721 -0.04298418 0.008792933 0.028874286 -0.35165936 0.45368773 -0.2864723
0.11665283 -0.153206 0.015565295 -0.2633746 0.20741118 -0.16768707 0.4062611 0.25991917
-0.14289716 0.24449268 0.007629518 -0.17795356 0.014936523 0.22618456 -0.17587738 -0.27570352
0.2761552 0.17609861 0.03780687 0.4343976 0.064093344 0.36672303 -0.24191621 0.12378616
-0.24936776 0.15333357 -0.20428798 0.30272734 -0.044623606 0.08684621 0.055581354 -0.035386983
-0.09266894 -0.17008668 -0.02550465 -0.0327132 -0.08806075 -0.1685458 0.20015793 0.4417257
00000000: d543 edbd 7967 87be c0bb ec3d 6d78 823e
00000010: 6460 97bd 14f4 0abe 9895 253e b5da aebe
00000020: 7511 6dbd 8eb1 87bd 578e 793d afba 183c
00000030: 92e0 cb3e 26fb b5be c054 083e a117 5b3c
00000040: 88f3 5e3e 2211 893d 2e10 30bd 3c10 103c
00000050: c489 ec3c b20c b4be c249 e83e 7fac 92be
00000060: aee7 ee3d 09e2 1cbe 9405 7f3c 09d9 86be
00000070: 9963 543e 29b6 2bbe 7401 d03e 2014 853e
00000080: a253 12be 4a5c 7a3e 0901 fa3b 7539 36be
00000090: 51b8 743c ed9c 673e 3319 34be 0329 8dbe
000000a0: 3764 8d3e 3253 343e 60db 1a3d 5d69 de3e
000000b0: 5f43 833d 1fc3 bb3e e2b8 77be 9983 fd3d
000000c0: 435a 7fbe 7a03 1d3e de30 51be 14ff 9a3e
000000d0: 3ec7 36bd 6ddc b13d 46a9 633d f1f1 10bd
000000e0: 37c9 bdbd 342b 2ebe 21ef d0bc 47fe 05bd
000000f0: 3259 b4bd 4597 2cbe 33f6 4c3e df29 e23e

base.mlp.fc_h.0.weight f4 [64, 64]
0.27046645 -0.044371653 -0.22662932 0.16908666 -0.00091336004 0.2050217 -0.023673154 -0.009821661
-0.16880026 -0.07565082 -0.2884412 0.0872847 -0.07719511 0.38836238 -0.116480105 0.29684186
0.0993694 -0.05237495 -0.14080976 0.11348617 0.105789535 -0.33349305 0.03885011 -0.3255503
0.22762412 -0.0027808913 0.20258974 0.5442834 -0.20280688 -0.25213724 0.153903 0.20599534
-0.004212277 0.2799394 -0.15003522 -0.06919133 -0.07190181 -0.2005371 -0.101111256 -0.10540407
0.2773715 -0.1485466 0.03654382 0.016330767 -0.16247009 -0.02158532 -0.06779306 -0.014606301
0.09161458 -0.27456576 0.123796344 -0.029496355 -0.008498696 0.07187639 -0.085579924 0.08045436
0.16143936 -0.1343152 -0.055866964 -0.043880306 0.09288571 0.046455476 0.20356849 -0.2419038
0.11494887 -0.021415893 0.23320504 0.034261193 -0.14987794 0.24684279 -0.11201697 0.04866264
-0.0326727 -0.123889245 0.012725965 -0.29094788 -0.21494459 0.095361255 0.35319778 -0.103017956
0.18016273 0.34653112 0.13023181 -0.0111386245 -0.24920936 0.18006906 0.05504855 -0.39934582
-0.20927176 0.14354357 -0.01534584 0.07694194 -0.10227239 0.016633902 -0.15190464 -0.116826445
0.13355458 0.19163069 0.020884516 0.22896294 0.31911683 -0.118006155 -0.029341932 -0.29080215
-0.019103104 -0.15738925 0.14872107 -0.06353418 0.041445076 0.055297397 -0.25361818 0.30517632
-0.02461899 -0.017646633 -0.17907779 -0.1235107 -0.1298975 -0.1702725 0.13354005 -0.2881573
0.37392843 0.06868064 0.18407384 0.21155934 0.10232687 -0.042544972 -0.16299376 0.12947558
0.062634975 -0.1006709 -0.15276086 0.03628223 0.3452893 0.081952766 -0.18182053 0.07546292
0.16986531 0.17353204 0.21118402 -0.32248878 0.060876608 0.030816542 -0.28443444 0.28976095
0.16848998 0.0014624158 0.022627821 -0.38971284 0.1001816 -0.014871892 0.28335813 0.03936476
0.18853733 -0.01541221 -0.04860945 -0.06304122 0.1428366 -0.16037542 0.079734564 0.045503676
-0.22230357 -0.39991006 0.28097028 0.18964052 -0.20294502 -0.16215362 -0.059490435 0.042121433
-0.09380048 -0.016044712 0.10546332 -0.11975055 0.16574325 0.23490514 -0.271629 -0.077766486
-0.23587824 -0.055407 -0.16782144 -0.20669708 -0.22666363 -0.055692933 -0.04958773 -0.086499386
0.27270132 0.26483628 -0.17566489 -0.026180284 0.17788507 -0.11872309 0.033331193 -0.19748476
0.24919517 -0.019533116 -0.17216972 -0.2680433 -0.02421667 -0.059718974 -0.19919804 -0.058200866
-0.14401644 -0.055028096 -0.091755144 0.27734104 -0.17561148 0.10464331 -0.0023310145 -0.25934035
0.02225355 -0.020392423 -0.15753122 0.009273284 0.11611802 0.02404059 0.18626192 0.10978333
-0.24209444 0.18868183 0.059704673 -0.42465144 -0.1246535 -0.043270126 0.24155693 0.06767749
-0.12881212 -0.15126106 -0.36573467 0.09325776 0.09871697 -0.03727578 -0.07254051 0.26137334
0.09278452 0.2316782 0.06629862 0.09964476 0.07835702 0.038813386 -0.21925233 -0.36107183
0.026924007 -0.26917684 0.3010311 0.03460618 -0.015368598 -0.31473187 -0.18948169 -0.32850045
0.101016514 -0.017225906 0.28040764 0.17677295 0.25285307 -0.013712156 -0.060152356 0.004200763
00000000: 947a 8a3e 0dbf 35bd 8411 68be 0e25 2d3e
00000010: 8e6e 6fba 35f1 513e 34ee c1bc 08eb 20bc
00000020: fad9 2cbe d1ee 9abd 91ae 93be 52c2 b23d
00000030: 7818 9ebd 6fd7 c63e 1f8d eebd a8fb 973e
00000040: 2f82 cb3d 1e87 56bd 6f30 10be 706b e83d
00000050: 2fa8 d83d 9abf aabe 4b21 1f3d 87ae a6be
00000060: 4c16 693e 9d3f 36bb af73 4f3e 2856 0b3f
00000070: 9bac 4fbe 2218 81be bf98 1d3e 71f0 523e
00000080: 2407 8abb 3854 8f3e d5a2 19be 2fb4 8dbd
00000090: 4241 93bd 9959 4dbe 6b13 cfbd 17de d7bd
000000a0: a303 8e3e 9a1c 18be f9ae 153d 1ac8 853c
000000b0: 8f5e 26be b2d3 b0bc 16d7 8abd 444f 6fbc
000000c0: 6da0 bb3d e293 8cbe f088 fd3d 57a2 f1bc
000000d0: 1d3e 0bbc ee33 933d 8744 afbd 41c5 a43d
000000e0: 5c50 253e ec89 09be c2d4 64bd d6bb 33bd
000000f0: dd3a be3d 1948 3e3d 4274 503e a1b5 77be
00000100: 506a eb3d 6270 afbc 4dcd 6e3e 7755 0c3d
00000110: 9a79 19be 5bc4 7c3e 2769 e5bd 7a52 473d
00000120: cfd3 05bd a5b9 fdbd 9180 503c 1ff7 94be
00000130: 6f1a 5cbe c34c c33d 57d6 b43e 14fb d2bd
00000140: 947c 383e 876c b13e 7d5b 053e c77e 36bc
00000150: bd30 7fbe 0664 383e 977a 613d 0e77 ccbe
00000160: 564b 56be 16fd 123e 1e6d 7bbc bc93 9d3d
00000170: 3074 d1bd d243 883c e48c 1bbe b442 efbd
00000180: 88c2 083e d63a 443e 0116 ab3c 4375 6a3e
00000190: 4863 a33e 36ad f1bd 7e5e f0bc 05e4 94be
000001a0: 1d7e 9cbc a62a 21be 564a 183e 351e 82bd
000001b0: 50c2 293d 867f 623d 3eda 81be 1240 9c3e
000001c0: c4ad c9bc ac8f 90bc 2b60 37be 2ef3 fcbd
000001d0: da03 05be ea5b 2ebe b9be 083e 5b89 93be
000001e0: 8c73 bf3e 6fa8 8c3d da7d 3c3e 03a3 583e
000001f0: c090 d13d a343 2ebd d6e7 26be 3f95 043e
00000200: c446 803d 8b2c cebd 586d 1cbe ad9c 143d
00000210: c2c9 b03e dad6 a73d 292f 3abe 4e8c 9a3d
00000220: 2cf1 2d3e 62b2 313e a040 583e 401d a5be
00000230: c059 793d f972 fc3c 64a1 91be 8c5b 943e
00000240: a388 2c3e 88ae bf3a fb5d b93c 7188 c7be
00000250: 032c cd3d 3ca9 73bc 5114 913e f13c 213d
00000260: ee0f 413e 7e83 7cbc b41a 47bd c11b 81bd
00000270: c243 123e 7439 24be e04b a33d 1062 3a3d
00000280: 8ca3 63be 03c1 ccbe 56db 8f3e 2031 423e
00000290: d2d0 4fbe 990b 26be 3eac 73bd 8687 2c3d
000002a0: 771a c0bd 3370 83bc 27fd d73d c73f f5bd
000002b0: 99b8 293e f98a 703e f512 8bbe 0944 9fbd
000002c0: 118a 71be 73f2 62bd 62d9 2bbe 66a8 53be
000002d0: 831a 68be 461e 64bd 811c 4bbd 9726 b1bd
000002e0: 829f 8b3e 9f98 873e 7fe1 33be 0978 d6bc
000002f0: 8127 363e 1725 f3bd 4a86 083d 7239 4abe
00000300: 052d 7f3e ea03 a0bc 424d 30be f93c 89be
00000310: 0a62 c6bc e29b 74bd 92fa 4bbe 0864 6ebd
00000320: 0c79 13be 2465 61bd 1fea bbbd a5ff 8d3e
00000330: 7fd3 33be 3b4f d63d efc3 18bb 42c8 84be
00000340: 144d b63c 030e a7bc dd4f 21be f9ee 173c
00000350: 49cf ed3d c5f0 c43c 72bb 3e3e 15d6 e03d
00000360: 9be7 77be cf35 413e e38c 743d ea6b d9be
00000370: 564a ffbd 043c 31bd b35a 773e 7f9a 8a3d
00000380: 53e7 03be 2ee4 1abe 9341 bbbe edfd be3d
00000390: 1f2c ca3d 7dae 18bd 1e90 94bd bad2 853e
000003a0: cf05 be3d 0d3d 6d3e 92c7 873d 8d12 cc3d
000003b0: a579 a03d c9fa 1e3d af83 60be 68de b8be
000003c0: bc8f dc3c 8cd1 89be c020 9a3e 36bf 0d3d
000003d0: 92cc 7bbc 8924 a1be 7d07 42be 3631 a8be
000003e0: bfe1 ce3d 581d 8dbc 9791 8f3e f803 353e
000003f0: f575 813e f3a8 60bc 5162 76bd 8ea6 893b

base.mlp.fc_h.0.bias f4 [64]
0.0 0.0 0.0 0.0 0.0 0.0 0.0 0.0
0.0 0.0 0.0 0.0 0.0 0.0 0.0 0.0
0.0 0.0 0.0 0.0 0.0 0.0 0.0 0.0
0.0 0.0 0.0 0.0 0.0 0.0 0.0 0.0
0.0 0.0 0.0 0.0 0.0 0.0 0.0 0.0
0.0 0.0 0.0 0.0 0.0 0.0 0.0 0.0
0.0 0.0 0.0 0.0 0.0 0.0 0.0 0.0
0.0 0.0 0.0 0.0 0.0 0.0 0.0 0.0
00000000: 0000 0000 0000 0000 0000 0000 0000 0000
00000010: 0000 0000 0000 0000 0000 0000 0000 0000
00000020: 0000 0000 0000 0000 0000 0000 0000 0000
00000030: 0000 0000 0000 0000 0000 0000 0000 0000
00000040: 0000 0000 0000 0000 0000 0000 0000 0000
00000050: 0000 0000 0000 0000 0000 0000 0000 0000
00000060: 0000 0000 0000 0000 0000 0000 0000 0000
00000070: 0000 0000 0000 0000 0000 0000 0000 0000
00000080: 0000 0000 0000 0000 0000 0000 0000 0000
00000090: 0000 0000 0000 0000 0000 0000 0000 0000
000000a0: 0000 0000 0000 0000 0000 0000 0000 0000
000000b0: 0000 0000 0000 0000 0000 0000 0000 0000
000000c0: 0000 0000 0000 0000 0000 0000 0000 0000
000000d0: 0000 0000 0000 0000 0000 0000 0000 0000
000000e0: 0000 0000 0000 0000 0000 0000 0000 0000
000000f0: 0000 0000 0000 0000 0000 0000 0000 0000

base.mlp.fc_h.2.weight f4 [64]
1.0 1.0 1.0 1.0 1.0 1.0 1.0 1.0
1.0 1.0 1.0 1.0 1.0 1.0 1.0 1.0
1.0 1.0 1.0 1.0 1.0 1.0 1.0 1.0
1.0 1.0 1.0 1.0 1.0 1.0 1.0 1.0
1.0 1.0 1.0 1.0 1.0 1.0 1.0 1.0
1.0 1.0 1.0 1.0 1.0 1.0 1.0 1.0
1.0 1.0 1.0 1.0 1.0 1.0 1.0 1.0
1.0 1.0 1.0 1.0 1.0 1.0 1.0 1.0
00000000: 0000 803f 0000 803f 0000 803f 0000 803f
00000010: 0000 803f 0000 803f 0000 803f 0000 803f
00000020: 0000 803f 0000 803f 0000 803f 0000 803f
00000030: 0000 803f 0000 803f 0000 803f 0000 803f
00000040: 0000 803f 0000 803f 0000 803f 0000 803f
00000050: 0000 803f 0000 803f 0000 803f 0000 803f
00000060: 0000 803f 0000 803f 0000 803f 0000 803f
00000070: 0000 803f 0000 803f 0000 803f 0000 803f
00000080: 0000 803f 0000 803f 0000 803f 0000 803f
00000090: 0000 803f 0000 803f 0000 803f 0000 803f
000000a0: 0000 803f 0000 803f 0000 803f 0000 803f
000000b0: 0000 803f 0000 803f 0000 803f 0000 803f
000000c0: 0000 803f 0000 803f 0000 803f 0000 803f
000000d0: 0000 803f 0000 803f 0000 803f 0000 803f
000000e0: 0000 803f 0000 803f 0000 803f 0000 803f
000000f0: 0000 803f 0000 803f 0000 803f 0000 803f

base.mlp.fc_h.2.bias f4 [64]
0.0 0.0 0.0 0.0 0.0 0.0 0.0 0.0
0.0 0.0 0.0 0.0 0.0 0.0 0.0 0.0
0.0 0.0 0.0 0.0 0.0 0.0 0.0 0.0
0.0 0.0 0.0 0.0 0.0 0.0 0.0 0.0
0.0 0.0 0.0 0.0 0.0 0.0 0.0 0.0
0.0 0.0 0.0 0.0 0.0 0.0 0.0 0.0
0.0 0.0 0.0 0.0 0.0 0.0 0.0 0.0
0.0 0.0 0.0 0.0 0.0 0.0 0.0 0.0
00000000: 0000 0000 0000 0000 0000 0000 0000 0000
00000010: 0000 0000 0000 0000 0000 0000 0000 0000
00000020: 0000 0000 0000 0000 0000 0000 0000 0000
00000030: 0000 0000 0000 0000 0000 0000 0000 0000
00000040: 0000 0000 0000 0000 0000 0000 0000 0000
00000050: 0000 0000 0000 0000 0000 0000 0000 0000
00000060: 0000 0000 0000 0000 0000 0000 0000 0000
00000070: 0000 0000 0000 0000 0000 0000 0000 0000
00000080: 0000 0000 0000 0000 0000 0000 0000 0000
00000090: 0000 0000 0000 0000 0000 0000 0000 0000
000000a0: 0000 0000 0000 0000 0000 0000 0000 0000
000000b0: 0000 0000 0000 0000 0000 0000 0000 0000
000000c0: 0000 0000 0000 0000 0000 0000 0000 0000
000000d0: 0000 0000 0000 0000 0000 0000 0000 0000
000000e0: 0000 0000 0000 0000 0000 0000 0000 0000
000000f0: 0000 0000 0000 0000 0000 0000 0000 0000

base.mlp.fc2.0.0.weight f4 [64, 64]
0.29918948 -0.21974432 -0.59824485 -0.12689608 -0.09693364 0.4742897 0.35162717 0.20834202
-0.34996268 -0.31755987 -0.36897996 -0.22907361 -0.11782044 0.44895133 0.8648343 0.16184267
0.08557124 -0.3290661 -0.09471111 0.12076209 0.17086476 -0.1268358 -0.034022465 -0.07679343
-0.047008038 -0.09911295 -0.044320144 0.054859165 -0.36016092 -0.084662326 -0.0224895 0.7913603
0.19297858 0.08780021 0.21026641 -0.19490257 -0.29899865 0.6062137 0.24125057 0.039038654
1.1254864 -0.20637998 0.15597378 -0.25765947 -0.21336369 -0.20501766 -0.091306455 -0.6867165
0.2281753 -0.0029609338 0.13439964 0.31083667 0.20849575 0.2526021 -0.5050569 0.25060734
-0.11857478 -0.20861666 0.224171 0.06793764 0.3655205 -0.097054414 0.49048024 -0.2503378
0.2032454 -0.061753836 0.38367438 -0.29039115 -0.13922709 0.33361402 0.23784319 0.4607954
0.17794204 -0.20369016 0.31612712 -0.4850326 0.046463054 0.14054161 0.25197095 0.40093997
0.25942254 0.24560913 0.69983155 -0.27922028 -0.23801883 0.022807315 -0.6174547 -0.30268484
-0.12378114 0.118334725 0.064703144 0.28446925 0.1172774 0.24878362 -1.4327482 -0.35261455
0.14491229 -0.06884886 0.6928146 0.52868587 0.06826449 0.36642522 -0.2349553 -0.40696713
0.11152288 -0.19252767 -0.1368217 0.048969205 -0.50325316 -0.476015 -0.012808875 0.37256944
-0.2651368 -0.047435455 -0.25861982 -0.33333066 0.27752545 -0.7192785 -0.07937404 -0.030167125
0.7589842 0.20871468 0.13887496 0.15853772 0.25542268 0.06307283 0.17296597 -0.1480916
-0.23880239 -0.17541467 -0.74109817 0.023372393 0.5126163 -0.31464082 -0.8039883 0.39795253
-0.027546844 0.030129544 0.41211697 0.11841574 0.11706808 0.07083025 -0.87737745 0.33857942
0.07634051 -0.013753006 0.11110212 -0.03111552 0.44931042 0.3846785 0.13070962 0.43656716
-0.22836362 0.27599975 0.17724957 0.2548083 -0.606938 0.03362892 0.009859434 -0.26679724
-0.61423624 -0.3188298 0.2764518 0.56909126 -0.017402817 -0.84872067 0.110649034 -0.21130292
-0.39858067 -0.113282904 0.48426935 -0.03753212 0.1139134 0.27479646 -0.49266312 -0.042869717
-0.0788155 -0.68976206 0.26144066 -0.34674963 -0.6669997 0.3427841 -0.050435774 0.24372455
0.1849686 0.4573707 -0.7052526 -0.5503793 0.2657411 -0.23794039 -0.25302044 -0.2514121
0.3747084 -0.023396246 0.09727721 -0.30102998 0.14323686 0.4233709 0.34745073 0.09323204
-0.061582427 -0.18200976 -0.09270426 0.23881514 -0.26949087 0.1587672 0.24290581 -0.15793826
-0.121294074 -0.18148442 -0.2623937 -0.19888012 -0.1240831 0.16920848 -0.119758084 0.1926835
-0.017517628 0.14086194 -0.114482164 -0.1425192 0.0028419723 0.037903585 -0.19540821 -0.045503616
0.047704764 -0.07821105 -0.17475483 0.050018564 -0.13533007 0.24288565 0.11830206 0.7665598
0.14676999 0.10018393 -0.1009856 -0.011398857 -0.1294274 -0.052331094 0.24408233 -0.1988471
-0.17984948 -0.10955324 0.32764488 -0.2737698 0.3572311 -0.20728779 -0.26290932 -0.35823628
0.39401615 0.048848193 0.47541624 0.5225123 0.36156625 -0.005197593 -0.14699453 -0.091621086
00000000: 5d2f 993e a804 61be 9326 19bf 0cf1 01be
00000010: 2585 c6bd 19d6 f23e 7a08 b43e 9c57 553e
00000020: 4f2e b3be 3597 a2be f1ea bcbe 4692 6abe
00000030: d84b f1bd f3dc e53e c865 5d3f 16ba 253e
00000040: f93f af3d 5a7b a8be e6f7 c1bd 1d52 f73d
00000050: 2cf7 2e3e 3ee1 01be 245b 0bbd e045 9dbd
00000060: 808b 40bd bbfb cabd 0a89 35bd 01b4 603d
00000070: 0367 b8be 7163 adbd e63b b8bc 9796 4a3f
00000080: 2d9c 453e 99d0 b33d 1450 573e 8a94 47be
00000090: 5a16 99be d230 1b3f 640a 773e ffe6 1f3d
000000a0: f00f 903f 4655 53be 97b7 1f3e f1eb 83be
000000b0: 037c 5abe 26f0 51be e1fe babd a7cc 2fbf
000000c0: c9a6 693e 3a0c 42bb 0fa0 093e fc25 9f3e
000000d0: e97f 553e 1055 813e 694b 01bf 9b4f 803e
000000e0: 56d7 f2bd 9b9f 55be 158d 653e e422 8b3d
000000f0: 8125 bb3e 77c4 c6bd 3a20 fb3e 472c 80be
00000100: 901f 503e 97f1 7cbd f870 c43e 26ae 94be
00000110: 8c91 0ebe 75cf aa3e 2a8d 733e 60ed eb3e
00000120: 7036 363e 2794 50be 6adb a13e 3156 f8be
00000130: 0b50 3e3d 24ea 0f3e 5602 813e 0148 cd3e
00000140: 08d3 843e f680 7b3e 2928 333f f6f5 8ebe
00000150: 35bb 73be 68d6 ba3c 8311 1ebf 82f9 9abe
00000160: f780 fdbd 7a59 f23d 1583 843d f4a5 913e
00000170: 222f f03d 22c1 7e3e 4b64 b7bf e589 b4be
00000180: e363 143e a200 8dbd 4c5c 313f f557 073f
00000190: 41ce 8b3d 169c bb3e 1f98 70be ff5d d0be
000001a0: 1c66 e43d f925 45be fd1a 0cbe ef93 483d
000001b0: 33d5 00bf 3db8 f3be 51dc 51bc 6cc1 be3e
000001c0: 03c0 87be ae4b 42bd d169 84be 51aa aabe
000001d0: d117 8e3e a322 38bf db8e a2bd 0c21 f7bc
000001e0: ca4c 423f 4db9 553e 3d35 0e3e b657 223e
000001f0: c3c6 823e 542c 813d fe1d 313e 53a5 17be
00000200: 9d88 74be e79f 33be 9cb8 3dbf 7677 bf3c
00000210: d23a 033f 9a18 a1be 2dd2 4dbf 6fc0 cb3e
00000220: eba9 e1bc 3cd2 f63c ff00 d33e f483 f23d
00000230: 64c1 ef3d 730f 913d cf9b 60bf 485a ad3e
00000240: 6a58 9c3d 4a54 61bc 8289 e33d fae5 febc
00000250: 040c e63e 95f4 c43e bed8 053e bb85 df3e
00000260: 27d8 69be d74f 8d3e e980 353e 3c76 823e
00000270: 4a60 1bbf 7abe 093d 7789 213c a699 88be
00000280: 963e 1dbf a93d a3be 178b 8d3e f7af 113f
00000290: 5a90 8ebc c245 59bf f69b e23d cb5f 58be
000002a0: c412 ccbe de00 e8bd 27f2 f73e 48bb 19bd
000002b0: 6e4b e93d 1fb2 8c3e 573e fcbe 2898 2fbd
000002c0: 056a a1bd 3f94 30bf 8ddb 853e 2b89 b1be
000002d0: 7ec0 2abf 6681 af3e be95 4ebd ee92 793e
000002e0: 6968 3d3e 7e2c ea3e 6f8b 34bf a8e5 0cbf
000002f0: 380f 883e a5a6 73be e58b 81be 16b9 80be
00000300: c8d9 bf3e 7ca9 bfbc 4639 c73d 9a20 9abe
00000310: afac 123e 12c4 d83e 10e5 b13e 71f0 be3d
00000320: db3d 7cbd c460 3abe bbdb bdbd f58b 743e
00000330: b5fa 89be de93 223e 4dbc 783e 91ba 21be
00000340: 0769 f8bd 0dd7 39be 7858 86be 3ba7 4bbe
00000350: 481f febd fd44 2d3e ba43 f5bd d34e 453e
00000360: 2181 8fbc 1d3e 103e a075 eabd 8ef0 11be
00000370: 6240 3a3b ca40 1b3d 1719 48be 0062 3abd
00000380: 1266 433d 1d2d a0bd eef2 32be 44e0 4c3d
00000390: f793 0abe 04b7 783e 5a48 f23d 433d 443f
000003a0: df4a 163e 3b2d cd3d 8ad1 cebd 46c2 3abc
000003b0: 9e88 04be 2159 56bd b8f0 793e 939e 4bbe
000003c0: 762a 38be 735d e0bd 12c1 a73e 8e2b 8cbe
000003d0: ffe6 b63e 4043 54be 0d9c 86be bf6a b7be
000003e0: 7cbc c93e 0b15 483d c269 f33e 5ec3 053f
000003f0: 361f b93e 9250 aabb bc85 16be d6a3 bbbd

base.mlp.fc2.0.0.bias f4 [64]
0.25021228 -0.2489871 -0.20692457 -0.39680162 -0.3669682 -0.19940954 0.3920119 -0.13164954
0.2475836 -0.27678457 -0.26065454 -0.26263294 -0.2890701 -0.11792657 -0.1982194 0.21608686
-0.13096958 -0.14267856 -0.06856117 -0.13525905 -0.22082531 -0.23812826 0.04491311 0.119481176
-0.1704878 -0.14824152 -0.27048954 -0.16468346 0.3904563 0.23993601 -0.008755747 0.04443993
0.041403823 0.019437673 0.50985354 -0.22369643 -0.2595152 -0.020201335 -0.30880722 -0.31536204
-0.28826416 -0.35059208 -0.12781285 1.1384001 0.037169535 -0.2623055 -0.09354671 -0.39728767
0.38552564 -0.28630856 -0.114718266 0.3572501 -0.14388664 -0.10004388 0.009381084 -0.3770984
0.19736493 0.2786455 0.18484195 -0.04992917 -0.3425894 0.081782706 -0.2205504 -0.16924435
00000000: d31b 803e 79f6 7ebe 09e4 53be 9529 cbbe
00000010: 42e3 bbbe 0432 4cbe c9b5 c83e 23cf 06be
00000020: 8e86 7d3e b5b6 8dbe 8374 85be d377 86be
00000030: ff00 94be 7c83 f1bd 07fa 4abe e045 5d3e
00000040: e41c 06be 541a 12be cc69 8cbd 5981 0abe
00000050: 0820 62be e5d7 73be cff6 373d 8cb2 f43d
00000060: 5b94 2ebe a0cc 17be 9b7d 8abe c8a2 28be
00000070: e3e9 c73e c9b1 753e 4474 0fbc a506 363d
00000080: 0e97 293d c13b 9f3c c385 023f ad10 65be
00000090: 2ddf 84be 457d a5bc fb1b 9ebe 2277 a1be
000000a0: 5c97 93be ce80 b3be 5fe1 02be 18b7 913f
000000b0: 153f 183d e84c 86be 6b95 bfbd 4a69 cbbe
000000c0: 9e63 c53e 0997 92be 69f1 eabd 7ce9 b63e
000000d0: 0557 13be cee3 ccbd 1eb3 193c 0b13 c1be
000000e0: 081a 4a3e 9faa 8e3e 3547 3d3e 8882 4cbd
000000f0: e167 afbe b17d a73d f7d7 61be 644e 2dbe

base.mlp.fc2.0.2.weight f4 [64]
0.61831325 0.64558464 0.884435 0.81963223 0.9627345 0.5655115 0.9470544 0.29213387
0.27316684 0.80345505 0.61267567 0.57707673 0.72035736 0.6349427 0.69086385 0.91631395
0.5340267 0.12112146 0.4555793 0.6632294 0.7289532 0.5905505 0.7807589 0.63954
0.8065375 0.86456275 0.69811136 0.8073467 0.817561 0.58726734 0.56899613 0.66222763
0.06179246 0.09798672 1.190127 0.6406973 0.6539167 0.7419616 0.6863578 0.62677556
0.39254406 0.8232151 0.75366616 0.808804 0.5851669 0.7623322 0.24895872 0.8180468
0.8538589 0.6075675 0.15911865 0.109836556 0.9178698 -0.0027610743 0.22137246 0.7627931
0.6548436 0.8323711 1.1162547 0.2934566 0.7545707 0.3561263 0.37104952 0.6097392
00000000: c749 1e3f 0945 253f 556a 623f 6bd3 513f
00000010: c575 763f 5dc5 103f 2872 723f 9292 953e
00000020: 86dc 8b3e 3baf 4d3f 50d8 1c3f 4dbb 133f
00000030: 5769 383f 9b8b 223f 74dc 303f 8d93 6a3f
00000040: f9b5 083f 870e f83d b141 e93e 67c9 293f
00000050: ad9c 3a3f 512e 173f d1df 473f e5b8 233f
00000060: 3e79 4e3f fc53 5d3f 6db7 323f 46ae 4e3f
00000070: ad4b 513f 2757 163f bba9 113f c087 293f
00000080: 171a 7d3d 43ad c83d 1556 983f bd04 243f
00000090: 1667 273f 32f1 3d3f 25b5 2f3f 5d74 203f
000000a0: 89fb c83e 3abe 523f 44f0 403f c70d 4f3f
000000b0: 7fcd 153f 3428 433f 09ef 7e3e 846b 513f
000000c0: 7f96 5a3f 8b89 1b3f 00f0 223e fdf1 e03d
000000d0: 84f9 6a3f 24f3 34bb 76af 623e 6946 433f
000000e0: d5a3 273f 4616 553f 6fe1 8e3f f23f 963e
000000f0: 8c2b 413f 3056 b63e 34fa bd3e de17 1c3f

base.mlp.fc2.0.2.bias f4 [64]
0.1090626 0.19244431 -0.16079415 0.23203066 0.06036657 0.1899155 0.034613412 -0.03754093
-0.08499535 0.14946501 0.14406529 0.18868089 0.20301509 0.08336241 0.23206471 0.009174777
-0.0745962 -0.008928326 -0.07353576 0.04731483 0.10804036 0.23244356 0.075778574 0.09453191
0.2228264 0.021381363 0.17660747 0.16936298 -0.09399523 0.116125986 0.06556259 0.065071024
-0.02690392 -0.017972207 -0.04991102 0.21598044 0.15665823 0.12999502 0.1802344 0.18435653
0.10618726 0.13560614 0.17138436 -0.09809685 0.068708375 0.16221273 -0.043421306 0.19956245
0.12534994 0.14868782 0.016764404 -0.08964106 -0.12621036 0.006535291 0.0015784518 0.06666914
0.05431965 0.05783702 0.03135708 -0.03668949 0.26683128 -0.11771008 0.1125252 0.20074113
00000000: 365c df3d 1f10 453e 39a7 24be 7299 6d3e
00000010: f042 773d 3579 423e cbc6 0d3d 85c4 19bd
00000020: 0b12 aebd 5b0d 193e da85 133e 9035 413e
00000030: 30e3 4f3e e9b9 aa3d 5fa2 6d3e ce51 163c
00000040: e4c5 98bd 1d48 12bc eb99 96bd 32cd 413d
00000050: 4444 dd3d af05 6e3e cc31 9b3d f299 c13d
00000060: 9b2c 643e f827 af3c 97d8 343e 7d6d 2d3e
00000070: 9280 c0bd 76d3 ed3d ae45 863d f543 853d
00000080: 9c65 dcbc 733a 93bc 7f6f 4cbd fa29 5d3e
00000090: 046b 203e 6a1d 053e 5e8f 383e f5c7 3c3e
000000a0: b578 d93d 56dc 0a3e 627f 2f3e 00e7 c8bd
000000b0: fab6 8c3d 181b 263e 8ada 31bd 195a 4c3e
000000c0: bc5b 003e 9f41 183e 8155 893c bb95 b7bd
000000d0: 4a3d 01be ff25 d63b 0ee4 ce3a d489 883d
000000e0: 487e 5e3d 83e6 6c3d 4870 003d b847 16bd
000000f0: 1c9e 883e fc11 f1bd 9d73 e63d 158f 4d3e

rnn.rnn.weight_ih_l0 f4 [192, 64]
-0.043841355 -0.016388312 0.22004236 0.12933227 -0.04333824 -0.19182736 -0.044306196 -0.042598575
0.07872963 0.0066548185 -0.061656885 0.024948655 -0.102472365 0.016345797 -0.042784233 -0.048963025
0.027138097 0.027657533 -0.06422739 -0.18034677 0.14493558 -0.11632048 0.06900657 0.100493364
0.12957731 -0.037601046 -0.15383147 0.1678808 0.27871582 -0.027828427 0.027606059 -0.1835509
0.010890072 -0.024890995 -0.13787286 0.07200391 -0.083137624 -0.15557846 -0.11684158 -0.029647635
-0.048464406 -0.13087423 -0.12623776 0.092771135 -0.12016475 0.04962319 0.13514312 0.0029133065
-0.071461625 0.011797704 0.09856598 0.13976982 -0.024158468 0.044394977 -0.035381988 0.031075856
-0.116519 -0.07596768 -0.10101365 0.07449563 -0.044646773 0.07565983 -0.020551605 0.025114397
0.5768825 -0.24649423 -0.30593377 -0.4534927 0.2396991 -0.38389152 0.5228831 -0.21983649
-0.16046491 -0.043506347 -0.054351866 0.036526036 -0.20869102 0.40164635 -0.14718503 0.2917807
-0.5050517 -0.29759735 -0.3048566 0.07423086 0.36101326 -0.036043376 0.42708153 0.45961767
-0.3715271 -0.030851617 0.19820392 0.11847031 -0.18822491 0.46452868 0.52757525 0.48943976
0.024608253 -0.030833324 0.5400862 -0.16969459 0.43989038 0.28922847 0.47928697 -0.13923302
-0.21047598 0.23445858 0.083885714 0.11443744 0.44998273 -0.044790097 -0.11685164 -0.47359073
0.65730405 -0.23322964 -0.118260585 0.02889891 -0.57734495 -0.05858037 -0.16876778 0.14026427
0.55747837 0.45634782 0.5453885 -0.0005298186 -0.3035568 -0.22876386 -0.0022272004 0.6203494
-0.1828917 -0.12334571 0.0307502 -0.12906928 -0.06257622 0.038090557 0.03165546 -0.051915854
0.03534911 -0.19951913 -0.10792105 0.01706035 0.0144619895 -0.20713623 0.122751474 -0.036560196
0.13490997 0.008539315 -0.14742343 -0.108285055 -0.1038829 0.03998863 0.0018818289 0.019186532
0.053269383 -0.07615392 -0.04300728 0.014777673 0.28791454 0.11192217 -0.0515016 -0.0071503245
0.17319877 -0.09237195 0.022012478 -0.093136735 -0.034748446 -0.21376637 -0.03632206 0.19294974
0.120481685 0.019592805 -0.07893953 0.16563101 -0.08825602 -0.0044491864 -0.062149126 0.03586024
0.18930116 0.010378274 0.024287201 0.03718561 0.10000995 -0.07444055 0.011564899 -0.06433863
-0.03981547 -0.028847767 0.18295313 -0.025053103 -0.03138728 0.014446299 -0.15288465 0.14601058
-0.03675713 -0.1420094 0.05199731 -0.087488055 -0.19383949 -0.19185877 0.18592472 -0.25502685
-0.002376414 -0.02610354 -0.061572902 0.08450268 0.03204619 0.10052735 -0.008826808 -0.027946241
-0.18338257 -0.13395546 -0.065865554 0.14633724 -0.06944457 0.07373291 0.009914297 0.011832859
-0.15269026 -0.10441507 -0.053669326 -0.12936978 0.2330907 0.09140507 0.23439753 0.041812215
0.10272204 -0.040460497 -0.003184854 -0.00629628 -0.024965359 0.11566315 -0.035184614 -0.14706628
0.0076133385 0.015735067 -0.1042529 0.34768352 0.17245686 0.094905786 -0.014804695 -0.09172505
0.022221668 -0.21496026 -0.05079642 0.012062517 -0.22043169 -0.0018534809 -0.042025995 0.006736265
0.020070499 -0.11591694 0.43012282 0.14213242 -0.003980566 0.024073033 0.0043950863 -0.021383548
00000000: fe92 33bd c840 86bc c952 613e ae6f 043e
00000010: 7083 31bd 646e 44be 6a7a 35bd d87b 2ebd
00000020: 003d a13d aa10 da3b ee8b 7cbd 1f61 cc3c
00000030: 08dd d1bd 9fe7 853c 853e 2fbd 748d 48bd
00000040: b750 de3c 0d92 e23c a689 83bd d3ac 38be
00000050: fe69 143e 6f39 eebd 5153 8d3d 77cf cd3d
00000060: eaaf 043e 8e03 1abd ff85 1dbe f2e8 2b3e
00000070: d7b3 8e3e 71f8 e3bc 1a26 e23c c4f4 3bbe
00000080: 466c 323c 33e8 cbbc 8b2e 0dbe c976 933d
00000090: 0f44 aabd f64f 1fbe a34a efbd 99df f2bc
000000a0: 9d82 46bd e503 06be 7944 01be cbfe bd3d
000000b0: f018 f6bd b041 4b3d f562 0a3e 2ced 3e3b
000000c0: 795a 92bd 284b 413c f6dc c93d d21f 0f3e
000000d0: fbe7 c5bc 82d7 353d b4ec 10bd cb92 fe3c
000000e0: 83a1 eebd f194 9bbd 3fe0 cebd 2a91 983d
000000f0: 89df 36bd 8af3 9a3d d75b a8bc b5bc cd3c
00000100: 92ae 133f fc68 7cbe 5aa3 9cbe 3230 e8be
00000110: ae73 753e 6e8d c4be abdb 053f d11c 61be
00000120: ea50 24be b633 32bd 10a0 5ebd 539c 153d
00000130: 19b3 55be 97a4 cd3e acb7 16be 4864 953e
00000140: 114b 01bf ae5e 98be 2a16 9cbe 5906 983d
00000150: bbd6 b83e 38a2 13bd 6eaa da3e 0253 eb3e
00000160: cd38 bebe 88bc fcbc f8f5 4a3e 90a0 f23d
00000170: 08be 40be b4d6 ed3e 2c0f 073f d997 fa3e
00000180: 3f97 c93c 2b96 fcbc 1743 0a3f 6bc4 2dbe
00000190: 5039 e13e c115 943e 1a65 f53e 1a93 0ebe
000001a0: 0487 57be e915 703e 46cc ab3d 2d5e ea3d
000001b0: 2364 e63e d275 37bd ea4f efbd 7c7a f2be
000001c0: 1445 283f c0d3 6ebe 9b32 f2bd 68bd ec3c
000001d0: e1cc 13bf f8f1 6fbd 76d1 2cbe 70a1 0f3e
000001e0: e7b6 0e3f 6ca6 e93e 959e 0b3f 86e3 0aba
000001f0: cc6b 9bbe 1341 6abe 39f6 11bb 38cf 1e3f
00000200: f647 3bbe ad9c fcbd d8e7 fb3c bd2a 04be
00000210: f627 80bd d804 1c3d 28a9 013d b8a5 54bd
00000220: 3aca 103d be4e 4cbe b605 ddbd 26c2 8b3c
00000230: fbf1 6c3c 851b 54be 2065 fb3d 25c0 15bd
00000240: d725 0a3e 7ce8 0b3c 2bf6 16be 8ec4 ddbd
00000250: 8fc0 d4bd 1ecb 233d b3a7 f63a 132d 9d3c
00000260: ff30 5a3d 96f6 9bbd 6728 30bd 0e1e 723c
00000270: 8969 933e 7337 e53d 57f3 52bd 454d eabb
00000280: 055b 313e 812d bdbd 8353 b43c 79be bebd
00000290: 6354 0ebd 92e5 5abe 71c6 14bd 9e94 453e
000002a0: 1abf f63d 1781 a03c 0cab a1bd 2d9b 293e
000002b0: 92bf b4bd 7bca 91bb 1590 7ebd 30e2 123d
000002c0: 2ad8 413e a309 2a3c f4f5 c63c f04f 183d
000002d0: 04d2 cc3d 4974 98bd b47a 3d3c f9c3 83bd
000002e0: 8c15 23bd 2752 ecbc 1158 3b3e 2a3c cdbc
000002f0: f38f 00bd 2bb0 6c3c cb8d 1cbe cc83 153e
00000300: a58e 16bd ea6a 11be 22fb 543d f02c b3bd
00000310: dc7d 46be a076 44be 0d63 3e3e e192 82be
00000320: 9cbd 1bbb 17d7 d5bc de33 7cbd be0f ad3d
00000330: de42 033d 49e1 cd3d 519e 10bc 84ef e4bc
00000340: a4c8 3bbe 9f2b 09be 85e4 86bd 6ed9 153e
00000350: f438 8ebd 4801 973d 936f 223c 9cde 413c
00000360: d65a 1cbe 91d7 d5bd 5ed4 5bbd 8379 04be
00000370: 54af 6e3e 9532 bb3d e805 703e 4943 2b3d
00000380: ef5f d23d e8b9 25bd fcb8 50bb 0651 cebb
00000390: 2784 ccbc cde0 ec3d be1d 10bd 8b98 16be
000003a0: 5079 f93b d4e6 803c 8b82 d5bd 9303 b23e
000003b0: 8898 303e f75d c23d 648f 72bc 58da bbbd
000003c0: 370a b63c 8b1e 5cbe e80f 50bd dda1 453c
000003d0: d8b8 61be 80f0 f2ba 7323 2cbd e3bb dc3b
000003e0: e36a a43c dc65 edbd 0f39 dc3e 298b 113e
000003f0: 686f 82bb cf34 c53c a804 903b 8d2c afbc

rnn.rnn.weight_hh_l0 f4 [192, 64]
0.10440862 -0.13723129 -0.20556287 0.10519126 0.17048815 -0.18092118 -0.022627056 0.059324294
0.1221877 -0.032299116 -0.016616711 -0.015869077 0.08902281 -0.17678313 -0.06569054 0.0526779
-0.1391264 -0.026821768 0.16071934 0.055674367 0.004192513 0.088943034 -0.10176596 0.0048599713
-0.05830885 0.11445057 -0.069690466 0.019518672 -0.0560436 0.14429049 -0.034380242 -0.1495182
0.08439492 -0.048647035 -0.108918704 0.06963976 0.040556114 -0.0655495 0.04205318 0.1459757
-0.18072046 -0.040300034 0.17923205 0.0894508 -0.16816787 0.14990948 -0.18962514 0.108061075
0.09687449 0.08767526 -0.0529823 -0.06231331 0.02838052 -0.008198221 -0.17118071 0.078336336
-0.026729364 -0.08233433 -0.30335256 -0.117109716 0.113681935 -0.07294178 -0.107502915 0.09372688
0.1147447 0.24118015 -0.040217493 -0.004227764 0.083368406 0.08350891 -0.1995049 0.35016593
0.46948338 -0.110910706 -0.044806637 -0.003297833 0.17082025 0.065596946 0.45254463 -0.17073612
-0.16456401 -0.040492162 0.03946155 0.20108424 -0.05586954 0.08409225 0.124883644 -0.26272082
0.17186406 0.41841456 0.037743896 -0.122359745 0.12524927 0.06099104 -0.07037618 -0.16378933
0.059266444 -0.101557024 0.1557727 0.1446617 -0.074505284 -0.090023175 -0.16504595 0.14326802
-0.07234021 -0.052147694 -0.09395872 -0.08189934 0.43017682 -0.05221901 -0.04083647 -0.08857974
0.12361935 -0.040537816 -0.039961316 0.13831684 -0.12430244 0.37574917 -0.30031592 -0.42291236
-0.02082416 -0.18109891 -0.53052074 0.013757943 -0.0020344825 0.3461492 -0.31052378 0.21441089
0.17224602 -0.28301924 -0.048398253 0.14727396 0.10331925 0.009330738 0.0034564384 -0.069996476
-0.021271437 -0.08716865 0.17383085 -0.10918586 0.09962968 -0.06297199 -0.012758973 0.13125582
-0.07423825 -0.12012132 0.0481058 -0.010723344 0.058505885 -0.031226864 -0.030459268 0.053583063
-0.079215646 0.063715234 -0.02386848 -0.108879164 -0.14417057 0.23814143 -0.07113051 -0.093197666
-0.010137958 -0.0142335575 -0.12491559 0.026422486 0.12476012 -0.08720666 -0.117081925 -0.013505259
-0.18698771 -0.08659873 0.14705843 0.060717065 0.013366146 -0.066123985 -0.020507077 0.1209922
0.10544354 -0.041229352 -0.01795916 -0.06295407 0.02222019 -0.07451893 -0.09814991 0.09302547
0.02213166 -0.09482625 -0.087726936 -0.024492921 0.016598899 -0.00302593 0.14574045 0.18063596
0.20748013 0.039400134 -0.2204158 0.0443123 0.016940145 -0.16468777 -0.15071984 0.23396777
-0.20928845 -0.3112487 0.12370203 -0.14075549 -0.03729486 0.067933045 -0.02213569 -0.09377978
-0.09230778 -0.012347641 0.16104017 0.00900906 0.043992456 0.076118335 0.21084084 -0.07371796
-0.1897795 0.18831687 -0.11495735 -0.12127717 0.19124 0.22613765 -0.0681335 0.046728764
0.01449243 -0.07372716 -0.31378564 -0.11917279 0.44811147 -0.11221203 -0.13759364 0.14412741
-0.15262315 -0.12029526 0.034373634 0.19645701 -0.026732435 -0.0016652603 0.09822037 -0.04079966
0.15300709 -0.03851705 0.22071555 0.06995625 -0.097729154 -0.022731235 -0.24609171 -0.17190304
-0.0741389 -0.1154922 -0.15802714 -0.02855104 -0.0806176 -0.06538388 -0.07839742 -0.066768974
00000000: 30d4 d53d 5c86 0cbe 137f 52be 846e d73d
00000010: 7294 2e3e 6743 39be 605c b9bc 08fe 723d
00000020: 8b3d fa3d 144c 04bd c51f 88bc deff 81bc
00000030: 9751 b63d a306 35be c388 86bd c8c4 573d
00000040: 2777 0ebe 53b9 dbbc 9c93 243e ce0a 643d
00000050: 5961 893b c427 b63d ac6a d0bd 6540 9f3b
00000060: 43d5 6ebd 0f65 ea3d e0b9 8ebd 9fe5 9f3c
00000070: f98d 65bd e3c0 133e 4cd2 0cbd 4d1b 19be
00000080: 3ed7 ac3d 1d42 47bd c510 dfbd 4a9f 8e3d
00000090: 2b1e 263d d13e 86bd f53f 2c3d a77a 153e
000000a0: c90e 39be a611 25bd 9b88 373e fb31 b73d
000000b0: 3334 2cbe df81 193e 182d 42be 204f dd3d
000000c0: 2266 c63d 168f b33d f803 59bd 3e3c 7fbd
000000d0: 447e e83c d551 06bc ff49 2fbe cd6e a03d
000000e0: 8af7 dabc e79e a8bd 0751 9bbe 38d7 efbd
000000f0: 13d2 e83d 8062 95bd 7d2a dcbd e1f3 bf3d
00000100: 45ff ea3d eef7 763e 19bb 24bd 0e89 8abb
00000110: 0ebd aa3d b806 ab3d 034b 4cbe f348 b33e
00000120: 2060 f03e 2725 e3bd 2a87 37bd 7520 58bb
00000130: 81eb 2e3e b157 863d eeb3 e73e 73d5 2ebe
00000140: 7883 28be 1cdb 25bd 6fa2 213d 07e9 4d3e
00000150: 75d7 64bd 8f38 ac3d ffc2 ff3d 5883 86be
00000160: 22fd 2f3e 6f3a d63e 5899 1a3d bf97 fabd
00000170: 5841 003e bed1 793d 6321 90bd 64b8 27be
00000180: 5fc1 723d 21fd cfbd e182 1f3e 3222 143e
00000190: 3a96 98bd 125e b8bd ce01 29be dab4 123e
000001a0: 1b27 94bd d298 55bd 6e6d c0bd d7ba a7bd
000001b0: 2340 dc3e 9ae3 55bd 2444 27bd 4b69 b5bd
000001c0: 242c fd3d fb0a 26bd 7aae 23bd eea2 0d3e
000001d0: 4792 febd 3262 c03e 02c3 99be f887 d8be
000001e0: 6e97 aabc fe71 39be 35d0 07bf ff68 613c
000001f0: f454 05bb 783a b13e f9fc 9ebe 878e 5b3e
00000200: 4361 303e e6e7 90be 3f3d 46bd fcce 163e
00000210: 0b99 d33d f4df 183c 6a85 623b 505a 8fbd
00000220: 7041 aebc 7a85 b2bd b700 323e d69c dfbd
00000230: a50a cc3d 75f7 80bd 030b 51bc ed67 063e
00000240: 390a 98bd 2b02 f6bd 960a 453d f7b0 2fbc
00000250: dea3 6f3d 7bcf ffbc b785 f9bc ea79 5b3d
00000260: d03b a2bd 227d 823d d587 c3bc 0afc debd
00000270: 73a1 13be 59db 733e dfac 91bd 6bde bebd
00000280: ae19 26bc de33 69bc bfd3 ffbd f873 d83c
00000290: 3c82 ff3d 6899 b2bd a6c8 efbd 2945 5dbc
000002a0: b579 3fbe ad5a b1bd 7c96 163e 75b2 783d
000002b0: aefd 5a3c 036c 87bd 75fe a7bc c2ca f73d
000002c0: c8f2 d73d 1ce0 28bd 171f 93bc 10ee 80bd
000002d0: 1e07 b63c 619d 98bd d202 c9bd 2384 be3d
000002e0: 744d b53c 4434 c2bd 2eaa b3bd 61a5 c8bc
000002f0: 6afa 873c ae4e 46bb fc3c 153e a2f8 383e
00000300: ac75 543e 0962 213d aeb4 61be d080 353d
00000310: 0fc6 8a3c e9a3 28be 4d56 1abe 3f95 6f3e
00000320: b64f 56be fd5b 9fbe 7d57 fd3d 3522 10be
00000330: 7fc2 18bd 7b20 8b3d e855 b5bc 9d0f c0bd
00000340: dd0b bdbd c34d 4abc b7e7 243e bd9a 133c
00000350: 6f31 343d eee3 9b3d a9e6 573e 71f9 96bd
00000360: 8f55 42be 23d6 403e c26e ebbd 2a60 f8bd
00000370: 6bd4 433e a190 673e 9489 8bbd a966 3f3d
00000380: a871 6d3c 44fe 96bd 83a8 a0be dd10 f4bd
00000390: de6e e53e 6ccf e5bd 59e5 0cbe 2396 133e
000003a0: 3e49 1cbe 5c5d f6bd 5ecb 0c3d 072c 493e
000003b0: fbfd dabc dd44 daba c327 c93d 8b1d 27bd
000003c0: e4ad 1c3e 0ec4 1dbd 4203 623e 3945 8f3d
000003d0: 3926 c8bd db36 babc 77ff 7bbe 5a07 30be
000003e0: 23d6 97bd 2d87 ecbd ded1 21be dfe3 e9bc
000003f0: d71a a5bd fce7 85bd d48e a0bd 2cbe 88bd
