train/mappo/results/MPE/formation_hd_env/rmappo/hd_7/run1/models/critic.pt (torch, 215660 bytes, 21 tensors)

base.feature_norm.weight f4 [280]
000000 94 38 b2 3f b4 8a cb 3f 7a 0d 99 3f af 98 aa 3f
       1.3923516 1.5901704 1.1957238 1.3327845
000010 7d f8 89 3f f2 cc 9c 3f 01 f2 b6 3f 18 f0 82 3f
       1.0778958 1.2250044 1.4292604 1.0229521
000020 df 83 a9 3f c7 c3 86 3f 86 6a a7 3f 78 fa a0 3f
       1.3243369 1.0528497 1.3079383 1.2576437
000030 d1 d5 95 3f d3 c9 9e 3f e5 c9 97 3f 52 9f a1 3f
       1.1705877 1.2405342 1.1858488 1.2626746
000040 1f 4f 07 3f 55 f2 09 3f eb 54 01 3f af 93 27 3f
       0.52855104 0.53885394 0.505202 0.6545972
000050 56 ab f7 3e a4 e2 bb 3e ba 98 e8 3e e6 b2 db 3e
       0.48372906 0.3669635 0.4542902 0.42909926
000060 9f f4 2b 3f e8 b1 18 3f c4 a2 f5 3e 57 50 03 3f
       0.6717014 0.59646463 0.47975743 0.51294464
000070 64 e7 77 3f f2 d9 7b 3f 60 6f 86 3f 96 7a 83 3f
       0.9683745 0.98379433 1.0502739 1.0271785
000080 39 1e 86 3f 6f 47 6c 3f b1 6d 85 3f 8f 8e 75 3f
       1.0477973 0.922965 1.04241 0.9592065
000090 43 4b 82 3f e3 4e 8a 3f 44 52 8e 3f 65 81 87 3f
       1.0179218 1.0805324 1.1118855 1.0586363
0000a0 ba 64 a3 3f 2b 71 d4 3f 82 92 94 3f 4f c2 a2 3f
       1.2765114 1.6597036 1.1607211 1.2715548
0000b0 fe 8a 8d 3f ca 4d a9 3f cb 21 8c 3f a1 3f bb 3f
       1.1058042 1.3226864 1.0947813 1.4628793
0000c0 b8 54 a7 3f 78 51 8d 3f 5c 2a 7b 3f 68 ed b1 3f
       1.3072729 1.1040487 0.9811151 1.3900576
0000d0 06 99 94 3f d3 27 a0 3f 97 e5 9f 3f 39 fc 9c 3f
       1.1609199 1.2512153 1.249194 1.2264472
0000e0 80 76 b8 3e 89 79 0f 3f f6 ce db 3e b1 af 27 3f
       0.36027908 0.5604482 0.42931336 0.6550246
0000f0 e8 8f c9 3e 5b 5d 02 3f 96 7c 11 3f e3 17 19 3f
       0.39367604 0.509237 0.5683073 0.59802073
000100 3c 6f 09 3f c7 a5 0d 3f 5a 16 15 3f eb 65 45 3f
       0.53685355 0.5533108 0.5823723 0.7710864
000110 58 ef 83 3f 6e 01 71 3f 6e 45 7e 3f 4d 0c 80 3f
       1.0307417 0.94142807 0.9932469 1.0003754
000120 84 7c 85 3f 72 6d 79 3f 2d d2 77 3f 1b 21 8a 3f
       1.0428624 0.97432625 0.9680508 1.0791353
000130 f7 95 70 3f ff 78 86 3f 9e 23 7d 3f 0c e1 8f 3f
       0.9397883 1.0505675 0.9888247 1.1240554
000140 a9 92 d7 3f 47 d2 d7 3f 66 00 a7 3f 31 ee 9f 3f
       1.6841632 1.6861047 1.3046997 1.2494565
000150 0e a3 a3 3f ec 95 b4 3f 87 19 9b 3f 23 3e b2 3f
       1.2784135 1.4108253 1.2117165 1.3925213
000160 ff a4 93 3f 6b 4a b2 3f f3 fb 7c 3f 0d 00 bd 3f
       1.1534728 1.392896 0.98821944 1.476564
000170 39 4a 8e 3f 19 2e a2 3f 57 f8 9c 3f b6 0c 90 3f
       1.1116401 1.2670318 1.2263287 1.1253879
000180 f1 9c ed 3e 71 c8 16 3f 4a cb 29 3f 9f d1 e2 3e
       0.464088 0.588996 0.6632582 0.44300553
000190 fd c9 2e 3f d5 02 ae 3e fd 79 13 3f f1 77 1b 3f
       0.6827696 0.33986536 0.57608014 0.6072989
0001a0 a0 b3 2c 3f f1 ac dd 3e 62 c3 ab 3e a5 f0 10 3f
       0.67461586 0.43296006 0.33547503 0.56617194
0001b0 c7 32 8d 3f 39 fb 7d 3f 82 0a 7e 3f 70 92 73 3f
       1.1031121 0.9921146 0.99234784 0.9514532
0001c0 01 76 89 3f 56 13 89 3f 07 fa 8d 3f 04 ba 54 3f
       1.0739137 1.0709026 1.1091927 0.8309634
0001d0 ff 7e 89 3f b6 4a 7e 3f 97 63 7b 3f 7d 0d 8b 3f
       1.0741881 0.9933275 0.9819884 1.0863491
0001e0 01 12 c1 3f 4d 59 cb 3f 1c 29 b9 3f 2f e9 af 3f
       1.5083619 1.5886627 1.446567 1.3743037
0001f0 d8 89 90 3f ba c2 b3 3f cb 55 74 3f 57 05 a6 3f
       1.1292067 1.4043801 0.9544341 1.297038
000200 0c 87 a4 3f 2f d3 a2 3f bb 40 9f 3f e1 6f 93 3f
       1.2853713 1.2720698 1.2441629 1.1518518
000210 c2 9b 8c 3f 2c c2 9c 3f 68 21 aa 3f df df a2 3f
       1.0985034 1.2246757 1.3291445 1.272457
000220 4c fa eb 3e 59 85 e7 3e 8f ac ca 3e b5 b9 12 3f
       0.460894 0.45218924 0.39584777 0.57314616
000230 fa b1 08 3f f9 9f 1a 3f f3 22 24 3f a2 16 15 3f
       0.5339657 0.6040035 0.6411583 0.5823766
000240 f4 e3 17 3f 2d 5f 0f 3f f2 4e ef 3e 29 a5 06 3f
       0.59332204 0.560046 0.46739918 0.52595764
000250 60 c6 75 3f 8f 0e 69 3f 05 8a 84 3f e9 41 8e 3f
       0.9600582 0.9103784 1.035462 1.1113864
000260 e4 4e 8e 3f 6e 7b 83 3f 97 c7 83 3f 7a c5 87 3f
       1.1117826 1.0272043 1.0295285 1.060714
000270 a3 0d 94 3f 2d 56 8a 3f f6 09 79 3f 77 56 7b 3f
       1.1566662 1.0807549 0.97280824 0.9817881
000280 19 f8 d1 3f 3f 32 bf 3f 88 9e a2 3f d4 7d a2 3f
       1.6403838 1.4937209 1.270463 1.269465
000290 86 25 ae 3f e6 c9 9f 3f 2b b3 75 3f 34 99 9e 3f
       1.3605201 1.248349 0.95976514 1.2390504
0002a0 8a be 92 3f fc 9f 8e 3f a9 ee 8c 3f 22 27 9e 3f
       1.1464398 1.1142573 1.1010333 1.2355692
0002b0 60 4f 91 3f cf 75 94 3f 5b cb 8d 3f 8d 77 ab 3f
       1.1352348 1.1598452 1.1077684 1.3395859
0002c0 1a ee ec 3e 9b 6b e0 3e 46 59 88 3e a8 73 a2 3e
       0.46275407 0.43832096 0.2663061 0.31728864
0002d0 ab cf 0f 3f de 1f ba 3e 74 36 dc 3e 93 59 01 3f
       0.5617625 0.36352438 0.43010294 0.50527304
0002e0 c3 df 15 3f 15 fb 17 3f 33 b1 d2 3e d8 42 eb 3e
       0.5854456 0.59367496 0.41150817 0.45949435
0002f0 8e 69 70 3f ff 69 69 3f d0 ab 72 3f 08 bb 80 3f
       0.93911064 0.9117736 0.94793415 1.0057077
000300 3a 3a 83 3f 93 4e 7b 3f 77 28 80 3f 6d b5 82 3f
       1.0252144 0.9816677 1.0012349 1.0211617
000310 23 89 7a 3f d5 a1 83 3f 88 5a 88 3f 21 e0 81 3f
       0.97865504 1.0283762 1.0652628 1.0146524
000320 c8 2b b4 3f c5 6a c7 3f 46 a7 97 3f 3c 5b 8d 3f
       1.4075861 1.5579458 1.1847923 1.1043468
000330 8d 45 9e 3f bd cf 85 3f b8 aa a0 3f 94 01 b9 3f
       1.2364975 1.0454022 1.2552099 1.4453607
000340 fe 52 91 3f f3 44 b1 3f 10 27 8e 3f 16 89 9d 3f
       1.1353452 1.3849167 1.1105671 1.230746
000350 d9 fa 80 3f d5 3e a9 3f 7b ab 8b 3f 0d 62 9b 3f
       1.0076553 1.32223 1.0911707 1.2139298
000360 60 6f be 3e 88 57 23 3f da 69 a4 3e c2 c3 0a 3f
       0.37194347 0.6380544 0.32112008 0.5420495
000370 3e 73 07 3f 8e b3 22 3f cf 3e 97 3e 8b cd 05 3f
       0.5291022 0.6355523 0.29540107 0.5226676
000380 25 65 10 3f 77 44 51 3e a1 f6 fb 3e d4 23 0f 3f
       0.56404334 0.20436274 0.492116 0.55914044
000390 8b 08 7b 3f b6 5b 86 3f 87 81 77 3f 89 f2 83 3f
       0.9805991 1.0496738 0.9668202 1.0308391
0003a0 fc ad 84 3f 6b 2a 8e 3f 39 80 8f 3f 11 46 85 3f
       1.0365596 1.1106695 1.1211005 1.0412008
0003b0 83 11 7e 3f 80 75 7d 3f f4 0f 75 3f 9b b8 89 3f
       0.9924547 0.99007416 0.9572747 1.0759462
0003c0 06 7a cc 3f 72 60 c8 3f 08 3c a5 3f 4f d2 ac 3f
       1.5974739 1.5654433 1.2908945 1.3501681
0003d0 f1 c5 ad 3f ee 76 a0 3f 00 e0 ab 3f 48 f8 a2 3f
       1.3576032 1.2536294 1.3427734 1.273202
0003e0 e8 40 b3 3f 10 f0 b5 3f 31 5d 9d 3f 19 ff 9e 3f
       1.4004183 1.4213886 1.2294065 1.24216
0003f0 0e 20 65 3f 5f 4a a5 3f 55 08 99 3f 15 42 9d 3f
       0.89502037 1.2913321 1.1955668 1.2285792

base.feature_norm.bias f4 [280]
000000 60 93 d2 bb 4e 52 a8 bc a8 35 fc 3d b0 bb 86 3e
       -0.00642626 -0.020547058 0.123149216 0.2631507
000010 67 69 b6 bc 01 7c 4a be 4d 98 cf 3c b9 7d 93 3d
       -0.022267057 -0.19773866 0.025341177 0.07201714
000020 bc c2 47 3e 1a 93 1f 3e e2 d9 1a be 74 3a 9e be
       0.19507879 0.15583459 -0.15122178 -0.3090397
000030 39 ab 57 be 44 bf 85 be ea 56 5a 3d 14 a4 ac bd
       -0.2106141 -0.26122487 0.053305544 -0.08429733
000040 02 cf 0c 3d 65 10 81 be 49 ae 5b 3d e4 c9 af 3e
       0.034377106 -0.2520782 0.05363301 0.34333718
000050 37 aa a6 be af bf 3f 3e 45 06 e8 bd 3b f0 f7 3d
       -0.3255174 0.18725465 -0.11329321 0.12106367
000060 63 4a 01 3e 63 39 3e 3d da 90 be bd 00 24 85 bd
       0.12626033 0.046441447 -0.09304972 -0.06501007
000070 7c 22 de 3e c5 9c 4b 3f 9c bb 78 be ef 22 2b 3f
       0.43385684 0.79536086 -0.24290317 0.6685018
000080 22 a7 c8 3d 4f e8 06 3f b6 3b 4a 3e 99 a1 51 3f
       0.09797503 0.52698225 0.1974934 0.81887203
000090 2f ca 25 3f 2b 7f 57 bf 85 89 0f bf d8 ce a1 bd
       0.6476163 -0.8417842 -0.56069213 -0.079007804
0000a0 79 31 4e be 9b ca 2d be 18 82 5a 3e 4e 5d e7 bd
       -0.2013606 -0.16971819 0.2133869 -0.11297093
0000b0 8d 03 a5 bd 6e 71 42 bd ce 54 b5 3b 91 e3 3a be
       -0.08057318 -0.047471456 0.005533791 -0.18250872
0000c0 b6 34 c6 3d 5a 05 c0 3e e6 aa cc 3b b8 e8 c9 3d
       0.096780226 0.37504083 0.0062459586 0.09858841
0000d0 0d d8 64 bd 59 f1 33 bd 07 20 99 3e 6f ed 80 be
       -0.055870105 -0.04393134 0.29907247 -0.25181147
0000e0 fd d0 63 bd 1f 40 a6 bb f5 6d 16 3e b7 69 64 bd
       -0.05561923 -0.005073562 0.14690383 -0.05576488
0000f0 9e fa 60 3e 2e 94 83 3d ae 69 d8 3d f3 78 cf bd
       0.21970603 0.064247474 0.10567032 -0.10130491
000100 23 c7 21 3e 0c 7c 66 be bd b2 9c be a9 ce 98 be
       0.15798621 -0.22508258 -0.30605116 -0.2984517
000110 cd d8 54 3e 34 75 1b be 88 00 aa 3e 77 71 20 3d
       0.20785828 -0.15181428 0.3320353 0.03917071
000120 b7 0a 53 3e 1e f6 ae 3d 00 d8 10 3e 06 c0 c5 be
       0.20609556 0.08543037 0.14144897 -0.38623065
000130 4b a4 ce 3e 5a 9b e7 3e 02 4a a6 3e fd f5 3b bf
       0.4035972 0.4523571 0.32478338 -0.73422223
000140 51 cb 26 3e 02 d0 e4 3d 6e ae 49 3e 90 d8 1f 3e
       0.16288497 0.11172487 0.19695446 0.15609956
000150 49 4b 91 3e b7 45 cd bc 64 74 d1 bd 01 25 5b 3d
       0.2837775 -0.025057657 -0.10227278 0.053502087
000160 78 12 57 3e fc cc 47 3e f1 38 9d 3e 79 41 d8 bd
       0.21003139 0.19511789 0.30707505 -0.10559363
000170 85 7c 4a be 1b d3 85 be 3c 19 18 3e a1 9a 97 be
       -0.19774063 -0.26137623 0.14853376 -0.2961016
000180 2d 7d fc bd 38 d7 52 3d 15 a5 40 3e c2 86 bc 3d
       -0.12328563 0.05147478 0.18812974 0.092053905
000190 be 41 aa bd 45 c8 06 3e e2 54 fb bd 3d 53 2a bd
       -0.083133206 0.13162334 -0.122720495 -0.04158329
0001a0 f4 4a ef 3b 85 88 90 3d 8b dd 3e 3d 35 dd d8 bd
       0.0073026363 0.07057289 0.046598 -0.10589067
0001b0 01 9a 9c 3a 64 06 57 3f 30 ed 09 3f 7c 22 de bd
       0.0011947752 0.83994126 0.53877544 -0.10846421
0001c0 51 15 8d 3e c9 18 05 be 9d cb 9d be 25 08 76 bd
       0.27555326 -0.12997736 -0.30819407 -0.06006636
0001d0 a1 4c 86 be 55 75 98 3e cd f3 16 3f 82 8c ff be
       -0.26230338 0.29777017 0.5896576 -0.49911886
0001e0 9f 66 39 3d 24 43 85 3d a1 c7 d0 3d d8 d4 ef bd
       0.045263883 0.06506947 0.10194326 -0.117105186
0001f0 2c f3 3c be bc e0 47 be 5a f6 07 3e c3 e4 74 3d
       -0.18452138 -0.19519323 0.1327757 0.059788477
000200 d5 9d 18 3e c1 f0 bc 3e e8 63 34 bd 92 84 ef bd
       0.14903958 0.3690243 -0.04404059 -0.11695208
000210 20 23 e9 bd 9e 88 3a bb 81 1d 10 3e f2 ca 40 bc
       -0.11383653 -0.0028462778 0.14073755 -0.011767136
000220 e5 2a db 3d f9 18 1b be ef 68 72 3e 9d 66 60 be
       0.10701541 -0.15146245 0.23672841 -0.21914144
000230 1a d0 14 bd 39 fc 10 be 5c a5 0b 3e f8 a6 8b be
       -0.036331274 -0.14158715 0.13637298 -0.27275825
000240 7c d0 15 be 1d 0d 40 be 93 58 25 3c 67 34 17 be
       -0.14630312 -0.18755002 0.0100919185 -0.14766084
000250 41 34 0e 3f ca 3e 26 be b6 30 81 3e 77 17 ca 3e
       0.55548483 -0.1623489 0.25232476 0.39471027
000260 3d 32 da be 72 e9 92 be b1 74 d6 be c9 19 62 3d
       -0.42616454 -0.2869373 -0.41885903 0.055200372
000270 4a 6b 3c bf 48 23 1d bf 4f ed 60 be 4b 52 e4 3c
       -0.7360121 -0.6138196 -0.21965526 0.027871272
000280 bf 0a eb bd 6a 50 9c 3d 18 8a 68 bb f3 45 2d 3d
       -0.11476659 0.07632525 -0.00354827 0.042303037
000290 91 78 a3 be d8 53 03 be 60 d6 20 be b5 0c a1 3d
       -0.31927922 -0.12824953 -0.15706778 0.07863752
0002a0 9b 03 5f 3d e4 2e a6 3c 14 4e 5c be 0e 3a ba 3d
       0.054446798 0.020286031 -0.2151416 0.09093104
0002b0 7c 6f 13 3e 14 c5 bc be 3d ce 12 3e 86 39 b6 3c
       0.14397997 -0.3686911 0.14336486 0.022244226
0002c0 b6 79 70 3d 3d ad 05 bd bb a1 cd bb 8a b6 e0 3d
       0.058709823 -0.032635916 -0.0062753833 0.109723166
0002d0 23 02 c4 3d 0e 3b 2a be 24 e5 88 bc b6 58 c1 3d
       0.0957072 -0.1662409 -0.016710825 0.094407484
0002e0 fe e4 a8 bc 77 bc 70 be 0b 1d 1d be 80 81 01 3e
       -0.020617004 -0.23509394 -0.1534311 0.12647057
0002f0 73 73 e3 3e fa 76 07 3f 0f 18 2f bf cb b3 82 3e
       0.44424018 0.5291592 -0.68396086 0.25527796
000300 be 7c 87 be 34 66 95 be d4 9e 9d be f3 0e c4 3e
       -0.26462358 -0.29179537 -0.3078524 0.38292655
000310 86 6f 63 3d a0 47 9a 3d fc 50 90 3e 0a 97 00 3e
       0.05552628 0.07533193 0.28186786 0.12557617
000320 46 33 8a bd b6 9f ce 3c 07 f8 ad 3d 73 07 49 3e
       -0.06748061 0.02522264 0.08494573 0.19631748
000330 45 61 1b be 18 f6 b0 3d 07 8e c2 bd f5 3c 8c ba
       -0.15173824 0.08640689 -0.09499746 -0.0010699319
000340 88 cf db 3d ea 93 ac 3d 1d 8a be 3c c6 06 38 be
       0.10732943 0.0842665 0.023259217 -0.17971334
000350 b2 2e 91 3d 9e e7 d8 bd ac 02 1e 3e 2e af 51 bc
       0.070889845 -0.105910525 0.15430707 -0.012798114
000360 08 f4 a7 3d 25 bb f0 3d 97 65 af 3c 21 2e 2f be
       0.08200842 0.11754445 0.021410746 -0.1710744
000370 04 fa 82 3d 22 72 1c be 42 81 a5 3c 6f 54 94 3d
       0.06395343 -0.15277913 0.020203236 0.07242667
000380 7f 60 8d bd 66 fd a1 bd 87 87 0c 3e 37 3e 01 be
       -0.06903171 -0.0790966 0.13723575 -0.1262139
000390 2b a9 21 bd f2 4c 59 3d 5a 8a 34 be 14 85 e4 3e
       -0.03946797 0.053051896 -0.17630902 0.4463278
0003a0 cd de 00 be 07 0a 2b bf 09 e9 11 bf bd f2 85 be
       -0.12584992 -0.66812176 -0.5699621 -0.26161757
0003b0 2e 8b 14 3d 4a ae ec 3d d3 d3 db 3c cc 69 a6 3c
       0.036265545 0.115566805 0.026834404 0.02031412
0003c0 73 1b 89 bd a0 67 97 3e 96 d8 cd 3d 9e 47 f3 3e
       -0.06694689 0.29571247 0.10051076 0.47515577
0003d0 01 e9 73 bd 3b be 30 3e 3f 66 a1 3d 21 00 89 be
       -0.05954838 0.17260067 0.0788083 -0.2675791
0003e0 a4 7a 37 3e 01 25 dd bd 5d a0 1e 3e b3 0e b4 bd
       0.17917877 -0.107980736 0.15490861 -0.08791866
0003f0 3c 66 0e 3e da 9b 52 be 0b 51 91 3d 93 0f b4 bd
       0.13906187 -0.20567265 0.07095536 -0.08792033

base.mlp.fc1.0.weight f4 [64, 280]
000000 6a 52 13 bf a4 1a 8c bd e2 cb cb bd 92 49 2c be
       -0.5754763 -0.06841019 -0.09950997 -0.1682494
000010 01 3a 3e bd 15 01 44 be ab 7a 65 3b 60 c0 62 be
       -0.046442036 -0.19141038 0.0035015743 -0.22143698
000020 0f b1 18 3b e2 e0 42 3d 2a 7e c4 3c 94 e1 09 bb
       0.0023298895 0.047577746 0.023985941 -0.0021038996
000030 58 54 bf 3d 03 a1 a2 bd 84 c0 84 3c b5 cb 42 be
       0.09342259 -0.07940867 0.01620508 -0.1902302
000040 1b 2e 3e bf d6 99 f4 be 28 5c 25 be c2 47 31 be
       -0.742891 -0.47773618 -0.16148436 -0.1731253
000050 30 97 b0 be 0d 8f af be b2 0a 36 be 61 79 6c 3d
       -0.34490347 -0.34288827 -0.17777517 0.057732943
000060 f1 b9 d7 bd e2 47 81 bc b7 1e 1e 3d b0 7c be 3d
       -0.105335124 -0.015781347 0.03860351 0.09301126
000070 fa 0e c1 ba 4f 0c a4 bd 46 a5 bc 3d 96 14 4f be
       -0.0014729195 -0.0801016 0.09211211 -0.20222697
000080 8f f8 22 be e1 4d ab bc 45 fb b0 bc cc b9 18 be
       -0.1591513 -0.020911159 -0.02160419 -0.14914626
000090 8f 55 d5 bd 43 fc e1 3d 39 24 05 3e 6e 3a 86 3a
       -0.1041671 0.11034443 0.13002099 0.0010240802
0000a0 ce 51 39 3f 56 32 68 3f 71 f0 04 be fe 96 75 be
       0.7239045 0.90701807 -0.12982346 -0.2398338
0000b0 10 52 81 3d c9 37 52 3d 46 52 88 bb fd df f7 bc
       0.0631448 0.051322732 -0.0041601984 -0.030258173
0000c0 06 d9 b4 3c 45 28 07 be c4 5f d7 3c 7f 54 20 bd
       0.022076141 -0.13198955 0.026290782 -0.03914308
0000d0 e2 6f e9 3d 08 03 19 be 13 89 89 ba d3 a5 1b 3d
       0.11398293 -0.14942563 -0.0010493122 0.03799994
0000e0 95 c7 1f 3f 23 43 34 3f a1 7a e7 3e 12 86 d1 3e
       0.62413913 0.7041494 0.45210746 0.409226
0000f0 6f 71 7e 3e 39 a4 f3 3c ee 52 e5 3e 4e 54 b1 3e
       0.24847959 0.029741393 0.44789833 0.34634632
000100 1e 5e f2 3e 24 3d 01 3f 9b d7 0d 3f ca 1b 44 3f
       0.4733743 0.5048392 0.5540711 0.766049
000110 08 17 b2 bd 9a ba 52 3d 03 22 0d 3e 65 fc aa bc
       -0.08695799 0.05144749 0.13782506 -0.020872304
000120 f2 3a a7 bd 4d 46 b6 3d 81 0a ea bc 80 56 0f 3d
       -0.0816554 0.089001276 -0.028569462 0.034994602
000130 dc bb 4f 3d f2 6e 3a be cd 8e ea bd 50 26 a8 3c
       0.050716266 -0.18206385 -0.11453018 0.020526081
000140 b3 d7 16 bf 15 65 36 3e 05 37 f2 bd 3f 56 50 bd
       -0.5892288 0.17811997 -0.118269004 -0.0508635
000150 4f ad 77 bd 3c ee b2 3c 32 23 7a be 90 85 44 3d
       -0.060468014 0.021842115 -0.24427488 0.047978938
000160 be 66 11 bd ca 3d ea bd af 39 9c 3d a7 0e 32 bd
       -0.035498373 -0.114375666 0.0762819 -0.043471005
000170 b1 75 41 3e d5 6d dd 3a 71 35 07 be 98 77 1a 3d
       0.18892552 0.0016893694 -0.1320398 0.03771171
000180 33 a1 24 3d 63 f8 5e 3e b8 74 45 bf 28 f1 f1 be
       0.040192794 0.2177444 -0.77131224 -0.472543
000190 80 55 da be f1 ab d6 be 98 3f c4 bd 78 3c 50 3e
       -0.42643356 -0.41928056 -0.09582442 0.20335567
0001a0 8c 48 e8 3c 83 f1 ba bb 3d bd a0 3c 2b d9 44 3e
       0.028354906 -0.00570506 0.019621486 0.19223468
0001b0 0d dc 88 bd 2f 7b 3d be 3e 7d 37 be 0f 2c 38 3a
       -0.06682596 -0.18504022 -0.1791887 0.0007025608
0001c0 6b bd d4 bd 78 16 76 3d 33 45 97 bd d2 21 12 bc
       -0.10387691 0.06008002 -0.073862456 -0.008919196
0001d0 b0 e2 f4 3d 0a f9 84 bd 2d b5 a3 bd e1 e3 f7 bc
       0.119573 -0.06492813 -0.07993541 -0.030260028
0001e0 26 75 5c 3e 1a 9c 3d 3f ac 8c 5a bd 64 c5 21 be
       0.21529064 0.7406632 -0.05335681 -0.15797955
0001f0 54 c5 b3 bd 5b f1 9a 3d 8f 76 b3 ba 11 19 13 be
       -0.08777872 0.07565566 -0.001369195 -0.14365031
000200 f9 40 0f bd dd d3 1a be b9 9b a6 3a 0d 81 63 bd
       -0.034974072 -0.15119882 0.0012711204 -0.055542994
000210 60 3b 0b be 9c 53 d5 bd 0e 4f da 3d b1 56 f9 3d
       -0.13596869 -0.10416338 0.1065961 0.12174738
000220 df 17 78 3e 55 2d e2 3e 5c 82 a5 be 1a e1 97 bd
       0.24227856 0.4417521 -0.3232602 -0.074159816
000230 e4 5c c7 3e 22 48 ea 3e f5 8b 6b 3e 2b 60 1c 3f
       0.38938057 0.45758158 0.23002608 0.6108424
000240 98 2a 95 3e 30 08 e3 3e ed cc b1 3e 01 bf 17 3f
       0.2913406 0.44342184 0.34726658 0.59275824
000250 75 9f 81 3d 1f 50 0e bb 18 c8 3e be 8c c3 65 be
       0.06329242 -0.0021715236 -0.18631017 -0.22437876
000260 a2 2d 46 3d b8 75 54 3e 12 32 ac bd 0c b0 ed 3c
       0.048383363 0.20748031 -0.08407988 0.02901461
000270 72 7c 4f 3d 44 ce 2c 3d 3f 59 e7 3d ea 47 88 bc
       0.05065579 0.042188898 0.11296319 -0.016635854
000280 81 91 ed bc 42 64 d3 be 80 f6 7e bd fe 1d cf bc
       -0.029000046 -0.41287428 -0.0622468 -0.025282856
000290 aa 37 90 3d 05 57 18 be 48 6d 77 bd 19 01 3c 3d
       0.07041867 -0.14876945 -0.060406953 0.045899484
0002a0 28 3f 76 3d e8 b4 ed bd 6c 65 2f 3e e8 e4 48 be
       0.060118824 -0.11606771 0.17128533 -0.19618571
0002b0 e9 44 3d 3d 14 ef bb 3c 6b 91 05 3e b9 b7 19 3d
       0.046208296 0.02294115 0.13043754 0.037528727
0002c0 d9 9f 50 3e 65 13 87 bd c2 d9 fd be ae ae f8 be
       0.20373477 -0.06595496 -0.495802 -0.4857077
0002d0 8d 0b 89 3e 66 cd 53 bd 2a 15 52 bd 30 f3 a7 be
       0.26766625 -0.051709555 -0.051289715 -0.32802725
0002e0 1b ce 16 3e 2e c8 62 be 03 01 00 3e df fa 2f 3e
       0.1472706 -0.22146675 0.12500386 0.17185543
0002f0 76 5c f8 bd 08 2e ad bc 95 8a de bc 0d 88 93 3d
       -0.121270105 -0.021140113 -0.02716569 0.07203684
000300 58 df 44 bd 3e 9f 0f be 43 a6 71 3c d2 5b f6 bd
       -0.04806456 -0.1402559 0.014749113 -0.12029232
000310 ae e4 da bd 6f 96 0c 3d a6 4a b1 bd 79 e1 ec bd
       -0.106881484 0.034323152 -0.08656816 -0.11566443
000320 c2 42 d9 bd b7 a9 7d 3d b4 e7 04 be 3e 9e 20 be
       -0.10608436 0.06192943 -0.12979013 -0.15685365
000330 6c 71 1e be d5 61 02 3d 8f b6 09 3e b9 87 4f be
       -0.15472955 0.03183158 0.13448547 -0.20266618
000340 86 58 68 bd 81 84 21 be e6 e7 1e 3e 38 98 4c 3d
       -0.056725048 -0.15773202 0.1551815 0.049949855
000350 14 48 fd 3c 20 5f 8a bc e5 f8 ea 3d dc 97 8f 3d
       0.030918159 -0.016891062 0.11473254 0.07011387
000360 77 6f ac bc 61 3e 14 3e 76 40 02 bf 9c 41 d7 be
       -0.021049244 0.1447692 -0.5087961 -0.42042243
000370 74 09 dc 3d 9f 92 1d bd 42 ec 61 be 95 a1 7b be
       0.107439905 -0.038469907 -0.22062781 -0.24573357
000380 68 16 23 bb 0e f8 c7 3d c9 52 d8 bc 8a 59 a8 3e
       -0.0024885181 0.097641096 -0.026406663 0.32880813
000390 e4 70 15 bc 1d d6 a5 bd b4 f6 84 bc 78 17 40 3d
       -0.0091211535 -0.080974795 -0.016230918 0.04689738
0003a0 d5 98 70 bd ef 4c 60 bd eb fa be bc ee 24 8d 3c
       -0.058739502 -0.05476087 -0.023313006 0.017229524
0003b0 da 1e 5f bb 74 4c b4 bd d9 fc 38 3d 20 e2 e7 3c
       -0.0034045489 -0.08803645 0.04516301 0.028306067
0003c0 c9 23 13 be 7e 52 15 bf 3c 01 b9 bd 3d 13 db bd
       -0.1436912 -0.58329 -0.090334386 -0.10697029
0003d0 6f 90 aa 3d 8d 57 33 bd ca 4f d6 bd 27 7b 11 bc
       0.0832833 -0.043784667 -0.10464437 -0.008879459
0003e0 ec d6 3c 3c 82 57 9c bd a6 92 80 3d 4b a0 4a be
       0.011525851 -0.07633878 0.06277971 -0.1978771
0003f0 dc 4d 15 3e 42 bd 5e bc 22 05 9d 3d 63 ad 9f 3d
       0.14580482 -0.013594927 0.07666995 0.07796743

base.mlp.fc1.0.bias f4 [64]
000000 66 a9 8a bc 7e df d7 bc 58 b2 4b be a1 af 08 be
       -0.016926479 -0.026351687 -0.19892251 -0.13348247
000010 13 57 e0 bd 71 56 02 3e 4d 64 86 bd fe 4c 04 be
       -0.10954108 0.12728287 -0.065620996 -0.12919995
000020 39 fa 22 be 09 b4 2a be 64 39 11 be f3 e7 17 be
       -0.15915765 -0.1667024 -0.14182049 -0.14834575
000030 83 2a 42 bd 94 11 d5 bd 41 13 40 be 63 43 b2 bd
       -0.047403824 -0.104037434 -0.18757345 -0.08704259
000040 76 c7 79 be c3 63 fd bd 6f cf 1a be 49 e9 00 3f
       -0.24392495 -0.12372544 -0.15118192 0.50355965
000050 4f 09 45 3e 50 53 0a be ba 83 5a be 6f aa 07 3f
       0.19241832 -0.13508344 -0.21339312 0.52994436
000060 b3 df 33 bd d3 29 74 bd 50 7c 1e 3d 90 de 14 be
       -0.043914508 -0.0596102 0.038692772 -0.14538026
000070 62 9b ae bd ac 22 0a bd 1d ad 84 bd 51 db 21 3b
       -0.08525731 -0.033724472 -0.06478331 0.0024697373
000080 fe 07 3a be 49 28 78 bd c7 bf 83 bd 8b be 14 be
       -0.18167111 -0.060585294 -0.06433063 -0.14525811
000090 72 16 2c 3f e0 07 7b be 40 78 c6 bc 7e 39 3b bd
       0.6722175 -0.24514723 -0.024227262 -0.045709126
0000a0 ba 28 e8 bd ef 25 8d be e8 df fd bd b1 10 b2 bd
       -0.11335893 -0.27568004 -0.12396222 -0.0869459
0000b0 ea ce 95 bd 35 b7 a6 bd 04 aa 95 3d 27 d1 10 be
       -0.07314856 -0.08140413 0.073078185 -0.14142285
0000c0 d1 2a 2e 3f a0 87 f0 bd 3f 42 64 3c bc fc 36 3e
       0.6803408 -0.117446184 0.01393181 0.17869848
0000d0 57 c1 97 3e 89 fa f9 3e 60 44 f2 3c 6a 66 f3 bd
       0.29639694 0.48823956 0.02957362 -0.11884768
0000e0 52 d3 14 3f c4 fa a4 3e 5c 08 88 bd e8 f1 95 bd
       0.5813495 0.3222257 -0.066422194 -0.073215306
0000f0 57 ba 8e be 2e 80 8a bd 01 b0 b8 bd 23 0e 71 be
       -0.2787654 -0.067627296 -0.09017945 -0.23540549

base.mlp.fc1.2.weight f4 [64]
000000 fb 65 78 3f 19 00 84 3f 56 78 59 3f df ec 7f 3f
       0.9703061 1.031253 0.84949243 0.9997081
000010 de 65 8e 3f 8c 03 43 3f ce f0 96 3f 64 5f 8f 3f
       1.1124837 0.7617729 1.1792238 1.1200986
000020 1c 6d 8e 3f f4 32 82 3f 78 cf 75 3f b6 94 96 3f
       1.1127048 1.01718 0.960197 1.1764133
000030 ac 62 9b 3f 65 93 81 3f 9c a7 90 3f e8 45 95 3f
       1.2139487 1.0123106 1.130115 1.1661959
000040 8c 91 a1 3f bd 70 84 3f 31 c8 75 3f e4 ca 90 3f
       1.2622542 1.0346905 0.9600859 1.1311917
000050 c5 2b 24 3f 49 52 60 3f a2 d2 89 3f 9f 43 63 3f
       0.64129287 0.8762556 1.0767405 0.88775057
000060 1e 29 9a 3f aa fd 87 3f 3e 50 8c 3f f8 01 81 3f
       1.2043798 1.0624287 1.0961988 1.0078726
000070 fa af b9 3f 0a 53 7c 3f 88 6b 96 3f b7 15 90 3f
       1.4506829 0.9856421 1.1751566 1.1256627
000080 f4 1d 6d 3f 5c a2 a3 3f 53 c9 7a 3f 07 64 9a 3f
       0.9262383 1.2783923 0.97963446 1.2061776
000090 52 fd 86 3f 4b b3 8c 3f 4b 0e 87 3f 9f cb ae 3f
       1.0546057 1.0992216 1.0551237 1.365589
0000a0 60 3b 70 3f 1d 78 64 3f ad bf 6c 3f b1 40 8b 3f
       0.938406 0.8924578 0.92479974 1.0879117
0000b0 d1 21 95 3f 36 c4 82 3f bb f5 93 3f 96 01 8f 3f
       1.1650945 1.0216129 1.1559366 1.1172359
0000c0 fb 41 aa 3f 13 e3 a1 3f 62 6e 89 3f 95 34 25 3f
       1.3301386 1.2647423 1.0736811 0.6453336
0000d0 51 26 28 3f 63 fb 2d 3f a1 e2 92 3f 67 aa 88 3f
       0.65683466 0.6796171 1.1475412 1.0677003
0000e0 69 3c 7b 3f 2c 49 7a 3f c3 7e 7e 3f f0 1c 70 3f
       0.98139054 0.977679 0.99412173 0.93794155
0000f0 ef d5 a1 3f bd 7e 87 3f c9 de 95 3f 50 66 b3 3f
       1.2643412 1.0585552 1.1708614 1.4015598

base.mlp.fc1.2.bias f4 [64]
000000 a3 37 d1 bc 11 07 80 3c 7b 50 b3 3e 1f 35 be 3c
       -0.025539225 0.01562837 0.3502234 0.02321869
000010 09 39 a5 be 5f f7 01 3d 61 ef 04 3e 1e af 5b 3d
       -0.32270077 0.031730052 0.12981941 0.0536338
000020 94 d3 10 3c 2c bd 5c bd b7 d3 3c 3e 10 30 2b bd
       0.008839507 -0.053891346 0.18440138 -0.041793883
000030 44 93 8d be 2a 4a b3 3d 15 b8 18 3c ed 5f 29 be
       -0.27651417 0.0875438 0.009321232 -0.16540499
000040 63 4b 6f 3c 13 69 94 3c f2 55 18 3e 00 a8 0b 3e
       0.014605376 0.01811651 0.14876536 0.13638306
000050 1e 76 36 3d 80 e5 50 3e 1c a1 7f be 70 8f 9e 3e
       0.04454624 0.20400047 -0.24963802 0.3096881
000060 2f c2 b9 be 49 28 8d 3e 37 94 c3 bb 20 a9 6e 3e
       -0.36280963 0.27569798 -0.0059685963 0.23306704
000070 4c e9 fb be af b3 d5 3b 82 4b e4 bd 7f 20 66 be
       -0.4920143 0.006521664 -0.111472145 -0.22473334
000080 6e 30 bb 3d da 58 c2 be 3c 43 51 3d de 0f 8d bd
       0.091400966 -0.37958413 0.05108951 -0.06887792
000090 20 93 be 3e 4a 13 7e be c8 02 5e be 81 f8 88 be
       0.37221622 -0.24812046 -0.21680748 -0.26752093
0000a0 a7 c8 19 3e 6c 63 15 3e a6 11 12 bb 79 0d 54 be
       0.15017949 0.14588708 -0.0022288351 -0.20708264
0000b0 65 a3 c5 be c3 e9 bb 3e 57 7c b0 bd 2f 3e 9c 3d
       -0.38601223 0.36701784 -0.08617466 0.07629048
0000c0 21 13 b2 3e 09 50 95 be 58 d6 5e be e7 02 3b 3d
       0.3478022 -0.29162624 -0.21761453 0.045657065
0000d0 61 fe a2 3c 34 fb 84 3e 05 b4 72 be 8e 9d c7 3c
       0.019896688 0.25972903 -0.23701485 0.02436712
0000e0 eb df 85 3d f8 cf 88 3e 6c 75 3f 3e 5a f1 43 3e
       0.065368496 0.26721168 0.18697137 0.19135037
0000f0 be b5 1a 3e 54 c3 16 be dd 99 ab bb c1 7e 0a bf
       0.15108392 -0.1472295 -0.005236848 -0.5409966

base.mlp.fc_h.0.weight f4 [64, 64]
000000 70 03 2a 3e 56 13 d0 bc 0a 93 90 bd 72 97 7a 3e
       0.16602874 -0.025399845 -0.070592955 0.24471834
000010 46 06 68 be 04 42 cb 3e 28 3b 87 3b 42 0c a5 be
       -0.22658643 0.39698803 0.004126925 -0.32235914
000020 e1 fe 50 bd 78 c0 e9 bc 71 25 d8 bc 1b dc ba 3a
       -0.05102432 -0.028534159 -0.026385041 0.001425627
000030 91 e3 90 3e 0f c2 82 3e 46 b9 37 3d e1 52 db 3d
       0.2829862 0.2553868 0.044854425 0.10709167
000040 44 ae 89 3e 91 0c 04 3e ea 85 5a 3e 1e 91 76 be
       0.26890767 0.12895419 0.21340147 -0.24078795
000050 c3 71 c6 be ae a9 06 3e d2 88 80 3e 88 26 4d bd
       -0.38758668 0.13150665 0.25104386 -0.050085574
000060 9d 3f 23 3d 86 80 3b 3e b3 e1 b7 3d 13 ca 9c 3d
       0.03985559 0.18310747 0.089785956 0.0765573
000070 db 3c 20 bd 22 16 d3 bd a5 1b 99 be 09 72 7a 3c
       -0.039120536 -0.10306956 -0.29903904 0.015285977
000080 3a 53 d5 be 7e 80 c6 3c 5a de 49 3e 7b 15 3d bd
       -0.4166506 0.024231192 0.19713727 -0.046163063
000090 c4 82 29 3b 50 62 06 bc 38 68 95 3e 50 4c a8 bc
       0.0025865296 -0.00820215 0.29181075 -0.020544201
0000a0 d9 bd 48 bd 74 e4 91 3d ce 95 e8 3b 04 19 cd 3d
       -0.049009178 0.07123652 0.0070979362 0.10014537
0000b0 59 23 b1 be 34 2f 86 3c 7d 53 44 be b6 94 03 3c
       -0.3459728 0.01637993 -0.19172473 0.008031061
0000c0 22 08 81 be e1 47 e8 bd 91 2b b9 3d 5f c4 d8 3c
       -0.25201517 -0.11341835 0.09041513 0.026460825
0000d0 56 dd e7 3d 76 17 71 bb 3c e0 8a bd 17 14 8e be
       0.11321513 -0.0036787665 -0.067810506 -0.27749702
0000e0 18 e6 90 bd d7 19 a7 38 6c ff 63 3e e0 88 aa 3e
       -0.07075137 7.9679936e-05 0.22265404 0.33307552
0000f0 6a 40 d6 3d 3e e7 75 3b a0 07 54 3c 7d 3f 1c be
       0.10461505 0.0037521864 0.012941271 -0.15258594
000100 7e 4d ab 3e 7c 05 a8 3d 10 a6 aa 3d 15 ec 00 be
       0.3345756 0.08204171 0.08332455 -0.12590058
000110 3a b3 27 be ec 05 46 3d 4f a5 5d 3e f0 79 93 3e
       -0.16376963 0.04834549 0.21645091 0.28803968
000120 56 15 77 be 76 b2 9b 3c 80 b1 f7 be 92 16 98 3d
       -0.24129233 0.019005995 -0.4837761 0.0742618
000130 41 36 cf bd 17 c2 da 3e fb 17 60 3e 57 ea a0 bd
       -0.1011777 0.42726204 0.21884148 -0.07857197
000140 b0 18 88 bd 10 bf 81 3e a8 5d ad bd f3 75 5f bd
       -0.06645334 0.25341082 -0.08465129 -0.054555845
000150 cf f6 8c bd b3 a7 8e bd 50 61 e7 bd 05 e7 27 bd
       -0.068830125 -0.0696558 -0.11297858 -0.0409918
000160 24 f6 be 3d ac 8c 4f 3e 32 b3 7f bd e8 a3 15 bd
       0.09324291 0.20268506 -0.062426753 -0.036533266
000170 39 dd bf 3d be e0 9f 3e 92 c5 51 3e fa 51 92 bd
       0.09368367 0.31226152 0.20485523 -0.07144542
000180 f3 87 89 3d 4a 94 83 3e 37 d7 b2 3e c5 6c 32 3d
       0.067153834 0.25699073 0.3492982 0.043560762
000190 2c 0c f9 bd e2 67 a0 be 5d 94 b6 bd 8f 2d 9f 3e
       -0.12160525 -0.31329256 -0.08915017 0.31089446
0001a0 c9 f7 c7 bd da 9e 99 3d fc 25 77 be d3 36 31 3e
       -0.09764058 0.07501002 -0.24135584 0.1730607
0001b0 d3 cf 97 bd d5 95 04 3e 38 87 d5 3b 3c c3 90 3d
       -0.07412686 0.12947781 0.0065163635 0.07068488
0001c0 63 91 1d 3d c7 ef 8d 3d e4 44 71 3d 08 0c 08 be
       0.03846873 0.069304995 0.05890359 -0.1328584
0001d0 f4 9d 54 be 00 3e de 3c de d8 dc bd 30 ac ff 3b
       -0.2076338 0.027129173 -0.10783552 0.007802509
0001e0 8b 01 0a be b8 3f 66 3c 85 50 1f 3e c8 ce 50 be
       -0.13477151 0.014053278 0.1555806 -0.20391381
0001f0 e7 f9 5d be 92 8d 46 be bd 77 5e be f9 74 30 3d
       -0.21677361 -0.19389942 -0.21725364 0.043080304
000200 5c ea 13 be a2 c5 0e 3d 04 6e 76 be ff 58 48 3e
       -0.1444487 0.034856446 -0.24065405 0.195652
000210 e0 78 0e be 8e c3 65 be 55 23 1a 3d 0d 28 87 3d
       -0.13913298 -0.2243788 0.03763135 0.06599436
000220 6c 05 26 be 5b 39 d5 3c 2f b5 02 3e ce 83 77 3e
       -0.16213006 0.026028326 0.12764429 0.24171373
000230 95 57 3c 3e 6f cb 4f 3c 4e 6f 2d be 95 db 05 3d
       0.18392785 0.01268278 -0.1693699 0.032680113
000240 4f ab 0e 3e ad c5 95 be 7b d0 5c 3b 7d 17 d6 be
       0.13932537 -0.29252377 0.00336936 -0.41814795
000250 28 2a 03 bd 69 71 65 be c6 ad a1 be 5d 14 8c 3e
       -0.032022625 -0.22406544 -0.3157789 0.27359286
000260 9e 3d c9 3d c6 41 f4 3d 59 de 26 be f3 6e 05 3e
       0.09826206 0.11926608 -0.16295756 0.13030605
000270 a3 e4 fe 3d dc a8 99 3e 5d 59 51 be 8c d8 1b 3d
       0.12445953 0.30011642 -0.20444246 0.038048312
000280 7d a0 c2 bd be a5 8f be c8 4d cb 3c 7e b5 82 3c
       -0.09503267 -0.2805614 0.024817362 0.015955683
000290 e0 1c 09 3d 3f 8b 90 3c 3c 9d 59 be 64 a1 4a 3e
       0.033474803 0.017644523 -0.21251386 0.19788128
0002a0 b1 52 6f bd 55 d3 fc 3c 19 d3 08 be 2f 53 37 be
       -0.05842847 0.03086249 -0.13361777 -0.17902826
0002b0 93 3a 98 3e ef 0d b5 3d f5 95 88 be c0 30 55 3e
       0.2973219 0.08840548 -0.26676908 0.20819378
0002c0 f0 eb a7 bd 23 61 af bd ad 5f f3 bd bf 01 05 be
       -0.081992984 -0.08563449 -0.11883483 -0.12988947
0002d0 27 ba b4 be 21 12 f3 3d a5 b6 b4 3e 69 fc 4d be
       -0.35298273 0.11868692 0.35295597 -0.20115818
0002e0 6c d6 9b 3d 27 61 80 bc b2 49 3d 3d a5 19 bd bd
       0.07609257 -0.015671326 0.04621286 -0.09233407
0002f0 46 99 a3 3d 68 d3 de 3d bc 29 5c bd 9a 27 9c be
       0.07988219 0.10880166 -0.05375074 -0.30498964
000300 68 77 90 3d 0b e7 85 3e 23 da 92 bd b5 42 b2 3d
       0.07054025 0.26152834 -0.071705125 0.087041296
000310 de da 7e 3d 65 a8 8a 3c 4d 34 c3 3d f1 07 94 bd
       0.062220447 0.016926 0.0953146 -0.07228077
000320 84 3d 6c be 7a 63 0b 3e 6f 21 0d be 3a 5b cb 3d
       -0.23070341 0.13612166 -0.13782285 0.099295095
000330 04 92 20 be 58 0a 25 bf 63 69 78 3d 33 8c d4 3d
       -0.156807 -0.6446891 0.06064738 0.103783034
000340 19 99 2e 3d 76 37 1d 3e 46 e3 d0 bd d2 ab a5 3e
       0.042626474 0.15353188 -0.10199599 0.3235765
000350 8b 81 03 be 57 4e b2 bd 1d 60 b8 3d f0 4b 00 3e
       -0.12842385 -0.087063484 0.09002707 0.12528968
000360 d8 95 7e be e2 c1 00 3e ec 61 12 3e 1e 1e 05 be
       -0.24861848 0.1257396 0.14295167 -0.1299977
000370 bd 40 27 3e 5b 43 18 3e bd b1 80 bc 48 08 88 be
       0.1633329 0.14869444 -0.015709752 -0.26568818
000380 87 17 5a bd 38 ba 61 bd 99 e0 07 be 22 ce 0a be
       -0.053245094 -0.055109233 -0.13269271 -0.13555196
000390 1d b7 94 3e 4e 8b 8f bd 78 c1 82 be c0 b6 62 3d
       0.29045954 -0.07008992 -0.2553823 0.055350065
0003a0 2e b9 03 3e c9 f0 84 3e 1c bc af 3e c4 e5 92 bb
       0.12863609 0.25964954 0.34323204 -0.0044829566
0003b0 94 a1 2a be b5 32 f6 3d a1 7f 2e be fd f8 48 3d
       -0.166632 0.1202139 -0.17040874 0.04906558
0003c0 61 09 00 3e ec a4 8c be 3f 2e 01 be 0e 34 b8 3d
       0.12503578 -0.27469575 -0.12615298 0.08994304
0003d0 2a b7 03 3e 74 85 c1 3d 8e 97 7b 3d 41 1e d9 bd
       0.1286284 0.09449282 0.06142383 -0.106014736
0003e0 19 27 69 bc c1 08 0d be 8b 3e d5 3e 38 3f e3 3b
       -0.014230513 -0.1377287 0.4164928 0.0069350265
0003f0 80 84 52 be 71 c2 29 be 38 45 ca bd 93 47 f7 bd
       -0.20558357 -0.1657808 -0.09876484 -0.120741986

base.mlp.fc_h.0.bias f4 [64]
000000 00 00 00 00 00 00 00 00 00 00 00 00 00 00 00 00
       0.0 0.0 0.0 0.0
000010 00 00 00 00 00 00 00 00 00 00 00 00 00 00 00 00
       0.0 0.0 0.0 0.0
000020 00 00 00 00 00 00 00 00 00 00 00 00 00 00 00 00
       0.0 0.0 0.0 0.0
000030 00 00 00 00 00 00 00 00 00 00 00 00 00 00 00 00
       0.0 0.0 0.0 0.0
000040 00 00 00 00 00 00 00 00 00 00 00 00 00 00 00 00
       0.0 0.0 0.0 0.0
000050 00 00 00 00 00 00 00 00 00 00 00 00 00 00 00 00
       0.0 0.0 0.0 0.0
000060 00 00 00 00 00 00 00 00 00 00 00 00 00 00 00 00
       0.0 0.0 0.0 0.0
000070 00 00 00 00 00 00 00 00 00 00 00 00 00 00 00 00
       0.0 0.0 0.0 0.0
000080 00 00 00 00 00 00 00 00 00 00 00 00 00 00 00 00
       0.0 0.0 0.0 0.0
000090 00 00 00 00 00 00 00 00 00 00 00 00 00 00 00 00
       0.0 0.0 0.0 0.0
0000a0 00 00 00 00 00 00 00 00 00 00 00 00 00 00 00 00
       0.0 0.0 0.0 0.0
0000b0 00 00 00 00 00 00 00 00 00 00 00 00 00 00 00 00
       0.0 0.0 0.0 0.0
0000c0 00 00 00 00 00 00 00 00 00 00 00 00 00 00 00 00
       0.0 0.0 0.0 0.0
0000d0 00 00 00 00 00 00 00 00 00 00 00 00 00 00 00 00
       0.0 0.0 0.0 0.0
0000e0 00 00 00 00 00 00 00 00 00 00 00 00 00 00 00 00
       0.0 0.0 0.0 0.0
0000f0 00 00 00 00 00 00 00 00 00 00 00 00 00 00 00 00
       0.0 0.0 0.0 0.0

base.mlp.fc_h.2.weight f4 [64]
000000 00 00 80 3f 00 00 80 3f 00 00 80 3f 00 00 80 3f
       1.0 1.0 1.0 1.0
000010 00 00 80 3f 00 00 80 3f 00 00 80 3f 00 00 80 3f
       1.0 1.0 1.0 1.0
000020 00 00 80 3f 00 00 80 3f 00 00 80 3f 00 00 80 3f
       1.0 1.0 1.0 1.0
000030 00 00 80 3f 00 00 80 3f 00 00 80 3f 00 00 80 3f
       1.0 1.0 1.0 1.0
000040 00 00 80 3f 00 00 80 3f 00 00 80 3f 00 00 80 3f
       1.0 1.0 1.0 1.0
000050 00 00 80 3f 00 00 80 3f 00 00 80 3f 00 00 80 3f
       1.0 1.0 1.0 1.0
000060 00 00 80 3f 00 00 80 3f 00 00 80 3f 00 00 80 3f
       1.0 1.0 1.0 1.0
000070 00 00 80 3f 00 00 80 3f 00 00 80 3f 00 00 80 3f
       1.0 1.0 1.0 1.0
000080 00 00 80 3f 00 00 80 3f 00 00 80 3f 00 00 80 3f
       1.0 1.0 1.0 1.0
000090 00 00 80 3f 00 00 80 3f 00 00 80 3f 00 00 80 3f
       1.0 1.0 1.0 1.0
0000a0 00 00 80 3f 00 00 80 3f 00 00 80 3f 00 00 80 3f
       1.0 1.0 1.0 1.0
0000b0 00 00 80 3f 00 00 80 3f 00 00 80 3f 00 00 80 3f
       1.0 1.0 1.0 1.0
0000c0 00 00 80 3f 00 00 80 3f 00 00 80 3f 00 00 80 3f
       1.0 1.0 1.0 1.0
0000d0 00 00 80 3f 00 00 80 3f 00 00 80 3f 00 00 80 3f
       1.0 1.0 1.0 1.0
0000e0 00 00 80 3f 00 00 80 3f 00 00 80 3f 00 00 80 3f
       1.0 1.0 1.0 1.0
0000f0 00 00 80 3f 00 00 80 3f 00 00 80 3f 00 00 80 3f
       1.0 1.0 1.0 1.0

base.mlp.fc_h.2.bias f4 [64]
000000 00 00 00 00 00 00 00 00 00 00 00 00 00 00 00 00
       0.0 0.0 0.0 0.0
000010 00 00 00 00 00 00 00 00 00 00 00 00 00 00 00 00
       0.0 0.0 0.0 0.0
000020 00 00 00 00 00 00 00 00 00 00 00 00 00 00 00 00
       0.0 0.0 0.0 0.0
000030 00 00 00 00 00 00 00 00 00 00 00 00 00 00 00 00
       0.0 0.0 0.0 0.0
000040 00 00 00 00 00 00 00 00 00 00 00 00 00 00 00 00
       0.0 0.0 0.0 0.0
000050 00 00 00 00 00 00 00 00 00 00 00 00 00 00 00 00
       0.0 0.0 0.0 0.0
000060 00 00 00 00 00 00 00 00 00 00 00 00 00 00 00 00
       0.0 0.0 0.0 0.0
000070 00 00 00 00 00 00 00 00 00 00 00 00 00 00 00 00
       0.0 0.0 0.0 0.0
000080 00 00 00 00 00 00 00 00 00 00 00 00 00 00 00 00
       0.0 0.0 0.0 0.0
000090 00 00 00 00 00 00 00 00 00 00 00 00 00 00 00 00
       0.0 0.0 0.0 0.0
0000a0 00 00 00 00 00 00 00 00 00 00 00 00 00 00 00 00
       0.0 0.0 0.0 0.0
0000b0 00 00 00 00 00 00 00 00 00 00 00 00 00 00 00 00
       0.0 0.0 0.0 0.0
0000c0 00 00 00 00 00 00 00 00 00 00 00 00 00 00 00 00
       0.0 0.0 0.0 0.0
0000d0 00 00 00 00 00 00 00 00 00 00 00 00 00 00 00 00
       0.0 0.0 0.0 0.0
0000e0 00 00 00 00 00 00 00 00 00 00 00 00 00 00 00 00
       0.0 0.0 0.0 0.0
0000f0 00 00 00 00 00 00 00 00 00 00 00 00 00 00 00 00
       0.0 0.0 0.0 0.0

base.mlp.fc2.0.0.weight f4 [64, 64]
000000 fc 3e 88 bc 57 9f 97 3c 29 e5 29 bf 7c 17 c4 3e
       -0.016631596 0.018508596 -0.66365296 0.38299167
000010 91 71 4d be e2 7c ac 3e 91 5a a2 be b6 a3 43 be
       -0.20062853 0.33689028 -0.31709722 -0.1910542
000020 f5 ca 0c be 1f b3 e8 bd a6 4c 34 be 45 35 d0 be
       -0.13749297 -0.1136229 -0.17607364 -0.4066564
000030 42 e6 58 3e e5 51 68 be f5 ff fa 3e 7a 63 4f 3d
       0.21181586 -0.2268749 0.49023405 0.050631978
000040 17 aa 5d 3f e0 b9 2d 3f 60 bf 2a be 65 3f ac be
       0.8658766 0.6786175 -0.16674566 -0.33642116
000050 b7 f4 21 bf bf a2 aa bd 6b 39 a1 3e bc 4d a9 bd
       -0.6326403 -0.083318226 0.3148912 -0.0826678
000060 a1 3f 87 3d d0 18 77 3e 76 a6 58 3e 26 ed a4 3d
       0.06603933 0.24130559 0.2115725 0.08053045
000070 38 e5 1e 3e d0 18 f9 be 80 01 b6 be 67 68 a5 3e
       0.15517128 -0.48651743 -0.3554802 0.32306215
000080 88 b1 36 bf 33 b3 ce 3d 97 ed b5 3e c1 c4 75 bd
       -0.7136464 0.10092773 0.3553283 -0.060002092
000090 87 e9 d5 be 2a ac 24 3e f4 09 d3 3e f2 24 be 3a
       -0.4177973 0.160813 0.4121853 0.001450686
0000a0 d6 22 8a be 25 38 dd 3d 0d 65 d4 bc 15 72 8c 3e
       -0.26979703 0.10801724 -0.025927091 0.27430788
0000b0 b1 05 8b be 6c 13 05 3f fe aa 10 3c 9d 84 e1 be
       -0.2715278 0.5198276 0.00882983 -0.44046488
0000c0 98 3e b9 be e4 07 b7 3d 8e 15 31 bd 2b fb 60 3e
       -0.36180568 0.08937052 -0.043233447 0.21970813
0000d0 82 54 bf 3e 38 ee 0a 3e 9e b0 51 3c 35 5c 96 be
       0.37369162 0.13567436 0.0127984565 -0.29367223
0000e0 19 8a d4 3c d8 73 a2 3e 3c 45 c5 bd 33 90 e5 3e
       0.025944756 0.31729007 -0.09632346 0.44836578
0000f0 6c aa 89 3f 9f d3 23 3e 2a 78 13 3d ca e5 3b be
       1.0755134 0.15998696 0.03600327 -0.18349376
000100 b8 42 b6 3e 80 81 84 3c 3b ea bd 3d d8 1c 10 bf
       0.35597777 0.016175032 0.092731915 -0.5629401
000110 5c b5 48 3e 74 cd 86 3e 83 b4 32 3f 19 e3 85 3f
       0.19600433 0.26328623 0.6980669 1.045993
000120 83 8b 04 be e9 dd 7c bd f3 d7 ff be 9b a7 31 3d
       -0.12943844 -0.061735068 -0.49969444 0.04337273
000130 72 4b 81 3e b8 4d 33 3f f8 10 86 3e 0b ed 3a 3b
       0.25252873 0.70040464 0.2618482 0.0028522636
000140 dc a4 be be 76 c9 d1 3d 14 62 85 be 6f 52 49 bf
       -0.37235153 0.10243504 -0.2605139 -0.7864141
000150 a2 16 88 be 02 bf d8 bd cf e2 9b bc 82 ec d1 3d
       -0.26579767 -0.10583307 -0.01902905 0.102501884
000160 80 96 61 bd d2 ed 22 3f 3e 0a 1d bd bb 7a c3 be
       -0.05507517 0.63644135 -0.038339846 -0.38179573
000170 be 9f e5 bd 86 22 97 3e ce 27 c3 3e 22 b0 90 3e
       -0.11212109 0.29518527 0.38116306 0.2825938
000180 7d 5e 87 3e ff 2c 5f 3e b0 8a 88 3e 69 9e d6 be
       0.26439276 0.21794508 0.2666831 -0.41917732
000190 d7 07 a7 be 5e 94 69 bb 3b b4 57 3d 7d f4 f1 3e
       -0.3262317 -0.0035641412 0.052662116 0.47256842
0001a0 e6 a6 63 be 6b ca 8f bc 4f 07 9d 3e 20 59 d9 3e
       -0.22231635 -0.017552575 0.3066964 0.4245081
0001b0 9f 3f a7 3c b5 c4 05 be 02 a2 3b 3e eb e1 67 be
       0.02041608 -0.13063319 0.1832352 -0.22644775
0001c0 e8 71 6b be c1 54 da 3b b8 49 47 3e 34 c4 04 3e
       -0.2299267 0.0066629355 0.19461715 0.1296547
0001d0 94 d5 17 bf e4 03 1c bf 50 75 a3 bc 80 1d 4a bd
       -0.5931027 -0.60943437 -0.0199534 -0.04934454
0001e0 55 48 8d be f3 69 ee be 21 f0 12 3f 83 1d 34 3d
       -0.27594247 -0.46565208 0.5739766 0.043973457
0001f0 dd 8e 82 be 91 09 ca 3e 66 2d 24 be 7d 96 05 3e
       -0.2549962 0.39460424 -0.16032943 0.13045688
000200 64 ca e6 bd df 05 81 3d bf d9 89 be 13 38 13 3f
       -0.11269072 0.06299948 -0.2692394 0.5750744
000210 d1 e6 5f 3d 6a 14 ad be 02 20 e7 be 8d 93 7c bd
       0.054663483 -0.33804637 -0.45141608 -0.061664153
000220 54 40 23 be 8c 72 a6 3d c5 d8 f9 3d d6 cf bf 3e
       -0.15942508 0.08127317 0.12199549 0.37463254
000230 90 7e 08 3f f1 0b 34 3e f2 55 22 3e f1 43 68 bc
       0.5331812 0.1758268 0.15853098 -0.014176355
000240 10 aa 98 3e c4 b5 06 bf 03 27 fe 3d 38 e3 3c be
       0.29817247 -0.526211 0.12409785 -0.18446052
000250 ee 7c 20 be 50 44 bc bd ef dc c5 be c9 7f 34 be
       -0.15672657 -0.09192717 -0.3864512 -0.17626871
000260 a4 7a 88 3e 16 80 65 3e 59 94 3a be 29 45 ad bd
       0.26656067 0.22412142 -0.18220653 -0.08460457
000270 d4 1b ae 3e 26 b2 b1 3e 58 47 94 bb d9 68 a2 3b
       0.34005606 0.3470623 -0.0045251064 0.0049563465
000280 41 22 26 bd 4d 66 ec 3d 66 c8 dc 3e d1 87 51 3e
       -0.04056001 0.1154295 0.43121642 0.20461966
000290 ca aa 7d be 70 71 43 3e 05 e5 1b bd cf 28 c2 3e
       -0.24772182 0.19086242 -0.038060207 0.3792176
0002a0 3e 0f bb be 8d aa c1 bc 0b e7 1e be 07 fc 6b 3d
       -0.36535066 -0.023640895 -0.15517823 0.0576134
0002b0 d5 b0 92 3e f8 df 9c 3e d0 df f6 be 3d d1 f8 bb
       0.28650537 0.30639625 -0.4821763 -0.0075933025
0002c0 90 ae 36 bd 5b 6f ac bc 12 a7 05 be 94 e9 03 bf
       -0.04460007 -0.021049192 -0.13052014 -0.51528287
0002d0 b7 36 4a bd 61 15 e1 bc 3f 8b db 3e 2e d1 6f 3c
       -0.049368586 -0.027476015 0.42879674 0.014637275
0002e0 c4 27 3a 3d b1 30 70 be e6 e9 fa 3e 96 a1 5e be
       0.04544808 -0.23456074 0.49006575 -0.21741328
0002f0 92 8e 4b 3d f0 d0 1a 3e 3d 9f 90 be c4 3d 31 be
       0.049696513 0.15118766 -0.2824649 -0.17308718
000300 54 a2 7d be 75 46 9e be 1b c3 e0 3d fb bc 17 3e
       -0.24768955 -0.3091313 0.109747134 0.14818184
000310 15 90 6d be 47 3e 8b 3d e5 bf 55 3e 90 00 31 be
       -0.23199494 0.06798988 0.20873983 -0.17285371
000320 9a 60 ff bd 56 aa 8c 3e 8f 31 c2 3d f2 58 c7 3e
       -0.12469597 0.27473706 0.09482109 0.38935047
000330 92 1c b6 be b5 e5 a3 bd fd 8b 09 3e 26 bc 66 be
       -0.35568672 -0.080027975 0.13432308 -0.2253271
000340 d8 af 38 3e cd 7e 98 3d bc 52 15 3e f6 f0 e0 3e
       0.18035829 0.0744606 0.14582342 0.4393384
000350 f0 d8 3b be 87 81 db bc 62 c4 fb 3c 18 13 51 3e
       -0.18344474 -0.026795162 0.030733291 0.2041744
000360 34 a6 49 be d0 50 d9 3e e9 cf d8 bd 4d 80 24 3e
       -0.19692308 0.42444468 -0.10586531 0.16064568
000370 e6 f7 18 be c7 32 11 bd 49 62 93 be 36 d2 66 be
       -0.14938316 -0.035448816 -0.28785923 -0.22541127
000380 11 71 1f 3e 5c 4f 88 be de 53 aa be 8f 53 98 3e
       0.15570475 -0.26623046 -0.3326711 0.2975125
000390 72 7f d5 3e cb 6e 02 bf a7 7a 09 bf 71 f3 55 be
       0.41698796 -0.50950307 -0.5370278 -0.20893647
0003a0 cf 44 28 bd b0 65 9b 3e 36 29 89 3e 7d 65 86 be
       -0.041081246 0.3035102 0.26789254 -0.26249304
0003b0 17 0a a7 be 74 ad a5 3e e8 ca 75 be db 9a 9b 3e
       -0.32624885 0.32358897 -0.24003184 0.30391583
0003c0 6f 37 67 3e f6 f6 dd be 79 be 65 be 03 47 92 bd
       0.2257974 -0.4335248 -0.22435941 -0.07142451
0003d0 bb 91 40 3e 5c 05 63 3e 57 fc 9c be 7f fb 2a bb
       0.18805592 0.22170013 -0.3066127 -0.0026089845
0003e0 c1 6d 88 3e c9 dc 43 3c d2 1e 8c 3e 56 a9 a7 bd
       0.26646236 0.011954495 0.27367264 -0.08186595
0003f0 ea 94 cb bd db 72 08 bf 51 68 1f 3e dd 58 c5 be
       -0.099405125 -0.53300256 0.15567137 -0.3854436

base.mlp.fc2.0.0.bias f4 [64]
000000 51 ed 3b 3d 7c e2 25 be 9b ae 3b be 8e d3 8e 3e
       0.04588062 -0.16199678 -0.18328325 0.27895778
000010 5c 4c 02 3b 1b 4b d9 bd dd c0 25 be 33 05 5c 3f
       0.001988194 -0.10610028 -0.16186853 0.85945433
000020 1f 69 98 bd 4f fd 11 be 14 17 08 be cb 70 13 be
       -0.07441925 -0.14256786 -0.13290054 -0.14398496
000030 e4 ce 05 be 0e 84 9e bd 2d e8 d9 bc 7e 41 19 3e
       -0.13067204 -0.07740031 -0.026599968 0.1496639
000040 cd ff 16 be 16 af 09 be 1b dd 02 be da 31 26 be
       -0.14746018 -0.13445696 -0.12779658 -0.16229954
000050 1b a8 05 be 91 b2 26 be 2d 22 0e be 23 ac 37 be
       -0.13052408 -0.16279055 -0.13880225 -0.17936759
000060 db 0f d4 bd 34 74 ca bd 53 92 e9 bd a5 44 f3 3e
       -0.10354587 -0.09885445 -0.11404862 0.4751331
000070 7e fc 41 be 84 81 f3 bd 77 ef a3 bd 30 bb 97 3c
       -0.18943974 -0.118899375 -0.08004659 0.018521875
000080 47 13 2a be 9c f8 ad bd d6 c3 c7 bd 34 18 bd bd
       -0.16608916 -0.08494684 -0.097541496 -0.09233132
000090 6e 30 12 be ed 96 95 bd f4 f0 cd bd ee 3a d2 bd
       -0.14276287 -0.073041774 -0.10055724 -0.10265146
0000a0 1b 71 73 bd 2a 91 8f bd 69 54 a0 3c 76 38 0a 3f
       -0.059434038 -0.0701011 0.0195715 0.539924
0000b0 33 cc 09 be 7c 77 29 3e df 57 22 be ec 1e 38 bd
       -0.13456802 0.16549486 -0.15853833 -0.044951364
0000c0 f6 6d ad bd 7b fe 27 be 65 a9 0f be a4 e0 52 be
       -0.08468239 -0.1640567 -0.14029463 -0.20593506
0000d0 7d 46 a6 bd 09 9b ab bd 4d 01 34 bd 93 fb 45 3e
       -0.08118913 -0.0837918 -0.043946553 0.19334249
0000e0 c6 df 9a bd ec 09 05 be 25 a0 8b bd f4 5b 13 be
       -0.07562213 -0.12992066 -0.068176545 -0.14390546
0000f0 ab 97 bf bd 5f 43 85 3e 5a c6 2c 3e 4d ec cc bd
       -0.093551 0.26027963 0.1687254 -0.10006008

base.mlp.fc2.0.2.weight f4 [64]
000000 34 75 52 3f 96 32 87 3f 82 a3 27 3f 18 07 39 3f
       0.8221009 1.0562313 0.6548387 0.7227645
000010 a9 a0 55 3f 77 0f 34 3f e9 c1 5b 3f a7 96 3e 3f
       0.8344827 0.703361 0.8584276 0.7444863
000020 02 08 3b 3f 1b 1c 45 3f 96 c6 12 3f 5f d9 40 3f
       0.73059094 0.7699601 0.5733427 0.7533168
000030 1a 4e 4b 3f bf 0b 53 3f 5f 68 d2 3e a8 ad f5 3e
       0.7941605 0.824398 0.41095254 0.47984052
000040 af 06 63 3f 9f e5 10 3f 90 90 ca 3e fa 4d 12 3f
       0.88682073 0.56600374 0.39563417 0.5715023
000050 f2 55 23 3f 25 cf 61 3f d6 29 26 3f e5 e9 3a 3f
       0.6380302 0.882067 0.64907587 0.73013145
000060 83 85 c8 3e e2 d9 3d 3f e8 0b 13 3f ed 3e 18 3f
       0.3916436 0.7416059 0.5744004 0.5947102
000070 13 74 03 3f ab 0c e0 3e a5 86 4b 3f f6 87 0f 3f
       0.5134899 0.43759665 0.79502326 0.56066835
000080 3d 50 5b 3f 8f 3f 69 3f f5 5b 58 3f 5e 49 44 3f
       0.8566931 0.9111261 0.84515315 0.7667445
000090 68 a2 57 3f 34 f1 1c 3f 34 3e 3e 3f 73 69 1e 3f
       0.8423219 0.61305547 0.74313664 0.6187965
0000a0 24 97 21 3f f7 3e 42 3f 44 33 66 3e 97 c8 23 3f
       0.6312125 0.75877327 0.22480494 0.6397795
0000b0 24 01 22 3f 4b f7 20 3f ba a0 2c 3f 64 53 0a 3f
       0.6328299 0.6287734 0.6743275 0.54033494
0000c0 6a 84 45 3f 6b 86 37 3f 60 80 6c 3f 15 6d 2d 3f
       0.7715517 0.7168948 0.92383385 0.6774457
0000d0 17 23 e1 3e ca 0a 18 3f e0 36 46 3f 54 f1 d5 3e
       0.43972084 0.5939146 0.7742748 0.4178568
0000e0 68 54 43 3f ef 97 b4 3e 60 9b 84 3f d6 d1 4c 3f
       0.7630067 0.35272166 1.0359917 0.80007684
0000f0 e1 f2 3c 3f d5 c1 1f 3f 5d 8d 9c 3f 41 ad 53 3f
       0.73808104 0.6240514 1.2230641 0.8268624

base.mlp.fc2.0.2.bias f4 [64]
000000 39 2b 57 3e fd 77 84 3d 01 f9 14 3e 85 a5 f6 bd
       0.21012582 0.064681984 0.14548112 -0.12043289
000010 07 eb df 3d b6 54 63 3e 2a c8 d7 3d 46 93 19 be
       0.109335 0.22200283 0.10536225 -0.14997587
000020 90 c6 2d 3e 10 e8 52 3e a1 4b 58 3e 14 28 26 3e
       0.16970277 0.20596337 0.211226 0.16226226
000030 7d bc 0e 3e 92 c8 44 3e e4 0c 03 3e 0a 7e 9e bd
       0.1393909 0.19217137 0.12797886 -0.07738884
000040 2c 77 22 3e 66 18 14 3e 18 db 9a 3d 44 ad 36 3e
       0.15865773 0.14462432 0.0756132 0.17839533
000050 2a 51 39 3e 25 93 65 3c 07 af 50 3e 9b 60 81 3e
       0.18097368 0.014012133 0.20379268 0.25269017
000060 fa 85 05 3e 33 03 78 3e 01 c2 0f 3e f5 cb 81 be
       0.13039389 0.2421997 0.1403885 -0.2535092
000070 0f f2 31 3e c7 76 ed 3d 03 4e 24 3e ad b9 3f 3d
       0.17377494 0.115949206 0.16045384 0.046807934
000080 47 7f b9 3d 10 59 34 3e 40 b8 73 3d 8d 4c 34 3e
       0.09057479 0.176121 0.059501886 0.17607327
000090 67 f8 12 3e 87 f8 40 3e b4 0d 7d 3e 79 4e 41 3e
       0.1435257 0.18844806 0.24712259 0.18877591
0000a0 e3 c9 50 3e 36 c6 22 3e 18 f4 34 3d 1f 48 d4 bd
       0.20389514 0.15895924 0.0441781 -0.103653185
0000b0 89 a9 0d 3e 7e cd 82 be be 24 57 3e 8b e6 24 3e
       0.13834204 -0.25547403 0.2101011 0.1610357
0000c0 4c d5 83 3e 98 19 66 3e aa 69 18 3d 9c 7a 36 3e
       0.2574867 0.224707 0.037210144 0.1782021
0000d0 de e9 c6 3d 2b 81 0e 3e 88 fe 52 3e 4b 3f 72 bd
       0.097125754 0.13916461 0.20604908 -0.059142392
0000e0 b9 76 5c 3e 71 f3 d2 3d 28 3a 14 3e ef 46 35 3e
       0.21529664 0.10300339 0.1447531 0.1770284
0000f0 e5 b5 5f 3e 58 63 7c be 82 7f d2 bd 92 8a 29 3e
       0.21846731 -0.24647272 -0.102782264 0.16556767
