train/maddpg-v5/results/formation_hd_env/maddpg/formation/run21/models/policy_2/critic.pt (torch, 75823 bytes, 18 tensors)

mlp.feature_norm.weight f4 [69]
1.0015154 0.99819344 1.0029426 0.99810636 0.9967339 1.0012058 1.0021867 1.0000645
1.0017954 1.0035089 0.99820644 0.99688697 1.0008285 0.99703854 1.003454 0.99736756
1.0021663 1.0016109 0.9982314 0.99762124 0.9973772 1.0028129 1.0030864 0.998754
0.9973672 0.9993627 1.0008571 0.99742484 1.0029796 0.9963865 0.99866265 0.99637717
0.9963463 0.9972549 0.9969269 0.997079 0.99982417 1.0009596 0.9984005 1.0029961
1.0010606 1.0014108 1.0001968 0.9993237 0.99875414 0.99902123 1.0023551 1.0020734
1.0031832 1.0041472 1.0039781 1.0034866 0.9969226 1.0003902 1.001994 1.0020262
0.9994933 0.9999579 1.0013651 0.9990212 0.9979568 0.998607 1.0003644 0.99858195
1.0025901 0.997953 1.000067 0.9987097 0.9989775
00000000: a831 803f 9b89 7f3f 6c60 803f e683 7f3f
00000010: f429 7f3f 8327 803f a747 803f 1d02 803f
00000020: d53a 803f fb72 803f 758a 7f3f fc33 7f3f
00000030: 261b 803f eb3d 7f3f 2e71 803f 7b53 7f3f
00000040: fc46 803f c934 803f 188c 7f3f 1b64 7f3f
00000050: 1d54 7f3f 2c5c 803f 2365 803f 58ae 7f3f
00000060: 7553 7f3f 3cd6 7f3f 161c 803f 3c57 7f3f
00000070: a361 803f 3013 7f3f 5ba8 7f3f 9312 7f3f
00000080: 8d10 7f3f 194c 7f3f 9a36 7f3f 9240 7f3f
00000090: 7af4 7f3f 721f 803f 2d97 7f3f 2d62 803f
000000a0: c122 803f 3b2e 803f 7306 803f aed3 7f3f
000000b0: 5aae 7f3f dbbf 7f3f 2c4d 803f f143 803f
000000c0: 4f68 803f e587 803f 5b82 803f 4072 803f
000000d0: 5236 7f3f c90c 803f 5741 803f 6542 803f
000000e0: cbde 7f3f 3efd 7f3f bb2c 803f dabf 7f3f
000000f0: 197a 7f3f b5a4 7f3f f10b 803f 11a3 7f3f
00000100: df54 803f d979 7f3f 3202 803f 70ab 7f3f
00000110: fdbc 7f3f

mlp.feature_norm.bias f4 [69]
-0.0035234422 0.0036412792 0.00058068114 -0.002810517 -0.0029388135 0.0011225418 0.0018309271 0.0033865331
-0.0035824256 -0.0038967018 -0.001420289 6.490145e-05 0.0039811684 -0.0016299394 -0.00017452169 0.0031754484
-0.003180991 0.002814806 -0.0025745423 0.0029491263 -0.0017362462 0.0018883358 0.003962976 -0.0018388187
0.002852966 -0.003141949 -0.0036864127 0.0038290296 -0.003069425 0.002789529 0.0037224363 0.0025193354
0.0035816738 0.0030546463 0.002355337 0.00242206 -0.0012518098 0.0018791957 0.0032651764 0.0012149876
-0.003316797 0.003268365 0.00080135005 0.00025850578 0.0035932073 0.0040604947 0.0032904076 0.0007964489
0.003544739 0.0035711348 -0.0037627758 -0.002563931 0.0036865338 0.0025227393 0.003047217 0.003735172
-0.00049082877 -0.001336597 0.0032632395 0.0025613229 -0.003344325 -0.0006755084 -0.00072762865 -0.0032575063
0.0023565108 -0.0037383747 -0.0021511896 0.0017057728 0.0022226737
00000000: 8de9 66bb 87a2 6e3b da38 183a a730 38bb
00000010: 1c99 40bb 4122 933a b8fb ef3a 99f0 5d3b
00000020: 21c7 6abb cf5f 7fbb fe28 baba b31b 8838
00000030: 7674 823b b1a3 d5ba cfff 36b9 2f1b 503b
00000040: 2c78 50bb 9c78 383b a7b9 28bb 2146 413b
00000050: c192 e3ba 0982 f73a dadb 813b 8404 f1ba
00000060: d4f8 3a3b 28e9 4dbb be97 71bb 75f0 7a3b
00000070: 6828 49bb 88d0 363b 1ef4 733b 6f1b 253b
00000080: 84ba 6a3b 7630 483b ff5b 1a3b 6cbb 1e3b
00000090: c413 a4ba 584f f63a 92fc 553b 3840 9f3a
000000a0: 9f5e 59bb 1132 563b b111 523a 0f88 8739
000000b0: 047c 6b3b e60d 853b e1a3 573b c8c8 503a
000000c0: da4e 683b b309 6a3b e798 76bb a007 28bb
000000d0: c699 713b 8b54 253b d1b3 473b cac9 743b
000000e0: f6aa 00ba c130 afba 13dc 553b dedb 273b
000000f0: 772c 5bbb 9a14 31ba 55be 3eba e37b 55bb
00000100: b16f 1a3b 85ff 74bb f9fa 0cbb 3d94 df3a
00000110: 47aa 113b

mlp.mlp.fc1.0.weight f4 [64, 69]
0.021954155 -0.030887783 -0.015354193 0.17497467 -0.29819462 -0.21014881 0.005085512 -0.092380024
0.14272815 0.033518475 -0.1749011 -0.3776848 -0.25216597 0.10293825 0.050158907 0.03364577
-0.3034473 -0.012978023 0.1239661 -0.12694976 -0.12066708 -0.06811559 -0.16701359 0.00927564
0.020916956 -0.10126778 -0.016400734 -0.14029138 -0.27575293 -0.07239783 -0.31129578 0.4301113
-0.16243349 0.18517256 -0.34877145 0.044200066 -0.121237 0.332454 -0.12202508 -0.050394263
-0.00095149875 0.24456242 -0.29345447 0.1213355 0.04437952 -0.09610211 -0.08321455 0.26749265
-0.04282335 0.16401042 0.2206698 -0.032431837 -0.12395545 0.11840344 -0.14192216 -0.12863573
0.20235638 -0.36322102 0.11306867 -0.12610094 -0.08085095 -0.14709194 -0.0041228165 0.049008597
-0.08098042 -0.11685935 -0.05253815 -0.08463285 -0.018757815 0.06697037 -0.23601092 -0.005911926
0.11767629 -0.00571387 -0.2573945 0.15206054 0.17000285 0.018378165 -0.055767532 -0.10512668
2.45501e-05 0.14745101 -0.15296048 0.01977972 -0.31517273 0.14651176 0.10645059 -0.421687
-0.024658864 0.14450568 -0.043544453 0.24369873 0.17362748 0.07508521 -0.103964664 -0.16815783
0.0644868 -0.062089108 0.2488862 -0.04112709 0.18716566 -0.20417422 -0.010011772 0.0769638
0.14953913 0.15859732 0.008975451 -0.0032410887 0.08345096 -0.037302937 0.05224841 0.057175394
0.40328848 -0.098055124 0.18621252 -0.29311308 0.062851794 -0.376042 -0.16804832 -0.09574197
0.44208953 -0.24977183 -0.1520959 -0.0775423 -0.22166474 0.04535053 0.078470975 -0.21197876
-0.055791717 -0.044054136 0.26515427 -0.027398108 0.1203528 0.033969667 -0.13466533 -0.28164887
-0.0170174 0.0040819175 -0.3317039 0.12463591 -0.19797374 -0.20769632 0.079676986 -0.13177083
-0.1509073 0.051309854 0.1762261 0.06923965 0.13100207 0.22300354 0.08066732 -0.019321501
-0.11069806 0.13462201 -0.11612393 -0.046048615 0.03246821 -0.02314316 0.08261112 -0.10908345
-0.23174205 -0.19711156 0.2547767 -0.21985719 -0.21492536 0.09037345 -0.22830142 -0.036284517
0.28362352 0.26965317 -0.167874 -0.4343546 0.107309766 0.25267336 -0.04665842 0.13803105
-0.10056105 0.058739074 0.16021876 0.15965155 -0.10187132 0.023581892 -0.012119169 -0.09076625
0.013031171 0.0256517 0.26610166 0.1623705 0.0749129 0.31826493 0.0871368 -0.15159214
-0.15874676 0.19147147 0.14362657 0.20645036 0.07476232 0.023165276 -0.11865627 0.19406252
-0.07113777 0.34180456 0.2076955 0.23774405 0.17497781 0.08942208 0.18005534 -0.25151187
0.12517887 0.37185514 0.10337892 0.19103992 0.05089381 -0.33407128 -0.025264595 -0.12867135
-0.04370164 0.084285945 0.2685921 -0.2642965 0.022753099 -0.07510341 0.008651721 0.0022410857
-0.0132084 -0.10064983 -0.29515323 0.064747125 0.08004485 -0.022000544 0.02753932 0.057769462
0.009942373 -0.14703156 0.12044742 -0.18574397 -0.20525526 -0.1277167 -0.12440431 0.060919575
0.114632525 -0.17587033 -0.09013332 -0.24073951 0.0018610926 -0.3016548 -0.21558556 0.032851458
-0.26869848 0.049398046 0.146411 -0.23145737 0.020066414 -0.39309475 0.1343465 -0.06863825
00000000: 33d9 b33c 6008 fdbc 2790 7bbc 8f2c 333e
00000010: f7ac 98be 4031 57be 5ea4 a63b bd31 bdbd
00000020: 5427 123e ab4a 093d 4619 33be e75f c1be
00000030: e61b 81be 4ad1 d23d 6d73 4d3d 26d0 093d
00000040: 725d 9bbe c6a1 54bc f0e1 fd3d 1eff 01be
00000050: 4d20 f7bd 3080 8bbd 9c05 2bbe dbf8 173c
00000060: 095a ab3c 7b65 cfbd d55a 86bc 8ba8 0fbe
00000070: 7d2f 8dbe 5045 94bd 2962 9fbe 8c37 dc3e
00000080: f754 26be e09d 3d3e 2c92 b2be 210b 353d
00000090: 1b4b f8bd 6937 aa3e 49e8 f9bd 376a 4ebd
000000a0: 006e 79ba 926e 7a3e aa3f 96be bf7e f83d
000000b0: 4dc7 353d 2fd1 c4bd 646c aabd ccf4 883e
000000c0: 8967 2fbd 59f2 273e 44f7 613e 3fd7 04bd
000000d0: 5bdc fdbd 817d f23d 0b54 11be 16b9 03be
000000e0: 8336 4f3e 1bf8 b9be 8c90 e73d 9b20 01be
000000f0: 2f95 a5bd 459f 16be b118 87bb 3dbd 483d
00000100: 10d9 a5bd f453 efbd 3e32 57bd fd53 adbd
00000110: fda9 99bc c327 893d d9ac 71be d4b8 c1bb
00000120: 4400 f13d 6a3b bbbb 36c9 83be c2b5 1b3e
00000130: 3a15 2e3e ce8d 963c 7f6c 64bd a84c d7bd
00000140: f0f0 cd37 66fd 163e aca1 1cbe 1409 a23c
00000150: 525e a1be 2e07 163e c402 da3d 5ce7 d7be
00000160: 6301 cabc 4cf9 133e ab5b 32bd 298c 793e
00000170: 67cb 313e 46c6 993d 6deb d4bd 9131 2cbe
00000180: a811 843d 2651 7ebd 06dc 7e3e e174 28bd
00000190: 5ba8 3f3e 0c13 51be 6a08 24bc 329f 9d3d
000001a0: c920 193e 5667 223e c50d 133c 7268 54bb
000001b0: 56e8 aa3d f7ca 18bd 6e02 563d bf30 6a3d
000001c0: d47b ce3e 20d1 c8bd 7fae 3e3e eb12 96be
000001d0: 71b8 803d 9488 c0be dc14 2cbe 5e14 c4bd
000001e0: 8f59 e23e 30c4 7fbe 07bf 1bbe 7fce 9ebd
000001f0: 15fc 62be 7ac1 393d 64b5 a03d f610 59be
00000200: db85 64bd 1c72 34bd 4dc2 873e ff71 e0bc
00000210: 877b f63d c723 0b3d b5e5 09be 4834 90be
00000220: 1368 8bbc 9bc1 853b 18d5 a9be 1d41 ff3d
00000230: a1b9 4abe 58ae 54be b02d a33d efee 06be
00000240: 7187 1abe 482a 523d 9d74 343e 85cd 8d3d
00000250: 6825 063e 0a5b 643e e834 a53d 2048 9ebc
00000260: aab5 e2bd 5ada 093e 62d2 edbd 799d 3cbd
00000270: 63fd 043d b996 bdbc 0530 a93d 2567 dfbd
00000280: ca4d 6dbe 9dd7 49be 1772 823e 3e22 61be
00000290: 6515 5cbe b715 b93d d9c7 69be 139f 14bd
000002a0: 1a37 913e fb0f 8a3e 29e7 2bbe ba63 debe
000002b0: 39c5 db3d 675e 813e e61c 3fbd 0358 0d3e
000002c0: f4f2 cdbd 6298 703d 6310 243e b27b 233e
000002d0: e9a1 d0bd d02e c13c 7b8f 46bc a8e3 b9bd
000002e0: b180 553c 8423 d23c 7a3e 883e 7444 263e
000002f0: ef6b 993d 9ff3 a23e c774 b23d f83a 1bbe
00000300: 838e 22be 1911 443e d812 133e b967 533e
00000310: fd1c 993d 1bc5 bd3c 0f02 f3bd 53b8 463e
00000320: aeb0 91bd 0201 af3e 21ae 543e 2d73 733e
00000330: 622d 333e ec22 b73d 6d60 383e 2ac6 80be
00000340: e42e 003e cc63 be3e 54b8 d33d f89f 433e
00000350: 0776 503d 640b abbe b2f7 cebc 6cc2 03be
00000360: 7e00 33bd 1c9e ac3d e784 893e df51 87be
00000370: b564 ba3c d1cf 99bd f3bf 0d3c 2edf 123b
00000380: 0c68 58bc 8021 cebd 531e 97be 249a 843d
00000390: 8eee a33d 7c3a b4bc 249a e13c ac9f 6c3d
000003a0: 56e5 223c 718f 16be 23ad f63d ab33 3ebe
000003b0: 6f2e 52be 2bc8 02be b0c7 febd ce86 793d
000003c0: 75c4 ea3d 5a17 34be d197 b8bd 6b84 76be
000003d0: e8ef f33a 7f72 9abe 76c2 5cbe 408f 063d
000003e0: d992 89be 9b55 4a3d c4ec 153e 2903 6dbe
000003f0: 5262 a43c b743 c9be 2192 093e 3692 8cbd

mlp.mlp.fc1.0.bias f4 [64]
-0.0039165514 -0.00017787135 0.0018296785 -0.0030691444 0.0010210748 -0.0035121758 -0.0002706138 0.0011508242
0.0036676866 -0.0019676494 -0.0028697862 -0.0032343403 0.0007325506 0.00063666474 -0.0038614154 0.0024920183
2.2165894e-05 -0.00044871558 0.0038546294 0.003906548 0.0033592863 -0.0026129729 -0.0019709142 -0.0014609473
-0.00088981463 -0.0018568529 0.0019824146 -0.0037116606 -0.0027273006 0.00389664 0.0011195211 0.002608117
-0.0009844776 -0.0022128858 0.0039499863 -0.0015275741 -2.8015465e-05 -0.0038054918 -0.003854112 0.0037303348
0.003596833 0.0013780235 -0.0034277977 0.0035704076 0.0032898858 0.0022277206 -0.003749215 -0.0014339034
0.0040287315 0.003040853 -0.0025644712 -0.0028302923 0.0019962855 -0.00096389774 0.000446047 0.0037213617
0.0023526552 0.0002001819 -0.002101864 0.0012368865 -0.0026726727 -0.000757369 -0.0010690816 0.0020600983
00000000: 6a56 80bb fa82 3ab9 d3d1 ef3a b323 49bb
00000010: 96d5 853a 882c 66bb 2be1 8db9 41d7 963a
00000020: 925d 703b aef3 00bb 0613 3cbb 3af7 53bb
00000030: a308 403a d9e5 263a cd0f 7dbb 2151 233b
00000040: e5f0 b937 9641 ebb9 f39d 7c3b 8002 803b
00000050: 7927 5c3b 693e 2bbb 742a 01bb 427d bfba
00000060: 7342 69ba a561 f3ba 66eb 013b 553f 73bb
00000070: 83bc 32bb c55e 7f3b e5bc 923a f1ec 2a3b
00000080: 9609 81ba 1006 11bb e36e 813b e238 c8ba
00000090: c102 ebb7 8f65 79bb 4595 7cbb a278 743b
000000a0: d8b8 6b3b cc9e b43a e7a4 60bb 80fd 693b
000000b0: 209b 573b f3fe 113b 64b5 75bb d0f1 bbba
000000c0: 7303 843b 0c49 473b b010 28bb 6d7c 39bb
000000d0: 1dd4 023b 15ae 7cba 6adb e939 17e2 733b
000000e0: 012f 1a3b ebe7 5139 6dbf 09bb 061f a23a
000000f0: 0228 2fbb 2c8a 46ba 6d20 8cba b702 073b

mlp.mlp.fc1.2.weight f4 [64]
0.99980426 0.9979729 1.0029472 0.99691474 1.0034491 0.996335 0.9974359 1.0010958
1.0038931 1.0019106 0.9964347 0.9981479 1.0026381 0.99754345 0.99619573 0.99750245
0.99954885 1.0002517 1.0037377 1.0035555 0.9994775 0.998117 0.99819803 1.0034628
1.0025446 1.0003786 0.99759364 1.0030546 0.9975096 1.0006441 0.9982609 1.002691
1.0033808 1.0002677 1.0016129 1.0002328 1.0019236 0.9969874 0.9997507 0.9990349
1.0014504 1.0037075 0.9983022 0.9979466 0.99827194 0.9969499 1.0032946 1.0023569
1.003487 1.0018722 0.99685585 0.9971189 0.99627036 1.0016538 0.99959487 1.0022266
0.99753684 0.99841917 1.0028892 1.0039175 0.9971129 0.9997766 1.0038253 0.9995559
00000000: 2cf3 7f3f 277b 7f3f 9360 803f ce35 7f3f
00000010: 0571 803f d00f 7f3f f657 7f3f e823 803f
00000020: 927f 803f 9b3e 803f 5816 7f3f 9f86 7f3f
00000030: 7256 803f 025f 7f3f af06 7f3f 525c 7f3f
00000040: 6fe2 7f3f 3f08 803f 7a7a 803f 8274 803f
00000050: c2dd 7f3f 9984 7f3f e889 7f3f 7871 803f
00000060: 6253 803f 680c 803f 4c62 7f3f 1864 803f
00000070: ca5c 7f3f 1b15 803f 078e 7f3f 2e58 803f
00000080: c86e 803f c608 803f da34 803f a107 803f
00000090: 083f 803f 913a 7f3f a9ef 7f3f c0c0 7f3f
000000a0: 872f 803f 7d79 803f bc90 7f3f 6e79 7f3f
000000b0: c08e 7f3f 1c38 7f3f f56b 803f 3b4d 803f
000000c0: 4372 803f 593d 803f f231 7f3f 2f43 7f3f
000000d0: 930b 7f3f 3136 803f 73e5 7f3f f648 803f
000000e0: 935e 7f3f 6698 7f3f ac5e 803f 5e80 803f
000000f0: ca42 7f3f 5cf1 7f3f 597d 803f e5e2 7f3f

mlp.mlp.fc1.2.bias f4 [64]
-0.0038248675 8.115101e-06 0.00065334863 -0.0029283045 -0.0025259436 -0.0033033136 0.00073794456 0.0017934475
0.0028251586 -0.003221849 0.0011911031 -0.003753405 -0.001173237 0.0032932172 -0.0033438706 0.0038045258
0.0008801082 0.00073482416 0.0033762015 0.003507337 0.0035004225 -0.0011159248 -0.0010532041 -0.0033754853
-0.0023250596 -0.0020899747 0.003990689 -0.003860406 -0.0023598606 0.002959848 0.0019223798 0.0034483916
-0.003562406 -0.0020822857 0.0040879846 -0.001126543 -0.0018320859 -0.0038689699 -0.003359476 0.0038412174
0.0035098437 -0.0017540185 -0.0034310287 0.0039548003 0.0036123833 0.0034375347 -0.0038739445 -0.0024687331
0.003940341 0.002465783 -0.0024068514 -0.0022134883 0.003752009 -0.0020392993 0.0013630969 0.0038881435
0.0036072389 0.0024170256 -0.0038834345 -0.0037709142 -0.0020851444 0.0002767937 -0.003866989 0.0032903976
00000000: a1aa 7abb 1826 0837 7c45 2b3a cce8 3fbb
00000010: 4d8a 25bb 687c 58bb 9f72 413a 1d12 eb3a
00000020: 4c26 393b a825 53bb ca1e 9c3a b0fb 75bb
00000030: 4dc7 99ba 04d3 573b d724 5bbb 5a55 793b
00000040: 10b7 663a 37a1 403a 4343 5d3b 5adb 653b
00000050: 5867 653b 3944 92ba aa0b 8aba 3f37 5dbb
00000060: 0760 18bb f5f7 08bb 53c4 823b defe 7cbb
00000070: e4a7 1abb 02fa 413b 5df8 fb3a 69fe 613b
00000080: 4177 69bb f576 08bb 80f4 853b 83a8 93ba
00000090: 9a22 f0ba 8b8e 7dbb a82a 5cbb efbc 7b3b
000000a0: 6805 663b 18e7 e5ba 1cdb 60bb 4597 813b
000000b0: bcbd 6c3b 4348 613b 01e2 7dbb 78ca 21bb
000000c0: fa1d 813b f998 213b 44bc 1dbb 2c10 11bb
000000d0: 44e4 753b c4a5 05bb f1a9 b23a 39d0 7e3b
000000e0: 6d67 6c3b f666 1e3b 3881 7ebb 7121 77bb
000000f0: eba6 08bb 9f1e 9139 4f6d 7dbb b6a3 573b

mlp.mlp.fc_h.0.weight f4 [64, 64]
-0.08106963 -0.03762371 0.41420215 0.07472915 0.3437896 -0.124299586 -0.072996885 -0.14696842
0.1653812 0.028749608 0.22288732 0.14138186 -0.05812316 0.28612277 0.02864306 0.034850005
-0.008369337 -0.2893103 0.12032006 -0.2596473 -0.04848 0.22717334 -0.10718721 -0.37524718
0.13922249 -0.06322553 -0.0074482267 -0.05487116 -0.181143 -0.04053043 -0.09037797 0.2304156
-0.21196881 0.24885002 0.21177615 -0.12510261 -0.23880261 -0.049221985 -0.29184708 -0.26103857
0.0048381775 -0.19626606 -0.10104153 0.129802 -0.0642395 0.43529838 -0.06881872 0.007887158
0.15974791 -0.043914862 0.1624778 -0.12831883 -0.059040874 0.17517745 0.039214727 0.1177477
0.17691384 0.23359433 0.018065723 0.19731647 -0.015426436 0.06777836 0.09317312 -0.2691213
-0.24338907 -0.16743307 -0.013966849 0.21687295 0.014122366 -0.11485211 0.05734686 0.034668062
-0.123806916 0.25702235 0.18163544 0.04314444 0.02110008 -0.027441507 -0.14875168 -0.21192704
0.06641267 -0.4066807 0.23336336 -0.38579613 0.047557287 0.078912996 -0.113677695 0.13088462
-0.055326313 -0.18776189 0.15769598 0.2776439 0.18662076 0.033104263 0.1140794 0.110957876
0.07418967 -0.17528743 -0.16097061 -0.053157795 0.1913198 0.009097243 0.12512133 0.12069749
-0.06706602 -0.17669246 -0.26188132 0.27588412 0.514452 0.027969968 0.08764722 0.009067712
-0.19390061 0.10047339 -0.12073421 -0.024578353 -0.049660824 0.34612197 -0.029947143 0.062406246
-0.12477524 -0.18455434 0.23203593 -0.062195554 -0.17155443 0.17454432 0.074347064 0.3190464
-0.12647615 -0.36956683 0.12878594 0.0033175629 -0.10454512 0.09627379 0.15198408 0.014355957
0.16790877 0.09737512 -0.040351428 -0.08239416 -0.103770174 0.1901395 -0.049799044 0.25502646
-0.098037414 -0.16726866 -0.009308368 0.20878844 0.08574663 -0.19377185 0.043602895 0.2530994
-0.2293267 0.141657 0.18763527 -0.28989857 -0.07053221 -0.18190125 -0.013411588 0.013268792
-0.09823535 -0.33192837 0.108642474 0.19416109 -0.017641196 0.12819557 -0.20359968 0.44021097
0.16069089 -0.028345078 0.19919665 -0.12318914 -0.08037618 0.2650258 0.12315655 0.46335456
-0.23074287 -0.044245217 -0.027380852 -0.106087334 -0.16333805 0.35685015 -0.12755561 0.19062649
0.091375075 -0.08039716 -0.18434218 0.06691975 0.16154318 -0.014473346 0.20057867 -0.036557745
-0.18078686 0.10470497 -0.010770939 0.23521145 0.34270594 0.103944115 -0.376431 -0.22039105
0.098105974 0.08051141 0.12486155 0.14449175 0.301766 -0.18218872 0.20483868 -0.35199755
0.096704274 0.09579482 0.15806213 0.061270516 0.13825789 0.021021165 -0.09347101 0.23273894
0.08827583 0.054207332 0.09269156 -0.02704331 -0.22378682 0.21408826 -0.071162716 0.2200811
0.026677512 -0.2221839 -0.20990121 0.15318125 -0.04657521 -0.026990905 0.013150386 0.30812767
0.19222459 0.15974115 -0.047234867 -0.16178985 -0.024378646 0.062987916 0.06578041 -0.29371524
0.18744123 -0.23360468 0.04204977 0.043910578 0.018061316 0.054488476 -0.3202091 0.16991208
-0.098283365 -0.120016865 0.036374044 0.16141583 0.1523884 -0.45928884 -0.045581162 -0.15187751
00000000: d607 a6bd 521b 1abd 4e12 d43e 990b 993d
00000010: 3105 b03e c890 febd 647f 95bd e47e 16be
00000020: b059 293e 4c84 eb3c 933c 643e 68c6 103e
00000030: 8d12 6ebd af7e 923e daa4 ea3c e1be 0e3d
00000040: 8b1f 09bc 7b20 94be 5d6a f63d 7ef0 84be
00000050: f792 46bd 21a0 683e f884 dbbd 6620 c0be
00000060: 5790 0e3e 637c 81bd 4110 f4bb 95c0 60bd
00000070: 8d7d 39be 3c03 26bd 1618 b9bd 11f2 6b3e
00000080: 5a0e 59be 8ad2 7e3e d9db 583e e61a 00be
00000090: ac88 74be fe9c 49bd fb6c 95be d9a6 85be
000000a0: 9389 9e3b f8f9 48be ddee cebd d1ea 043e
000000b0: 0090 83bd 6edf de3e d4f0 8cbd 2339 013c
000000c0: f594 233e 12e0 33bd 9560 263e 0366 03be
000000d0: d8d4 71bd b861 333e 9f9f 203d b525 f13d
000000e0: e728 353e 5a33 6f3e 91fe 933c 540d 4a3e
000000f0: 2abf 7cbc 61cf 8a3d 8cd1 be3d 44ca 89be
00000100: fc3a 79be 9373 2bbe 36d5 64bc f113 5e3e
00000110: 7f61 673c 9537 ebbd 8be4 6a3d 1900 0e3d
00000120: 7b8e fdbd 6f98 833e a4fe 393e 39b8 303d
00000130: 13da ac3c 03cd e0bc 5c52 18be 6703 59be
00000140: 5e03 883d 7438 d0be cef6 6e3e 1287 c5be
00000150: 6ecb 423d 239d a13d dacf e8bd 9e06 063e
00000160: d89d 62bd a744 40be 0e7b 213e 5727 8e3e
00000170: 8319 3f3e 5698 073d 76a2 e93d e23d e33d
00000180: c1f0 973d 8c7e 33be 7bd5 24be fdbb 59bd
00000190: 56e9 433e 9a0c 153c ce1f 003e 3f30 f73d
000001a0: e959 89bd deee 34be 4f15 86be af40 8d3e
000001b0: 20b3 033f 4621 e53c 6380 b33d be90 143c
000001c0: e28d 46be fec4 cd3d 7f43 f7bd 8b58 c9bc
000001d0: 2669 4bbd e636 b13e b653 f5bc b19d 7f3d
000001e0: 298a ffbd d0fb 3cbe d49a 6d3e c4c0 7ebd
000001f0: f7ab 2fbe bfbb 323e 4643 983d 0d5a a33e
00000200: f782 01be dd37 bdbe 76e0 033e 786b 593b
00000210: c01b d6bd 312b c53d b7a1 1b3e 3f35 6b3c
00000220: 47f0 2b3e 9b6c c73d 8a47 25bd 45be a8bd
00000230: 7585 d4bd eeb3 423e 15fa 4bbd d492 823e
00000240: d7c7 c8bd 7a48 2bbe 2082 18bc a3cc 553e
00000250: ee9b af3d 216c 46be f398 323d 3f96 813e
00000260: 9ed4 6abe 880e 113e 7623 403e 966d 94be
00000270: 3173 90bd 5244 3abe 47bc 5bbc 5965 593c
00000280: 9d2f c9bd 84f2 a9be f27f de3d 2ad2 463e
00000290: 4584 90bc b345 033e 6f7c 50be 5563 e13e
000002a0: 278c 243e f033 e8bc 35fa 4b3e 964a fcbd
000002b0: 449c a4bd 76b1 873e 8039 fc3d cf3c ed3e
000002c0: dc47 6cbe 793a 35bd cf4d e0bc 5144 d9bd
000002d0: 1742 27be 10b5 b63e f09d 02be 9733 433e
000002e0: db22 bb3d 44a7 a4bd 32c4 3cbe 390d 893d
000002f0: 936b 253e 9d21 6dbc 7f64 4d3e 93bd 15bd
00000300: 3120 39be 8f6f d63d 9878 30bc 45db 703e
00000310: 2777 af3e a7e0 d43d 90bb c0be 31ae 61be
00000320: c9eb c83d 2be3 a43d 6ab7 ff3d a5f5 133e
00000330: 1381 9a3e ae8f 3abe 3bc1 513e 0639 b4be
00000340: e40c c63d 1330 c43d 0adb 213e cbf6 7a3d
00000350: 7a93 0d3e 9434 ac3c bb6d bfbd 1e53 6e3e
00000360: f5c9 b43d 8208 5e3d 13d5 bd3d ef89 ddbc
00000370: 5f28 65be f439 5b3e c2bd 91bd f15c 613e
00000380: cc8a da3c 2d84 63be 58f0 56be 8cdb 1c3e
00000390: a6c5 3ebd 081c ddbc b774 573c e9c2 9d3e
000003a0: 86d6 443e 2f93 233e 5979 41bd 3dac 25be
000003b0: bab5 c7bc cfff 803d e1b7 863d d861 96be
000003c0: 98f0 3f3e 1136 6fbe 613c 2c3d 94db 333d
000003d0: 53f5 933c 4f2f 5f3d 72f2 a3be 6ffd 2d3e
000003e0: ca48 c9bd 67cb f5bd f3fc 143d 314a 253e
000003f0: b40b 1c3e e827 ebbe 50b3 3abd c785 1bbe

mlp.mlp.fc_h.0.bias f4 [64]
0.0 0.0 0.0 0.0 0.0 0.0 0.0 0.0
0.0 0.0 0.0 0.0 0.0 0.0 0.0 0.0
0.0 0.0 0.0 0.0 0.0 0.0 0.0 0.0
0.0 0.0 0.0 0.0 0.0 0.0 0.0 0.0
0.0 0.0 0.0 0.0 0.0 0.0 0.0 0.0
0.0 0.0 0.0 0.0 0.0 0.0 0.0 0.0
0.0 0.0 0.0 0.0 0.0 0.0 0.0 0.0
0.0 0.0 0.0 0.0 0.0 0.0 0.0 0.0
00000000: 0000 0000 0000 0000 0000 0000 0000 0000
00000010: 0000 0000 0000 0000 0000 0000 0000 0000
00000020: 0000 0000 0000 0000 0000 0000 0000 0000
00000030: 0000 0000 0000 0000 0000 0000 0000 0000
00000040: 0000 0000 0000 0000 0000 0000 0000 0000
00000050: 0000 0000 0000 0000 0000 0000 0000 0000
00000060: 0000 0000 0000 0000 0000 0000 0000 0000
00000070: 0000 0000 0000 0000 0000 0000 0000 0000
00000080: 0000 0000 0000 0000 0000 0000 0000 0000
00000090: 0000 0000 0000 0000 0000 0000 0000 0000
000000a0: 0000 0000 0000 0000 0000 0000 0000 0000
000000b0: 0000 0000 0000 0000 0000 0000 0000 0000
000000c0: 0000 0000 0000 0000 0000 0000 0000 0000
000000d0: 0000 0000 0000 0000 0000 0000 0000 0000
000000e0: 0000 0000 0000 0000 0000 0000 0000 0000
000000f0: 0000 0000 0000 0000 0000 0000 0000 0000

mlp.mlp.fc_h.2.weight f4 [64]
1.0 1.0 1.0 1.0 1.0 1.0 1.0 1.0
1.0 1.0 1.0 1.0 1.0 1.0 1.0 1.0
1.0 1.0 1.0 1.0 1.0 1.0 1.0 1.0
1.0 1.0 1.0 1.0 1.0 1.0 1.0 1.0
1.0 1.0 1.0 1.0 1.0 1.0 1.0 1.0
1.0 1.0 1.0 1.0 1.0 1.0 1.0 1.0
1.0 1.0 1.0 1.0 1.0 1.0 1.0 1.0
1.0 1.0 1.0 1.0 1.0 1.0 1.0 1.0
00000000: 0000 803f 0000 803f 0000 803f 0000 803f
00000010: 0000 803f 0000 803f 0000 803f 0000 803f
00000020: 0000 803f 0000 803f 0000 803f 0000 803f
00000030: 0000 803f 0000 803f 0000 803f 0000 803f
00000040: 0000 803f 0000 803f 0000 803f 0000 803f
00000050: 0000 803f 0000 803f 0000 803f 0000 803f
00000060: 0000 803f 0000 803f 0000 803f 0000 803f
00000070: 0000 803f 0000 803f 0000 803f 0000 803f
00000080: 0000 803f 0000 803f 0000 803f 0000 803f
00000090: 0000 803f 0000 803f 0000 803f 0000 803f
000000a0: 0000 803f 0000 803f 0000 803f 0000 803f
000000b0: 0000 803f 0000 803f 0000 803f 0000 803f
000000c0: 0000 803f 0000 803f 0000 803f 0000 803f
000000d0: 0000 803f 0000 803f 0000 803f 0000 803f
000000e0: 0000 803f 0000 803f 0000 803f 0000 803f
000000f0: 0000 803f 0000 803f 0000 803f 0000 803f

mlp.mlp.fc_h.2.bias f4 [64]
0.0 0.0 0.0 0.0 0.0 0.0 0.0 0.0
0.0 0.0 0.0 0.0 0.0 0.0 0.0 0.0
0.0 0.0 0.0 0.0 0.0 0.0 0.0 0.0
0.0 0.0 0.0 0.0 0.0 0.0 0.0 0.0
0.0 0.0 0.0 0.0 0.0 0.0 0.0 0.0
0.0 0.0 0.0 0.0 0.0 0.0 0.0 0.0
0.0 0.0 0.0 0.0 0.0 0.0 0.0 0.0
0.0 0.0 0.0 0.0 0.0 0.0 0.0 0.0
00000000: 0000 0000 0000 0000 0000 0000 0000 0000
00000010: 0000 0000 0000 0000 0000 0000 0000 0000
00000020: 0000 0000 0000 0000 0000 0000 0000 0000
00000030: 0000 0000 0000 0000 0000 0000 0000 0000
00000040: 0000 0000 0000 0000 0000 0000 0000 0000
00000050: 0000 0000 0000 0000 0000 0000 0000 0000
00000060: 0000 0000 0000 0000 0000 0000 0000 0000
00000070: 0000 0000 0000 0000 0000 0000 0000 0000
00000080: 0000 0000 0000 0000 0000 0000 0000 0000
00000090: 0000 0000 0000 0000 0000 0000 0000 0000
000000a0: 0000 0000 0000 0000 0000 0000 0000 0000
000000b0: 0000 0000 0000 0000 0000 0000 0000 0000
000000c0: 0000 0000 0000 0000 0000 0000 0000 0000
000000d0: 0000 0000 0000 0000 0000 0000 0000 0000
000000e0: 0000 0000 0000 0000 0000 0000 0000 0000
000000f0: 0000 0000 0000 0000 0000 0000 0000 0000

mlp.mlp.fc2.0.0.weight f4 [64, 64]
-0.08491394 -0.04114418 0.4172656 0.07854388 0.3437979 -0.12090102 -0.0750345 -0.1456571
0.16876261 0.026688732 0.21903522 0.14411771 -0.06144929 0.28313562 0.03235838 0.032918002
-0.01103628 -0.2916615 0.12177826 -0.2558042 -0.0461125 0.2234251 -0.10636326 -0.3770065
0.138117 -0.06696856 -0.010385201 -0.05772412 -0.18401562 -0.03806297 -0.087910585 0.2275096
-0.21539734 0.252089 0.2153763 -0.12570469 -0.23684458 -0.04519363 -0.28894845 -0.26417822
0.008630968 -0.19954738 -0.10376916 0.12698598 -0.06647391 0.43238467 -0.07240704 0.004074859
0.15931487 -0.04112314 0.16621068 -0.12562332 -0.06282162 0.17717454 0.037077535 0.11872281
0.1739224 0.23210336 0.021877045 0.1936895 -0.012642643 0.06557953 0.089593016 -0.27247828
-0.24609396 -0.16854435 -0.012709679 0.22006916 0.012123147 -0.11397145 0.057836585 0.032774657
-0.12409565 0.25730875 0.17834173 0.04468277 0.02158543 -0.030920407 -0.145576 -0.21490853
0.06398034 -0.40960598 0.23579137 -0.38277748 0.0506704 0.075548045 -0.112384774 0.13271634
-0.058166154 -0.18926509 0.15523672 0.27463296 0.18928285 0.035440587 0.116425276 0.11140831
0.0739529 -0.17553458 -0.15757298 -0.052546818 0.19121118 0.012420032 0.12805595 0.118617624
-0.063972235 -0.17600816 -0.26025945 0.2746626 0.5158844 0.026365649 0.085693605 0.007727261
-0.19174309 0.10029788 -0.11755951 -0.021520311 -0.05302763 0.34806556 -0.030037308 0.06408763
-0.12621243 -0.1855866 0.23406613 -0.065251775 -0.16925608 0.17228638 0.07310784 0.31595492
-0.12959118 -0.37163398 0.13112558 0.0069096414 -0.103850536 0.099089265 0.1542503 0.016158864
0.16933832 0.094303176 -0.04133935 -0.083945654 -0.10586446 0.18723784 -0.046477836 0.2572175
-0.101338975 -0.16882011 -0.0066988813 0.21262968 0.08435448 -0.19758336 0.045912772 0.2543378
-0.23204944 0.14043687 0.18537916 -0.29323927 -0.07000668 -0.18275668 -0.0107669 0.010272844
-0.10203606 -0.33026183 0.11135098 0.19398502 -0.019638544 0.13105056 -0.20082124 0.44075388
0.16398135 -0.028159458 0.19896375 -0.12677385 -0.08399975 0.26204106 0.12355365 0.46160105
-0.23304246 -0.041938238 -0.027395608 -0.10777091 -0.16721952 0.35997972 -0.12988728 0.19355778
0.09174462 -0.078752644 -0.18390939 0.06345801 0.1648516 -0.017955631 0.19796318 -0.038826987
-0.177196 0.10705841 -0.013315796 0.23143984 0.34449735 0.10100743 -0.37602663 -0.22004132
0.09596518 0.082374156 0.12839401 0.14207612 0.30309048 -0.17940183 0.20212121 -0.35022765
0.098820135 0.09775805 0.15555534 0.05791536 0.1359666 0.024056517 -0.09429945 0.23370753
0.091058455 0.05743746 0.094928555 -0.024067227 -0.22421047 0.21059832 -0.07434652 0.22331901
0.02795351 -0.2238071 -0.21344794 0.15169945 -0.045185044 -0.030849619 0.011055267 0.3086331
0.18973716 0.16073817 -0.044595495 -0.16042751 -0.025576936 0.06589574 0.06819646 -0.2904215
0.18562925 -0.23529615 0.038723424 0.04099335 0.020719795 0.053627383 -0.319703 0.17286119
-0.09535455 -0.11846962 0.033117037 0.16445419 0.15019251 -0.45633093 -0.042155955 -0.14831547
00000000: 5ce7 adbd cd86 28bd d6a3 d53e 9ddb a03d
00000010: 4706 b03e f49a f7bd b0ab 99bd 2327 15be
00000020: 1bd0 2c3e 54a2 da3c c54a 603e 9893 133e
00000030: 40b2 7bbd 27f7 903e 388a 043d 07d5 063d
00000040: 83d1 34bc a854 95be e166 f93d c5f8 82be
00000050: 76e0 3cbd 8dc9 643e fbd4 d9bd ff06 c1be
00000060: 8b6e 0d3e d026 89bd b126 2abc 2070 6cbd
00000070: 976e 3cbe ebe7 1bbd 770a b4bd 47f8 683e
00000080: 1f91 5cbe cf11 813e 9b8b 5c3e bbb8 00be
00000090: 6387 72be f51c 39bd 0df1 93be 5e42 87be
000000a0: e768 0d3c 2656 4cbe ed84 d4bd 9d08 023e
000000b0: 7923 88bd 8661 dd3e 244a 94bd 6586 853b
000000c0: 7023 233e bd70 28bd 2233 2a3e 66a3 00be
000000d0: 9fa8 80bd 3e6d 353e 9dde 173d f224 f33d
000000e0: b718 323e 81ac 6d3e 7d37 b33c 8a56 463e
000000f0: 1723 4fbc 904e 863d 8b7c b73d 4682 8bbe
00000100: 0e00 7cbe e496 2cbe 423c 50bc cf59 613e
00000110: 2aa0 463c dd69 e9bd 0ee6 6c3d b83e 063d
00000120: dc25 febd f9bd 833e 379f 363e 4805 373d
00000130: edd3 b03c cb4c fdbc e011 15be fb10 5cbe
00000140: 2008 833d e0b7 d1be 4b73 713e 69fb c3be
00000150: c48b 4f3d efb8 9a3d fd29 e6bd cbe6 073e
00000160: a23f 6ebd b5ce 41be 60f6 1e3e b19c 8c3e
00000170: 5dd3 413e 262a 113d 6070 ee3d 0a2a e43d
00000180: 9e74 973d 56bf 33be d05a 21be 553b 57bd
00000190: ddcc 433e 647d 4b3c 1921 033e cced f23d
000001a0: e003 83bd 7c3b 34be ba40 85be 94a0 8c3e
000001b0: 0011 043f c6fc d73c 2180 af3d f734 fd3b
000001c0: 4d58 44be fa68 cd3d 0ac3 f0bd 5d4b b0bc
000001d0: 8033 59bd a635 b23e cd10 f6bc 6040 833d
000001e0: d53d 01be 6a0a 3ebe 08af 6f3e b9a2 85bd
000001f0: 7751 2dbe d76b 303e 90b9 953d d8c4 a13e
00000200: 8db3 04be cf46 bebe c945 063e 466a e23b
00000210: 97af d4bd 50ef ca3d caf3 1d3e 985f 843c
00000220: 0667 2d3e 0622 c13d 7353 29bd b3eb abbd
00000230: 77cf d8bd 47bb 3f3e 8b5f 3ebd 03b2 833e
00000240: cf8a cfbd 2edf 2cbe 4a82 dbbb 98bb 593e
00000250: 0bc2 ac3d 4b53 4abe 080f 3c3d 9038 823e
00000260: 5e9e 6dbe afce 0f3e 09d4 3d3e 7523 96be
00000270: aa5f 8fbd 9124 3bbe a767 30bc 6e4f 283c
00000280: 48f8 d0bd 1418 a9be fc0b e43d 02a4 463e
00000290: 03e1 a0bc 1e32 063e 15a4 4dbe 7eaa e13e
000002a0: baea 273e aaae e6bc 27bd 4b3e 01d1 01be
000002b0: 1008 acbd 3f2a 863e b209 fd3d f956 ec3e
000002c0: afa2 6ebe 6ec7 2bbd c16c e0bc ffb6 dcbd
000002d0: 983b 2bbe 434f b83e 2c01 05be 0334 463e
000002e0: 9ae4 bb3d 1149 a1bd be52 3cbe 46f6 813d
000002f0: dcce 283e b017 93bc dcb6 4a3e 0c09 1fbd
00000300: de72 35be 7141 db3d 7f2a 5abc 91fe 6c3e
00000310: f561 b03e fcdc ce3d 9086 c0be 8352 61be
00000320: 6489 c43d c8b3 a83d b879 033e 677c 113e
00000330: ad2e 9b3e 1db5 37be ddf8 4e3e 0a51 b3be
00000340: 3662 ca3d 5f35 c83d e649 1f3e a838 6d3d
00000350: d43a 0b3e 2c12 c53c 1220 c1bd 0751 6f3e
00000360: db7c ba3d 8b43 6b3d e769 c23d a228 c5bc
00000370: 6e97 65be 16a7 573e fd42 98bd bdad 643e
00000380: c2fe e43c b02d 65be 1992 5abe 1a57 1b3e
00000390: f413 39bd 57b8 fcbc 2721 353c 2805 9e3e
000003a0: 754a 423e 8c98 243e c4a9 36bd 1c47 24be
000003b0: b986 d1bc 59f4 863d 96aa 8b3d 20b2 94be
000003c0: 9815 3e3e 79f1 70be 749c 1e3d a5e8 273d
000003d0: 8fbc a93c 63a8 5b3d 1db0 a3be 8602 313e
000003e0: 3f49 c3bd 33a0 f2bd bba5 073d ae66 283e
000003f0: 11cc 193e 35a4 e9be b9ab 2cbd 03e0 17be

mlp.mlp.fc2.0.0.bias f4 [64]
0.003672611 0.00016217203 0.0038093398 -0.0026988199 0.0013364985 -0.0030574258 0.0021914928 -0.0014939305
0.0036347725 -0.0026463345 -0.0028687255 -0.0026339998 0.0005018539 -0.0037341663 -0.0007477326 -0.0034033374
0.0034185923 -0.0036067928 0.0032277706 0.00089424365 -0.0032098377 -0.003748088 0.0017170021 0.0038104134
-0.0037612782 -0.00067132333 0.003867387 -0.0039750147 0.0036634607 0.0038480586 -0.00078468607 -0.003668583
-0.0031051736 0.0038450318 -0.0034239986 0.0034905002 -0.0038441916 -0.00336272 0.002205249 0.0039749825
-0.0028166124 -0.0023593677 0.0007683043 0.0033500516 0.0025709756 0.0010883344 -0.0036788958 0.0038952103
-0.0028118445 -0.0036082086 -0.0039543547 0.0029631502 0.00353146 -0.0015523139 0.0024518066 0.003371783
0.0011072805 0.0033050019 -0.0024312742 0.003940181 0.0021042838 0.0027508105 0.0018176736 -0.000796311
00000000: 30b0 703b b90c 2a39 1ea6 793b afde 30bb
00000010: 732d af3a 185f 48bb 269f 0f3b fdcf c3ba
00000020: 5d35 6e3b 206e 2dbb 3a01 3cbb 2f9f 2cbb
00000030: d88e 033a eab8 74bb 7c03 44ba 870a 5fbb
00000040: 760a 603b f15f 6cbb 0189 533b ad6b 6a3a
00000050: 245c 52bb 7ba2 75bb 080d e13a 21b8 793b
00000060: c77f 76bb bffb 2fba fd73 7d3b d740 82bb
00000070: ac16 703b b62f 7c3b 64b3 4dba 9c6c 70bb
00000080: 2b80 4bbb eefc 7b3b 2a65 60bb e0c0 643b
00000090: d5ee 7bbb 1461 5cbb f085 103b 9240 823b
000000a0: ea96 38bb 9f9f 1abb 0768 493a 8a8c 5b3b
000000b0: d07d 283b 71a6 8e3a a119 71bb c946 7f3b
000000c0: ec46 38bb b277 6cbb 8893 81bb 6931 423b
000000d0: 1170 673b 0377 cbba 7dae 203b 22f9 5c3b
000000e0: 2b22 913a bb98 583b 0356 1fbb a21c 813b
000000f0: 06e8 093b f146 343b 013f ee3a 87bf 50ba

mlp.mlp.fc2.0.2.weight f4 [64]
0.9966052 0.9971899 1.0034306 0.99752176 0.9960083 0.99906325 1.0024694 0.99597704
0.99686694 1.0034639 0.9979284 0.99863464 1.0030683 1.0024664 1.003448 1.0031492
1.0027307 0.9979969 1.0033859 0.99639046 0.9994381 0.99712795 0.9974345 1.0035672
1.0026015 1.0018611 1.0032411 0.99624246 1.0034068 1.0037342 1.0032185 1.0010519
0.9991544 1.0029663 1.0001222 1.000415 1.0033252 0.99625516 0.9970731 1.0037051
0.9997807 0.99815583 1.003383 1.0000777 0.9995552 1.0028201 0.9982191 1.0015115
1.0011647 0.99814546 0.9960777 0.9982349 0.9968198 1.0009931 1.0032706 1.0029992
1.000509 0.9991868 1.0016673 1.0035975 1.003436 1.0033323 1.0034328 0.99682707
00000000: 8521 7f3f d647 7f3f 6a70 803f 965d 7f3f
00000010: 66fa 7e3f 9cc2 7f3f eb50 803f 5af8 7e3f
00000020: ac32 7f3f 8171 803f 3c78 7f3f 85a6 7f3f
00000030: 8b64 803f d250 803f fc70 803f 3167 803f
00000040: 7b59 803f ba7c 7f3f f36e 803f 7213 7f3f
00000050: 2ddb 7f3f c743 7f3f de57 7f3f e474 803f
00000060: 3f55 803f fc3c 803f 346a 803f bf09 7f3f
00000070: a26f 803f 5d7a 803f 7769 803f 7822 803f
00000080: 95c8 7f3f 3361 803f 0104 803f 990d 803f
00000090: f66c 803f 940a 7f3f 2f40 7f3f 6979 803f
000000a0: a1f1 7f3f 2487 7f3f db6e 803f 8c02 803f
000000b0: d9e2 7f3f 695c 803f 498b 7f3f 8731 803f
000000c0: 2a26 803f 7686 7f3f f3fe 7e3f 538c 7f3f
000000d0: 952f 7f3f 8b20 803f 2c6b 803f 4762 803f
000000e0: ae10 803f b5ca 7f3f a236 803f e275 803f
000000f0: 9770 803f 316d 803f 7c70 803f 0f30 7f3f

mlp.mlp.fc2.0.2.bias f4 [64]
0.0038226347 0.0017044236 0.0036919175 -0.0033393444 0.0039848117 -0.0037249206 -0.00014122463 0.0038774624
0.00384719 -0.0036964957 -0.003762553 -0.0032586383 -0.0025823284 -0.0038476775 -0.0034986127 -0.004154543
0.003182916 -0.0037453852 0.0013783418 0.0038275854 -0.0029875152 -0.0038367666 0.0027425098 0.003958381
-0.0039625918 -0.0029940451 0.0038562329 -0.003845954 0.0035119483 0.002875761 -0.0034858778 -0.003972
-0.0035275433 0.0039214715 -0.0038251597 0.0036874632 -0.0040459465 -0.0032446603 0.0038162647 0.003984375
-0.0037401444 -0.0024271875 -0.0037145414 0.003266395 0.0018594897 -0.0005773778 -0.003918264 0.0036887731
-0.003887572 -0.0038836957 -0.0038433347 0.0036797652 0.003915026 -0.0034898142 0.00058286724 0.002339848
0.0003341437 0.0036406699 -0.003376574 0.0028990542 -0.0019371874 -0.0011125703 -0.00215479 -0.001633693
00000000: 2b85 7a3b f766 df3a 19f4 713b e7d8 5abb
00000010: 0693 823b cc1d 74bb b315 14b9 061d 7e3b
00000020: 2321 7c3b e840 72bb 2a95 76bb e18e 55bb
00000030: 483c 29bb 5129 7cbb fb48 65bb d522 88bb
00000040: 7898 503b 2375 75bb 7aa9 b43a 3ad8 7a3b
00000050: 30ca 43bb 4372 7bbb aebb 333b 4eb5 813b
00000060: a1d8 81bb be37 44bb dab8 7c3b 670c 7cbb
00000070: b728 663b 4377 3c3b 5373 64bb 8d27 82bb
00000080: 5b2e 67bb b07f 803b 88af 7abb 5ea9 713b
00000090: dc93 84bb 5ea4 54bb 4c1a 7a3b 5c8f 823b
000000a0: 361d 75bb 7311 1fbb aa6f 73bb 0411 563b
000000b0: 1fba f33a 2b5b 17ba c864 80bb 58bf 713b
000000c0: a3c6 7ebb 9a85 7ebb 75e0 7bbb 3728 713b
000000d0: 9e49 803b 5eb5 64bb 8fcb 183a 2358 193b
000000e0: 0230 af39 4e98 6e3b 8349 5dbb 0ffe 3d3b
000000f0: 39e9 fdba aad3 91ba 6137 0dbb a421 d6ba

mlp.mlp.fc2.1.0.weight f4 [64, 64]
-0.0776613 -0.033863146 0.4124062 0.07157209 0.34776983 -0.12660435 -0.075560555 -0.14295349
0.16870642 0.028949602 0.21908186 0.13754572 -0.061535284 0.28801093 0.030495958 0.034577847
-0.004815915 -0.29131794 0.12275828 -0.25656018 -0.044676058 0.22331901 -0.10459073 -0.37684765
0.13957678 -0.062890984 -0.006457307 -0.057853855 -0.18230537 -0.043777414 -0.0901231 0.22791445
-0.21323088 0.24919213 0.20853668 -0.12331222 -0.23644765 -0.052354652 -0.28937045 -0.26419848
0.002087486 -0.19604337 -0.098703876 0.13260072 -0.06750154 0.43249133 -0.07187452 0.0073950705
0.15906681 -0.046522066 0.15867352 -0.12630534 -0.055148646 0.17590342 0.042873293 0.12123123
0.17393008 0.23727173 0.021532362 0.19475567 -0.01579415 0.064687595 0.09517676 -0.27257466
-0.23963828 -0.16349225 -0.016963128 0.21365723 0.018068781 -0.1129373 0.054586913 0.03863735
-0.120767094 0.258702 0.17776267 0.039506547 0.017515011 -0.024701143 -0.14553499 -0.20981815
0.06778529 -0.40937868 0.23375317 -0.3820998 0.051434863 0.07526022 -0.110194445 0.1278695
-0.055992253 -0.18463638 0.1565427 0.27424994 0.18357742 0.02970039 0.11732 0.1128022
0.07115711 -0.1727964 -0.16453172 -0.05531165 0.1946573 0.005472846 0.12733877 0.11734747
-0.070635095 -0.17648663 -0.25818342 0.27934092 0.5107091 0.028619545 0.086762175 0.011489735
-0.19359092 0.09748746 -0.12445384 -0.021226708 -0.045738906 0.34713927 -0.026283301 0.06511763
-0.12791912 -0.18115161 0.23603947 -0.06150441 -0.16856271 0.17285307 0.07499223 0.31524432
-0.1300097 -0.37342292 0.13195227 0.0054047196 -0.108332984 0.09506567 0.15125614 0.010604367
0.16604535 0.09967144 -0.037973613 -0.07904459 -0.10419412 0.19129173 -0.052260138 0.25663003
-0.09806316 -0.17021103 -0.009268433 0.20591031 0.08426441 -0.19741954 0.040738396 0.25574023
-0.22913975 0.13882954 0.18793215 -0.28670302 -0.07300904 -0.1784468 -0.01654692 0.015669197
-0.09548677 -0.33511707 0.11119665 0.19330156 -0.018379161 0.13074787 -0.20718475 0.4437377
0.16398 -0.031108376 0.19792922 -0.12652327 -0.07762124 0.26835287 0.1241908 0.4607062
-0.23011391 -0.041836154 -0.024239272 -0.109235115 -0.16681136 0.35947216 -0.13113125 0.19005468
0.0938225 -0.084025264 -0.1879061 0.06768183 0.16341977 -0.018090155 0.20353407 -0.03356969
-0.18446651 0.10071128 -0.008942975 0.23863082 0.33910635 0.10474644 -0.38002405 -0.22395107
0.09822005 0.08036615 0.12478777 0.14829051 0.30259457 -0.18507439 0.20411904 -0.354374
0.09982039 0.09338717 0.15969183 0.058432296 0.13669512 0.01877134 -0.09708587 0.23595649
0.09183394 0.05129433 0.09149523 -0.024095215 -0.22756407 0.21764293 -0.072513886 0.22393702
0.028697725 -0.22478402 -0.2065351 0.14953864 -0.0467327 -0.027416594 0.0107456045 0.31157538
0.19471675 0.1616331 -0.05071918 -0.16531776 -0.021045376 0.06612625 0.06778403 -0.29764012
0.19114275 -0.23602146 0.042536613 0.040399965 0.015195197 0.05630558 -0.32404912 0.17244427
-0.098684914 -0.12403674 0.03300673 0.16335091 0.15479939 -0.46315843 -0.042565577 -0.15010978
00000000: e30c 9fbd 15b4 0abd e826 d33e 6394 923d
00000010: e30e b23e 92a4 01be 7ebf 9abd 6662 12be
00000020: 60c1 2c3e b727 ed3c ff56 603e c9d8 0c3e
00000030: 6c0c 7cbd 2b76 933e a9d2 f93c 80a1 0d3d
00000040: d3ce 9dbb a027 95be b168 fb3d db5b 83be
00000050: 3efe 36bd bdad 643e aa33 d6bd 2df2 c0be
00000060: 37ed 0e3e fdcc 80bd d197 d3bb 2af8 6cbd
00000070: 42ae 3abe f24f 33bd 7692 b8bd 6862 693e
00000080: 3259 5abe 392c 7f3e a48a 553e 1e8b fcbd
00000090: 551f 72be d571 56bd 5d28 94be 0645 87be
000000a0: 34ce 083b 98bf 48be 4225 cabd 7cc8 073e
000000b0: 3f3e 8abd 816f dd3e f332 93bd 5952 f23b
000000c0: 69e2 223e ec8d 3ebd 507b 223e 3056 01be
000000d0: 8ce3 61bd 0720 343e e89b 2f3d 1448 f83d
000000e0: ba1a 323e 5cf7 723e a364 b03c 086e 473e
000000f0: bc62 81bc ee7a 843d 08ec c23d e88e 8bbe
00000100: bd63 75be 836a 27be 42f6 8abc f6c8 5a3e
00000110: fb04 943c ac4b e7bd 8796 5f3d 3342 1e3d
00000120: bd54 f7bd 9774 843e 6b07 363e 9ed1 213d
00000130: a47b 8f3c 0d5a cabc 2007 15be 92da 56be
00000140: 04d3 8a3d 159a d1be fe5c 6f3e 96a2 c3be
00000150: 5dad 523d 0822 9a3d a0ad e1bd 39f0 023e
00000160: 2258 65bd 5211 3dbe bb4c 203e 7d6a 8c3e
00000170: b8fb 3b3e 3b4e f33c 7845 f03d d704 e73d
00000180: d2ba 913d 8af1 30be 017b 28be 788e 62bd
00000190: 3e54 473e 8f55 b33b 1865 023e df53 f03d
000001a0: 22a9 90bd e9b8 34be 9e30 84be c605 8f3e
000001b0: d5bd 023f 8973 ea3c 5eb0 b13d 713f 3c3c
000001c0: b33c 46be 81a7 c73d a8e1 febd a2e3 adbc
000001d0: b858 3bbd 3dbc b13e 1450 d7bc 645c 853d
000001e0: 3bfd 02be cf7f 39be 55b4 713e 0cec 7bbd
000001f0: b49b 2cbe 6500 313e 8795 993d b467 a13e
00000200: 4321 05be 4a31 bfbe 7f1e 073e 131a b13b
00000210: afdd ddbd cab1 c23d e4e2 1a3e f0bd 2d3c
00000220: cb07 2a3e 8a20 cc3d 388a 1bbd 21e2 a1bd
00000230: ba63 d5bd fbe1 433e ba0e 56bd 0365 833e
00000240: 57d5 c8bd cd4b 2ebe a0da 17bc 27da 523e
00000250: d292 ac3d 5928 4abe 4edd 263d 62f0 823e
00000260: 9ca3 6abe 5529 0e3e 4971 403e bdca 92be
00000270: c385 95bd c2ba 36be 688d 87bc b05c 803c
00000280: 918e c3bd 7794 abbe 12bb e33d d8f0 453e
00000290: e58f 96bc c5e2 053e 3d28 54be 9631 e33e
000002a0: 60ea 273e fed6 febc f5ad 4a3e 518f 01be
000002b0: e2f7 9ebd 8c65 893e bf57 fe3d afe1 eb3e
000002c0: fba2 6bbe 635c 2bbd 7091 c6bc a9b6 dfbd
000002d0: 99d0 2abe bc0c b83e 4547 06be b29d 423e
000002e0: 0326 c03d 7015 acbd 756a 40be c59c 8a3d
000002f0: 8357 273e ce31 94bc 3c6b 503e 5f80 09bd
00000300: cae4 3cbe b741 ce3d 8e85 12bc a35b 743e
00000310: 599f ad3e 4d85 d63d 8392 c2be 6e53 65be
00000320: 9827 c93d 0297 a43d bb90 ff3d 78d9 173e
00000330: aded 9a3e 2484 3dbe 9504 513e 8270 b5be
00000340: a26e cc3d c641 bf3d 4186 233e b456 6f3d
00000350: cef9 0b3e 5ac6 993c f5d4 c6bd 949e 713e
00000360: 6f13 bc3d 011a 523d da61 bb3d 5463 c5bc
00000370: 8e06 69be cadd 5e3e 2982 94bd bf4f 653e
00000380: 7e17 eb3c c82d 66be f07d 53be a820 193e
00000390: ca6a 3fbd c498 e0bc 550e 303c cf86 9f3e
000003a0: d463 473e 2683 253e eabe 4fbd 0f49 29be
000003b0: 5a67 acbc 336d 873d 5bd2 8a3d 4964 98be
000003c0: edba 433e 9caf 71be df3a 2e3d 6f7a 253d
000003d0: 47f5 783c aea0 663d c4e9 a5be 3b95 303e
000003e0: 511b cabd f906 febd 1132 073d 7645 273e
000003f0: bb83 1e3e 1a23 edbe 3e59 2ebd 61b6 19be

mlp.mlp.fc2.1.0.bias f4 [64]
-0.003637209 -0.00385438 0.0038646746 0.004033349 -0.0024827954 -0.0027816987 0.00403956 0.0035699834
0.003953476 -0.0038817187 -0.0025309438 -0.0036684065 0.003147534 -0.0039310064 0.0039970293 0.0035364672
-0.004057109 -0.0037699572 0.003918184 -0.0036201836 -0.0033046943 0.003946936 0.0037617355 -0.003735408
0.0039239023 0.003765992 0.0038686995 -0.0026248256 0.003702415 0.0040027355 0.0032431034 0.0036129556
-0.0038406092 0.0038640806 -0.0037467938 0.003981489 0.00403715 0.00259791 0.0037911471 -0.0022980457
0.003818088 0.002440489 -0.003874282 0.004034762 -0.0032895585 0.0038929842 -0.0036433316 -0.0037693551
0.0023527287 0.003801226 -0.003902043 0.004095644 0.0036380454 -0.004141464 0.0028918828 -0.003581962
-0.003779088 -0.00395573 -0.0040832614 0.0035899344 0.0006802114 -0.0033046536 -0.0039738803 0.0039814296
00000000: 3e5e 6ebb c499 7cbb 7b46 7d3b 2f2a 843b
00000010: 65b6 22bb 294d 36bb 495e 843b 62f6 693b
00000020: 298c 813b 6f64 7ebb 31de 25bb a669 70bb
00000030: dc46 4e3b accf 80bb 83f9 823b 13c4 673b
00000040: 7ff1 84bb 6311 77bb 1c64 803b 9a40 6dbb
00000050: 9293 58bb 4d55 813b 7387 763b bfcd 74bb
00000060: 1494 803b dcce 763b 028a 7d3b 4405 2cbb
00000070: 37a4 723b 6129 833b 3f8a 543b 56c7 6c3b
00000080: bbb2 7bbb 843c 7d3b c58c 75bb 2777 823b
00000090: 124a 843b b241 2a3b e574 783b cf9a 16bb
000000a0: e338 7a3b 9cf0 1f3b aae7 7dbb 0936 843b
000000b0: a295 57bb 7021 7f3b f6c4 6ebb 4907 77bb
000000c0: 3d30 1a3b fd1d 793b 6bb9 7fbb c134 863b
000000d0: 466c 6e3b 1eb5 87bb be85 3d3b 5abf 6abb
000000e0: 93aa 77bb 119f 81bb e1cc 85bb 1b45 6b3b
000000f0: 3750 323a e392 58bb 5337 82bb a776 823b

mlp.mlp.fc2.1.2.weight f4 [64]
0.9971881 0.99626213 1.0020456 1.0036713 1.0031902 1.0035393 1.0023929 0.99614656
1.0009147 0.9970237 0.99852 0.998303 0.99604034 0.99631166 1.0028367 0.99665004
0.99647963 1.0008116 0.9983475 0.9994657 1.0024737 1.0020471 0.99627393 1.0016198
0.9968383 0.99640954 0.99616826 0.99861085 0.995949 1.000941 0.99953854 0.99616283
0.996266 0.99887514 0.9962373 0.9993883 1.0037926 0.9961909 1.0010176 1.0031621
0.9960601 1.0039307 0.9962637 1.0017914 1.0032289 0.9973598 0.99921614 0.9969075
0.9960308 0.9970949 0.99641937 1.0035063 0.99614525 0.996036 0.9961927 0.99997896
0.99695176 0.99612474 0.99663514 0.99599016 1.00371 1.0004535 0.99879456 0.99967194
00000000: b847 7f3f 090b 7f3f 0843 803f 4d78 803f
00000010: 8968 803f fa73 803f 694e 803f 7603 7f3f
00000020: f91d 803f f23c 7f3f 029f 7f3f c990 7f3f
00000030: 80fc 7e3f 480e 7f3f f45c 803f 7524 7f3f
00000040: 4a19 7f3f 981a 803f b493 7f3f fcdc 7f3f
00000050: 0f51 803f 1443 803f cf0b 7f3f 1435 803f
00000060: cb30 7f3f b214 7f3f e204 7f3f f6a4 7f3f
00000070: 83f6 7e3f d61e 803f c2e1 7f3f 8704 7f3f
00000080: 4a0b 7f3f 48b6 7f3f 6809 7f3f e9d7 7f3f
00000090: 477c 803f 5e06 7f3f 5821 803f 9e67 803f
000000a0: cbfd 7e3f cd80 803f 230b 7f3f b33a 803f
000000b0: ce69 803f f952 7f3f a1cc 7f3f 5435 7f3f
000000c0: e0fb 7e3f 9d41 7f3f 5715 7f3f e572 803f
000000d0: 6003 7f3f 37fc 7e3f 7c06 7f3f 9ffe 7f3f
000000e0: 3b38 7f3f 0802 7f3f 7b23 7f3f 36f9 7e3f
000000f0: 9279 803f dc0e 803f 00b1 7f3f 80ea 7f3f

mlp.mlp.fc2.1.2.bias f4 [64]
-0.0040169396 -0.004017902 0.0040207906 0.0040178215 -0.0040245648 -0.0040225275 0.004023696 0.004028494
0.004021153 -0.004012774 -0.0038716358 -0.004019385 0.004028807 -0.004027443 0.004024033 0.00398609
-0.004024863 -0.004027827 0.0040289327 -0.0039758426 -0.0040269047 0.0040206844 0.0040281466 -0.004024657
0.004023107 0.0040298305 0.004029316 -0.004010424 0.0040275217 0.0040251147 0.0040071616 0.0040286267
-0.004028616 0.0040104217 -0.004022963 0.0040273704 0.004023697 0.004029798 0.0040286635 -0.0038569015
0.004028054 0.003992511 -0.004027756 0.0040270556 -0.0040207743 0.004012468 -0.004014278 -0.0040142806
0.003995144 0.0040249545 -0.0040262938 0.0040271124 0.0040290733 -0.0040242206 0.0039429073 -0.004014667
-0.0040283734 -0.0040250663 -0.0039987713 0.00401108 -0.0040170336 -0.0040185656 -0.004028325 0.0040274295
00000000: 88a0 83bb 9ba8 83bb d6c0 833b eea7 833b
00000010: 7fe0 83bb 68cf 83bb 35d9 833b 7501 843b
00000020: e0c3 833b 977d 83bb 45bb 7dbb 0cb5 83bb
00000030: 1504 843b a4f8 83bb 09dc 833b bf9d 823b
00000040: ffe2 83bb ddfb 83bb 2305 843b c947 82bb
00000050: 20f4 83bb f2bf 833b 8bfe 833b 45e1 83bb
00000060: 44d4 833b ab0c 843b 5a08 843b e069 83bb
00000070: 4df9 833b 1ce5 833b 824e 833b 9202 843b
00000080: 7b02 84bb db69 833b 0fd3 83bb 08f8 833b
00000090: 38d9 833b 650c 843b e102 843b 12c4 7cbb
000000a0: c4fd 833b 9cd3 823b 44fb 83bb 64f5 833b
000000b0: b3c0 83bb 057b 833b 348a 83bb 3a8a 83bb
000000c0: b2e9 823b c4e3 833b 00ef 83bb def5 833b
000000d0: 5106 843b 9cdd 83bb 8133 813b 788d 83bb
000000e0: 7200 84bb b4e4 83bb 2008 83bb 616f 833b
000000f0: 52a1 83bb 2cae 83bb 0a00 84bb 87f8 833b
