train/maddpg-v5/results/formation_hd_env/rmaddpg/hd_7/run1/models/policy_0/actor.pt (torch, 153388 bytes, 22 tensors)

rnn.feature_norm.weight f4 [40]
1.0839734 1.089013 1.1605436 1.0321336 1.1618106 1.0698297 1.0068241 1.1333984
1.2242817 0.97130144 1.1310413 1.1452389 1.2681184 1.0389262 1.2359742 1.0833609
0.9196354 0.80197704 0.8663084 0.88267094 0.9627094 0.86595714 0.8780554 0.8939666
0.77727956 0.7954435 0.8545378 0.9343035 0.85157496 0.9252227 0.94049925 0.75781083
0.74807113 0.9163538 0.8875044 0.7836826 0.86969703 0.9099188 1.0680842 0.90396214
00000000: a4bf 8a3f c764 8b3f b18c 943f f41c 843f
00000010: 36b6 943f 2ef0 883f 9ddf 803f 3313 913f
00000020: 43b5 9c3f 36a7 783f f6c5 903f 3097 923f
00000030: b451 a23f 89fb 843f 6734 9e3f 92ab 8a3f
00000040: 3a6d 6b3f 5e4e 4d3f 63c6 5d3f b9f6 613f
00000050: 2074 763f 5eaf 5d3f 3dc8 603f ffda 643f
00000060: cbfb 463f 2fa2 4b3f fdc2 5a3f 842e 6f3f
00000070: d100 5a3f 65db 6c3f 8fc4 703f e4ff 413f
00000080: 9781 3f3f 2a96 6a3f 7d33 633f 6c9f 483f
00000090: 77a4 5e3f 70f0 683f fcb6 883f 106a 673f

rnn.feature_norm.bias f4 [40]
-0.10433683 0.07788615 0.038316887 0.00033423107 -0.069605306 -0.057975426 -0.033983286 0.07799788
-0.055038948 0.044556566 0.067331806 0.14544138 0.065724365 0.110756785 -0.08774782 0.014277217
-0.06405663 -0.18368256 -0.007691654 -0.03003996 0.008388412 -0.013069043 0.0549323 0.022764824
0.047955167 -0.07173969 0.07475846 -0.16717976 -0.02951536 -0.010207922 0.035701364 -0.022248598
0.045155305 -0.16063125 0.07872759 0.090917125 -0.09004001 -0.06294946 -0.042282935 0.06626272
00000000: 8cae d5bd c682 9f3d 2bf2 1c3d bc3b af39
00000010: 3a8d 8ebd a477 6dbd 0f32 0bbd 5abd 9f3d
00000020: 8570 61bd f280 363d 42e5 893d 96ee 143e
00000030: 7f9a 863d 74d4 e23d 21b5 b3bd fdea 693c
00000040: 1f30 83bd 4817 3cbe 450a fcbb 5d16 f6bc
00000050: 8d6f 093c 8a1f 56bc b100 613d 4c7d ba3c
00000060: a36c 443d 42ec 92bd f71a 993d 2c31 2bbe
00000070: 32ca f1bc 213f 27bc 983b 123d b142 b6bc
00000080: c5f4 383d 857c 24be ee3b a13d c232 ba3d
00000090: e666 b8bd a6eb 80bd df30 2dbd c0b4 873d

rnn.mlp.fc1.0.weight f4 [64, 40]
-0.40422347 -0.2385178 -0.08993657 -0.16214412 0.13414128 -0.15275924 -0.07365142 -0.31590408
-0.097118594 0.088769384 0.1475601 0.19232516 0.12835397 -0.02935904 -0.5091331 0.11154413
0.011711537 -0.16271874 -0.052906 0.40269703 -0.14186405 -0.15874457 -0.18404436 -0.3444862
0.044988625 0.02192732 0.048726603 0.16984546 -0.1048466 -0.10032007 0.018256763 0.12062787
0.1293967 -0.11397413 -0.42125916 0.014457528 -0.047289636 0.038226094 -0.035041355 0.12603372
0.14479947 0.12609462 -0.3780317 -0.39147925 -0.49971887 0.16850734 -0.274743 0.2296368
-0.0399782 0.14547065 -0.16540565 0.33607993 -0.0033612314 -0.048725132 -0.05755763 -0.2707112
-0.21177533 0.018063765 0.12645853 -0.033093143 -0.286366 -0.0957928 -0.019994166 0.3663743
0.19914393 -0.011625753 0.01728283 -0.4546956 -0.07796681 -0.011810926 0.07168614 0.2773807
-0.036067996 0.13423602 0.21978253 -0.014884893 -0.07181979 0.25572065 -0.23494054 0.07884825
-0.2043531 0.2571116 -0.21670388 0.2273326 0.0317874 -0.35831615 0.24051438 -0.0061933617
-0.064684205 0.078230314 -0.16416049 -0.2161414 -0.18032442 -0.206745 -0.030618649 0.21635717
0.25206187 0.021102503 0.19892529 -0.44418386 -0.021213297 0.31358877 0.010954681 -0.07820943
0.2895063 0.30629998 -0.109824084 -0.2858581 -0.055502165 0.034955982 0.23501816 0.006388731
0.3465156 -0.09945942 0.022302583 -0.042079967 -0.04638826 0.3574805 0.22381467 -0.08687079
-0.12496536 0.63174105 -0.15147765 -0.21708457 0.082286485 -0.21995544 -0.3298751 0.027222712
-0.05548954 -0.19861762 -0.23727904 0.24105968 0.34716743 0.25319368 0.11229968 0.08808405
0.17751966 -0.08157777 0.161351 -0.0641739 -0.1600512 0.15424955 0.25288588 -0.2601486
-0.0037280328 -0.20068292 0.0035494363 -0.045098405 -0.02809877 -0.27523986 -0.13654058 -0.20713952
0.2826601 -0.2267949 0.27709618 0.11230793 -0.17559919 -0.042164817 -0.027510367 -0.13543287
0.09417794 0.085053936 0.17358378 0.041520145 -0.021388637 0.30853498 -0.016421057 0.23740633
0.45895115 0.057846412 0.12115122 -0.063408 -0.4125329 0.020812118 -0.040269375 -0.059945676
0.38997325 -0.08027583 -0.34895065 0.04464975 0.4431742 -0.1618252 -0.40044317 0.045840178
-0.12235727 -0.10593823 -0.3793035 -0.18247752 0.057240404 0.22947091 -0.26186967 0.3133369
0.1323247 -0.041470293 -0.09962348 -0.18882091 -0.07834585 -0.26900947 -0.0032685967 -0.16869648
0.18955207 0.12576973 -0.087182425 -0.20738953 0.07502651 0.19642219 0.05747895 0.26015812
0.076586656 -0.12027096 0.32291344 0.2684212 -0.1934935 -0.31386146 -0.064901285 -0.16564694
0.07744093 -0.011356437 0.2631366 -0.0042494503 0.29977778 0.08817064 0.18092091 -0.20259647
-0.05097464 0.003468508 -0.034068268 0.38472784 0.13905191 0.2017569 0.11749211 0.13951933
-0.005509999 -0.16027158 0.011210019 -0.03661281 -0.15642457 -0.038322445 0.036271445 0.1774352
0.015794192 -0.0023487678 0.0014525197 -0.12913549 -0.10442303 -0.35615867 -0.1031454 0.0014554133
-0.016593518 0.6014497 -0.07043025 -0.08725342 -0.5778185 0.0649508 -0.30692908 0.0023758106
00000000: 61f6 cebe 033e 74be aa30 b8bd 1c09 26be
00000010: 555c 093e eb6c 1cbe 8ed6 96bd 2ebe a1be
00000020: 1de6 c6bd b9cc b53d ff19 173e e3f0 443e
00000030: 396f 033e 5f82 f0bc 8c56 02bf 4071 e43d
00000040: bfe1 3f3c be9f 26be f6b3 58bd 4e2e ce3e
00000050: cf44 11be f08d 22be 2076 3cbe 7f60 b0be
00000060: fe45 383d eca0 b33c 8c95 473d f8eb 2d3e
00000070: d0b9 d6bd 9c74 cdbd 358f 953c bf0b f73d
00000080: 9280 043e 456b e9bd 48af d7be 44df 6c3c
00000090: c7b2 41bd f792 1c3d 8687 0fbd fc0e 013e
000000a0: 5046 143e f31e 013e 5f8d c1be f86f c8be
000000b0: 27db ffbe 308d 2c3e 1dab 8cbe e925 6b3e
000000c0: 2ec0 23bd 42f6 143e 1960 29be ab12 ac3e
000000d0: 1b48 5cbb 0194 47bd 8dc1 6bbd a99a 8abe
000000e0: a2db 58be 76fa 933c 587e 013e ad8c 07bd
000000f0: 909e 92be 042f c4bd ceca a3bc 6a95 bb3e
00000100: 63ec 4b3e f179 3ebc b994 8d3c ddcd e8be
00000110: 10ad 9fbd 9d82 41bc 2fd0 923d d804 8e3e
00000120: 09bc 13bd 2b75 093e ac0e 613e c4df 73bc
00000130: 4116 93bd d1ed 823e 4194 70be 317b a13d
00000140: f041 51be 22a4 833e 9fe7 5dbe e1c9 683e
00000150: 8133 023d 3775 b7be 6749 763e aff1 cabb
00000160: 2779 84bd 3737 a03d b019 28be 2c54 5dbe
00000170: f7a6 38be f6b4 53be f6d3 fabc bc8c 5d3e
00000180: 410e 813e 28df ac3c 12b3 4b3e 116c e3be
00000190: 82c7 adbc b58e a03e 437b 333c 442c a0bd
000001a0: 2b3a 943e 5ad3 9c3e 73eb e0bd fe5b 92be
000001b0: 3d56 63bd 012e 0f3d 9aa8 703e 8f58 d13b
000001c0: 7e6a b13e 61b1 cbbd e8b3 b63c 0b5c 2cbd
000001d0: 9e01 3ebd af07 b73e ac2f 653e 50e9 b1bd
000001e0: d7ed ffbd c8b9 213f f51c 1bbe 6b4b 5ebe
000001f0: d185 a83d 003c 61be 64e5 a8be 2a02 df3c
00000200: 0049 63bd 6b62 4bbe 47f9 72be 59d8 763e
00000210: eebf b13e 9aa2 813e 60fd e53d 6965 b43d
00000220: b7c7 353e 3f12 a7bd 3239 253e 9b6d 83bd
00000230: 76e4 23be 98f3 1d3e 427a 813e 3332 85be
00000240: 0352 74bb d37f 4dbe a99d 683b 1bb9 38bd
00000250: 642f e6bc 3dec 8cbe 4bd1 0bbe 621c 54be
00000260: d3b8 903e ec3c 68be 8ddf 8d3e b301 e63d
00000270: 46d0 33be 04b5 2cbd 6c5d e1bc eaae 0abe
00000280: 5de0 c03d c230 ae3d f2bf 313e 0711 2a3d
00000290: 3937 afbc 4cf8 9d3e 7485 86bc a51a 733e
000002a0: a5fb ea3e 5cf0 6c3d 211e f83d 0edc 81bd
000002b0: 8337 d3be 2d7e aa3c 80f1 24bd 9989 75bd
000002c0: 93aa c73e a867 a4bd a9a9 b2be a8e2 363d
000002d0: bbe7 e23e 81b5 25be e306 cdbe e9c2 3b3d
000002e0: 7396 fabd 25f6 d8bd 1134 c2be 63db 3abe
000002f0: ea74 6a3d 6cfa 6a3e c813 86be b26d a03e
00000300: 2080 073e c1dc 29bd 6507 ccbd 455a 41be
00000310: ca73 a0bd 9cbb 89be f435 56bb c5be 2cbe
00000320: f019 423e c8c9 003e b38c b2bd ec5d 54be
00000330: 80a7 993d e622 493e 0c6f 6b3d 7233 853e
00000340: 77d9 9c3d 9f50 f6bd e954 a53e 816e 893e
00000350: 2923 46be 73b2 a0be f7ea 84bd 5a9f 29be
00000360: 5a99 9e3d 5910 3abc d7b9 863e f93e 8bbb
00000370: 797c 993e cf92 b43d 5543 393e 7375 4fbe
00000380: c9ca 50bd e84f 633b 2b8b 0bbd 0cfb c43e
00000390: a063 0e3e 5c99 4e3e b49f f03d 28de 0e3e
000003a0: 398d b4bb 3c1e 24be 3aaa 373c 50f7 15bd
000003b0: c32d 20be fff7 1cbd 5e91 143d 93b1 353e
000003c0: d262 813c c9ed 19bb 7962 be3a 183c 04be
000003d0: bedb d5bd 6e5a b6be e53d d3bd 91c3 be3a
000003e0: 21ef 87bc 9cf8 193f bc3d 90bd ecb1 b2bd
000003f0: eaeb 13bf ed04 853d cf25 9dbe 7db3 1b3b

rnn.mlp.fc1.0.bias f4 [64]
0.042781603 0.04977697 0.0805622 0.16299807 -0.030764705 0.030701313 -0.002677475 0.06306496
-0.032775883 -0.054418273 0.26599804 -0.055925924 -0.052951805 -0.029185098 -0.008883012 0.039303828
-0.062225375 -0.06789773 -0.1541174 -0.060404234 0.15748884 -0.09352101 -0.08684112 -0.09816748
-0.117047116 -0.091309376 0.13348646 0.021269836 -0.063494205 0.0030121624 0.09718515 0.0283592
0.013024552 0.19971785 0.018630372 -0.10374853 -0.042091053 0.016930329 0.08746794 0.06563469
-0.08253945 -0.026911726 0.085571975 -0.15164346 0.25122947 0.10684032 -0.097400576 0.068418674
-0.12690967 0.046608474 -0.017987976 0.010024806 -0.020534625 -0.024187645 -0.09832673 -0.14303412
0.07424341 0.06638378 -0.09192768 -0.00058046315 -0.047705468 0.021527903 0.08228749 0.099633716
00000000: c33b 2f3d f0e2 4b3d cbfd a43d f7e8 263e
00000010: 4306 fcbc 5281 fb3c 9478 2fbb 3428 813d
00000020: 0140 06bd b2e5 5ebd e530 883e 9512 65bd
00000030: fee3 58bd 9615 efbc 0e8a 11bc 0dfd 203d
00000040: 09e0 7ebd f70d 8bbd f4d0 1dbe 6e6a 77bd
00000050: c144 213e f187 bfbd c2d9 b1bd 080c c9bd
00000060: 66b6 efbd 6900 bbbd adb0 083e 143e ae3c
00000070: 4009 82bd b367 453b 0209 c73d 8e51 e83c
00000080: ee64 553c d682 4c3e b99e 983c 1c7a d4bd
00000090: ab67 2cbd 79b1 8a3c 6422 b33d 7b6b 863d
000000a0: 710a a9bd fb75 dcbc 5c40 af3d 6c48 1bbe
000000b0: 26a1 803e 19cf da3d f479 c7bd 171f 8c3d
000000c0: 9cf4 01be 87e8 3e3d 855b 93bc 153f 243c
000000d0: 3b38 a8bc 2b25 c6bc 865f c9bd 8977 12be
000000e0: ee0c 983d 38f4 873d 9444 bcbd 392a 18ba
000000f0: cf66 43bd 495b b03c 5886 a83d c30c cc3d

rnn.mlp.fc1.2.weight f4 [64]
1.004914 1.0512797 0.8426118 0.8460046 1.1114597 1.0759867 1.1844962 1.036793
1.0917292 1.0417349 1.0429256 1.0065918 1.0475072 0.84887415 1.0544983 1.0844113
1.0308079 0.91504186 0.8903244 1.0115379 1.0556207 1.181265 1.0667119 0.9748981
1.1190187 0.9755969 0.93858415 1.0925386 1.1413549 1.0975202 0.9765495 1.027177
0.9950735 1.0989572 1.0373077 1.0082183 0.9062833 1.0215857 1.0193619 1.1716954
1.0187743 1.092864 0.9335542 1.0864478 0.8897413 0.9858901 1.0697476 0.9925932
1.0492754 1.1486413 1.1107316 0.9849224 0.99832237 1.0354928 0.91771996 1.0773621
0.98604554 1.0492266 1.0075318 1.0181173 1.047307 0.927247 1.0998667 0.9728113
00000000: 06a1 803f 5590 863f 68b5 573f c293 583f
00000010: 5044 8e3f efb9 893f 929d 973f a2b5 843f
00000020: c8bd 8b3f 9257 853f 967e 853f 00d8 803f
00000030: b714 863f d14f 593f cdf9 863f fdcd 8a3f
00000040: 83f1 833f 2f40 6a3f 4dec 633f 137a 813f
00000050: 941e 873f b133 973f 048a 883f ec92 793f
00000060: 013c 8f3f b8c0 793f 0d47 703f 4ed8 8b3f
00000070: eb17 923f 8b7b 8c3f 26ff 793f 897a 833f
00000080: 23bd 7e3f a1aa 8c3f 80c6 843f 4c0d 813f
00000090: 2f02 683f 52c3 823f 737a 823f 1dfa 953f
000000a0: 3267 823f f8e2 8b3f 68fd 6e3f b910 8b3f
000000b0: 16c6 633f 4b63 7c3f 7ded 883f 971a 7e3f
000000c0: a84e 863f ae06 933f 742c 8e3f e023 7c3f
000000d0: 0e92 7f3f 078b 843f b2ef 6a3f 00e7 893f
000000e0: 7b6d 7c3f 0f4d 863f cdf6 803f ab51 823f
000000f0: 280e 863f 0f60 6d3f 6fc8 8c3f 290a 793f

rnn.mlp.fc1.2.bias f4 [64]
0.06809457 -0.046459846 0.007771767 0.0821716 0.057444826 -0.058022253 -0.014484336 -0.023220414
-0.08087953 0.12869269 0.0064916452 0.09520092 0.05260542 0.023780748 0.052035633 0.13432203
-0.07291993 0.09733954 0.074648894 0.058071442 0.07765225 0.034029532 -0.03940402 0.07537347
-0.062465392 -0.08728958 -0.031231375 -0.0018224063 -0.029365418 -0.07508475 0.20977631 -0.012816885
-0.047254097 -0.06311743 -0.017239967 -0.04964441 0.07182026 -0.0677508 -0.11194576 -0.06849166
0.013110415 -0.19236194 0.026763353 0.03854406 -0.0077969367 0.12229965 -0.101624 -0.02351126
-0.030938182 -0.040014245 -0.061599296 -0.12995309 0.07532939 -0.0144622885 0.16042417 0.0888616
-0.06516548 -0.037594493 0.02853795 0.019431774 -0.071635865 -0.13384792 -0.17151318 0.0018693382
00000000: 2a75 8b3d ae4c 3ebd 4faa fe3b 9549 a83d
00000010: 444b 6b3d bea8 6dbd b54f 6dbc bd38 bebc
00000020: 2ba4 a5bd 04c8 033e deb7 d43b b3f8 c23d
00000030: c878 573d d8cf c23c 5123 553d b78b 093e
00000040: 0b57 95bd f459 c73d 85e1 983d 52dc 6d3d
00000050: 2508 9f3d 8d62 0b3d 1c66 21bd 685d 9a3d
00000060: b6db 7fbd e1c4 b2bd f1d8 ffbc cfdd eeba
00000070: bf8f f0bc 09c6 99bd 9acf 563e e9fd 51bc
00000080: 838d 41bd b643 81bd d53a 8dbc f057 4bbd
00000090: 8016 933d eec0 8abd d243 e5bd 5b45 8cbd
000000a0: 11cd 563c 87fa 44be d23e db3c 60e0 1d3d
000000b0: 727d ffbb 3d78 fa3d 3e20 d0bd b09a c0bc
000000c0: 1272 fdbc fae5 23bd 8b4f 7cbd 6c12 05be
000000d0: 4c46 9a3d 3cf3 6cbc 3c46 243e 12fd b53d
000000e0: 7b75 85bd affc 19bd 6bc8 e93c 622f 9f3c
000000f0: d3b5 92bd 6e0f 09be 27a1 2fbe 9504 f53a

rnn.mlp.fc_h.0.weight f4 [64, 64]
-0.0294303 0.20568416 -0.48613712 0.04571136 -0.29100505 -0.1673957 0.36344773 -0.14794257
0.22585379 0.08127666 -0.25922123 0.18863195 -0.19710557 0.22983104 0.0038648755 -0.1123945
0.21147172 -0.12554435 0.04660844 0.043184828 0.045447323 -0.002571611 -0.1657986 0.03976675
0.37459028 0.013063879 0.07917385 -0.02964156 0.17395864 0.044148874 -0.053688195 0.058685746
-0.06550372 -0.029031793 -0.16034698 -0.24210197 0.07572213 0.28840125 -0.01276755 0.1667898
0.07943502 0.04323799 -0.13473374 0.093269184 0.26379922 -0.057476874 -0.08279261 0.2712819
-0.10524081 0.121983334 -0.13537481 -0.0959481 -0.19255286 0.1789831 -0.10190974 0.022707528
-0.15118746 -0.19213772 0.11480233 -0.11779375 0.04540991 -0.4681515 -0.23516318 -0.11658137
0.3548829 0.10637564 0.13356149 -0.13348185 -0.02543704 -0.036694903 0.26011828 -0.032795727
0.0726114 0.1186979 0.026229577 0.13863268 0.08584301 0.11085604 0.07221159 0.101260334
0.15622576 0.0814158 0.058643863 0.09125558 -0.04609415 0.18572499 -0.00891909 0.20351446
0.11181142 0.18125528 -0.26057997 -0.07225289 -0.3555134 -0.27386063 0.23675293 -0.1667651
0.018882446 0.3398224 0.065262824 -0.2078103 0.15335725 -0.071333274 -0.4993578 0.17391984
0.12738727 -0.1724401 0.10182373 -0.26952255 0.01591447 0.037582844 0.01885531 0.034029093
-0.12841058 0.22498183 0.023667524 0.11921953 -0.21208137 -0.05166843 0.029586107 -0.11729745
-0.12732838 0.19183043 0.15455371 -0.2918058 0.024779491 0.23007835 0.08728297 0.431611
0.045731425 -0.01942001 -0.46189454 0.24698904 -0.047123525 -0.17086947 -0.085201055 -0.16501144
-0.25109914 0.009137189 -0.109821886 0.08303848 -0.0123315025 -0.042788614 -0.20433393 -0.0033728767
-0.112701274 -0.096343614 0.031069996 0.06500769 -0.10219847 -0.106178164 0.15530892 0.24575397
-0.11804042 -0.117557466 -0.12278732 0.0757952 -0.12063666 0.013944817 -0.14310172 -0.12180204
0.10244689 0.09586682 0.29517636 -0.10418864 -0.39449847 0.15788229 -0.2710193 -0.21518026
0.0027474933 -0.004408942 0.29758468 0.024846742 -0.05973296 -0.10193274 -0.0004945057 -0.01754402
0.19743717 0.48707828 -0.34175393 0.2986774 0.13393363 -0.06417596 0.0538155 0.081003815
0.09594683 -0.15064631 0.01238994 0.21752065 0.31068245 0.016877549 0.27606744 -0.10867396
-0.25061268 0.06999248 0.09947972 -0.181076 -0.4338444 -0.18135253 0.14435613 0.17178528
-0.16630173 -0.24313812 -0.057561815 -0.039625216 -0.20015314 -0.12319932 -0.07863751 0.03367119
-0.025647253 -0.11006469 0.14912017 0.014412049 -0.00081948884 0.124484286 -0.0784295 -0.012902471
-0.16969864 -0.089375086 0.4257706 0.109229475 0.004004915 -0.23567697 -0.19360167 -0.39671502
-0.050990935 0.13281196 0.17990765 0.00668218 0.1325267 0.15700482 0.068465665 0.15493026
0.1440329 -0.06272446 -0.30978203 -0.027195042 -0.084023274 0.13682675 0.15363617 -0.035568662
0.086412705 0.32374334 0.22771929 -0.05355946 0.0017892496 -0.22653446 -0.18308021 -0.06652488
0.16977091 0.51593065 -0.009920411 0.12227019 -0.017182322 -0.15476795 0.18488914 -0.078363836
00000000: d017 f1bc de9e 523e f7e6 f8be d63b 3b3d
00000010: 9dfe 94be c769 2bbe d215 ba3e 427e 17be
00000020: 3746 673e 6174 a63d a5b8 84be bc28 413e
00000030: 0bd6 49be d458 6b3e da49 7d3b 162f e6bd
00000040: 0b8c 583e b38e 00be 7ee8 3e3d 93e2 303d
00000050: f926 3a3d 7988 28bb 1cc7 29be 76e2 223d
00000060: 4cca bf3e e109 563c e625 a23d dbd2 f2bc
00000070: 3722 323e 73d5 343d 27e8 5bbd 7760 703d
00000080: d026 86bd 15d4 edbc 0032 24be 94e9 77be
00000090: 3414 9b3d 54a9 933e fc2e 51bc f2ca 2a3e
000000a0: d4ae a23d 521a 313d a4f7 09be ea03 bf3d
000000b0: b110 873e df6c 6bbd 2c8f a9bd 76e5 8a3e
000000c0: 7e88 d7bd 66d2 f93d b29f 0abe 7080 c4bd
000000d0: 942c 45be 5947 373e 0eb6 d0bd 2305 ba3c
000000e0: e3d0 1abe c0bf 44be 7c1d eb3d d93d f1bd
000000f0: beff 393d 8eb1 efbe 9ece 70be 37c2 eebd
00000100: 36b3 b53e 79db d93d 58c4 083e 77af 08be
00000110: 5761 d0bc 654d 16bd 392e 853e d054 06bd
00000120: 49b5 943d e217 f33d 69df d63c baf5 0d3e
00000130: 76ce af3d 7e08 e33d ace3 933d 9461 cf3d
00000140: a5f9 1f3e 54bd a63d 8c34 703d 35e4 ba3d
00000150: 38cd 3cbd b12e 3e3e 6021 12bc 1866 503e
00000160: 63fd e43d fc9a 393e bd6a 85be 53f9 93bd
00000170: da05 b6be 7637 8cbe 5c6f 723e 78c4 2abe
00000180: 5caf 9a3c 34fd ad3e 84a8 853d 39cc 54be
00000190: af09 1d3e 2e17 92bd d3ab ffbe 0b18 323e
000001a0: cf71 023e 2394 30be f688 d03d dcfe 89be
000001b0: 105f 823c 78f0 193d 7376 9a3c 1762 0b3d
000001c0: 107e 03be a361 663e 65e2 c13c 5e29 f43d
000001d0: dc2b 59be 47a2 53bd 905e f23c a539 f0bd
000001e0: 5f62 02be 326f 443e 5443 1e3e 9267 95be
000001f0: 5cfe ca3c a999 6b3e 6ac1 b23d 1efc dc3e
00000200: e050 3b3d b616 9fbc 717d ecbe b2ea 7c3e
00000210: 9904 41bd 68f8 2ebe e47d aebd c2f8 28be
00000220: 1190 80be 26b4 153c 4cea e0bd 1410 aa3d
00000230: 120a 4abc 1d43 2fbd ea3c 51be 7b0b 5dbb
00000240: edcf e6bd cd4f c5bd 8186 fe3c c022 853d
00000250: 6e4d d1bd f073 d9bd 4d09 1f3e eea6 7b3e
00000260: 2dbf f1bd f8c1 f0bd eb77 fbbd 843a 9b3d
00000270: 5a10 f7bd cd78 643c 4289 12be 5973 f9bd
00000280: adcf d13d d355 c43d 5b21 973e db60 d5bd
00000290: b4fb c9be e5ab 213e 0bc3 8abe 3758 5cbe
000002a0: 4a0f 343b e378 90bb 055d 983e 658b cb3c
000002b0: 8caa 74bd 1dc2 d0bd b7a1 01ba 7ab8 8fbc
000002c0: f82c 4a3e 5362 f93e 5ffa aebe 3fec 983e
000002d0: e625 093e b06e 83bd a46d 5c3d 54e5 a53d
000002e0: c67f c43d 0743 1abe 2dff 4a3c bcbd 5e3e
000002f0: c511 9f3e c942 8a3c b658 8d3e 7490 debd
00000300: 4e50 80be 3858 8f3d 06bc cb3d fd6b 39be
00000310: da20 debe 7ab4 39be 18d2 133e 7be8 2f3e
00000320: 004b 2abe 33f9 78be f0c5 6bbd 0d4e 22bd
00000330: f2f4 4cbe ed4f fcbd b40c a1bd cdea 093d
00000340: 301a d2bc 9969 e1bd f5b2 183e 8420 6c3c
00000350: f7d2 56ba 9ef1 fe3d a59f a0bd e364 53bc
00000360: 7bc5 2dbe 490a b7bd 9bfe d93e b4b3 df3d
00000370: a93b 833b 4e55 71be 843f 46be 3b1e cbbe
00000380: dfdb 50bd dcff 073e b639 383e 30f6 da3b
00000390: 14b5 073e dfc5 203e ba37 8c3d 0aa6 1e3e
000003a0: 5c7d 133e af75 80bd c09b 9ebe 23c8 debc
000003b0: 6514 acbd 501c 0c3e cd52 1d3e 72b0 11bd
000003c0: 25f9 b03d b0c1 a53e 3f2f 693e 2a61 5bbd
000003d0: 4185 ea3a a6f8 67be 6179 3bbe 323e 88bd
000003e0: 6dd8 2d3e 0814 043f 3889 22bc cb68 fa3d
000003f0: f1c1 8cbc 7d7b 1ebe 9453 3d3e 387d a0bd

rnn.mlp.fc_h.0.bias f4 [64]
0.0 0.0 0.0 0.0 0.0 0.0 0.0 0.0
0.0 0.0 0.0 0.0 0.0 0.0 0.0 0.0
0.0 0.0 0.0 0.0 0.0 0.0 0.0 0.0
0.0 0.0 0.0 0.0 0.0 0.0 0.0 0.0
0.0 0.0 0.0 0.0 0.0 0.0 0.0 0.0
0.0 0.0 0.0 0.0 0.0 0.0 0.0 0.0
0.0 0.0 0.0 0.0 0.0 0.0 0.0 0.0
0.0 0.0 0.0 0.0 0.0 0.0 0.0 0.0
00000000: 0000 0000 0000 0000 0000 0000 0000 0000
00000010: 0000 0000 0000 0000 0000 0000 0000 0000
00000020: 0000 0000 0000 0000 0000 0000 0000 0000
00000030: 0000 0000 0000 0000 0000 0000 0000 0000
00000040: 0000 0000 0000 0000 0000 0000 0000 0000
00000050: 0000 0000 0000 0000 0000 0000 0000 0000
00000060: 0000 0000 0000 0000 0000 0000 0000 0000
00000070: 0000 0000 0000 0000 0000 0000 0000 0000
00000080: 0000 0000 0000 0000 0000 0000 0000 0000
00000090: 0000 0000 0000 0000 0000 0000 0000 0000
000000a0: 0000 0000 0000 0000 0000 0000 0000 0000
000000b0: 0000 0000 0000 0000 0000 0000 0000 0000
000000c0: 0000 0000 0000 0000 0000 0000 0000 0000
000000d0: 0000 0000 0000 0000 0000 0000 0000 0000
000000e0: 0000 0000 0000 0000 0000 0000 0000 0000
000000f0: 0000 0000 0000 0000 0000 0000 0000 0000

rnn.mlp.fc_h.2.weight f4 [64]
1.0 1.0 1.0 1.0 1.0 1.0 1.0 1.0
1.0 1.0 1.0 1.0 1.0 1.0 1.0 1.0
1.0 1.0 1.0 1.0 1.0 1.0 1.0 1.0
1.0 1.0 1.0 1.0 1.0 1.0 1.0 1.0
1.0 1.0 1.0 1.0 1.0 1.0 1.0 1.0
1.0 1.0 1.0 1.0 1.0 1.0 1.0 1.0
1.0 1.0 1.0 1.0 1.0 1.0 1.0 1.0
1.0 1.0 1.0 1.0 1.0 1.0 1.0 1.0
00000000: 0000 803f 0000 803f 0000 803f 0000 803f
00000010: 0000 803f 0000 803f 0000 803f 0000 803f
00000020: 0000 803f 0000 803f 0000 803f 0000 803f
00000030: 0000 803f 0000 803f 0000 803f 0000 803f
00000040: 0000 803f 0000 803f 0000 803f 0000 803f
00000050: 0000 803f 0000 803f 0000 803f 0000 803f
00000060: 0000 803f 0000 803f 0000 803f 0000 803f
00000070: 0000 803f 0000 803f 0000 803f 0000 803f
00000080: 0000 803f 0000 803f 0000 803f 0000 803f
00000090: 0000 803f 0000 803f 0000 803f 0000 803f
000000a0: 0000 803f 0000 803f 0000 803f 0000 803f
000000b0: 0000 803f 0000 803f 0000 803f 0000 803f
000000c0: 0000 803f 0000 803f 0000 803f 0000 803f
000000d0: 0000 803f 0000 803f 0000 803f 0000 803f
000000e0: 0000 803f 0000 803f 0000 803f 0000 803f
000000f0: 0000 803f 0000 803f 0000 803f 0000 803f

rnn.mlp.fc_h.2.bias f4 [64]
0.0 0.0 0.0 0.0 0.0 0.0 0.0 0.0
0.0 0.0 0.0 0.0 0.0 0.0 0.0 0.0
0.0 0.0 0.0 0.0 0.0 0.0 0.0 0.0
0.0 0.0 0.0 0.0 0.0 0.0 0.0 0.0
0.0 0.0 0.0 0.0 0.0 0.0 0.0 0.0
0.0 0.0 0.0 0.0 0.0 0.0 0.0 0.0
0.0 0.0 0.0 0.0 0.0 0.0 0.0 0.0
0.0 0.0 0.0 0.0 0.0 0.0 0.0 0.0
00000000: 0000 0000 0000 0000 0000 0000 0000 0000
00000010: 0000 0000 0000 0000 0000 0000 0000 0000
00000020: 0000 0000 0000 0000 0000 0000 0000 0000
00000030: 0000 0000 0000 0000 0000 0000 0000 0000
00000040: 0000 0000 0000 0000 0000 0000 0000 0000
00000050: 0000 0000 0000 0000 0000 0000 0000 0000
00000060: 0000 0000 0000 0000 0000 0000 0000 0000
00000070: 0000 0000 0000 0000 0000 0000 0000 0000
00000080: 0000 0000 0000 0000 0000 0000 0000 0000
00000090: 0000 0000 0000 0000 0000 0000 0000 0000
000000a0: 0000 0000 0000 0000 0000 0000 0000 0000
000000b0: 0000 0000 0000 0000 0000 0000 0000 0000
000000c0: 0000 0000 0000 0000 0000 0000 0000 0000
000000d0: 0000 0000 0000 0000 0000 0000 0000 0000
000000e0: 0000 0000 0000 0000 0000 0000 0000 0000
000000f0: 0000 0000 0000 0000 0000 0000 0000 0000

rnn.mlp.fc2.0.0.weight f4 [64, 64]
0.04852765 0.11096556 -0.2635349 0.06278098 -0.4217332 -0.051347 0.3934536 0.11263562
0.08297952 0.09606017 -0.14747567 0.052719496 -0.3537149 0.1770655 -0.033719085 0.07581482
0.13434346 0.034396093 -0.10021047 0.042496953 -0.28016815 0.1337255 0.16113429 0.13311973
0.15107413 -0.039396275 0.19346026 -0.4872232 0.25365922 0.073255755 0.094233885 0.2554087
-0.11385507 -0.10201881 0.01548451 -0.39869964 0.1911934 0.24984185 -0.008271359 0.11149168
0.24973245 -0.18547833 -0.0860417 0.16636115 0.29797488 -0.19577964 -0.23867254 0.28213784
-0.31959286 0.38375044 -0.22335108 -0.2337396 -0.25049102 -0.087483965 0.023871941 0.025708001
-0.020100014 -0.25423357 0.3688835 -0.052512076 0.025014097 -0.5857625 -0.31009352 0.03908849
0.2351403 0.19881782 -0.12876466 0.03364543 -0.13119386 -0.101417504 0.19236782 0.18086426
0.10452052 0.17834342 -0.12990788 0.48638383 0.14619385 -0.039436236 0.059563443 0.20817107
0.0636506 -0.053131662 0.045088176 0.20933755 -0.100940034 0.2407442 0.21935102 0.070106514
0.3904115 0.10070537 0.083376884 0.22978869 -0.26337638 -0.31022185 0.2922744 -0.36616018
-0.008521175 0.13468228 0.047100134 -0.27302828 0.1342675 0.14524718 -0.3412958 0.2331934
-0.014023472 -0.27814376 -0.1138887 -0.32151422 -0.23046798 0.16141127 0.10327166 -0.10061821
-0.2955453 0.33892676 0.03719342 -0.053091496 -0.16547666 0.016599791 -0.17235032 0.09181152
-0.17171744 0.1715199 0.048874687 -0.19697563 -0.044593073 0.2765825 0.14607657 0.6265631
0.090155266 -0.18053958 -0.3723668 0.13924973 -0.111143306 -0.33937457 0.11874151 -0.1504173
-0.27186805 0.07175443 -0.26458082 0.15026504 0.053625308 -0.0141357295 -0.18879825 0.19319138
0.1557766 -0.24147408 -0.25471497 0.07492945 -0.20896581 0.0044743563 0.12904306 0.2805919
-0.06477267 0.11126089 -0.17898391 0.31054842 -0.13259315 -0.26983014 -0.40817854 0.041803114
0.0035038944 0.2295887 0.23410378 -0.14316139 -0.24725717 0.10690187 -0.49903363 -0.25615606
0.037002992 -0.022003235 0.05931403 -0.020902444 -0.050674636 -0.16887334 0.22546193 0.11762393
0.10546086 0.54647845 -0.6109112 0.3116001 0.3387356 -0.08462808 0.17156301 -0.094252706
0.21101908 -0.02073429 -0.21869153 0.035755742 0.34381035 0.22173423 0.3201973 -0.20342073
-0.01594217 0.047696494 0.20108002 -0.16264102 -0.37435856 0.0030696013 0.3170076 -0.0069561508
0.11131165 -0.3526949 -0.08038191 -0.17090885 -0.42758167 0.10474712 0.189279 -0.09374817
0.008837153 -0.22726026 0.1903927 -0.07925067 0.0438326 0.21495813 -0.16136333 0.10760984
-0.034362044 0.24430284 0.31249827 0.21062371 0.23940401 -0.14766072 0.12853675 -0.34670585
-0.3576111 0.081477344 0.26453954 -0.18259926 -0.01766278 -0.16071236 0.14622106 0.3198827
-0.02438934 -0.17623802 -0.60942173 -0.060573086 0.14113605 0.019697176 0.118997075 0.00092417013
-0.04871901 0.46070176 0.2500065 -0.0037239846 -0.13201389 -0.17873392 -0.1700599 -0.06558568
0.045449633 0.6020047 0.14909555 0.016764121 0.18781464 -0.38667223 0.1854646 -0.111585915
00000000: eec4 463d e941 e33d 0cee 86be 5093 803d
00000010: 6aed d7be 3b51 52bd c072 c93e 81ad e63d
00000020: 2bf1 a93d 32bb c43d dd03 17be 66f0 573d
00000030: 1f1a b5be a950 353e 061d 0abd cd44 9b3d
00000040: 5591 093e ebe2 0c3d 263b cdbd 4911 2e3d
00000050: 3372 8fbe 56ef 083e 6300 253e 8a50 083e
00000060: 2db3 1a3e fd5d 21bd 721a 463e 5275 f9be
00000070: 9fdf 813e 1d07 963d b2fd c03d eec4 823e
00000080: d92c e9bd 3def d0bd beb2 7d3c 5c22 ccbe
00000090: 34c8 433e 8bd6 7f3e 9884 07bc c055 e43d
000000a0: ddb9 7f3e 08ee 3dbe a136 b0bd 945a 2a3e
000000b0: 2a90 983e 757a 48be 9366 74be 5f74 903e
000000c0: ada1 a3be f07a c43e 25b6 64be 6f59 6fbe
000000d0: 5c40 80be cb2a b3bd 178f c33c 9699 d23c
000000e0: c9a8 a4bc e72a 82be 4cde bc3e e716 57bd
000000f0: 5dea cc3c 88f4 15bf 94c4 9ebe 411b 203d
00000100: 9ec8 703e e696 4b3e e2da 03be cacf 093d
00000110: af57 06be fbb3 cfbd 12fc 443e 7b34 393e
00000120: db0e d63d a89f 363e 9206 05be 4d07 f93e
00000130: d7b3 153e e487 21bd ccf8 733d cc2a 553e
00000140: 3f5b 823d 96a0 59bd 61ae 383d 955c 563e
00000150: a6b9 cebd a685 763e 8e9d 603e 0194 8f3d
00000160: 04e4 c73e 9e3e ce3d 80c1 aa3d ba4d 6b3e
00000170: 45d9 86be 66d5 9ebe fda4 953e 5979 bbbe
00000180: 669c 0bbc 27ea 093e 12ec 403d 5dca 8bbe
00000190: 6b7d 093e adbb 143e 53be aebe 40ca 6e3e
000001a0: b4c2 65bc dc68 8ebe 7b3e e9bd 839d a4be
000001b0: ccff 6bbe ff48 253e 1880 d33d ec10 cebd
000001c0: b751 97be cf87 ad3e 2158 183d 7876 59bd
000001d0: b772 29be 49fc 873c 9a7c 30be ae07 bc3d
000001e0: b2d6 2fbe eaa2 2f3e d330 483d fbb3 49be
000001f0: 3aa7 36bd 399c 8d3e 1995 153e 7066 203f
00000200: 53a3 b83d 5edf 38be dca6 bebe 7b97 0e3e
00000210: 1a9f e3bd 81c2 adbe c02e f33d fe06 1abe
00000220: 4a32 8bbe fdf3 923d 2377 87be 14df 193e
00000230: 36a6 5b3d 8c99 67bc 5454 41be f6d3 453e
00000240: e783 1f3e fb44 77be 006a 82be 9d74 993d
00000250: 22fb 55be 9f9d 923b dd23 043e bea9 8f3e
00000260: 89a7 84bd c0dc e33d 8f47 37be 3400 9f3e
00000270: 80c6 07be 2d27 8abe c7fc d0be be39 2b3d
00000280: 98a1 653b 4d19 6b3e e7b8 6f3e e698 12be
00000290: fc30 7dbe 5eef da3d 5681 ffbe e326 83be
000002a0: 7390 173d 2140 b4bc 45f3 723d 9a3b abbc
000002b0: 3590 4fbd 22ed 2cbe 7edf 663e d1e4 f03d
000002c0: ddfb d73d 03e6 0b3f ad64 1cbf 0c8a 9f3e
000002d0: c16e ad3e 7d51 adbd 37ae 2f3e 9007 c1bd
000002e0: 6315 583e f5da a9bc acf0 5fbe 9d74 123d
000002f0: e907 b03e 4c0e 633e e7f0 a33e 864d 50be
00000300: 2799 82bc 665d 433d ece7 4d3e 5e8b 26be
00000310: edab bfbe 5d2b 493b d24e a23e 6cf0 e3bb
00000320: 5df7 e33d 6d94 b4be 459f a4bd bb02 2fbe
00000330: fceb dabe a885 d63d 5bd2 413e 0aff bfbd
00000340: b5c9 103c eab6 68be 4ef6 423e 2d4e a2bd
00000350: d089 333d fc1d 5c3e 6e3c 25be 8c62 dc3d
00000360: 37bf 0cbd 862a 7a3e c6ff 9f3e bead 573e
00000370: 5326 753e 5f34 17be 239f 033e 6e83 b1be
00000380: cd18 b7be 98dd a63d ba71 873e 4dfb 3abe
00000390: 89b1 90bc c891 24be f9ba 153e aac7 a33e
000003a0: 27cc c7bc bd77 34be 1003 1cbf 7c1b 78bd
000003b0: f885 103e f95b a13c bdb4 f33d 0244 723a
000003c0: 968d 47bd 1ae1 eb3e da00 803e 180e 74bb
000003d0: a62e 07be 0606 37be 2f24 2ebe c951 86bd
000003e0: 6529 3a3d fb1c 1a3f 81ac 183e e954 893c
000003f0: 7b52 403e e7f9 c5be 6fea 3d3e 2887 e4bd

rnn.mlp.fc2.0.0.bias f4 [64]
0.026752872 0.059918895 -0.045692895 -0.07776981 0.10402359 -0.14547041 -0.07336765 0.0003762435
-0.04609244 -0.0009525243 -0.008468635 -0.04601189 -0.05738564 -0.04937422 -0.05728678 -0.14774637
-0.1920525 -0.13830906 -0.13151962 -0.19276084 -0.115884 -0.0016172036 -0.21904589 -0.029543981
-0.1582122 -0.050247073 -0.06932972 -0.06015828 -0.021517863 -0.03177132 -0.07569397 -0.15753987
-0.042873636 -0.019237284 0.060089745 -0.04127646 0.055029217 -0.08103087 -0.08683037 -0.15045616
-0.112207636 -0.16771264 -0.0640594 -0.036273304 -0.096881986 -0.011945068 -0.19482939 -0.14455472
0.034626834 -0.1124018 -0.29317498 -0.045079887 0.006896971 -0.11924981 -0.052896097 -0.14783183
0.047719948 0.061023775 -0.045640375 -0.12581064 -0.08941301 0.042158403 -0.082365446 -0.052078214
00000000: d728 db3c 846d 753d 7928 3bbd c745 9fbd
00000010: 520a d53d 32f6 14be c741 96bd 8c42 c539
00000020: 6dcb 3cbd d3b2 79ba 08c0 0abc f776 3cbd
00000030: 340d 6bbd 9f3c 4abd 8ba5 6abd d34a 17be
00000040: 69a9 44be e4a0 0dbe 14ad 06be 1963 45be
00000050: 9754 edbd 59f8 d3ba 914d 60be 3806 f2bc
00000060: 6102 22be e0cf 4dbd befc 8dbd 8768 76bd
00000070: 3b46 b0bc a522 02bd 7105 9bbd 2252 21be
00000080: 449c 2fbd 8297 9dbc aa20 763d 8111 29bd
00000090: 5166 613d 83f3 a5bd 1fd4 b1bd 2e11 1abe
000000a0: 1ecd e5bd ddbc 2bbe 9331 83bd 5193 14bd
000000b0: 106a c6bd 3fb5 43bc 5b81 47be 2706 14be
000000c0: ded4 0d3d ea32 e6bd 081b 96be b0a5 38bd
000000d0: fcff e13b 3f39 f4bd 94a9 58bd 3a61 17be
000000e0: fe75 433d 11f4 793d 67f1 3abd 81d4 00be
000000f0: 2b1e b7bd 4aae 2c3d 37af a8bd f74f 55bd

rnn.mlp.fc2.0.2.weight f4 [64]
1.3052055 1.18247 1.2923025 1.3287703 1.2078152 1.2615936 1.3342265 1.1822978
1.0832078 1.2129264 1.111105 1.2984115 1.1882551 1.1006098 1.3010368 1.0774783
1.3422679 1.2089441 1.243325 1.2207073 1.2162392 1.2181131 1.2159183 1.1505048
1.2587725 1.3451917 1.2504414 1.0116258 1.2463088 1.215636 1.2278349 1.3486246
1.2327346 1.2239269 1.3078266 1.290387 1.1595818 1.3733668 1.2009562 1.2660892
1.2086762 1.0803822 1.2563154 1.1893325 1.2211281 1.315986 1.2413148 1.1481463
1.2209222 1.0468684 1.1385111 1.1050531 1.2943307 1.2564055 1.2815794 1.1334051
1.2145327 1.2055092 1.1600549 1.2167634 1.145903 1.1850942 1.1651591 1.2049842
00000000: f910 a73f 2d5b 973f 2b6a a53f 2515 aa3f
00000010: b099 9a3f e67b a13f efc7 aa3f 8955 973f
00000020: 8ea6 8a3f 2c41 9b3f b038 8e3f 5932 a63f
00000030: be18 983f c8e0 8c3f 6088 a63f cfea 893f
00000040: 6fcf ab3f aebe 9a3f 4625 9f3f 2340 9c3f
00000050: baad 9b3f 21eb 9b3f 36a3 9b3f be43 933f
00000060: 751f a13f 3e2f ac3f 770e a03f f47c 813f
00000070: 0c87 9f3f f699 9b3f b229 9d3f bb9f ac3f
00000080: 3fca 9d3f a3a9 9c3f dd66 a73f 672b a53f
00000090: 2d6d 943f 7cca af3f efb8 993f 360f a23f
000000a0: e7b5 9a3f f749 8a3f f1ce a03f 0c3c 983f
000000b0: ed4d 9c3f 3b72 a83f 67e3 9e3f 75f6 923f
000000c0: 2e47 9c3f c9ff 853f bbba 913f 6172 8d3f
000000d0: a1ac a53f e5d1 a03f cb0a a43f 6b13 913f
000000e0: cf75 9b3f 204e 9a3f ae7c 943f e7be 9b3f
000000f0: f3ac 923f 2bb1 973f ef23 953f ec3c 9a3f

rnn.mlp.fc2.0.2.bias f4 [64]
-0.037158232 0.07811357 0.03889163 -0.1540983 0.11199496 0.09437236 -0.07491237 -0.020547647
0.008061165 0.044736806 0.23510659 -0.04633817 0.065189734 -0.015466266 -0.06745163 0.018725498
-0.079799816 -0.055373818 -0.047858566 -0.087799 0.089405715 0.11163053 -0.07457278 0.021563629
-0.039758235 -0.018695215 -0.088685036 0.115499936 0.13540885 0.023874467 0.050768662 0.05485569
0.030380458 -0.084076904 0.14285383 0.045171157 0.010376767 -0.16885659 0.05095836 0.068800524
0.003634832 0.04636203 0.038200628 -0.13534978 -0.11813414 0.052387465 0.03840078 -0.030903652
-0.0052062105 0.13951069 -0.112386696 -0.031306043 0.09360076 -0.16574559 0.07730209 -0.11199376
-0.14915624 0.10327648 0.14514866 -0.031215165 -0.064614184 0.07796044 0.06339975 0.052546468
00000000: 3b33 18bd 02fa 9f3d d44c 1f3d f2cb 1dbe
00000010: 9d5d e53d 4c46 c13d a86b 99bd 8a53 a8bc
00000020: fa12 043c f13d 373d c8bf 703e 18cd 3dbd
00000030: 3282 853d 3966 7dbc 1524 8abd 3766 993c
00000040: 166e a3bd a8cf 62bd 5807 44bd f6cf b3bd
00000050: 581a b73d 8c9e e43d 9db9 98bd 35a6 b03c
00000060: 88d9 22bd b526 99bc 80a0 b5bd 3b8b ec3d
00000070: 9ea8 0a3e 6394 c33c cdf2 4f3d 5cb0 603d
00000080: 70e0 f83c 8330 acbd 4648 123e 6405 393d
00000090: 5103 2a3c bee8 2cbe b7b9 503d 4ae7 8c3d
000000a0: 5d36 6e3b 1de6 3d3d 4378 1c3d 2299 0abe
000000b0: 50f0 f1bd 3d94 563d 234a 1d3d a829 fdbc
000000c0: dc98 aabb e4db 0e3e ff2a e6bd c43a 00bd
000000d0: c1b1 bf3d 36b9 29be 8f50 9e3d fc5c e5bd
000000e0: 6abc 18be 9f82 d33d daa1 143e f2b6 ffbc
000000f0: 7154 84bd b9a9 9f3d bad7 813d f73a 573d

rnn.rnn.rnn.weight_ih_l0 f4 [192, 64]
-0.10873541 0.27325684 -0.05190367 -0.12765723 -0.30342418 -0.077214085 -0.16451441 -0.015909275
0.011272982 0.14621846 -0.17043026 -0.02258816 -0.12547554 0.11547109 -0.03849125 0.29446492
0.045134105 0.12208918 -0.005167329 0.15886879 0.36482385 0.12869246 -0.014722248 0.1246378
-0.37695545 -0.21350858 -0.03374986 0.16619937 -0.02263112 0.06535096 0.18095812 0.017132442
-0.23304093 0.15057991 -0.037648045 -0.08595351 0.18089029 -0.00692031 -0.066181555 -0.25689816
0.16750033 -0.31926987 0.16249247 -0.24286197 -0.13848904 0.15201597 -0.19353323 -0.24354763
0.11469162 0.0406936 -0.42161345 0.3416209 0.39227578 0.017128311 -0.06895449 -0.21324123
0.040962443 -0.031742 0.061877903 -0.11942509 -0.0030805457 0.06122232 0.102446966 0.020319548
-0.077648826 0.14070272 0.07517322 -0.0016580366 -0.11982011 0.04452429 0.13252093 -0.15777491
0.017603036 0.016285444 0.18422623 0.2914394 0.13976653 -0.32237077 -0.26776832 -0.2039924
-0.16153112 -0.053152394 -0.07033356 0.25078598 -0.048527528 -0.1550742 -0.007394542 -0.22450994
0.2909263 0.23986913 -0.21208097 0.39139336 -0.11271422 -0.16167626 0.059406925 -0.24644539
-2.9288703e-05 -0.2600038 -0.056300618 0.2780174 -0.06695259 0.014358281 0.4788081 0.074763075
-0.08862648 0.19308938 -0.006101806 -0.51131374 0.052517027 0.053170487 -0.20681761 0.32155433
-0.39881086 -0.053170174 -0.012666827 0.06810189 0.03226147 0.46833324 -0.35300335 -0.022692913
0.14111264 -0.06965967 -0.07556189 -0.07772859 -0.11279516 0.10026896 -0.02727194 0.0141411135
0.005762339 -0.16889292 -0.07733721 -0.13478306 -0.06708596 0.026733443 -0.19073628 -0.12796156
-0.0736329 -0.05642987 0.26381055 -0.065819226 -0.124199755 0.27643293 0.45537016 -0.06701745
-0.19076097 0.09701425 0.0041098823 0.28444362 0.3512017 -0.12786832 -0.1874259 -0.07352521
-0.06474455 -0.092320554 -0.22033106 -0.30119476 0.115141705 0.15652902 -0.36313635 0.08178561
-0.19849189 0.159326 0.1907067 0.45050332 -0.015948953 -0.34294844 0.025958398 -0.0008072782
-0.15028752 -0.15295579 0.14443433 -0.13001375 0.04652092 -0.08865128 -0.45492193 0.2847267
0.25742108 0.40840396 -0.046412095 0.26258096 0.21155201 -0.24106847 -0.41152278 -0.10991867
0.123292364 0.07524901 0.1467779 0.18982176 -0.110340275 -0.20478277 0.11140598 0.089766994
-0.2094656 0.25342226 -0.00081800116 -0.045699384 -0.15299998 -0.10793564 -0.30385116 -0.15481949
0.29276994 0.007074826 0.16638145 -0.090497 0.10275983 0.25928417 -0.046955727 0.22642903
-0.08528987 -0.061665576 -0.10990529 0.08839099 0.3574329 -0.065649785 0.11682997 0.08615814
-0.18900585 -0.022544006 -0.16205017 -0.06346675 -0.13128673 0.1360975 0.18673833 -0.13441783
-0.14964917 0.12206649 -0.101046525 0.2248629 0.048224572 0.031374305 -0.02847713 -0.10631601
-0.37627405 -0.058816932 0.25822046 -0.12848166 0.14993551 0.100500174 -0.17130882 -0.053116903
0.010962152 -0.10692343 0.07478663 0.20276414 -0.016695682 -0.21059123 -0.027106814 0.026025254
-0.27568305 -0.5275304 0.3215629 0.07304612 0.0757512 0.009094658 0.2734705 -0.3457453
00000000: acb0 debd 52e8 8b3e f198 54bd 94b8 02be
00000010: 6a5a 9bbe 6b22 9ebd 7776 28be 2b54 82bc
00000020: 50b2 383c 4bba 153e 4585 2ebe ce0a b9bc
00000030: a97c 00be 1b7c ec3d 00a9 1dbd 1bc4 963e
00000040: 8ade 383d e409 fa3d b352 a9bb 80ae 223e
00000050: 31ca ba3e f5c7 033e 9535 71bc 1a42 ff3d
00000060: 4e00 c1be fea1 5abe 4b3d 0abd 2b30 2a3e
00000070: e664 b9bc b9d6 853d 164d 393e 5659 8c3c
00000080: 48a2 6ebe 9f31 1a3e d634 1abd 6508 b0bd
00000090: 4e3b 393e c5c3 e2bb 328a 87bd 2888 83be
000000a0: 3585 2b3e 5777 a3be 6d64 263e cfb0 78be
000000b0: 12d0 0dbe 13aa 1b3e 932d 46be 8d64 79be
000000c0: 71e3 ea3d 55ae 263d b8dd d7be efe8 ae3e
000000d0: 5fd8 c83e ac50 8c3c 0338 8dbd e95b 5abe
000000e0: 3cc8 273d e603 02bd af73 7d3d 2495 f4bd
000000f0: fbe2 49bb 41c4 7a3d b7cf d13d 2e75 a63c
00000100: 5906 9fbd 6014 103e 6bf4 993d 7a52 d9ba
00000110: 3f64 f5bd 1a5f 363d 91b3 073e bf8f 21be
00000120: 3e34 903c 0d69 853c cda5 3c3e 8c37 953e
00000130: f51e 0f3e c80d a5be ee18 89be 62e3 50be
00000140: 6a68 25be 53b6 59bd 0b0b 90bd 0567 803e
00000150: cdc4 46bd c5cb 1ebe ea4d f2bb efe5 65be
00000160: 4bf4 943e 41a0 753e c12b 59be b664 c83e
00000170: b7d6 e6bd 768e 25be ad54 733d 2e5c 7cbe
00000180: 03b1 f5b7 381f 85be 7a9b 66bd 4c58 8e3e
00000190: 711e 89bd ff3e 6b3c 5626 f53e 621d 993d
000001a0: cd81 b5bd 39b9 453e a9f1 c7bb 75e5 02bf
000001b0: 181c 573d 4cc9 593d ffc7 53be c5a2 a43e
000001c0: f030 ccbe f8c8 59bd 8688 4fbc 0179 8b3d
000001d0: 9a24 043d 60c9 ef3e dbbc b4be 7de6 b9bc
000001e0: d57f 103e bba9 8ebd 31c0 9abd 2b30 9fbd
000001f0: 2601 e7bd d059 cd3d 6769 dfbc 21b0 673c
00000200: 01d2 bc3b 44f2 2cbe f962 9ebd 9204 0abe
00000210: 5d64 89bd 1800 db3c 5f50 43be 5b08 03be
00000220: d9cc 96bd 0223 67bd 2d12 873e 3bcc 86bd
00000230: 715c febd 9e88 8d3e 4726 e93e 7240 89bd
00000240: d856 43be 68af c63d 31ac 863b 98a2 913e
00000250: b6d0 b33e eaef 02be 93ec 3fbe 6394 96bd
00000260: ca98 84bd 8f12 bdbd 779e 61be 3336 9abe
00000270: 6acf eb3d 2549 203e 02ed b9be 377f a73d
00000280: 7541 4bbe 5b26 233e 9e48 433e 5fa8 e63e
00000290: 61a7 82bc f096 afbe b5a6 d43c 869f 53ba
000002a0: f9e4 19be 71a0 1cbe 98e6 133e 5322 05be
000002b0: b88c 3e3d cd8e b5bd 87eb e8be b3c7 913e
000002c0: b2cc 833e 531a d13e 9c1a 3ebd 0371 863e
000002d0: 17a1 583e a7da 76be 1db3 d2be 0a1d e1bd
000002e0: b580 fc3d 271c 9a3d f24c 163e a360 423e
000002f0: 15fa e1bd 93b2 51be d228 e43d c2d7 b73d
00000300: 267e 56be 90c0 813e 216f 56ba 472f 3bbd
00000310: 07ac 1cbe 5c0d ddbd 6192 9bbe 0089 1ebe
00000320: f1e5 953e f1d3 e73b e65f 2a3e 7e56 b9bd
00000330: bf73 d23d e5c0 843e a654 40bd 03dd 673e
00000340: 75ac aebd 0b95 7cbd 0616 e1bd 5606 b53d
00000350: 7201 b73e 6573 86bd 8d44 ef3d ae73 b03d
00000360: c08a 41be 35ae b8bc 7bf0 25be dbfa 81bd
00000370: 0770 06be 255d 0b3e 5538 3f3e d4a4 09be
00000380: a23d 19be fffd f93d 7bf1 cebd 7642 663e
00000390: 2187 453d 5882 003d df48 e9bc 35bc d9bd
000003a0: fea6 c0be 06ea 70bd 7935 843e b290 03be
000003b0: b288 193e 09d3 cd3d 946b 2fbe 1c91 59bd
000003c0: 999a 333c acfa dabd bc29 993d 67a1 4f3e
000003d0: 62c5 88bc 3aa5 57be 1c0f debc ea32 d53c
000003e0: 5426 8dbe 3b0c 07bf e4a3 a43e 3499 953d
000003f0: 7223 9b3d c301 153c 5304 8c3e 8705 b1be

rnn.rnn.rnn.weight_hh_l0 f4 [192, 64]
-0.12594542 0.07934644 -0.21469392 -0.09751575 0.1267477 0.0006897058 0.22637898 0.16028565
0.16555816 0.16206233 -0.32483545 0.121793285 -0.30343923 0.06371717 0.043830466 -0.31970096
0.26413268 0.13292867 -0.09063928 0.27194807 -0.07568562 -0.12909111 0.10014981 -0.13046342
0.010874237 -0.1970191 0.06418469 0.18638954 -0.09029585 0.08719877 -0.22533794 -0.0149590885
-0.41662243 0.328751 -0.076446526 -0.11358088 -0.19911966 0.2822932 -0.15702456 0.14883834
-0.3422781 -0.116238475 0.26098552 0.24461867 0.2968362 -0.021474868 0.1252674 0.4192838
0.10538535 0.024567032 -0.4647878 -0.037382253 0.11516514 0.34367895 0.10335771 -0.21112661
0.08663155 0.049408305 -0.089467 -0.02941035 -0.20641103 -0.13010553 -0.39003104 -0.09088218
0.025161741 -0.26845643 -0.18090871 0.36094058 -0.27418125 -0.05925969 0.15751968 0.031435158
-0.01626964 0.14427567 0.053940833 -0.030523097 -0.30773836 0.1628795 -0.08212147 0.11121093
0.17368956 0.21405296 -0.23515555 0.22198854 -0.018110016 -0.14707719 -0.10151682 -0.15638688
-0.20415372 0.33241388 0.46292046 0.1945015 -0.04823347 0.031366076 -0.27213675 0.08250431
0.2367069 0.08593711 0.15769883 0.21653071 -0.17503935 -0.16552576 -0.26316187 0.32703897
0.24244644 -0.0024993261 0.2676029 0.0069562853 0.08484485 -0.11813747 0.08976041 0.07768374
-0.012664217 -0.065851934 -0.29858097 0.011703766 -0.12487718 0.037543494 0.15450266 0.19568194
0.12281256 -0.35274732 0.043450203 -0.0077073784 0.21070597 -0.260592 0.21263906 0.066547565
0.023797985 -0.10642891 -0.8854393 0.19629672 0.074403375 -0.021616599 0.21092585 0.08998209
0.032366876 -0.15323615 0.38495374 -0.1087323 -0.17235811 -0.043741804 0.13609868 0.01650985
-0.3480129 -0.006398944 -0.06817521 -0.022045864 -0.062644534 -0.10548469 -0.034268938 0.22678071
-0.071856186 -0.3871083 -0.058638066 0.10955642 -0.13526745 0.1725677 -0.15217508 -0.15861097
-0.27136675 -0.0631782 -0.17722902 -0.46857154 0.060333975 -0.06508211 -0.023425816 -0.013893882
-0.14100815 -0.14971867 -0.030974718 0.04943436 -0.16053046 -0.11546123 -0.054004136 0.33844984
0.06886625 0.21778719 0.2372299 0.08671312 -0.06452876 0.098149344 -0.3041296 0.08844349
0.07081415 -0.3568904 -0.007888326 0.31469524 0.1536283 0.022527749 -0.103416175 0.006894697
0.03695011 0.1965138 -0.13882047 0.38194385 -0.09645252 -0.04644752 0.22604202 -0.107903264
-0.02013174 -0.031734437 -0.12942387 -0.056582637 -0.22237064 -0.24063705 -0.3644227 0.12717624
0.13620256 -0.07258461 -0.015832156 -0.08197677 0.018050518 -0.03479866 -0.30923736 -0.0551877
0.005564742 -0.27572942 -0.5366319 -0.003948387 -0.1543666 -0.1654985 0.3833139 -0.0026633425
-0.1763051 0.035897385 -0.12443955 0.02817631 0.31564242 0.056130752 -0.24053536 -0.21117789
-0.025108216 -0.32628915 0.24162437 0.09877509 -0.07232685 -0.31880793 -0.13120767 -0.10161911
0.13049437 -0.3337057 -0.15417697 0.14427926 0.072349004 0.059217468 0.038441263 -0.17665872
0.08298238 0.13662294 -0.07125177 0.30484635 0.26536876 0.2982098 -0.28069568 0.06413304
00000000: d6f7 00be 6380 a23d b9d8 5bbe 56b6 c7bd
00000010: 26ca 013e 5fcd 343a e4cf 673e ec21 243e
00000020: 1488 293e abf3 253e d550 a6be c26e f93d
00000030: 635c 9bbe 267e 823d 9387 333d d8af a3be
00000040: 663c 873e 741e 083e 16a1 b9bd c73c 8b3e
00000050: 1001 9bbd 7630 04be 581b cd3d 3498 05be
00000060: db29 323c 60bf 49be 4373 833d e6dc 3e3e
00000070: 08ed b8bd 4595 b23d fdbe 66be f716 75bc
00000080: 894f d5be 0d52 a83e ff8f 9cbd 189d e8bd
00000090: 06e6 4bbe bc88 903e 0ccb 20be 1469 183e
000000a0: 133f afbe 700e eebd e59f 853e 517d 7a3e
000000b0: eafa 973e 10ec afbc 1946 003e 5eac d63e
000000c0: 46d4 d73d cd40 c93c abf8 edbe 221e 19bd
000000d0: b3db eb3d b0f6 af3e 35ad d33d 9331 58be
000000e0: e26b b13d 5d60 4a3d 793a b7bd f9ed f0bc
000000f0: 6a5d 53be 623a 05be 26b2 c7be 7020 babd
00000100: ff1f ce3c 1f73 89be 2240 39be 34cd b83e
00000110: 7c61 8cbe 4aba 72bd d74c 213e 27c2 003d
00000120: e847 85bc 00bd 133e 10f1 5c3d 930b fabc
00000130: e28f 9dbe e2c9 263e 4d2f a8bd 8ec2 e33d
00000140: addb 313e b330 5b3e 9ecc 70be f750 633e
00000150: 755b 94bc 679b 16be 0de8 cfbd e223 20be
00000160: ac0d 51be 2732 aa3e e903 ed3e 672b 473e
00000170: 7690 45bd b779 003d 8255 8bbe 05f8 a83d
00000180: 4b63 723e ccff af3d cd7b 213e 3aba 5d3e
00000190: 843d 33be 967f 29be 27bd 86be a771 a73e
000001a0: e143 783e bccb 23bb 3f03 893e 8df1 e33b
000001b0: 23c3 ad3d 0ff2 f1bd 4ed4 b73d a718 9f3d
000001c0: 937d 4fbc 61dd 86bd 9bdf 98be 27c1 3f3c
000001d0: 9bbf ffbd 35c7 193d f235 1e3e d960 483e
000001e0: 2785 fb3d 4c9b b4be d7f8 313d 2d8e fcbb
000001f0: 4ec3 573e 516c 85be 0ebe 593e 174a 883d
00000200: fef3 c23c 66f7 d9bd 26ac 62bf 0202 493e
00000210: cc60 983d 4b15 b1bc f2fc 573e 8848 b83d
00000220: 2193 043d f0e9 1cbe a818 c53e 0aaf debd
00000230: a57e 30be 9b2a 33bd 745d 0b3e aa3f 873c
00000240: bf2e b2be 3cae d1bb 729f 8bbd 8799 b4bc
00000250: c74b 80bd 5b08 d8bd 965d 0cbd 3439 683e
00000260: 5629 93bd 0f33 c6be 782e 70bd 1e5f e03d
00000270: 8d83 0abe 96b5 303e c9d3 1bbe ea6a 22be
00000280: 95f0 8abe 9263 81bd 867b 35be 9ce8 efbe
00000290: c220 773d c549 85bd 7fe7 bfbc 2aa3 63bc
000002a0: 7164 10be da4f 19be b1be fdbc af7b 4a3d
000002b0: 1962 24be f076 ecbd 7133 5dbd 4c49 ad3e
000002c0: c009 8d3d 9b03 5f3e 65ec 723e a696 b13d
000002d0: a827 84bd 8602 c93d e0b6 9bbe dc21 b53d
000002e0: 0207 913d 57ba b6be 0a3e 01bc bc1f a13e
000002f0: bd50 1d3e 1d8c b83c dccb d3bd e9ec e13b
00000300: 0059 173d ea3a 493e f426 0ebe 258e c33e
00000310: e688 c5bd c13f 3ebd 8f77 673e 63fc dcbd
00000320: 52eb a4bc f8fb 01bd b187 04be 32c3 67bd
00000330: 21b5 63be 8f69 76be 9d95 babe 7d3a 023e
00000340: af78 0b3e 3da7 94bd 70b2 81bc 70e3 a7bd
00000350: aede 933c 0a89 0ebd 5c54 9ebe 7f0c 62bd
00000360: 7058 b63b 682c 8dbe b560 09bf 7961 81bb
00000370: 4712 1ebe 7078 29be b841 c43e 798b 2ebb
00000380: 5389 34be 2309 133d 2ada febd 01d2 e63c
00000390: e29b a13e 5ce9 653d e74e 76be 043f 58be
000003a0: bfaf cdbc 5f0f a7be 616c 773e 984a ca3d
000003b0: 1920 94bd cb3a a3be 4e5b 06be ae1d d0bd
000003c0: 51a0 053e 79db aabe 91e0 1dbe f1bd 133e
000003d0: b72b 943d 048e 723d 9674 1d3d 06e6 34be
000003e0: abf2 a93d e2e6 0b3e 73ec 91bd d214 9c3e
000003f0: 6ade 873e f4ae 983e 58b7 8fbe 2f58 833d

rnn.rnn.rnn.bias_ih_l0 f4 [192]
0.32695815 0.29914612 0.35324183 0.16406837 0.08490059 0.1685597 0.14901073 0.10216484
0.33388433 0.08687432 0.16458936 -0.13930808 0.12157057 0.1425013 -0.06401233 0.14951007
-0.1649863 0.13287279 0.23908415 0.21527895 0.33359566 0.001567297 0.12434184 0.2443101
0.020520436 0.08954523 0.10114455 0.16582155 0.08587694 0.30045742 0.35674146 0.31947568
0.15891042 0.21828716 0.15127867 0.33735305 0.2811777 0.1080409 0.13924582 0.03268363
0.22233947 0.12007088 0.32626703 0.28313896 0.13219662 0.21058126 0.3537575 0.24741338
0.047006793 0.31331822 0.2831535 0.2657204 0.2594636 0.16400827 0.24387875 0.2592612
0.13165721 0.022819426 0.18154137 -0.06276977 -0.045717854 0.25749406 0.16356719 0.33578873
-0.08637906 0.0831137 0.25071087 0.013912211 0.17707247 0.015886905 -0.08174584 0.048683465
-0.26927322 -0.09172805 -0.12843436 -0.10053384 0.044968635 -0.02809892 0.027741503 0.25528625
-0.017141692 0.08310162 0.17778057 -0.0133978035 0.08372434 0.07240963 0.09070057 0.20476235
0.18075664 -0.19548535 0.15495355 -0.14314194 0.021313835 -0.35112023 -0.09843994 0.145105
0.055359896 0.07368437 0.39655235 0.18039289 0.03050562 0.12707575 0.02510299 0.33379596
0.04565227 -0.06934534 -0.013878648 0.0374976 0.10696997 0.134078 -0.095551 -0.13696294
0.17161337 0.1382456 0.11005371 -0.074988864 0.061650045 -0.27092642 -0.102619864 0.23760238
0.17751198 0.23936407 0.04327226 0.027122324 -0.020386115 -0.16662182 0.18602744 0.41402012
-0.17347558 0.10430804 0.0692193 -0.032770388 0.032402907 0.116976306 0.047406483 -0.002883104
0.18535599 -0.08188687 0.018030072 -0.20289622 -0.005077947 0.014207085 -0.085639216 -0.08027495
-0.1096672 -0.050338417 -0.10985661 0.09591846 0.08348297 0.002405968 0.014250724 0.010973665
0.094801016 -0.063292384 0.11195365 0.14204799 -0.023275087 -0.00518552 -0.07822362 -0.17722042
-0.08845637 0.2539827 0.11358172 0.07385732 -0.12673293 0.11196171 -0.0115483515 -0.053207457
-0.32484847 0.04145028 0.24989069 0.25399807 0.07252942 -0.09485637 -0.12013092 0.17889963
0.06845418 0.11147151 -0.2633445 -0.0046091103 -0.031518508 0.22296712 -0.12283095 0.017585963
-0.17602201 -0.21022289 0.031717572 -0.050660342 0.2920535 0.00030326252 -0.096940346 0.07540019
00000000: 0f67 a73e ae29 993e 1ddc b43e 8a01 283e
00000010: 5ce0 ad3d ea9a 2c3e 4596 183e cd3b d13d
00000020: e3f2 aa3e 2aeb b13d 1d8a 283e c7a6 0ebe
00000030: fef9 f83d dceb 113e e518 83bd 2b19 193e
00000040: 2bf2 28be ce0f 083e 7ad2 743e 1672 5c3e
00000050: 0dcd aa3e c36d cd3a efa6 fe3d 6d2c 7a3e
00000060: 791a a83c 7d63 b73d e024 cf3d 20cd 293e
00000070: 40e0 af3d 8ed5 993e d1a6 b63e 5192 a33e
00000080: 6ab9 223e ab86 5f3e cce8 1a3e 8ab9 ac3e
00000090: 86f6 8f3e 8c44 dd3d 7596 0e3e 45df 053d
000000a0: f5ac 633e b9e7 f53d 790c a73e 97f7 903e
000000b0: 8d5e 073e 9da2 573e b41f b53e ef59 7d3e
000000c0: 328a 403d 3f6b a03e 7ff9 903e 810c 883e
000000d0: 6ad8 843e c9f1 273e 5abb 793e e2bd 843e
000000e0: 26d1 063e ceef ba3c fbe5 393e 708d 80bd
000000f0: a542 3bbd 43d6 833e 287e 273e 80ec ab3e
00000100: 81e7 b0bd 8437 aa3d 2d5d 803e 0bf0 633c
00000110: 7c52 353e 4125 823c 5d6a a7bd 5068 473d
00000120: 2ede 89be eadb bbbd 4c84 03be b0e4 cdbd
00000130: 0831 383d b52f e6bc 2642 e33c e1b4 823e
00000140: bc6c 8cbc 2f31 aa3d 1c0c 363e 7682 5bbc
00000150: ab77 ab3d 804b 943d 38c1 b93d 39ad 513e
00000160: 4518 393e 502d 48be 25ac 1e3e cd93 12be
00000170: 5a9a ae3c 08c6 b3be e19a c9bd 6896 143e
00000180: 0fc1 623d d5e7 963d e908 cb3e eab8 383e
00000190: ece6 f93c 2520 023e c9a4 cd3c 4ee7 aa3e
000001a0: e0fd 3a3d ee04 8ebd 4563 63bc 1597 193d
000001b0: 1213 db3d be4b 093e 3eb0 c3bd 0340 0cbe
000001c0: 6abb 2f3e 4190 0d3e d763 e13d c393 99bd
000001d0: c284 7c3d deb6 8abe 5d2a d2bd 0a4e 733e
000001e0: b3c5 353e db1b 753e 413e 313d a32f de3c
000001f0: c800 a7bc e99e 2abe fa7d 3e3e 72fa d33e
00000200: 95a3 31be 749f d53d d9c2 8d3d 3e3a 06bd
00000210: e9b8 043d 4691 ef3d 4d2d 423d 75f2 3cbb
00000220: f6cd 3d3e 4eb4 a7bd cdb3 933c 07c4 4fbe
00000230: e864 a6bb d5c4 683c 9d63 afbd 3167 a4bd
00000240: 3299 e0bd a82f 4ebd 81fc e0bd e670 c43d
00000250: 1ff9 aa3d 72ad 1d3b de7b 693c e3ca 333c
00000260: 0927 c23d 709f 81bd f547 e53d 0775 113e
00000270: 65ab bebc 4beb a9bb b533 a0bd 4579 35be
00000280: 9d28 b5bd 050a 823e 889d e83d 8242 973d
00000290: 47c6 01be 2e4c e53d 4c35 3dbc 10f0 59bd
000002a0: 8a52 a6be c5c7 293d 58e3 7f3e 090c 823e
000002b0: 4e8a 943d 0e44 c2bd 3307 f6bd 7731 373e
000002c0: b531 8c3d 2d4b e43d 17d5 86be 0508 97bb
000002d0: 8d19 01bd 7e51 643e cb8e fbbd 7010 903c
000002e0: 1d3f 34be ab44 57be 49ea 013d 3881 4fbd
000002f0: 0988 953e 35ff 9e39 a988 c6bd 6a6b 9a3d
