train/mappo/results/MPE/formation_hd_env/rmappo/check/run23/models/actor_agent2.pt (torch, 152739 bytes, 22 tensors)

base.feature_norm.weight f4 [36]
1.6236397 1.6923407 0.62693244 1.224892 1.4039971 0.9446199 1.1852207 0.91358167
0.8937225 1.0494823 0.8092941 0.76091427 1.2698423 1.0680782 1.0210879 1.0340374
0.9936489 1.385368 0.75324035 0.79037637 0.79948163 0.87300205 1.0217837 0.682352
0.507766 1.0103981 0.85188484 0.5801196 1.0022318 0.8688139 0.6790052 0.819073
0.69363964 0.9911021 0.63762563 0.8076719
00000000: 6dd3 cf3f 9f9e d83f a57e 203f 43c9 9c3f
00000010: 2db6 b33f 9cd2 713f 50b5 973f 7de0 693f
00000020: ffca 643f 7055 863f e62d 4f3f 47cb 423f
00000030: 318a a23f c9b6 883f 02b3 823f 565b 843f
00000040: c65f 7e3f bd53 b13f 5cd4 403f 1b56 4a3f
00000050: d4aa 4c3f 107d 5f3f cfc9 823f 9fae 2e3f
00000060: f4fc 013f ba54 813f 2015 5a3f b882 143f
00000070: 2249 803f 966a 5e3f 49d3 2d3f c5ae 513f
00000080: 5e92 313f deb8 7d3f 6f3b 233f 96c3 4e3f

base.feature_norm.bias f4 [36]
-0.03152619 -0.25576752 0.040535934 -0.014279762 0.18050474 -0.12911665 -0.066629075 0.19231915
0.53436255 0.28644755 -0.14528811 0.24761957 0.21934673 0.34837124 0.022772372 -0.13199303
0.093690336 -0.15503868 0.017221028 0.43790305 -0.08433935 0.37361154 -0.13164341 0.031930767
0.14351174 -0.02430175 0.24413967 0.29332197 -0.015870083 0.059299216 0.25022805 0.2990437
0.24174489 -0.16062964 0.38825503 -0.23169522
00000000: 9b21 01bd f6f3 82be 0209 263d aaf5 69bc
00000010: 3cd6 383e 2837 04be d374 88bd 50ef 443e
00000020: fccb 083f 41a9 923e 68c6 14be fc8f 7d3e
00000030: 6e9c 603e b75d b23e 208d ba3c 2e29 07be
00000040: b8e0 bf3d 76c2 1ebe 1d13 8d3c d434 e03e
00000050: 1cba acbd 034a bf3e 88cd 06be d6c9 023d
00000060: bef4 123e 7714 c7bc c0ff 793e 4c2e 963e
00000070: fa01 82bc bce3 723d e41d 803e 411c 993e
00000080: f98b 773e 197c 24be 5dc9 c63e 8341 6dbe

base.mlp.fc1.0.weight f4 [64, 36]
-0.013759335 -0.11806651 0.029090527 -0.25322396 0.10466385 -0.2761903 0.06561465 0.34209844
0.15312918 -0.27208638 -0.17117967 -0.19325009 0.27072093 0.65758646 -0.03057937 -0.2189606
0.030743152 0.41876748 0.19846413 -0.1407255 -0.058667377 0.20486978 0.09668348 0.22208557
0.09852014 0.12275517 0.10964748 0.32813126 -0.3697301 -0.0991406 0.49121755 -0.06065652
0.14392734 -0.29074427 0.3519365 -0.04577962 -0.31773746 1.0053244 -0.30876055 0.42231876
0.25592816 -0.17107108 -0.069107145 0.07694409 0.03587925 0.2762252 0.26653445 0.21433446
-0.12071596 0.011968808 -0.34829184 -0.35548982 -0.59435457 -0.335722 0.0077119432 0.2567747
-0.24958023 -0.5536438 -0.09013358 -0.054865878 -0.02936996 -0.0728308 -0.06007335 0.4046996
-0.13757934 -0.10633008 -0.10678132 0.21763566 0.42016822 0.25833607 0.1949276 0.056725807
0.054960106 -0.080954455 -0.22238332 0.1205426 -0.013860245 -0.44983393 -0.3165272 -0.16599174
-0.00015550843 -0.30687842 -0.014087372 0.26617742 0.62929404 0.31107745 -0.4372162 -0.42206186
0.03572859 -0.049319584 -0.026775783 -0.03900848 -0.18223241 0.51879394 0.029859757 0.11905845
0.59119475 0.5830843 0.29985285 0.106508665 0.548657 0.09582173 0.43603328 -0.06692733
0.6592688 0.32827353 0.5773155 0.13690479 -0.4474058 -0.28507483 0.3303923 0.12771006
-0.24990623 0.101209715 0.3586669 0.33965015 -0.42403126 -0.08126381 -0.06658755 -0.33008415
-0.26590472 0.28800765 -0.15982774 0.42444915 -0.09564938 0.5587706 0.4897038 -0.25681522
0.42986777 0.1883768 0.07807716 0.033596043 -0.2655917 0.0032197344 0.22711796 0.14928362
0.23792541 0.07653857 -0.24135403 -0.11451507 0.019029904 0.4567609 0.0437206 0.36263844
0.504819 -0.260878 -0.17085806 0.0038432945 0.36990657 0.05519859 -0.34751835 0.17666318
-0.09255602 0.10577876 -0.100790806 0.48769066 -0.7245489 -0.10868956 -0.2588445 0.15735917
-0.19178307 0.080544874 0.030118473 0.23093307 -0.10176083 -0.71829253 -0.022218693 0.06696076
0.055199362 -0.19276077 0.06372541 -0.30262136 0.056258664 0.085843235 -0.12348555 0.039273098
-0.19209719 -0.26307547 0.022032093 0.15849574 0.16940394 0.5911317 -0.3419615 0.8649322
0.023956666 -0.12452531 -0.20721519 -0.17850024 -0.20317878 0.35626206 0.31022492 0.15351698
0.021692665 -0.1465642 -0.38585263 -0.3527614 0.14203183 0.24332456 0.28223473 -0.0002381563
0.044480238 -0.0717632 0.35399994 0.05424834 0.15790279 0.004061258 0.30497307 -0.32383278
0.16415691 0.3470302 0.25398767 -0.20861849 -0.25352475 0.20836893 0.0852707 0.39175105
0.2849566 0.5288855 -0.073475525 -0.43506858 0.17461254 -0.1160864 0.5521762 -0.14648895
0.00014498612 -0.4078715 -0.061378676 0.009879998 -0.26074892 0.017725252 -0.010093747 -0.112564966
-0.47721648 0.40055352 0.08348828 0.22501005 -0.42636994 -0.34188423 0.28386968 0.010386784
-0.5033966 0.029246623 -0.19940305 -0.4880851 0.11353598 -0.6472138 -0.35923836 -0.5878833
-0.26907375 0.013148335 -0.6190759 -0.05102454 0.15038437 1.0531409 0.33243585 0.23102494
00000000: d56e 61bc dbcc f1bd 424f ee3c 92a6 81be
00000010: 005a d63d d168 8dbe f960 863d 8727 af3e
00000020: e5cd 1c3e e84e 8bbe b949 2fbe 5ae3 45be
00000030: ef9b 8a3e 9657 283f 9681 fabc 3537 60be
00000040: 10d9 fb3c b168 d63e 2e3a 4b3e 581a 10be
00000050: 344d 70bd 62c9 513e fd01 c63d 666a 633e
00000060: edc4 c93d 1067 fb3d dc8e e03d d200 a83e
00000070: 434d bdbe 3a0a cbbd de80 fb3e f972 78bd
00000080: b061 133e 6fdc 94be 0531 b43e 6983 3bbd
00000090: 7cae a2be 78ae 803f dd15 9ebe 2a3a d83e
000000a0: 0409 833e 422d 2fbe 0c88 8dbd dd94 9d3d
000000b0: 1ff6 123d 646d 8d3e 3477 883e 7e7a 5b3e
000000c0: ee39 f7bd d218 443c 4f53 b2be c302 b6be
000000d0: 9f27 18bf c1e3 abbe 78b4 fc3b f977 833e
000000e0: f691 7fbe 9abb 0dbf f497 b8bd 0bbb 60bd
000000f0: 4599 f0bc 5128 95bd 790f 76bd c934 cf3e
00000100: 99e1 0cbe 96c3 d9bd 2ab0 dabd e2db 5e3e
00000110: 4a20 d73e a044 843e 1a9b 473e 5259 683d
00000120: d91d 613d 73cb a5bd 74b8 63be 0adf f63d
00000130: 1516 63bc a250 e6be da0f a2be bdf9 29be
00000140: fa0f 23b9 2b1f 9dbe b9ce 66bc 6848 883e
00000150: 6a19 213f 8b45 9f3e cdda dfbe 7e18 d8be
00000160: 2458 123d 5503 4abd e358 dbbc 5bc7 1fbd
00000170: 229b 3abe aecf 043f 739c f43c ebd4 f33d
00000180: 8a58 173f 0345 153f 5086 993e 3721 da3d
00000190: c974 0c3f 2f3e c43d c13f df3e 3211 89bd
000001a0: d7c5 283f 7813 a83e f3ca 133f c530 0c3e
000001b0: 5f12 e5be 54f5 91be 2e29 a93e 6dc6 023e
000001c0: 6be7 7fbe 0a47 cf3d 30a3 b73e a0e6 ad3e
000001d0: a01a d9be a46d a6bd 0e5f 88bd ca00 a9be
000001e0: aa24 88be bd75 933e e2a9 23be 6651 d93e
000001f0: d2e3 c3bd 970b 0f3f 75ba fa3e 497d 83be
00000200: a117 dc3e d9e5 403e ebe6 9f3d 019c 093d
00000210: a3fb 87be 2e02 533b 9c91 683e cedd 183e
00000220: b8a2 733e 41c0 9c3d 8325 77be e186 eabd
00000230: 9ae4 9b3c 91dc e93e 5f14 333d bfab b93e
00000240: d13b 013f cd91 85be 6af5 2ebe c8df 7b3b
00000250: 6564 bd3e eb17 623d eded b1be 31e7 343e
00000260: 038e bdbd 89a2 d83d 696b cebd 97b2 f93e
00000270: 097c 39bf a298 debd 4487 84be c322 213e
00000280: c862 44be b6f4 a43d 04bb f63c b879 6c3e
00000290: fb67 d0bd 05e2 37bf fa03 b6bc b922 893d
000002a0: ba18 623d 1463 45be 7882 823d 30f1 9abe
000002b0: 7c6f 663d 94ce af3d fee5 fcbd d4dc 203d
000002c0: 20b5 44be d4b1 86be a67c b43c b54c 223e
000002d0: 3a78 2d3e 6854 173f 9415 afbe 326c 5d3f
000002e0: c540 c43c 2007 ffbd 3830 54be c4c8 36be
000002f0: 190e 50be fb67 b63e cdd5 9e3e 8e33 1d3e
00000300: d1b4 b13c ed14 16be 7a8e c5be 249d b4be
00000310: cb70 113e 132a 793e 1281 903e 98b9 79b9
00000320: e930 363d 96f8 92bd 7b3f b53e 8233 5e3d
00000330: 45b1 213e 4d14 853b 6e25 9c3e 69cd a5be
00000340: c018 283e f1ad b13e ac0a 823e 16a0 55be
00000350: ffcd 81be aa5e 553e 68a2 ae3d 9893 c83e
00000360: d5e5 913e 0a65 073f 567a 96bd 4fc1 debe
00000370: a1cd 323e b5be edbd 6b5b 0d3f 3301 16be
00000380: 6a07 1839 89d4 d0be 3568 7bbd b7df 213c
00000390: e280 85be 8c34 913c 3e60 25bc 7688 e6bd
000003a0: b855 f4be 5a15 cd3e e7fb aa3d 0969 663e
000003b0: 294d dabe 730b afbe 5e57 913e 542d 2a3c
000003c0: 99de 00bf 9d96 ef3c 5030 4cbe 4ae6 f9be
000003d0: 8d85 e83d ceaf 25bf 17ee b7be 857f 16bf
000003e0: 09c4 89be 1d6c 573c c27b 1ebf 1cff 50bd
000003f0: 5cfe 193e 52cd 863f 0835 aa3e cd91 6c3e

base.mlp.fc1.0.bias f4 [64]
0.36837602 0.12643208 0.21556835 -0.018462248 -0.03616107 -0.001335369 -0.27795961 -0.24186657
0.0793889 -0.093103 0.032046825 0.29868016 -0.17770292 0.11307905 0.1646358 0.018495016
0.3934875 -0.023454318 -0.19335294 -0.33829838 0.13774137 -0.15955216 -0.27831793 0.3294345
-0.4380495 0.13760453 0.05198162 0.43614265 -0.12552874 0.05527472 0.2648665 -0.23341113
0.31616262 0.010825779 0.45750543 0.1260212 0.37877834 -0.05098513 -0.24797001 -0.04286039
-0.09141525 0.10006199 -0.07155621 0.14095548 0.3251837 0.18201646 0.28500265 0.14846118
-0.023621067 0.111206464 0.030829588 -0.12988448 0.06955044 -0.32057807 0.048595913 -0.44121093
-0.0054825074 0.19468772 0.13967311 0.09165442 0.0543062 -0.03145717 -0.23821782 -0.1513393
00000000: c89b bc3e 6977 013e f3bd 5c3e 243e 97bc
00000010: a11d 14bd 8c07 afba b950 8ebe dfab 77be
00000020: a696 a23d c9ac bebd 8843 033d 9bec 983e
00000030: c1f7 35be fd95 e73d 4a96 283e dc82 973c
00000040: 3277 c93e 4523 c0bc 50fe 45be 7235 adbe
00000050: 130c 0d3e a461 23be b07f 8ebe a4ab a83e
00000060: 0648 e0be 34e8 0c3e aeea 543d 174e df3e
00000070: 9b8a 00be bf67 623d 959c 873e 5403 6fbe
00000080: 11e0 a13e 9c5e 313c 273e ea3e b40b 013e
00000090: 3cef c13e c9d5 50bd daeb 7dbe 608e 2fbd
000000a0: eb37 bbbd 4ded cc3d 108c 92bd a256 103e
000000b0: 7a7e a63e 8662 3a3e deeb 913e 3506 183e
000000c0: f880 c1bc 37c0 e33d 558e fc3c 7000 05be
000000d0: 7670 8e3d cf22 a4be 820c 473d 66e6 e1be
000000e0: 9ba6 b3bb 385c 473e 7806 0f3e 50b5 bb3d
000000f0: 2e70 5e3d 3cd9 00bd 5fef 73be b1f8 1abe

base.mlp.fc1.2.weight f4 [64]
1.3336465 1.7163781 1.070438 1.3325878 1.0128223 1.277033 1.2293171 1.373222
1.0695229 1.1135118 1.5118039 1.1388968 1.2492752 1.3559297 1.5391351 1.3058075
0.954313 0.96001947 0.7384621 1.2044122 1.001311 1.2709441 1.3884888 1.1927837
1.0318108 1.0940684 1.4343513 1.0615677 1.149245 0.91997135 1.1856744 0.95817083
1.476807 1.1288495 1.2788584 1.0732323 1.2083231 1.0695709 1.0561128 1.0332944
1.1025674 0.9704966 1.0471675 1.0607733 1.3056574 1.5871087 0.6523392 1.375098
1.382346 1.2573231 1.3240223 1.5121546 1.026243 1.1809185 1.4169152 1.0915791
1.0816376 1.0660064 0.7012092 1.2147437 0.9081282 0.9930395 0.72870094 0.962071
00000000: eeb4 aa3f 47b2 db3f 1d04 893f 3d92 aa3f
00000010: 29a4 813f d175 a33f 435a 9d3f bdc5 af3f
00000020: 20e6 883f 8e87 8e3f ca82 c13f 5fc7 913f
00000030: 40e8 9f3f 1b8f ad3f 6102 c53f b324 a73f
00000040: db4d 743f d6c3 753f da0b 3d3f 2e2a 9a3f
00000050: f52a 803f 4cae a23f 00ba b13f 23ad 983f
00000060: 6012 843f 6f0a 8c3f d398 b73f 73e1 873f
00000070: 761a 933f 3e83 6b3f 2ec4 973f af4a 753f
00000080: 0308 bd3f 247e 903f a2b1 a33f ad5f 893f
00000090: 55aa 9a3f b3e7 883f b42e 873f fe42 843f
000000a0: ee20 8d3f 7772 783f 9609 863f 6bc7 873f
000000b0: c81f a73f 6126 cb3f b4ff 263f 3603 b03f
000000c0: b7f0 b03f f7ef a03f 9079 a93f 488e c13f
000000d0: ee5b 833f 5628 973f 7a5d b53f ddb8 8b3f
000000e0: 1a73 8a3f e672 883f 7282 333f b97c 9b3f
000000f0: 177b 683f d637 7e3f 258c 3a3f 494a 763f

base.mlp.fc1.2.bias f4 [64]
0.5213483 -0.12343984 0.09282008 0.11529459 0.029901942 0.0268605 0.14175639 -0.11894148
0.28713733 0.20420969 -0.08986958 0.17040467 -0.31124935 0.08079699 0.22031394 -0.060245205
0.41334346 -0.24412738 -0.36709285 -0.1782834 0.11534955 -0.1854008 -0.15461439 0.15242194
-0.26944703 -0.17292634 0.09242079 0.3477756 -0.041793145 -0.21040347 0.022629177 -0.24044175
0.10728731 0.24030033 0.38934812 0.21986085 0.31496817 -0.31723732 0.018047327 -0.2087481
0.0873123 0.23772153 -0.048410296 -0.112507135 0.1832792 0.2547874 0.1509327 0.52358025
0.24658655 -0.015988145 0.039487354 -0.1488536 -0.21914662 -0.28120562 0.102832526 -0.4466226
0.21917985 0.08548907 -0.13796017 0.18576252 -0.06963212 -0.1481807 -0.38133687 -0.030458216
00000000: 1577 053f 07ce fcbd 7418 be3d 921f ec3d
00000010: ebf4 f43c 8d0a dc3c 9628 113e 9797 f3bd
00000020: aa03 933e 581c 513e 8b0d b8bd 907e 2e3e
00000030: 135c 9fbe e478 a53d fa99 613e adc3 76bd
00000040: c1a1 d33e 87fc 79be 98f3 bbbe ec8f 36be
00000050: 633c ec3d b5d9 3dbe 3c53 1ebe 7f14 1c3e
00000060: f6f4 89be 9a13 31be 1c47 bd3d a50f b23e
00000070: 4a2f 2bbd 0274 57be d360 b93c 5d36 76be
00000080: 73b9 db3d 4a11 763e a358 c73e 3423 613e
00000090: 8243 a13e ee6c a2be fdd7 933c 10c2 55be
000000a0: cbd0 b23d 466d 733e e049 46bd 246a e6bd
000000b0: 8bad 3b3e 7e73 823e 1a8e 1a3e 5b09 063f
000000c0: 2f81 7c3e 92f9 82bc 7ebd 213d 146d 18be
000000d0: f967 60be 2ffa 8fbe dc99 d23d b8ab e4be
000000e0: af70 603e e514 af3d 6e45 0dbe 8838 3e3e
000000f0: 499b 8ebd aebc 17be 963e c3be 8283 f9bc

base.mlp.fc_h.0.weight f4 [64, 64]
-0.30606568 -0.28091493 -0.07464811 0.030069567 -0.081787616 -0.002706185 0.11647865 0.02528365
-0.05948618 -0.010764485 -0.17360474 0.15718831 0.2973612 -0.01781237 -0.23802948 0.18065989
0.3345996 0.40473545 0.20085259 -0.0004926307 -0.118880875 -0.32732907 -0.07906754 0.11464127
0.21272743 -0.33437777 -0.37494633 0.1424127 0.2912384 -0.20943135 -0.17709835 -0.01783158
0.14666636 -0.20203102 0.04962031 -0.4370513 0.09442993 -0.0931285 0.1765699 0.092527434
0.09497405 0.046969544 -0.38913554 -0.050526682 -0.08769332 0.278524 0.085223235 0.24991722
-0.23805277 -0.17776364 -0.29046056 -0.21405739 -0.29776442 0.33075345 0.071740836 -0.27467388
-0.06434212 -0.15128258 -0.005568317 0.31982395 -0.21490084 0.20912029 0.1754176 0.16041562
0.12479007 -0.26094115 0.11237435 0.20194182 -0.1859783 -0.06030068 -0.082965545 0.060812667
0.0876464 -0.025871478 -0.07975502 -0.16799077 -0.16901916 -0.039206598 0.026162297 0.19221589
0.15670845 -0.14471066 0.016030367 -0.39652875 0.49622688 -0.13322124 0.16171718 0.14770114
-0.3541004 0.25172335 -0.25056648 -0.10692757 -0.062010944 -0.028382247 -0.0374439 -0.26556942
-0.07134833 0.33260304 0.015972575 -0.008574054 0.00058001874 0.20746602 -0.32443497 0.038988993
-0.39354566 0.054361764 -0.1918401 0.24458633 0.05511796 -0.21921249 -0.27222717 0.5180518
-0.59791315 0.3242913 -0.108490124 -0.14604622 0.22829235 0.10896639 0.11920458 0.022990923
0.021318527 -0.13816114 0.23326084 -0.020254731 -0.016931107 -0.0243781 0.251188 0.0006102375
0.12966892 -0.3616216 -0.37992522 0.24772711 0.054397818 -0.15497182 -0.015890563 -0.122239076
0.08897659 0.23757942 -0.045321476 0.23428345 0.03907831 -0.09565674 -0.123132974 -0.17208795
0.1736459 -0.04275728 -0.32968497 0.077133074 0.055229478 0.22090529 -0.3140409 0.09340619
0.01142531 0.20303719 0.119449206 0.06609843 0.07870581 -0.22829407 -0.2583328 0.09999067
-0.27640623 -0.17186537 -0.2515424 -0.06372508 0.05414384 -0.036577445 -0.11347659 0.2506248
-0.22359946 -0.13770916 0.26318744 -0.1668544 -0.20492 0.14425357 0.060040843 -0.024031095
-0.014593241 0.39911294 -0.3347136 0.55702484 -0.09996668 0.020161679 0.07349453 -0.038962208
0.046158295 0.5267574 -0.0029090357 -0.27057254 -0.38693 0.023349876 0.29415587 0.17225169
-0.03598976 -0.3139443 -0.11261817 0.08299425 0.3044671 0.14952216 0.065610915 0.16688305
-0.041202802 0.28394458 -0.071159646 0.193128 0.12120035 -0.16406439 -0.11741464 0.25647324
0.19321525 -0.007045673 0.08823166 0.2589558 -0.11904761 0.1595704 0.09024611 0.30802113
0.024689818 0.19748436 -0.47589827 -0.1736283 0.0760163 0.65158767 -0.10247548 0.11533041
0.0073977513 0.40502623 -0.15694948 0.18234871 0.2195057 0.050004344 -0.08037123 -0.09821237
-0.054125473 -0.17786288 0.080449715 0.3088925 -0.14502631 0.25606024 -0.012274371 -0.11898192
-0.042880964 -0.3059005 0.29160705 -0.059631452 0.18622753 -0.12799028 -0.3759439 -0.24359636
-0.005068689 0.26942828 -0.031137131 0.15127166 -0.17247805 -0.2776144 -0.037051756 -0.30575538
00000000: a4b4 9cbe 15d4 8fbe 1ce1 98bd 7454 f63c
00000010: 4480 a7bd 405a 31bb 5c8c ee3d a81f cf3c
00000020: c8a7 73bd 865d 30bc 71c5 31be f9f5 203e
00000030: ba3f 983e 3feb 91bc 00be 73be e8fe 383e
00000040: a450 ab3e 7c39 cf3e 4dac 4d3e e323 01ba
00000050: d177 f3bd ad97 a7be 2aee a1bd 0bc9 ea3d
00000060: 38d5 593e 9033 abbe f7f8 bfbe a3d4 113e
00000070: 331d 953e 2c75 56be 4559 35be 8913 92bc
00000080: b52f 163e 38e1 4ebe ab3e 4b3d 30c5 dfbe
00000090: 7b64 c13d 28ba bebd bdce 343e 067f bd3d
000000a0: c181 c23d 2363 403d c63c c7be 11f5 4ebd
000000b0: 8e98 b3bd b39a 8e3e 8589 ae3d 4dea 7f3e
000000c0: 1bc4 73be ac07 36be 3fb7 94be dc31 5bbe
000000d0: 9474 98be 8458 a93e dcec 923d 0ea2 8cbe
000000e0: cdc5 83bd d2e9 1abe 6e76 b6bb f7bf a33e
000000f0: f70e 5cbe a123 563e aca0 333e fe43 243e
00000100: f091 ff3d 149a 85be 8624 e63d d6c9 4e3e
00000110: 1871 3ebe d9fd 76bd d7e9 a9bd b416 793d
00000120: f57f b33d 6cf0 d3bc 9a56 a3bd c605 2cbe
00000130: 5c13 2dbe 1997 20bd 5052 d63c 3ed4 443e
00000140: 2e78 203e 082f 14be 1e52 833c d105 cbbe
00000150: 7311 fe3e 266b 08be 3099 253e f83e 173e
00000160: a64c b5be e2e1 803e 404a 80be d8fc dabd
00000170: 30ff 7dbd e381 e8bc c65e 19bd b7f8 87be
00000180: 131f 92bd f24a aa3e ebd8 823c 307a 0cbc
00000190: 660c 183a f971 543e 571c a6be ecb2 1f3d
000001a0: d17e c9be 71aa 5e3d bb71 44be d774 7a3e
000001b0: 5fc3 613d 3d79 60be 5c61 8bbe 0b9f 043f
000001c0: d610 19bf 8209 a63e 1230 debd 248d 15be
000001d0: 78c5 693e c529 df3d 8821 f43d 7657 bc3c
000001e0: 31a4 ae3c 1d7a 0dbe eedb 6e3e 40ed a5bc
000001f0: 1bb3 8abc 95b4 c7bc b79b 803e 58f8 1f3a
00000200: eec7 043e 7726 b9be 8f85 c2be 2dac 7d3e
00000210: 3fd0 5e3d efb0 1ebe ed2c 82bc 7b58 fabd
00000220: 5c39 b63d 0548 733e 03a3 39bd 00e8 6f3e
00000230: 9410 203d aee7 c3bd 242d fcbd d337 30be
00000240: 3bd0 313e 4222 2fbd 78cc a8be f2f7 9d3d
00000250: 4e38 623d ff34 623e f8c9 a0be bf4b bf3d
00000260: 3931 3b3c fbe8 4f3e c9a1 f43d 9d5e 873d
00000270: 8330 a13d ecc5 69be 3244 84be e9c7 cc3d
00000280: 1e85 8dbe 7afd 2fbe 2aca 80be 4b82 82bd
00000290: eec5 5d3d 3bd2 15bd 6a66 e8bd e551 803e
000002a0: 42f7 64be a103 0dbe 81c0 863e e1db 2abe
000002b0: 8cd6 51be 35b7 133e 63ed 753d dcdc c4bc
000002c0: 7d18 6fbc 8858 cc3e 955f abbe 2e99 0e3f
000002d0: 55bb ccbd 1b2a a53c 4d84 963d d696 1fbd
000002e0: 7b10 3d3d 93d9 063f 85a5 3ebb 7c88 8abe
000002f0: b01b c6be 3d48 bf3c 999b 963e bf62 303e
00000300: 006a 13bd 4fbd a0be 5ba4 e6bd e4f8 a93d
00000310: 1de3 9b3e 561c 193e 045f 863d 64e3 2a3e
00000320: 45c4 28bd 2f61 913e 26bc 91bd 59c3 453e
00000330: e437 f83d 7f00 28be 1677 f0bd 7650 833e
00000340: 38da 453e 64df e6bb cdb2 b43d db95 843e
00000350: 3ccf f3bd 6c66 233e f4d2 b83d f2b4 9d3e
00000360: 4d42 ca3c 5739 4a3e f0a8 f3be 9ecb 31be
00000370: 6fae 9b3d 73ce 263f aade d1bd 5a32 ec3d
00000380: d668 f23b 995f cf3e 5db7 20be 9fb9 3a3e
00000390: 1ac6 603e 5bd1 4c3d ac99 a4bd 9123 c9bd
000003a0: acb2 5dbd b021 36be d2c2 a43d 2827 9e3e
000003b0: c781 14be 541a 833e 721a 49bc cbac f3bd
000003c0: f3a3 2fbd fe9e 9cbe 854d 953e 1c40 74bd
000003d0: 6eb2 3e3e e20f 03be b87b c0be 5371 79be
000003e0: 3f17 a6bb 81f2 893e 4c13 ffbc f5e6 1a3e
000003f0: 169e 30be 7a23 8ebe 95c3 17bd f88b 9cbe

base.mlp.fc_h.0.bias f4 [64]
0.0 0.0 0.0 0.0 0.0 0.0 0.0 0.0
0.0 0.0 0.0 0.0 0.0 0.0 0.0 0.0
0.0 0.0 0.0 0.0 0.0 0.0 0.0 0.0
0.0 0.0 0.0 0.0 0.0 0.0 0.0 0.0
0.0 0.0 0.0 0.0 0.0 0.0 0.0 0.0
0.0 0.0 0.0 0.0 0.0 0.0 0.0 0.0
0.0 0.0 0.0 0.0 0.0 0.0 0.0 0.0
0.0 0.0 0.0 0.0 0.0 0.0 0.0 0.0
00000000: 0000 0000 0000 0000 0000 0000 0000 0000
00000010: 0000 0000 0000 0000 0000 0000 0000 0000
00000020: 0000 0000 0000 0000 0000 0000 0000 0000
00000030: 0000 0000 0000 0000 0000 0000 0000 0000
00000040: 0000 0000 0000 0000 0000 0000 0000 0000
00000050: 0000 0000 0000 0000 0000 0000 0000 0000
00000060: 0000 0000 0000 0000 0000 0000 0000 0000
00000070: 0000 0000 0000 0000 0000 0000 0000 0000
00000080: 0000 0000 0000 0000 0000 0000 0000 0000
00000090: 0000 0000 0000 0000 0000 0000 0000 0000
000000a0: 0000 0000 0000 0000 0000 0000 0000 0000
000000b0: 0000 0000 0000 0000 0000 0000 0000 0000
000000c0: 0000 0000 0000 0000 0000 0000 0000 0000
000000d0: 0000 0000 0000 0000 0000 0000 0000 0000
000000e0: 0000 0000 0000 0000 0000 0000 0000 0000
000000f0: 0000 0000 0000 0000 0000 0000 0000 0000

base.mlp.fc_h.2.weight f4 [64]
1.0 1.0 1.0 1.0 1.0 1.0 1.0 1.0
1.0 1.0 1.0 1.0 1.0 1.0 1.0 1.0
1.0 1.0 1.0 1.0 1.0 1.0 1.0 1.0
1.0 1.0 1.0 1.0 1.0 1.0 1.0 1.0
1.0 1.0 1.0 1.0 1.0 1.0 1.0 1.0
1.0 1.0 1.0 1.0 1.0 1.0 1.0 1.0
1.0 1.0 1.0 1.0 1.0 1.0 1.0 1.0
1.0 1.0 1.0 1.0 1.0 1.0 1.0 1.0
00000000: 0000 803f 0000 803f 0000 803f 0000 803f
00000010: 0000 803f 0000 803f 0000 803f 0000 803f
00000020: 0000 803f 0000 803f 0000 803f 0000 803f
00000030: 0000 803f 0000 803f 0000 803f 0000 803f
00000040: 0000 803f 0000 803f 0000 803f 0000 803f
00000050: 0000 803f 0000 803f 0000 803f 0000 803f
00000060: 0000 803f 0000 803f 0000 803f 0000 803f
00000070: 0000 803f 0000 803f 0000 803f 0000 803f
00000080: 0000 803f 0000 803f 0000 803f 0000 803f
00000090: 0000 803f 0000 803f 0000 803f 0000 803f
000000a0: 0000 803f 0000 803f 0000 803f 0000 803f
000000b0: 0000 803f 0000 803f 0000 803f 0000 803f
000000c0: 0000 803f 0000 803f 0000 803f 0000 803f
000000d0: 0000 803f 0000 803f 0000 803f 0000 803f
000000e0: 0000 803f 0000 803f 0000 803f 0000 803f
000000f0: 0000 803f 0000 803f 0000 803f 0000 803f

base.mlp.fc_h.2.bias f4 [64]
0.0 0.0 0.0 0.0 0.0 0.0 0.0 0.0
0.0 0.0 0.0 0.0 0.0 0.0 0.0 0.0
0.0 0.0 0.0 0.0 0.0 0.0 0.0 0.0
0.0 0.0 0.0 0.0 0.0 0.0 0.0 0.0
0.0 0.0 0.0 0.0 0.0 0.0 0.0 0.0
0.0 0.0 0.0 0.0 0.0 0.0 0.0 0.0
0.0 0.0 0.0 0.0 0.0 0.0 0.0 0.0
0.0 0.0 0.0 0.0 0.0 0.0 0.0 0.0
00000000: 0000 0000 0000 0000 0000 0000 0000 0000
00000010: 0000 0000 0000 0000 0000 0000 0000 0000
00000020: 0000 0000 0000 0000 0000 0000 0000 0000
00000030: 0000 0000 0000 0000 0000 0000 0000 0000
00000040: 0000 0000 0000 0000 0000 0000 0000 0000
00000050: 0000 0000 0000 0000 0000 0000 0000 0000
00000060: 0000 0000 0000 0000 0000 0000 0000 0000
00000070: 0000 0000 0000 0000 0000 0000 0000 0000
00000080: 0000 0000 0000 0000 0000 0000 0000 0000
00000090: 0000 0000 0000 0000 0000 0000 0000 0000
000000a0: 0000 0000 0000 0000 0000 0000 0000 0000
000000b0: 0000 0000 0000 0000 0000 0000 0000 0000
000000c0: 0000 0000 0000 0000 0000 0000 0000 0000
000000d0: 0000 0000 0000 0000 0000 0000 0000 0000
000000e0: 0000 0000 0000 0000 0000 0000 0000 0000
000000f0: 0000 0000 0000 0000 0000 0000 0000 0000

base.mlp.fc2.0.0.weight f4 [64, 64]
-0.36712506 -0.45336986 -0.14646062 0.45757782 0.1335048 -0.09811854 0.39672938 -0.35820913
-0.24284403 -0.27502024 0.09021486 0.17238757 0.12230802 -0.18667606 -0.27551258 0.24640918
0.057155542 0.2788836 0.23516853 0.17339304 -0.052370407 -0.0247852 0.064375736 0.38368014
0.29809028 -0.44577664 -0.5339162 0.00385062 0.57579637 0.011096504 -0.07027815 -0.0275836
0.17067027 0.050618436 0.1372612 -0.72263914 -0.10804775 -0.008956412 0.11567258 -0.041512746
0.2905753 -0.08467405 -0.47705454 -0.11553061 0.07102966 -0.27001855 0.05943831 0.69132656
-0.5698469 -0.5946696 -0.2598244 -0.28378713 -0.2973876 0.5020183 0.246217 -0.17111416
-0.36975595 -0.04058731 -0.26500964 0.6294031 -0.050935686 -0.00070894294 0.4081683 -0.20446964
0.47540745 -0.5130191 0.8246309 0.25766134 -0.16012509 -0.14336619 -0.2958308 -0.15273914
0.46755055 0.11651771 -0.23359273 -0.26362145 0.038356464 -0.027455444 0.1064389 -0.12706423
0.4292536 -0.1065031 0.07356806 -0.8251661 0.56583935 -0.047312196 0.077191986 0.05465604
-0.1798302 0.25769162 -0.15940723 0.22999407 -0.3683565 -0.16490124 -0.114871204 -0.27840254
0.097632594 0.16507651 -0.012283818 0.09277089 0.098676555 0.024445415 -0.51218164 0.22937776
-0.54432344 0.1154986 -0.16042362 -0.07820398 -0.018598044 0.12057879 -0.21523063 0.40458417
-0.024589684 0.8716014 -0.49850607 -0.3149489 0.12223184 -0.100295275 0.13294095 0.051703412
0.16641536 -0.022248067 0.19992034 -0.1520518 -0.11392323 0.06276997 -0.06919983 -0.22046171
0.17778045 -0.6344794 -0.70345116 0.5932645 0.28984344 -0.6776033 0.0006123737 -0.3280418
0.12082877 0.35520068 0.053829677 0.1123849 0.35075238 -0.18317163 -0.5302563 0.3911358
0.3614572 -0.37116867 -0.25954878 -0.31507057 0.0124191 -0.0077274954 -0.17221683 0.28126666
-0.084744565 0.29388642 0.033567414 -0.1262193 0.31387427 0.09740876 -0.3618358 0.26372737
0.30439457 -0.28886473 -0.51727486 -0.26537806 -0.18454176 0.25278383 0.41642818 0.24312256
-0.009555835 0.1573088 0.15416369 0.08356595 -0.25156662 -0.15585655 0.031877745 -0.37028253
0.1176828 0.28974047 -0.6079319 0.49881324 -0.5034226 -0.07902198 -0.11344836 -0.12204855
0.3087068 0.8468087 -0.09806086 -0.11059627 -0.38432348 -0.089067996 0.34129676 0.089095056
0.2139659 -0.398623 -0.13461965 0.37239182 0.20575146 -0.17881745 0.03554425 0.12285166
-0.2058154 0.30575472 -0.124556676 -0.4245804 0.1076094 -0.27720767 -0.45688188 0.30893958
0.74721956 -0.058126777 -0.0827779 0.251712 0.10792155 0.21651272 0.30756044 -0.04888453
0.0153489495 -0.20294434 -0.66717964 -0.10005129 0.6514161 0.87994856 0.00648216 -0.056321383
0.36162797 0.47136697 0.24494496 -0.024593854 0.32538813 0.038083196 -0.5126199 -0.5657682
-0.23801647 0.19979915 -0.26805776 0.38375401 -0.028855918 0.17778558 0.12851891 -0.044249732
-0.010174435 -0.1563262 0.15320338 0.17263217 0.41779578 -0.3069878 -0.4189605 -0.393367
-0.13274974 0.8201973 -0.43341854 0.45449758 -0.13166149 -0.110954866 -0.12286242 -0.31982893
00000000: d1f7 bbbe 1820 e8be c6f9 15be a447 ea3e
00000010: 7bb5 083e 60f2 c8bd 1d20 cb3e 3067 b7be
00000020: 1bac 78be 74cf 8cbe 92c2 b83d 5e86 303e
00000030: a17c fa3d 0228 3fbe fc0f 8dbe b052 7c3e
00000040: ee1b 6a3d d5c9 8e3e 05d0 703e f28d 313e
00000050: 5a82 56bd 550a cbbc 6dd7 833d b971 c43e
00000060: 4a9f 983e d63c e4be bbae 08bf af5a 7c3b
00000070: 6467 133f 1cce 353c feed 8fbd 00f7 e1bc
00000080: 30c4 2e3e 4755 4f3d 338e 0c3e e1fe 38bf
00000090: 2448 ddbd eabd 12bc bfe5 ec3d 4509 2abd
000000a0: 49c6 943e 9769 adbd 7e40 f4be 509b ecbd
000000b0: 0078 913d df3f 8abe 9675 733d c7fa 303f
000000c0: 7de1 11bf 443c 18bf b407 85be 8c4c 91be
000000d0: 3043 98be 4584 003f 4f20 7c3e 8d38 2fbe
000000e0: a750 bdbe e13e 26bd 58af 87be 9020 213f
000000f0: f0a1 50bd 5bd8 39ba 6ffb d03e 7d60 51be
00000100: 9b68 f33e 3855 03bf 031b 533f 30ec 833e
00000110: d5f7 23be 96ce 12be 2277 97be a667 1cbe
00000120: c962 ef3e d6a0 ee3d ef32 6fbe 64f9 86be
00000130: ab1b 1d3d 3dea e0bc a3fc d93d 201d 02be
00000140: 21c7 db3e 4c1e dabd daaa 963d 163e 53bf
00000150: d9da 103f 6fca 41bd d516 9e3d 03df 5f3d
00000160: 6825 38be 28f0 833e a63b 23be 9183 6b3e
00000170: 3999 bcbe dfdb 28be 9841 ebbd c78a 8ebe
00000180: 99f3 c73d d109 293e 1142 49bc aafe bd3d
00000190: ef16 ca3d c041 c83c 561e 03bf 01e2 6a3e
000001a0: c858 0bbf 888a ec3d 1746 24be 6929 a0bd
000001b0: ed5a 98bc 03f2 f63d 6b65 5cbe a825 cf3e
000001c0: 4e70 c9bc 4521 5f3f 303c ffbe fb40 a1be
000001d0: b054 fa3d 9c67 cdbd ac21 083e f5c6 533d
000001e0: ca68 2a3e 9441 b6bc ebb7 4c3e 78b3 1bbe
000001f0: 9550 e9bd 8b8d 803d a4b8 8dbd b7c0 61be
00000200: 140c 363e 3e6d 22bf 6015 34bf 2fe0 173f
00000210: 5c66 943e 6977 2dbf b487 203a 18f5 a7be
00000220: 1375 f73d dddc b53e 827c 5c3d 0e2a e63d
00000230: d195 b33e 5891 3bbe e0be 07bf f442 c83e
00000240: eb10 b93e d209 bebe 94e3 84be ee50 a1be
00000250: 7b79 4b3c ee36 fdbb 9c59 30be 2f02 903e
00000260: 8f8e adbd 4878 963e fc7d 093d a23f 01be
00000270: 21b4 a03e 3e7e c73d 8b42 b9be 4607 873e
00000280: 9bd9 9b3e 14e6 93be 206c 04bf a2df 87be
00000290: 84f8 3cbe e26c 813e 1336 d53e 1ff5 783e
000002a0: 1490 1cbc 8f15 213e 16dd 1d3e a024 ab3d
000002b0: 57cd 80be dc98 1fbe 3d92 023d ac95 bdbe
000002c0: ae03 f13d dd58 943e 6da1 1bbf 7364 ff3e
000002d0: 4ee0 00bf 47d6 a1bd 9d57 e8bd 97f4 f9bd
000002e0: d10e 9e3e 74c8 583f 22d4 c8bd 4c80 e2bd
000002f0: 0cc6 c4be 4869 b6bd 73be ae3e 7877 b63d
00000300: e019 5b3e 5018 ccbe bcd9 09be 24aa be3e
00000310: 83b0 523e ec1b 37be d996 113d a799 fb3d
00000320: 46c1 52be e28b 9c3e 9217 ffbd 9a62 d9be
00000330: 5162 dc3d 2aee 8dbe 6cec e9be 542d 9e3e
00000340: c849 3f3f 5816 6ebd 7687 a9bd 65e0 803e
00000350: f905 dd3d 83b5 5d3e 9078 9d3e 253b 48bd
00000360: 297a 7b3c a4d0 4fbe 49cc 2abf b1e7 ccbd
00000370: 35c3 263f 4f44 613f 4d68 d43b 40b1 66bd
00000380: 4d27 b93e 0357 f13e dad2 7a3e 0d79 c9bc
00000390: 4699 a63e 20fd 1b3d 0f3b 03bf 2fd6 10bf
000003a0: 97ba 73be 2698 4c3e de3e 89be 687b c43e
000003b0: 3f63 ecbc 6c0d 363e 769a 033e 353f 35bd
000003c0: acb2 26bc fa13 20be 59e1 1c3e 7dc6 303e
000003d0: 54e9 d53e 812d 9dbe fe81 d6be 6667 c9be
000003e0: 8cef 07be 73f8 513f 09e9 ddbe e8b3 e83e
000003f0: 45d2 06be 4e3c e3bd 4b9f fbbd 9ec0 a3be

base.mlp.fc2.0.0.bias f4 [64]
0.028378066 0.13560152 -0.06624775 0.02345741 -0.36746827 -0.20598793 -0.30172884 0.034406275
-0.05129798 -0.28631207 -0.24345179 -0.3042091 -0.09945955 0.046980947 0.24131659 0.17022793
-0.325105 0.4602749 0.010560616 -0.25090167 0.5307646 0.05671923 0.17497279 -0.03517604
-0.26060474 0.21790594 0.11991358 -0.13315234 0.18990044 0.2785342 -0.22034796 0.1400637
0.032100044 0.250562 -0.10727734 0.14945373 -0.009339748 -0.0967498 0.027252585 0.46539348
-0.09630779 -0.28110453 -0.24344184 0.16794157 -0.5808808 -0.12542391 0.28036532 -0.11835285
-0.04030356 0.37614077 -0.042136405 -0.064452775 -0.2823278 0.11417214 -0.053551096 -0.3124559
-0.39951998 -0.29992804 0.28035206 -0.17871879 0.012900515 -0.38463002 -0.27163115 -0.09863802
00000000: 1e79 e83c 20db 0a3e e6ac 87bd c129 c03c
00000010: cd24 bcbe 80ee 52be 347c 9abe 98ed 0c3d
00000020: d51d 52bd 7f97 92be 6d4b 79be 4cc1 9bbe
00000030: 73b1 cbbd 186f 403d b21b 773e 3b50 2e3e
00000040: 2a74 a6be 27a9 eb3e 6f06 2d3c 2f76 80be
00000050: 30e0 073f 6c52 683d 112c 333e c014 10bd
00000060: fc6d 85be bc22 5f3e 4095 f53d 1659 08be
00000070: 4375 423e 099c 8e3e e5a2 61be dc6c 0f3e
00000080: 567b 033d aa49 803e 39b4 dbbd 660a 193e
00000090: be05 19bc c224 c6bd d040 df3c 0e48 ee3e
000000a0: 053d c5bd efec 8fbe d148 79be e0f8 2b3e
000000b0: 9bb4 14bf 206f 00be 0b8c 8f3e fb62 f2bd
000000c0: 5915 25bd 8695 c03e 3997 2cbd d1ff 83bd
000000d0: 458d 90be 15d3 e93d 6558 5bbd 38fa 9fbe
000000e0: e28d ccbe 2b90 99be 4e8a 8f3e 0f02 37be
000000f0: af5c 533c 3aee c4be 3d13 8bbe bb02 cabd

base.mlp.fc2.0.2.weight f4 [64]
1.1320435 0.8077091 1.0798614 1.170927 1.0171263 1.3349718 1.0687739 1.2701294
1.00517 1.0631381 1.0329496 0.8622074 1.3367299 0.9751292 0.9743655 1.1422614
1.047133 1.2771724 0.8765235 1.1371553 1.0593146 1.0966411 1.2357126 1.2146437
1.06939 1.1645157 1.4294126 1.2130547 1.1581059 0.95617193 0.9125348 1.1696194
1.1237477 1.3146291 1.0736547 1.0630814 1.5745829 1.4496695 1.1297231 1.0932106
1.4445814 1.1890764 1.4110857 1.0372497 1.1909359 1.0298307 1.2672143 1.1639011
1.1250801 1.2634923 1.1271288 0.98770314 1.2391465 1.1452975 1.0766566 0.8895951
0.94139653 0.8278383 0.7314216 1.0462116 1.1234853 1.0158954 1.1915871 1.4862982
00000000: cde6 903f 06c6 4e3f e638 8a3f f0e0 953f
00000010: 3231 823f 5be0 aa3f 95cd 883f 9a93 a23f
00000020: 69a9 803f e914 883f b137 843f a0b9 5c3f
00000030: f719 ab3f 11a2 793f 0470 793f 9f35 923f
00000040: 7408 863f 637a a33f d863 603f 4e8e 913f
00000050: 9f97 873f bc5e 8c3f d52b 9e3f 7279 9b3f
00000060: c6e1 883f da0e 953f fef6 b63f 6045 9b3f
00000070: d03c 943f afc7 743f e19b 693f 17b6 953f
00000080: f7d6 8f3f c445 a83f 846d 893f 0d13 883f
00000090: ef8b c93f c58e b93f c49a 903f 53ee 8b3f
000000a0: 0be8 b83f a833 983f 759e b43f 99c4 843f
000000b0: 9670 983f 7ed1 833f 1434 a23f b6fa 943f
000000c0: a002 903f 1eba a13f c245 903f 1dda 7c3f
000000d0: 5a9c 9e3f 1c99 923f e2cf 893f 81bc 633f
000000e0: 5dff 703f 36ed 533f 723e 3b3f 43ea 853f
000000f0: 5ece 8f3f dc08 823f ed85 983f 053f be3f

base.mlp.fc2.0.2.bias f4 [64]
0.15443286 -0.26417083 0.14623423 -0.20364514 0.037059702 -0.15390387 0.10647102 0.26703137
-0.1405585 0.09018008 0.013728187 0.02504648 -0.34435 0.24826743 0.18001586 0.06746014
-0.16257608 0.29260087 -0.18590859 -0.3569537 0.1546565 -0.08183509 0.18464433 -0.14208277
-0.11433026 0.31859478 0.06159355 -0.23097941 0.06645039 -0.040739264 0.13600534 0.17644563
0.34969544 -0.13459578 -0.27208728 -0.11755402 -0.09916153 -0.026626242 0.19267246 0.1474524
0.0063092844 0.024288313 -0.044543035 -0.12901475 -0.25556 0.039850358 0.06170025 0.06622848
0.09652268 -0.10853537 0.07331183 -0.0029845503 -0.18515481 0.2496943 0.37414178 0.2289893
-0.25343838 -0.23142801 0.23452552 -0.10637236 0.13821423 -0.17996013 -0.29487258 -0.3506419
00000000: a623 1e3e 6641 87be 6dbe 153e 5a88 50be
00000010: eacb 173d fa98 1dbe 7a0d da3d 56b8 883e
00000020: 91ee 0fbe 55b0 b83d 31ec 603c 472e cd3c
00000030: a54e b0be d139 7e3e 1456 383e 8b28 8a3d
00000040: 587a 26be c8cf 953e d25e 3ebe a3c2 b6be
00000050: 465e 1e3e 2899 a7bd 6713 3d3e 257e 11be
00000060: fc25 eabd db1e a33e 8549 7c3d de85 6cbe
00000070: 2417 883d 37de 26bd fc44 0b3e 2aae 343e
00000080: 480b b33e 7ad3 09be 064f 8bbe 29c0 f0bd
00000090: 3315 cbbd 471f dabc ee4b 453e c3fd 163e
000000a0: 1dbe ce3b 49f8 c63c c272 36bd 711c 04be
000000b0: c3d8 82be 213a 233d 67b9 7c3d cca2 873d
000000c0: afad c53d cb47 debd 8324 963d 7298 43bb
000000d0: 3999 3dbe ddaf 7f3e 838f bf3e 2c7c 6a3e
000000e0: adc2 81be 77fb 6cbe 7527 703e c0d9 d9bd
000000f0: 0888 0d3e 7847 38be 8af9 96be 5687 b3be

rnn.rnn.weight_ih_l0 f4 [192, 64]
-0.2170377 -0.08093429 0.10409467 0.2162079 0.11452509 0.14543161 -0.008131465 -0.07524636
-0.029111633 0.13453676 0.25668013 0.025337046 0.0472911 0.06047655 -0.21327385 -0.082031846
0.199326 -0.21413991 0.18297346 -0.0412602 -0.16880052 -0.10774949 -0.09110875 -0.32563955
-0.0064210636 0.04871907 0.041133672 0.0327019 0.083472356 -0.16665715 0.14693253 -0.07662666
0.04288647 -0.11084477 0.035380527 -0.14768524 -0.11698665 0.03359234 0.16563368 -0.09917231
0.18053281 0.20615013 0.008428154 -0.08230135 0.18731812 -0.095463894 -0.24179463 -0.30322027
0.05763853 0.042637974 -0.047321666 -0.06711312 -0.019474288 -0.072715715 -0.18854746 0.05513511
0.045148604 0.18909724 -0.14718205 0.0035518184 -0.14467278 0.14281467 0.23558736 0.3098026
-0.109373026 -0.05943833 -0.07098425 -0.019921256 0.05854996 0.12961699 -0.029676823 -0.10333146
0.13941303 0.11721459 -0.10585161 -0.112318456 0.12811232 -0.03325661 -0.18139426 -0.09953831
0.24354744 -0.13517565 -0.17811584 -0.038254514 -0.07158769 -0.13660735 -0.15207124 -0.036936846
0.2537207 -0.14948241 -0.059485998 0.050464302 0.14067115 0.10301227 0.053060103 0.12114493
-0.012825631 -0.1637011 -0.009330765 -0.09683716 -0.14970964 0.19567396 0.10652797 -0.3843549
-0.033091232 0.1349917 0.22476216 0.07761841 -0.032764528 0.06797564 0.084264174 0.13185038
-0.22749685 -0.15240096 0.16616061 0.012293639 -0.07996004 -0.045405377 -0.21865995 -0.0071879253
-0.107947506 0.1466551 -0.116319366 -0.0011347427 0.00529408 -0.02539812 0.17972662 0.0687997
0.041402493 -0.17360348 0.048817582 0.04512282 0.29839417 0.31272283 0.07767861 -0.16784663
-0.06516451 0.15342402 -0.31861484 -0.11024007 -0.19681624 -0.19520082 -0.10042406 0.04155
0.1994265 0.054673363 0.13186248 -0.03921361 -0.016902206 0.1942812 -0.27710637 0.020508958
0.024600202 0.121122405 -0.09498955 0.28148392 -0.07923691 0.023748184 0.034459703 -0.22471331
-0.14745924 -0.19157808 -0.066588365 -0.19179298 0.17649916 -0.104191005 0.16412638 -0.031803794
0.276048 0.06960296 0.1376967 0.04143857 0.1539651 0.19213776 -0.2597674 0.022766734
0.09041365 -0.028631307 -0.19736981 -0.080574766 -0.13278556 -0.05617996 -0.22418971 0.04368146
-0.03732197 -0.079497986 -0.19150773 -0.0011274957 -0.011750788 0.090751484 0.28950444 0.16969463
-0.20564532 -0.015647704 -0.15149303 0.12404445 -0.00771786 -0.1356122 0.0076968907 0.22933933
-0.045524534 0.08055572 -0.05478712 0.033408355 0.0151314065 0.077537894 0.03457795 -0.055790816
-0.14486848 0.16477424 0.020764593 0.03556238 -0.08326374 -0.06649522 0.02373828 0.09332091
-0.1630702 -0.12750484 0.07305423 -0.118509375 0.034510065 0.10479059 0.025028663 -0.021138702
-0.009541935 -0.037641343 0.062293865 0.16269532 -0.030672792 -0.27087116 -0.16070956 0.011814329
-0.057161722 0.029972985 0.009973121 0.19451272 -0.024689838 0.12269861 -0.019294579 -0.04293849
-0.07593229 0.066549495 0.08076666 -0.10780878 0.03321879 -0.10461698 0.02677673 0.07520657
-0.17765652 0.02753561 -0.060440816 -0.22072643 -0.07277757 -0.007868053 -0.066299014 -0.017053198
00000000: 213f 5ebe e1c0 a5bd 962f d53d 9b65 5d3e
00000010: 218c ea3d 06ec 143e d639 05bc c31a 9abd
00000020: 857b eebc 01c4 093e 946b 833e a38f cf3c
00000030: 50b4 413d 42b6 773d 7664 5abe 5000 a8bd
00000040: 1d1c 4c3e 7e47 5bbe 655d 3b3e 7500 29bd
00000050: 0bda 2cbe c4ab dcbd 3997 babd 3aba a6be
00000060: c967 d2bb a68d 473d c87b 283d 6df2 053d
00000070: 8ef3 aa3d 2ca8 2abe 7b75 163e 70ee 9cbd
00000080: b9a9 2f3d 9502 e3bd 2ceb 103d cd3a 17be
00000090: b296 efbd 1f98 093d e09b 293e da1a cbbd
000000a0: 98dd 383e 0519 533e 3d16 0a3c 9c8d a8bd
000000b0: 52d0 3f3e 9382 c3bd 0399 77be b03f 9bbe
000000c0: 6116 6c3d 28a5 2e3d 5dd4 41bd 9a72 89bd
000000d0: 8b88 9fbc faeb 94bd 9612 41be 5ad5 613d
000000e0: beed 383d b5a2 413e e4b6 16be a0c5 683b
000000f0: 1a25 14be 023e 123e d03d 713e 729e 9e3e
00000100: f7fe dfbd 9b75 73bd 3160 91bd e731 a3bc
00000110: 15d2 6f3d 51ba 043e cf1c f3bc 729f d3bd
00000120: 4ac2 0e3e 340e f03d bbc8 d8bd 3807 e6bd
00000130: e02f 033e 1538 08bd 6bbf 39be beda cbbd
00000140: 8064 793e 7c6b 0abe 0064 36be c4b0 1cbd
00000150: 919c 92bd cce2 0bbe 90b8 1bbe 174b 17bd
00000160: aee7 813e eb11 19be 97a7 73bd a8b3 4e3d
00000170: 190c 103e 19f8 d23d 8d55 593d d51a f83d
00000180: 9822 52bc 43a1 27be 11e0 18bc 9052 c6bd
00000190: 7c4d 19be c15e 483e 562b da3d 2aca c4be
000001a0: ac8a 07bd 443b 0a3e 0d28 663e 67f6 9e3d
000001b0: 1934 06bd d036 8b3d b292 ac3d c903 073e
000001c0: eff4 68be ff0e 1cbe 0226 2a3e 426b 493c
000001d0: 17c2 a3bd fdfa 39bd 65e8 5fbe b088 ebbb
000001e0: 9513 ddbd c12c 163e d938 eebd a6bb 94ba
000001f0: f679 ad3b b80f d0bc 410a 383e dbe6 8c3d
00000200: a995 293d 1cc5 31be f2f4 473d b5d2 383d
00000210: 1fc7 983e 351d a03e f715 9f3d fddf 2bbe
00000220: f874 85bd 301b 1d3e 7c21 a3be 8cc5 e1bd
00000230: 328a 49be b9e2 47be 21ab cdbd 5530 2a3d
00000240: 7636 4c3e 2df1 5f3d f506 073e 739e 20bd
00000250: 7f76 8abc a7f1 463e e3e0 8dbe 6702 a83c
00000260: 5d86 c93c 060f f83d e289 c2bd a91e 903e
00000270: f646 a2bd 8d8b c23c 9e25 0d3d 3f1b 66be
00000280: 8eff 16be 0b2d 44be 7b5f 88bd 6165 44be
00000290: 32bc 343e 1862 d5bd bf10 283e b244 02bd
000002a0: 2a56 8d3e ff8b 8e3d 5d00 0d3e 7dbb 293d
000002b0: 07a9 1d3e c3bf 443e 3c00 85be 4d81 ba3c
000002c0: cb2a b93d 348c eabc 501b 4abe 6204 a5bd
000002d0: f0f8 07be f51c 66bd fd91 65be 55eb 323d
000002e0: ecde 18bd d7cf a2bd 9a1a 44be 7ac8 93ba
000002f0: 6186 40bc eadb b93d ed39 943e 6ec4 2d3e
00000300: b094 52be 9d2f 80bc fd20 1bbe 040b fe3d
00000310: 1ae6 fcbb eddd 0abe 3336 fc3b eed7 6a3e
00000320: ef77 3abd 66fa a43d 7668 60bd 33d7 083d
00000330: b8e9 773c 30cc 9e3d 9ca1 0d3d e984 64bd
00000340: 6758 14be 94ba 283e 821a aa3c dca9 113d
00000350: 2e86 aabd a52e 88bd c876 c23c 091f bf3d
00000360: e0fb 26be a190 02be 759d 953d 0bb5 f2bd
00000370: 6d5a 0d3d 739c d63d e908 cd3c 122b adbc
00000380: c755 1cbc cf2d 1abd da27 7f3d 9a99 263e
00000390: 8245 fbbc a0af 8abe 0c91 24be e390 413c
000003a0: 6922 6abd e889 f53c 4d66 233c 582e 473e
000003b0: 5842 cabc 6949 fb3d aa0f 9ebc 45e0 2fbd
000003c0: 6382 9bbd 1a4b 883d fe68 a53d daca dcbd
000003d0: 6d10 083d 6d41 d6bd df5a db3c e705 9a3d
000003e0: 97eb 35be 5c92 e13c ca90 77bd 1c06 62be
000003f0: 680c 95bd 02e9 00bc c7c7 87bd 26b3 8bbc

rnn.rnn.weight_hh_l0 f4 [192, 64]
0.028335953 -0.19839591 -0.076529615 -0.40711704 -0.032612372 0.20080453 0.08114002 -0.015710948
-0.20013502 0.09836806 0.05870319 -0.09375295 -0.14249231 0.036879104 -0.07323386 -0.06282202
-0.004132181 0.1477024 -0.007813836 0.03653196 0.003002988 -0.038535703 0.07219504 0.1105449
-0.17986654 0.06443337 -0.030882137 -0.12631992 0.07097803 0.0027191436 -0.26733094 -0.09586259
-0.071156 0.14807756 0.23382063 0.040075082 -0.14779498 -0.031234521 0.17100914 -0.08784384
0.036762103 0.095301025 0.0379949 -0.2636009 -0.04227995 0.20056774 0.07521432 0.12011915
0.10603122 0.08416422 -0.18261841 0.0292269 -0.23193632 0.093497746 -0.17525832 -0.05102939
0.07225658 0.12281068 0.034638643 -0.18086891 0.012035896 -0.009456494 -0.09152386 0.0071062166
-0.029681385 -0.27002776 -0.032952216 -0.25747314 0.10080122 0.026837239 0.10886405 -0.1174276
-0.012741006 -0.044567637 0.10453167 -0.103124216 0.01964081 -0.25334907 0.014416898 -0.0108969975
-0.012701062 0.057445448 -0.08706639 -0.08680099 0.061646312 -0.0015016492 0.12007669 0.03575967
-0.2560058 -0.10015621 -0.14002208 -0.036726523 0.024533393 -0.14881141 -0.11688847 -0.23674342
0.035334885 0.09490297 0.098040655 -0.12845813 -0.11090584 -0.074927196 0.09439666 0.0839564
-0.042367764 0.06977149 -0.17111127 -0.22199851 0.040561225 0.02382184 0.18771216 0.003448384
0.1802182 0.13441081 0.009362203 0.17730457 -0.3011243 0.13451369 0.111868516 -0.10655981
0.07250401 -0.02236046 -0.059290517 -0.16200298 -0.21320368 -0.007707437 -0.060364377 0.17922987
-0.047609236 -0.13356031 -0.14292751 -0.23753643 0.050860744 0.018097332 0.07033202 0.118620075
-0.025087534 -0.12812127 0.054146137 -0.014570372 -0.097096644 0.094229855 -0.031419903 0.052133586
0.058132045 -0.03994577 -0.124429405 -0.15052861 -0.004877037 0.0225567 -0.033786826 0.11572894
-0.24536315 -0.13923913 -0.12697765 -0.11304767 0.16829011 0.018051682 -0.106105804 0.004344779
-0.08094003 0.325988 0.18267696 -0.048882008 -0.0732286 -0.17552114 -0.1096881 -0.068540774
-0.15331008 0.028816603 -0.033583157 -0.16442397 0.08925283 0.17404108 0.039013352 0.075731315
0.09897546 0.11219542 -0.0014335199 0.02904544 -0.2842068 0.19315226 -0.03395076 -0.04892086
0.05249109 0.24711366 0.08761072 0.014423021 -0.014357752 0.0049652457 -0.26436096 0.1914066
0.06121999 0.049848095 0.17020223 0.020354496 -0.009422405 -0.04504516 0.16768318 0.069543414
-0.007833075 -0.020682849 -0.13112712 0.17545359 0.11678025 -0.12859449 -0.01724284 -0.03291716
-0.018669244 0.13349073 -0.19808862 0.08631661 -0.0011946295 -0.014979519 -0.07254991 -0.1057003
0.16594402 -0.15156789 0.029176887 -0.08562083 -0.05377773 -0.05642085 0.19879818 0.13668801
0.03948799 -0.14222978 -0.16044271 0.05586448 0.067372285 0.16509406 -0.037327424 0.14582312
-0.08860539 -0.017958626 0.21146895 0.11932923 -0.2503123 0.016634965 0.19031537 -0.1298239
-0.1499787 -0.10439345 -0.06925183 0.035182573 0.11438252 0.031165496 0.1415383 -0.026271041
0.11941035 -0.023908043 -0.0053236457 0.061008185 0.12741868 0.09014197 0.09677679 -0.028183687
00000000: cd20 e83c 4c28 4bbe 8fbb 9cbd a571 d0be
00000010: 8d94 05bd b49f 4d3e bd2c a63d 3fb4 80bc
00000020: 32f0 4cbe 3275 c93d c272 703d 8c01 c0bd
00000030: 81e9 11be 8b0e 173d a2fb 95bd d5a8 80bd
00000040: 3f67 87bb 4c3f 173e 9b05 00bc 89a2 153d
00000050: c7cd 443b 9dd7 1dbd feda 933d 5d65 e23d
00000060: ef2e 38be a5f5 833d 89fc fcbc 025a 01be
00000070: ee5c 913d a933 323b 9adf 88be 9b53 c4bd
00000080: 3dba 91bd a5a1 173e ad6e 6f3e c525 243d
00000090: 9157 17be 8adf ffbc 051d 2f3e 79e7 b3bd
000000a0: dc93 163d 2f2d c33d 8aa0 1b3d b2f6 86be
000000b0: be2d 2dbd a161 4d3e f709 9a3d 0701 f63d
000000c0: e526 d93d 4a5e ac3d 5200 3bbe 406d ef3c
000000d0: b780 6dbe bf7b bf3d eb76 33be 3204 51bd
000000e0: 42fb 933d 2a84 fb3d 40e1 0d3d b335 39be
000000f0: 3532 453c 69ef 1abc dd70 bbbd 44db e83b
00000100: 6026 f3bc 1441 8abe e7f8 06bd 85d3 83be
00000110: df70 ce3d c5d9 db3c 1df4 de3d e27d f0bd
00000120: a7bf 50bc 8e8c 36bd b314 d63d ca32 d3bd
00000130: c4e5 a03c f8b6 81be da34 6c3c 5289 32bc
00000140: 1d18 50bc eb4b 6b3d dd4f b2bd b8c4 b1bd
00000150: d880 7c3d fcd2 c4ba c5ea f53d bb78 123d
00000160: 3113 83be b31e cdbd f361 0fbe 8d6e 16bd
00000170: 41fa c83c 0562 18be 3963 efbd de6c 72be
00000180: 50bb 103d 7d5c c23d 8ac9 c83d 878a 03be
00000190: 9a22 e3bd 6e73 99bd 0953 c13d 55f1 ab3d
000001a0: d289 2dbd 5be4 8e3d cb37 2fbe 9453 63be
000001b0: 8723 263d 0526 c33c 9e37 403e 49fe 613b
000001c0: 1f8b 383e fda2 093e ed63 193c 548f 353e
000001d0: f72c 9abe f5bd 093e 521b e53d 083c dabd
000001e0: fb7c 943d 492d b7bc 9dda 72bd 1ce4 25be
000001f0: 1152 5abe ab8e fcbb a340 77bd 0988 373e
00000200: e701 43bd 09c4 08be 975b 12be c03c 73be
00000210: 5b53 503d db40 943c 3c0a 903d 15ef f23d
00000220: 5f84 cdbc 3932 03be 57c8 5d3d 92b8 6ebc
00000230: 9bda c6bd 95fb c03d 28b2 00bd 078a 553d
00000240: de1b 6e3d 2d9e 23bd d8d4 febd 2c24 1abe
00000250: 8dcf 9fbb d4c8 b83c 0e64 0abd 4b03 ed3d
00000260: 7a40 7bbe b494 0ebe 6e06 02be 8985 e7bd
00000270: 3e54 2c3e 1fe1 933c 004e d9bd a65e 8e3b
00000280: e3c3 a5bd e6e7 a63e ab0f 3b3e 8038 48bd
00000290: e0f8 95bd d0bb 33be 28a4 e0bd 1b5f 8cbd
000002a0: 51fd 1cbe cc10 ec3c 7e8e 09bd c25e 28be
000002b0: 30ca b63d d337 323e 77cc 1f3d 0519 9b3d
000002c0: a5b3 ca3d b6c6 e53d f2e4 bbba b4f0 ed3c
000002d0: 8e83 91be b5c9 453e f40f 0bbd 3d61 48bd
000002e0: e600 573d 5d0b 7d3e 406d b33d 894e 6c3c
000002f0: c73c 6bbc 80b3 a23b 525a 87be 1700 443e
00000300: d0c1 7a3d 842d 4c3d 7e49 2e3e 79be a63c
00000310: 6e60 1abc 4681 38bd 24b5 2b3e c76c 8e3d
00000320: 4c56 00bc 146f a9bc 3046 06be 1baa 333e
00000330: 7c2a ef3d 46ae 03be db40 8dbc 25d4 06bd
00000340: 3ef0 98bc cbb1 083e bed7 4abe c3c6 b03d
00000350: 1d95 9cba a86c 75bc 0c95 94bd 6679 d8bd
00000360: 3bed 293e 9d34 1bbe 5e04 ef3c f959 afbd
00000370: 0946 5cbd 8d19 67bd c091 4b3e f1f7 0b3e
00000380: 29be 213d afa4 11be 184b 24be 27d2 643d
00000390: 7bfa 893d 6b0e 293e a4e4 18bd a852 153e
000003a0: be76 b5bd f81d 93bc 518b 583e e262 f43d
000003b0: ef28 80be 0d46 883c 08e2 423e 8ef0 04be
000003c0: 0494 19be 3ccc d5bd e7d3 8dbd 9a1b 103d
000003d0: 6241 ea3d c84e ff3c 6bef 103e 5e36 d7bc
000003e0: 6a8d f43d cdda c3bc fa71 aebb b8e3 793d
000003f0: 0b7a 023e 5a9c b83d e932 c63d 7ae1 e6bc

rnn.rnn.bias_ih_l0 f4 [192]
-0.14825368 -0.08236104 -0.20011474 0.2439707 -0.20740356 -0.22554672 -0.21693982 -0.10824183
-0.20949703 -0.18550459 0.05928933 -0.23453832 -0.08316204 -0.12981248 -0.23077719 -0.14851446
-0.27344576 -0.12195724 -0.21760565 -0.17388476 -0.15757687 -0.22056805 -0.064484306 -0.15073468
0.24658187 -0.18064503 -0.028225841 -0.21788123 -0.16474804 -0.17239444 -0.22354224 -0.24044089
-0.21743453 -0.060418524 0.02696556 -0.21608779 -0.044018257 -0.050773002 -0.12668243 -0.09321556
0.016557142 -0.18221647 -0.18180335 0.26296744 -0.1842976 0.00794253 -0.13867302 -0.21420567
-0.18929568 -0.2160811 -0.1726928 -0.21840109 0.30430993 0.03083212 -0.014935464 -0.19023669
-0.14709862 -0.1540598 -0.16688652 -0.16160503 -0.18776095 0.0417348 0.21848562 0.042319622
-0.48140717 -0.61934376 -0.52658975 -0.6127708 -0.4931125 -0.46285954 -0.52155626 -0.55015624
-0.55601853 -0.47636762 -0.34131876 -0.5591163 -0.5494234 -0.68363017 -0.5087248 -0.58608145
-0.537846 -0.646119 -0.627312 -0.44023234 -0.5229893 -0.663304 -0.6832182 -0.5873428
-0.6307713 -0.5004747 -0.7202395 -0.54645497 -0.5990748 -0.6333916 -0.5675345 -0.5301203
-0.64337975 -0.54181975 -0.4366494 -0.5047113 -0.56005263 -0.5103629 -0.51145476 -0.6786841
-0.54565704 -0.6220484 -0.629809 -0.64240056 -0.5687007 -0.4961311 -0.6272135 -0.58315754
-0.43085957 -0.6393737 -0.46160144 -0.48244342 -0.57210696 -0.6503787 -0.51994336 -0.54406995
-0.6249139 -0.52407473 -0.56601393 -0.53681225 -0.61536145 -0.611169 -0.547224 -0.366643
0.07759298 0.36594838 0.24410394 0.4806682 -0.11319196 -0.0038896205 -0.21828403 -0.08256666
0.02677327 -0.049204353 -0.20907032 0.02682012 -0.012543146 -0.11821427 -0.12711012 -0.1192062
-0.1164799 0.00018431476 0.2099336 0.22840407 0.1339452 -0.13174605 -0.104955405 -0.07413025
0.5547848 0.12618078 0.16959095 -0.047450576 0.08389578 0.18611911 0.030237138 0.12221527
0.22867148 -0.2028983 -0.13460398 0.117408946 0.2621136 0.21285544 -0.00041676278 0.16339621
0.29832962 -0.073551506 0.05792282 0.5553371 -0.05559385 -0.13522695 0.17476673 -0.031446274
-0.14601494 -0.30662906 0.041182987 -0.029533595 0.5207685 -0.1717321 0.31272963 -0.13951768
-0.19639193 -0.18106575 -0.21410246 -0.099084675 0.026145402 0.36768883 0.4215978 -0.07261354
00000000: d0cf 17be e8ac a8bd e1ea 4cbe 75d3 793e
00000010: 9961 54be b8f5 66be 7925 5ebe e4ad ddbd
00000020: 6486 56be eaf4 3dbe 5ed9 723d d02a 70be
00000030: dc50 aabd 90ed 04be db50 6cbe 2d14 18be
00000040: 1501 8cbe b8c4 f9bd 04d4 5ebe d90e 32be
00000050: d55b 21be 97dc 61be 5910 84bd 315a 1abe
00000060: f57f 7c3e 03fb 38be e139 e7bc 421c 5fbe
00000070: b6b3 28be 2b88 30be 42e8 64be 2336 76be
00000080: 28a7 5ebe 6a79 77bd e1e6 dc3c 1e46 5dbe
00000090: 7d4c 34bd 5af7 4fbd 0ab9 01be cde7 bebd
000000a0: d8a2 873c f496 3abe a82a 3abe aba3 863e
000000b0: 83b8 3cbe 6321 023c 4d00 0ebe bb58 5bbe
000000c0: bad6 41be 5d44 5dbe 62d6 30be 89a4 5fbe
000000d0: 83ce 9b3e a493 fc3c e0b3 74bc 68cd 42be
000000e0: 05a1 16be dac1 1dbe 4de4 2abe ca7b 25be
000000f0: 6844 40be 1cf2 2a3d b2ba 5f3e 5757 2d3d
00000100: 007b f6be 508d 1ebf 96ce 06bf 8cde 1cbf
00000110: 3e79 fcbe edfb ecbe b684 05bf 0ad7 0cbf
00000120: 3b57 0ebf 75e6 f3be 55c1 aebe 3f22 0fbf
00000130: 03a7 0cbf 6302 2fbf ca3b 02bf 6f09 16bf
00000140: 47b0 09bf 0e68 25bf 8597 20bf 2266 e1be
00000150: a0e2 05bf 4ace 29bf 63e7 2ebf 195c 16bf
00000160: 3a7a 21bf 1c1f 00bf 9e61 38bf 79e4 0bbf
00000170: f75c 19bf f425 22bf f149 11bf f7b5 07bf
00000180: 89b4 24bf b3b4 0abf 8390 dfbe c234 01bf
00000190: 9c5f 0fbf 25a7 02bf b3ee 02bf 3ebe 2dbf
000001a0: 2eb0 0bbf 903e 1fbf 2a3b 21bf 5d74 24bf
000001b0: 5e96 11bf e504 febe 1091 20bf d049 15bf
000001c0: a099 dcbe ffad 23bf 0657 ecbe d302 f7be
000001d0: 9a75 12bf 387f 26bf 021b 05bf 2b48 0bbf
000001e0: 5bfa 1fbf c329 06bf 4ae6 10bf 876c 09bf
000001f0: 5488 1dbf 9275 1cbf df16 0cbf a2b8 bbbe
00000200: 11e9 9e3d 965d bb3e 62f6 793e 241a f63e
00000210: 30d1 e7bd 01e9 7ebb d985 5fbe b618 a9bd
00000220: 9e53 db3c 818a 49bd 8816 56be deb5 db3c
00000230: c481 4dbc 531a f2bd 2829 02be 6122 f4bd
00000240: 048d eebd 9e44 4139 d5f8 563e c2e2 693e
00000250: ee28 093e 70e8 06be dcf2 d6bd 9ad1 97bd
00000260: 6006 0e3f 8935 013e 40a9 2d3e 895b 42bd
00000270: 8dd1 ab3d 0296 3e3e e0b3 f73c 004c fa3d
00000280: db28 6a3e 92c4 4fbe a0d5 09be 1a74 f03d
00000290: c133 863e c7f6 593e f480 dab9 5651 273e
000002a0: a9be 983e 2ca2 96bd 7b40 6d3d 922a 0e3f
000002b0: 60b6 63bd ef78 0abe 0df6 323e cfcd 00bd
000002c0: f184 15be 7cfe 9cbe 7eaf 283d 70f0 f1bc
000002d0: 1651 053f 8ada 2fbe 191e a03e b9dd 0ebe
000002e0: f71a 49be 4d69 39be ad3d 5bbe e8ec cabd
000002f0: e22e d63c b641 bc3e abdb d73e 68b6 94bd
