train/mappo/results/MPE/formation_hd_env/rmappo/check/run23/models/actor_agent0.pt (torch, 152739 bytes, 22 tensors)

base.feature_norm.weight f4 [36]
000000 b1 ec b3 3f d7 b0 c5 3f b9 33 57 3f 7a 4f 82 3f
       1.4056607 1.5444592 0.840633 1.0180504
000010 61 61 8d 3f c6 20 83 3f 7f d6 a9 3f 44 0b 8b 3f
       1.1045343 1.0244377 1.3268584 1.0862813
000020 47 48 86 3f d7 1c ac 3f 30 96 4f 3f 00 c7 a0 3f
       1.0490807 1.3446301 0.8108854 1.256073
000030 99 23 84 3f eb 5a 89 3f 9f 94 82 3f bf 69 98 3f
       1.0323364 1.0730871 1.0201606 1.1907271
000040 a7 43 b6 3f a0 88 91 3f 84 6c 59 3f d5 83 60 3f
       1.4239396 1.136982 0.84931207 0.8770116
000050 fd cf 60 3f 53 80 85 3f 6f 87 7f 3f eb 96 27 3f
       0.87817365 1.0429786 0.9981603 0.6546466
000060 52 5d 7b 3f 8b d7 3c 3f 5d b4 47 3f 12 10 4b 3f
       0.9818927 0.7376639 0.7800959 0.79321396
000070 cc 5b 7f 3f cd 7f 6c 3f 9c 49 40 3f 99 e3 5a 3f
       0.99749446 0.9238251 0.7511232 0.85503536
000080 89 b7 81 3f b6 5b 65 3f e6 0b 04 3f 4e 35 7d 3f
       1.0134135 0.89593065 0.51580656 0.9890946

base.feature_norm.bias f4 [36]
000000 77 15 23 3e 8f 96 97 3d 23 38 e9 3a 08 b4 40 3e
       0.15926157 0.07401764 0.0017793219 0.18818676
000010 35 0e 82 3e 53 8f 5b 3e 4b 04 99 bc 2c c4 df 3d
       0.25401464 0.21441393 -0.018678805 0.10926089
000020 2f a9 22 be d5 b1 f3 bc c8 26 a9 3d 50 7b 14 bd
       -0.15884851 -0.029747883 0.0825935 -0.036250412
000030 26 74 ea bd 0d 90 28 3c 74 54 94 3d 9a 3e 50 be
       -0.11447935 0.010288251 0.07242671 -0.2033638
000040 12 40 b1 bb 82 c0 94 3d 65 8e 17 bd 43 c3 ae bd
       -0.005409249 0.072632805 -0.037001032 -0.08533337
000050 2c 42 65 3e 53 fe 9e 3e 56 4c 1b bd 76 49 de 3d
       0.22388524 0.3105341 -0.037914596 0.10853855
000060 0a a7 01 3e 52 06 f9 bd a4 35 97 3e 1f ad a8 bd
       0.12661377 -0.12159409 0.29533112 -0.08236145
000070 d7 33 d6 3c 1e 1b 77 bd 51 f2 99 be f0 f4 8a bd
       0.026147766 -0.060328595 -0.30067685 -0.06784999
000080 7e 75 83 3d 6e 61 86 be e7 52 c9 3e 8b a0 0c be
       0.06418894 -0.26246208 0.39321062 -0.13733117

base.mlp.fc1.0.weight f4 [64, 36]
000000 27 e9 0e bf 41 c4 f5 bd 42 4c e9 3b 9a 81 1e 3e
       -0.5582451 -0.12000323 0.0071196863 0.15479127
000010 dc 63 0a 3f 7a 07 2c be 7e 98 be bd 40 54 62 be
       0.54058623 -0.16799727 -0.09306429 -0.22102451
000020 81 49 66 be de e4 8b bd 18 03 d5 3d 4b b6 a1 3c
       -0.22488977 -0.06830762 0.10400981 0.019740244
000030 0e 5f 19 3f ad 93 96 be 6c 77 5e 3e 3a c1 c9 bd
       0.59910667 -0.29409543 0.21725243 -0.09851308
000040 f2 e7 49 3f 75 7b df bd 2a fa a3 3e 7b 3a 21 be
       0.78869545 -0.109122194 0.32026798 -0.15744965
000050 7e f7 d2 3c 44 7b ca bd 04 d0 07 3f f9 c4 06 be
       0.02575278 -0.09886792 0.5305178 -0.13161077
000060 a8 4b a1 3e 4d 17 9c 3e 6c 3f 70 be 1d 43 99 3e
       0.31503034 0.30486527 -0.23461694 0.29934016
000070 e0 96 c3 3c 8f 99 d7 3e ef de c7 3e 7b 5f 8d 3e
       0.023875654 0.42109343 0.39037272 0.27611908
000080 9e 7d 9b 3c 61 f0 0f 3f f9 9c 2c be a9 a4 a9 3e
       0.018980797 0.56226164 -0.16856755 0.33133438
000090 2a 66 1c be 58 48 2f be 77 e5 75 bb ae 59 b9 be
       -0.15273347 -0.1711744 -0.0037520805 -0.36201233
0000a0 03 04 50 be dc e9 b5 3e 2b 61 cd bd 08 ff e5 3d
       -0.2031403 0.35529983 -0.10028299 0.11230284
0000b0 fe e8 1f 3e 6f 0d 67 bd 5c fb ac be fb 4f 8f 3e
       0.15616223 -0.056409296 -0.33785522 0.27990708
0000c0 78 7d 5e 3d cd ce 0a 3f 27 4c b2 3e 63 b0 0b 3e
       0.054318875 0.542218 0.34823725 0.13641505
0000d0 08 3d 73 bf 72 e9 8a 3e 1d ea 3e bd e4 2f ce be
       -0.95015 0.2713123 -0.046609987 -0.40270913
0000e0 3a 1a 54 3d a2 35 ba 3e df b1 56 bd 5f 04 3b 3e
       0.051782824 0.36369044 -0.052415725 0.18263386
0000f0 cb bd fa 3d 27 ac df bc c5 c7 1e 3e cb 39 b8 3d
       0.122432314 -0.027303768 0.15505894 0.08995398
000100 ed a9 41 3d 99 4b 4c 3d 3e 60 ad 3d e7 26 3d be
       0.047281194 0.049876783 0.08465622 -0.18471871
000110 0f 8f 26 3e af 4d 3e bd 10 77 19 be 7c 25 26 bd
       0.1626551 -0.046460804 -0.14986825 -0.04056309
000120 dd bc 17 3e 8b ef 2d 3e a6 e2 11 3f 6b 16 b2 3e
       0.1481814 0.1698591 0.56986463 0.3478273
000130 18 13 9b 3d 28 34 06 be e1 9b ab bd 39 8b 76 bd
       0.07572001 -0.13105834 -0.08379341 -0.060191367
000140 11 38 39 3d 89 6c da be 4e 5b 3d bd 8d d6 e6 be
       0.045219485 -0.4266093 -0.046229653 -0.45085564
000150 ef 2f b6 3d f3 c0 03 3e bc 69 ad 3d 6a 23 83 bf
       0.08895861 0.12866573 0.08467433 -1.0245183
000160 ad ff fe be c1 93 42 3e e3 78 9b bd 67 04 8b 3d
       -0.4980444 0.19001676 -0.07591417 0.06787949
000170 a5 51 bd 3d 9e 99 c5 3e 99 28 1f 3e 77 7f 89 be
       0.09244088 0.38593763 0.1554283 -0.2685506
000180 cb c4 87 3d ef 4f 89 3e 85 19 eb 3d 76 38 06 3f
       0.06629332 0.26818797 0.11479477 0.524299
000190 3b ac 77 3e 04 01 cd 3e ad a3 ac 3e e6 ad b1 3e
       0.24186794 0.40039837 0.33718625 0.34702986
0001a0 07 35 74 bd 16 9c 0c 3e 59 54 1d 3f a2 e8 8a 3e
       -0.059620883 0.13731417 0.6145683 0.2713061
0001b0 f0 97 1c 3d 97 61 fb 3e bf 2d fc 3e 33 75 0f 3e
       0.038230836 0.49097893 0.49253651 0.14009552
0001c0 6c dc 15 bf e5 7b f2 3e c8 5a 9b bd 5a 25 a9 3e
       -0.5853946 0.4736015 -0.075856745 0.3303631
0001d0 86 12 91 be 52 46 9a be 4c 65 3c be 1f ba 8d be
       -0.28334445 -0.30131775 -0.18398017 -0.27681062
0001e0 1e 04 b9 3e b5 12 79 3d 52 eb cc 3d ca 24 24 bd
       0.36135954 0.060808856 0.10005821 -0.040074147
0001f0 80 4c 11 bf 57 88 52 3e eb 60 f5 be 35 a4 3e 3d
       -0.56757355 0.20559822 -0.47925505 0.04654332
000200 87 d1 34 3f b5 f7 96 3d 39 d9 67 3e 65 2b 57 3d
       0.70632213 0.07371465 0.22641458 0.05253162
000210 9d 9c 1d 3f fb e8 a8 3e 5f 0b 58 bd 06 bf c8 3e
       0.615671 0.3299025 -0.05274522 0.3920824
000220 91 77 17 3f 5c e3 dd 3e 12 cc f0 3e 74 1d 32 3d
       0.5916682 0.43337524 0.47030693 0.04348512
000230 6c 50 db 3e 5d c9 e0 3e 23 f2 18 3e de 97 ee 3d
       0.42834795 0.43903628 0.14936118 0.1165006
000240 5c d4 7b be c4 e9 ae be ac fb 8e 3d 10 91 17 be
       -0.24592727 -0.34162724 0.06981596 -0.1480143
000250 be 09 76 be 27 fd cf be 8f ab 09 3f 7c 9e 2c 3e
       -0.24027154 -0.40622827 0.537774 0.16857332
000260 e1 ce 21 3d 11 fb 31 3f ce 4a a6 be ae a4 0c 3f
       0.039503936 0.6952372 -0.32478946 0.5493878
000270 ea a7 c8 3d 15 a9 0d bf 0d b4 98 3d 31 22 68 3e
       0.09797652 -0.55336124 0.07456217 0.22669293
000280 7f b7 7a be f0 ab 35 be be 47 c3 ba e1 e3 f8 3d
       -0.2448406 -0.1774137 -0.00148987 0.121528395
000290 e3 49 c5 3d b8 33 6f 3e dd 16 b5 be 2d 5c 4c bb
       0.096332334 0.23359573 -0.35369006 -0.003118287
0002a0 02 0c 0a 3f 03 96 19 3e 88 ee 9c 3e fe 4b cf 3d
       0.5392457 0.14998631 0.30650735 0.10121916
0002b0 44 63 3a be eb 08 b9 3d ee e8 03 bd 6b e7 50 3e
       -0.1820193 0.09034904 -0.03220456 0.20400779
0002c0 dc 25 00 bf 66 4b 4a 3d a6 41 93 3e 31 e5 81 3e
       -0.5005777 0.04938831 0.28761023 0.25370172
0002d0 8f 3b c8 3e d5 06 ab be 2b d0 6d be cd 32 83 bd
       0.3910794 -0.3340365 -0.23223941 -0.06406174
0002e0 04 8e 0c bd 45 88 d9 3d 09 bd 8a be 29 69 30 bf
       -0.034315124 0.106216945 -0.27097347 -0.6891046
0002f0 f5 16 cb 3e 0a 13 b0 3d 80 8f 93 be 30 c8 9e 3e
       0.39665952 0.085973814 -0.2882042 0.31012106
000300 42 9e 4b bf d5 74 a5 3d 63 ee 79 be 0a f5 18 bd
       -0.7953836 0.080789246 -0.24407344 -0.037343062
000310 2c c6 85 bd 96 0c 4f be 1d 0c 9e 3e 3f 7f 78 bd
       -0.06531939 -0.20219645 0.30868617 -0.060668226
000320 67 7d d2 bd 37 86 24 3e c1 a8 eb bd c1 3d 57 be
       -0.10277825 0.16066824 -0.11506797 -0.21019651
000330 c3 4b 74 bd e9 13 aa bd d7 07 6e be 16 c3 a6 3d
       -0.059642565 -0.08304579 -0.23245178 0.081426784
000340 84 fa 26 3d 6b fa 8a 3e 0a bd 63 be c4 80 19 bf
       0.040766254 0.2714418 -0.22240081 -0.59962106
000350 2d 3a 3d 3d 45 22 4d be a0 80 be 3e d3 c9 0a 3e
       0.04619806 -0.20032604 0.37207508 0.13553552
000360 74 e0 c6 3d 1b 03 24 3f 07 c7 71 bd 24 e5 8f bd
       0.0971078 0.6406724 -0.059027698 -0.07026127
000370 68 2f 9b be 47 9c 89 be 45 dc 33 3e ca 1d 8e be
       -0.30309606 -0.26877043 0.17564495 -0.27757102
000380 11 d6 12 be 96 21 27 bd a1 cf ec bd 76 75 49 3d
       -0.14339472 -0.040803514 -0.115630396 0.049184285
000390 8d aa 5f 3e d1 78 c2 be d1 b3 0e bf ad 5c 9b 3e
       0.21842404 -0.379828 -0.5574313 0.30344144
0003a0 2a f9 cb 3e 95 3f e9 3c 47 0c 08 bd 80 65 6f be
       0.39838535 0.028472701 -0.033214834 -0.23378563
0003b0 c2 29 00 bf a0 45 49 be aa 82 a1 3c 17 5a a5 be
       -0.5006372 -0.19655466 0.019715626 -0.32295296
0003c0 8d 19 96 bd 33 23 0b 3d 9f 01 2a bf cb 2a 09 bf
       -0.07329092 0.033969115 -0.66408724 -0.5358092
0003d0 e4 a5 9e be 00 eb a1 be 0d 9a 5a 3e 7e a1 04 be
       -0.3098594 -0.31624603 0.21347828 -0.1295223
0003e0 d1 50 c6 be 56 c8 5b 3e 4a fd ab bd 3d fc 7f 3d
       -0.38733533 0.21463141 -0.083979204 0.062496413
0003f0 ac 1e 1d be f8 eb 39 3f 25 be 8c bd 37 d9 28 be
       -0.15343732 0.72625685 -0.06872205 -0.16489111

base.mlp.fc1.0.bias f4 [64]
000000 09 c9 b4 be bc 6b 85 3e 2f d2 8c 3d ff 1b a0 bd
       -0.35309628 0.26058757 0.06876027 -0.0781784
000010 75 0a 8e 3d f4 f2 d8 bd e8 73 c8 bd 38 dd 9b be
       0.06935588 -0.10593215 -0.09787732 -0.30442214
000020 d3 6d 11 be 5e 89 3a 3e 8f ad 61 be 98 58 08 be
       -0.14202051 0.18216464 -0.22038864 -0.13315046
000030 4c a5 b7 be e3 86 90 bd 2b e8 3e bf dd bf c1 bd
       -0.358683 -0.070569776 -0.7457301 -0.09460423
000040 76 3d 68 3e 59 d3 e2 bd 97 1a 3f 3e 73 b7 b0 bd
       0.22679695 -0.110754676 0.18662487 -0.0862874
000050 5f a4 6f bc 35 ab 6c be ea 6f 0d 3e 95 dd 63 3d
       -0.0146265915 -0.23112185 0.13812223 0.05563124
000060 35 76 f7 bd bb d2 9f bd 36 dc 46 3e 39 08 7b bc
       -0.12083093 -0.078038655 0.19419941 -0.015321785
000070 01 63 c6 3d da 66 15 bd b7 28 d7 3c 37 42 52 be
       0.09686852 -0.03647504 0.026264532 -0.20533071
000080 f2 e5 02 3f 16 25 6e 3b d2 8b 89 3e 10 06 80 bb
       0.5113212 0.0036338023 0.26864487 -0.0039069727
000090 16 fe 0f be 15 25 0d be f7 13 00 3e 0e 49 97 3e
       -0.1406177 -0.13783677 0.12507616 0.29547924
0000a0 15 4f 40 3d 76 45 ba bd 92 c4 b5 bd 25 fd e1 3d
       0.04695042 -0.0909528 -0.088753834 0.110346116
0000b0 4d 43 62 3d 00 12 ce 3e 8a 33 93 3d ca 48 7e be
       0.055239964 0.40248108 0.07187565 -0.24832454
0000c0 60 70 df be 25 22 90 3d 19 b2 73 3d 92 2f 5b 3e
       -0.43640423 0.070377626 0.05949602 0.21404865
0000d0 fb 1c bd bc b3 79 d4 be 46 51 26 3e 82 e8 a8 bb
       -0.023085108 -0.414991 0.16241941 -0.00515467
0000e0 bb 57 56 3e 5e 82 65 3d 3c 71 ae 3d 63 d2 53 bd
       0.20931904 0.05603253 0.085176915 -0.051714312
0000f0 6e d7 99 be 03 d8 d4 3d aa 7c 23 be 7f f8 5f bd
       -0.30047172 0.103927635 -0.15965524 -0.054680344

base.mlp.fc1.2.weight f4 [64]
000000 31 73 90 3f 3f 43 ac 3f d9 4c 93 3f 74 f8 b8 3f
       1.1285154 1.3458022 1.1507827 1.4450822
000010 2a 0e 86 3f 9a a2 9c 3f 0c 05 78 3f 26 c5 7b 3f
       1.0473073 1.2237122 0.968827 0.983477
000020 6b 08 95 3f 93 0a 83 3f c9 e6 8b 3f 4d 94 a1 3f
       1.1643194 1.0237602 1.0929805 1.2623383
000030 ce 1a 87 3f 15 5c b0 3f 79 bd 9f 3f 3c 47 aa 3f
       1.0555055 1.3778101 1.2479697 1.3302989
000040 e2 36 a1 3f 6d d0 95 3f 43 7c 76 3f ea d0 96 3f
       1.2594874 1.1704232 0.9628336 1.1782506
000050 c5 6a 9c 3f c9 b7 a7 3f 0c c0 83 3f ec 1e 9c 3f
       1.2220083 1.3102962 1.0292983 1.2196937
000060 33 c8 8b 3f 1d f6 67 3f f7 c0 8c 3f 55 c6 bc 3f
       1.0920471 0.90609914 1.0996388 1.4748026
000070 1a 93 8b 3f c7 7c 88 3f 3a 21 98 3f 09 fc a1 3f
       1.0904267 1.0663079 1.188514 1.265504
000080 8f 97 a6 3f ae 30 97 3f cf 23 9f 3f 20 ad 84 3f
       1.3015002 1.1811731 1.2432803 1.0365334
000090 fc 2c 4a 3f 05 c8 73 3f b2 5d a1 3f e5 17 93 3f
       0.7897489 0.9522708 1.2606719 1.1491667
0000a0 1f 50 be 3f fe 0a 80 3f f7 01 81 3f 76 9e ac 3f
       1.4868201 1.0003355 1.0078725 1.3485858
0000b0 4b d4 aa 3f 15 cf 93 3f 7a cc 92 3f f7 8b b8 3f
       1.3346037 1.1547571 1.1468651 1.4417714
0000c0 9f a9 c0 3f 68 6d a1 3f 15 7b 6f 3f e7 32 ad 3f
       1.5051764 1.2611513 0.93547183 1.3531159
0000d0 c9 e2 b4 3f 83 20 5c 3f ed a9 61 3f a6 10 98 3f
       1.4131709 0.8598711 0.8814991 1.1880081
0000e0 64 ee a1 3f a7 c9 87 3f 41 20 5e 3f 53 18 82 3f
       1.2650876 1.0608414 0.86767966 1.0163673
0000f0 0b 54 50 3f ad c2 86 3f ca b0 8f 3f 93 2e 64 3f
       0.8137824 1.052816 1.1225827 0.89133567

base.mlp.fc1.2.bias f4 [64]
000000 ed d3 73 be 1a 23 29 bd 96 07 ef 3e bb b4 53 3d
       -0.23811312 -0.04129324 0.46685475 0.05168603
000010 46 ff 23 3e 75 e0 bb bc 44 b9 22 3e c4 62 17 be
       0.16015348 -0.022934178 0.15890986 -0.1478377
000020 22 d3 35 bd 3a 1c 77 3d b5 bc ed bd 71 ff b4 bc
       -0.044390805 0.060329653 -0.11608259 -0.02209446
000030 0b 4e e5 be 55 ff e6 bd d4 41 03 bf 30 fc 73 3d
       -0.44786105 -0.112791695 -0.5127232 0.059566677
000040 1c 83 b1 3e ae e4 da bc b8 74 1d 3e 48 64 2f 3c
       0.3467034 -0.026720371 0.15376556 0.010705061
000050 a6 0b 8c be b1 fa d4 be f7 ba d9 3d 7b 0b fb 3d
       -0.27352637 -0.41597512 0.10631364 0.12258049
000060 18 38 18 3d a8 07 c7 be 25 d8 cd 3d 6b 19 19 be
       0.03716287 -0.3887303 0.10050992 -0.14951102
000070 62 67 76 be 7b 6c 1a 3e 67 d1 a0 3c 22 1b 9e bd
       -0.24062875 0.15080445 0.0196311 -0.07720019
000080 25 e8 af 3e 0a b3 9e 3d fe c2 ba bd 2d ce 20 3e
       0.343568 0.07748993 -0.09119223 0.1570365
000090 c8 d0 cf bd 6c 21 07 be 13 77 30 3d e5 e4 c3 3e
       -0.10147244 -0.13196343 0.043082308 0.3826057
0000a0 cd 63 bc 3d 0a e3 a8 3d e8 56 ef bd ae 14 c7 3e
       0.09198723 0.08246429 -0.11686498 0.38882965
0000b0 fc 36 80 bd a2 49 7f 3e 26 27 3c 3e f4 f4 89 bd
       -0.062604874 0.24930432 0.18374309 -0.06736174
0000c0 ce f8 b5 be 38 49 f9 3d 8f 67 f0 3d f3 b2 d3 3e
       -0.35541385 0.121721685 0.11738502 0.41347465
0000d0 c6 77 07 3e eb e0 dd be cb 17 39 3e 24 ba 21 3e
       0.13229284 -0.4333566 0.18075483 0.15793663
0000e0 99 86 f3 3d eb 8f 71 3e d9 78 56 bd 26 78 83 be
       0.11890907 0.23590057 -0.052361343 -0.25677603
0000f0 4c e3 07 be 84 ef 2f 3d 63 22 be 3b b6 97 c1 3d
       -0.132703 0.04295303 0.005802439 0.09452765

base.mlp.fc_h.0.weight f4 [64, 64]
000000 3a c8 6e 3e b5 de 1f bd 1c 6e f8 3d bb 1f 8e bd
       0.23318568 -0.03903075 0.12130377 -0.06939646
000010 ee 35 2a 3c 0d 28 a8 be ce f6 b6 3d a0 ce a2 bc
       0.010388834 -0.32843056 0.08933793 -0.019873917
000020 bd 36 72 3e 0c 3c 90 3e 3c a3 46 be 35 7e 23 3c
       0.23653693 0.28170812 -0.19398206 0.009978821
000030 ac 72 94 3e 0a b9 be bd c3 9e 94 3d 53 9a f9 3c
       0.28993738 -0.09312637 0.07256844 0.030469095
000040 8b 84 b6 bd de fb 86 be 41 fe b8 bd 8e 3f 06 be
       -0.08911999 -0.26364034 -0.0903287 -0.13110182
000050 22 1e 97 bd 9f 20 dc 3d 84 ce 29 3e 66 92 8a 3e
       -0.07378794 0.107484095 0.16582686 0.27064818
000060 5a 6e c7 be c1 c2 97 3d bb dd 37 3e d3 1c a0 3e
       -0.3895138 0.07410193 0.17955677 0.3127199
000070 5f db 19 be 41 0e 0b 3e 64 8b 6f bc 29 16 6d 3d
       -0.1502509 0.13579656 -0.014620636 0.05788246
000080 50 2c 29 3e 4f d7 24 be 25 7e 99 bd 5b 6a 05 be
       0.1652081 -0.16097759 -0.07494763 -0.13028853
000090 c3 a7 fe bb 3d 80 52 bb 5e 12 79 3d 4b 4e 8f be
       -0.0077714636 -0.0032119893 0.060808532 -0.2798942
0000a0 2c 09 eb 3e d0 70 e9 bd 4b 64 0a be 47 a6 7d bd
       0.45905435 -0.113984704 -0.13514821 -0.061926153
0000b0 d7 e0 46 3d 1b 3f 85 3d db a3 bc 3d 76 8b 9f be
       0.048554268 0.06506177 0.092109405 -0.31161088
0000c0 4e 05 57 bd e8 2a 09 bc 64 aa ca 3e de 68 cd bb
       -0.052495293 -0.008372046 0.39583123 -0.0062686047
0000d0 11 4f 70 3d 8b 17 b7 be 86 18 c3 be 94 5f 33 3d
       0.058669154 -0.3576015 -0.38104647 0.043792322
0000e0 3a 70 cc be 1f 6e 66 3d 55 76 e6 3e c8 86 04 3f
       -0.39929372 0.056257363 0.45012155 0.5176816
0000f0 09 15 cf bd 2a 9e 1c 3d 7a aa 23 3e 5a bd bd 3e
       -0.10111434 0.038236775 0.15983 0.37058526
000100 04 13 1b 3c ae 19 76 3e ad 74 25 be b3 ec 17 bd
       0.009464983 0.24033234 -0.1615779 -0.03709097
000110 0a 1d 29 bd 88 5c 77 3e 29 a6 56 3d 9d 64 98 3b
       -0.04128746 0.24156392 0.052404556 0.004650666
000120 6b 2a 09 3e b1 d0 38 be 3e d4 12 bf 6d 02 75 3e
       0.13395087 -0.1804836 -0.57355106 0.23926707
000130 5b 37 16 bd 42 a4 35 3e bb f5 22 3e cb 63 2e 3d
       -0.036673885 0.1773844 0.15914051 0.04257564
000140 46 ba f7 bd 16 91 1d be 08 85 20 3e 95 56 f0 3e
       -0.12096076 -0.15387377 0.15675747 0.46941057
000150 10 36 cd 3d 6b e9 80 3e 67 10 77 be 06 0b 8b bc
       0.10020077 0.25178084 -0.24127351 -0.01697303
000160 32 fd cc 3d cf 2b 97 be ac f0 85 be 51 7b 29 3e
       0.10009231 -0.2952561 -0.2616018 0.16550948
000170 77 5f e8 3d 42 36 69 be 14 bf db be 81 66 b8 bc
       0.113463335 -0.22774604 -0.4291922 -0.022509815
000180 40 a6 1e 3e 70 c0 0d 3e 86 61 1e be 3e b1 13 3d
       0.15493107 0.1384294 -0.1546689 0.036057703
000190 6f 5e 52 be 02 ef ca bc c8 b0 bc 3d ae 3d ca bd
       -0.20543836 -0.02477217 0.09213406 -0.09875046
0001a0 cc db 7c 3e 10 df f4 bc e1 1b 42 3e 75 af 81 bd
       0.24693221 -0.02989152 0.18955947 -0.06332294
0001b0 7a bb e2 3e b6 97 13 be e3 98 0d bd 4a a5 2d 3e
       0.44283658 -0.14413342 -0.034569632 0.16957584
0001c0 1a 60 e9 bd f5 20 8b bd cc 3a f3 3d dc 44 92 3e
       -0.11395283 -0.067933954 0.11876449 0.2856816
0001d0 ae 1a e2 3d c7 3b a3 3d f8 7d e8 bb 6b de 94 3e
       0.11040245 0.07970386 -0.007095095 0.2907594
0001e0 c2 3e 8c 3e a0 c2 87 3e 28 d7 8b 3e 72 68 0a be
       0.2739163 0.26515675 0.2731259 -0.13516405
0001f0 95 de f0 be 69 89 74 3e 26 d7 77 3e 89 a1 99 bd
       -0.47044817 0.23880543 0.24203166 -0.075015135
000200 cc dc 7c bc 55 7d 61 be 6f 33 64 be 5d bd fe 3e
       -0.015433501 -0.22020467 -0.22285245 0.49753848
000210 5d f3 20 be 60 56 f4 3d 11 36 af 3d d7 8e cf 3d
       -0.15717836 0.11930537 0.08555234 0.101346664
000220 91 9e 69 3d 8e 91 6a be 52 e7 d9 3e de 15 81 bd
       0.057035986 -0.22907087 0.42559296 -0.06302999
000230 cc da dd bd fe 97 7f 3e 04 3e 68 be bb f5 bc 3e
       -0.10832748 0.24960324 -0.22679907 0.36906227
000240 00 7c a8 be 2c 90 68 3e 1c 71 c0 bc 1f c8 00 3e
       -0.32907104 0.22711247 -0.023491435 0.1257634
000250 8e f4 be 3d f9 f1 90 bd 9c b3 5d be f1 a5 a0 3e
       0.09323989 -0.070774026 -0.21650547 0.31376603
000260 19 17 87 3e 39 2f 12 be f3 6b 11 3e 37 60 57 3e
       0.2638481 -0.14275827 0.14201336 0.21032797
000270 0c 26 a1 be fe 35 8e 3e 78 38 39 be 02 ea b8 bd
       -0.3147434 0.27775568 -0.18087947 -0.090290084
000280 37 ef 1d 3e c4 1f 99 be 63 53 8f bc 81 29 49 3d
       0.15423284 -0.29907048 -0.017495817 0.049111847
000290 62 3a 72 be 34 cc 48 3e e8 87 28 be b6 57 b7 bd
       -0.23655084 0.19609147 -0.16458094 -0.089522764
0002a0 16 a5 1a 3d e3 e8 52 3e bb 17 41 3e f7 f7 9c be
       0.037755094 0.20596652 0.18856709 -0.30657932
0002b0 cc c0 d6 bb 86 18 01 bd 0a 3d 16 3e 6e b9 e1 be
       -0.006553745 -0.031517528 0.14671722 -0.44086784
0002c0 cd cf f4 3b ba c0 fd 3c cf 77 0d be 56 6e 07 3d
       0.007471061 0.030975688 -0.13815235 0.03306421
0002d0 2a 9e ab 3e 37 7c 0d be a3 d3 f7 3c fb a5 7a be
       0.33519107 -0.13816915 0.030252283 -0.24477379
0002e0 bc 8b 56 3e 12 da 63 3d be 7f a7 3e b3 0e 4b be
       0.20951742 0.05562789 0.32714647 -0.19829826
0002f0 f6 19 56 3e d7 1f 1f be 01 93 31 3e a9 a0 23 3e
       0.20908341 -0.1553949 0.17341234 0.15979256
000300 1d ea 39 3d f8 54 06 be de 57 9a 3e 13 13 88 be
       0.045389283 -0.1311835 0.30145162 -0.26577052
000310 8a 9b 54 be fa fa e2 bd 01 d3 ad be a5 dd 05 bc
       -0.20762458 -0.11083026 -0.33950046 -0.00817052
000320 cb 59 52 3e 0b e1 3b bc 6f a3 f6 bd 42 c6 91 3d
       0.20542066 -0.011467229 -0.12042891 0.07117893
000330 6c a7 6c bd e1 c7 b6 bc b3 37 c4 bd b4 5c db 3e
       -0.057776853 -0.022312107 -0.09580936 0.42844164
000340 84 0f 79 3e 6d 03 38 be 61 55 cd bc 31 75 bb 3d
       0.24322325 -0.17970057 -0.025065126 0.09153212
000350 5c 69 8e 3e 64 cc 31 3e b7 06 f1 3c 5f d4 1b be
       0.27814758 0.17363125 0.029422147 -0.15217732
000360 4a be 09 be a7 67 9b 3d 35 67 91 bd cb 78 82 be
       -0.13451496 0.075881295 -0.07099763 -0.25482783
000370 c3 48 e2 3d 34 97 fa be 07 d4 6c 3d 17 37 0b bf
       0.110490344 -0.48943484 0.057819393 -0.54380935
000380 aa 1e 86 be bf e6 8c be e5 9b 89 3e f8 90 1a 3e
       -0.2619527 -0.27519795 0.2687675 0.15094364
000390 08 56 c7 bd 47 63 1b bd 09 bc c0 be eb b5 66 be
       -0.09733206 -0.037936475 -0.3764346 -0.22530334
0003a0 0e 66 6b 3e 23 3c d7 be 61 61 6f bc af f7 07 bf
       0.2298815 -0.42038068 -0.014610619 -0.5311231
0003b0 95 86 c3 3c ad b3 09 3e 9b e7 f2 3d 88 fd 0c 3d
       0.023867885 0.13447447 0.118605815 0.034421474
0003c0 76 bd 8e 3d cc 54 cb bd 91 f1 57 be 36 83 10 3e
       0.069697306 -0.09928283 -0.21088244 0.14112553
0003d0 ee 1c 1b 3d bf 8d 74 be f9 e1 f4 3d b6 47 4a be
       0.037869386 -0.23882197 0.11957163 -0.19753918
0003e0 75 66 3f 3e 56 01 27 be b4 88 82 bd 0d a7 85 bc
       0.18691428 -0.16309103 -0.0637373 -0.016315008
0003f0 cb 22 38 3e d3 d0 93 bd 50 20 99 3d 61 5a 56 3d
       0.17982022 -0.072175644 0.07476866 0.052332286

base.mlp.fc_h.0.bias f4 [64]
000000 00 00 00 00 00 00 00 00 00 00 00 00 00 00 00 00
       0.0 0.0 0.0 0.0
000010 00 00 00 00 00 00 00 00 00 00 00 00 00 00 00 00
       0.0 0.0 0.0 0.0
000020 00 00 00 00 00 00 00 00 00 00 00 00 00 00 00 00
       0.0 0.0 0.0 0.0
000030 00 00 00 00 00 00 00 00 00 00 00 00 00 00 00 00
       0.0 0.0 0.0 0.0
000040 00 00 00 00 00 00 00 00 00 00 00 00 00 00 00 00
       0.0 0.0 0.0 0.0
000050 00 00 00 00 00 00 00 00 00 00 00 00 00 00 00 00
       0.0 0.0 0.0 0.0
000060 00 00 00 00 00 00 00 00 00 00 00 00 00 00 00 00
       0.0 0.0 0.0 0.0
000070 00 00 00 00 00 00 00 00 00 00 00 00 00 00 00 00
       0.0 0.0 0.0 0.0
000080 00 00 00 00 00 00 00 00 00 00 00 00 00 00 00 00
       0.0 0.0 0.0 0.0
000090 00 00 00 00 00 00 00 00 00 00 00 00 00 00 00 00
       0.0 0.0 0.0 0.0
0000a0 00 00 00 00 00 00 00 00 00 00 00 00 00 00 00 00
       0.0 0.0 0.0 0.0
0000b0 00 00 00 00 00 00 00 00 00 00 00 00 00 00 00 00
       0.0 0.0 0.0 0.0
0000c0 00 00 00 00 00 00 00 00 00 00 00 00 00 00 00 00
       0.0 0.0 0.0 0.0
0000d0 00 00 00 00 00 00 00 00 00 00 00 00 00 00 00 00
       0.0 0.0 0.0 0.0
0000e0 00 00 00 00 00 00 00 00 00 00 00 00 00 00 00 00
       0.0 0.0 0.0 0.0
0000f0 00 00 00 00 00 00 00 00 00 00 00 00 00 00 00 00
       0.0 0.0 0.0 0.0

base.mlp.fc_h.2.weight f4 [64]
000000 00 00 80 3f 00 00 80 3f 00 00 80 3f 00 00 80 3f
       1.0 1.0 1.0 1.0
000010 00 00 80 3f 00 00 80 3f 00 00 80 3f 00 00 80 3f
       1.0 1.0 1.0 1.0
000020 00 00 80 3f 00 00 80 3f 00 00 80 3f 00 00 80 3f
       1.0 1.0 1.0 1.0
000030 00 00 80 3f 00 00 80 3f 00 00 80 3f 00 00 80 3f
       1.0 1.0 1.0 1.0
000040 00 00 80 3f 00 00 80 3f 00 00 80 3f 00 00 80 3f
       1.0 1.0 1.0 1.0
000050 00 00 80 3f 00 00 80 3f 00 00 80 3f 00 00 80 3f
       1.0 1.0 1.0 1.0
000060 00 00 80 3f 00 00 80 3f 00 00 80 3f 00 00 80 3f
       1.0 1.0 1.0 1.0
000070 00 00 80 3f 00 00 80 3f 00 00 80 3f 00 00 80 3f
       1.0 1.0 1.0 1.0
000080 00 00 80 3f 00 00 80 3f 00 00 80 3f 00 00 80 3f
       1.0 1.0 1.0 1.0
000090 00 00 80 3f 00 00 80 3f 00 00 80 3f 00 00 80 3f
       1.0 1.0 1.0 1.0
0000a0 00 00 80 3f 00 00 80 3f 00 00 80 3f 00 00 80 3f
       1.0 1.0 1.0 1.0
0000b0 00 00 80 3f 00 00 80 3f 00 00 80 3f 00 00 80 3f
       1.0 1.0 1.0 1.0
0000c0 00 00 80 3f 00 00 80 3f 00 00 80 3f 00 00 80 3f
       1.0 1.0 1.0 1.0
0000d0 00 00 80 3f 00 00 80 3f 00 00 80 3f 00 00 80 3f
       1.0 1.0 1.0 1.0
0000e0 00 00 80 3f 00 00 80 3f 00 00 80 3f 00 00 80 3f
       1.0 1.0 1.0 1.0
0000f0 00 00 80 3f 00 00 80 3f 00 00 80 3f 00 00 80 3f
       1.0 1.0 1.0 1.0

base.mlp.fc_h.2.bias f4 [64]
000000 00 00 00 00 00 00 00 00 00 00 00 00 00 00 00 00
       0.0 0.0 0.0 0.0
000010 00 00 00 00 00 00 00 00 00 00 00 00 00 00 00 00
       0.0 0.0 0.0 0.0
000020 00 00 00 00 00 00 00 00 00 00 00 00 00 00 00 00
       0.0 0.0 0.0 0.0
000030 00 00 00 00 00 00 00 00 00 00 00 00 00 00 00 00
       0.0 0.0 0.0 0.0
000040 00 00 00 00 00 00 00 00 00 00 00 00 00 00 00 00
       0.0 0.0 0.0 0.0
000050 00 00 00 00 00 00 00 00 00 00 00 00 00 00 00 00
       0.0 0.0 0.0 0.0
000060 00 00 00 00 00 00 00 00 00 00 00 00 00 00 00 00
       0.0 0.0 0.0 0.0
000070 00 00 00 00 00 00 00 00 00 00 00 00 00 00 00 00
       0.0 0.0 0.0 0.0
000080 00 00 00 00 00 00 00 00 00 00 00 00 00 00 00 00
       0.0 0.0 0.0 0.0
000090 00 00 00 00 00 00 00 00 00 00 00 00 00 00 00 00
       0.0 0.0 0.0 0.0
0000a0 00 00 00 00 00 00 00 00 00 00 00 00 00 00 00 00
       0.0 0.0 0.0 0.0
0000b0 00 00 00 00 00 00 00 00 00 00 00 00 00 00 00 00
       0.0 0.0 0.0 0.0
0000c0 00 00 00 00 00 00 00 00 00 00 00 00 00 00 00 00
       0.0 0.0 0.0 0.0
0000d0 00 00 00 00 00 00 00 00 00 00 00 00 00 00 00 00
       0.0 0.0 0.0 0.0
0000e0 00 00 00 00 00 00 00 00 00 00 00 00 00 00 00 00
       0.0 0.0 0.0 0.0
0000f0 00 00 00 00 00 00 00 00 00 00 00 00 00 00 00 00
       0.0 0.0 0.0 0.0

base.mlp.fc2.0.0.weight f4 [64, 64]
000000 69 10 94 3e 6b d6 a0 3e 12 05 0e 3f 4a fe a6 3e
       0.2891877 0.31413588 0.55476487 0.32615882
000010 63 03 d1 be c3 84 d7 be 83 37 68 be 8a 5c 88 3b
       -0.40822896 -0.42093477 -0.22677426 0.004161422
000020 f9 f6 d2 3e 45 2a f3 3e 75 a3 10 3e 5e 03 c3 3b
       0.4120405 0.47493187 0.14124854 0.005951329
000030 2a 8b 0c be c0 0b 62 be 9f d6 8b 3e 18 28 87 be
       -0.13724962 -0.22074795 0.2731218 -0.26397777
000040 f1 17 25 be dd f3 e5 be 59 43 57 be 8d b9 ee 3e
       -0.16122414 -0.44912615 -0.21021785 0.4662594
000050 a4 59 88 3e 85 fb c8 bc a0 c3 8e be bc cd ab 3e
       0.2663089 -0.024533996 -0.27883625 0.335554
000060 b4 17 e1 be 73 20 5c 3c ce 25 ba 3e e3 6f 21 3e
       -0.43963397 0.013435471 0.36356968 0.15765338
000070 63 64 14 be 7a c4 93 bd 1c 36 1e be 3e 6d 89 be
       -0.1449142 -0.07215209 -0.15450329 -0.26841158
000080 a4 3a 2a 3f 56 f3 cb bd c6 d9 a9 be ae d7 e0 3d
       0.6649573 -0.09958522 -0.3317396 0.10978638
000090 52 c0 e6 bd 2d 2c 55 be fe a3 47 bd 6a 19 0b bf
       -0.11267151 -0.20817633 -0.04874038 -0.54335654
0000a0 a4 7d be 3e e9 47 2a 3e 80 47 21 be 28 80 a8 bd
       0.3720523 0.16628994 -0.15749931 -0.08227569
0000b0 f6 5f 81 be 26 52 ed bc 0f be 29 bc ab 5e 87 be
       -0.25268525 -0.028969835 -0.010360255 -0.26439413
0000c0 cb 18 17 3e 70 ce 73 3e 6c 49 c7 3e b1 7d 9d 3d
       0.14755552 0.23809218 0.38923204 0.07689989
0000d0 6e ea cb 3e 1c 9d c5 be 22 49 ba be 69 58 bc 3e
       0.39827293 -0.38596427 -0.3638392 0.36786202
0000e0 b3 e2 27 bf c0 23 d0 bd 49 57 2b 3f 79 9d 14 3f
       -0.6558029 -0.10163069 0.6693006 0.58052784
0000f0 05 00 25 be 5c 36 d8 bd cf c9 c6 3e e8 b0 7c 3e
       -0.16113289 -0.10557243 0.38825843 0.2467686
000100 06 d1 9e bd b4 3e f1 3e e2 85 85 3d 10 4b 13 be
       -0.07754712 0.4711815 0.06519677 -0.14384103
000110 6f f4 1a 3e 3e 09 0f 3f 12 5b 99 bd ca 56 4a be
       0.15132307 0.5587348 -0.074880734 -0.1975967
000120 23 50 d3 3e 8d 9e e5 be f0 fb d4 be bc ec 2a bd
       0.41272077 -0.44847527 -0.41598463 -0.041729674
000130 b4 5f 75 be 71 08 10 3e c8 ff 95 be 4b f8 5f 3e
       -0.23962289 0.1406572 -0.29296708 0.2187206
000140 bb ee bc 3d 7f 85 82 bd ca 7b 7a 3e 18 8c 13 3f
       0.09225222 -0.063731186 0.24461284 0.5763564
000150 a4 86 d5 bd 6d 00 ae 3d c5 97 03 bf 58 17 18 bd
       -0.10426071 0.08496175 -0.51403457 -0.037131637
000160 d9 9e 09 3f 12 5a 90 be 7a 8c d0 be b9 cd e0 3e
       0.5375801 -0.28193718 -0.40732175 0.43906954
000170 9e ff 5a 3c d8 7b 2d bf 49 54 56 be a0 eb 7d bd
       0.013366608 -0.67767096 -0.2093059 -0.061992288
000180 4f aa 0f 3f ec 2c 15 3e fd c9 c2 3e 7f b6 c4 bd
       0.56119245 0.14567918 0.3804473 -0.09605121
000190 c3 bc c1 be 6a d6 59 bd 63 aa 21 3d ef 5e 04 3f
       -0.37839326 -0.053182997 0.039469134 0.5170736
0001a0 20 fa a4 3c a5 9a c9 bd 5b b9 97 3e f8 d6 92 3e
       0.0201388 -0.09843949 0.29633602 0.28679633
0001b0 52 b3 94 3e af 51 ba 3e 7e 9f 1b be 09 41 1f 3e
       0.2904306 0.36390445 -0.1519756 0.15552153
0001c0 3d 61 cb be 98 da 07 bf 03 7b a8 3e f9 f6 ba 3e
       -0.39722624 -0.5306792 0.3290635 0.3651655
0001d0 28 7b 9a be f1 63 58 be f1 cb b5 3e 28 d3 61 3d
       -0.30172086 -0.21131875 0.35507157 0.055133015
0001e0 1f d5 10 3e 23 c3 4d be 12 42 e4 3e 5b a1 08 be
       0.14143799 -0.2009397 0.44581658 -0.13342802
0001f0 f0 97 04 bf 90 19 97 3e 50 cf e9 bd c5 ff 34 3e
       -0.5179434 0.2951169 -0.11416495 0.17675693
000200 e3 0a e1 3b 43 d5 f7 bd 90 25 2c be dd 16 2c 3f
       0.006867753 -0.12101223 -0.16811204 0.67222387
000210 a1 1e 90 bd 68 2a be bc ea 2b cf bc a0 75 a2 3c
       -0.07037092 -0.02321358 -0.025289495 0.019831479
000220 94 9e 0d be 48 61 4c 3d f3 be d9 3e a0 32 d0 bd
       -0.13830024 0.049897462 0.42528495 -0.10165906
000230 3f 3c dd be c3 24 67 3e bb 60 8e be 16 88 f1 3e
       -0.43210027 0.22572617 -0.27808174 0.47174138
000240 53 c6 43 be fa 11 05 be 06 f6 1d be c6 5b cc 3e
       -0.19118623 -0.12995139 -0.15425882 0.39913768
000250 4b 17 0c 3f ca 2e d0 be d3 5e b5 be 4d d8 1f 3e
       0.5472304 -0.40660697 -0.35423908 0.15609856
000260 b9 82 ae be b9 46 c4 be 66 69 c0 3e 5c 34 e6 3d
       -0.34084108 -0.38335207 0.37580413 0.112404555
000270 e0 e2 ac be fe 42 41 3e 06 89 3a be c1 92 9e be
       -0.33766842 0.18873212 -0.18216333 -0.3097134
000280 93 46 99 3e 8d 29 cb bd 8c 9f b8 bd c6 2f 8d 3d
       0.29936656 -0.099200346 -0.09014806 0.06893878
000290 ff 86 b1 bd 81 b0 7b 3e f9 7c dd bd 7c 62 58 be
       -0.086683266 0.2457905 -0.10814852 -0.21131319
0002a0 5b 91 de 3e 21 66 bb 3e 5d 78 bd 3e 83 f4 a0 be
       0.43470272 0.36601356 0.37005892 -0.31436548
0002b0 c9 e9 02 bf 52 76 17 bf 3a 1e 87 3e ad ae b3 be
       -0.5113798 -0.5916492 0.2639025 -0.35094205
0002c0 4a 05 04 3f ed 96 e7 3e 23 b7 44 bd 50 4f 4d bd
       0.5157057 0.45232335 -0.048026215 -0.050124466
0002d0 55 99 3e 3f f4 c8 b4 be d8 f8 4a bd e3 20 8c be
       0.74452716 -0.35309565 -0.049553722 -0.2736884
0002e0 14 2d 59 3e 0f b0 47 3e d5 90 00 3f 17 44 3f 3e
       0.21208602 0.19500755 0.50220996 0.18678318
0002f0 a7 0b 0c 3d b6 c5 f8 be dd dc bf 3e 01 e9 a1 3e
       0.0341908 -0.4858834 0.37473193 0.3162308
000300 69 4f b8 3e 89 cc 50 be 8b 97 5f be 8e 93 21 bf
       0.35998085 -0.20390524 -0.21835153 -0.63115776
000310 d5 87 0d 3e bf 4e 46 3e bc 14 2e bd 97 c2 dc 3e
       0.13821347 0.19365977 -0.042500243 0.4311721
000320 38 63 1e 3d da c9 8a be f9 b2 0d be 83 f6 8c 3d
       0.03866884 -0.27107126 -0.13837804 0.06882956
000330 1f 90 96 3e 0c 0a 8b 3e 56 00 0a bc 7a f1 08 3f
       0.2940683 0.27156103 -0.008422932 0.53493464
000340 57 8d 59 3e a8 0b b0 be 83 df 58 3e ff 58 a6 3d
       0.21245323 -0.34383893 0.21179013 0.081224434
000350 7f a5 6e bd 69 e1 35 3f 37 45 86 bd 2e f0 0c bf
       -0.058263298 0.71047074 -0.065561704 -0.55053985
000360 b6 97 e0 be 29 fe ac bd a5 c2 13 3e 9e c2 5c 3e
       -0.43865746 -0.08446915 0.1442972 0.21558616
000370 e5 4b b1 3e e3 86 83 be 32 7a 32 3e 22 f7 e5 be
       0.34628215 -0.25688848 0.17429426 -0.4491511
000380 c9 10 be be f3 60 72 be 7b 9b fa 3e ea 1f 8d bd
       -0.3712218 -0.23669796 0.48946747 -0.06890853
000390 d7 6b 02 3e 75 06 be be 36 30 c7 be 4a ca d7 bd
       0.1273645 -0.371143 -0.3890397 -0.105366305
0003a0 54 4a a5 3e 1a ad 34 bf 19 90 28 3e a3 3e 24 bf
       0.3228327 -0.7057663 0.16461219 -0.64158076
0003b0 4b 49 ee bc f9 91 49 bf ec aa 8b 3d f7 2d 28 be
       -0.029087683 -0.7873836 0.0681971 -0.16423784
0003c0 ea 28 64 3e 44 a9 5f be 99 38 ca be e9 97 94 be
       0.22281232 -0.21841913 -0.39496306 -0.29022148
0003d0 01 b7 3f 3e 08 85 10 3e f5 e6 d7 3d 73 fe 8e bd
       0.18722154 0.14113247 0.105420984 -0.06982126
0003e0 d9 95 08 3e 56 cf f7 bd f4 13 2c bd b5 07 2d be
       0.13338412 -0.12100093 -0.042011216 -0.16897471
0003f0 cf b5 fc 3d 5a 46 ca be b1 00 0c 3e c9 33 74 be
       0.12339365 -0.395068 0.13672139 -0.2384788

base.mlp.fc2.0.0.bias f4 [64]
000000 1f 67 04 3e ef 2d 87 3e 0e b2 87 3c a7 1a 24 be
       0.12929963 0.26402232 0.016564395 -0.16025792
000010 86 40 f0 be b1 2f 40 be fc ae 5e 3e c3 bd d3 be
       -0.46924227 -0.18768193 0.21746439 -0.41355714
000020 05 fd c1 be 78 1e 5e bd a2 35 71 be 81 bc be 3d
       -0.3788835 -0.054228276 -0.23555616 0.09313298
000030 13 7c cc 3d 22 c4 be be 2c 0a 8f bc de a8 86 be
       0.09984603 -0.37259012 -0.017460905 -0.2630071
000040 1f 7f 0e 3e ff fd 96 3e d3 8f 39 3e ce ce 4a be
       0.1391568 0.2949066 0.18121271 -0.19805452
000050 c0 03 ea 3e 06 d6 e3 3d 50 91 5e bc 6a 03 b1 3e
       0.45705986 0.11124806 -0.01358445 0.34572917
000060 ff 3c ea bd 78 26 ff be 14 47 07 3f 2a a5 1c 3b
       -0.11437415 -0.49834037 0.5284283 0.0023902156
000070 fa 86 9d 3d 4b 32 ca be 1a 05 03 bd 81 53 b0 3d
       0.0769176 -0.39491495 -0.031987287 0.08609677
000080 d6 88 05 bf ca d4 32 3d 65 c2 03 be 94 02 98 be
       -0.5216192 0.043659963 -0.12867124 -0.29689467
000090 3c 98 18 3e e3 16 da 3e 27 dc 01 be c6 99 ce 3e
       0.14901823 0.42595586 -0.12681638 0.40351695
0000a0 01 9a 1b 3d b4 62 61 3d 61 26 d9 3e cc 5f db bd
       0.037988666 0.05502577 0.42412093 -0.10711631
0000b0 8a 18 4c 3e bf c1 34 3d ce e4 dc 3e b4 b5 b4 be
       0.19931236 0.044130083 0.43143314 -0.35294878
0000c0 ec 41 73 be 93 9c 2d bd 57 ee 4d be dc 2a eb 3c
       -0.23755616 -0.04238565 -0.2011045 0.02870696
0000d0 0a 32 c1 3e 60 1e c0 3d 19 85 a6 3e e8 73 3a be
       0.3773349 0.093807936 0.3252342 -0.18208277
0000e0 4c 02 f2 3e fb 5e f3 be 5c 76 4a 3c cb af 05 3e
       0.47267377 -0.47533402 0.012357321 0.13055341
0000f0 f2 4a 1d be c6 d6 9d be 1c 6a 69 3d c0 57 f1 bc
       -0.1536062 -0.30827922 0.05698596 -0.029460788

base.mlp.fc2.0.2.weight f4 [64]
000000 c4 2c a6 3f 9f a7 87 3f c1 f9 a8 3f 86 52 83 3f
       1.2982411 1.0598029 1.3201219 1.0259559
000010 d9 89 81 3f 42 bf aa 3f d2 5d 90 3f 42 e0 8f 3f
       1.0120193 1.3339617 1.1278632 1.1240313
000020 87 78 bd 3f 17 52 97 3f 16 ab 88 3f 05 ea a5 3f
       1.4802407 1.1821927 1.0677211 1.2962042
000030 3a 4f 92 3f 1f 44 97 3f 94 84 95 3f ad 03 80 3f
       1.1430428 1.1817664 1.1681085 1.0001122
000040 d2 af 9c 3f c9 d6 6f 3f 87 9d 86 3f 3d 5d 9f 3f
       1.2241156 0.9368711 1.0516824 1.2450329
000050 79 1f ab 3f 09 53 63 3f d4 66 a8 3f db 7d a4 3f
       1.336898 0.88798577 1.3156381 1.2850908
000060 3c 54 ae 3f b9 6f bd 3f e7 b2 81 3f 79 ec a8 3f
       1.3619456 1.479972 1.0132722 1.3197166
000070 90 82 a3 3f 07 4e b6 3f 40 91 ae 3f bc d9 9a 3f
       1.277422 1.4242562 1.3638077 1.2097697
000080 91 dc a2 3f 36 8a 7d 3f 15 02 86 3f bd 41 8b 3f
       1.2723562 0.9903902 1.0469385 1.0879437
000090 43 cb a0 3f ea b5 a7 3f 2b 32 5c 3f b3 64 42 3f
       1.256203 1.3102391 0.8601405 0.75934905
0000a0 31 f9 a5 3f ac fd 6e 3f 82 65 5f 3f ad 39 89 3f
       1.2966672 0.9335582 0.87264264 1.0720726
0000b0 84 53 cc 3f d6 0a 8e 3f ce e8 c9 3f 32 26 87 3f
       1.5962987 1.1097057 1.5774171 1.0558531
0000c0 f1 84 8c 3f a2 3e 7a 3f 45 68 b1 3f 5f 7f 97 3f
       1.097807 0.9775182 1.3859946 1.1835746
0000d0 8e 49 b1 3f 7c b5 8f 3f 49 1b 85 3f c4 df 92 3f
       1.3850572 1.122726 1.0398952 1.1474538
0000e0 65 40 99 3f 30 6e 96 3f 39 ba 9f 3f d9 2a aa 3f
       1.1972777 1.1752377 1.2478706 1.3294326
0000f0 7e 71 91 3f 16 8f 4c 3f f1 5b 8d 3f 59 5a 9a 3f
       1.136276 0.7990583 1.1043683 1.2058822

base.mlp.fc2.0.2.bias f4 [64]
000000 32 db cc bd 39 96 c2 bd 4b f9 73 be fb a8 4a be
       -0.10002746 -0.09501309 -0.23825566 -0.19791023
000010 65 16 9e be 53 fc 3f be e5 83 65 be 76 21 f3 be
       -0.3087646 -0.18748598 -0.22413595 -0.47486466
000020 72 0e c3 be 5c 44 28 3d b7 c9 0d bf d9 75 b1 be
       -0.38096958 0.041080818 -0.5538592 -0.34660223
000030 a8 86 64 3e b8 29 28 3d 89 db 75 3c d2 e5 bd be
       0.22316992 0.04105541 0.015005955 -0.370894
000040 2d b8 b3 bb b2 08 b3 3e 0c a6 34 3d 06 90 3f 3d
       -0.005484602 0.34967571 0.044103667 0.04676821
000050 66 08 e8 3e 7e 97 12 3d 11 f0 13 be d2 ca af 3e
       0.45318907 0.035789005 -0.14447047 0.34334427
000060 c1 4b 8d 3d b1 40 02 bf 46 03 5c be 57 b3 43 bd
       0.068992145 -0.5087996 -0.21485624 -0.047778454
000070 03 be 73 bd d6 e9 af be f0 92 fc 3d 02 bb 86 3e
       -0.05950738 -0.3435809 0.123327136 0.2631455
000080 8e f4 62 bd 75 6c 9a be 1d 67 14 be 52 23 11 bd
       -0.055409007 -0.3016087 -0.1449246 -0.035434075
000090 62 01 8d 3e e2 2d 78 3e 24 7f c2 3d d8 b9 88 3e
       0.27540118 0.24236253 0.094969064 0.26704288
0000a0 bf 20 a4 3e ff b2 b3 3d bf fd 4b 3e 52 24 1d 3d
       0.32056233 0.08774375 0.19921015 0.038364716
0000b0 bc c8 9d 3e c4 3d e4 39 95 f9 36 3f 4d 85 17 be
       0.3081721 0.00043533568 0.7147458 -0.14796944
0000c0 47 29 a5 be f7 8f 02 be be 14 08 be 4b 77 93 be
       -0.32258055 -0.1275023 -0.13289163 -0.2880195
0000d0 c7 0f 6d 3e ef d8 92 3d f0 7f fc 3d 69 6e b5 3e
       0.2315055 0.07170283 0.1232909 0.354358
0000e0 46 5c bf 3e d0 de b8 bd bd 02 16 be 61 1d 7d 3d
       0.37375087 -0.09026873 -0.14649482 0.061795596
0000f0 8b c3 45 be 79 86 a6 bc 6e c7 3c 3d fd d6 30 be
       -0.19312875 -0.020327793 0.04608863 -0.17269512

rnn.rnn.weight_ih_l0 f4 [192, 64]
000000 67 01 8a be 55 72 3b 3e ea 5b cd be 1e ea 5d 3d
       -0.26954195 0.18305333 -0.40109187 0.05417835
000010 d4 eb 52 3d 51 93 d2 3c d9 d7 11 be e7 b5 18 3c
       0.051494434 0.025705012 -0.14242496 0.009320713
000020 c6 7b 5d 3e 2e cc bd 3e 98 c3 ee 3c af 10 15 be
       0.21629247 0.3706984 0.029146 -0.14557146
000030 cc a1 68 bd 9a 8b 37 3e 37 e9 d6 be 40 64 07 3d
       -0.056794927 0.17924348 -0.41974804 0.03305459
000040 fb 74 63 3d ef d3 3b 3d f7 61 8a be ae a9 1d 3d
       0.055531483 0.045856413 -0.27027866 0.038491897
000050 5d fc 31 3d d0 39 6f 3e bd 00 22 3e bc 74 dc bc
       0.043453563 0.23361897 0.15820594 -0.026911132
000060 0b f9 4f be d9 7e 95 3e ac 82 9b be d8 cc ab bb
       -0.20309846 0.2919834 -0.30373132 -0.005242925
000070 6d 5d a8 be 0f c4 ff 3d f4 6a 15 3d 6c dd 90 3e
       -0.32883778 0.12488567 0.03647895 0.2829393
000080 81 06 62 3e 91 a7 88 3e d2 cc 43 be 9e 06 8c bc
       0.22072794 0.26690343 -0.19121101 -0.017093
000090 0e d2 28 be 2e ec 12 3e cb 37 71 3e 99 0a b8 3d
       -0.1648638 0.14347908 0.2355644 0.08986396
0000a0 18 ca 80 3e 3d 89 81 3d 1e b4 c5 bd d3 c4 d1 bd
       0.25154185 0.06325004 -0.09653495 -0.10242619
0000b0 f1 37 4b 3e 23 1e 03 be 72 81 aa 3d 6e a3 b6 3d
       0.19845559 -0.12804465 0.08325471 0.089178905
0000c0 53 21 83 3e f2 5c b3 3d 6d 4e c9 bd 50 52 47 be
       0.25611362 0.08757962 -0.09829412 -0.19464993
0000d0 d7 20 3b 3c 79 71 84 be ff 6b 04 3e 28 73 68 3d
       0.011421404 -0.25867823 0.12931822 0.056750447
0000e0 54 a8 d5 be a1 e9 32 3e 2f 59 0f 3e 72 6e f9 bd
       -0.41729987 0.17471935 0.13998865 -0.12179269
0000f0 9d f1 23 3e 50 e6 5f be b6 8e f9 3a 35 a6 18 be
       0.16010137 -0.21865201 0.0019039724 -0.14907153
000100 ef 94 9e 3e 7f 76 27 3e 5f 8c c0 bd 62 8b be bd
       0.30973002 0.16353796 -0.09401774 -0.09303929
000110 20 cc 9d 3d 92 75 31 3e 58 c2 28 be 01 cd 9e bc
       0.077049494 0.17330006 -0.16480386 -0.019384863
000120 46 91 65 be 6f ed 94 bc 53 cd 3b 3e 80 49 85 3d
       -0.22418699 -0.018179623 0.18340044 0.0650816
000130 6d 5b 78 be d7 24 b2 be ac 5b a9 bd 37 55 81 bd
       -0.24253626 -0.34793732 -0.08269438 -0.063150816
000140 0a 31 8e 3e 5c 76 ed bd 5d 27 92 3e 7c 4c a6 be
       0.2777179 -0.11594841 0.28545657 -0.32480228
000150 e0 90 b5 3c 2c 64 5e 3e 8f f4 59 3e fb eb 1c be
       0.022163808 0.217179 0.21284698 -0.15324394
000160 c1 f0 9e 3d 6e 70 07 be 8c 99 54 bd 2e 41 84 bd
       0.07760764 -0.13226482 -0.051904246 -0.064577445
000170 bb ef 4e be e4 dc 98 bd 87 08 86 3e 18 54 04 3e
       -0.20208637 -0.074640065 0.2617838 0.12922704
000180 ef b7 97 bd 87 55 a9 be d3 bf 68 3e 46 e7 85 3e
       -0.074081294 -0.33073065 0.22729425 0.2615301
000190 99 e3 ec bd 74 f3 05 be c2 bd 39 be 01 3c c7 bd
       -0.11566848 -0.13081151 -0.18138793 -0.09728242
0001a0 21 f4 f0 be 5d b4 a9 bd 78 49 5c be 8d 61 3d 3e
       -0.47061256 -0.08286355 -0.21512401 0.18494244
0001b0 bf 09 47 bd 8d d5 04 bd 16 46 2f 3e 3c 4e 9b 3e
       -0.04859328 -0.03243022 0.1711658 0.30333126
0001c0 f3 32 9b be b2 2b 35 3e 7f 47 08 3e 12 dd b7 be
       -0.3031231 0.1769245 0.13308524 -0.3591085
0001d0 c6 a3 35 3e 88 4d db 3c f5 c8 4b 3e 1e de a9 be
       0.17738256 0.026770368 0.19900878 -0.33177274
0001e0 93 38 8c 3e bd e4 28 3e 6f 67 01 3e 49 0b a0 3e
       0.27386913 0.16493507 0.12637113 0.3125861
0001f0 af bb 97 bd fb e7 9d 3c f2 91 1f 3e fd de a4 3d
       -0.07408845 0.019275656 0.15583017 0.08050344
000200 f7 eb 30 be e5 1d 0b 3e 97 ca ba bb 5e fc cb bd
       -0.17277513 0.13585623 -0.00570042 -0.099602446
000210 85 81 58 3e 83 4c bb bd 45 b8 06 be dd bb bd 3d
       0.21143158 -0.09145453 -0.13156231 0.09264348
000220 94 4c 05 3d 92 0d ce 3d 7c 07 f8 3d 9f b6 07 3d
       0.032543734 0.10061182 0.121108025 0.033133145
000230 08 e2 c9 3d 84 f7 d3 bc a5 e9 18 3e e8 b7 73 3e
       0.09857565 -0.02587486 0.14932878 0.23800623
000240 60 12 3c be d2 bc 1a 3d 46 de 96 3d fe 3f 85 3e
       -0.18366385 0.03777773 0.07366614 0.26025385
000250 b0 bb 83 bd fd 2f 7f 3b 65 ab 29 3e 12 1c 59 3d
       -0.06432283 0.0038938515 0.16569288 0.053005286
000260 3b 09 df be e1 29 42 3d 87 8d f2 3d 4b 2c 2d 3d
       -0.4356173 0.04740322 0.118434004 0.04227857
000270 42 fe 5d be c4 d0 9b 3e 50 68 19 3e ea 45 dd 3c
       -0.21679023 0.30432713 0.14981198 0.027010877
000280 2a f2 44 bd ef 3c 19 3e af 39 06 be a1 23 27 bd
       -0.04808251 0.1496465 -0.13107942 -0.040805463
000290 a9 8c 2b bd 82 9f 6f bd 1c 91 bd bd ed 8f 79 be
       -0.04188219 -0.058501728 -0.09256193 -0.2437131
0002a0 ee ea cf 3c 5e 66 2f be 77 2b 7b be 70 6e e5 bb
       0.025380578 -0.17128894 -0.245283 -0.0070016906
0002b0 f9 62 74 bd 0c d3 bb bb d0 19 72 bd f8 7c 06 be
       -0.0596647 -0.005731946 -0.059106648 -0.1313361
0002c0 4a de 6d 3e e7 d9 d9 3c bf 26 48 3d 2c 2b 37 be
       0.23229328 0.026593162 0.048865076 -0.17887563
0002d0 7f b8 44 bd 42 2b 7e bd 55 a2 dc 3d 57 a8 ce bd
       -0.04802751 -0.062052973 0.1077315 -0.10090702
0002e0 ad 55 58 be c7 67 9a 3d 38 7e 9a 3e d1 90 e4 bd
       -0.21126433 0.07539325 0.30174422 -0.11160434
0002f0 7e 13 20 be 5e e9 5f bd 85 4d b2 bd 6c f1 5c be
       -0.15632436 -0.054665916 -0.08706192 -0.2157647
000300 97 72 b2 be 49 0a 73 3e c2 8d 2b 3c c8 4d 80 3d
       -0.3485305 0.23734392 0.010470809 0.062648356
000310 e1 20 86 3e ec 46 80 3e 2e eb d3 bd 72 80 f0 bd
       0.2619696 0.2505411 -0.10347591 -0.11743249
000320 18 7f ee bd 77 a9 11 3f 6b 2b b1 3d 8f f7 50 3e
       -0.11645335 0.5689921 0.086508594 0.20406936
000330 2d 2c b9 3d 1f b3 12 3f 5e e1 ca bc 89 58 13 3d
       0.09041629 0.5730457 -0.024765667 0.035973106
000340 8c 0d ff bd c4 46 9e 3e d1 32 3c be 67 16 3c 3e
       -0.12453756 0.30913365 -0.1837876 0.18367921
000350 fa 81 3a be c6 e1 92 3e c2 87 8b bd d1 f5 76 3e
       -0.18213645 0.28687876 -0.06813003 0.24117209
000360 7b 38 81 be 0b 94 a7 3d 17 00 83 be 59 60 25 bd
       -0.25238404 0.08182534 -0.25586006 -0.040375087
000370 00 23 1f 3e e8 f9 70 3d 6f e8 2e bc fe d8 48 bd
       0.15540695 0.05883208 -0.010675534 -0.049035065
000380 95 bd fa be 7a 6d e5 3d 20 44 c7 bd 70 29 56 3e
       -0.48972765 0.112025216 -0.09729791 0.20914245
000390 ad 5c ac bb aa 1f 5b 3e a2 5d ab 3e 9e 48 bc bc
       -0.0052600713 0.21398798 0.33469874 -0.022983845
0003a0 f9 26 37 3e 4e 53 e9 3d ce 5a e3 3c d0 39 1f 3e
       0.1788596 0.11392842 0.02775326 0.15549397
0003b0 d0 aa 0c 3e db 4d 09 bd 89 00 2f 3e e6 86 92 be
       0.13737035 -0.033521514 0.17090048 -0.28618544
0003c0 3d d7 9d 3d 54 15 4f be 03 6c 6a be c8 65 ca be
       0.07707069 -0.2022298 -0.22892766 -0.39530778
0003d0 46 c4 c5 3d 29 38 9e 3e b1 56 4b 3d b4 07 91 3e
       0.09656577 0.30902222 0.049643222 0.2832619
0003e0 58 b6 64 be e4 fc 88 be 31 7d 1c 3e be 56 3a be
       -0.22335184 -0.2675544 0.15282132 -0.18197152
0003f0 e7 04 bf bd 45 8c 26 be c9 a7 85 be d5 59 d9 be
       -0.09327107 -0.16264446 -0.26104572 -0.4245135
