train/mappo/results/MPE/formation_hd_env/rmappo/check/run23/models/critic_agent8.pt (torch, 228695 bytes, 21 tensors)

base.feature_norm.weight f4 [324]
00000000: 9072 753f 64bd 773f 7d7e 763f f00a 6a3f
00000010: 92ae 7a3f ceff 7b3f a929 7b3f c07c 6c3f
00000020: 4e56 7b3f 458b 7c3f 8bed 753f 202a 7e3f
00000030: 3ba6 563f 2d85 7d3f 2b5d 7f3f 7f40 7c3f
00000040: d1c5 7b3f 032d 5f3f 4ee4 793f c58f 793f
00000050: 6854 7f3f 2695 7f3f 7211 803f be43 7f3f
00000060: c50d 803f 1a30 803f a436 803f 9b7b 803f
00000070: 4935 803f 5204 803f 0e44 803f 88b9 7f3f
00000080: 9769 803f 3f83 803f 0f90 7f3f 0d51 803f
00000090: d973 783f 0a26 793f 1294 733f 0874 7e3f
000000a0: aedc 7d3f 2048 7a3f 931b 7b3f d998 793f
000000b0: c918 763f 921d 7e3f 559b 7d3f 5e7d 7b3f
000000c0: 5e5d 783f de26 533f 06df 7d3f b030 703f
000000d0: ced6 723f fe41 793f de9b 7e3f 1c72 783f
000000e0: 08f3 7e3f 0d93 7f3f 5735 7f3f 2931 803f
000000f0: 3723 803f dbc8 7e3f 04ed 7e3f ee3c 7f3f
00000100: 28dd 7f3f e75e 7f3f 4be8 7e3f ac58 803f
00000110: 6373 7f3f 04dd 7f3f 08d1 7e3f c167 803f
00000120: 868f 6c3f a4f1 7b3f b903 6e3f a655 7f3f
00000130: 4dbc 7c3f 9e41 7c3f a658 7c3f 3572 7d3f
00000140: 87a8 7e3f b809 7f3f 7228 7a3f ed45 7c3f
00000150: 8383 793f 17fe 703f 0c77 7d3f afe9 703f
00000160: fb2d 7b3f 7370 7e3f 3d41 7e3f f23c 7f3f
00000170: 849d 803f 3966 803f 084b 803f 32b8 7f3f
00000180: 6139 7f3f 7716 803f 984e 7f3f 9da9 803f
00000190: 4785 803f f978 803f cafd 7f3f 6842 803f
000001a0: 4d82 7f3f 5838 7f3f bc62 7f3f ed33 803f
000001b0: 68f9 6d3f 1016 6b3f d2c8 773f d380 7d3f
000001c0: 0b03 803f 67a2 633f 9e3f 7e3f b2ac 773f
000001d0: 159b 7b3f a756 703f 83ed 743f 057e 7c3f
000001e0: f81f 703f 2d33 6f3f 3b44 783f 912d 7f3f
000001f0: 9827 7d3f 9815 7b3f e913 693f af73 793f
00000200: e706 7f3f ceee 7f3f c186 803f bd65 803f
00000210: e153 7f3f a313 7f3f a7b5 7e3f 8536 803f
00000220: 2b80 803f e8c6 803f 25e7 7e3f 3891 7e3f
00000230: f328 803f bd09 7f3f b23c 803f 7288 803f
00000240: e834 753f 34e2 7c3f 717d 7c3f 34b0 783f
00000250: 0feb 7b3f 89ca 7d3f 3899 7c3f 56e9 7c3f
00000260: 0f52 6c3f 98c7 7c3f 9fe0 7a3f 2e70 7c3f
00000270: 9727 763f 815d 803f 255c 7c3f d609 7d3f
00000280: 7991 783f 8db0 7d3f 45fb 7b3f c1eb 703f
00000290: 0c2b 803f dc7e 803f 01ae 7f3f 4338 7f3f
000002a0: 9e01 7f3f 9141 803f b118 803f da9b 7f3f
000002b0: 0c93 803f ff39 7f3f 4277 803f eb9c 7e3f
000002c0: 85b5 803f 489f 7f3f 1762 803f 5df6 7f3f
000002d0: b0ad 613f 831c 7c3f fd39 6f3f dff6 7e3f
000002e0: 1425 653f e8ce 7c3f eb5a 7e3f 5747 7c3f
000002f0: 1b85 793f 9624 7d3f 59ad 713f 0fe6 7e3f
00000300: ea62 7c3f 2bd5 7e3f fe64 7c3f ec19 783f
00000310: 32a2 7e3f f10e 7c3f 09c5 7e3f 5bb7 783f
00000320: 38c4 803f d82b 803f 42c0 7e3f 5bc6 7e3f
00000330: f926 7f3f cf71 803f 8b64 803f 5d85 7f3f
00000340: d832 803f 6d79 803f 9f49 7f3f c2d3 7f3f
00000350: 115c 7f3f ec97 7f3f 1895 803f fa8b 803f
00000360: be5b 643f 5550 753f d2ee 713f f057 7c3f
00000370: aedd 763f 2f29 7a3f 18aa 7e3f 05ca 7b3f
00000380: b86c 683f 1e5f 793f 16a9 7e3f b54e 753f
00000390: dcbe 793f 65ee 7f3f a98a 683f 00a7 7b3f
000003a0: 2be0 7d3f 490e 6e3f 8f91 7d3f 2509 763f
000003b0: 420c 803f 004e 803f b45c 803f fc6a 803f
000003c0: 4133 803f 0812 7f3f 3b6d 7f3f 8503 7f3f
000003d0: a750 803f cd71 803f 4f37 7f3f 007c 803f
000003e0: 916c 7f3f cbc8 7e3f 4bb2 7e3f 8413 7f3f
000003f0: ffba 7a3f caef 743f 2b02 7c3f 58e4 7c3f
0.95877934 0.9677336 0.96286756 0.9142294 0.97922623 0.984372 0.98110443 0.92377853
0.98178566 0.9865001 0.96065587 0.9928303 0.838474 0.99031335 0.9975154 0.98535913
0.9834872 0.8717806 0.9761399 0.97485 0.9973817 0.9983696 1.0005324 0.9971274
1.0004202 1.001468 1.0016675 1.0037721 1.0016261 1.0001318 1.0020769 0.99892473
1.0032223 1.0040053 0.9982919 1.0024735 0.9705177 0.9732367 0.9514781 0.993958
0.99164855 0.97766304 0.9808895 0.9749885 0.9613157 0.9926387 0.9906514 0.9823817
0.9701747 0.8248118 0.9916843 0.9382429 0.94859016 0.9736632 0.99456584 0.9704912
0.99589586 0.99833757 0.99690765 1.0015002 1.0010747 0.9952523 0.9958041 0.99702346
0.9994683 0.99754184 0.995732 1.002706 0.9978544 0.9994662 0.99537706 1.0031663
0.924065 0.9841559 0.9297443 0.99740064 0.98724824 0.98537624 0.98572767 0.9900239
0.994759 0.99624205 0.97717965 0.985442 0.97466296 0.9413771 0.99009776 0.9410657
0.98117036 0.99390334 0.99318296 0.9970237 1.004807 1.0031196 1.0022898 0.99890435
0.9969693 1.0006856 0.997293 1.0051762 1.0040673 1.0036918 0.99996626 1.0020266
0.998082 0.9969535 0.9976003 1.0015846 0.9295869 0.9183054 0.967908 0.99024695
1.0000929 0.8891968 0.9931582 0.9674789 0.9828351 0.9388222 0.95674914 0.9862979
0.9379878 0.93437463 0.9697911 0.99678904 0.9888854 0.98079824 0.91046005 0.97442144
0.9961991 0.9997376 1.0041124 1.0031048 0.99737364 0.9963934 0.9949593 1.0016638
1.0039114 1.0060701 0.9957145 0.99440336 1.0012497 0.99624234 1.0018523 1.004164
0.95783854 0.9878266 0.9862891 0.97143865 0.98405546 0.9913717 0.98671293 0.9879354
0.9231271 0.98742056 0.97998995 0.9860867 0.9615416 1.0028535 0.985781 0.98843133
0.97096974 0.9909752 0.9843028 0.9410973 1.0013137 1.0038714 0.99874884 0.99695224
0.9961184 1.0020009 1.0007535 0.99847186 1.0044875 0.9969787 1.0036395 0.9945819
1.0055395 0.9985242 1.0029935 0.99985296 0.8815565 0.98481005 0.9344786 0.99595445
0.895097 0.98753214 0.9935748 0.98546356 0.9746873 0.9888395 0.9440513 0.9956979
0.9858843 0.9954402 0.985916 0.96914554 0.9946624 0.984603 0.995194 0.9715478
1.0059881 1.001338 0.9951211 0.99521416 0.9966884 1.0034732 1.0030683 0.9981287
1.0015516 1.0037056 0.9972171 0.9993249 0.9974986 0.9984119 1.00455 1.0042717
0.8920249 0.958257 0.94505036 0.9857168 0.96432006 0.9771909 0.9947829 0.9835513
0.9079089 0.9741076 0.99476755 0.9582322 0.97556853 0.99973136 0.9083658 0.98301697
0.9917018 0.9299055 0.9905023 0.96107703 1.0003741 1.0023804 1.0028291 1.0032649
1.0015641 0.9963689 0.9977605 0.99614745 1.0024613 1.0034729 0.9969377 1.0037842
0.99775034 0.99525136 0.99490803 0.99639153 0.97941583 0.9567839 0.9844081 0.98785925

base.feature_norm.bias f4 [324]
00000000: 66fd 19bd a1e8 e33c 2a34 11bd 6bec 5cbd
00000010: 1efb 87bc f724 14bd d20c 3ebd d42c a5bd
00000020: 51e0 7d3e 1a01 58bc 17d7 01bc 5573 ae3d
00000030: a006 563e 08ca b53c cccd 8ebc bcd0 5e3d
00000040: 1f18 a03c c8d8 ebbd 1f2e 813d 1fad 9abd
00000050: dac0 91bd 7df1 bdbe 1d4f 223e fe7d 94bd
00000060: 2d7a ffbd 3510 2b3e 330a f03c 780f 2a3d
00000070: 1792 a73d 0135 08bf 3a98 d63d a8be 443c
00000080: 06cc 303d 75a1 ab3d 0f66 56bd e61f 763e
00000090: 3d9b 83bc fb78 13bc 60d3 283c 3d58 0e3d
000000a0: c4c7 17bd a2aa d8bd 0c1e f4bc 7f38 06bd
000000b0: 6da2 f83c df9c 2e3d f63a 1c3c 6cae b1bc
000000c0: 4203 a93c 7a40 163d 1357 13be c1b1 8a3c
000000d0: 30de 42bc a5b8 543c 04a8 4dbd 4eb2 99bc
000000e0: df77 8e3e efc7 f1be 14d9 b43e b7f5 59bd
000000f0: f19a f63d 6c70 173e 5acb 10be 4aeb 0a3d
00000100: f3f4 0fbf b144 0abe 9472 19bd 76a7 df3d
00000110: 4278 34bb bd83 78bd d285 6bbd ba7c 063d
00000120: 97cb 89bd 6bf8 103e ec81 00bd 3a62 413d
00000130: 847b 85bb 6cd2 883c 9672 a9bc c16a 7abc
00000140: cce2 0a3d 1c9a b73d b79f ea3d 0f43 9f3d
00000150: 0fbc 6bbd fe4f 653e a441 753b 2052 b9bc
00000160: 919a 5fbc b586 c23c a75c 0bbe 0710 59bd
00000170: 47cf 513d a813 853d ff00 6f3e a187 0d3f
00000180: 7e00 2dbd 0fb8 133f 816d 6a3e b633 a5be
00000190: df43 1fbe f7dd 143d 526f dfbd 0031 e33c
000001a0: e32f 2abe 75f1 b5bd edea 933d 1c36 383e
000001b0: fa09 af3c 5ebc 013d 3869 273d 5d97 a7bc
000001c0: f63a 56bd 6697 00bb 1ab6 a83c 5f8e ce3c
000001d0: 093a 043d e0f9 6cbd 69e6 1bbd 2741 803c
000001e0: a7c3 cf3c 0fe6 bc3c 3b4b fa38 ac63 983d
000001f0: ecb5 a53c 3289 303e 587f 82bb 9daf 31bb
00000200: d7dd a73d 3e98 e9bd 8bf9 563d 3869 c03c
00000210: 27e0 9bbd 4214 b0bd 9a3e a03e a8b5 873e
00000220: 8d9f 523d 19d1 12be 19e9 6f3e c3e1 e7bd
00000230: 8011 e7bd 41b1 ccbc ba68 323e 9c38 973c
00000240: b6f1 ac3c 19a5 a43d 5adb 453b 03e9 633d
00000250: 17fc 97bd 60b5 c53c f061 8cbc 3349 d53c
00000260: f3bc a7bc 0612 353d b000 c83c c227 d93c
00000270: 3219 c3bd 4118 2fbd 3337 433e dfc8 dbbd
00000280: 9e36 bb3d afab f63c 5d4f f6bb 10db 883d
00000290: b40b 933e 000e 273d 2e7b 20bd e307 cfbd
000002a0: f981 e53d e49b b43d 76b2 bc3d af8a 16be
000002b0: fa09 7d3d e75c 5ebe a474 33be 901f a3bd
000002c0: 0a20 a23d 3ee1 e73d 7103 583d b5ce 6f3e
000002d0: 88fd c33c b51d 0e3d 0918 dd3c 2577 08bd
000002e0: 811c 083d 1629 26bd 3d35 19bc 43c0 ed3c
000002f0: 5056 ec3c 2435 54bd 6168 04bd f8b9 013d
00000300: cbd1 b2bd e1b8 dabc 27b1 123d b675 d23c
00000310: 61f5 adbc ccf0 5bbd 57f2 3b3d 9c31 1cbe
00000320: 4c5b c5be 238a 373d ab60 a4bc 726a c6be
00000330: a75a 66bd 5d2f 2f3d 5a1c cf3c ee75 8a3e
00000340: eb0c 063e 18d1 c23d 3aaa 65bd 3c27 60bc
00000350: 371b 1ebb 8bff a0bc 0a35 d53d 5d88 813d
00000360: 2281 493c a681 063d cef8 47be 8335 533d
00000370: 23f3 e9bc a9c5 e73c decd 01bc cf8f bdbc
00000380: bcee 623e bd9c 093e 8552 db3c 936d 21bd
00000390: 7634 fabc adc8 353d d683 933d ecb5 5c3e
000003a0: ac9a 05bd 66ce 2b3c c851 153d f694 083d
000003b0: 30a5 90be 4b38 f53c 1fa9 383c 52ec a63e
000003c0: 5219 833d 46f7 e4bc 358a d8bd 8e4e febc
000003d0: 4587 5e3d b1cb 6b3d e72d 073f dc4a ac3e
000003e0: 9d58 2ebe 38cd 38bd 3bf2 abbd 73ec 6f3e
000003f0: 6993 6fbd 9e8f d43c c00d dd3c 6ed2 6ebc
-0.037595175 0.027820887 -0.03545014 -0.053936403 -0.016599234 -0.036168065 -0.046398945 -0.08065191
0.24792601 -0.013183856 -0.007924817 0.085180916 0.20900965 0.022191063 -0.017432116 0.054398283
0.019542752 -0.11515957 0.06307625 -0.075525515 -0.07116862 -0.37098303 0.15850492 -0.072505936
-0.12474475 0.16705401 0.029301738 0.04151866 0.08182161 -0.5320588 0.10478254 0.012008347
0.043163322 0.08380405 -0.052343424 0.24035606 -0.016065234 -0.009001012 0.010304302 0.03475212
-0.037055746 -0.105794206 -0.029799484 -0.032768723 0.030350888 0.042630073 0.009535542 -0.021689616
0.020631436 0.036682583 -0.14388685 0.016930463 -0.011893794 0.012983476 -0.05020906 -0.01876178
0.2782583 -0.4722285 0.35321867 -0.053212848 0.120412715 0.1478898 -0.14140072 0.033915795
-0.5623314 -0.13502766 -0.037462786 0.109206125 -0.00275375 -0.06067251 -0.057500668 0.032833792
-0.06728285 0.14157264 -0.031373903 0.047212817 -0.004073562 0.0167019 -0.020684522 -0.015284241
0.033907697 0.08964941 0.114562444 0.07776462 -0.057552394 0.22393796 0.0037423158 -0.022622168
-0.013647691 0.023745874 -0.13609563 -0.0529938 0.051223066 0.0649789 0.23340224 0.5528508
-0.042236798 0.57702726 0.22893335 -0.32266015 -0.15553235 0.036344495 -0.109099045 0.027733326
-0.1661983 -0.08883945 0.07222543 0.17989391 0.021367062 0.03167378 0.04087183 -0.020457918
-0.052302323 -0.001962149 0.020594645 0.025214372 0.03228191 -0.057855487 -0.038061533 0.015656067
0.025361849 0.02305892 0.00011934942 0.07440886 0.020228349 0.17239836 -0.0039824657 -0.002711273
0.081966095 -0.11405991 0.052484076 0.023487672 -0.07611113 -0.08597614 0.3129776 0.2650578
0.05142169 -0.14337577 0.23428763 -0.113223575 -0.11282635 -0.024986865 0.17422763 0.01845961
0.02111135 0.080393024 0.0030190558 0.05564214 -0.07421129 0.024134338 -0.017136544 0.02603588
-0.02047584 0.04420664 0.02441439 0.026508216 -0.0952629 -0.04274774 0.19064026 -0.107316725
0.09141277 0.030111162 -0.007516785 0.06682408 0.28719866 0.040784836 -0.039179973 -0.10108926
0.11206431 0.08818796 0.09213726 -0.14701341 0.061777093 -0.21715127 -0.17524964 -0.079650044
0.07916267 0.113222584 0.052737657 0.23418696 0.023924604 0.0346963 0.026989 -0.03331675
0.03323031 -0.040566526 -0.009351072 0.029022342 0.02884975 -0.05180849 -0.032326106 0.031671494
-0.08731421 -0.026699485 0.035813477 0.025690895 -0.02123517 -0.05369644 0.04588541 -0.152533
-0.38546216 0.04480947 -0.020065626 -0.38753086 -0.056238797 0.04276978 0.025282074 0.27043098
0.13090865 0.09512538 -0.056070544 -0.013681229 -0.0024125108 -0.019653102 0.10410507 0.06324837
0.012298854 0.032838486 -0.19528505 0.051564705 -0.02855832 0.028292494 -0.007922618 -0.023139862
0.22161382 0.13438697 0.026772747 -0.03941114 -0.030542593 0.044380832 0.0720288 0.21553773
-0.03261821 0.010486221 0.036454946 0.033345185 -0.28251028 0.02993407 0.01127079 0.32602173
0.06401314 -0.02794994 -0.10573236 -0.031043317 0.05432822 0.057567302 0.52804416 0.33650863
-0.17025991 -0.045117587 -0.08395811 0.23430042 -0.05849019 0.025947388 0.026984096 -0.014576538

base.mlp.fc1.0.weight f4 [64, 324]
00000000: 58f9 a03d f3b5 f33d da18 46bd b17e f8bd
00000010: 87a2 5c3d 0770 143e cacd a2bd b0b2 4dbe
00000020: 14d5 ea3c 7805 16bd 8e66 82bd 60bd 983d
00000030: 2317 7c3e cb39 49be df7f adbc 321a 32bd
00000040: 4e47 83bb 7379 acbd 7176 6abd d674 923d
00000050: fc0d b4bd 0a41 f7bd cc29 763e 0fe7 833d
00000060: 3c62 7d3d 57be 0e3e 99a1 4e3d 1c42 43bd
00000070: e781 553e 0efd 43be 390f d53d 6633 81bd
00000080: 03a3 d73d b16c e73d 5791 1a3e 71d4 273d
00000090: 9f26 613b 10cc 273e 37f0 d6bc 2f10 993d
000000a0: fecb 6ebc 8bba d1bd afc6 96bd a5af 83bc
000000b0: 274a a2bd 464b 463e 2eb4 b53d e35c 133e
000000c0: 2ddd 6dbd c950 0e3e 3fc8 05bd 685a 41be
000000d0: f9cd e13d f817 713c db76 8cbd f2ed 2c3b
000000e0: 5814 9a3d 9216 24be 350d 8c3e fb06 eb3c
000000f0: 9148 74bc 2984 2d3e 64ab ccbd cf8b 353c
00000100: 6afd ccbd cb1c 36bd 3159 0c3b 9cdc cfbc
00000110: d986 a83c 2a78 7c3d ebbb ba3d 2a9a cd3c
00000120: b31f 2e3d d73a a03d d1a7 3f3d 6076 013e
00000130: d67a 25be 7524 bcbd 9348 98bd d374 00bd
00000140: fe4f 0ebd 3fb9 9c3d e767 65bd c460 1d3b
00000150: aa71 35bc 2335 31be 5e7a 373d c310 a9bd
00000160: 4280 b93d 3f37 9a3d d75a 6ebc 4538 f43d
00000170: f01d 843d 721f f73d 60cd 463e 4bf0 da3d
00000180: bffb 043e da3d 093e 5dcc 0c3e d953 9dbe
00000190: 4c1f 93bd d6c1 4f3e 1cd8 26be 84f3 b1bd
000001a0: 874e 22be 8bea 58bd 3c25 7dbc d48a 943e
000001b0: f01e 98bd 3c19 243d d264 7d3e f562 96bc
000001c0: 6b46 203d 39b6 c73d 30d5 debb 426b f9bd
000001d0: 5ce8 873d 9461 a93d d5e8 01be f0d7 62bd
000001e0: 95a3 823d 19b3 1a3e 72a0 a93d 28cf 34bd
000001f0: 3dd0 1b3d acd1 a9bd fafc 45bd fedc 7fbd
00000200: 58f4 abbc 399f 9a3d 9d73 413e b7a1 153e
00000210: 770e 73bd 054f 6fbe 885a 353e 3371 2b3d
00000220: e1d7 8d3d b145 6cbd 0317 863d 3b75 68bd
00000230: 2fd9 413d 5d33 86bd ffe4 483e 53ac 1bbe
00000240: 3d0c bf3c b53f d03d 18d9 2c3d 9ace cf3c
00000250: ba95 f23d 3bd9 6a3d c931 073d efd8 1c3d
00000260: 4942 3bbd a63a 2eba 7164 b9bc 5978 cf3c
00000270: a03c ffbd 5bbe 193d 33d1 f13d 49ea a33d
00000280: 4770 92bc 3580 fa3d 2237 87bc 19ce 39be
00000290: d6ad d13d 1dad e8bd 37d4 3ebe e0e6 e6bc
000002a0: 5bb0 a83c eaea dd3d 1aec c5ba 06bf 2d3c
000002b0: 0e3c be3a 7a77 4abc d492 3fbe 593b e6bc
000002c0: b140 c33d c79b a73d f5c6 723d 14d4 4c3d
000002d0: 7222 043e 7490 07bb 7c3e d43c 8aa7 1dbe
000002e0: 18a9 db3d 5a29 613d d47f 993d 64dd 8c3d
000002f0: 1388 0ebd 3941 e7bd 9303 253d 4ff9 a63c
00000300: c4dd b33b 916a 74bc 3671 8abc b90f f13d
00000310: b9cf 7ebd 0ed9 d7bd 3494 343e 9671 40bd
00000320: bb28 57be 8030 d33c dba9 bfbd 8b52 81be
00000330: 615c 2d3b 8a7d a33d 4a72 4dbd 78cc 4dbe
00000340: 97ff f03d f779 9b3e f90b dfbb fb2c b2bd
00000350: 3d69 533b 42d5 ec3d ba01 e13d 3b02 d73d
00000360: 7eb0 61be 78e2 173e 4004 c83c 031c 92bd
00000370: 8cb3 6a3d 63c2 aabd 5dac cbbd 27f6 d93d
00000380: 5154 a03b a67b 543e 8b10 443d eab5 253b
00000390: 07fd 803d 61aa dcbd 94b2 883d 26b9 243c
000003a0: fafe c0bd 612b 33bc 6673 b83d 728a 7abd
000003b0: 6faf 67be 911b 4e3d e41b 5dbd cc81 b53d
000003c0: e9a8 22bd 1030 f03c 7a6d 98bd 0b5b 193c
000003d0: 5db8 683c c904 363e 21f5 3c3e 1b2b a13d
000003e0: 4115 2bbe 2de1 aebd a7c2 1dbd 320b df3d
000003f0: 85c6 cabb 85ba b3bd be0f 0dbd cc2e eabc
0.078600585 0.118999384 -0.048363544 -0.121335395 0.053865936 0.1449586 -0.079494074 -0.20087695
0.028666057 -0.03662631 -0.06367217 0.074579954 0.24618201 -0.19650953 -0.021179138 -0.043482013
-0.004006303 -0.08421602 -0.05724186 0.07151191 -0.0879173 -0.12072952 0.24039382 0.06440555
0.06186126 0.13939796 0.05044708 -0.04767047 0.20850335 -0.19139501 0.10403294 -0.063086316
0.10529139 0.11300028 0.15094505 0.040974084 0.0034355295 0.16386437 -0.02623759 0.0747379
-0.014575003 -0.102406584 -0.07362115 -0.016074965 -0.079243 0.19364652 0.08872257 0.14390902
-0.058072258 0.13898005 -0.032661673 -0.18882143 0.11025614 0.014715187 -0.068586074 0.0026386944
0.075234115 -0.16024235 0.27353826 0.028689852 -0.014909879 0.16944946 -0.09993628 0.011080696
-0.100092724 -0.044461053 0.0021415467 -0.02537375 0.020572113 0.061638035 0.09117874 0.025097925
0.0425107 0.07823723 0.0467909 0.12642813 -0.1616014 -0.09186641 -0.074357174 -0.031361412
-0.034744255 0.076525204 -0.056007292 0.0024013976 -0.011074463 -0.17305426 0.044794433 -0.0825515
0.09057666 0.075300686 -0.014548025 0.11924795 0.064510226 0.120665446 0.19414282 0.106903635
0.12986659 0.13402501 0.13749833 -0.30728033 -0.07183704 0.20288786 -0.16293377 -0.08689025
-0.15850268 -0.052958053 -0.015450772 0.29012167 -0.07427776 0.040063128 0.24745491 -0.018357733
0.039129656 0.09751553 -0.0068003163 -0.12178661 0.06636116 0.08270565 -0.12686475 -0.055381715
0.06378857 0.15107383 0.08282556 -0.044142872 0.03804039 -0.08291945 -0.04833696 -0.062466614
-0.020990536 0.075499006 0.18891759 0.1461247 -0.059339967 -0.23369987 0.17710316 0.041856002
0.06925941 -0.05768365 0.06547358 -0.056752425 0.047326263 -0.065527655 0.19618605 -0.15202455
0.023321265 0.10168401 0.042199224 0.02536707 0.11844964 0.057336073 0.033006463 0.03829282
-0.04571751 -0.00066463125 -0.022630902 0.02532594 -0.12462735 0.037535053 0.1180748 0.08003671
-0.017875804 0.12231485 -0.016505782 -0.18145026 0.10238235 -0.11361144 -0.18635641 -0.028186262
0.020591905 0.10835822 -0.0015100271 0.010604626 0.0014513747 -0.012357587 -0.18708354 -0.028104471
0.09533823 0.08184009 0.05927177 0.05000694 0.12903765 -0.0020685466 0.025908701 -0.15395942
0.107256114 0.054971077 0.074950844 0.068781644 -0.03479774 -0.11291737 0.04028661 0.020382551
0.005489083 -0.014917986 -0.016899686 0.11770577 -0.06220982 -0.10539447 0.1763466 -0.046983324
-0.21011631 0.025779963 -0.09358569 -0.25258288 0.0026452767 0.07982929 -0.050157823 -0.2009753
0.117675 0.3036649 -0.006806847 -0.086999856 0.0032258772 0.11564113 0.109866574 0.10498472
-0.22039983 0.14832485 0.024416089 -0.07134249 0.057300135 -0.083378576 -0.09944985 0.10642653
0.004892864 0.20750293 0.04786734 0.0025285431 0.06298261 -0.10774685 0.06674686 0.010053908
-0.09423633 -0.010935635 0.090063855 -0.061167188 -0.22625516 0.050319258 -0.053981677 0.088626474
-0.039711867 0.029319793 -0.07442756 0.009360085 0.014204112 0.17775263 0.18452884 0.0786955
-0.16707326 -0.085390426 -0.038515713 0.10890807 -0.006188216 -0.0877581 -0.03443884 -0.028586768

base.mlp.fc1.0.bias f4 [64]
00000000: 672e 8c3d e294 98bd a247 0bbd d209 66bc
00000010: 75c0 3ebe 6140 393d b9bb 0f3d ef77 9c3c
00000020: 8c07 71bd 2793 00be 03f6 d4bc 58ba 1c3d
00000030: 688c 423d a256 a0bd c4fa 9cbd 3912 d43c
00000040: 8190 3d3c 1358 0dbd 4d82 e5bc d6a7 0d3e
00000050: 4857 ccbd 8280 8fbd 5ec6 023d d7ba 543c
00000060: 902f 5ebd 19f0 9abd 12dc 913c 9f56 25bd
00000070: 1429 9e3c 159c 79bd 53d3 1c3d 4ebe 543b
00000080: d87a 1d3a 6539 0dbd d587 78bd 9f86 34bd
00000090: af3b 8b3d ded3 f73c ab4a 6f3e f97c 63bd
000000a0: d247 5c3e c604 04bd 6b7e 743d c605 62bc
000000b0: 58fd b33d c069 0e3d 1b6a 23bd da83 f3bc
000000c0: de38 043e 0f35 3bbd c9af 933c 16b9 653e
000000d0: 05ae c1bd 1254 ee3c a6c6 cb3c c875 56bd
000000e0: 6e27 153d def4 0b3d 789d b63c 3a20 8e3c
000000f0: c679 9c3c edc6 3fbd b5d8 97bc 2384 5c3c
0.06844788 -0.07450272 -0.03400386 -0.014040427 -0.18628104 0.045227412 0.035091136 0.019100158
-0.058845088 -0.12556134 -0.025996214 0.03826365 0.047497183 -0.07829024 -0.07665017 0.025887595
0.011570097 -0.034507822 -0.028016234 0.13833556 -0.09977585 -0.07006933 0.03192746 0.012983999
-0.054244578 -0.07565326 0.017805133 -0.04036581 0.019306697 -0.060939867 0.038287472 0.0032462063
0.000600738 -0.034478564 -0.060676415 -0.044073697 0.06798493 0.030252393 0.23368327 -0.055539105
0.21511772 -0.032231115 0.059690874 -0.013795322 0.08788556 0.03476882 -0.039896112 -0.029725958
0.12912318 -0.045704897 0.018028157 0.22433886 -0.0945702 0.029092822 0.024874996 -0.05235842
0.036414556 0.03416907 0.022291884 0.017349351 0.019101035 -0.04682057 -0.018535951 0.013459238

base.mlp.fc1.2.weight f4 [64]
00000000: 23d3 863f 358a 9e3f f329 7d3f 1df5 753f
00000010: fc72 833f 1f24 843f 7b37 833f 8db5 2e3f
00000020: 113b 723f 3f95 863f e116 6b3f f92d 7f3f
00000030: b6da 813f f09c 693f b32c 703f 9ba9 6a3f
00000040: e529 7a3f 6e39 823f efbf 743f 6379 783f
00000050: a813 9a3f 7684 6f3f 57d8 853f 0b98 6d3f
00000060: b8fc 7f3f 41e6 753f f13f 7c3f d27a 873f
00000070: dffe 683f f6a2 5b3f c95d 7b3f 5f2b 4c3f
00000080: 8f47 753f 35a7 753f bb83 823f 8839 d03f
00000090: 560e 863f ad2f 823f f1f6 b33f ebf4 3f3f
000000a0: a89d 883f 9bd0 813f 3bcf 823f 2952 583f
000000b0: e91a 923f 682d 783f 5730 813f 1b07 6c3f
000000c0: 4999 7e3f ead5 623f b2ed 753f 2ed6 853f
000000d0: 2d21 803f 36e2 663f 3bcf 893f 2f5f 893f
000000e0: b942 7b3f a281 373f 5654 733f 353f 5e3f
000000f0: 2a0e 7d3f 9f27 863f 5fab 713f b917 4c3f
1.0533184 1.2385927 0.98892134 0.9607714 1.0269465 1.0323523 1.0251306 0.68245775
0.9462138 1.0514296 0.91831785 0.99679524 1.014487 0.9125509 0.93818206 0.9166505
0.97720176 1.0173776 0.9560537 0.9706022 1.2037249 0.93561494 1.0456647 0.92810124
0.99994993 0.96054465 0.98535067 1.0584357 0.910139 0.85795534 0.9818998 0.7975368
0.95812315 0.9595826 1.0196451 1.6267557 1.0473125 1.01708 1.4059736 0.7498309
1.0673113 1.0141786 1.0219492 0.84500366 1.1414462 0.96944284 1.0092877 0.9219834
0.99452645 0.88607657 0.9606582 1.0455987 1.0010124 0.9018892 1.0766367 1.0732173
0.98148686 0.7168218 0.9505056 0.86815196 0.9884974 1.0480841 0.94402117 0.797237

base.mlp.fc1.2.bias f4 [64]
00000000: 260f 453d 7eb2 a5bd 3bab b6bc e054 56bc
00000010: 852d 84bd 1630 c73d 5c7c 3d3d 42ad e93c
00000020: b33d aebd 4ef7 b3bd a50d 3fbd 67cc 013d
00000030: 3e08 4e3d 676b a6bd 8b51 f3bd 0743 7f3c
00000040: 456d 503c dc4e 2fbd 8d79 2dbd c65c c83d
00000050: fba9 c4be 3b09 52bd d8f4 553d 33db d23b
00000060: 5f7a 8ebd 50c1 44bd e7d7 f43b b198 63bd
00000070: 3564 b33c e1c3 4fbd 5ad1 353e 68e6 01bc
00000080: abc2 55bc 215e 0fbe a1bb 22be fc56 e2bd
00000090: 9015 653e 7d90 423d aff6 d13e b740 adbc
000000a0: fa60 be3e ab3d 49bd a9fe ca3d eabb 6bbc
000000b0: 30d1 8d3e aa15 0d3d 65c3 25bd 2252 84bc
000000c0: 695e 553e cc34 73bd d4ca 953c 1288 9e3e
000000d0: f3d9 86bd b448 ba3c 89b4 633d 824e b3bd
000000e0: 078a 733d 91e3 633d de21 ff3c f593 c73c
000000f0: 24b1 103d 9d77 77bd abc8 7cbc 2526 b83c
0.04811015 -0.08090685 -0.022298446 -0.013081759 -0.06453995 0.097259685 0.046261176 0.028524999
-0.08507862 -0.08787404 -0.04664387 0.031689074 0.05030083 -0.08125954 -0.118807875 0.015579945
0.012721364 -0.042799816 -0.042352248 0.0978332 -0.38410935 -0.051278334 0.052235454 0.006434822
-0.06956934 -0.04803592 0.0074720266 -0.05556554 0.021898368 -0.050723914 0.17755643 -0.007928468
-0.013046901 -0.14000751 -0.15891887 -0.11051747 0.22371507 0.047501076 0.41008517 -0.021149023
0.37183362 -0.049131077 0.09911854 -0.014388064 0.2769866 0.03444449 -0.040469546 -0.016152445
0.20836796 -0.059376523 0.018285193 0.30963188 -0.06584539 0.022739746 0.055592094 -0.087552086
0.059457805 0.055636946 0.031144079 0.024362544 0.035325184 -0.060416806 -0.015428702 0.022479126

base.mlp.fc_h.0.weight f4 [64, 64]
00000000: 06b4 af3e ed42 25bd d50f 283f eecd 433c
00000010: 13bf a3be d80b 91be 99bc af3d fbde e13c
00000020: adee 1fbe cb1f 89be 428e 94bd 265f c7be
00000030: 44e7 e5bd ee97 77bd e007 b43d 4786 6cbe
00000040: 3fcc 393d 3d8e 033e 1abb 90be a953 2ebe
00000050: a7a1 443e 0ed6 c33d 555d 143e 27e5 8ebd
00000060: e3cb 5dbd a6f7 6b3c 966a 2dbe 7300 0dbd
00000070: 9d87 9abe 8b43 a7be edc3 f33d b3f0 1c3e
00000080: c012 04bd bf7f 413c 7dc5 a33e ded2 823e
00000090: d211 dfbc e7c9 833b 3cb0 ccbd 4f88 02bd
000000a0: 0fa0 0abe f50d a13e 0b1d 213e 6d43 9bbe
000000b0: 0976 d03e c486 b23d 3429 973e b2a3 acbd
000000c0: 4684 6ebc 293d 60be b207 9abd 437c 343d
000000d0: 07d2 903d ea27 8ebe 08df c9be 7ae0 10be
000000e0: 37fe 493d 42ce 34be 21eb 0cbe a135 65be
000000f0: f5a7 a8bb d59f 363d 365b 02be 39e3 b2be
00000100: 4261 253e 2d81 dd3e 4420 23be 17db 273e
00000110: e1aa e2bb 55c6 41be c766 63bd 9a67 bbbe
00000120: a08c 613e 28b9 62be bf89 14be 8903 2c3d
00000130: b264 433d adb4 e1bd 9153 42be 103e 53bd
00000140: 1470 01be 8167 b3bd 7284 44be 1369 e2bc
00000150: 6395 96be 3853 97be 82c7 a2bb 75b2 53be
00000160: e6f2 0b3e 2a26 57be c9c8 d63e e41d 2fbe
00000170: 9e02 083e 3476 91bd 62ea ae3d 8f6e b5be
00000180: 7ea5 44be 56e6 f43a 0ebc 90be a800 5a3c
00000190: a3dc b8bd 43d9 123e 44c8 303e 1e06 f5bc
000001a0: 3f3f b03e d549 fa3d 9566 ab3d bbd0 14bc
000001b0: 5e60 023f ab8c b8be 1cf0 c63d f81a a3be
000001c0: 6845 b73c b380 d0bc c954 343d acdb 2bbd
000001d0: 216b df3e 6769 843d a2ad 1c3d fab8 ef3d
000001e0: 63db 0abe e2f2 ccbe 1ee2 923e 9758 49be
000001f0: 0d35 5b3e 5357 823e 60e9 143e 4873 183d
00000200: 056e 91be adfd e0bd 67e0 3bbc beda abbe
00000210: a6e0 0dbe 5e2c 483d 6124 723e b38e 9dbd
00000220: 3f95 9bbe cb82 3c3d a3ca 3cbe 4516 f03d
00000230: 8435 e9be 7703 96be 701e 103e 5790 bd3d
00000240: 13bb a53b 0301 d53d 1612 8dbe b164 aa3e
00000250: 4e78 c2bd 7b18 08bd e77a 66be eb7c 713c
00000260: 25ae 5c3e 6548 77be 0f41 5f3e cb2f 343e
00000270: 4066 4d3d 9a17 1ebe aa35 b8be 3eb0 bfbe
00000280: 55a0 853d 24a4 7b3b d03a 823e 1280 a53d
00000290: 8164 43be e103 d03e 74e0 ce3b 4440 193e
000002a0: bfe0 f3bd 6f21 a3be 3813 53be ab0c 94bd
000002b0: 5f1b 50be d1bb afbd 8c01 c53d 250e bdbe
000002c0: e94e 82be a5c4 0cbe f166 83bd b316 8dbc
000002d0: 069b d9bd d65c 0e3e 65b0 01be 588a 653e
000002e0: 9dc4 593e 7d66 1abe bfe1 a1be 0406 3a3c
000002f0: dc40 a4be 6082 563e dcee 7a3e e9ac 87be
00000300: 7bea f63d dc1f 81bd 721b 17be 96cb 6bbd
00000310: e245 90bd d21c f33d b9e4 aa3d 4232 36bd
00000320: 1131 543e d1af 1abe 26ce 5dbe 439d a13d
00000330: 70de c83e 6174 a0be a226 e2be ced4 003d
00000340: b8e8 2a3c db10 453e efa1 453d 3c0e 82be
00000350: aef1 cc3d 6e19 293d 282b 08be 309e 66bd
00000360: fb2b 51be 30c4 9cbd b037 d6bc f84d b5bd
00000370: 8648 4b3e 90a6 0cbd ee72 d03e bbfc 39be
00000380: 891f 6bbe 61e0 083e f830 ac3e 2554 04be
00000390: f239 05bf fee8 ccbd 340e 093e 7ec2 06bf
000003a0: 68b4 cfbe c931 cdbd 358d 4dbd 9b78 303c
000003b0: b05e 2a3e b42a 2b3e 5b47 2ebe d128 db3c
000003c0: 5620 e1bc a263 bbbd 67cc 853e 9c72 f5bd
000003d0: 05e2 6fbe f7a8 d0bd bbea 483c a996 713e
000003e0: 8b32 c23e 61cc d0bd d109 2cbd 3529 72bd
000003f0: 5418 99be a8fd acbe 1b42 943e 4e7d bc3d
0.34317034 -0.04034703 0.6564916 0.011950953 -0.31981716 -0.2832935 0.08580894 0.027572146
-0.15618391 -0.2678207 -0.07253696 -0.3893978 -0.11225751 -0.060447626 0.087905645 -0.23098098
0.0453608 0.12847228 -0.28267747 -0.17024101 0.1920229 0.09562312 0.14488728 -0.06977301
-0.05414952 0.014402306 -0.1693519 -0.034424257 -0.3018159 -0.3266872 0.11902604 0.15326194
-0.032244444 0.011810242 0.3198661 0.25551504 -0.027230177 0.0040218714 -0.099945515 -0.031868275
-0.1353762 0.3145596 0.15733735 -0.3032488 0.40715054 0.08717111 0.29523623 -0.0842966
-0.014557904 -0.21898331 -0.07520999 0.044063818 0.070713095 -0.27764827 -0.39427972 -0.14148131
0.049314704 -0.17656806 -0.1376157 -0.22383739 -0.005146975 0.04458602 -0.12730107 -0.34938982
0.16150382 0.43262616 -0.15930277 0.1639217 -0.006917343 -0.18923314 -0.055517938 -0.3660248
0.220263 -0.22140944 -0.14505671 0.04199556 0.047703452 -0.11020789 -0.1897719 -0.05157286
-0.1264041 -0.08759976 -0.19191149 -0.027637994 -0.29410848 -0.29555678 -0.004967631 -0.20673545
0.13666877 -0.21010652 0.41950062 -0.17101246 0.13282248 -0.071026236 0.08540799 -0.35435912
-0.19203755 0.0018684368 -0.28268474 0.0133058205 -0.09026458 0.14340691 0.17263895 -0.029910143
0.34423253 0.122211136 0.08369175 -0.009082968 0.50928295 -0.3604482 0.09713766 -0.31856513
0.022371963 -0.025451994 0.04402617 -0.041957542 0.4363642 0.064654164 0.038251527 0.11705203
-0.13560252 -0.40029055 0.2868814 -0.196627 0.21406956 0.25457248 0.1454215 0.037219316
-0.2840425 -0.10985885 -0.011467076 -0.33565325 -0.13855228 0.048870437 0.2364669 -0.07693233
-0.30387303 0.04602317 -0.18436675 0.117229976 -0.45548642 -0.29299518 0.14074111 0.09256046
0.0050577014 0.104005836 -0.2755286 0.33279946 -0.094956025 -0.03322647 -0.22507821 0.014739255
0.21550806 -0.2414871 0.21802162 0.17596357 0.05014634 -0.15438691 -0.35978442 -0.3743915
0.065247215 0.0038397396 0.25435495 0.08081068 -0.19081308 0.4062796 0.006313378 0.14965922
-0.11908101 -0.31861445 -0.206128 -0.07228979 -0.20322941 -0.08580745 0.09619436 -0.36924854
-0.2545083 -0.13746889 -0.06416119 -0.017222738 -0.106252715 0.13902602 -0.12664945 0.22416055
0.21266408 -0.15078159 -0.31617543 0.011353973 -0.32080734 0.20948172 0.2450518 -0.26499107
0.12056442 -0.06304905 -0.14756563 -0.0575672 -0.07044579 0.118707314 0.08344407 -0.044481523
0.20721842 -0.15106131 -0.2166067 0.078913234 0.39232206 -0.3133879 -0.441701 0.031452946
0.010431461 0.19244711 0.048250135 -0.25401485 0.10007034 0.041284017 -0.13297713 -0.056303203
-0.20426933 -0.07654607 -0.0261496 -0.08852762 0.19851884 -0.034338534 0.40712684 -0.18162815
-0.22961248 0.13366844 0.3363111 -0.12922724 -0.5204154 -0.10005377 0.13384324 -0.5264052
-0.40567327 -0.100192614 -0.050183494 0.010770942 0.16637683 0.16715509 -0.17019407 0.026752861
-0.02748124 -0.09149863 0.2613251 -0.11984751 -0.23426063 -0.101884775 0.012262995 0.23592629
0.37929186 -0.10195232 -0.04200155 -0.05912133 -0.29901373 -0.33787274 0.28956684 0.092035875

base.mlp.fc_h.0.bias f4 [64]
00000000: 0000 0000 0000 0000 0000 0000 0000 0000
00000010: 0000 0000 0000 0000 0000 0000 0000 0000
00000020: 0000 0000 0000 0000 0000 0000 0000 0000
00000030: 0000 0000 0000 0000 0000 0000 0000 0000
00000040: 0000 0000 0000 0000 0000 0000 0000 0000
00000050: 0000 0000 0000 0000 0000 0000 0000 0000
00000060: 0000 0000 0000 0000 0000 0000 0000 0000
00000070: 0000 0000 0000 0000 0000 0000 0000 0000
00000080: 0000 0000 0000 0000 0000 0000 0000 0000
00000090: 0000 0000 0000 0000 0000 0000 0000 0000
000000a0: 0000 0000 0000 0000 0000 0000 0000 0000
000000b0: 0000 0000 0000 0000 0000 0000 0000 0000
000000c0: 0000 0000 0000 0000 0000 0000 0000 0000
000000d0: 0000 0000 0000 0000 0000 0000 0000 0000
000000e0: 0000 0000 0000 0000 0000 0000 0000 0000
000000f0: 0000 0000 0000 0000 0000 0000 0000 0000
0.0 0.0 0.0 0.0 0.0 0.0 0.0 0.0
0.0 0.0 0.0 0.0 0.0 0.0 0.0 0.0
0.0 0.0 0.0 0.0 0.0 0.0 0.0 0.0
0.0 0.0 0.0 0.0 0.0 0.0 0.0 0.0
0.0 0.0 0.0 0.0 0.0 0.0 0.0 0.0
0.0 0.0 0.0 0.0 0.0 0.0 0.0 0.0
0.0 0.0 0.0 0.0 0.0 0.0 0.0 0.0
0.0 0.0 0.0 0.0 0.0 0.0 0.0 0.0

base.mlp.fc_h.2.weight f4 [64]
00000000: 0000 803f 0000 803f 0000 803f 0000 803f
00000010: 0000 803f 0000 803f 0000 803f 0000 803f
00000020: 0000 803f 0000 803f 0000 803f 0000 803f
00000030: 0000 803f 0000 803f 0000 803f 0000 803f
00000040: 0000 803f 0000 803f 0000 803f 0000 803f
00000050: 0000 803f 0000 803f 0000 803f 0000 803f
00000060: 0000 803f 0000 803f 0000 803f 0000 803f
00000070: 0000 803f 0000 803f 0000 803f 0000 803f
00000080: 0000 803f 0000 803f 0000 803f 0000 803f
00000090: 0000 803f 0000 803f 0000 803f 0000 803f
000000a0: 0000 803f 0000 803f 0000 803f 0000 803f
000000b0: 0000 803f 0000 803f 0000 803f 0000 803f
000000c0: 0000 803f 0000 803f 0000 803f 0000 803f
000000d0: 0000 803f 0000 803f 0000 803f 0000 803f
000000e0: 0000 803f 0000 803f 0000 803f 0000 803f
000000f0: 0000 803f 0000 803f 0000 803f 0000 803f
1.0 1.0 1.0 1.0 1.0 1.0 1.0 1.0
1.0 1.0 1.0 1.0 1.0 1.0 1.0 1.0
1.0 1.0 1.0 1.0 1.0 1.0 1.0 1.0
1.0 1.0 1.0 1.0 1.0 1.0 1.0 1.0
1.0 1.0 1.0 1.0 1.0 1.0 1.0 1.0
1.0 1.0 1.0 1.0 1.0 1.0 1.0 1.0
1.0 1.0 1.0 1.0 1.0 1.0 1.0 1.0
1.0 1.0 1.0 1.0 1.0 1.0 1.0 1.0

base.mlp.fc_h.2.bias f4 [64]
00000000: 0000 0000 0000 0000 0000 0000 0000 0000
00000010: 0000 0000 0000 0000 0000 0000 0000 0000
00000020: 0000 0000 0000 0000 0000 0000 0000 0000
00000030: 0000 0000 0000 0000 0000 0000 0000 0000
00000040: 0000 0000 0000 0000 0000 0000 0000 0000
00000050: 0000 0000 0000 0000 0000 0000 0000 0000
00000060: 0000 0000 0000 0000 0000 0000 0000 0000
00000070: 0000 0000 0000 0000 0000 0000 0000 0000
00000080: 0000 0000 0000 0000 0000 0000 0000 0000
00000090: 0000 0000 0000 0000 0000 0000 0000 0000
000000a0: 0000 0000 0000 0000 0000 0000 0000 0000
000000b0: 0000 0000 0000 0000 0000 0000 0000 0000
000000c0: 0000 0000 0000 0000 0000 0000 0000 0000
000000d0: 0000 0000 0000 0000 0000 0000 0000 0000
000000e0: 0000 0000 0000 0000 0000 0000 0000 0000
000000f0: 0000 0000 0000 0000 0000 0000 0000 0000
0.0 0.0 0.0 0.0 0.0 0.0 0.0 0.0
0.0 0.0 0.0 0.0 0.0 0.0 0.0 0.0
0.0 0.0 0.0 0.0 0.0 0.0 0.0 0.0
0.0 0.0 0.0 0.0 0.0 0.0 0.0 0.0
0.0 0.0 0.0 0.0 0.0 0.0 0.0 0.0
0.0 0.0 0.0 0.0 0.0 0.0 0.0 0.0
0.0 0.0 0.0 0.0 0.0 0.0 0.0 0.0
0.0 0.0 0.0 0.0 0.0 0.0 0.0 0.0

base.mlp.fc2.0.0.weight f4 [64, 64]
00000000: f339 943e 103b 58bc e58b 273f af29 0c3c
00000010: 127e 99be 9053 9abe 21ac 973d ba81 6d3c
00000020: 33fc 16be ffde 77be 1952 96bc 9a2d cdbe
00000030: 99ab febd 42b4 91bb 9714 ac3d 7fff 81be
00000040: 2548 1e3d 7bae 2a3e f19d 81be 9ec6 35be
00000050: 59e9 743e 8460 cb3d 594a b73d f362 8abd
00000060: 6a07 f1bc cfdf 153c 8336 36be 9e83 96bc
00000070: e321 95be 52fa a6be 7ea6 ba3d 1ef5 233e
00000080: 50e9 0dbd 4d06 043d eda3 ab3e ba15 a23e
00000090: 88b5 61bd aa08 0fbd d58e 17be e7ee 0ebc
000000a0: 255f 21be 3466 a33e 7d0f 0e3e 7d87 8abe
000000b0: 2f81 003e 7593 933d 9fad 9c3e 1e08 22bd
000000c0: e01d 75bd 0658 18be 91c7 96bd f8b1 5ebc
000000d0: 0c56 b63d e9a3 92be 3dc4 0abf 112a c4bd
000000e0: f4a1 f83c fa42 35be 5be1 1ebe 69e3 68be
000000f0: 3378 e2bb 438f b03d e2b6 03be fd9b afbe
00000100: 488e 303e 05f1 cf3e 0eef 2dbe ccc3 263e
00000110: 8751 b7bc a015 1abe 7bec 15bd a680 bfbe
00000120: 9ffa 513e 002f 84be 2f87 14be 41e3 7f3d
00000130: 608a 853d 6c55 f6bd e2e7 48be 9b62 35bd
00000140: 2c4d f1bd 2932 fabd 4596 4bbe 9c1c 65bc
00000150: 4488 a0be da60 9dbe 7886 a03b 0cd7 12be
00000160: 67c8 af3d 1158 6cbe 53a5 d43e c845 41be
00000170: 2149 0b3e 17c7 8fbd 8ae1 cb3d ae43 aebe
00000180: d592 38be 75f9 95bd 3d68 9cbe 32ed a2bd
00000190: 4970 a0bd 29c4 263e eece 663e ac35 09bd
000001a0: ab70 c73e 7e27 d33d 94de df3d 75c8 e2bc
000001b0: 6493 0b3f 4670 b5be 41b6 4d3d 70e1 a6be
000001c0: 619a 6e3d 3cd7 00bd da23 093d 0a64 3a3d
000001d0: f883 cd3e 778f 8d3d 974f 973d eb1c ab3d
000001e0: 7ddb f8bd b8a0 c8be 24e8 923e 3383 2fbe
000001f0: 1d9f 7b3e 99eb 763e e410 0f3e 7b5e 203d
00000200: 1c2e 9cbe 573b 83bd a21c d73d e833 a7be
00000210: b5ed d5bd 7059 793c ddf5 0a3e c408 c0bd
00000220: d643 8fbe b519 913d f6fa 40be 739a c13d
00000230: 53bb f3be 28fb 7fbe 2761 a63d 6a56 913d
00000240: b9d5 08bc 1387 113e 609e 74be b624 803e
00000250: f714 44bd 09f0 59bc a4a0 70be 821d 913c
00000260: 5e40 7f3e fd54 5fbe e3d8 523e 7b9e 573e
00000270: 7098 6a3d 09f0 08be 4262 07bf b951 aebe
00000280: 1bf5 5b3d 6d9e ae3c cc1e 943e 5918 9c3e
00000290: bf88 6abe 6bd8 bf3e 07da e8bc 03d8 2d3e
000002a0: fb49 44be 5ccf 71be e8ea 65be 0894 70bd
000002b0: de17 88be e82a c2bd 69a9 f13d 1170 b3be
000002c0: ea32 b6be 75b0 e8bd 39e9 75bd c94e 2dbe
000002d0: 9872 52bd 6c82 d33d c6b0 15be b40f 8b3e
000002e0: 6448 273e 0490 28be 01ae a4be 37c8 c2ba
000002f0: 5ac8 a0be 31ef 6e3e d4e6 693e 3918 84be
00000300: b961 133e 9781 dbbd 9ee6 18be 677b 34bd
00000310: c698 b3bd 601a 2d3e 5dd8 c63d a1fb 2dbd
00000320: 8185 403e eae7 35be aff8 5ebe f76a a43d
00000330: 1a67 ce3e 56bb a5be 3b63 e1be 234f 183d
00000340: b3af 4f3d 9392 eb3d 54c2 ef3c 2e8b 75be
00000350: 4a73 4c3d 5774 fa3c 66eb f0bd 3aa7 60bd
00000360: 887d 82be ee18 a7bd 3880 8bbc 424d d5bd
00000370: ce80 513e decf 15bd 0708 d33e a5e8 3bbe
00000380: efaf 54be d2c5 da3d 8f6a 813e 0c9f a2be
00000390: e7ee f7be 586b 8ebd 58f8 323e 6e31 05bf
000003a0: 7ca7 bcbe afd6 fcbd 80d4 dd3d b944 093b
000003b0: 803c 6e3e 062c 383e b08a 40be 6b8d 8e3c
000003c0: da94 173e d3f7 cdbd 1bb7 743e 684e 873d
000003d0: e23d 80be 2a4d aa3c 112f 2d3d 5ea9 213e
000003e0: bef3 c73e a9cf f3bd ccf8 0ebd 2bd2 1cbd
000003f0: 4545 95be 7e60 b5be 84d4 8a3e 03e3 c73d
0.28950462 -0.013197675 0.6544784 0.00855486 -0.29978997 -0.30141878 0.07405878 0.014496261
-0.14744644 -0.2420616 -0.018349694 -0.40073854 -0.124350734 -0.0044465372 0.08402365 -0.2539024
0.03864302 0.16668122 -0.25315812 -0.17751548 0.2391714 0.09930518 0.089497276 -0.06757154
-0.02942248 0.009147598 -0.17794232 -0.018373307 -0.29127416 -0.32612854 0.09113787 0.16011474
-0.034646332 0.03223257 0.33523503 0.316572 -0.055104762 -0.034920372 -0.1480058 -0.008723951
-0.15758951 0.31913912 0.13873096 -0.27056494 0.1254928 0.072058596 0.30601212 -0.039558522
-0.059842944 -0.14877328 -0.07362283 -0.013592236 0.08903131 -0.2864068 -0.54205686 -0.09578336
0.030350663 -0.17701331 -0.15515654 -0.22743 -0.0069113015 0.08621075 -0.12862733 -0.34298697
0.17241776 0.4061357 -0.16985723 0.16285628 -0.022377742 -0.15047312 -0.03660248 -0.37402838
0.2050576 -0.25817108 -0.14504693 0.062472586 0.065205336 -0.12028012 -0.19619706 -0.04428349
-0.117822975 -0.122165985 -0.19881542 -0.013983872 -0.31353962 -0.30737954 0.0048988424 -0.14339846
0.085831456 -0.2308047 0.41532382 -0.18874276 0.13602115 -0.07020395 0.099551275 -0.3403601
-0.18024762 -0.07322971 -0.30548277 -0.07955398 -0.07833917 0.16285767 0.22539875 -0.03349845
0.38953146 0.10310267 0.10931125 -0.027683476 0.54521775 -0.3543722 0.05022264 -0.3259387
0.058252696 -0.031455263 0.033481456 0.04550556 0.40139747 0.06912129 0.073882274 0.08355125
-0.12151239 -0.3918512 0.28692734 -0.17139892 0.24572416 0.24113311 0.13971287 0.039152604
-0.3050393 -0.064078026 0.10503508 -0.3265679 -0.1044573 0.0152190775 0.13570352 -0.09376672
-0.27981442 0.07084981 -0.18845734 0.09453287 -0.47603855 -0.24998152 0.08123999 0.0709656
-0.008351737 0.14211683 -0.2388854 0.25028008 -0.047871556 -0.013301858 -0.2349878 0.017714266
0.24926898 -0.21809764 0.20590548 0.21056549 0.057274282 -0.13372816 -0.52884305 -0.34046724
0.053700548 0.021315778 0.28929746 0.30487326 -0.22903727 0.374698 -0.028424276 0.16976933
-0.19168846 -0.23614258 -0.22452891 -0.058734924 -0.2658071 -0.0948084 0.117998905 -0.35046437
-0.3558572 -0.113617815 -0.06003687 -0.16924585 -0.051378816 0.103276104 -0.14618215 0.27160418
0.16336209 -0.16461188 -0.32164004 -0.0014860694 -0.31402856 0.23333432 0.2284196 -0.2579973
0.14392747 -0.10718077 -0.14931723 -0.044063 -0.087693736 0.16904593 0.09709237 -0.0424763
0.18800928 -0.1776425 -0.21774553 0.080282144 0.40313035 -0.32369488 -0.4402102 0.037184846
0.05070467 0.11502566 0.029267468 -0.23978874 0.049914636 0.030573053 -0.11763649 -0.05484698
-0.25486398 -0.08159052 -0.017028913 -0.104151264 0.20459291 -0.03657519 0.41217062 -0.18350466
-0.20770238 0.106822625 0.2527661 -0.31761968 -0.48424456 -0.06954068 0.17477548 -0.5202855
-0.3684653 -0.12345635 0.10831547 0.0020945503 0.23265266 0.17985544 -0.18802905 0.017401418
0.14802876 -0.10057034 0.23897974 0.06606752 -0.25047213 0.020788748 0.042281214 0.15787265
0.39053148 -0.119048424 -0.03490524 -0.03828637 -0.2915441 -0.3542518 0.27115262 0.09760096

base.mlp.fc2.0.0.bias f4 [64]
00000000: c413 f5bc d808 a03c 9926 f7bd 7d13 f23c
00000010: 6ed3 42be f5b0 083d 4d31 99bd b0bf 023d
00000020: 0c10 ccbd e170 533d 9477 543c c404 83bd
00000030: a2b9 28bc ab8a bbbc 232d ec3c 69a0 a73d
00000040: 07db acbc 59fc 743d db29 103c 4588 4abd
00000050: b6af 103d 4df8 f93d d436 88bd b52c c1bd
00000060: 05b8 a5bd a1dc d23c d586 513d 39cd c23c
00000070: 81e8 4c3d f10f 8abd 4b2f 063b 15a7 27be
00000080: 5887 bd3c 46c7 44bd 9530 a33c a45f 1cbe
00000090: 07f7 03bd 2250 523e aabe 04bd 2a21 0abd
000000a0: a91d 0a3d d0ef f33c d491 8f3d c8be 4dbd
000000b0: 14e4 4b3d de3b 433d 1648 213d 9c55 8abd
000000c0: 8b8a 40bd a1b5 19bd cf74 0dbd 171e 4abd
000000d0: 3c51 693c ac48 4f3d 5c6b c43c a89a 05bd
000000e0: 280a 16bd 4d75 10bd a3db 38be 290d ac3d
000000f0: ee08 5dbd ee50 7abd 9dbb 393e 4ea8 a13d
-0.029916652 0.019535467 -0.12067909 0.029550308 -0.19025967 0.033371884 -0.074801065 0.03192109
-0.09963998 0.05162132 0.012967963 -0.06397393 -0.010298165 -0.02289327 0.028830117 0.08184893
-0.021100534 0.05981097 0.008799042 -0.049446363 0.03532382 0.12205563 -0.06651083 -0.09432355
-0.080917396 0.02573997 0.051153976 0.023779498 0.05002642 -0.06741322 0.0020474966 -0.1637233
0.023135826 -0.048041604 0.019920627 -0.15270859 -0.032218006 0.2053838 -0.032408394 -0.033723034
0.033719692 0.029777437 0.070102364 -0.05023077 0.04977806 0.047664516 0.039375387 -0.0675461
-0.047007125 -0.03752673 -0.034535225 -0.049345102 0.014240559 0.050606415 0.023976974 -0.032618195
-0.03663078 -0.035268117 -0.18052535 0.084009476 -0.053963594 -0.061112337 0.18137975 0.0789343

base.mlp.fc2.0.2.weight f4 [64]
00000000: 06ab 7b3f 76e3 7e3f 9a14 813f b2f5 7a3f
00000010: 95ee 7f3f b108 813f 69c7 703f 3b64 2e3e
00000020: 54ad 6d3f 710f 753f fed0 5a3f 9227 753f
00000030: a4fe 663f 8335 693f 5fd3 7e3f 7d3d 5e3f
00000040: 32b3 533f d47b 7f3f 070b 783f 2ab3 7b3f
00000050: 8d84 793f e8f9 783f eb9c 803f 0eaf 813f
00000060: f257 7f3f a3da 593f c1d2 663f b6ca 753f
00000070: d6d7 843f f778 773f c95e 303f c8d4 583f
00000080: 082a 863f 3c64 7a3f 2b9b 643f 73dd 743f
00000090: 7fb3 6f3f d31c 763f ef16 7b3f 2354 7e3f
000000a0: bf46 763f bea6 753f a496 6b3f cd21 783f
000000b0: 941d 413f c42c 813f b1e1 773f ed67 7b3f
000000c0: 61d4 693f 93d8 773f 4e18 693f b825 773f
000000d0: d216 6b3f 9111 7a3f e997 3b3f 7792 7b3f
000000e0: ef18 513f 99bf 7c3f c98d 783f ae4b 793f
000000f0: 644b 633f 0283 f33e cb83 4c3f ab96 723f
0.98307836 0.9956583 1.0084412 0.9803115 0.9997342 1.0080777 0.94054276 0.17030422
0.928426 0.95726687 0.85475147 0.95763505 0.902323 0.9109728 0.99541277 0.86812574
0.82695305 0.9979832 0.96891826 0.9832026 0.9746788 0.97256327 1.0047888 1.0131547
0.9974357 0.8509924 0.90165335 0.9601244 1.0378368 0.9666895 0.6889463 0.8469968
1.0481577 0.97809196 0.8929927 0.95650405 0.93633264 0.9613773 0.9808187 0.9934713
0.962017 0.95957553 0.92026734 0.96926576 0.7543576 1.0091786 0.9682875 0.98205453
0.9133969 0.9681484 0.9105271 0.9654193 0.91831696 0.97683054 0.7327867 0.9827036
0.8167867 0.98729855 0.97091347 0.97381103 0.8878691 0.4756089 0.798886 0.9476115

base.mlp.fc2.0.2.bias f4 [64]
00000000: c0e6 8abc 659d 383c f7cb 07bd c7dd 5a3c
00000010: e5a2 00be 985e 153d f8be 73bc cbb7 9b3c
00000020: a1c8 3abd 60b1 633c b593 0cbb bf66 8dbc
00000030: abd7 cb3c 42bd 24bb 6150 b93c 8106 833c
00000040: 5d03 5c3c 745a a53c 2405 22bb 9a9e f7bc
00000050: 4ee8 783c 4bc2 bd3c c1dc 6fbd f2e3 16bd
00000060: 1089 97bd ad08 303b 94c0 ab3c 7366 4d3c
00000070: 0067 ca3c ddd1 95bd 43fe 05bd fa37 8bbd
00000080: 3dd0 a13c fc3b 97bc 5c3d f0bb ce19 59bd
00000090: f4fc c53c 9e04 d03c 5226 74bc 6a36 adbc
000000a0: abf7 093d 9824 983c b226 053d 8c59 99bc
000000b0: cd67 9b3b cf2a f33c e5c9 913c 8188 fbbd
000000c0: 951f 093d c1a5 9abc a8b2 a8bc ec5f 0cbc
000000d0: 8d5f bfbb 0d2c 013d b9b9 99bb b43d 8bbc
000000e0: a5b0 653b 5bef 6fbc 7207 09be 4699 be3c
000000f0: 1628 83bc 6491 04bc efaf 3dbc 7029 c93d
-0.016955733 0.0112679945 -0.0331535 0.01335854 -0.1256214 0.036467165 -0.0148770735 0.019008538
-0.04560149 0.01389727 -0.0021450345 -0.017260907 0.024883112 -0.002513722 0.022621335 0.015994312
0.013428536 0.020184733 -0.0024722302 -0.030226994 0.0151921045 0.023163935 -0.058560137 -0.03683848
-0.073991895 0.002686064 0.020965852 0.012536633 0.024707317 -0.07315419 -0.032713186 -0.06797786
0.019752616 -0.01846122 -0.0073315334 -0.053003125 0.024168469 0.025392827 -0.014901714 -0.02114411
0.03368346 0.018572137 0.032507606 -0.018719457 0.0047425986 0.029683499 0.017796466 -0.122818954
0.033477385 -0.018877866 -0.020593002 -0.008567791 -0.005840248 0.03153615 -0.0046913293 -0.016997196
0.0035047915 -0.014644469 -0.13381746 0.023266446 -0.016010325 -0.008091304 -0.01157759 0.09822357

rnn.rnn.weight_ih_l0 f4 [192, 64]
00000000: 0e2c 103e 30b4 16bd d67d e7bc d922 9dbc
00000010: 5042 373c 39cc 023c 8fd1 2a3b bd74 2d3d
00000020: 0de1 ec3c 3b7d 593c 7602 cb3d f1b3 0b3c
00000030: f975 8ebd 6f4d 8b3b 5672 e83d a0a9 0cbc
00000040: 9eb2 8d3d 4db5 87bd a3b6 b53d 85e2 73bd
00000050: a039 ecbc 3bd5 153c f572 b4bc dd3a 073d
00000060: 0173 be3d ebb9 ccbc 372b b8bb 5f78 37bd
00000070: be17 563d 92ee d9bc 0793 c2bd 3b81 8a3d
00000080: ce89 b53d c7af 13bd 7de1 33bd d64f 31bd
00000090: 2072 38bd ffd5 e7bd cba1 9e3d c234 b6bd
000000a0: 7213 0ebe 3868 8f3d 2f67 7dbd bc4c 1d3d
000000b0: 2118 ad3d 22b2 ab3d 7d7c af3d fc94 38bd
000000c0: fad8 813a 130b e53b 585d 673e 096a 0cbd
000000d0: bdeb aeba 1d8d 713d 9a59 2d3c 82bc 173e
000000e0: dfe7 a13d b303 8d3d 0187 6a3d 798c 0b3d
000000f0: 2eca ee3c c558 85bb 706d aebb 6fec 373d
00000100: 8cda 01bd b200 bf3d e7da 3dbd e063 01bd
00000110: d16e 8dbd ad30 d23d dfcf b53d 97a8 ca3b
00000120: 459d fb3d 4800 b5bc 0ce9 5e3d 6815 b6ba
00000130: 94a3 bb3d 8808 26bd 73c7 b63c b9ff b03b
00000140: d8d5 72bc b2e9 b1bc 0077 8d3c 6527 5f3d
00000150: 28dc b5bc 189e af3c 46ff 423d 2f7c dcbd
00000160: 841b abbc 661f c73c fd00 0dbc 562e 28be
00000170: 7e42 9f3d 8830 81bd fe40 803d 9eb8 9b3d
00000180: a557 803d f8df 33bd c5b6 bfbd 8b12 29bd
00000190: 4144 25bc 1e70 6cbd 95e9 45bd 6a6d e4bd
000001a0: 8693 18bd 865e f53d af7d 0fbd aa44 95bb
000001b0: 8cb2 1bbe 01ae 723c 7ce1 98bd 6d2e c33c
000001c0: 665f 313d cfb3 c8bd b209 193a c052 07bd
000001d0: 26d6 94bd 4283 61bd 9120 763d 06c7 0bbe
000001e0: 5032 a6bc 2ef8 b53c 5a2b babd d0c4 763d
000001f0: ff32 b4bc b2f7 ebbd cde1 4dbd 0214 f1bc
00000200: 8ed1 82bd dacc 023e 5ab5 b83d 4677 a9bc
00000210: 3ef1 f83c 6449 a7bd 7f11 b73c 3aa7 8dbd
00000220: b996 43bd 1ecd c63d 9c71 52bd 6902 ed3d
00000230: 6f54 ab3d b258 7a3d df29 c4bd 33ec fdbc
00000240: 4c17 adbd 06dd 14bd 3173 94bd d6d7 90bd
00000250: 355c a13d 0a2c 6e3a c96c 8e3c e239 92bd
00000260: ae99 11bc 4c8d 433c 0697 523b bf12 13be
00000270: 82e0 fd3c 6fed fc3d fb83 2c3e d0d8 aebd
00000280: 2315 5d3d 3e66 d93d 6ba6 ad3c e976 683c
00000290: f1ba 673c b014 94bc b4bb 1ebd 077e 4abd
000002a0: 016e 4ebd fdff 083d b8c5 e0bd 9713 d33c
000002b0: 64b9 9bbc c56f 003e 512b 303d 9f87 20bc
000002c0: 33df dd3d 9857 3cbd a9f5 8bbd b793 d43d
000002d0: 853c b9bd 0f36 9a3d 539c a53d 157f 303d
000002e0: f24b 813d cd81 cdbc effd 08bd e0d4 cf3d
000002f0: a447 debd 4ece c83d 21ac f43b f4bc e53b
00000300: a9ce 7fbb f364 363d e088 5cbd dcbb b03d
00000310: 536d 2e3c f7bb eb3c db44 893d 89e4 adbc
00000320: f1e3 293e fd23 063d c363 c23d 6845 debb
00000330: d95f edbd c334 96bd 62cc eb3c a518 7d3d
00000340: a11a 0e3e f7da 513d 35b9 8fbb 2007 f93b
00000350: 0ec7 7ebd da46 66bd bd64 223e cee5 91bc
00000360: 567a 523c 0eac a43d ceed 62bb e6ed ec3c
00000370: 79e3 f0bc b5c1 803c dc87 d33d 2c2e 793c
00000380: dc86 16be e3ae ac3c 4802 933c 0e04 553d
00000390: 9d68 efbc 728d 90bd 1f42 2b3c 4585 eebb
000003a0: f4ea 34bc 8744 6dbe efca 11bd 412d 8e3d
000003b0: 99a0 db3c b523 8b3d 3372 253d 757d 013e
000003c0: a791 ba3c c6d8 45bd ba85 b83d eab7 97bd
000003d0: e372 f53b 5353 633c 4d39 023d e11b 6bbd
000003e0: 94c1 b1bc 25fe 523d 3c8d e0bd f58a d4bd
000003f0: 436f 4ebb 8291 e33c 9653 c7bd 4c10 303c
0.14079306 -0.036792934 -0.028258245 -0.019181656 0.011185244 0.007983261 0.0026064848 0.04234766
0.028915906 0.013274486 0.09912579 0.008526788 -0.06956095 0.004251174 0.11349933 -0.008585364
0.06918834 -0.06626377 0.08872726 -0.059542198 -0.028836071 0.009145076 -0.022027472 0.03301512
0.09299279 -0.024990996 -0.005620386 -0.04479253 0.052268736 -0.026603017 -0.095006995 0.0676293
0.08864175 -0.036056306 -0.043916214 -0.043289028 -0.045030713 -0.113201134 0.07745703 -0.088967815
-0.13874605 0.070023 -0.06186598 0.038403258 0.08451868 0.083835855 0.08568666 -0.045063958
0.0009906583 0.0069898455 0.22594202 -0.03428081 -0.0013345402 0.058972467 0.010580445 0.14818004
0.07905554 0.06885471 0.057257656 0.034069512 0.029149141 -0.00406942 -0.0053231046 0.044903215
-0.031702563 0.093263045 -0.04635134 -0.03158939 -0.06905902 0.102631904 0.08877539 0.0061846483
0.12285856 -0.02209486 0.05442147 -0.0013891878 0.091620594 -0.04053548 0.022311902 0.0054015783
-0.014821492 -0.02171788 0.017268658 0.05448093 -0.022199705 0.02143769 0.04760673 -0.10765874
-0.020887144 0.024306964 -0.008606193 -0.16423926 0.07776354 -0.06308085 0.06262396 0.07603572
0.06266717 -0.043914765 -0.093610324 -0.04127745 -0.010087074 -0.05772411 -0.048318464 -0.111536816
-0.037250064 0.119809195 -0.03503197 -0.0045553045 -0.15204829 0.014811994 -0.07464883 0.023825848
0.04330387 -0.09799921 0.00058379315 -0.0330379 -0.07267408 -0.055056818 0.06008965 -0.1365014
-0.020287663 0.022213068 -0.090903 0.06024629 -0.021996973 -0.115218535 -0.05026417 -0.029428486
-0.06387626 0.12773457 0.09018965 -0.020686757 0.03038847 -0.08168295 0.02234721 -0.069166616
-0.047751162 0.09707092 -0.051377878 0.11572725 0.08365714 0.061119743 -0.09578299 -0.030996418
-0.08451709 -0.036343597 -0.072485335 -0.070724174 0.07878915 0.0009085542 0.017385857 -0.071399465
-0.008886738 0.011935543 0.0032133474 -0.1436262 0.030990843 0.12349974 0.16847222 -0.085374475
0.053975236 0.10615204 0.021197518 0.014188507 0.014143691 -0.01807627 -0.038753226 -0.049436595
-0.050397877 0.033447254 -0.10975212 0.025766177 -0.0190093 0.12542637 0.04301006 -0.00979796
0.108335875 -0.045981973 -0.06833965 0.10379737 -0.09044746 0.07529842 0.08086457 0.043089945
0.063133135 -0.025086308 -0.033445295 0.101480246 -0.10853508 0.098049745 0.0074668084 0.0070110504
-0.003903309 0.044529866 -0.05384147 0.08629581 0.010646182 0.028776152 0.06702586 -0.021227138
0.16590859 0.032749165 0.09491684 -0.006783176 -0.11590547 -0.07334282 0.02878398 0.06179108
0.13877346 0.05123421 -0.004386092 0.0075997263 -0.062201552 -0.056219913 0.15858741 -0.017809775
0.01284655 0.08040629 -0.0034626606 0.028922033 -0.029405342 0.015717367 0.103286475 0.015208762
-0.14699882 0.021079486 0.017945424 0.05200582 -0.029224688 -0.070582286 0.010452776 -0.0072790706
-0.011042345 -0.23170672 -0.035593923 0.06942225 0.026809977 0.0679392 0.040392112 0.12645514
0.02277453 -0.048302434 0.09009881 -0.07408126 0.007490502 0.0138748465 0.031792928 -0.057399634
-0.02169875 0.051511902 -0.10964438 -0.103780665 -0.0031499423 0.027779344 -0.097327396 0.010746073
