train/mappo/results/MPE/formation_hd_env/rmappo/check/run23/models/critic_agent7.pt (torch, 228695 bytes, 21 tensors)

base.feature_norm.weight f4 [324]
000000 78 46 7a 3f fc 5b 69 3f a9 e4 71 3f 83 bd 69 3f
       0.97763777 0.9115598 0.9448953 0.91304797
000010 73 75 7c 3f 1c 43 7e 3f 41 81 7b 3f 68 a5 7f 3f
       0.98616713 0.9932115 0.982441 0.99861765
000020 b8 c0 7c 3f 31 64 7d 3f a4 64 7c 3f 07 be 7e 3f
       0.98731565 0.98981005 0.98591065 0.9950871
000030 0c bd 7a 3f 58 ee 79 3f 7c b0 79 3f 2b d6 7b 3f
       0.9794471 0.9762931 0.9753492 0.9837367
000040 ee 14 7a 3f b1 2b 7d 3f fe 48 7d 3f 12 6c 78 3f
       0.97688186 0.9889479 0.989395 0.970399
000050 a7 9b 7f 3f 83 06 80 3f c9 ec 7e 3f 0e 6f 80 3f
       0.9984688 1.0001987 0.99580055 1.0033891
000060 33 50 7f 3f 5e 76 7f 3f 7a b9 80 3f 20 43 7e 3f
       0.9973175 0.9978999 1.0056603 0.99321175
000070 b9 4a 7f 3f c8 07 80 3f c3 67 7f 3f 65 fd 7f 3f
       0.9972339 1.0002375 0.997677 0.99996024
000080 e5 27 80 3f cd 4b 80 3f 84 95 7e 3f 7a 19 80 3f
       1.0012175 1.0023133 0.9944689 1.0007775
000090 36 e5 69 3f a2 b3 64 3f bb 2e 7d 3f 9d d9 7d 3f
       0.91365373 0.893366 0.9889943 0.99160177
0000a0 10 ac 7b 3f a9 74 79 3f 9d 09 7c 3f 6c 5f 7c 3f
       0.9830942 0.97443634 0.9845217 0.985831
0000b0 e7 25 7d 3f e1 8f 7b 3f 74 22 7d 3f d0 c7 73 3f
       0.9888596 0.98266417 0.98880696 0.95226765
0000c0 81 d8 74 3f 02 43 7b 3f f0 3d 7c 3f 47 81 7e 3f
       0.9564286 0.9814912 0.9853201 0.9941601
0000d0 36 ec 6c 3f ec 53 7c 3f 8c 76 79 3f 8f 2b 73 3f
       0.9254793 0.98565555 0.97446513 0.9498834
0000e0 7c 15 80 3f 99 ca 7e 3f 3c 07 80 3f 84 f2 7e 3f
       1.0006557 0.9952789 1.0002208 0.995888
0000f0 f3 bf 80 3f 1f 90 7e 3f 30 51 7f 3f 18 dc 7f 3f
       1.0058578 0.9943866 0.9973326 0.9994521
000100 d9 97 7d 3f ce 98 80 3f 9a cd 7f 3f e3 e9 7f 3f
       0.99059826 1.0046632 0.999231 0.9996626
000110 a4 98 80 3f ca a0 7d 3f b5 ac 80 3f c1 01 81 3f
       1.0046582 0.9907347 1.0052706 1.007866
000120 95 aa 7a 3f 2b d6 79 3f 81 69 7f 3f 92 db 7c 3f
       0.9791654 0.9759242 0.9977036 0.9877254
000130 5f c4 7e 3f 38 34 7e 3f ae 6f 7f 3f 90 18 7a 3f
       0.9951839 0.9929843 0.99779785 0.9769373
000140 07 87 81 3f 25 b2 7e 3f 5d d4 7b 3f 06 6a 7a 3f
       1.0119332 0.99490577 0.98370916 0.9781803
000150 52 b3 7b 3f 62 bd 7c 3f 3c 58 6e 3f 24 3a 7d 3f
       0.98320496 0.98726475 0.93103385 0.9891684
000160 71 00 80 3f b8 af 7a 3f e9 fd 7a 3f 0a e9 79 3f
       1.0000135 0.97924376 0.98043686 0.97621214
000170 e6 08 80 3f 82 47 7f 3f c5 78 80 3f 1e b5 80 3f
       1.0002716 0.9971849 1.0036856 1.0055273
000180 7f 5c 80 3f df bc 7f 3f 90 38 7f 3f d3 49 7f 3f
       1.0028228 0.9989757 0.9969568 0.9972202
000190 35 ec 7e 3f 95 1c 7e 3f 26 45 80 3f b5 6f 80 3f
       0.99579173 0.9926236 1.0021102 1.003409
0001a0 63 d4 80 3f 04 93 80 3f 8f 70 7e 3f 46 c3 7f 3f
       1.0064815 1.0044866 0.993905 0.9990734
0001b0 b6 b2 7a 3f fe 52 6a 3f ee dc 7c 3f 12 5f 7d 3f
       0.9792894 0.91532886 0.9877461 0.9897319
0001c0 6f 0e 7a 3f d7 fe 7b 3f 9c 2c 7e 3f 1f fe 7a 3f
       0.97678274 0.9843573 0.9928682 0.9804401
0001d0 84 04 78 3f 4d 73 7a 3f 44 d3 7b 3f 45 a9 7b 3f
       0.9688189 0.97832185 0.9836924 0.9830516
0001e0 15 04 7d 3f 3d 8c 7d 3f f3 29 78 3f d0 0d 7f 3f
       0.98834354 0.9904211 0.9693901 0.9963045
0001f0 a3 ab 7b 3f aa af 6d 3f 9f 6d 7c 3f 9d 9e 7d 3f
       0.9830877 0.9284617 0.9860477 0.9907015
000200 eb 82 7f 3f d0 43 81 3f f4 05 80 3f 52 4b 80 3f
       0.9980914 1.009882 1.0001817 1.0022986
000210 ff 56 80 3f 1c 38 80 3f 68 11 80 3f 2e dd 7e 3f
       1.0026549 1.0017123 1.0005312 0.99556243
000220 ac 57 80 3f f1 10 81 3f 04 a6 7f 3f 92 75 80 3f
       1.0026755 1.0083295 0.99862695 1.003588
000230 8e 96 80 3f 56 4d 7f 3f 49 82 7f 3f e2 c3 7f 3f
       1.0045946 0.9972738 0.99808174 0.9990827
000240 05 c3 71 3f 5d e7 77 3f 67 17 77 3f 4b 57 7a 3f
       0.944382 0.9683741 0.96520084 0.9778945
000250 6a 72 5f 3f 94 38 7a 3f 21 bd 79 3f 7e 41 7b 3f
       0.87283957 0.9774258 0.9755421 0.9814681
000260 24 c1 76 3f 74 a8 7e 3f 43 fc 7c 3f 25 cd 76 3f
       0.9638846 0.9947579 0.9882242 0.96406776
000270 a7 2d 79 3f 78 70 7e 3f 8b 7b 7f 3f 12 54 7c 3f
       0.97335285 0.99390364 0.99797887 0.9856578
000280 fd ba 80 3f e7 5a 7d 3f 26 37 7e 3f 19 24 7f 3f
       1.0057064 0.9896683 0.993029 0.99664456
000290 c6 97 80 3f 91 bb 7e 3f d7 34 80 3f cc 03 80 3f
       1.0046318 0.99504954 1.0016125 1.0001159
0002a0 2f e2 80 3f 43 2a 80 3f 7c 27 7f 3f 99 62 80 3f
       1.0069026 1.0012897 0.99669623 1.003009
0002b0 77 14 81 3f 6d b0 7d 3f b7 83 7f 3f f5 2a 80 3f
       1.008437 0.9909733 0.99810356 1.001311
0002c0 9d 85 80 3f 25 40 7f 3f 24 32 80 3f 93 d0 7e 3f
       1.0040776 0.9970725 1.0015302 0.9953701
0002d0 9c f2 7b 3f 67 46 72 3f d8 e2 80 3f b3 21 7e 3f
       0.9841707 0.94638675 1.0069227 0.9927017
0002e0 f2 1a 7c 3f 35 cc 72 3f 9a b7 64 3f 6e 36 7a 3f
       0.98478615 0.94842845 0.89342654 0.97739303
0002f0 b0 e2 7c 3f 25 31 6f 3f 8f 5e 7f 3f 38 c3 7a 3f
       0.987834 0.93434364 0.9975366 0.9795413
000300 7d 1f 7b 3f 90 36 74 3f 09 41 7d 3f 9f 81 65 3f
       0.9809492 0.95395756 0.9892736 0.8965091
000310 46 22 7d 3f 4e 76 76 3f b6 68 70 3f 7a 8c 79 3f
       0.9888042 0.9627427 0.93909776 0.97479975
000320 24 36 80 3f 82 60 80 3f 5a 5f 7f 3f 90 18 80 3f
       1.0016522 1.0029452 0.9975487 1.0007496
000330 9d f6 7e 3f 13 19 80 3f 2b 1e 81 3f e1 19 80 3f
       0.9959505 1.0007652 1.0087332 1.0007898
000340 23 9e 7f 3f 67 f7 7f 3f da 06 81 3f c0 3b 80 3f
       0.9985067 0.9998688 1.0080216 1.0018234
000350 96 a6 7e 3f 1f e0 80 3f 35 11 80 3f e7 00 7e 3f
       0.9947294 1.0068396 1.0005251 0.99220127
000360 69 00 77 3f ca 00 6e 3f 30 bd 7b 3f 4e b5 77 3f
       0.96485 0.92969954 0.9833555 0.96761024
000370 d2 a9 75 3f 7b a8 7d 3f 83 dc 7d 3f ba 35 7b 3f
       0.9596225 0.99085206 0.991646 0.98128855
000380 7c 99 7a 3f be 5e 7e 3f 3e 0d 7b 3f 9c a2 6e 3f
       0.9789045 0.99363315 0.9806708 0.9321687
000390 53 85 7e 3f b0 fe 7e 3f 62 3c 7b 3f d4 65 75 3f
       0.99422187 0.9960737 0.9813901 0.958585
0003a0 b4 cd 6f 3f 19 a8 7c 3f 6a 3a 7f 3f 68 e8 74 3f
       0.93673253 0.98693997 0.9969851 0.95667124
0003b0 d9 99 7f 3f 34 c8 80 3f cc 5b 7e 3f 5a f0 7d 3f
       0.9984413 1.0061097 0.9935882 0.9919487
0003c0 1c bc 80 3f e7 12 80 3f 7a d2 7f 3f 2b f4 7f 3f
       1.0057406 1.0005769 0.99930537 0.99981946
0003d0 34 56 80 3f fd b8 7e 3f 82 5e 7f 3f fa 68 80 3f
       1.0026307 0.9950102 0.9975358 1.0032036
0003e0 b7 53 7f 3f ee bf 7d 3f 8c 1c 80 3f 82 4f 80 3f
       0.99737114 0.99120986 1.0008712 1.0024264
0003f0 59 0f 77 3f dd 77 7b 3f f7 be 7b 3f 4d 09 7e 3f
       0.96507794 0.9822977 0.98338264 0.9923294

base.feature_norm.bias f4 [324]
000000 34 ce 02 bc 22 62 7d bc 22 15 2e be 6b c6 c9 bc
       -0.007983733 -0.015465291 -0.17000249 -0.024630746
000010 94 b1 43 3d c8 1a 18 3d 99 a7 49 3c 7b 62 5c bc
       0.047776774 0.037134916 0.012308025 -0.013451214
000020 f6 e9 47 3d a4 b9 12 bd ab 9f 8d bd 7f 3f d4 3c
       0.048807107 -0.035821572 -0.0691522 0.025909184
000030 85 28 22 be 82 dc 08 bb 58 b5 16 be 06 42 57 3c
       -0.1583577 -0.0020883386 -0.14717615 0.0131383
000040 02 07 ac 3d eb b8 23 be bf b7 b1 3c 7e 5e 71 3c
       0.08399774 -0.1598851 0.021694062 0.014732001
000050 be ea 12 be 0c 6d 25 3c 73 97 3a 3e a4 10 32 3d
       -0.1434736 0.0100968 0.18221836 0.0434729
000060 75 ca 44 bd a1 23 3a bd 24 e1 c1 bd 11 43 47 3e
       -0.04804464 -0.045444135 -0.0946677 0.19459178
000070 43 31 3d bb db f4 e2 3d ed ee 41 3d 3e 2c 65 be
       -0.0028868474 0.11081859 0.047346998 -0.22380158
000080 41 69 0a 3e 85 a9 4e 3d ac f1 1a 3d 91 47 54 3e
       0.13516714 0.050454635 0.037828133 0.20730425
000090 6f 8c 4e 3b f8 8f f7 bc cd 32 b2 3d 3d 5e f2 bb
       0.003151681 -0.030220017 0.08701096 -0.007396488
0000a0 cb 50 57 3c f1 1b 8c bd 08 c0 91 3c 61 af bc 3d
       0.013141821 -0.06841267 0.017791763 0.09213138
0000b0 05 5e 25 3c d2 90 9f bd c6 2a e9 3d 6d 8f a2 3c
       0.010093217 -0.07791294 0.113851115 0.019843781
0000c0 53 ae 2c bd 80 b5 3d bc 36 95 13 be 2f 6d 84 bd
       -0.042158436 -0.0115789175 -0.14412388 -0.064661376
0000d0 08 75 b7 ba fd ee 92 3d e3 c7 00 3e 5d 3c b8 bc
       -0.001399667 0.0717449 0.1257625 -0.022489721
0000e0 a8 36 f4 3c 9b 63 3b 3d 3e af 5f 3d 3b 06 98 3e
       0.029811218 0.045749288 0.054610483 0.29692253
0000f0 b7 1f a8 be 0d 8a 40 3d 6f 6a 00 3f 0a e7 b0 3d
       -0.32836697 0.047006655 0.50162405 0.08637817
000100 2b 68 4e 3e eb d9 be bd 9f 14 73 3e 4c ce ef 3c
       0.20156924 -0.09318908 0.23738335 0.029273175
000110 21 85 a3 be 08 08 93 3e 6a ee b0 bd a3 21 e5 be
       -0.31937507 0.28717065 -0.08639224 -0.44752225
000120 d8 7d 74 3d 20 81 43 bc 19 91 7c bd dc 77 3a bd
       0.059690326 -0.011932641 -0.061661813 -0.045524463
000130 85 ca ed 3d 06 48 d9 bd d9 bd 34 be e4 d3 e2 3b
       0.11610893 -0.106094405 -0.17650546 0.006922232
000140 a0 75 b4 bc c9 5e c7 3c 39 0d 5d 3c e1 21 95 3d
       -0.022028744 0.02433719 0.013491922 0.072818525
000150 3d c8 f3 bc c5 a4 12 be 07 8a 0a be d2 dd 3a bc
       -0.029758567 -0.14320667 -0.13529216 -0.011405425
000160 49 75 6f bd 63 aa 85 3d 28 7c a6 bc ef 55 94 3d
       -0.05846146 0.06526639 -0.020322874 0.07242953
000170 44 1b 0b 3e 55 35 6f bc 25 03 84 bc c0 12 a3 be
       0.1358462 -0.014600118 -0.01611478 -0.31850243
000180 a1 46 bc 3c 70 c0 f6 bd 1a 52 63 be 8b 27 8b 3e
       0.022982897 -0.12048423 -0.22199288 0.27178606
000190 40 22 98 ba 03 16 c5 3d ce 15 2d bb b6 e0 8d bd
       -0.0011606887 0.09623339 -0.0026410702 -0.06927626
0001a0 ad 5d b1 bd 51 de 05 be b5 1b be 3e 1f d1 99 be
       -0.08660445 -0.13073088 0.37130514 -0.3004236
0001b0 36 98 b4 bd 36 5e 3d be 5e 36 1e bd 32 4f 46 bd
       -0.088180944 -0.1849297 -0.038626067 -0.04841537
0001c0 71 40 d7 bb c1 66 52 bc 5d e0 f0 bb fc c3 c2 3c
       -0.0065689613 -0.012841881 -0.007350965 0.023775093
0001d0 7b 4d 8f 3c c5 69 35 3d 13 26 73 3c 09 0a 45 3e
       0.017493 0.044290323 0.014840621 0.1924211
0001e0 92 a2 4c 3d c7 24 62 3b d3 85 22 3d ed dc 32 bc
       0.049959727 0.0034506784 0.039678406 -0.010916931
0001f0 dd 58 10 be 22 a6 9a bd 98 bd 70 ba f4 7a b8 3d
       -0.14096399 -0.075512186 -0.0009183525 0.090078264
000200 c6 4a 3e bd da a2 9c be 26 24 25 bd e5 48 8c be
       -0.04645803 -0.30592996 -0.040317677 -0.27399364
000210 6f d6 de bd d7 ed af 3d 15 08 a6 3e f7 05 07 3e
       -0.10880744 0.08590286 0.3242804 0.13185869
000220 b5 27 a5 3c 10 45 6a be 08 3a 51 3e bd ee 7c bc
       0.020160535 -0.22877908 0.20432293 -0.015437779
000230 b6 b5 5b be e5 b3 66 3d af 53 7f bc bc ec 9e be
       -0.21456036 0.056323905 -0.015583917 -0.3103999
000240 7e e0 55 3d fd cd 3c bb b5 e6 aa 3d 3e 2f 89 3d
       0.052216046 -0.0028809302 0.08344785 0.06698464
000250 d8 cb 13 bd ce 56 97 bd fd 61 9b 3d 2f c8 9c 3d
       -0.036083072 -0.073896036 0.07587049 0.076553695
000260 fe 5e b1 bd 08 4b 39 ba 42 84 bc bc cb 37 b7 bd
       -0.086606964 -0.00070683705 -0.023012284 -0.089461885
000270 b6 e7 d2 3c 1c ea 02 bd f3 f3 fc bc cd 08 1a bd
       0.025745254 -0.031961545 -0.030878043 -0.03760605
000280 da 9d 34 3c 19 0a 06 be 61 be 88 3d ef 6f 90 3d
       0.011023963 -0.1308979 0.06676937 0.070526
000290 ec 0d 30 bd 54 b1 61 3e 02 85 c6 3c 10 d4 58 3c
       -0.042982027 0.22040302 0.024233345 0.013234153
0002a0 f8 1b 97 be 11 9f a9 3e 6d 91 77 3e 97 65 44 3d
       -0.29513526 0.3312917 0.2417657 0.047948446
0002b0 55 fa aa be 0d c0 a1 3e 26 08 b0 bd e9 6e 17 3e
       -0.33394113 0.31591836 -0.08595304 0.14788403
0002c0 88 3f da be bc 1b eb bc de a9 14 3b 01 e4 8f 3d
       -0.42626595 -0.028699748 0.0022684257 0.0702591
0002d0 56 21 a6 bb 10 7f dc bc 30 7c 19 3e e1 21 1a bd
       -0.005069892 -0.026916057 0.1498878 -0.037629966
0002e0 57 f9 a1 bd 49 2a 41 3d cf 8b 8f bc 17 4d 8f bd
       -0.07908886 0.047159467 -0.01752272 -0.069971256
0002f0 72 e4 cc 3c 74 92 e6 bc 45 d1 e2 3c fc d0 d7 bd
       0.025011275 -0.028146006 0.027687678 -0.105379075
000300 48 e3 b8 bb 53 de ea bd 9f 4c ff 3d b7 16 0f 3e
       -0.0056423284 -0.11468186 0.12465786 0.13973509
000310 dd 5f 98 bc 88 a0 ac 3d 18 38 f4 b9 27 18 71 bd
       -0.018600399 0.084290564 -0.000465811 -0.058860924
000320 bf 03 e4 3d 8c c1 e9 3c 36 00 30 bc de 99 9b 3e
       0.11133527 0.028534673 -0.010742238 0.3039083
000330 0a 91 de 3e 4e 68 ea 3c c9 ab 10 be 9f 46 65 bd
       0.4347003 0.02861419 -0.14128031 -0.055975553
000340 d7 5c e4 3c 74 51 58 be 1b a4 2c be 06 6b 05 3e
       0.0278763 -0.21124822 -0.16859476 0.13029107
000350 10 cb aa 3d 73 11 59 bd 6c 13 85 bd ff a3 b0 3e
       0.08339512 -0.052995156 -0.06497845 0.3450012
000360 75 ec ac bc d2 d7 9d bb 42 b4 19 bd 3a 3b 04 be
       -0.021108845 -0.0048169876 -0.037525423 -0.12913218
000370 4d bf 41 be 59 41 35 bd 68 64 dd 3d 2d 22 24 3e
       -0.18920632 -0.044251774 0.108101666 0.16028662
000380 d1 ab 2f 3b 69 80 a4 3d cf 15 16 3e a4 e9 b1 bb
       0.0026805291 0.08032305 0.14656757 -0.0054294635
000390 97 cd 05 be 16 9b 82 bd a5 c1 f8 bc 08 17 ce bd
       -0.13066708 -0.063772365 -0.030365774 -0.100629866
0003a0 06 22 e2 3c fa c8 c8 bc 95 93 66 3d 51 64 54 be
       0.027604114 -0.024509896 0.05629309 -0.20741393
0003b0 48 7c be 3d 65 44 b6 be da a0 bf 3d c0 b6 bc 3e
       0.093010485 -0.35599056 0.09356852 0.36858177
0003c0 97 3c 14 bf b1 fa 06 bf f8 2f a1 3b f5 1e a8 3e
       -0.5790495 -0.52726275 0.0049190484 0.32836118
0003d0 b9 91 87 be bf 96 0f 3e 87 6b 68 bd 82 a0 f1 3e
       -0.26478365 0.14022349 -0.05674317 0.4719277
0003e0 47 fc 25 bd e7 b9 bc 3e 90 89 19 be 18 b1 ca be
       -0.040523794 0.36860582 -0.14993882 -0.39588237
0003f0 67 3b 18 bd d0 6f 71 3c 72 0b b1 3c 68 cc 26 3d
       -0.037166025 0.014736131 0.021611903 0.04072228

base.mlp.fc1.0.weight f4 [64, 324]
000000 27 d8 50 bd 53 df df bd ae c7 57 be fe fe b2 bc
       -0.05098739 -0.109312676 -0.21072266 -0.021850105
000010 77 ca 7a 3c 77 7f b0 bd 10 51 41 3e 51 6a 66 3d
       0.01530706 -0.08618062 0.18878579 0.056253735
000020 ad 4e 3c bd 12 45 37 bc ce b1 da 3b 81 0a f9 3c
       -0.04597347 -0.011185901 0.006674028 0.030400516
000030 0a 1e 52 bb a0 dd 2f bd 35 dc 2d be 26 7b 02 be
       -0.0032061362 -0.042935967 -0.16978534 -0.1274229
000040 23 f7 84 3d 87 2a 05 3e ec dd ef bd 61 77 17 3e
       0.0649245 0.13004504 -0.1171225 0.14791633
000050 e4 76 75 3e b5 49 0a bd cb 6a 5b bc b8 17 b8 bb
       0.23971134 -0.0337617 -0.013392161 -0.005618062
000060 a5 a2 ad 3b ee 53 fb 3d ee 78 c6 3d 6c 7b 9a bd
       0.0052989298 0.12271868 0.09691034 -0.07543072
000070 fa a7 99 3d df de e9 b8 e5 34 dc bd bf e7 3a 3e
       0.07502742 -0.00011151819 -0.10752276 0.18252467
000080 eb c6 49 ba 08 82 1e 3d 28 24 62 be f5 88 e1 ba
       -0.00076971826 0.038698226 -0.22084105 -0.0017206954
000090 29 cd 34 3c dd 96 46 3d c1 9c 92 3b 11 46 92 bc
       0.011035242 0.04848372 0.004474253 -0.017855676
0000a0 15 d8 b0 3d e0 5c ec bd 09 1a bb 3d 43 cc c7 bc
       0.086349644 -0.11541152 0.09135825 -0.024389392
0000b0 4d 11 03 be 7c 44 32 3d 34 f2 7d bc be 16 af 3d
       -0.12799568 0.043522343 -0.01549964 0.085492596
0000c0 d2 96 45 3d 7d c9 0f bd 34 a0 28 bc 7a 00 c7 3d
       0.048239537 -0.035104264 -0.010292102 0.09716888
0000d0 a9 6c 3f be ac 01 14 be 71 3f d9 3d a9 5b 97 3d
       -0.18693794 -0.14453763 0.106078036 0.0739053
0000e0 e8 2f 23 bc f2 18 f7 bd 7f b1 1b be 89 c4 12 be
       -0.009960152 -0.12065305 -0.15204428 -0.14332785
0000f0 e2 99 26 3e 19 db 23 3d 73 9e ac bd 5e a5 f6 bd
       0.16269639 0.04000387 -0.08428659 -0.1204326
000100 e3 67 20 be 03 ab 81 3c a5 99 cb bd 0e ce 1b 3c
       -0.1566463 0.015828615 -0.09941415 0.0095095765
000110 19 a5 3b 3e 64 6a 37 be a8 5b e0 3d 4c b3 29 3e
       0.18324699 -0.17911679 0.10954982 0.16572303
000120 20 26 2e 3d 86 20 fa 3c cf 05 21 bd d5 90 dd 3c
       0.042516828 0.030533087 -0.03931218 0.0270466
000130 17 a0 50 3c 21 d4 16 3e 04 32 c3 3d 79 1f 3e 3e
       0.012733481 0.14729358 0.09531024 0.18566693
000140 33 58 34 3e 34 7b 94 3c a8 92 90 3d c6 f8 ed bd
       0.1761177 0.018125154 0.070592225 -0.116197154
000150 75 5f 58 bd 58 49 9f bb f0 0b 15 3c d2 9f e4 bc
       -0.05282541 -0.004861038 0.009097084 -0.02790824
000160 b8 ea 84 bc 57 14 59 bd 22 24 a9 3c e3 19 2a bd
       -0.016225204 -0.052997913 0.020647112 -0.041528594
000170 b7 05 c5 3c 4e 90 31 3d 72 1d fb 3d 32 4d 54 3e
       0.024050577 0.04335051 0.122614756 0.20732573
000180 5e 91 b4 bc 63 55 d8 3d d3 16 10 3e 6d b1 e8 bd
       -0.022041973 0.10563161 0.14071207 -0.11361966
000190 81 07 a4 bd d4 f9 03 ba 1f 44 af bd 3f cf 9b 3d
       -0.08009244 -0.0005034481 -0.08557915 0.076078884
0001a0 7c 1c 71 bd 4a 35 f5 3d bb 18 10 be 31 2e e0 3d
       -0.058865055 0.11973055 -0.14071934 0.1094631
0001b0 ad 4c 10 3e e8 c6 ea 3c 74 b3 fb bb ad 62 5d 3e
       0.1409175 0.028659299 -0.0076813046 0.21619673
0001c0 27 84 ee bc 26 bb 2a be 5f 33 6a bd c8 eb 01 3e
       -0.02911575 -0.16672954 -0.057177898 0.126876
0001d0 59 31 13 3c 82 df 2f 3e 3a b7 d1 bd 02 f5 a3 3c
       0.008983933 0.17175105 -0.10240026 0.02001429
0001e0 a3 04 88 bd a5 88 54 bd 43 12 f2 bd 76 de 0e 3e
       -0.066415094 -0.051888127 -0.118198894 0.1395205
0001f0 55 53 18 3e 9a 31 29 be 67 66 e8 3d bf fb 16 be
       0.14875539 -0.16522828 0.11347657 -0.14744471
000200 f8 13 85 3d a2 9e f9 3d 17 fa 4c bd 2f 1f 09 3e
       0.06497949 0.1218846 -0.05004319 0.13390802
000210 6e 2a b9 3d bd 8c 5b 3e eb 8e 5c be 82 41 4f bd
       0.09041296 0.21440406 -0.21538894 -0.050599582
000220 ba e8 a3 bd 81 26 77 3d 90 c9 da 3c d5 c6 a7 3d
       -0.080033734 0.060339455 0.02670744 0.08192221
000230 ea 14 b7 bd 31 48 0d bd 9c 54 a8 bd 2e 6b 24 3d
       -0.08939536 -0.034492675 -0.08219263 0.040141277
000240 66 98 21 3c be 22 c3 3d c6 8d 9e 3c 10 ab 59 3c
       0.009862995 0.09528111 0.019354712 0.013285413
000250 a5 df 14 be 0d 84 82 bd 06 9a 7e bd f1 f3 5d bd
       -0.14538439 -0.06372843 -0.062158607 -0.05418772
000260 2d 84 86 3c d1 0e 96 3d e5 9c 07 3e 7b 4b 11 3e
       0.016420448 0.07327045 0.13243444 0.1418895
000270 69 f4 51 be 93 43 0d 3a f7 04 8d 3c 34 6a 89 bd
       -0.20503391 0.00053887925 0.017214281 -0.0670971
000280 42 8b 9f 3e 89 94 82 bd 3a ef 77 3d cb 67 30 bd
       0.31160933 -0.06375987 0.06053088 -0.043067735
000290 8e c9 b2 39 7a 04 23 be ca 3e 57 bd 5b ec 73 bd
       0.00034100976 -0.15919676 -0.052550115 -0.059551578
0002a0 0f 27 16 3e 1b bf d6 bd c8 d3 43 be bb fe 00 be
       0.14663337 -0.10485669 -0.19123757 -0.12597172
0002b0 ad fb 4f 3e 2a b1 99 bd e8 70 f4 3d 15 13 a2 bd
       0.2031085 -0.075044945 0.11935598 -0.07913796
0002c0 cd 2b c4 3d e4 f9 cc bc f6 ed 13 be 48 00 c1 bc
       0.09578667 -0.0250215 -0.14446244 -0.023559704
0002d0 55 a9 83 3d ba d4 40 3d 34 ec ce 3d 47 e0 10 3c
       0.06428782 0.04707787 0.10103646 0.008842534
0002e0 5e 57 b9 3d de cb 09 3d cb af 2b 3e 1f 7b b1 bd
       0.09049867 0.03364169 0.16766278 -0.086660616
0002f0 dd fc 45 bc 12 5c e0 3c f6 bb 6b be 5b bf 79 bd
       -0.012084213 0.027387653 -0.2302092 -0.060973506
000300 b0 a9 32 3e e8 00 02 3e 48 52 b6 3d b7 e8 20 bd
       0.17447543 0.12695658 0.08902413 -0.039284434
000310 64 0d 53 3c 9b e3 e7 3c 3e f4 f7 bc 36 ee 60 bd
       0.012881611 0.028306773 -0.030267831 -0.054914676
000320 9b ba 00 3d 6f 2c a3 bb 43 bb 3d 3e 9f 0b 35 be
       0.03142796 -0.004979662 0.18528466 -0.17680214
000330 6e 77 d2 bd de f9 a3 3b 15 76 09 3e b9 31 90 39
       -0.10276686 0.0050041517 0.13423951 0.00027502867
000340 62 d9 2e bd ad 72 01 3e 7b 30 8e 3e 18 d9 17 3c
       -0.04268778 0.12641402 0.27771363 0.009268068
000350 95 2f 8c 3d 9f cf 4c 3d 38 3b 68 3d 75 84 b9 bd
       0.06845013 0.05000269 0.0566971 -0.09058467
000360 be 44 9a bc f4 04 9d bc 84 45 12 be 28 d7 74 3d
       -0.018831607 -0.0191674 -0.1428433 0.0597755
000370 66 85 9e 3c 0b 9e 27 3e 44 07 5a 3d ae 69 e2 bd
       0.019350719 0.16368882 0.053229585 -0.11055313
000380 9e 45 88 bd 46 29 96 bd 10 2c 64 bd bb 03 83 3c
       -0.066539034 -0.07332091 -0.055706084 0.01599299
000390 46 e9 a7 bc 9e 6b db 39 88 d4 d8 bd c7 1f 12 3c
       -0.020496976 0.00041851116 -0.10587412 0.008918709
0003a0 0c fa ff 3c ba b7 dc bd 67 ac bc 3d 7d fc 5e bd
       0.031247161 -0.107772306 0.09212571 -0.05444001
0003b0 28 db 16 3d 07 19 f9 3d 09 3f c5 bd 38 6e 45 be
       0.036830097 0.12162977 -0.096311636 -0.19280326
0003c0 d3 e4 6e 3e ca e8 27 3e 1f f2 6c bd 01 0f a1 bd
       0.23329477 0.16397396 -0.057848092 -0.0786419
0003d0 1a be f4 3d a7 93 31 be 30 d9 8e 3d da ea 1d be
       0.119503215 -0.17341481 0.06975019 -0.1542162
0003e0 5b 3d 36 bc d6 61 3c be e7 1e 6b 3d 9b 72 aa 3e
       -0.011123027 -0.18396696 0.057402518 0.33290562
0003f0 dd 3c 04 3d c9 c3 3a 3d fc 5a dd bd 66 d0 7e 3d
       0.032284606 0.04559687 -0.108083695 0.062210463

base.mlp.fc1.0.bias f4 [64]
000000 ea 2a 6e bd d3 08 90 3b 9f ac 05 3d 58 b0 8f bd
       -0.058146395 0.004395583 0.032635327 -0.07016057
000010 1d 54 91 bd ca 1a 11 3e 7c e0 0a bd 9e 42 bb 3d
       -0.070961215 0.14170375 -0.03390549 0.091435656
000020 f3 99 80 3d b6 b8 2b be 1b 58 30 bd ba 0f 3c 3e
       0.062793635 -0.1676968 -0.043052774 0.18365374
000030 bd da 59 3d 08 e3 56 bc 0c 60 37 3d 2d a1 2b 3d
       0.05318712 -0.013115652 0.04476933 0.041901756
000040 8b 43 90 bd 7c 97 c7 bc dc f7 bf 3d 52 41 32 3e
       -0.07044133 -0.024364226 0.09373447 0.1740773
000050 c0 0a 17 3d 78 fb 47 bd 33 58 67 bd 71 ce 99 3c
       0.036875486 -0.048823804 -0.056480598 0.018775197
000060 42 51 38 bd be 8b 1b bd 3a 3c 27 3d a6 ca f1 3c
       -0.04499937 -0.037975065 0.04082892 0.029515576
000070 fa 71 57 3c fc f3 ea bb 13 78 59 3d b2 60 c6 3c
       0.013149733 -0.0071701985 0.053093027 0.02421603
000080 20 67 77 3d 0d f8 c0 3d a4 1b 6b ba 0e 8d ad bd
       0.060401082 0.09422312 -0.00089686573 -0.0847417
000090 93 aa 01 bd 16 2e ee 3b 31 d5 43 bb d3 40 0d 3c
       -0.031656813 0.0072686775 -0.002988171 0.008621412
0000a0 a3 3c 9a bd b8 a4 28 bd a4 c6 f9 3d 9a 07 aa 3b
       -0.07531097 -0.041172713 0.12196091 0.0051888945
0000b0 bf 77 1a be fd 75 dd 3c a5 be 1b 3e e5 2b 47 3e
       -0.15084742 0.0270338 0.15209444 0.19450338
0000c0 88 bc 33 be bc 0d f4 bd d2 93 0b bd 2e f0 91 3d
       -0.17552388 -0.11916682 -0.03407652 0.07125889
0000d0 09 4e af 3d fa e4 63 3d dc 67 91 bc 13 3c a5 bc
       0.08559806 0.05563829 -0.01774972 -0.020170247
0000e0 9a ac d2 bd 5f 11 0c 3d 41 4b 6a bd 25 15 e6 3d
       -0.102868274 0.034196254 -0.057200674 0.11234502
0000f0 70 fd 1a 3d 5a 6c 08 3d 2a e6 7f 3d 9e fa 81 bd
       0.037839353 0.033306457 0.06247536 -0.063466296

base.mlp.fc1.2.weight f4 [64]
000000 c0 38 84 3f 29 75 5e 3f 17 6a 75 3f 32 c2 85 3f
       1.0329819 0.8689752 0.95865005 1.0449889
000010 94 9f 9f 3f b4 03 75 3f db 4c 69 3f 86 66 7a 3f
       1.2470574 0.95708776 0.911329 0.9781269
000020 b1 3e 87 3f fa 2b 88 3f ee 1a 80 3f 1f 73 86 3f
       1.0566007 1.063842 1.0008218 1.0503882
000030 14 27 82 3f 04 e1 76 3f 84 f1 72 3f 4a c9 7f 3f
       1.0168176 0.96437097 0.94899774 0.9991652
000040 61 a9 8f 3f 9e ae 83 3f 34 ea 85 3f e2 8e 83 3f
       1.1223565 1.0287664 1.0462098 1.0277979
000050 f7 40 84 3f c6 67 81 3f 07 1a 69 3f d6 8f 75 3f
       1.0332326 1.0109794 0.9105534 0.959226
000060 77 41 7b 3f 98 28 82 3f 1b 03 7d 3f 18 ba 84 3f
       0.98146766 1.0168638 0.98832864 1.0369291
000070 ca bb 6f 3f 6f 54 78 3f 20 9e 82 3f bb 70 6e 3f
       0.9364592 0.97003835 1.0204506 0.93140763
000080 32 12 53 3f 51 4e 8d 3f 02 a6 5d 3f 05 52 83 3f
       0.8244964 1.1039525 0.8658143 1.0259405
000090 00 87 82 3f fa 27 6c 3f 23 86 6c 3f b4 a6 6e 3f
       1.0197449 0.922485 0.92392176 0.9322312
0000a0 dc a2 85 3f 44 5d 6e 3f 67 76 81 3f 8e 8b 68 3f
       1.0440326 0.9311106 1.0114259 0.90837944
0000b0 74 3b 6f 3f ca 79 7d 3f a0 bd a3 3f 04 52 7e 3f
       0.93450093 0.9901396 1.2792244 0.99343896
0000c0 0e f8 7f 3f e1 31 8d 3f 5f 95 5e 3f 84 ff 82 3f
       0.99987876 1.1030847 0.8694667 1.0234227
0000d0 33 7d 79 3f a2 27 55 3f 93 64 77 3f 86 a5 66 3f
       0.97456664 0.832636 0.9663784 0.9009632
0000e0 a2 ae 97 3f 1b ee 6e 3f aa 8a 7c 3f 68 02 78 3f
       1.1850169 0.9333207 0.98649085 0.9687867
0000f0 ad 42 65 3f 73 37 7c 3f 43 7a 7b 3f bb ec 80 3f
       0.89554864 0.9852211 0.9823343 1.0072244

base.mlp.fc1.2.bias f4 [64]
000000 ea 9f 1c be 7c d5 cd bb 39 a2 88 3c 58 9f 60 be
       -0.15295377 -0.006281553 0.016678916 -0.21935785
000010 3f 21 33 be 9b 02 de 3d 43 76 28 bd 2e e7 4d 3d
       -0.17493151 0.10840341 -0.04112841 0.0502693
000020 cc 0c 9a 3d 60 00 2b be 39 0a 15 be c4 f7 03 3e
       0.07521972 -0.16699362 -0.14554681 0.12887484
000030 0e d5 1e 3e 38 55 00 bd 25 89 0d 3d b9 e0 4c 3d
       0.15510961 -0.03133127 0.03455462 0.050019
000040 1c a6 63 be 33 cb 0a be 3e 9e 04 3e 64 60 19 3e
       -0.22231334 -0.13554077 0.1295099 0.14978176
000050 83 1d 30 3d b0 53 e5 bd 19 f7 86 bd e7 82 7a 3b
       0.042996895 -0.11197603 -0.06590099 0.0038224997
000060 94 f6 a8 bc de 33 c1 bd f9 4b 02 3d af d8 6a 3e
       -0.02062539 -0.09433721 0.031810734 0.2293422
000070 30 bc 57 ba ee 8e bb bd a2 74 81 3d 2b 97 69 3b
       -0.0008229641 -0.09158121 0.06321074 0.0035643082
000080 99 bd 81 3e 84 7e 47 3e e1 fc 28 bc bc 2b 04 be
       0.25339964 0.19481856 -0.010314197 -0.12907308
000090 53 f6 63 bd 06 53 3b bb f4 e8 63 bb bd c1 2f 3b
       -0.055654835 -0.0028583421 -0.0034776302 0.0026818358
0000a0 74 48 44 be 71 c2 8c bd bc 5c f6 3d b6 c0 51 3b
       -0.19168264 -0.06873024 0.120294064 0.0032005734
0000b0 76 ec d3 bd 37 95 0a 3e b7 39 3a 3e 76 6d 3a 3e
       -0.10347836 0.13533483 0.18186079 0.18205819
0000c0 5f b9 12 be 1b 97 34 be d5 de 69 bc ce d6 af 3d
       -0.14328526 -0.17635767 -0.014274319 0.085858926
0000d0 07 94 03 3d f6 69 14 3c 30 c9 9f bd 7b 84 2d bd
       0.03212359 0.009058466 -0.07802045 -0.04236267
0000e0 18 65 9c be 1a 51 83 3d 6d 56 0e be 39 fe 0a 3e
       -0.30545878 0.06411953 -0.13900156 0.13573541
0000f0 09 5d 63 3d b8 64 20 3d 9e 94 15 3e 78 56 c0 bd
       0.055508647 0.039158553 0.14607474 -0.093914926

base.mlp.fc_h.0.weight f4 [64, 64]
000000 ea 1f 83 3e d6 4f cf bd 20 71 ee 3d 2d 63 c3 be
       0.25610286 -0.10122649 0.11642671 -0.38161603
000010 f8 44 9b 3d 18 ab 8a 3d 6a b8 36 be a3 23 14 bf
       0.07581514 0.06770915 -0.17843786 -0.5786688
000020 7c 8d 35 bc 4a f9 22 3e 6b 4d 06 be af 3a 69 3e
       -0.011081096 0.15915409 -0.1311547 0.22776292
000030 7a db d9 be 25 48 27 3d 85 18 f3 3d b2 01 94 3d
       -0.4255026 0.040840287 0.11869911 0.07226886
000040 40 f3 9a 3e bc 4a 29 be 7a 2a ef 3d 27 32 2b bc
       0.3026371 -0.16532415 0.11678024 -0.010448969
000050 fa 51 11 be 62 14 75 3e ca f6 f7 3c 4b 0a 17 3e
       -0.14191428 0.23933557 0.030269045 0.1475002
000060 7e 3e ce be 91 5c 2f 3e 41 c0 97 3e 55 e6 38 be
       -0.40282053 0.17125155 0.29638866 -0.18056615
000070 e4 56 12 3e cf f0 cc 3d 03 21 19 be e4 05 80 3e
       0.14290959 0.10006868 -0.14953999 0.25004494
000080 8c 4c f9 bd 4f fa b3 be 52 45 44 be 5a cb 69 3d
       -0.12172803 -0.35151908 -0.19167069 0.057078697
000090 2f fc 4e 3e b8 d4 3d 3e 53 73 7a bc ae 88 38 3d
       0.20213388 0.18538177 -0.0152862845 0.045052223
0000a0 9d 12 14 3e ec 1a e9 bd dd 29 55 3e 44 ab 18 3e
       0.14460225 -0.11382088 0.20816751 0.14909083
0000b0 8a 81 85 3e d6 e0 cf bd cd 23 e9 bd 02 e1 a9 3d
       0.26075393 -0.10150306 -0.113837816 0.0829487
0000c0 04 a3 bf bd 55 be fd 3d ff 93 49 3e 3f 74 85 3e
       -0.09357265 0.123898186 0.19685362 0.2606525
0000d0 78 7d c9 3e ae 6c e7 bc cd f4 41 3e 3a ee 70 be
       0.39353538 -0.028250065 0.1894104 -0.23528376
0000e0 12 6a b6 bd 7b c0 af bd 8b b6 35 3e b7 60 05 be
       -0.0890695 -0.085816346 0.17745416 -0.13025175
0000f0 02 a5 8e 3e 23 c4 6d 3e 52 66 84 be ba 31 ae 3e
       0.27860266 0.23219351 -0.25859314 0.34022313
000100 79 01 73 3d cd 70 6c 3c 1a d0 8d 3d 57 ba 80 bd
       0.059327576 0.014431191 0.06924458 -0.062855415
000110 90 e1 7c 3e 6b 7b 0a 3d e2 1d ba 3e c3 96 f3 3c
       0.2469542 0.033809107 0.36350924 0.029734975
000120 39 9d 22 be b3 88 da 3d de d0 bc 3c f0 48 c7 bc
       -0.15880288 0.106706046 0.023048814 -0.024326771
000130 8c 34 54 be 53 b8 48 bb 44 76 9b be 0c b1 59 3d
       -0.2072317 -0.0030627444 -0.30363667 0.05314736
000140 bc a7 a9 3d 40 1d cd 3e 98 a3 9a bd 8c c3 00 3e
       0.08283946 0.40061378 -0.07550734 0.12574595
000150 82 fb a8 3c 64 6c 1c 3e 7c 18 c9 bd ee e2 9d be
       0.02062774 0.15275723 -0.09819123 -0.30837196
000160 1f 9a 51 3d 69 87 35 3e 29 3a d8 be 77 26 e5 3d
       0.051172372 0.17727436 -0.42231873 0.11188977
000170 03 d1 10 3f 81 ad d1 3d 48 a5 e0 3e d2 22 95 3d
       0.56568927 0.10238171 0.438761 0.07282032
000180 b3 c6 00 3c f3 54 90 3d 36 77 0f 3e 52 44 e6 bd
       0.007859874 0.07047453 0.14010319 -0.112435
000190 b5 06 28 3e 4d 8c 81 3e e7 b7 48 3e c4 04 c4 3e
       0.16408809 0.25302354 0.19601403 0.38284886
0001a0 fb c9 8d 3c 68 95 83 be 85 db c1 3d fc f3 e7 3d
       0.017308226 -0.25699925 0.09465698 0.11325833
0001b0 fc b5 c8 3e 8b 20 ed 3d 5b 0d 1f 3e b0 0f a1 3d
       0.39201343 0.11578473 0.15532438 0.0786432
0001c0 aa 3a de 3d 79 28 2a be 14 1a 12 3e 74 e2 80 3e
       0.10851033 -0.16617002 0.1426776 0.2517277
0001d0 52 ec 10 3c 27 a7 ad bd 3d 3a ba 3d db 06 24 3f
       0.008845406 -0.084791474 0.09093139 0.6407296
0001e0 fd d7 39 3e 61 f8 50 3e 29 4c 9c bd f2 ad 6b 3e
       0.18148799 0.20407249 -0.07631714 0.23015574
0001f0 c1 49 2d 3e 39 45 84 3d e1 f0 ab bd 57 3d 54 bd
       0.16922666 0.06458516 -0.083955534 -0.05181631
000200 ae f0 8b 3e ef ef 9d 3e ce c1 53 3b dc 1f 81 be
       0.27332062 0.30847117 0.0032311562 -0.2521962
000210 bf 88 ae bc 92 3a ac 3d a9 ef f2 bd ea 22 3a bd
       -0.02130544 0.08409609 -0.11862118 -0.045443453
000220 6a bd 4b be 96 fe a0 bb f4 c3 5e bd 3b e2 2e be
       -0.19896474 -0.0049131615 -0.054386094 -0.17078488
000230 ff 73 89 3c 10 c0 81 bd 47 43 48 bd 0b d3 71 3d
       0.016778944 -0.06335461 -0.048892286 0.059039157
000240 ca ce 19 3b b5 e7 53 3d 58 2e 17 3e f0 52 1c 3d
       0.0023469203 0.051734645 0.14763772 0.038165033
000250 d8 97 30 bd d7 6e d8 be bd 50 17 bf 1f 38 18 be
       -0.04311356 -0.42272064 -0.5910757 -0.14865158
000260 22 f4 83 3e 7e da 41 3e 9f 6c 84 3d a4 14 ae 3e
       0.25772196 0.18931004 0.0646603 0.34000123
000270 d9 c1 14 bd 5a ee 09 3c 24 c3 3e be a1 35 bd 3e
       -0.03631768 0.008418644 -0.18629128 0.36954978
000280 67 2c 10 3e c9 b0 0e 3d 31 f6 53 3c 8d 81 1f be
       0.14079438 0.034836564 0.012937115 -0.15576763
000290 47 4b 40 3e cf 87 14 bd 6e 79 2e bd 1c cc 8c be
       0.18778716 -0.03626233 -0.042596273 -0.27499473
0002a0 06 fa 61 bd 39 1d 59 be 3b 95 c8 3d c9 47 58 3e
       -0.05517008 -0.21202554 0.097940885 0.21121134
0002b0 ba 61 9d bd de 29 7a be 02 26 b9 be 23 89 b9 3e
       -0.076846555 -0.24430034 -0.3616181 0.3623744
0002c0 e9 49 8a 3e 7f 9b f6 bc 72 7f 2f be ec 81 4a 3e
       0.27009514 -0.030103443 -0.1713846 0.19776124
0002d0 13 b8 bd 3e 8b ea 1e 3e fd 57 50 be 0e 18 5f 3d
       0.370545 0.15519159 -0.20346065 0.0544663
0002e0 75 f7 0b be 8f 28 70 be f7 34 8e be 27 ae ce 3d
       -0.13668616 -0.23452972 -0.27774784 0.10091811
0002f0 2e ac 0f be ea f0 0f bf 1c de cf bd 21 17 16 be
       -0.14030525 -0.5622698 -0.10149786 -0.1465726
000300 6d e8 ad bc 56 ad ec 3d a2 1c 2b be 4c f7 1d be
       -0.021228993 0.11556499 -0.16710141 -0.15426368
000310 8b da b4 be c9 24 38 bc 24 cf 18 3e dd 3b 35 3d
       -0.35322985 -0.011239239 0.14922768 0.044246543
000320 32 fd 0b 3d 60 98 95 bd 5a 3f 06 be 4a 26 38 3e
       0.034177013 -0.07304454 -0.13110104 0.17983356
000330 a7 26 b7 3e 7c f3 9f be 22 9a e8 3c 47 52 b7 be
       0.35771677 -0.3124045 0.028393809 -0.3580496
000340 a1 f9 01 3e 11 3e d9 3d 0d 94 06 3e 4a a1 ca bc
       0.12692882 0.10607541 0.13142414 -0.024735112
000350 8f f6 e2 3d 5b cc 35 3e 46 91 58 3e a5 1a 87 3e
       0.110821836 0.17753737 0.21149167 0.26387516
000360 1c 3d 0f bd dd b4 1e 3e d1 ba ba bc c1 8d 79 3e
       -0.034970388 0.15498681 -0.02279416 0.24370481
000370 94 b8 28 3c b3 98 a0 be 48 a8 3a be c6 e6 1f 3e
       0.010297913 -0.313665 -0.18228257 0.15615377
000380 19 35 d7 3e e8 96 65 3d d6 8c c1 bc fd 92 36 be
       0.42032698 0.05605212 -0.023626726 -0.17829509
000390 ce 82 ab 3e 74 51 94 3e 99 c0 31 bd 37 16 a5 3d
       0.33498234 0.28968394 -0.043396566 0.08060878
0003a0 a4 fc 53 3e a2 a8 a6 be 9a 55 e8 bd 2d bc c8 3e
       0.20701844 -0.32550532 -0.11344452 0.39206067
0003b0 29 b6 72 be b8 f9 b1 3a e5 5e 18 be 68 0d 6e be
       -0.23702301 0.001357845 -0.1487995 -0.23247302
0003c0 91 ee 4b 3e 40 f0 18 3e 6f e4 83 3e 41 37 82 be
       0.19915225 0.14935398 0.25760219 -0.2543278
0003d0 4a d1 f7 3c ca cd 74 3d 16 fb 1c 3f b9 99 a4 3d
       0.030251164 0.05976657 0.61320627 0.08037133
0003e0 9b b9 b0 bd ca 91 90 3e c0 55 e5 bd 7c cb b7 bb
       -0.086291514 0.28236228 -0.11197996 -0.005608974
0003f0 93 29 a8 be a0 34 20 3e cb 65 2b 3e c2 d3 6c 3d
       -0.3284422 0.15645075 0.1673805 0.057819135

base.mlp.fc_h.0.bias f4 [64]
000000 00 00 00 00 00 00 00 00 00 00 00 00 00 00 00 00
       0.0 0.0 0.0 0.0
000010 00 00 00 00 00 00 00 00 00 00 00 00 00 00 00 00
       0.0 0.0 0.0 0.0
000020 00 00 00 00 00 00 00 00 00 00 00 00 00 00 00 00
       0.0 0.0 0.0 0.0
000030 00 00 00 00 00 00 00 00 00 00 00 00 00 00 00 00
       0.0 0.0 0.0 0.0
000040 00 00 00 00 00 00 00 00 00 00 00 00 00 00 00 00
       0.0 0.0 0.0 0.0
000050 00 00 00 00 00 00 00 00 00 00 00 00 00 00 00 00
       0.0 0.0 0.0 0.0
000060 00 00 00 00 00 00 00 00 00 00 00 00 00 00 00 00
       0.0 0.0 0.0 0.0
000070 00 00 00 00 00 00 00 00 00 00 00 00 00 00 00 00
       0.0 0.0 0.0 0.0
000080 00 00 00 00 00 00 00 00 00 00 00 00 00 00 00 00
       0.0 0.0 0.0 0.0
000090 00 00 00 00 00 00 00 00 00 00 00 00 00 00 00 00
       0.0 0.0 0.0 0.0
0000a0 00 00 00 00 00 00 00 00 00 00 00 00 00 00 00 00
       0.0 0.0 0.0 0.0
0000b0 00 00 00 00 00 00 00 00 00 00 00 00 00 00 00 00
       0.0 0.0 0.0 0.0
0000c0 00 00 00 00 00 00 00 00 00 00 00 00 00 00 00 00
       0.0 0.0 0.0 0.0
0000d0 00 00 00 00 00 00 00 00 00 00 00 00 00 00 00 00
       0.0 0.0 0.0 0.0
0000e0 00 00 00 00 00 00 00 00 00 00 00 00 00 00 00 00
       0.0 0.0 0.0 0.0
0000f0 00 00 00 00 00 00 00 00 00 00 00 00 00 00 00 00
       0.0 0.0 0.0 0.0

base.mlp.fc_h.2.weight f4 [64]
000000 00 00 80 3f 00 00 80 3f 00 00 80 3f 00 00 80 3f
       1.0 1.0 1.0 1.0
000010 00 00 80 3f 00 00 80 3f 00 00 80 3f 00 00 80 3f
       1.0 1.0 1.0 1.0
000020 00 00 80 3f 00 00 80 3f 00 00 80 3f 00 00 80 3f
       1.0 1.0 1.0 1.0
000030 00 00 80 3f 00 00 80 3f 00 00 80 3f 00 00 80 3f
       1.0 1.0 1.0 1.0
000040 00 00 80 3f 00 00 80 3f 00 00 80 3f 00 00 80 3f
       1.0 1.0 1.0 1.0
000050 00 00 80 3f 00 00 80 3f 00 00 80 3f 00 00 80 3f
       1.0 1.0 1.0 1.0
000060 00 00 80 3f 00 00 80 3f 00 00 80 3f 00 00 80 3f
       1.0 1.0 1.0 1.0
000070 00 00 80 3f 00 00 80 3f 00 00 80 3f 00 00 80 3f
       1.0 1.0 1.0 1.0
000080 00 00 80 3f 00 00 80 3f 00 00 80 3f 00 00 80 3f
       1.0 1.0 1.0 1.0
000090 00 00 80 3f 00 00 80 3f 00 00 80 3f 00 00 80 3f
       1.0 1.0 1.0 1.0
0000a0 00 00 80 3f 00 00 80 3f 00 00 80 3f 00 00 80 3f
       1.0 1.0 1.0 1.0
0000b0 00 00 80 3f 00 00 80 3f 00 00 80 3f 00 00 80 3f
       1.0 1.0 1.0 1.0
0000c0 00 00 80 3f 00 00 80 3f 00 00 80 3f 00 00 80 3f
       1.0 1.0 1.0 1.0
0000d0 00 00 80 3f 00 00 80 3f 00 00 80 3f 00 00 80 3f
       1.0 1.0 1.0 1.0
0000e0 00 00 80 3f 00 00 80 3f 00 00 80 3f 00 00 80 3f
       1.0 1.0 1.0 1.0
0000f0 00 00 80 3f 00 00 80 3f 00 00 80 3f 00 00 80 3f
       1.0 1.0 1.0 1.0

base.mlp.fc_h.2.bias f4 [64]
000000 00 00 00 00 00 00 00 00 00 00 00 00 00 00 00 00
       0.0 0.0 0.0 0.0
000010 00 00 00 00 00 00 00 00 00 00 00 00 00 00 00 00
       0.0 0.0 0.0 0.0
000020 00 00 00 00 00 00 00 00 00 00 00 00 00 00 00 00
       0.0 0.0 0.0 0.0
000030 00 00 00 00 00 00 00 00 00 00 00 00 00 00 00 00
       0.0 0.0 0.0 0.0
000040 00 00 00 00 00 00 00 00 00 00 00 00 00 00 00 00
       0.0 0.0 0.0 0.0
000050 00 00 00 00 00 00 00 00 00 00 00 00 00 00 00 00
       0.0 0.0 0.0 0.0
000060 00 00 00 00 00 00 00 00 00 00 00 00 00 00 00 00
       0.0 0.0 0.0 0.0
000070 00 00 00 00 00 00 00 00 00 00 00 00 00 00 00 00
       0.0 0.0 0.0 0.0
000080 00 00 00 00 00 00 00 00 00 00 00 00 00 00 00 00
       0.0 0.0 0.0 0.0
000090 00 00 00 00 00 00 00 00 00 00 00 00 00 00 00 00
       0.0 0.0 0.0 0.0
0000a0 00 00 00 00 00 00 00 00 00 00 00 00 00 00 00 00
       0.0 0.0 0.0 0.0
0000b0 00 00 00 00 00 00 00 00 00 00 00 00 00 00 00 00
       0.0 0.0 0.0 0.0
0000c0 00 00 00 00 00 00 00 00 00 00 00 00 00 00 00 00
       0.0 0.0 0.0 0.0
0000d0 00 00 00 00 00 00 00 00 00 00 00 00 00 00 00 00
       0.0 0.0 0.0 0.0
0000e0 00 00 00 00 00 00 00 00 00 00 00 00 00 00 00 00
       0.0 0.0 0.0 0.0
0000f0 00 00 00 00 00 00 00 00 00 00 00 00 00 00 00 00
       0.0 0.0 0.0 0.0

base.mlp.fc2.0.0.weight f4 [64, 64]
000000 09 66 94 3e 3a ef 37 bd b0 96 b0 3d 6d 1c b3 be
       0.28984097 -0.04490588 0.08622491 -0.34982625
000010 f8 14 fe 3d cb 14 89 3d 55 e9 25 be 76 14 13 bf
       0.12406343 0.06693419 -0.1620229 -0.57453096
000020 fc 46 d1 bc 22 f1 33 3e e2 4e f9 bd da f5 45 3e
       -0.025546543 0.17572454 -0.12173249 0.19332066
000030 f5 e5 e3 be 2e d3 05 3d b6 c3 87 3d ec 9a 99 3c
       -0.4451138 0.0326721 0.06629126 0.01875063
000040 b5 07 a4 3e 9e 8e 02 be d4 40 a1 3c 63 41 0f bd
       0.3203713 -0.12749717 0.019684233 -0.034974467
000050 ba 26 50 be e6 7f 84 3e 16 92 d7 3c a5 27 16 3e
       -0.20327273 0.2587883 0.026314776 0.1466356
000060 a8 d7 ca be 03 a9 3c 3e df 70 90 3e 3a 17 41 be
       -0.39617658 0.18423848 0.28211114 -0.18856516
000070 0e aa 0d 3e 22 24 de 3d 42 97 20 be 6c 09 80 3e
       0.13834402 0.108467355 -0.156827 0.25007188
000080 e8 fa f4 bd 61 f1 ea be 4c 95 3e be c9 8e b2 3d
       -0.11961919 -0.45887282 -0.1861164 0.0871864
000090 24 ce 81 3e 6b 24 20 3e d0 14 4b bc 5d d1 46 3d
       0.25352585 0.15638892 -0.012395099 0.048539508
0000a0 b3 d0 49 3e b8 6b d5 bd a6 5b 41 3e 97 fd c7 3d
       0.19708519 -0.10420936 0.18882617 0.09765165
0000b0 8d 08 89 3e ce c3 f9 bd 7d 56 19 be fc 3a 9d 3d
       0.26764336 -0.1219555 -0.14974399 0.07677266
0000c0 1d 80 48 bc 39 2f 1f 3e 41 8a 3c 3e dc 90 76 3e
       -0.012237576 0.15545358 0.18412115 0.24078697
0000d0 24 65 c0 3e 35 bd 22 bd 3b 16 46 3e 70 a9 72 be
       0.37577164 -0.039731223 0.19344418 -0.23697448
0000e0 e2 8b 2d bc b1 c0 e5 bd 99 af 4b 3e a7 1e 19 be
       -0.010592433 -0.112183936 0.19891204 -0.14953099
0000f0 7e b0 61 3e f3 e5 5c 3e 81 d8 9a be 5d 65 d6 3e
       0.22039983 0.21572094 -0.30243304 0.4187421
000100 c8 d9 a8 3d e9 21 a2 3c 77 95 5b 3d fd 88 d7 bc
       0.082446635 0.01979156 0.053609338 -0.026310438
000110 d6 4d a2 3e 80 07 0a 3d e4 e0 c6 3e 29 bc 02 3d
       0.3170001 0.03369856 0.38843453 0.031917725
000120 22 22 35 be 65 a9 ff 3d e3 aa 0f 3d 54 e7 67 bd
       -0.17688802 0.12483481 0.03507508 -0.056617096
000130 f7 fa aa be 62 0d 35 bb f3 17 a1 be d4 2a 15 3d
       -0.33394596 -0.0027626385 -0.31463584 0.036417797
000140 e8 84 7b 3e 92 f9 f0 3e 13 23 84 be 85 f7 dc 3d
       0.24562418 0.47065407 -0.2580801 0.10789398
000150 4a d6 1e 3b eb 88 2f 3e b9 c6 bc bd 5a f2 75 be
       0.0024236613 0.17142074 -0.09217591 -0.24018231
000160 06 07 a4 3d e0 54 45 3e a6 9f e1 be 0c 00 d0 3d
       0.08009152 0.19270658 -0.44067115 0.10156259
000170 f2 c2 00 3f e6 4d ea 3d 19 25 9d 3e b2 27 88 3d
       0.5029746 0.11440639 0.30692366 0.06648196
000180 fe 00 3e bb 09 a5 31 3d fc 46 fb 3d 0f 4f ae bd
       -0.002899229 0.04337028 0.122693986 -0.08511173
000190 3e 99 42 3e 92 8e 80 3e 97 c0 4a 3e 0b ec be 3e
       0.1900377 0.25108773 0.1980003 0.37289461
0001a0 3b 28 2f 3d 23 2e 71 be 0b 64 8b 3d 52 4e c3 3d
       0.042762976 -0.23552756 0.06806191 0.09536423
0001b0 6e 46 dd 3e 31 54 be 3d 59 f5 a2 3d c1 8e 8c 3d
       0.43217796 0.09293402 0.079569526 0.06863166
0001c0 fa de 0f 3e e6 45 0c be 85 04 0f 3e 69 90 60 3e
       0.14049903 -0.13698539 0.13966568 0.21930088
0001d0 92 d7 9e 3b 59 2d ae bd 0c c5 dd 3d 6a 85 1d 3f
       0.0048474753 -0.08504743 0.10828599 0.615317
0001e0 cb b9 72 3e 4d 1d 2e 3e 6a dc 2a 3c 12 04 58 3e
       0.23703687 0.17003365 0.010428527 0.21095303
0001f0 f9 70 24 3e d4 4f 38 3d 14 ff e3 bd ad ba c8 3d
       0.1605872 0.044998005 -0.11132637 0.098012306
000200 d6 d3 7b 3e 7b 3d 95 3e 1b 03 be 3c 1e 60 8c be
       0.24592528 0.29148468 0.02319484 -0.27417082
000210 51 5a 78 be 8e 24 bf 3d b3 94 14 be cc 10 10 bd
       -0.24253203 0.09333144 -0.14509849 -0.03517227
000220 74 2e 3e be c8 85 a3 bc 3d 3e b9 bd 29 55 e0 bd
       -0.18572408 -0.019961253 -0.09045074 -0.10953743
000230 9e 36 04 3d a2 86 73 bd e7 ec 2f bd e0 b8 a6 3d
       0.03227865 -0.059454568 -0.042950537 0.08140731
000240 44 fc 92 bd e2 b5 a5 3c 23 68 5d 3e 26 ff 8c 3d
       -0.07177022 0.02022833 0.21621756 0.06884603
000250 e6 3c de bc 10 c7 e6 be 01 e5 13 bf 6b 87 1a be
       -0.027128648 -0.45073748 -0.5777131 -0.1509072
000260 0e e6 72 3e d1 4b 37 3e 28 20 b9 3d 37 a0 b3 3e
       0.23720571 0.17900015 0.090393364 0.35083172
000270 c1 81 2c bb 49 f3 74 3b 84 68 97 bd 8c 84 b5 3e
       -0.0026322457 0.0037376455 -0.07392982 0.35452688
000280 de 43 2a 3e 88 62 ae 3d a5 cf de 3c cf 44 3a be
       0.16627452 0.08514887 0.027198622 -0.18190311
000290 40 c8 26 3e 55 0d 7f bc a6 0b 3e bd 81 fe 8e be
       0.16287327 -0.015567143 -0.046397828 -0.27928546
0002a0 4a b5 a9 bd 98 73 79 be f9 6a 04 3e 58 53 42 3e
       -0.08286531 -0.24360502 0.12931432 0.18977106
0002b0 c3 4c 0a be 69 13 5b be 56 4e a5 be af 89 bf 3e
       -0.13505845 -0.21394123 -0.32286328 0.37409732
0002c0 c1 eb 76 3e 17 73 74 bd 05 a5 31 be 60 7f 86 3e
       0.2411337 -0.05968007 -0.17348106 0.26269054
0002d0 86 a0 c4 3e 0c c1 15 3e 96 d8 54 be 8c 78 63 bc
       0.3840372 0.14624423 -0.20785746 -0.013883721
0002e0 19 f9 72 be 07 29 25 be 81 e7 c2 be 41 dc f2 3d
       -0.23727836 -0.16128932 -0.38067248 0.11858416
0002f0 f9 39 0b be e2 90 09 bf 42 bb 80 b8 4e 47 30 be
       -0.13596334 -0.537367 -6.138395e-05 -0.172147
000300 8e 4c 32 bd d1 11 f8 3d ac 0a e9 bd 79 64 4d be
       -0.04353004 0.12112773 -0.113789886 -0.20057859
000310 47 9d 07 bf 11 80 80 bc a5 74 02 3e 21 bd 98 3d
       -0.5297436 -0.015686067 0.12739809 0.074579485
000320 27 98 bb 3d fa 6d 03 be ad 87 19 be 1c ff 44 3e
       0.0915988 -0.12834921 -0.14993162 0.19237942
000330 87 df c3 3e 21 fe 8d be a7 6f 7a 3d f5 c3 8d be
       0.38256475 -0.27732947 0.061141636 -0.27688566
000340 1c a6 ab 3d 31 73 97 3d 01 9a 2e 3e 3d 31 60 3d
       0.08381292 0.07395018 0.17050935 0.054734457
000350 18 f5 22 3e 5e 2e 07 3e 82 94 45 3e 74 64 6f 3e
       0.15913808 0.13201281 0.19294932 0.23378164
000360 60 ae 6e bd 78 b2 08 3e 17 87 99 bb 8b 15 9a 3e
       -0.058271766 0.1334933 -0.0046852934 0.3009456
000370 af e1 a8 3c 56 9c 87 be 3c e6 36 be f7 86 46 3e
       0.020615427 -0.26486462 -0.17861265 0.19387423
000380 fc ff d7 3e 6d 59 f9 3d 7e e5 3f bd 25 98 7b be
       0.42187488 0.1217526 -0.04684972 -0.24569757
000390 bd 07 46 3e da b4 76 3e 03 23 8e bd f3 09 03 3e
       0.1933889 0.24092427 -0.06940272 0.12796764
0003a0 22 7c c9 3c 14 e1 a8 be 38 a7 8d bd 06 79 c6 3e
       0.024595324 -0.3298422 -0.0691666 0.3876421
0003b0 46 76 67 be 27 bd 91 3d c8 da d4 bc 2c 39 2b be
       -0.22603711 0.07116156 -0.02598323 -0.16721028
0003c0 fd 87 16 3e d0 74 b2 3d 56 8c 54 3e 71 76 52 be
       0.14700313 0.087136865 0.20756659 -0.20552994
0003d0 dd 62 53 3d 04 33 d9 3d 1e 20 0a 3f da 02 0f 3e
       0.051607955 0.106054336 0.53955257 0.13965932
0003e0 6e 85 96 be e0 db 93 3e 47 6e 3a be a1 6f c5 3c
       -0.29398674 0.2887869 -0.1820613 0.02410108
0003f0 5f 0b a2 be 52 36 3a 3e 44 a4 39 3e 29 30 0c bc
       -0.316493 0.18184784 0.18129069 -0.008556404

base.mlp.fc2.0.0.bias f4 [64]
000000 26 d5 2b bd 51 2e a9 bd f3 7f a4 3d 91 86 cd 3c
       -0.04195132 -0.08260787 0.08032217 0.02508858
000010 2b be 20 3d 79 63 af bc ed 7b 05 be bd 69 28 be
       0.03924386 -0.021409737 -0.13035555 -0.16446586
000020 e4 fa 20 be fe e8 e2 bd 2e 2a ac 3d e9 3c 0d be
       -0.15720707 -0.11079596 0.08406483 -0.13792767
000030 b7 92 b6 bd aa 6c 55 bd 03 1a 57 3e 7e ea c4 3c
       -0.089147024 -0.052105583 0.21006016 0.024037596
000040 fa a4 5f 3c cc 7e af bd 84 c2 81 3d e6 d6 d8 bd
       0.013650173 -0.085691065 0.06335929 -0.105878636
000050 0e 35 3f 3d 08 3c b2 3d d0 b0 3e 3d 28 df 30 bd
       0.046681456 0.08702856 0.04655534 -0.04318157
000060 15 ef 9a 3d b8 9b 93 3d 0b 8d 1e 3d c9 95 c8 3d
       0.075651325 0.07207435 0.038708728 0.09794194
000070 05 eb 25 3d ac 7a 16 3d 10 54 26 bd 18 6b 8f 3d
       0.040507335 0.036738083 -0.040607512 0.070028484
000080 cf 84 d6 3d 6c 15 ab bd 37 f3 2f 3e 1b f5 d0 bd
       0.1047455 -0.08353695 0.17182623 -0.10203
000090 8f 69 99 bd 8b 44 11 bd b6 24 b9 bd 6c e4 12 be
       -0.07490837 -0.03546576 -0.09040205 -0.14344949
0000a0 92 ae cc 3d 95 bb d1 bc 08 32 bc 3d eb df ad bc
       0.09994234 -0.025602141 0.0918923 -0.021224936
0000b0 d1 e3 96 bd 29 0b c1 3d 30 4a 36 bd fc f2 01 bc
       -0.07367671 0.09425957 -0.044504344 -0.007931467
0000c0 de 48 b3 bc 80 dd 28 bd ef 73 00 bd 12 26 42 3c
       -0.021885332 -0.041226864 -0.031360563 0.011849897
0000d0 4a fb 02 be 1b 1a 2f 3d 99 96 f5 3c 54 2d 65 3d
       -0.12791172 0.042749505 0.029979037 0.05595143
0000e0 a4 0e ce bd f0 e2 04 3e de 6c 21 3d f3 be 81 3d
       -0.10061386 0.12977195 0.039410464 0.06335249
0000f0 66 32 12 bd 71 00 7e bd a9 07 2a bd 11 7a 37 3d
       -0.035692595 -0.06201214 -0.04151121 0.044794146

base.mlp.fc2.0.2.weight f4 [64]
000000 9f 37 81 3f f7 21 61 3f d3 2a 77 3f bf 73 6f 3f
       1.0095099 0.8794245 0.9654972 0.9353599
000010 98 06 08 3f e0 06 2c 3f 92 f6 7e 3f 15 84 3f 3f
       0.5313506 0.6719799 0.99594986 0.74810916
000020 2e 58 80 3f 7d 4a 82 3f 07 2a 4d 3f f3 2a 7d 3f
       1.002691 1.0178982 0.80142254 0.9889366
000030 dc c2 77 3f 5f cf 69 3f 87 4c 24 3f fd 2f 74 3f
       0.96781707 0.9133205 0.6417927 0.95385724
000040 e1 4d 63 3f 05 74 6a 3f 06 66 37 3f 50 fa 76 3f
       0.8879071 0.9158328 0.7164005 0.96475697
000050 f9 44 7a 3f a9 34 85 3f 51 ec 7c 3f 18 6c 4f 3f
       0.97761494 1.0406696 0.9879809 0.8102431
000060 48 62 78 3f e3 c5 3a 3f 68 9f 64 3f 39 90 7e 3f
       0.97024965 0.729582 0.89305735 0.99438816
000070 38 ce 7e 3f 10 06 23 3f d1 89 3f 3f ad 7c 80 3f
       0.99533415 0.63681126 0.74819666 1.0038048
000080 3a 07 87 3f 58 24 80 3f 88 b1 6b 3f 36 0b 6b 3f
       1.054908 1.0011091 0.92067766 0.9181398
000090 db 48 84 3f c3 80 49 3f 00 46 81 3f e8 1e 78 3f
       1.0334734 0.787121 1.0099487 0.9692216
0000a0 9d f6 83 3f ed 93 77 3f 59 4a 3d 3f a3 f1 5f 3f
       1.0309635 0.9671009 0.7394157 0.87478083
0000b0 c0 7f 80 3f 2a 2e 55 3f 6c 0f 4b 3f aa b5 07 3f
       1.0038986 0.83273566 0.79320407 0.5301157
0000c0 32 8b 7e 3f 1c 9c 6a 3f 65 6d 76 3f 3b 64 df 3e
       0.99431145 0.91644454 0.9626067 0.43631157
0000d0 36 41 82 3f 34 34 75 3f 73 2d 5c 3f 55 5e 54 3f
       1.0176151 0.9578278 0.8600685 0.8295644
0000e0 fa 67 77 3f b2 2f 7e 3f 9e e5 55 3f 09 f5 82 3f
       0.9664303 0.9929153 0.83553493 1.0231029
0000f0 25 21 6c 3f ec bf 68 3f 2b 71 5b 3f a9 c3 7b 3f
       0.92238075 0.9091785 0.85719556 0.9834543

base.mlp.fc2.0.2.bias f4 [64]
000000 af d1 b0 bd 07 ae 21 bd 7a 95 15 3d 46 98 99 bd
       -0.08633744 -0.039472606 0.036519505 -0.07499747
000010 2c 7c b4 bd 84 7f 86 3c ab 36 4d bd d2 15 5a bd
       -0.088127464 0.016418226 -0.050100964 -0.053243466
000020 3e e9 16 be 3c d7 6c bd de 3d b0 3d 40 61 a4 bd
       -0.14737412 -0.05782245 0.0860555 -0.080263615
000030 9a c5 8e bc 5b 1b 7e 3c 48 27 b1 3d 8a 53 4a bc
       -0.017428208 0.015509452 0.086500704 -0.012349019
000040 8d 60 51 bd b6 f9 5d bd 2b fc 91 3d eb 2c 82 bd
       -0.05111747 -0.05419322 0.07128175 -0.06356224
000050 8d b7 71 3d f4 43 03 3e 1b 65 63 3d dc 39 c6 bd
       0.05901294 0.12818891 0.055516344 -0.096790045
000060 e7 59 f0 3c c3 49 4a 3a 32 d1 ba 3d b3 6e 00 3e
       0.029339744 0.000771668 0.09121932 0.12542228
000070 58 40 c3 3d a9 5e 6f 3c e0 1e 26 bc aa 1c c0 3d
       0.09533757 0.014609971 -0.010139197 0.09380467
000080 55 56 d0 3d 3b 00 8f bd 56 54 c5 3d 5a b1 99 bc
       0.101727165 -0.06982466 0.096352264 -0.018761326
000090 46 91 47 bd c4 57 7d bc 4d a7 96 bd 7b 61 48 bd
       -0.048722528 -0.0154628195 -0.07356129 -0.04892109
0000a0 be 57 02 3e 2e 2f fc 3b 7a b4 0f 3d 1d fa cf 3b
       0.12728783 0.007696054 0.035084225 0.0063469545
0000b0 9f 2e 8b bd e1 6f 85 ba e2 52 a7 bc 9c b2 7c 3c
       -0.06796002 -0.0010180437 -0.020425264 0.015423443
0000c0 56 a2 34 bd c5 12 5f bd 82 a2 46 ba 66 26 5e ba
       -0.044100128 -0.05446126 -0.0007577316 -0.000847435
0000d0 31 22 b8 bd 3a a0 b7 3d 4d d6 80 3d be 52 4f 3d
       -0.089908965 0.08966108 0.06290875 0.05061602
0000e0 29 4a 28 bd 84 d5 08 3e d0 60 27 bc f5 1c ad 3d
       -0.04108635 0.133627 -0.010215953 0.08452789
0000f0 31 97 92 bc 13 ae d9 bd 05 fa c1 bc 53 80 ff 3d
       -0.01789436 -0.10628905 -0.023678789 0.12475648
