train/mappo/results/MPE/formation_hd_env/rmappo/check/run23/models/critic_agent4.pt (torch, 228695 bytes, 21 tensors)

base.feature_norm.weight f4 [324]
000000 e0 0d 78 3f 53 cc 5d 3f 11 d6 7e 3f c4 1f 7c 3f
       0.9689617 0.866399 0.9954539 0.9848597
000010 32 9a 7e 3f ef 49 7e 3f 29 e8 73 3f 91 66 76 3f
       0.99454033 0.99331564 0.95276123 0.96250254
000020 21 a6 7e 3f 9b 00 7e 3f 11 99 7d 3f 1f 19 7e 3f
       0.9947224 0.99219674 0.99061686 0.9925708
000030 9e 8c 77 3f 3e 56 7a 3f 1f b5 6e 3f b9 90 79 3f
       0.9669894 0.97787845 0.9324512 0.97486454
000040 3e 28 78 3f 0a d9 79 3f 7b 1c 76 3f 39 a5 5c 3f
       0.96936405 0.975968 0.9613721 0.8618961
000050 10 4c 7e 3f 29 d4 7e 3f 33 2c 80 3f 66 f0 7f 3f
       0.9933481 0.9954248 1.0013489 0.99976194
000060 cd ea 7e 3f 15 cc 7f 3f f7 5b 7b 3f be 38 80 3f
       0.9957703 0.9992078 0.981872 1.0017316
000070 de 33 80 3f 80 d0 7f 3f 1b 32 80 3f d5 80 7f 3f
       1.0015829 0.9992752 1.0015291 0.9980596
000080 6c 7a 7f 3f ca 72 7e 3f f7 37 7f 3f 7b 4e 7f 3f
       0.99796176 0.99393904 0.9969477 0.99729127
000090 c8 ad 75 3f b5 47 5f 3f 89 cd 77 3f ae 85 7c 3f
       0.95968294 0.8721879 0.96797997 0.9864148
0000a0 97 0c 7c 3f 10 bc 7b 3f d0 c7 7c 3f c4 80 74 3f
       0.9845671 0.98333836 0.9874239 0.9550898
0000b0 be 91 7c 3f 95 23 7a 3f 50 a9 76 3f 01 1a 79 3f
       0.98659885 0.97710544 0.963521 0.97305304
0000c0 2a 49 7e 3f 80 4d 7b 3f c3 1a 78 3f 3c 78 7a 3f
       0.9933039 0.9816513 0.96915835 0.97839713
0000d0 ac ef 7c 3f 92 da 7a 3f 3c c1 7c 3f 89 61 7b 3f
       0.9880321 0.9798976 0.9873235 0.981957
0000e0 58 69 7e 3f a3 9a 7e 3f 46 83 7f 3f 4c 8f 80 3f
       0.9937949 0.99454707 0.9980968 1.0043731
0000f0 fe b0 80 3f bc 0e 7f 3f 9e 37 80 3f c9 e7 7d 3f
       1.0054014 0.9963186 1.0016973 0.991818
000100 9d 81 80 3f 70 35 80 3f 23 58 80 3f 8d f5 7f 3f
       1.0039555 1.0016308 1.0026897 0.99984056
000110 b3 b5 80 3f 74 6c 7f 3f 41 bb 80 3f 4c 70 7f 3f
       1.005545 0.9977486 1.0057145 0.99780726
000120 4b d9 75 3f 2e 11 79 3f c5 ca 73 3f be d4 7d 3f
       0.9603469 0.9729184 0.95231277 0.99152744
000130 a1 66 7d 3f d3 60 7e 3f 2b cb 7e 3f 88 cf 7b 3f
       0.98984724 0.9936649 0.9952876 0.9836354
000140 7b c4 75 3f c4 73 79 3f 0f e5 78 3f df 12 79 3f
       0.9600293 0.9744227 0.97224516 0.9729442
000150 81 89 77 3f c0 66 7c 3f 52 6f 7e 3f 2c 90 70 3f
       0.9669419 0.98594284 0.9938861 0.9396999
000160 9a 38 73 3f a4 82 7e 3f 69 cf 6b 3f 2b 52 7b 3f
       0.9500824 0.9941809 0.9211336 0.98172253
000170 85 e9 7e 3f af d3 7d 3f 21 b3 7e 3f c4 27 7f 3f
       0.9957507 0.9915113 0.9949208 0.9967005
000180 07 d1 80 3f 4e 33 7f 3f 90 3a 7f 3f 46 b2 80 3f
       1.006379 0.9968766 0.99698734 1.0054405
000190 47 bd 7f 3f c8 b0 80 3f 6f 7c 7f 3f 3d ba 7f 3f
       0.9989819 1.0053949 0.99799246 0.9989355
0001a0 98 19 80 3f 3f a0 80 3f 60 fa 7e 3f b9 82 80 3f
       1.000781 1.0048903 0.9960079 1.0039893
0001b0 09 f4 64 3f 09 3b 77 3f 0f 59 7c 3f 12 19 79 3f
       0.8943487 0.96574455 0.9857339 0.9730388
0001c0 14 38 75 3f 62 99 7e 3f 50 2a 83 3f ed b9 69 3f
       0.95788693 0.99452794 1.0247288 0.91299325
0001d0 8f a2 7d 3f e1 2f 7d 3f e9 a9 79 3f 6d e9 78 3f
       0.9907617 0.9890118 0.9752489 0.9723118
0001e0 b0 b5 78 3f b8 4a 7b 3f 75 88 7e 3f 90 48 80 3f
       0.97152233 0.98160887 0.99426967 1.0022144
0001f0 ce b6 72 3f 6d 90 7d 3f a1 a7 7b 3f 72 01 80 3f
       0.9481019 0.990485 0.98302656 1.0000441
000200 15 73 7f 3f f7 cf 7f 3f 8d ef 80 3f b8 7a 80 3f
       0.99784976 0.99926704 1.0073105 1.0037451
000210 7e 85 7e 3f 5a 2f 7f 3f 3e 5b 7e 3f 3d 9a 80 3f
       0.9942244 0.9968163 0.99357975 1.004707
000220 e7 00 81 3f 8d 5f 80 3f 12 27 80 3f 6f 24 80 3f
       1.00784 1.002916 1.0011923 1.0011119
000230 be 1d 7f 3f 6b 2a 80 3f 55 5f 7e 3f f7 70 80 3f
       0.9965476 1.0012945 0.99364215 1.0034474
000240 b2 35 6c 3f 64 34 77 3f 47 6d 67 3f 3b 41 7c 3f
       0.9226943 0.96564317 0.9040112 0.98537034
000250 f4 4b 7a 3f a6 75 7e 3f 9f 81 7b 3f 9c 79 73 3f
       0.97772145 0.9939827 0.9824466 0.95107436
000260 a8 8d 7e 3f 25 8d 78 3f b4 31 7b 3f 8d d5 7d 3f
       0.994349 0.9709037 0.98122716 0.9915398
000270 dc 64 7f 3f e3 26 78 3f 6d f0 7c 3f 1e 74 7c 3f
       0.99763274 0.96934336 0.9880436 0.9861468
000280 b2 c2 7b 3f 0c 47 80 3f 2a 1d 80 3f 28 1b 7d 3f
       0.98343956 1.0021682 1.00089 0.9886956
000290 35 53 7f 3f 8c 47 80 3f 12 3a 80 3f d5 d4 7e 3f
       0.9973634 1.0021834 1.0017722 0.99543506
0002a0 1d aa 7f 3f c5 2e 80 3f 98 ba 80 3f 8a 1a 7f 3f
       0.9986895 1.0014273 1.0056944 0.9964987
0002b0 65 8c 80 3f ad 23 80 3f 4e 54 80 3f a8 76 80 3f
       1.0042845 1.0010887 1.0025728 1.0036211
0002c0 19 dc 7f 3f 2c 02 80 3f 7c 07 7f 3f 7f 23 7f 3f
       0.9994522 1.0000663 0.99620795 0.9966354
0002d0 a4 96 71 3f 37 68 63 3f 0d d2 7c 3f 13 9e 6f 3f
       0.94370484 0.88830894 0.9875801 0.9360058
0002e0 27 cf 7d 3f 48 2b 7b 3f b7 7b 7a 3f e3 a6 64 3f
       0.99144214 0.98112917 0.97845024 0.8931715
0002f0 fd 59 5e 3f 98 5a 7b 3f 8d e0 7f 3f 22 66 7a 3f
       0.8685606 0.9818511 0.9995201 0.9781209
000300 82 8c 78 3f 64 6d 7d 3f e7 35 7c 3f 47 75 78 3f
       0.970894 0.9899504 0.9851975 0.9705395
000310 18 44 7d 3f 00 37 7e 3f 83 de 7c 3f 65 4e 7b 3f
       0.9893203 0.99302673 0.98777026 0.98166496
000320 cd 78 7f 3f cf 14 7f 3f 19 a5 7e 3f 50 8e 7e 3f
       0.997937 0.99641126 0.9947067 0.994359
000330 58 4f 80 3f ad c0 7e 3f 27 64 80 3f 24 83 80 3f
       1.0024214 0.9951275 1.0030564 1.0040021
000340 f3 f4 7e 3f f5 6e 7e 3f 44 ec 7e 3f 0b 29 80 3f
       0.9959251 0.99388057 0.9957926 1.0012525
000350 5f 4a 80 3f 59 35 7e 3f 5e 48 7f 3f be 68 7e 3f
       1.0022696 0.9930015 0.997198 0.99378574
000360 44 d0 74 3f b3 97 79 3f 69 e4 7b 3f 6f be 7c 3f
       0.9563029 0.974971 0.983954 0.9872808
000370 ec 60 78 3f 91 e6 7e 3f a8 39 7c 3f 49 a5 7a 3f
       0.9702289 0.99570566 0.98525476 0.97908455
000380 54 5a 80 3f 40 7c 79 3f e0 83 80 3f 15 19 75 3f
       1.0027566 0.97455215 1.0040245 0.957414
000390 d2 31 7c 3f 44 04 7e 3f c0 fd 7c 3f 8c ec 7d 3f
       0.9851352 0.9922526 0.9882469 0.99189067
0003a0 77 a6 76 3f e8 9f 65 3f a2 3c 7d 3f bc 8e 7e 3f
       0.96347755 0.8969712 0.98920643 0.99436545
0003b0 db 08 80 3f b8 7a 80 3f 65 0d 80 3f 83 4a 7f 3f
       1.0002702 1.0037451 1.0004088 0.9972307
0003c0 4f ff 80 3f 91 20 80 3f 1e 9a 80 3f 52 4f 7f 3f
       1.0077914 1.0009938 1.0047033 0.9973041
0003d0 40 80 80 3f 3b c9 80 3f ba be 80 3f 83 06 81 3f
       1.0039139 1.0061411 1.0058205 1.0080112
0003e0 26 71 7d 3f a1 b0 7f 3f 97 8f 80 3f 89 2e 7f 3f
       0.99000776 0.9987889 1.004382 0.9968038
0003f0 e6 f9 6b 3f 30 0d 75 3f 7b 1f 7d 3f ea c9 79 3f
       0.9217819 0.9572325 0.9887616 0.9757372

base.feature_norm.bias f4 [324]
000000 60 18 f0 ba 80 4d bf be 1f 67 9d 3c 83 e5 14 bd
       -0.0018317811 -0.37363815 0.019214211 -0.036351692
000010 8b 8a 8b 3c bf a5 5b 3c 82 0b cc 3c 3e 44 5d bd
       0.017033836 0.013406216 0.024907831 -0.05402016
000020 8c 32 82 3b 57 23 05 3c 88 5b c2 3c c6 2c 81 3b
       0.003973311 0.008126101 0.023725286 0.003942105
000030 a3 87 36 be 6a 20 69 3c 02 02 ad 3c 55 74 04 3d
       -0.17825179 0.0142289195 0.021119121 0.032337505
000040 1d ea b0 bc 80 bb 7e 3c 59 d3 30 bb 96 2c 05 3e
       -0.021596009 0.015547633 -0.0026981442 0.1300529
000050 81 79 17 3e c9 bd 79 3c c9 19 02 bc 69 ca cf be
       0.14792444 0.015243002 -0.007940718 -0.40584114
000060 29 0f 35 bd 1e e0 14 bd 7b ea 04 3f 2c 3d 1e 3e
       -0.04420391 -0.036346547 0.5192029 0.15453023
000070 71 3e 9e 3d 74 4c de 3e b0 d6 18 bd ab f2 f6 bc
       0.077267535 0.43417704 -0.037314117 -0.03014501
000080 e5 c9 af be 38 9e 03 3e 36 27 02 3c 86 7b db 3d
       -0.3433372 0.12853324 0.007943919 0.107169196
000090 19 2a 7a bb db ef 99 3b 2e 12 87 bc c0 02 6a bd
       -0.0038172065 0.0046977825 -0.016488161 -0.05713153
0000a0 08 3f 44 bd dd 69 41 bc 30 a5 bb 3a c9 14 67 bc
       -0.047911674 -0.011805025 0.0014316197 -0.014104077
0000b0 f2 15 18 bd c0 fa 27 be 7a 1f b1 3d e2 be a0 be
       -0.037130304 -0.16404247 0.08648582 -0.31395632
0000c0 0e 61 85 b9 23 5e 8c bc b9 db 52 bc a1 84 06 be
       -0.00025440048 -0.017134732 -0.012869769 -0.13136531
0000d0 35 03 11 3d fa 40 08 bd 92 d2 60 3d d3 13 90 3b
       0.03540345 -0.03326509 0.054888315 0.0043968945
0000e0 40 f5 ae 3e fa b7 96 3d 2e a4 3f bd ee 77 c7 bb
       0.34171486 0.073593095 -0.046787433 -0.006087295
0000f0 50 18 62 3c 24 d9 ff 3c cb 78 7b be 28 35 a6 3e
       0.013799742 0.03123147 -0.24557798 0.3246243
000100 3d 0d 07 bf e9 8a 7f ba d0 5a 6b 3c 39 a4 ae bc
       -0.52754575 -0.0009748177 0.014364913 -0.021318542
000110 fa 44 e0 bc c1 47 63 bc e8 dc 91 bc 69 2e 21 3d
       -0.02737664 -0.013872088 -0.017805532 0.0393509
000120 bd 40 7b 3c 1a f0 7e 3c c3 13 fe bb 23 58 f8 bb
       0.015335259 0.015560174 -0.0077538206 -0.007578866
000130 44 35 b5 bd 7d 3d 25 bd 10 8f 0e 3e 0f 49 9b 3b
       -0.0884805 -0.040341843 0.13921762 0.004738934
000140 be f5 9b 3e 2d 2b 39 3c 4e 20 f5 3b 2c 13 27 3b
       0.30460924 0.011301798 0.0074806577 0.0025493605
000150 8e 6a 7d 3d 79 d3 85 bc eb 36 28 3c e8 05 f8 bc
       0.061869197 -0.01633619 0.010267 -0.030276254
000160 15 6d 2b 3d 20 fe 03 bd c1 7a 7c 3c c8 ac ea 3c
       0.041852076 -0.032224774 0.015410126 0.028646842
000170 a4 79 dd 3e d2 4a c1 3e 60 9b 92 bb 48 70 74 3c
       0.43256867 0.37752396 -0.0044740885 0.014919348
000180 4d ae b2 bd 89 e0 6c b9 90 e0 ab 3d 66 5b f3 bd
       -0.087246515 -0.0002259036 0.08392441 -0.11882667
000190 a8 31 49 bc fb d4 6f bc 19 2c 8e bd ae d8 ca bc
       -0.012279905 -0.014638181 -0.06942005 -0.024761524
0001a0 9b 6a 83 3d d8 e9 5c bd 17 c7 8d 3d 31 d2 1a bd
       0.06416818 -0.05393395 0.06922739 -0.03779811
0001b0 6a 39 6e bc b8 f5 b7 bc 29 9d 4d 3d 82 f7 aa bd
       -0.014540056 -0.022456035 0.050198708 -0.083479896
0001c0 da 73 41 bd 1f f9 4d 3d 55 40 cc 3c d8 ae e5 3b
       -0.047229625 0.05028641 0.02493302 0.0070093684
0001d0 f6 7d a3 bd 9c 11 2a 3d ac 39 60 bd 24 49 9f 3c
       -0.079830095 0.0415207 -0.0547425 0.019444056
0001e0 c5 cf 9a 3c 42 2e 67 3c e1 8a 45 bd 23 e1 8b bb
       0.0188979 0.01411015 -0.04822815 -0.0042687817
0001f0 9e 9f 14 bb 0c ca ff 3c 04 6a 08 3d 40 6b 65 3d
       -0.0022678147 0.031224273 0.03330423 0.056010485
000200 62 d5 b2 bd 3a b3 6b bd a7 74 7d be f1 1f 21 bd
       -0.08732106 -0.05754397 -0.2475153 -0.039337102
000210 0e 5b 25 3e 2f 30 ac bc f0 b6 17 3f 66 6e 99 bd
       0.16148016 -0.02101907 0.59263515 -0.0749176
000220 d2 75 e2 be 6e b1 7e bc 96 d0 59 3d c9 ed c2 be
       -0.44230515 -0.015545232 0.05317744 -0.3807204
000230 0e 00 d3 3c af e9 91 3d df 08 3f 3e 1d 52 67 3b
       0.025756862 0.0712465 0.18655728 0.0035296746
000240 bf 21 b2 bc 21 8a af 3c 78 62 3c be 03 4d f4 3c
       -0.021744607 0.02142817 -0.18396938 0.029821878
000250 fa 59 2c be 5c ef 69 3c ca f0 aa bd 89 7f 85 bc
       -0.16831198 0.014278259 -0.08346708 -0.016296165
000260 41 06 47 3c c1 bb 76 bc e8 18 cb 3c 14 66 18 bd
       0.012147487 -0.015059412 0.02479215 -0.037206724
000270 4f ce af bb 24 41 1c 3d 78 0b 31 bd 1a 8f 5d 3e
       -0.00536517 0.03814806 -0.043223828 0.2163662
000280 a9 95 c2 3c df 0a 68 bd 6b 8b 4f 3d 35 99 b0 bc
       0.023753004 -0.056650992 0.05067007 -0.02155743
000290 01 96 49 bc 5d 52 84 bd a5 9e 2a 3d 65 f5 30 bc
       -0.01230383 -0.06461022 0.0416552 -0.010800694
0002a0 5f 93 ad bc fc 1f ab be 18 c5 19 3d 06 36 86 3c
       -0.021188436 -0.3342284 0.03754148 0.016383182
0002b0 18 42 28 bc f9 2c 90 39 27 ef 99 be 6a 33 84 be
       -0.010269664 0.00027499328 -0.3006527 -0.25820476
0002c0 b1 18 57 3b 31 66 ad be 3d 0b 81 3c 7e 66 f8 bb
       0.0032821114 -0.33867028 0.01575243 -0.0075805774
0002d0 57 07 b2 3c e2 22 04 3c 09 a0 2b bd d5 ec a9 3c
       0.021732016 0.008064957 -0.04190067 0.020742813
0002e0 df 5a 9e bc 74 82 3c 3e 9b 80 48 bc 8a ec d8 3d
       -0.01933044 0.18409139 -0.012237693 0.10591991
0002f0 9d 0c 71 3d 55 50 8c 3e 29 e5 a1 3d f7 18 4b bb
       0.05884992 0.27405038 0.07905037 -0.0030990222
000300 70 6f 46 bd a8 05 57 bc 84 54 af 3c d0 61 54 3d
       -0.04844612 -0.013123907 0.021402605 0.051851094
000310 40 00 97 bc 42 91 32 3d 92 9f 07 bc 88 57 20 be
       -0.018432736 0.04359556 -0.008277791 -0.1565839
000320 fd ef b9 be 78 f1 a2 3c c1 c2 c8 3c 26 ce ce 3c
       -0.3631591 0.019890532 0.024506928 0.025244784
000330 47 59 5b bd e2 4b 55 3e d4 51 af bc 0d 1a a7 bd
       -0.05355194 0.20829728 -0.021401323 -0.08159266
000340 6f ed 4c 3c f6 d1 93 3c 9b 00 d9 bc a3 f4 62 3d
       0.01250778 0.018044453 -0.026489547 0.055409085
000350 06 ac e9 be c3 ea c4 3e ec 0b 47 bd c7 70 cc bd
       -0.45639056 0.3846036 -0.048595354 -0.09982448
000360 d0 e5 d2 bc 4a ef 57 3e e3 b4 ea bc a0 68 d8 bc
       -0.025744349 0.21087375 -0.028650707 -0.026417077
000370 4e 4d ee 3c b3 3f c1 bc c0 f2 77 3d 3d 6b 2f 3c
       0.029089596 -0.023589944 0.06053424 0.01070672
000380 d6 4a ee 3c f0 b8 5a bc 58 ca dc 3d 62 17 9b 3c
       0.029088419 -0.013349757 0.107807815 0.018932048
000390 8a d0 0b 3d 1a eb 90 3d d3 cf 07 bd 02 86 92 bc
       0.034134425 0.07076092 -0.03315718 -0.017886166
0003a0 68 fc 67 3e 5b a9 19 bd cd af 33 bc 21 7d 76 bb
       0.22654879 -0.037515026 -0.010967207 -0.0037611204
0003b0 16 e1 b4 be bb c3 9f be a4 5e a3 bd cf 69 18 3d
       -0.35327977 -0.31204018 -0.07977036 0.037210282
0003c0 9a 09 ea bc 3c e5 09 3d e6 08 0e be ba 5f b9 3c
       -0.028569032 0.03366588 -0.13870582 0.022628654
0003d0 b1 e0 ca 3d cc a2 e7 be 95 b2 55 bd d7 7b a8 be
       0.09906138 -0.45241392 -0.052172262 -0.32906982
0003e0 6b a6 07 3e 1b 32 0b 3d 92 01 09 3d 6e 4f ba 3e
       0.13247077 0.03398333 0.033448763 0.36388725
0003f0 29 59 26 bd 2c 35 15 bd c9 7d 15 3d a2 5b 9c 3c
       -0.040612374 -0.03642766 0.03649691 0.019086663

base.mlp.fc1.0.weight f4 [64, 324]
000000 d8 11 9f bb 87 f3 4b 3c 7a c3 ea bd f8 89 96 3d
       -0.004854422 0.012448198 -0.114630654 0.07350534
000010 fc 2d 91 bd 51 bb f2 3c f9 08 9f 3d 3e 81 49 bd
       -0.07088849 0.029630335 0.07765383 -0.04919552
000020 4f 6a f6 bd a1 df dc bd 7f f9 2a bb 01 d4 d7 bd
       -0.120319955 -0.10784841 -0.0026088653 -0.105384834
000030 4d ca a1 3d 3c 05 bd bd 6d 5a 89 bd 74 50 b1 3c
       0.07899914 -0.09229514 -0.067067005 0.021644808
000040 b8 c6 db 3d e2 2c 3f bd 24 97 43 bb 9d 84 ba 3c
       0.10731262 -0.046673663 -0.0029844726 0.022768313
000050 a3 bb de bc e3 11 07 3e bf 3f 86 be 5b c3 61 bb
       -0.027189082 0.13190417 -0.2622051 -0.0034448716
000060 6a 45 ec 3d a7 66 f9 3c 6e 63 2d 3e 6f 6f 2f 3d
       0.11536677 0.030444456 0.1693246 0.04283088
000070 27 99 2a 3c 86 ac cd 3d a1 7c d4 bd 37 8c 78 bd
       0.010412491 0.10042672 -0.103753336 -0.060680594
000080 2e 73 16 be 42 92 8d bc 2b 98 c4 bc a2 61 1b 3e
       -0.14692375 -0.017281655 -0.02399834 0.15173963
000090 58 e2 a2 3a 65 15 90 3c 51 e0 5c 3d 13 f4 5c bc
       0.0012427075 0.017588327 0.053924862 -0.013485926
0000a0 16 a1 63 3c 3e b7 f8 3b bc 9b 91 3d a4 54 dc 3d
       0.013893386 0.0075902035 0.07109782 0.107583314
0000b0 27 a4 9d 3d 5d b8 4d 3d c0 6d c6 3b 42 9e 9d bd
       0.07697325 0.05022465 0.0060555637 -0.07696201
0000c0 fe 39 d2 bd 9f 3b 42 3d 89 10 4c bd ac c3 d3 bd
       -0.102649674 0.04742014 -0.049820457 -0.10340056
0000d0 df b5 81 bc 80 a9 82 3d 4c 9f 2d be 66 19 9a 3d
       -0.015833793 0.06379986 -0.16955298 0.075243756
0000e0 0b 40 2a bd a6 34 84 bc b7 74 b6 3d a1 88 2a 3d
       -0.041564982 -0.016138386 0.0890898 0.041634206
0000f0 15 3c 0f 3e 26 48 f8 bc 43 44 78 bc 98 62 ce bc
       0.13987763 -0.03030784 -0.015152994 -0.025193498
000100 97 cb e2 bc d9 fe 3f bd be d1 71 bd 8a c8 ba 3d
       -0.02768497 -0.0468739 -0.059037916 0.09120281
000110 bb ec 16 bd 88 1c 06 be 7f dd e5 3c 91 0a e3 bc
       -0.036846858 -0.13096821 0.02805972 -0.027715
000120 22 2a 5f 3d b6 88 e5 bd b2 96 a7 bd c1 ab ba bd
       0.05448354 -0.11207716 -0.0818304 -0.09114791
000130 f8 42 f1 3c 15 40 80 bd db 11 4b bc e6 d6 00 3e
       0.029450879 -0.06262223 -0.012394394 0.12581977
000140 28 fd 0c 3e ec 8f c4 bd 3c cb d2 bd 70 12 d0 3c
       0.13768446 -0.095977634 -0.1029267 0.025399417
000150 85 5f 88 bd 1c a9 f1 3d d7 bd ad 3d cd 72 d4 bc
       -0.06658844 0.11799833 0.08483475 -0.025933648
000160 1f 04 5d bd da 8f 53 bc 6e b9 30 3e 6e 62 93 3c
       -0.05395901 -0.012912715 0.17258236 0.01799127
000170 aa 63 e8 bc 23 da 5d 3e 9b 9b f0 3c 37 98 64 be
       -0.028367836 0.21665244 0.029371073 -0.2232369
000180 38 c2 1d be cf 51 d2 3c 3c 45 f0 bd 75 cd 5e bd
       -0.1540612 0.025673775 -0.117319554 -0.054395158
000190 45 0d d4 3d 0a d3 93 3c d8 9b 00 3e 9a 56 7a 3c
       0.103540935 0.018044967 0.1255945 0.0152794365
0001a0 f6 89 b0 bc ca 0c 34 bc 5c 4e 50 3e 3a cb 23 3e
       -0.02155016 -0.010989377 0.20342392 0.15995494
0001b0 fc 57 94 bd 61 ab 69 bc 8d 58 0f 3d 9b bb b3 bd
       -0.07243344 -0.014262051 0.034996558 -0.08776017
0001c0 4e 6f 01 3d a3 31 86 3c d6 14 96 3d 54 b7 3f 3d
       0.03160029 0.01638109 0.07328193 0.046805695
0001d0 69 ba 5e bb 05 b0 9b bd 84 e1 cb bb 63 c2 00 be
       -0.003398562 -0.076019324 -0.006221952 -0.12574153
0001e0 48 73 59 bd 1e d3 09 3c f9 24 96 3c ca 3f 83 3d
       -0.053088456 0.008412151 0.018328177 0.06408651
0001f0 a6 3b 8b 3c 78 27 3e 3c aa c4 a3 bd cd 02 a6 3d
       0.016996216 0.01160609 -0.07996495 0.08106003
000200 36 1d 22 3b dd 35 35 bd 78 a9 52 bd a3 dc 8e 3d
       0.002473665 -0.04424082 -0.05143115 0.06975677
000210 11 d7 f0 bb f6 14 b7 3d f8 3a 99 3e 51 65 0f be
       -0.0073498567 0.08939545 0.29927802 -0.14003493
000220 0b ee 05 be 5c 37 33 3e 5b e1 2d be 73 1e 23 be
       -0.13079087 0.17501587 -0.16980498 -0.15929584
000230 bd 96 60 3e 7b 60 49 bc 26 46 46 3d c8 73 04 bd
       0.21932502 -0.012291069 0.048406743 -0.03233698
000240 d3 7f 36 3e 79 15 3b bd 69 34 59 be cf 5a 33 3d
       0.17822199 -0.045674775 -0.21211399 0.043787774
000250 c3 de 9e bc d0 4e 1a be 43 ea 13 bd 94 49 9e bb
       -0.01939333 -0.15069127 -0.03611208 -0.0048305485
000260 e8 b0 9e bd 34 05 bb bd 8c 8e 1e be af bb e0 bd
       -0.07748586 -0.09131852 -0.15484065 -0.10973298
000270 71 8a a1 bb 83 fa ba bc 88 74 3e be 4e 8d 89 bd
       -0.0049298336 -0.022824531 -0.1859914 -0.06716405
000280 00 1b b6 3c 13 1b a0 3d 75 a2 0d bc 81 21 b7 bd
       0.022229671 0.07817664 -0.00864469 -0.08941937
000290 c7 8f b1 bd 0c fb 20 3d 0f 75 f8 bc ee 86 4a bd
       -0.086700015 0.039301917 -0.030329255 -0.049445085
0002a0 c2 ed 53 bb e9 33 e3 bd 92 21 24 be 3a 37 ec bc
       -0.003233776 -0.110938855 -0.16028431 -0.028834928
0002b0 c1 fc 66 bd bf 58 5c bd 08 3c 64 bd 0b eb 2b bd
       -0.05639339 -0.053795572 -0.055721313 -0.0419722
0002c0 b1 62 6c bc 85 30 51 be 78 a2 66 bd 76 65 d9 bd
       -0.014427827 -0.20428665 -0.056307286 -0.10615055
0002d0 53 95 14 3d ad 7e f8 bd 29 21 1a bd 6e 2c 11 be
       0.03627522 -0.121335365 -0.03762928 -0.14177105
0002e0 2b 24 08 bd ef 73 79 3b 30 5a a4 3d 6a 86 15 3d
       -0.033237617 0.0038063487 0.080250144 0.03650514
0002f0 ec cc 0c 3e c7 35 a7 bc 9d 42 32 3d b3 44 83 3c
       0.13750046 -0.020411385 0.04352056 0.01602397
000300 0c eb 3d bd e4 87 8b bb fe f5 01 3e d9 82 08 3e
       -0.046366736 -0.004258143 0.12691495 0.13331164
000310 0d 4c 3b be a5 83 85 3c c3 bd 11 be bd da 7b bd
       -0.1829073 0.016298125 -0.14232545 -0.061487902
000320 f8 22 01 be 96 e2 1e 3c 77 48 84 38 43 87 e1 3d
       -0.12610996 0.009697577 6.307748e-05 0.11012127
000330 25 99 48 bd f5 56 52 3e d5 89 31 be ba 20 c9 bd
       -0.048974175 0.20540984 -0.17337735 -0.09820695
000340 ce 95 d2 bc 15 5a 01 bd 03 52 8a bc fc 83 a2 bd
       -0.025706198 -0.03158005 -0.01688481 -0.0793533
000350 c9 cd 3d be f4 e2 3f 3e b1 0a 8f bd 30 81 46 3d
       -0.18535532 0.1873892 -0.06984461 0.048463047
000360 eb 71 39 3c a8 6f 05 bd 8b e7 c7 bc cf 5e 7a bc
       0.011318664 -0.032577187 -0.0244024 -0.015281393
000370 a4 f9 2b 3e 44 29 2c 3d a1 26 26 be 38 e3 aa bd
       0.16794449 0.04203154 -0.16225673 -0.0834412
000380 c0 d1 52 3d d7 f7 20 bc 77 fe 2f 3e fd 85 be bc
       0.051469564 -0.009824715 0.17186914 -0.02325725
000390 bc 62 dc bd 81 db 04 be 09 90 f0 bd 2a d9 34 bd
       -0.107610196 -0.12974359 -0.117462225 -0.044152416
0003a0 ce 9c 21 be 4c f9 ec 3d 58 78 47 bd f2 08 f8 3c
       -0.15782472 0.11570987 -0.048698753 0.030277703
0003b0 10 3a e0 bd 31 7a d1 bc 62 27 4e bd e1 13 09 3e
       -0.109485745 -0.02557096 -0.050330527 0.1338649
0003c0 a0 dd 4a be 27 90 24 bd 1c fb 9d bd eb 8a fc 3d
       -0.19811106 -0.040176537 -0.07713911 0.12331184
0003d0 b3 dc 12 3e f2 5b 15 be 89 1d 9a 3d f3 46 31 be
       0.14342003 -0.14585856 0.07525165 -0.17312221
0003e0 87 7e 05 3e c4 fa 6e 3d 94 f1 38 3c a3 7c a5 bd
       0.13036548 0.058344617 0.011288065 -0.08080413
0003f0 c3 4a 05 bd 67 15 8d bd a3 e4 4f 3d 85 3b c8 3d
       -0.032542 -0.06888848 0.050755154 0.097769774

base.mlp.fc1.0.bias f4 [64]
000000 7b d9 33 3d 9e 3b 8e 3c ad 5f 8b 3e b7 31 51 bb
       0.043908577 0.017362412 0.27221432 -0.0031920501
000010 44 d5 32 bd a4 1d 0c 3c 6d a7 04 bd 66 d0 0a 3c
       -0.043660417 0.008551989 -0.032386232 0.008472538
000020 df 8d 29 be f9 53 4d 3d fd 1d 85 bc 61 15 65 3d
       -0.16558026 0.05012891 -0.016249651 0.05592859
000030 c3 7a c5 3c 5a 59 15 bd 58 4f 01 bd 8e 11 c8 bc
       0.024106389 -0.036462165 -0.03156981 -0.024422433
000040 43 9b e7 3c 34 ee 8f 3d f6 46 ca bd 76 d2 95 bd
       0.028272277 0.070278555 -0.09876816 -0.07315533
000050 24 22 22 bd 2a c7 e5 3d 1c f1 cb bc 7b 9d 39 bd
       -0.03958334 0.11219628 -0.024895243 -0.0453162
000060 3b 5f b1 bc 5f bd 8d 3a a2 fa 24 bd 09 9b 7c be
       -0.021651855 0.0010813883 -0.040278085 -0.24668516
000070 55 4c 68 bd 74 b5 fb 3c 33 43 ea 3a a1 82 53 3c
       -0.05671342 0.030726172 0.001787281 0.012909562
000080 47 69 52 bd 6e a1 c2 3c 3d 2a f1 bc be 90 21 bc
       -0.05136993 0.023758616 -0.029439086 -0.009861169
000090 2b 53 60 3c d4 b7 95 3c 04 e6 a5 bd b4 63 01 3d
       0.013691704 0.018276133 -0.081005126 0.031589225
0000a0 8d 14 11 3d c2 c7 5f 3d 88 a7 8d 3b e6 8d 60 bc
       0.03541999 0.054633863 0.00432295 -0.013705706
0000b0 a5 68 8e 3c 1c 46 86 3d 2f 66 5a bd 3f 76 15 3d
       0.017383883 0.06556341 -0.053320106 0.03648972
0000c0 23 f4 ae bc 72 33 1c be 4b dd 79 3c 2b 56 ab bc
       -0.021356648 -0.15254 0.015250514 -0.020915112
0000d0 b9 c2 38 3d 12 fa d0 ba 40 b0 ae 3a 6a b5 b0 3d
       0.045107577 -0.0015943667 0.0013327673 0.08628352
0000e0 58 7a f7 3c 5c 78 90 ba fa d6 6d bc 83 6e 59 3e
       0.030209705 -0.0011022198 -0.014516586 0.21233563
0000f0 68 63 68 3c 85 b4 94 bd 44 43 27 be 1b 35 23 bc
       0.014183857 -0.07260994 -0.16334254 -0.009961392

base.mlp.fc1.2.weight f4 [64]
000000 4c a8 79 3f e8 be 57 3f 56 43 7c 3f ce 57 65 3f
       0.97522426 0.84275675 0.98540246 0.89587104
000010 65 32 85 3f 4d 50 40 3f d8 53 8c 3f 33 60 76 3f
       1.0406004 0.7512253 1.0963087 0.9624054
000020 90 d6 8f 3f 9d 36 8e 3f 95 3d 71 3f 16 4c 89 3f
       1.1237354 1.1110417 0.9423459 1.0726345
000030 03 54 6d 3f 5d 2a 73 3f 9e 22 6f 3f bb 63 8d 3f
       0.92706317 0.94986516 0.93412197 1.104606
000040 40 8a 80 3f 50 b3 71 3f e6 e2 65 3f d4 a1 96 3f
       1.004219 0.94414234 0.89799345 1.1768136
000050 2b e7 6c 3f a8 99 83 3f 50 cc 74 3f 43 fd bb 3f
       0.92540234 1.0281267 0.95624256 1.4686664
000060 c5 54 81 3f 78 f0 59 3f b6 9c 7c 3f 46 e2 81 3f
       1.0103995 0.8513255 0.9867662 1.0147178
000070 ce 2a 75 3f fc 5f 83 3f 93 eb 74 3f 27 8c 73 3f
       0.9576844 1.0263667 0.9567196 0.9513573
000080 19 4e 86 3f 37 c5 95 3f 54 78 84 3f 8c ba 56 3f
       1.0492584 1.170081 1.0349221 0.838784
000090 6e 43 83 3f fc 3e 9e 3f 2e 2c 65 3f 1d 2e 82 3f
       1.0254953 1.2362971 0.8952054 1.0170323
0000a0 79 67 80 3f 0f 8a 77 3f bc 89 48 3f 02 fa 73 3f
       1.0031577 0.96695036 0.78335166 0.95303357
0000b0 5b 7b 74 3f 94 21 88 3f aa 00 7d 3f 54 c8 92 3f
       0.95500726 1.0635247 0.9882914 1.1467385
0000c0 45 7d 76 3f 3e 70 84 3f bd 44 7d 3f 8d b0 76 3f
       0.96284896 1.0346754 0.9893301 0.96363145
0000d0 68 e7 8a 3f ec 71 69 3f b0 3d 6c 3f 63 64 60 3f
       1.085187 0.91189456 0.9228163 0.8765318
0000e0 f8 d4 78 3f de ac 66 3f a2 bc 7d 3f bf 07 89 3f
       0.97199965 0.90107524 0.99115956 1.0705489
0000f0 ad f8 76 3f 2f d0 85 3f 92 c1 89 3f bd 1f 81 3f
       0.964732 1.0454158 1.0762198 1.0087811

base.mlp.fc1.2.bias f4 [64]
000000 f1 1d 05 3d bc ad 98 3c 1c 28 4d 3d 74 09 cc 39
       0.032499257 0.01863753 0.05008708 0.00038916955
000010 97 ce 82 bd 82 db 8d 3c 5d 49 94 bd 2f a9 11 3c
       -0.0638706 0.017316584 -0.072405554 0.008890434
000020 0e e6 02 be fe 4e 82 3d 92 77 14 bc 8b f3 a7 3d
       -0.12783071 0.06362723 -0.009061711 0.08200749
000030 10 af 2a 3c 0f 64 4d bd d4 ce 09 bd b6 2e 14 bd
       0.010417715 -0.05014425 -0.033644512 -0.03617736
000040 3c e0 3f 3d cc 61 86 3e 4a d2 20 be eb b0 00 be
       0.046844706 0.26246488 -0.15705219 -0.12567489
000050 fe dd e1 bd 27 c8 ac 3d 0f 2f 90 bc 1f 6b a6 bd
       -0.1102867 0.084366135 -0.017600564 -0.081259005
000060 97 e2 e0 bc ff aa ff ba 2d f0 07 bd 01 6a 21 be
       -0.027451796 -0.0019505917 -0.033188034 -0.15763094
000070 4b 72 bb bc b8 13 6a 3d 1d cf 7b 3b c9 67 27 3c
       -0.022881648 0.05714771 0.003842301 0.010217615
000080 2d 7b 89 bd 46 cd 43 3d ed d1 26 bd fb 0a 97 bc
       -0.06712947 0.047803186 -0.040727545 -0.018437853
000090 50 33 c9 3c 14 86 50 3d fd f4 16 be 75 61 69 3d
       0.0245606 0.050909117 -0.14741893 0.056977708
0000a0 b8 e5 38 3d 5c 1e 0b 3d 32 29 90 3b 65 98 3f bc
       0.045140952 0.0339645 0.004399442 -0.0116940485
0000b0 b5 24 56 3c 99 ca fd 3d 73 98 5c bd b3 fd 56 3d
       0.013070275 0.12392158 -0.053856324 0.05248804
0000c0 1a 39 ab bc de 26 24 be a6 4c 3b 3c 1b 45 a7 bc
       -0.020901252 -0.16030452 0.011431849 -0.020418694
0000d0 15 d8 35 3d 85 27 99 bb e2 f1 8a bc b3 03 2d 3d
       0.044395525 -0.0046739005 -0.016961042 0.042239856
0000e0 24 1f cb 3c 7f d1 b9 ba 36 5a 44 bc a4 05 9d 3e
       0.024795122 -0.0014176815 -0.011984399 0.30668366
0000f0 80 6f 35 3c 49 a5 9e bd 3b f6 c3 bd f3 50 90 bc
       0.011073947 -0.077463694 -0.09568449 -0.017616725

base.mlp.fc_h.0.weight f4 [64, 64]
000000 86 05 93 be 5f 97 09 bd f7 f3 53 be f1 72 0a bd
       -0.28715152 -0.033591624 -0.20698534 -0.033801023
000010 9f d5 9a 3d 5c d2 42 bd f3 a1 5d 3e 47 40 8f be
       0.07560276 -0.047563896 0.2164381 -0.27978727
000020 af 1d 0f 3e 1b 28 94 3e 49 1f 60 be 28 6a 1d 3e
       0.13976167 0.28936848 -0.21886934 0.15372527
000030 6b 1f c8 be b9 de b9 bd bc b1 b6 bc b0 77 2b bd
       -0.3908647 -0.09075684 -0.022301547 -0.04186219
000040 24 64 19 bf 61 96 af 3c 07 d3 87 bc e3 93 93 3d
       -0.5991843 0.021434011 -0.016580118 0.072059415
000050 d0 5c 8a 3c 0a 7b e3 bc 44 c2 64 bc ab 73 7a 3e
       0.01688996 -0.02776863 -0.013962332 0.24458186
000060 bc 7f 7a 3e b3 2c a0 3e 2f cf 84 bc e4 06 89 3e
       0.2446279 0.31284103 -0.016212074 0.2676307
000070 0b bd 85 3d eb 53 03 3f 0e 12 7e be 9f 0c 38 bd
       0.06530198 0.51299924 -0.24811575 -0.04493391
000080 ca 7f 4e 3e f2 12 48 3e 6c b6 9b ba 99 4d 12 3d
       0.20165935 0.19538477 -0.0011879927 0.035718534
000090 1f ad 36 3e 9d 21 18 3e 62 f9 87 bd b1 c1 0e bd
       0.17839478 0.14856572 -0.06639363 -0.034852687
0000a0 90 23 94 bd a3 ee 11 3e 77 fc 52 be 4a fc 6d be
       -0.072333455 0.14251189 -0.2060412 -0.23240772
0000b0 3d 77 35 3e 43 ef f9 bd f3 8c b1 3b 2e dc c5 be
       0.17721267 -0.12203839 0.005418414 -0.38644546
0000c0 f1 ca 5c 3d 98 7b e4 3c cc b7 56 be 61 86 6a 3d
       0.053904478 0.027890965 -0.2096855 0.05725706
0000d0 6f c4 f4 be 6c 7c f3 bd e0 48 6a be 55 64 b2 3d
       -0.47806117 -0.11888966 -0.22879362 0.08710543
0000e0 21 fd 36 3e 33 cb 9f be 49 09 86 3e 2e e8 da 3d
       0.17869999 -0.31209716 0.2617896 0.10688816
0000f0 6d 0f 97 3d 68 87 a5 3e e2 2b 6d 3e 1c 6d be bd
       0.07375989 0.3232987 0.23161271 -0.09298155
000100 e1 b1 3f be 6f 68 ee 3e 3b d7 8c bd 08 d9 8e be
       -0.18720199 0.46564052 -0.068769895 -0.27899957
000110 2f ed ac 3d aa fb 6f 3e c5 90 2f 3e 94 1d 18 be
       0.08443677 0.23435846 0.17145069 -0.14855033
000120 18 23 93 be 41 8d 19 3c 92 05 c2 3e 91 da 64 be
       -0.28737712 0.009372056 0.37894875 -0.22349001
000130 37 b2 3c 3e 23 e1 b5 3e 27 c0 8d 3e 69 40 6f 3c
       0.18427359 0.35523328 0.27685663 0.014602759
000140 cb 28 24 3e 70 7d 21 be 68 7d c0 3c 9e 39 08 bf
       0.16031186 -0.15770507 0.023497298 -0.53212917
000150 b4 20 b6 3d e4 76 db 3d a1 25 55 be 3e ae e6 3c
       0.088929564 0.10716036 -0.20815136 0.028159257
000160 6b 4e 70 bd 3a 39 18 3e 0a b0 8b be 34 2f 8c 3e
       -0.058668535 0.1486558 -0.27282745 0.27379763
000170 ad 24 58 bd 02 5c e5 3e 60 a1 4f be 74 a8 2b be
       -0.05276935 0.4479676 -0.20276403 -0.16763479
000180 cb 13 b1 bd 0b f6 ce be 32 6d 8e 3d 05 90 68 3c
       -0.08646353 -0.4042209 0.06954421 0.014194493
000190 4a 36 91 3e 26 9c f2 bd 07 c2 63 be ec 91 5b 3e
       0.28361732 -0.11846189 -0.22241984 0.21442384
0001a0 94 69 27 3e 27 c6 a9 3d 27 7a 4d 3e 70 dd 1e 3e
       0.16348869 0.08289748 0.20066129 0.15514159
0001b0 9e 95 6c be 5d 7a e4 3a 2b 8f ed bd 05 44 32 3e
       -0.2310395 0.0017431487 -0.11599573 0.1740876
0001c0 f7 d2 33 be 93 f8 1c be cb d8 d1 bd ce 7e 08 be
       -0.17560945 -0.15329199 -0.10246428 -0.13329622
0001d0 0a 6b 5d be fb e6 15 be a6 42 6e 3d f9 87 14 3e
       -0.21622863 -0.14638893 0.05816903 0.14504994
0001e0 fe 2e 4c 3e 06 05 89 3e db 76 25 be 28 27 85 3e
       0.19939801 0.26761645 -0.16158621 0.26006436
0001f0 72 18 7c bd 38 a5 63 3d f2 e9 19 3e 16 1a b2 bc
       -0.06154675 0.055577487 0.1503065 -0.021740954
000200 b7 dc 6d 3e 46 5a a1 bd 75 5b c6 3e d7 5c a9 3e
       0.23228727 -0.078785464 0.3874165 0.33078644
000210 93 99 7d 3e d6 34 19 bd e6 42 0f 3e e4 0e 02 3e
       0.24765615 -0.037403904 0.13990363 0.12700993
000220 b9 a5 fb 3c 9b bc 9c be 22 2b c2 3d aa 89 44 3e
       0.030718671 -0.30612645 0.09480883 0.1919314
000230 97 1b 37 3e 59 18 ed bc 43 59 f5 bd 1b f8 cf 3d
       0.17881618 -0.028942274 -0.11979916 0.10154744
000240 ab 3d 76 be 51 3c 03 3f d0 d4 26 be 5f 76 d5 bd
       -0.24046962 0.5126391 -0.16292119 -0.10422968
000250 97 ed cb 3e 08 e7 9b be 89 e1 df bd 95 1c 92 be
       0.39829704 -0.304497 -0.10931689 -0.2853743
000260 52 d8 66 3e e3 64 c7 3d 9f d7 de bd e9 f1 82 be
       0.22543457 0.097360395 -0.1088097 -0.25575188
000270 56 0a 89 be 2c 89 fa 3d ba fb c8 3c 15 14 21 be
       -0.26765698 0.12233195 0.024534095 -0.15730317
000280 1c 76 b4 3e 36 f2 43 be 96 6a 8a 3d 8d 10 06 be
       0.3524636 -0.19135365 0.06758611 -0.13092251
000290 b4 22 44 be bd 7e 21 be 57 8f 91 be 89 00 52 be
       -0.19153863 -0.15771003 -0.28429672 -0.20508017
0002a0 be bf e8 3e c0 f2 9f bc 2a 6b 21 3e 49 65 93 3e
       0.45458788 -0.019524932 0.15763536 0.28788212
0002b0 ef e9 04 be 12 23 63 bd f2 5d 83 be 2d ef 7e bd
       -0.12979864 -0.055453368 -0.25657612 -0.062239815
0002c0 73 20 39 3d d6 99 99 be ba ff 7e bc 12 9d 35 be
       0.04519696 -0.3000018 -0.0155639 -0.17735699
0002d0 31 ed 96 be 90 5a 40 be a1 8f 1d be e9 aa 25 be
       -0.29477838 -0.18784547 -0.15386821 -0.16178478
0002e0 1d d4 b3 bd 6d c7 47 be f4 ea 78 3e 7c c6 17 be
       -0.08780692 -0.19509669 0.24308378 -0.1482181
0002f0 07 79 27 3d e4 22 ad bd f3 f2 93 3d 3b 7d 19 3d
       0.040886905 -0.084539205 0.07224073 0.037472945
000300 ef 0b 3f 3a c8 31 98 be 65 93 99 3d 06 d5 d0 bd
       0.000728785 -0.2972548 0.074988164 -0.10196881
000310 f7 aa 29 be e9 c6 d6 3d 90 d2 74 3e ba c6 19 bd
       -0.16569124 0.10487158 0.23908448 -0.037543036
000320 0d 13 29 3e 42 f5 af 3e 67 31 9f 3e 98 92 d1 bd
       0.16511174 0.34366804 0.31092378 -0.10233039
000330 89 02 c8 3d 0f f6 96 3e 2d 84 b8 3e 0b 23 48 3e
       0.097661085 0.29484603 0.36038342 0.19544618
000340 8c 51 60 be 05 6f 07 3d e9 e7 bb bd 13 cb 14 3e
       -0.21906108 0.03306486 -0.09175093 0.14530592
000350 0f 2c 04 be 7f 73 e4 3e 4d 86 e8 bd 41 c5 c2 be
       -0.12907432 0.44619367 -0.11353741 -0.38041118
000360 ba 0e ce 3e b0 c0 1e bd db a4 31 3d 97 49 ac bc
       0.4024561 -0.03875798 0.04337011 -0.021031184
000370 cc 81 ab be 9f a5 56 3c 76 10 5b 3e 80 58 7f 3e
       -0.33497465 0.013101011 0.21392998 0.24936104
000380 dd 2a 0f 3e f6 c3 29 3e 09 e1 9e bd 9c c9 9e bd
       0.13981195 0.1657866 -0.07757766 -0.07753298
000390 28 68 88 3e a0 2b 46 3e 14 c2 68 3e 31 3f 7e be
       0.26641965 0.19352579 0.22730285 -0.24828793
0003a0 d1 a8 73 bd e8 6d 20 be a4 10 6e bd ac 5e 63 3d
       -0.059487168 -0.15666926 -0.05812134 0.055510208
0003b0 22 33 b0 bd 01 67 f6 3e 37 97 b8 bd 36 d4 15 be
       -0.08603503 0.4812546 -0.09013217 -0.14631733
0003c0 c4 6c f6 3d 81 b6 cd bd 44 bc cd 3e be 3a b9 bc
       0.12032464 -0.100445755 0.40182698 -0.022611018
0003d0 14 c8 12 3e c9 1a bc be 46 3e 52 be 19 5e 40 bd
       0.14334136 -0.36739185 -0.20531568 -0.04696474
0003e0 d3 be 82 3e 2e 3b bf 3d 46 f2 69 bd 6d 33 87 3e
       0.25536212 0.093374595 -0.057115816 0.26406422
0003f0 2e 36 26 3e 15 91 56 be 8f 70 e6 bd 40 a4 14 3e
       0.16231605 -0.20953782 -0.112519376 0.14515781

base.mlp.fc_h.0.bias f4 [64]
000000 00 00 00 00 00 00 00 00 00 00 00 00 00 00 00 00
       0.0 0.0 0.0 0.0
000010 00 00 00 00 00 00 00 00 00 00 00 00 00 00 00 00
       0.0 0.0 0.0 0.0
000020 00 00 00 00 00 00 00 00 00 00 00 00 00 00 00 00
       0.0 0.0 0.0 0.0
000030 00 00 00 00 00 00 00 00 00 00 00 00 00 00 00 00
       0.0 0.0 0.0 0.0
000040 00 00 00 00 00 00 00 00 00 00 00 00 00 00 00 00
       0.0 0.0 0.0 0.0
000050 00 00 00 00 00 00 00 00 00 00 00 00 00 00 00 00
       0.0 0.0 0.0 0.0
000060 00 00 00 00 00 00 00 00 00 00 00 00 00 00 00 00
       0.0 0.0 0.0 0.0
000070 00 00 00 00 00 00 00 00 00 00 00 00 00 00 00 00
       0.0 0.0 0.0 0.0
000080 00 00 00 00 00 00 00 00 00 00 00 00 00 00 00 00
       0.0 0.0 0.0 0.0
000090 00 00 00 00 00 00 00 00 00 00 00 00 00 00 00 00
       0.0 0.0 0.0 0.0
0000a0 00 00 00 00 00 00 00 00 00 00 00 00 00 00 00 00
       0.0 0.0 0.0 0.0
0000b0 00 00 00 00 00 00 00 00 00 00 00 00 00 00 00 00
       0.0 0.0 0.0 0.0
0000c0 00 00 00 00 00 00 00 00 00 00 00 00 00 00 00 00
       0.0 0.0 0.0 0.0
0000d0 00 00 00 00 00 00 00 00 00 00 00 00 00 00 00 00
       0.0 0.0 0.0 0.0
0000e0 00 00 00 00 00 00 00 00 00 00 00 00 00 00 00 00
       0.0 0.0 0.0 0.0
0000f0 00 00 00 00 00 00 00 00 00 00 00 00 00 00 00 00
       0.0 0.0 0.0 0.0

base.mlp.fc_h.2.weight f4 [64]
000000 00 00 80 3f 00 00 80 3f 00 00 80 3f 00 00 80 3f
       1.0 1.0 1.0 1.0
000010 00 00 80 3f 00 00 80 3f 00 00 80 3f 00 00 80 3f
       1.0 1.0 1.0 1.0
000020 00 00 80 3f 00 00 80 3f 00 00 80 3f 00 00 80 3f
       1.0 1.0 1.0 1.0
000030 00 00 80 3f 00 00 80 3f 00 00 80 3f 00 00 80 3f
       1.0 1.0 1.0 1.0
000040 00 00 80 3f 00 00 80 3f 00 00 80 3f 00 00 80 3f
       1.0 1.0 1.0 1.0
000050 00 00 80 3f 00 00 80 3f 00 00 80 3f 00 00 80 3f
       1.0 1.0 1.0 1.0
000060 00 00 80 3f 00 00 80 3f 00 00 80 3f 00 00 80 3f
       1.0 1.0 1.0 1.0
000070 00 00 80 3f 00 00 80 3f 00 00 80 3f 00 00 80 3f
       1.0 1.0 1.0 1.0
000080 00 00 80 3f 00 00 80 3f 00 00 80 3f 00 00 80 3f
       1.0 1.0 1.0 1.0
000090 00 00 80 3f 00 00 80 3f 00 00 80 3f 00 00 80 3f
       1.0 1.0 1.0 1.0
0000a0 00 00 80 3f 00 00 80 3f 00 00 80 3f 00 00 80 3f
       1.0 1.0 1.0 1.0
0000b0 00 00 80 3f 00 00 80 3f 00 00 80 3f 00 00 80 3f
       1.0 1.0 1.0 1.0
0000c0 00 00 80 3f 00 00 80 3f 00 00 80 3f 00 00 80 3f
       1.0 1.0 1.0 1.0
0000d0 00 00 80 3f 00 00 80 3f 00 00 80 3f 00 00 80 3f
       1.0 1.0 1.0 1.0
0000e0 00 00 80 3f 00 00 80 3f 00 00 80 3f 00 00 80 3f
       1.0 1.0 1.0 1.0
0000f0 00 00 80 3f 00 00 80 3f 00 00 80 3f 00 00 80 3f
       1.0 1.0 1.0 1.0

base.mlp.fc_h.2.bias f4 [64]
000000 00 00 00 00 00 00 00 00 00 00 00 00 00 00 00 00
       0.0 0.0 0.0 0.0
000010 00 00 00 00 00 00 00 00 00 00 00 00 00 00 00 00
       0.0 0.0 0.0 0.0
000020 00 00 00 00 00 00 00 00 00 00 00 00 00 00 00 00
       0.0 0.0 0.0 0.0
000030 00 00 00 00 00 00 00 00 00 00 00 00 00 00 00 00
       0.0 0.0 0.0 0.0
000040 00 00 00 00 00 00 00 00 00 00 00 00 00 00 00 00
       0.0 0.0 0.0 0.0
000050 00 00 00 00 00 00 00 00 00 00 00 00 00 00 00 00
       0.0 0.0 0.0 0.0
000060 00 00 00 00 00 00 00 00 00 00 00 00 00 00 00 00
       0.0 0.0 0.0 0.0
000070 00 00 00 00 00 00 00 00 00 00 00 00 00 00 00 00
       0.0 0.0 0.0 0.0
000080 00 00 00 00 00 00 00 00 00 00 00 00 00 00 00 00
       0.0 0.0 0.0 0.0
000090 00 00 00 00 00 00 00 00 00 00 00 00 00 00 00 00
       0.0 0.0 0.0 0.0
0000a0 00 00 00 00 00 00 00 00 00 00 00 00 00 00 00 00
       0.0 0.0 0.0 0.0
0000b0 00 00 00 00 00 00 00 00 00 00 00 00 00 00 00 00
       0.0 0.0 0.0 0.0
0000c0 00 00 00 00 00 00 00 00 00 00 00 00 00 00 00 00
       0.0 0.0 0.0 0.0
0000d0 00 00 00 00 00 00 00 00 00 00 00 00 00 00 00 00
       0.0 0.0 0.0 0.0
0000e0 00 00 00 00 00 00 00 00 00 00 00 00 00 00 00 00
       0.0 0.0 0.0 0.0
0000f0 00 00 00 00 00 00 00 00 00 00 00 00 00 00 00 00
       0.0 0.0 0.0 0.0

base.mlp.fc2.0.0.weight f4 [64, 64]
000000 56 69 91 be b1 0c 93 bd 0d aa 54 be 98 db 1a bd
       -0.28400677 -0.07180155 -0.20767994 -0.037807077
000010 f5 a1 34 3e 98 59 44 bd a4 9f 7b 3e 6b 2b 8f be
       0.17639907 -0.047937006 0.24572617 -0.27962813
000020 66 1a 13 3e 0a c9 2c 3e 53 4c 50 be ea e5 17 3e
       0.14365539 0.16873565 -0.20341615 0.14833799
000030 79 eb c4 be 09 34 94 bd 14 02 3b 3d 2d b0 b8 bc
       -0.384609 -0.072364874 0.04565628 -0.022544945
000040 4a e5 0c bf 94 8c e5 bb 4a 1e f1 3c 00 8e c5 3d
       -0.5503737 -0.0070052836 0.029433388 0.09646225
000050 a0 8b e5 3c f3 3a 55 bd 1e 12 38 3d 2c 95 af 3e
       0.02802068 -0.05205817 0.044939153 0.34293497
000060 67 41 47 3e 9f b4 a1 3e 6d d0 a6 bc e3 85 8e 3e
       0.19458543 0.31583115 -0.020363057 0.27836522
000070 f9 f7 84 3d 47 d7 fb 3e 1d 70 80 be 64 05 a5 bd
       0.064926095 0.4918768 -0.25085536 -0.08057669
000080 5b 0b 5a 3e 92 6e 30 3e 91 ae 0e 3e a5 5b 1e bd
       0.21293394 0.17229679 0.1393378 -0.038661618
000090 cd 11 26 3e fb ff 14 3e 5e dd 37 bd c2 e4 2a bd
       0.16217728 0.14550774 -0.044888847 -0.041722067
0000a0 bc 55 a2 bd 2d 1e 08 3e 50 b2 51 be 2a 77 82 be
       -0.07926509 0.13292761 -0.20478177 -0.2548154
0000b0 e2 6d 25 3e 44 aa 34 be 87 1b 6f 3b 64 59 f6 be
       0.16155198 -0.17643076 0.0036484913 -0.48115075
0000c0 f8 27 80 3d 5a c9 6c 3d 25 82 83 be c7 f1 86 3d
       0.062576234 0.05780921 -0.2568523 0.06589084
0000d0 d6 f8 fc be ad 06 fc bd 40 0a 8b be a0 d0 c0 3d
       -0.49408597 -0.12305961 -0.27156258 0.09414792
0000e0 0a 0c 32 3e 1f 0b 98 be e0 74 83 3e 7e c9 c5 3d
       0.17387405 -0.29695985 0.25675106 0.09657572
0000f0 bb b0 8a 3d 07 fe a5 3e 97 3f 7e 3e fa 98 c3 bd
       0.0677199 0.3242037 0.24828945 -0.09550662
000100 9e 6a 35 be 60 34 e3 3e c5 f9 6a bd c9 de 91 be
       -0.17716452 0.44375896 -0.057367105 -0.28490284
000110 d2 1f 52 3d bb e7 6b 3e cf 82 00 3e 2d 1c b3 bd
       0.051299877 0.23037617 0.125499 -0.087456085
000120 2f a4 9a be 91 ea 25 3d e2 1c ae 3e c2 b7 47 be
       -0.30203387 0.040506903 0.3400641 -0.19503692
000130 70 ad 4b 3e 78 12 ad 3e 35 6a 82 3e 64 1b c7 bc
       0.1989038 0.33803153 0.25471655 -0.024305053
000140 3b 73 46 3e 0e 67 89 bd e2 f9 2e ba 5f fb 13 bf
       0.19379894 -0.06709109 -0.00066748087 -0.57805437
000150 42 0b 7e 3d 49 ef 08 3e 29 b9 5c be 50 17 80 bd
       0.062022455 0.1337253 -0.21555008 -0.062544465
000160 98 17 e1 bd 7e 08 0d 3e 6e 20 95 be 5e 54 5a 3e
       -0.10990828 0.13772771 -0.29126304 0.21321246
000170 89 29 76 bd ba ce f1 3e 79 8c 3d be ec 75 04 be
       -0.060098205 0.47228032 -0.18510617 -0.12935609
000180 99 66 fc bd 77 88 b2 be 35 1d 3d 3d 1e 8c 03 bd
       -0.123242564 -0.3486974 0.046170432 -0.032116048
000190 6a 73 ae 3e eb 32 fe bb 41 63 68 be 85 1f 63 3e
       0.3407243 -0.0077575347 -0.22694112 0.22179992
0001a0 91 1b 3d 3e ff e1 da 3d d5 77 52 3e b8 f5 0d 3e
       0.18467547 0.106876366 0.20553525 0.13863266
0001b0 9d c5 b8 bd 36 ee f8 3c df da 91 bd bb 3b b0 3e
       -0.09022067 0.030387025 -0.071218245 0.3442057
0001c0 c8 34 39 be e9 51 40 be 06 e5 86 bd 11 02 07 be
       -0.1808654 -0.18781246 -0.065866515 -0.13184382
0001d0 12 86 39 be db c8 12 be dc 1c 71 3d 15 8c 14 3e
       -0.1811755 -0.14334433 0.058865413 0.14506562
0001e0 0a 57 5b 3e 29 7e 89 3e 80 12 45 be e1 03 9d 3e
       0.21419922 0.26854065 -0.19245338 0.30667022
0001f0 69 59 43 bd bb 82 87 3c 82 b8 fd 3d 11 fc 4a bd
       -0.04769269 0.01654183 0.12388708 -0.049556796
000200 5b fb 50 3e 54 a5 b5 bd bb 46 b1 3e e0 e3 9d 3e
       0.20408385 -0.088694245 0.34624276 0.30837917
000210 7e 96 92 3e ee ac 39 bd 3e 01 65 3e bd f2 f5 3d
       0.2863044 -0.045330934 0.22363755 0.12009189
000220 00 dd 89 3e 57 67 ba be b5 0b d9 3d 90 e7 14 3e
       0.26926422 -0.36406967 0.10597936 0.14541459
000230 3f fb 0f 3e 29 01 1c 3c f4 a3 de bd fa 06 1c 3e
       0.14060687 0.009521761 -0.10871115 0.15237036
000240 8f f4 80 be 71 0d f8 3e c7 51 02 be 51 33 81 bd
       -0.25186583 0.48447755 -0.12726508 -0.06308616
000250 e6 87 d1 3e 7d 4f c4 be 25 2d 08 bc b8 9f 5b be
       0.40923995 -0.38341895 -0.008311545 -0.21447647
000260 ee 07 76 3e eb d2 d6 3d 4f 50 5c bd e5 b4 00 be
       0.24026462 0.10489448 -0.053787526 -0.12569006
000270 93 86 69 be a5 ce a6 3d cd 53 a8 3b 18 e4 37 be
       -0.22805242 0.08144883 0.005136943 -0.17958105
000280 da f4 ee 3e 33 57 69 be 43 e0 f5 3d f6 f1 d8 bd
       0.46671182 -0.2278717 0.12005665 -0.105930254
000290 ac 41 56 be e2 6d 57 be 44 35 58 be 22 c7 72 be
       -0.2092349 -0.2103801 -0.21114069 -0.23708776
0002a0 e0 ac d8 3e 5f e9 2e bd 07 75 16 3e be 3f 8f 3e
       0.42319393 -0.04270303 0.1469308 0.2797832
0002b0 94 01 0c be e6 db e5 bd 2f 57 77 be 09 d2 d7 bd
       -0.13672477 -0.11223583 -0.24154352 -0.10538108
0002c0 69 75 18 3e 1d be 84 be 6c c3 e1 bc e7 6f 1e be
       0.14888538 -0.25926295 -0.027559005 -0.15472375
0002d0 e9 54 af be 37 86 42 be 72 cb df bd a5 94 3b be
       -0.3424447 -0.18996511 -0.10927476 -0.18318422
0002e0 9f 63 ee bd 14 c5 2b be 9e 68 a5 3e 9b 6e 3e be
       -0.11640095 -0.16774398 0.3230638 -0.1859688
0002f0 ca 13 97 3c f5 07 51 bd 91 84 02 3e d9 24 55 3d
       0.018442053 -0.05103298 0.12745883 0.052037094
000300 d8 a3 99 3b 52 3f 8f be 4a 28 ac 3d 56 58 cf bd
       0.004688721 -0.27977997 0.08406122 -0.101242706
000310 d2 5a 58 be 6a 04 e0 3d ec 48 29 3e 43 5e 12 bd
       -0.21128395 0.10938342 0.16531724 -0.035734426
000320 85 1a 15 3e 41 9f f2 3e 0f e0 95 3e 41 52 b0 bd
       0.14560898 0.47387126 0.29272506 -0.08609439
000330 9a 94 0b 3e 0f 3a 8a 3e 7d ed a9 3e 71 5d 48 3d
       0.13630906 0.2699742 0.33189002 0.048917238
000340 00 08 4f be 72 9f 34 3d 2e f5 c9 bd be f4 e5 3d
       -0.20217896 0.04409737 -0.098612174 0.112283215
000350 8f c7 0b be bf 8e 10 3f 32 d7 08 be 98 01 ed be
       -0.13650344 0.56467813 -0.1336334 -0.46290278
000360 b4 25 c3 3e 17 06 61 bd be ab 0c 3d 48 20 0d bd
       0.38114703 -0.05493745 0.034343474 -0.034454614
000370 02 44 ac be a6 1a dd 3c d4 43 4d 3e d1 39 95 3e
       -0.33645636 0.026990246 0.20045406 0.29145673
000380 88 44 01 3e c9 0f 44 3e a5 5f 31 be bc 26 f6 bd
       0.12623799 0.19146647 -0.17321642 -0.12019107
000390 3e d8 8a 3e f5 fd 5c 3e 37 0b 53 3e b2 d9 50 be
       0.27118105 0.21581252 0.20609747 -0.20395544
0003a0 62 00 02 bd b0 d3 01 be 15 f3 57 bd 82 01 5c 3d
       -0.031738646 -0.12678409 -0.052722055 0.053712375
0003b0 89 21 9c bd a5 99 fa 3e 0f 4e bd bd 09 12 d2 bd
       -0.07623584 0.48945346 -0.09243404 -0.10257346
0003c0 13 8c ea 3d 16 a7 fd bd e6 ef ce 3e 7a 06 62 bd
       0.11452498 -0.12385385 0.40417403 -0.055181958
0003d0 a7 a9 33 3e e4 15 ac be 19 9e 39 be 50 0a 21 bd
       0.17545186 -0.3361045 -0.18126716 -0.039316475
0003e0 06 0b 85 3e 94 c7 b6 3d 8c 67 7a bd 1b a8 92 3e
       0.25984973 0.08924785 -0.061133906 0.2864388
0003f0 3a d8 1d 3e a0 ab 6a be 4e 23 0a be 20 14 ae 3d
       0.15414515 -0.22917032 -0.1349003 0.08499932

base.mlp.fc2.0.0.bias f4 [64]
000000 c8 dd 6c be 43 a3 56 3d ca 37 ac bc 31 ee 6d 3d
       -0.23131478 0.052401792 -0.021022696 0.058088485
000010 ff 67 87 bc 90 f5 b0 3c fa ea 6f 3c 7c d4 f6 3d
       -0.016529081 0.021601468 0.014643425 0.12052247
000020 f0 ee 78 3c a6 06 85 bc 56 a4 0b bd 8d c4 e3 3c
       0.015193686 -0.016238522 -0.03409227 0.027803684
000030 bc d3 ea bc 33 9e fe 3d e3 c1 39 3e d1 2c c4 3c
       -0.028665416 0.12432518 0.18140368 0.023947151
000040 03 cc ef bc 50 88 56 3e b7 c7 3d bd 5a 3a 7b 3d
       -0.029272085 0.20950437 -0.04633304 0.061334945
000050 90 58 20 3c 41 06 20 3c 83 4c df 3c 3a 8a 67 3e
       0.00978674 0.009767116 0.027258163 0.22611323
000060 f8 37 53 bc 3a 26 92 bc b9 e1 1d be 00 07 ec 3c
       -0.012891762 -0.017840493 -0.15418138 0.028811932
000070 b8 81 3f 3d fb 0c 8f 3c be f9 d1 3c 9f a2 ea 3c
       0.04675457 0.017462244 0.025631782 0.028641997
000080 21 a5 cb 3c 8b a9 f4 bc 7b af e5 bc 07 e5 80 3b
       0.024859013 -0.029866 -0.028037777 0.003933552
000090 70 38 d0 3c cf 4e 72 bd c6 1e 26 3d a9 99 b0 3c
       0.025417536 -0.05915719 0.04055669 0.021557646
0000a0 3c d8 79 3c 17 6b d7 bc df 6c 85 3c 54 f9 a4 3c
       0.015249308 -0.026296182 0.016287265 0.02013842
0000b0 27 ea 97 3d 4b a8 c0 3c 72 51 f5 bc 57 bb d3 bc
       0.07417708 0.023517748 -0.029946063 -0.025846167
0000c0 2d 7e f1 bc 82 59 52 bc 88 4d b4 3c 6a 5c 10 bd
       -0.02947911 -0.012838723 0.022009626 -0.035244383
0000d0 0c 82 84 3c b0 1c 32 3c ef 9e 43 3d df 0b dd bd
       0.016175292 0.010871097 0.047758993 -0.1079328
0000e0 93 12 c9 bd d5 03 7f bc 49 14 2d bd 2c cb a3 bc
       -0.09817996 -0.0155648785 -0.042255674 -0.01999434
0000f0 d2 4e 1c bd 03 db ad bc 0a 9c b2 3c f4 b5 db bc
       -0.038161106 -0.021222597 0.02180292 -0.02682016

base.mlp.fc2.0.2.weight f4 [64]
000000 c9 3f 83 3f 19 c6 75 3f 48 cd 73 3f 61 84 80 3f
       1.0253841 0.960054 0.9523511 1.0040399
000010 38 32 76 3f d2 bd 26 3f 58 5f 7b 3f a8 a7 7d 3f
       0.9617038 0.6513339 0.9819236 0.9908395
000020 3e 0c 59 3f 68 fe 6a 3f 1c 26 83 3f e0 2e 73 3f
       0.84784305 0.91794443 1.0246005 0.949934
000030 47 32 78 3f d7 9b 7c 3f 00 6e 7e 3f 0a 24 7f 3f
       0.9695172 0.9867529 0.99386597 0.99664366
000040 9d f3 7c 3f 3b 9b 7f 3f e6 c8 77 3f eb 53 71 3f
       0.98809224 0.9984624 0.9679092 0.94268674
000050 cc d5 53 3f 68 dc 5d 3f b9 f3 79 3f 0c ab 82 3f
       0.82748103 0.8666444 0.97637516 1.0208449
000060 87 54 5a 3f c4 cb 80 3f 54 36 0b 3f 5a d1 04 3f
       0.8528523 1.0062184 0.54379773 0.51881945
000070 7b ad 68 3f f6 f2 0e 3f a7 3a 62 3f 2b fc 7f 3f
       0.9088971 0.5583948 0.88370746 0.9999415
000080 09 fc 7d 3f 7d 1f 3e 3f 9f 3e 7a 3f 8f 43 62 3f
       0.992127 0.742668 0.977518 0.88384336
000090 66 1a 2d 3f 9f 4b 4f 3f a4 73 6f 3f 7a 2c 79 3f
       0.67618406 0.80974764 0.9353583 0.9733349
0000a0 8d 7b 70 3f 09 ff 7a 3f ee 7e 45 3f e4 06 69 3f
       0.93938524 0.980454 0.77146804 0.9102614
0000b0 c6 32 80 3f 6f 2f 6e 3f 87 44 80 3f 16 e8 7f 3f
       1.0015495 0.9304113 1.0020913 0.9996351
0000c0 84 9f 48 3f c7 73 7f 3f e0 cb 7d 3f 0b 31 7d 3f
       0.783684 0.9978604 0.99139214 0.9890296
0000d0 eb 97 7d 3f 5c a5 02 3f 75 72 79 3f 8a 77 67 3f
       0.99059933 0.5103357 0.9744027 0.9041678
0000e0 d4 94 7d 3f ea 84 75 3f 99 1c 80 3f 85 1b 73 3f
       0.9905522 0.95905936 1.0008727 0.94963866
0000f0 f4 32 41 3f e0 f2 78 3f fc 55 55 3f 7a 3c 5a 3f
       0.75468373 0.972456 0.83334327 0.8524853

base.mlp.fc2.0.2.bias f4 [64]
000000 3d 3a 2c be 64 cc 49 bb 64 e7 10 bc 5d ef 98 3d
       -0.16819091 -0.0030791992 -0.00884423 0.0746753
000010 20 b4 3b bc c5 ce 2d 3c 5f a8 98 3b 1c d1 31 3d
       -0.011456519 0.01060838 0.0046587433 0.043412313
000020 39 c9 07 3c c7 b2 77 b8 1c 2f e2 bc 04 cd 45 bc
       0.008287721 -5.905589e-05 -0.027610354 -0.012072805
000030 12 1e bf bb 58 00 46 3e a4 f9 6a 3e ae 48 6c 3c
       -0.005832442 0.19336069 0.22946793 0.014421625
000040 df b0 9a bc 53 6b 33 3e 2a e4 a5 bc 6c eb 22 3d
       -0.018883167 0.1752141 -0.020250399 0.039775297
000050 3d bd 5b 3c 56 fe 1b bc d3 fd 1d 3c 39 25 b1 3d
       0.013411817 -0.009521088 0.009643036 0.08649678
000060 dc aa b6 3c f6 de 44 bc 77 93 0d bc 6e 01 18 ba
       0.022298269 -0.012016049 -0.008641115 -0.0005798553
000070 1e a5 97 bc bc 0a f3 bb 66 21 57 3c 77 e7 c7 3c
       -0.018511351 -0.007417051 0.013130521 0.024402363
000080 69 6b 85 3c 66 09 61 bc 89 d1 96 bc 27 57 09 bc
       0.016286569 -0.013735151 -0.018410461 -0.008382595
000090 c0 56 d2 3a 82 ef 17 bd 72 89 b6 3c 77 1d df 3b
       0.0016047582 -0.037093647 0.022282336 0.0068089324
0000a0 5e 08 14 3c 9f ef f0 bc 7b 82 3b 3c cf f9 6e 3b
       0.009035198 -0.029411135 0.011444683 0.0036464815
0000b0 61 e9 1d 3d f6 e2 1f 3c 4c 5c 6f bc c3 37 78 bc
       0.038552646 0.009758702 -0.014609408 -0.015150013
0000c0 b0 1b 5d bc 6c d0 8d bc 4b 47 27 3c c0 63 ff bb
       -0.013495371 -0.017311297 0.010209869 -0.0077938735
0000d0 cd f7 50 3c c7 93 af bb 07 4c ae 3b 76 c5 8d bc
       0.012754393 -0.0053581926 0.0053191218 -0.01730607
0000e0 87 f7 40 bd 27 c8 75 3b 8e f7 f5 bc 11 b6 11 bc
       -0.04711106 0.0037503333 -0.03002527 -0.008893506
0000f0 d2 3c 1b bc c1 f2 71 bc 11 9a 99 3a bb 67 32 bc
       -0.00947495 -0.01476735 0.0011718889 -0.010888989
