train/maddpg-v5/results/formation_hd_env/maddpg/hd_4/run11/models/policy_1/actor.pt (torch, 65833 bytes, 20 tensors)

mlp.feature_norm.weight f4 [24]
0.999778 1.000131 0.99972135 0.9997838 0.9998407 0.9999545 0.99999195 0.99987787
1.0002787 0.9997136 1.0002244 1.0000724 0.9999579 1.0001506 0.99996793 0.999898
1.0002698 1.0002682 0.9998493 1.000024 0.9999901 1.0000463 1.0000472 1.0000409
00000000: 73f1 7f3f 4b04 803f bded 7f3f d5f1 7f3f
00000010: 8ff5 7f3f 05fd 7f3f 79ff 7f3f fff7 7f3f
00000020: 2209 803f 3bed 7f3f 5a07 803f 5f02 803f
00000030: 3efd 7f3f ef04 803f e6fd 7f3f 51f9 7f3f
00000040: d708 803f ca08 803f 20f6 7f3f c900 803f
00000050: 5aff 7f3f 8401 803f 8c01 803f 5701 803f

mlp.feature_norm.bias f4 [24]
0.00028325024 0.00011414288 -4.59981e-05 -0.00030751675 0.00033645367 0.00036800795 0.00029434205 4.258722e-05
0.0003593132 7.4011696e-05 -0.0003390739 0.00033722562 -5.102335e-05 -0.00019073645 -8.864619e-05 -0.00012745746
-0.00030892284 -0.00018061129 0.00027239585 0.00024368688 -5.5304303e-05 0.00021633421 0.00031169585 -0.00014446885
00000000: 3481 9439 fe5f ef38 15ee 40b8 333a a1b9
00000010: 0c66 b039 31f1 c039 ec51 9a39 ae9f 3238
00000020: 3462 bc39 ba36 9b38 bac5 b1b9 a8cd b039
00000030: e801 56b8 6d00 48b9 90e7 b9b8 1aa6 05b9
00000040: ecf6 a1b9 7962 3db9 5ad0 8e39 3386 7f39
00000050: 8bf6 67b8 c6d7 6239 1c6b a339 907c 17b9

mlp.mlp.fc1.0.weight f4 [64, 24]
0.08368998 -0.12032454 0.055436634 -0.09228231 -0.111399606 0.117230184 0.041329067 -0.13449183
0.06536879 -0.19217265 0.20380966 0.2821852 0.21724072 0.17005678 -0.013541148 0.010885311
0.21344209 0.26212308 -0.39758137 0.2112273 -0.058942806 -0.09863749 0.05169638 0.036059167
0.068783745 -0.003746411 -0.085984714 0.061274733 0.07000067 -0.12421663 0.031002464 -0.060785975
0.13644722 0.3133143 0.3003221 -0.19189766 -0.05713539 -0.0381829 -0.08691559 -0.23655197
-0.05377205 -0.20521486 0.07976062 -0.064638786 -0.03780617 -0.31271908 0.18129498 -0.09064656
0.17402989 -0.030596554 -0.017528992 0.1407731 0.17456943 0.078465775 0.097312815 0.07507009
-0.32018185 0.08498921 0.018368416 -0.31143755 -0.13842446 0.020502333 -0.005949037 0.04518784
0.106957994 0.016104478 -0.45868784 -0.14376889 -0.21912868 0.28083065 -0.21861658 0.0030291858
0.10122123 -0.16605778 -0.16901805 0.21687575 -0.42065784 0.006981524 0.14734265 0.101793244
0.03878068 -0.1503919 0.08511792 0.018292025 -0.06421531 -0.12510608 0.013456835 -0.007231028
-0.1525581 0.0126147615 -0.14947586 -0.10404652 -0.53456897 0.15467958 -0.054503214 -0.1294056
0.12517561 -0.21483481 0.20831369 -0.26382583 -0.0361875 -0.14309217 -0.052146584 -0.026322525
0.25521407 0.40751395 0.32455152 0.1014786 0.028709395 -0.028495217 0.030505955 0.034687717
0.18636924 -0.23840243 0.0956712 -0.22276053 0.2161068 0.22613825 -0.15406238 -0.17330332
-0.06636366 0.45413813 0.09627267 -0.3259477 0.12882559 0.39657566 0.11566677 -0.124338344
-0.1155655 -0.049621683 -0.15013024 -0.1495172 0.3053874 -0.24004795 0.17739941 -0.1090859
-0.13656902 0.1702399 -0.016672848 0.054445166 -0.012151894 -0.03430746 -0.1866031 0.065842904
-0.06577643 0.1361061 -0.28318512 0.0072134747 0.01056492 -0.13000801 -0.0008768703 0.086148664
0.26548332 -0.053003907 -0.016207492 0.06465806 -0.0137236705 0.07633016 0.38460308 -0.012271855
0.38694954 0.1632275 0.16819482 -0.022092555 0.30802843 -0.041726615 -0.023990182 0.29098776
0.25081235 0.15807372 0.07862559 0.024034584 -0.037095036 0.06296355 -0.04027338 0.37476903
-0.30541041 -0.12606116 0.18573421 0.020214483 0.2369115 -0.011280665 -0.0036407954 0.013631944
0.20813988 -0.09069375 -0.014403408 -0.1468233 0.33868635 -0.21237615 -0.21965654 -0.12658873
0.20951648 0.13113774 -0.02004199 -0.18250576 -0.06724262 -0.035797976 0.35800672 -0.15556517
0.093450375 -0.008899987 0.06794904 -0.09696051 -0.2363149 -0.28146422 0.06186504 -0.21201558
0.0315509 -0.014203616 -0.28224796 -0.30560833 -0.028282538 -0.33713648 -0.10004091 0.022350755
-0.04795942 0.10513739 0.04380902 0.018941352 -0.4359792 -0.15807776 -0.1944904 -0.017618934
0.113884166 -0.052597314 -0.008242652 -0.1939026 0.2585652 0.061677605 0.055167913 0.22103459
-0.28512618 0.13617778 0.04382129 -0.021624964 0.0881278 -0.010459445 -0.32234105 0.14632426
-0.12284165 -0.018221695 0.24243402 0.08913799 -0.05157004 0.054787733 -0.2170961 0.2518951
-0.15248275 -0.3359672 0.27602494 0.058736984 0.03094336 0.1370784 -0.06233439 -0.12701896
00000000: a765 ab3d b66c f6bd 8611 633d 82fe bcbd
00000010: 7a25 e4bd 6116 f03d ab48 293d 3ab8 09be
00000020: 12e0 853d e8c8 44be 7bb3 503e 947a 903e
00000030: 5a74 5e3e 5d23 2e3e b1db 5dbc 4e58 323c
00000040: 9090 5a3e ff34 863e c98f cbbe f84b 583e
00000050: 036e 71bd 7402 cabd 95bf 533d c7b2 133d
00000060: 7ede 8c3d 5986 75bb c118 b0bd 37fb 7a3d
00000070: 835c 8f3d 4a65 febd e1f8 fd3c b7fa 78bd
00000080: d2b8 0b3e bb6a a03e d1c3 993e d280 44be
00000090: cc06 6abd ac65 1cbd cd00 b2bd ae3a 72be
000000a0: 1540 5cbd d823 52be 8959 a33d 5761 84bd
000000b0: a4da 1abd b71c a0be 64a5 393e e7a4 b9bd
000000c0: e434 323e a0a5 fabc f698 8fbc d326 103e
000000d0: 54c2 323e aab2 a03d f14b c73d 59be 993d
000000e0: e0ee a3be d30e ae3d 5c79 963c be74 9fbe
000000f0: 24bf 0dbe 82f4 a73c 24f0 c2bb e216 393d
00000100: cb0c db3d 8aed 833c 22d9 eabe 2738 13be
00000110: 4563 60be 09c9 8f3e 06dd 5fbe 4e85 463b
00000120: 144d cf3d 0d0b 2abe 1113 2dbe ad14 5e3e
00000130: 7760 d7be 45c5 e43b fee0 163e fa78 d03d
00000140: 7ed8 1e3d 5600 1abe 4e52 ae3d 28d9 953c
00000150: 5183 83bd cf1b 00be 0f7a 5c3c 42f2 ecbb
00000160: 3138 1cbe 25ae 4e3c 3310 19be 5816 d5bd
00000170: 83d9 08bf 5364 1e3e c33e 5fbd e782 04be
00000180: 092e 003e a8fd 5bbe 2f50 553e 2e14 87be
00000190: 5839 14bd c186 12be a897 55bd 56a2 d7bc
000001a0: 6bab 823e aba5 d03e 9e2b a63e 03d4 cf3d
000001b0: f72f eb3c cd6e e9bc a0e7 f93c b514 0e3d
000001c0: 94d7 3e3e c41f 74be 43ef c33d 561b 64be
000001d0: 1a4b 5d3e c990 673e 87c2 1dbe 6d76 31be
000001e0: ace9 87bd cb84 e83e 9b2a c53d 9ee2 a6be
000001f0: dbea 033e f70b cb3e b3e2 ec3d 1aa5 febd
00000200: 9bad ecbd 1b40 4bbd bebb 19be 091b 19be
00000210: bd5b 9c3e 21cf 75be 31a8 353e 6e68 dfbd
00000220: c0d8 0bbe 5e53 2e3e 7f95 88bc e501 5f3d
00000230: bd18 47bc fb85 0cbd e214 3fbe a5d8 863d
00000240: cbb5 86bd 665f 0b3e a4fd 90be 035f ec3b
00000250: 7c18 2d3c d220 05be c5dd 65ba b66e b03d
00000260: 6eed 873e a01a 59bd 93c5 84bc 726b 843d
00000270: 3fd9 60bc fd52 9c3d b2ea c43e e40f 49bc
00000280: 401e c63e 1c25 273e 433b 2c3e 72fb b4bc
00000290: e7b5 9d3e 87e9 2abd 0f87 c4bc 59fc 943e
000002a0: 7a6a 803e 14de 213e 7406 a13d 2de4 c43c
000002b0: f7f0 17bd 09f3 803d b3f5 24bd bae1 bf3e
000002c0: c15e 9cbe 2d16 01be 1c31 3e3e d898 a53c
000002d0: ee98 723e 8ad2 38bc 699a 6ebb 8458 5f3c
000002e0: 9f22 553e a5bd b9bd 46fc 6bbc d958 16be
000002f0: 4c68 ad3e 2279 59be a5ed 60be 7aa0 01be
00000300: 7d8b 563e f948 063e 192f a4bc cae2 3abe
00000310: 80b6 89bd e6a0 12bd a84c b73e 7a4c 1fbe
00000320: e962 bf3d 40d1 11bc de28 8b3d 3b93 c6bd
00000330: 88fc 71be 141c 90be 3266 7d3d 9d1a 59be
00000340: 843b 013d 49b6 68bc ce82 90be b278 9cbe
00000350: c8b0 e7bc 279d acbe 40e2 ccbd ee18 b73c
00000360: 1971 44bd 4652 d73d 1671 333d e52a 9b3c
00000370: aa38 dfbe 23df 21be 7e28 47be 9555 90bc
00000380: 1a3c e93d 4870 57bd 300c 07bc 678e 46be
00000390: a862 843e a8a1 7c3d c0f7 613d e456 623e
000003a0: 0ffc 91be 3072 0b3e f47d 333d d626 b1bc
000003b0: 597c b43d 185e 2bbc e309 a5be 07d6 153e
000003c0: 6794 fbbd aa45 95bc a040 783e fa8d b63d
000003d0: 1b3b 53bd 1a69 603d 714e 5ebe 65f8 803e
000003e0: 7024 1cbe e503 acbe 2453 8d3e 3196 703d
000003f0: ee7c fd3c 485e 0c3e 5852 7fbd 4211 02be

mlp.mlp.fc1.0.bias f4 [64]
0.00025504341 -5.8204114e-05 0.0001230304 -0.00025374466 0.0001313676 0.0002557109 -3.451451e-05 -0.00029901875
-0.00015535821 0.00013773004 -4.2313324e-05 0.00033918445 -2.1108728e-05 0.0003294436 -0.00011184204 -0.00027303022
0.00026697945 0.00026095932 -0.0003208017 -8.1190876e-05 -0.00031748286 0.00011744206 -4.7724534e-06 0.00012131525
-0.00032065064 5.7929577e-05 -0.0002252135 0.00031721502 2.4716428e-07 4.915042e-06 -0.00027959835 -0.00033687046
-0.00021493778 0.00026507658 -0.00012802033 -0.0001986821 0.00025044612 0.00029282938 0.00024344129 -0.0002718426
-0.00019611156 0.00024601084 -0.0002980063 0.00019580092 0.00025413831 0.0002521888 0.0003580966 -0.0002914573
0.00012797088 9.7632714e-05 -0.0003306604 0.000110642715 0.00017249174 -0.00031369983 0.0003191474 -0.00034667997
-0.00025339564 0.00018379056 -9.8328135e-05 2.4463861e-05 -0.0002641285 -6.5412496e-05 -0.0001923917 0.00012291541
00000000: 59b7 8539 3120 74b8 b901 0139 0809 85b9
00000010: b9bf 0939 f010 8639 acc3 10b8 9ec5 9cb9
00000020: a7e7 22b9 a06b 1039 9679 31b8 91d4 b139
00000030: a612 b1b7 2cb9 ac39 bd8c eab8 7f25 8fb9
00000040: 60f9 8b39 5ed1 8839 4631 a8b9 0545 aab8
00000050: d473 a6b9 3a4b f638 1023 a0b6 a16a fe38
00000060: 001d a8b9 69f9 7238 4a27 6cb9 e14f a639
00000070: 00b2 8434 e4eb a436 0e97 92b9 fd9d b0b9
00000080: ec60 61b9 faf9 8a39 323d 06b9 5255 50b9
00000090: 4f4e 8339 e586 9939 4644 7f39 1986 8eb9
000000a0: 4ca3 4db9 04fb 8039 bb3d 9cb9 e94f 4d39
000000b0: de3d 8539 3538 8439 e9be bb39 bdce 98b9
000000c0: ec2f 0639 2ac0 cc38 7d5c adb9 db08 e838
000000d0: e6de 3439 1478 a4b9 3d53 a739 99c2 b5b9
000000e0: 30da 84b9 e7b7 4039 8435 ceb8 be37 cd37
000000f0: ba7a 8ab9 112e 89b8 c1bc 49b9 dbe2 0039

mlp.mlp.fc1.2.weight f4 [64]
0.99978477 0.9998872 1.0000863 1.0000746 1.0002222 1.0001893 0.99988997 1.0000312
1.0000372 1.0002198 1.0000376 1.0002779 1.000044 0.99978167 0.99982494 1.0000808
1.0000252 0.99993736 0.9997982 1.000208 0.9997532 1.0001678 0.99987453 0.99995935
1.0002242 0.9999735 0.99982375 0.9997597 0.99997663 1.0001216 1.0001944 0.9998934
1.0000685 0.99974823 0.99979687 0.9999238 1.0000064 1.00002 1.0001421 0.99997157
0.999936 0.99987054 1.0001463 1.0000166 1.0002636 1.0001171 1.0002627 0.99975055
1.0001305 0.99997765 0.9998584 1.0001395 1.000195 1.0001296 0.9997754 0.9997157
0.9998032 1.0001833 0.99999005 1.0002607 0.9997469 0.99983114 1.0001941 0.99993235
00000000: e5f1 7f3f 9cf8 7f3f d402 803f 7202 803f
00000010: 4807 803f 3406 803f caf8 7f3f 0601 803f
00000020: 3801 803f 3407 803f 3b01 803f 1b09 803f
00000030: 7101 803f b1f1 7f3f 87f4 7f3f a602 803f
00000040: d300 803f e5fb 7f3f c6f2 7f3f d106 803f
00000050: d3ef 7f3f 8005 803f c7f7 7f3f 56fd 7f3f
00000060: 5907 803f 43fe 7f3f 73f4 7f3f 40f0 7f3f
00000070: 78fe 7f3f fc03 803f 5f06 803f 04f9 7f3f
00000080: 3f02 803f 80ef 7f3f b0f2 7f3f 02fb 7f3f
00000090: 3600 803f a800 803f a804 803f 23fe 7f3f
000000a0: cefb 7f3f 84f7 7f3f cb04 803f 8b00 803f
000000b0: a308 803f d603 803f 9c08 803f a7ef 7f3f
000000c0: 4704 803f 89fe 7f3f b8f6 7f3f 9204 803f
000000d0: 6406 803f 3f04 803f 48f1 7f3f 5eed 7f3f
000000e0: 1af3 7f3f 0206 803f 59ff 7f3f 8b08 803f
000000f0: 6aef 7f3f eff4 7f3f 5c06 803f 91fb 7f3f

mlp.mlp.fc1.2.bias f4 [64]
0.0002880114 0.00015340184 -9.860145e-06 -0.00021166983 -0.0002420042 0.0002209957 0.00015857976 -0.0002698747
-0.0002403945 -8.1876315e-05 -8.269113e-05 0.0003065366 -0.00015539557 0.00033962823 -2.0395006e-05 -0.00029127713
0.00024721643 0.00019118446 -0.00027984916 -0.00028645166 -0.00029228607 4.0345032e-05 6.2088375e-06 -7.6432814e-05
-0.00032093798 -7.235031e-05 -0.00019752042 0.00033089006 -4.602322e-05 -0.00023423275 -0.00031760513 -0.00034437844
-0.00016459734 0.0003076333 -0.00012325266 -7.104475e-05 0.00030756378 0.00025992037 0.00024010932 -0.00027588452
-5.661879e-06 0.00028043514 -0.00032306035 0.00018333367 0.0001571684 0.00014455296 0.00034333626 -0.00023973978
-0.00012979114 7.992584e-05 -0.00030987864 2.7275728e-05 5.6830686e-07 -0.00031284743 0.00031873546 -0.00033242494
-6.2746396e-05 2.121247e-05 -0.00021813276 -9.244643e-06 -0.00017044085 0.00028372655 -0.0002454509 6.3032596e-05
00000000: 3c00 9739 7eda 2039 006d 25b7 b0f3 5db9
00000010: 82c2 7db9 15bb 6739 6e48 2639 f87d 8db9
00000020: 6812 7cb9 03b5 abb8 766a adb8 a5b6 a039
00000030: aef1 22b9 2110 b239 f115 abb7 8eb6 98b9
00000040: d49c 8139 b078 4839 b8b8 92b9 e42e 96b9
00000050: f93d 99b9 2638 2938 8255 d036 8e4a a0b8
00000060: 9143 a8b9 c7ba 97b8 7c1d 4fb9 507b ad39
00000070: 0e09 41b8 609c 75b9 3d84 a6b9 b18d b4b9
00000080: c397 2cb9 d849 a139 623d 01b9 dcfd 94b8
00000090: 8340 a139 ec45 8839 dbc5 7b39 98a4 90b9
000000a0: 2cfb bdb6 5e07 9339 6d60 a9b9 423d 4039
000000b0: 92cd 2439 2493 1739 d001 b439 a862 7bb9
000000c0: 8b18 08b9 dc9d a738 3577 a2b9 2ece e437
000000d0: c08d 1835 ac05 a4b9 f31b a739 5249 aeb9
000000e0: b796 83b8 6ff1 b137 91ba 64b9 7019 1bb7
000000f0: 5eb8 32b9 22c1 9439 ddaf 80b9 5e30 8438

mlp.mlp.fc_h.0.weight f4 [64, 64]
-0.19112197 0.15593173 0.108577855 -0.12372036 -0.07340109 -0.33785763 0.1736915 0.49499428
0.08132372 -0.011319541 0.10983768 0.28718156 0.044015475 -0.009390534 -0.075415164 0.19937962
-0.041618522 0.3031251 0.19552979 0.06627473 -0.057222705 0.036816902 0.1931295 -0.35289732
-0.12338677 -0.16996448 -0.15119982 -0.02359235 -0.16229473 0.26934335 0.17661195 0.243032
-0.06991114 -0.09924507 0.07759981 0.1349115 0.17092584 0.12475634 0.04652315 -0.18882266
0.10601723 -0.38806915 0.032882832 0.1846088 -0.2336136 -0.008828264 -0.007062023 -0.008719561
0.030689606 -0.03512161 0.139691 0.18346572 0.10802453 -0.18466115 -0.06562526 0.08877063
-0.2935513 -0.04430582 -0.019279879 0.016155513 -0.17868133 -0.40384158 0.119600184 -0.1564826
-0.03402154 -0.16832374 -0.053433523 0.04646337 -0.24514133 -0.23281874 0.48184726 -0.10221101
0.08448313 -0.03276461 0.19023369 -0.12931292 0.18858565 -0.00035005435 -0.19776489 0.036256675
-0.075473316 -0.2041995 -0.21280268 0.051963553 -0.26848188 -0.07546668 -0.020845026 -0.07910209
0.27806804 0.18651691 -0.22019137 -0.1367402 0.30697316 0.010445299 0.17432275 -0.07340317
-0.076001234 -0.08972892 -0.35049033 0.23904331 -0.3790158 0.016681986 0.20265663 -0.049066458
-0.112909235 -0.06670347 0.45014983 -0.14604688 -0.11180131 -0.075946115 -0.012612455 0.11177119
-0.032500897 -0.053421814 0.060046434 0.05042278 0.22370209 0.066263445 0.3912027 -0.090085745
0.12225094 -0.14039896 -0.17026398 0.07411407 0.05024966 -0.13323566 -0.1173741 0.007702612
0.26665643 0.15217757 -0.3007662 -0.06692039 0.0294456 -0.08602854 0.15860562 -0.12180601
-0.0025514318 0.022813264 0.021180155 -0.02472193 -0.068546176 -0.39819926 0.07002955 0.117456086
0.007993315 0.3310661 0.04323577 -0.17158507 0.05963019 -0.22234407 -0.14491041 0.27904847
-0.09520636 -0.24520741 0.06873159 -0.005367081 -0.2464639 -0.122562855 0.087234765 0.0050117425
-0.20501831 -0.1960318 0.030682795 0.07529484 -0.028066883 -0.2761965 0.27782553 -0.20142809
0.056628395 0.07861964 -0.07665627 -0.09727927 -0.020136941 -0.21556896 -0.03381047 0.20704007
-0.15756375 -0.25668305 0.03359083 -0.33348212 0.15695173 0.14210717 0.06270804 0.13708307
-0.042224 0.20157918 0.15348658 -0.13683607 0.012065107 -0.15411182 -0.4861379 -0.34023586
0.2411047 0.20368055 -0.34617501 0.3053315 -0.299784 -0.18571383 -0.14311323 -0.16824296
0.35889012 0.069060765 0.044334866 0.2474083 -0.09175326 0.17249776 -0.20342654 0.19241767
0.106388845 0.08052423 0.17536254 0.16063373 0.07036526 0.106587015 -0.071641214 -0.013955032
-0.0508836 -0.013370687 -0.078363314 0.325757 0.24430716 -0.03472732 -0.21420345 -0.128543
-0.22779511 0.24607465 0.03569228 -0.112966575 -0.17406346 -0.3225325 -0.050511464 -0.19696248
0.029655939 -0.19757058 -0.06741939 0.03311648 0.06764315 -0.15844296 0.20847484 0.12627994
0.053910982 0.10750084 0.14002939 0.17415304 -0.09988552 -0.12394393 -0.09765784 0.052458916
-0.25716677 -0.057180487 -0.3449385 0.11416207 0.12117847 0.22008844 -0.17918791 0.17620143
00000000: 7ab5 43be 91ac 1f3e 115e de3d 1a61 fdbd
00000010: 5053 96bd adfb acbe 2fdc 313e e46f fd3e
00000020: 0d8d a63d 9975 39bc 94f2 e03d 7609 933e
00000030: 9249 343d c1da 19bc 4473 9abd 2c2a 4c3e
00000040: 2f78 2abd 3733 9b3e f638 483e 0cbb 873d
00000050: 5b62 6abd 52cd 163d bdc3 453e f5ae b4be
00000060: 34b2 fcbd 2b0b 2ebe 20d4 1abe be44 c1bc
00000070: 9730 26be 5fe7 893e c3d9 343e 61dd 783e
00000080: 922d 8fbd 0041 cbbd a6ec 9e3d 3e26 0a3e
00000090: 2f07 2f3e 4180 ff3d 0f8f 3e3d ba5a 41be
000000a0: 901f d93d 00b1 c6be 26b0 063d 170a 3d3e
000000b0: 6738 6fbe 6ca4 10bc 8b68 e7bb 7ddc 0ebc
000000c0: c568 fb3c addb 0fbd 280b 0f3e 70de 3b3e
000000d0: f73b dd3d d017 3dbe 8966 86bd 60cd b53d
000000e0: 5b4c 96be 057a 35bd d6f0 9dbc 9158 843c
000000f0: 3df8 36be 53c4 cebe f1f0 f43d fa3c 20be
00000100: 2c5a 0bbd 0f5d 2cbe 1cdd 5abd 6050 3e3d
00000110: 5406 7bbe 0968 6ebe afb4 f63e 0254 d1bd
00000120: 7e05 ad3d 2f34 06bd 9fcc 423e 9b6a 04be
00000130: 991c 413e 8087 b7b9 e182 4abe e181 143d
00000140: c191 9abd ac19 51be f2e8 59be bcd7 543d
00000150: 7576 89be 468e 9abd 30c3 aabc 4700 a2bd
00000160: ef5e 8e3e 4afe 3e3e d979 61be 9f05 0cbe
00000170: 962b 9d3e c222 2b3c aa81 323e 6754 96bd
00000180: 89a6 9bbd ccc3 b7bd 7873 b3be c5c7 743e
00000190: 5c0e c2be a9a8 883c 3885 4f3e e9f9 48bd
000001a0: f53c e7bd d49b 88bd 0a7a e63e 508d 15be
000001b0: 16f8 e4bd a389 9bbd 78a4 4ebc 4be8 e43d
000001c0: a91f 05bd d5d0 5abd 40f3 753d 1e88 4e3d
000001d0: 2912 653e 21b5 873d b84b c83e e07e b8bd
000001e0: b35e fa3d bfc4 0fbe ae59 2ebe 1ec9 973d
000001f0: 96d2 4d3d ee6e 08be d561 f0bd 3166 fc3b
00000200: 3187 883e 70d4 1b3e 07fe 99be 8f0d 89bd
00000210: e637 f13c bb2f b0bd 8369 223e 6e75 f9bd
00000220: ec35 27bb e2e2 ba3c 0182 ad3c a585 cabc
00000230: f061 8cbd c6e0 cbbe a76b 8f3d d18c f03d
00000240: 65f6 023c 7f81 a93e fe17 313d ffb3 2fbe
00000250: c93e 743d 2aae 63be 6563 14be 71df 8e3e
00000260: 8dfb c2bd a717 7bbe 26c3 8c3d 57de afbb
00000270: 0861 7cbe 3c02 fbbd 24a8 b23d 8b39 a43b
00000280: 52f0 51be 8fbc 48be 7c5a fb3c 2e34 9a3d
00000290: 85ec e5bc a169 8dbe 263f 8e3e 2a43 4ebe
000002a0: 2df3 673d 5503 a13d f6fd 9cbd 5b3a c7bd
000002b0: 3af6 a4bc 1cbe 5cbe d97c 0abd 5002 543e
000002c0: 6458 21be f66b 83be 8a96 093d 2bbe aabe
000002d0: f4b7 203e 8b84 113e 136d 803d 815f 0c3e
000002e0: 13f3 2cbd c66a 4e3e 962b 1d3e c11e 0cbe
000002f0: baac 453c 7dcf 1dbe 11e7 f8be 6533 aebe
00000300: 27e4 763e a291 503e da3d b1be 6954 9c3e
00000310: 4a7d 99be c42b 3ebe 468c 12be e247 2cbe
00000320: 72c0 b73e bb6f 8d3d 7a98 353d 9a58 7d3e
00000330: 22e9 bbbd 41a3 303e 0c4f 50be 2309 453e
00000340: 65e2 d93d e3e9 a43d 3d92 333e 2b7d 243e
00000350: a91b 903d 4b4a da3d a1b8 92bd a6a3 64bc
00000360: 526b 50bd ba10 5bbc f27c a0bd 9fc9 a63e
00000370: a82b 7a3e 3c3e 0ebd 2658 5bbe c7a0 03be
00000380: 1f43 69be fefa 7b3e 1132 123d 055b e7bd
00000390: b13d 32be fb22 a5be 1ce5 4ebd 88b0 49be
000003a0: 03f1 f23c f14f 4abe 2d13 8abd 25a5 073d
000003b0: 7e88 8a3d df3e 22be 6e7a 553e 874f 013e
000003c0: c3d1 5c3d 6729 dc3d dd63 0f3e 2d55 323e
000003d0: c890 ccbd 51d6 fdbd d500 c8bd 29df 563d
000003e0: 5dab 83be 1636 6abd c79b b0be cecd e93d
000003f0: 6b2c f83d dd5e 613e 097d 37be 266e 343e

mlp.mlp.fc_h.0.bias f4 [64]
0.0 0.0 0.0 0.0 0.0 0.0 0.0 0.0
0.0 0.0 0.0 0.0 0.0 0.0 0.0 0.0
0.0 0.0 0.0 0.0 0.0 0.0 0.0 0.0
0.0 0.0 0.0 0.0 0.0 0.0 0.0 0.0
0.0 0.0 0.0 0.0 0.0 0.0 0.0 0.0
0.0 0.0 0.0 0.0 0.0 0.0 0.0 0.0
0.0 0.0 0.0 0.0 0.0 0.0 0.0 0.0
0.0 0.0 0.0 0.0 0.0 0.0 0.0 0.0
00000000: 0000 0000 0000 0000 0000 0000 0000 0000
00000010: 0000 0000 0000 0000 0000 0000 0000 0000
00000020: 0000 0000 0000 0000 0000 0000 0000 0000
00000030: 0000 0000 0000 0000 0000 0000 0000 0000
00000040: 0000 0000 0000 0000 0000 0000 0000 0000
00000050: 0000 0000 0000 0000 0000 0000 0000 0000
00000060: 0000 0000 0000 0000 0000 0000 0000 0000
00000070: 0000 0000 0000 0000 0000 0000 0000 0000
00000080: 0000 0000 0000 0000 0000 0000 0000 0000
00000090: 0000 0000 0000 0000 0000 0000 0000 0000
000000a0: 0000 0000 0000 0000 0000 0000 0000 0000
000000b0: 0000 0000 0000 0000 0000 0000 0000 0000
000000c0: 0000 0000 0000 0000 0000 0000 0000 0000
000000d0: 0000 0000 0000 0000 0000 0000 0000 0000
000000e0: 0000 0000 0000 0000 0000 0000 0000 0000
000000f0: 0000 0000 0000 0000 0000 0000 0000 0000

mlp.mlp.fc_h.2.weight f4 [64]
1.0 1.0 1.0 1.0 1.0 1.0 1.0 1.0
1.0 1.0 1.0 1.0 1.0 1.0 1.0 1.0
1.0 1.0 1.0 1.0 1.0 1.0 1.0 1.0
1.0 1.0 1.0 1.0 1.0 1.0 1.0 1.0
1.0 1.0 1.0 1.0 1.0 1.0 1.0 1.0
1.0 1.0 1.0 1.0 1.0 1.0 1.0 1.0
1.0 1.0 1.0 1.0 1.0 1.0 1.0 1.0
1.0 1.0 1.0 1.0 1.0 1.0 1.0 1.0
00000000: 0000 803f 0000 803f 0000 803f 0000 803f
00000010: 0000 803f 0000 803f 0000 803f 0000 803f
00000020: 0000 803f 0000 803f 0000 803f 0000 803f
00000030: 0000 803f 0000 803f 0000 803f 0000 803f
00000040: 0000 803f 0000 803f 0000 803f 0000 803f
00000050: 0000 803f 0000 803f 0000 803f 0000 803f
00000060: 0000 803f 0000 803f 0000 803f 0000 803f
00000070: 0000 803f 0000 803f 0000 803f 0000 803f
00000080: 0000 803f 0000 803f 0000 803f 0000 803f
00000090: 0000 803f 0000 803f 0000 803f 0000 803f
000000a0: 0000 803f 0000 803f 0000 803f 0000 803f
000000b0: 0000 803f 0000 803f 0000 803f 0000 803f
000000c0: 0000 803f 0000 803f 0000 803f 0000 803f
000000d0: 0000 803f 0000 803f 0000 803f 0000 803f
000000e0: 0000 803f 0000 803f 0000 803f 0000 803f
000000f0: 0000 803f 0000 803f 0000 803f 0000 803f

mlp.mlp.fc_h.2.bias f4 [64]
0.0 0.0 0.0 0.0 0.0 0.0 0.0 0.0
0.0 0.0 0.0 0.0 0.0 0.0 0.0 0.0
0.0 0.0 0.0 0.0 0.0 0.0 0.0 0.0
0.0 0.0 0.0 0.0 0.0 0.0 0.0 0.0
0.0 0.0 0.0 0.0 0.0 0.0 0.0 0.0
0.0 0.0 0.0 0.0 0.0 0.0 0.0 0.0
0.0 0.0 0.0 0.0 0.0 0.0 0.0 0.0
0.0 0.0 0.0 0.0 0.0 0.0 0.0 0.0
00000000: 0000 0000 0000 0000 0000 0000 0000 0000
00000010: 0000 0000 0000 0000 0000 0000 0000 0000
00000020: 0000 0000 0000 0000 0000 0000 0000 0000
00000030: 0000 0000 0000 0000 0000 0000 0000 0000
00000040: 0000 0000 0000 0000 0000 0000 0000 0000
00000050: 0000 0000 0000 0000 0000 0000 0000 0000
00000060: 0000 0000 0000 0000 0000 0000 0000 0000
00000070: 0000 0000 0000 0000 0000 0000 0000 0000
00000080: 0000 0000 0000 0000 0000 0000 0000 0000
00000090: 0000 0000 0000 0000 0000 0000 0000 0000
000000a0: 0000 0000 0000 0000 0000 0000 0000 0000
000000b0: 0000 0000 0000 0000 0000 0000 0000 0000
000000c0: 0000 0000 0000 0000 0000 0000 0000 0000
000000d0: 0000 0000 0000 0000 0000 0000 0000 0000
000000e0: 0000 0000 0000 0000 0000 0000 0000 0000
000000f0: 0000 0000 0000 0000 0000 0000 0000 0000

mlp.mlp.fc2.0.0.weight f4 [64, 64]
-0.19096117 0.15600246 0.1087822 -0.12355658 -0.07357111 -0.3378795 0.17338096 0.49490762
0.08149559 -0.011440467 0.11006583 0.2869726 0.044142026 -0.009248921 -0.07526451 0.19938599
-0.04140417 0.30306488 0.19573836 0.066263996 -0.057452135 0.03664024 0.19311047 -0.3529423
-0.12319556 -0.16975304 -0.15137474 -0.023556218 -0.16207412 0.26909688 0.17676595 0.2428873
-0.069779724 -0.09940475 0.07747665 0.1351447 0.17113777 0.12489609 0.04629858 -0.18879169
0.10606843 -0.38784072 0.03302747 0.18439221 -0.2334714 -0.009042691 -0.007020889 -0.008782189
0.03090761 -0.03490916 0.13979845 0.1832315 0.10792827 -0.18455301 -0.06542098 0.08852749
-0.29338872 -0.044160824 -0.019489372 0.015905434 -0.17877647 -0.403581 0.11966218 -0.15632178
-0.03400391 -0.16813256 -0.05332086 0.046533294 -0.24519955 -0.23299913 0.48155463 -0.101996064
0.08462557 -0.032987177 0.19048983 -0.12918268 0.18860197 -0.00021956973 -0.19753599 0.036129087
-0.07525536 -0.20419244 -0.21278656 0.051967096 -0.26837793 -0.0752657 -0.020922434 -0.07898089
0.27792332 0.18656886 -0.22008558 -0.1368506 0.3072212 0.010295426 0.17427443 -0.07360701
-0.07607284 -0.08988887 -0.35033658 0.23929258 -0.37900963 0.01674426 0.20238018 -0.04925229
-0.11296954 -0.06650584 0.45008928 -0.1462462 -0.11182923 -0.07602078 -0.012881099 0.11199528
-0.032244723 -0.053194694 0.060025137 0.05017031 0.22389743 0.06650836 0.39127985 -0.090127915
0.12248365 -0.14025487 -0.17011054 0.073871024 0.04996401 -0.13315405 -0.11747474 0.007525182
0.26665807 0.15202317 -0.3006813 -0.06700781 0.029691184 -0.08589129 0.15885781 -0.12204202
-0.0023570939 0.022830963 0.020903528 -0.02481293 -0.06842885 -0.39809048 0.06978148 0.117555976
0.007941197 0.3312646 0.04313228 -0.17165904 0.05960512 -0.22245985 -0.14474036 0.27905017
-0.09516539 -0.24537973 0.06866175 -0.0053311116 -0.24649777 -0.12270935 0.08725427 0.0052498933
-0.20485814 -0.19574735 0.030401465 0.07530765 -0.028045053 -0.2760088 0.27769595 -0.20132628
0.056561235 0.07852301 -0.07642704 -0.09721504 -0.019984592 -0.2156099 -0.033871554 0.20674668
-0.15768878 -0.25655562 0.03383123 -0.33330432 0.15670079 0.1419564 0.06266372 0.13720371
-0.042462874 0.20182519 0.15343183 -0.13673365 0.012227053 -0.15425764 -0.48594162 -0.34018472
0.24085867 0.20358564 -0.34630957 0.30532685 -0.29973754 -0.18562813 -0.14290778 -0.16848491
0.35888553 0.06923466 0.044146568 0.24741352 -0.09188915 0.17228621 -0.20346425 0.19230378
0.10631202 0.08039824 0.17528117 0.16091226 0.07035978 0.10655668 -0.07160937 -0.014077654
-0.050972734 -0.013271417 -0.078466706 0.32578143 0.244167 -0.034855455 -0.21434075 -0.12834573
-0.22780463 0.246202 0.035781395 -0.11316549 -0.17399567 -0.32261527 -0.050222553 -0.19708636
0.029657101 -0.19785303 -0.067431465 0.03305918 0.0675721 -0.15853113 0.20868997 0.12622955
0.053756263 0.10729086 0.13992609 0.1743622 -0.10013266 -0.12419365 -0.097511 0.05243594
-0.2572421 -0.05737962 -0.3449333 0.11438804 0.12132237 0.22037792 -0.17912136 0.17639552
00000000: 538b 43be 1cbf 1f3e 34c9 de3d 3b0b fdbd
00000010: 73ac 96bd 8bfe acbe c78a 313e 8864 fd3e
00000020: 29e7 a63d cc70 3bbc 326a e13d 13ee 923e
00000030: 45ce 343d c988 17bc 4824 9abd d72b 4c3e
00000040: 6b97 29bd 522b 9b3e a36f 483e 6bb5 873d
00000050: ee52 6bbd 1414 163d c0be 453e dab4 b4be
00000060: f44d fcbd bed3 2dbe fb01 1bbe f8f8 c0bc
00000070: c2f6 25be 11c7 893e 2202 353e 73b7 783e
00000080: ace8 8ebd b894 cbbd 14ac 9e3d 5f63 0a3e
00000090: bd3e 2f3e 85c9 ff3d 94a3 3d3d 9c52 41be
000000a0: 683a d93d 0f93 c6be d047 073d 50d1 3c3e
000000b0: 2013 6fbe cc27 14bc 7c0f e6bb 2ce3 0fbc
000000c0: f531 fd3c e8fc 0ebd 5327 0f3e 0aa1 3b3e
000000d0: 7f09 dd3d 77fb 3cbe 6ffb 85bd e74d b53d
000000e0: 0c37 96be fbe1 34bd 2da8 9fbc 1d4c 823c
000000f0: 2e11 37be 2ba2 cebe 7211 f53d d112 20be
00000100: af47 0bbd f12a 2cbe f966 5abd b299 3e3d
00000110: 9715 7bbe 5397 6ebe 548e f63e 50e3 d0bd
00000120: 2c50 ad3d 901d 07bd c40f 433e 7748 04be
00000130: e020 413e 4d3c 66b9 e046 4abe 18fc 133d
00000140: 7b1f 9abd d317 51be b8e4 59be 73db 543d
00000150: d568 89be e724 9abd 8665 abbc bcc0 a1bd
00000160: f74b 8e3e e80b 3f3e 1d5e 61be 9022 0cbe
00000170: 194c 9d3e 25ae 283c ff74 323e 46bf 96bd
00000180: 14cc 9bbd a817 b8bd 515f b3be 1d09 753e
00000190: 8d0d c2be 422b 893c c03c 4f3e c5bc 49bd
000001a0: 935c e7bd 3734 88bd 1a72 e63e 90c1 15be
000001b0: b906 e5bd c8b0 9bbd 3f0b 53bc c85d e53d
000001c0: 0b13 04bd aee2 59bd ebdc 753d 627f 4d3d
000001d0: 5e45 653e 8935 883d d555 c83e fc94 b8bd
000001e0: b5d8 fa3d f99e 0fbe 7531 2ebe b149 973d
000001f0: 10a7 4c3d 8959 08be 9996 f0bd cd95 f63b
00000200: 6887 883e f6ab 1b3e e6f2 99be 643b 89bd
00000210: ed3a f33c c6e7 afbd 9fab 223e 2bf1 f9bd
00000220: 7979 1abb 0008 bb3c e03d ab3c 7c44 cbbc
00000230: 6d24 8cbd 84d2 cbbe 98e9 8e3d 30c1 f03d
00000240: cb1b 023c 839b a93e 79ab 303d 63c7 2fbe
00000250: 8024 743d 84cc 63be d136 14be aadf 8e3e
00000260: 12e6 c2bd d344 7bbe 889e 8c3d 9bb0 aebb
00000270: e969 7cbe 0a4f fbbd 5eb2 b23d 4c07 ac3b
00000280: 55c6 51be fe71 48be 7e0c f93c e63a 9a3d
00000290: bdbe e5bc 0751 8dbe 2a2e 8e3e 7a28 4ebe
000002a0: c1ac 673d acd0 a03d c885 9cbd ae18 c7bd
000002b0: bab6 a3bc d7c8 5cbe e6bc 0abd 67b5 533e
000002c0: 2b79 21be 425b 83be 9e92 0a3d dda6 aabe
000002d0: 2c76 203e 055d 113e d655 803d 217f 0c3e
000002e0: 8ded 2dbd 43ab 4e3e 3c1d 1d3e e803 0cbe
000002f0: fa53 483c b7f5 1dbe 57cd f8be b12c aebe
00000300: a8a3 763e c178 503e 7d4f b1be cd53 9c3e
00000310: 3377 99be 4d15 3ebe 6b56 12be 4f87 2cbe
00000320: d8bf b73e e7ca 8d3d 08d3 343d f859 7d3e
00000330: 6130 bcbd cc6b 303e ef58 50be 48eb 443e
00000340: 1eba d93d d5a7 a43d e87c 333e 2fc6 243e
00000350: ca18 903d 633a da3d efa7 92bd f6a5 66bc
00000360: c9c8 50bd 5b70 59bc 27b3 a0bd d3cc a63e
00000370: ea06 7a3e 98c4 0ebd 247c 5bbe 106d 03be
00000380: 9e45 69be 611c 7c3e 838f 123d 4fc3 e7bd
00000390: ec2b 32be d42d a5be 2ab6 4dbd 02d1 49be
000003a0: 73f3 f23c fc99 4abe 8219 8abd 1069 073d
000003b0: 3e63 8a3d fc55 22be d3b2 553e 5242 013e
000003c0: 872f 5c3d 4fbb db3d c948 0f3e 018c 323e
000003d0: 5a12 cdbd 3e59 febd d9b3 c7bd 11c7 563d
000003e0: 3db5 83be e406 6bbd 199b b0be 4744 ea3d
000003f0: dd77 f83d c0aa 613e 976b 37be 07a1 343e

mlp.mlp.fc2.0.0.bias f4 [64]
-0.0002745216 -0.00026280718 -8.844011e-05 0.00029964405 -0.00014387813 -0.00018522998 0.00031630107 2.0591597e-05
-0.0002328833 0.0002414171 -0.00024446842 -3.394995e-05 -0.00021249385 -7.82885e-06 -0.00023417498 -0.00031380932
-5.9851696e-05 -6.434615e-05 0.00028258108 0.00025097097 0.00022277674 -0.00018426252 5.5960947e-05 0.00014860474
-0.00010925496 -0.00012838203 5.4624084e-05 0.00019834127 -0.0001718452 -2.5849664e-05 0.00032425573 0.0002107503
-0.00018136506 0.00021686293 2.591972e-05 -0.00013142153 -0.00011241142 -1.5120327e-05 6.939736e-05 0.00023046462
-0.00028032647 -0.00024512634 0.00033816922 -0.0002461403 0.00024237437 -0.00025216507 0.00026272977 0.0002536544
-3.5219924e-05 -4.8474103e-05 0.0002459482 0.00022185405 -2.0404934e-05 0.00020620239 -0.00012176747 0.00020890076
0.00019606283 -7.5850665e-05 -0.00031508235 -0.00027185824 -0.00016081307 -9.266828e-05 -7.330609e-05 -0.00022817543
00000000: aaed 8fb9 62c9 89b9 ec78 b9b8 8b19 9d39
00000010: fedd 16b9 4b3a 42b9 36d5 a539 1ebc ac37
00000020: 2332 74b9 e924 7d39 ff2b 80b9 7b65 0eb8
00000030: e2d0 5eb9 a858 03b7 de8c 75b9 c686 a4b9
00000040: 4509 7bb8 94f1 86b8 6427 9439 c194 8339
00000050: 2d99 6939 9836 41b9 9cb7 6a38 c8d2 1b39
00000060: cf1f e5b8 4a9e 06b9 2a1c 6538 d4f9 4f39
00000070: 5831 34b9 bbd7 d8b7 de00 aa39 dafc 5c39
00000080: d02c 3eb9 b365 6339 2d6e d937 33ce 09b9
00000090: 6cbe ebb8 4fad 7db7 6d89 9138 e0a8 7139
000000a0: c8f8 92b9 4d84 80b9 4e4c b139 640c 81b9
000000b0: e025 7e39 0635 84b9 febe 8939 ebfc 8439
000000c0: 1bb9 13b8 ac50 4bb8 9cf2 8039 7ea1 6839
000000d0: 432b abb7 0838 5839 6a5d ffb8 5f0c 5b39
000000e0: 3796 4d39 0412 9fb8 a331 a5b9 3288 8eb9
000000f0: ee9f 28b9 e756 c2b8 e8bb 99b8 6042 6fb9

mlp.mlp.fc2.0.2.weight f4 [64]
0.9997344 1.0001737 0.9999237 0.999812 1.0002196 0.99982363 0.99983543 1.0000564
1.0002446 0.999805 0.99983406 0.99980277 0.999914 1.0001588 0.9998249 0.9998552
0.9998361 0.9997936 1.0002427 0.9999458 0.999687 1.0001541 0.99983245 0.99981123
1.0001454 0.9998298 1.0001763 1.0001674 0.9998821 1.000197 0.9999733 1.0000609
1.0000514 1.0001876 1.0000638 0.99978924 1.0000311 0.9999768 1.0001705 0.99983263
0.9998997 0.9998665 1.0002705 0.99983925 1.0002898 1.000184 0.99999505 1.0002604
0.99993503 0.9998327 1.0002944 0.9999608 1.0000192 0.9999311 1.0000905 0.99981654
0.99977565 1.0000142 1.000215 1.0002072 0.99988127 0.99985415 1.0000857 0.9999747
00000000: 98ee 7f3f b105 803f 00fb 7f3f aef3 7f3f
00000010: 3207 803f 71f4 7f3f 37f5 7f3f d901 803f
00000020: 0408 803f 38f3 7f3f 20f5 7f3f 13f3 7f3f
00000030: 5dfa 7f3f 3405 803f 86f4 7f3f 83f6 7f3f
00000040: 42f5 7f3f 79f2 7f3f f407 803f 73fc 7f3f
00000050: 7deb 7f3f 0d05 803f 05f5 7f3f a1f3 7f3f
00000060: c404 803f d9f4 7f3f c705 803f 7c05 803f
00000070: 46f8 7f3f 7506 803f 40fe 7f3f ff01 803f
00000080: af01 803f 2606 803f 1702 803f 30f2 7f3f
00000090: 0501 803f 7bfe 7f3f 9605 803f 08f5 7f3f
000000a0: 6df9 7f3f 40f7 7f3f dd08 803f 77f5 7f3f
000000b0: 7f09 803f 0806 803f adff 7f3f 8808 803f
000000c0: befb 7f3f 09f5 7f3f a609 803f 6efd 7f3f
000000d0: a100 803f 7cfb 7f3f f702 803f faf3 7f3f
000000e0: 4cf1 7f3f 7700 803f 0c07 803f ca06 803f
000000f0: 38f8 7f3f 71f6 7f3f cf02 803f 58fe 7f3f

mlp.mlp.fc2.0.2.bias f4 [64]
-0.00026577283 -0.00029100102 -0.00024699856 0.0003236319 -0.00028604618 -9.37313e-05 0.0003336263 -0.000118853306
-0.0003106724 0.00030093992 -0.0001501548 0.00016161728 -0.000259608 -0.00016153343 -0.00018126651 -0.00033774012
1.00771795e-05 0.00015396696 0.00030875797 0.00030475727 0.000340574 -0.00022553334 0.00019998198 0.0002939512
-0.00012938323 6.004722e-05 -6.011399e-05 0.00021622903 -0.00013624228 -0.00015901633 0.00034424558 0.000194454
-0.00016180819 0.00025898562 -0.000117619005 -6.5826076e-05 -7.900012e-05 0.00012339334 -0.0001653939 0.00028573506
-0.000300822 -0.00022054063 0.000360689 -0.00018521599 0.00024370139 -0.00031676638 0.00029505623 0.00025867356
1.582148e-05 0.00021395969 0.00011376328 0.00025945145 -8.1131075e-05 0.00029442107 -0.000118249576 0.00029174724
0.0003072445 7.945903e-05 -0.00034721423 -0.00033462272 -7.638729e-05 6.0492857e-06 -0.00017980192 -0.0002580174
00000000: 6d57 8bb9 7f91 98b9 967f 81b9 23ad a939
00000010: 78f8 95b9 9c91 c4b8 90ea ae39 e240 f9b8
00000020: bee1 a2b9 79c7 9d39 df72 1db9 cf77 2939
00000030: ff1b 88b9 4d61 29b9 5c12 3eb9 b612 b1b9
00000040: 2811 2937 3172 2139 cbe0 a139 d4c7 9f39
00000050: 128f b239 257d 6cb9 41b2 5139 761d 9a39
00000060: 0cab 07b9 36db 7b38 e822 7cb8 8abb 6239
00000070: 42dc 0eb9 9fbd 26b9 dc7b b439 59e6 4b39
00000080: 0eab 29b9 76c8 8739 39aa f6b8 1b0c 8ab8
00000090: deac a5b8 2663 0139 966d 2db9 b6ce 9539
000000a0: a5b7 9db9 ed40 67b9 dc1a bd39 8a36 42b9
000000b0: 188a 7f39 aa13 a6b9 c7b1 9a39 949e 8739
000000c0: 5fb8 8437 5e5a 6039 3294 ee38 fc06 8839
000000d0: ea24 aab8 875c 9a39 c2fc f7b8 a7f5 9839
000000e0: a915 a139 3ea3 a638 4e0a b6b9 4d70 afb9
000000f0: 1d32 a0b8 f8fa ca36 3689 3cb9 8246 87b9

mlp.mlp.fc2.1.0.weight f4 [64, 64]
-0.19100568 0.15600796 0.108559884 -0.12379066 -0.07324692 -0.33796185 0.17369002 0.49476552
0.08151808 -0.011385053 0.10991747 0.28730038 0.043923866 -0.009320653 -0.075389504 0.199251
-0.04155203 0.30319786 0.19535618 0.06610947 -0.057204492 0.036846362 0.19298367 -0.35275742
-0.123325065 -0.1698573 -0.1511401 -0.023570152 -0.16230345 0.26945072 0.17657566 0.24317451
-0.06994744 -0.09924174 0.077674374 0.13494618 0.17085114 0.12459109 0.04665683 -0.18873595
0.10605957 -0.38808277 0.032913227 0.18441813 -0.23375788 -0.00895007 -0.0072426465 -0.008848504
0.030780934 -0.034970693 0.13981074 0.18335009 0.10813391 -0.18488248 -0.06551196 0.08892818
-0.29346767 -0.044453096 -0.019154152 0.016252384 -0.17855394 -0.40368542 0.11949815 -0.15641363
-0.03381558 -0.16851056 -0.053573437 0.04656336 -0.24540259 -0.2327509 0.48179406 -0.10229681
0.0842789 -0.03297971 0.19044812 -0.12946883 0.18858248 -0.00051558326 -0.19770996 0.036141343
-0.07550441 -0.2043047 -0.21256773 0.051798962 -0.2687384 -0.07540564 -0.021066027 -0.07928968
0.2783231 0.18667306 -0.22019245 -0.13681841 0.30687934 0.010209605 0.17431965 -0.073542416
-0.075821504 -0.08956527 -0.35070837 0.2392569 -0.37912354 0.016664881 0.20274606 -0.049092226
-0.112718716 -0.06678208 0.45041627 -0.14624561 -0.11178674 -0.076153696 -0.012402197 0.11203589
-0.03232686 -0.053570233 0.059848834 0.050584782 0.22366488 0.066182114 0.39143708 -0.09037337
0.122177236 -0.1403666 -0.17033818 0.07407862 0.050489582 -0.13346569 -0.11748509 0.0076331836
0.26648152 0.15217756 -0.30062237 -0.06704935 0.029493859 -0.08588286 0.15866742 -0.121619634
-0.0024721127 0.022674277 0.021009238 -0.024668435 -0.06869311 -0.3984229 0.0703126 0.11758814
0.007940196 0.33099982 0.043362904 -0.17138365 0.05969795 -0.22232509 -0.14475812 0.27891818
-0.09529228 -0.2451462 0.06855288 -0.0054333876 -0.24651638 -0.1225345 0.08714295 0.0050292
-0.20484567 -0.19613962 0.03063409 0.07507543 -0.027832355 -0.27612382 0.2777396 -0.20160562
0.056647856 0.0786293 -0.07662872 -0.09720828 -0.020051876 -0.21566162 -0.03389084 0.20700482
-0.1577518 -0.2568908 0.033750433 -0.33356917 0.15702726 0.14230405 0.06252076 0.137334
-0.042149253 0.20154767 0.15364249 -0.13695231 0.011848527 -0.15414512 -0.4862687 -0.34040344
0.24101803 0.20367593 -0.34608567 0.3053215 -0.29992786 -0.18559895 -0.14319661 -0.16827855
0.35879612 0.068892516 0.044281498 0.24748929 -0.0919009 0.17231612 -0.20332186 0.19251208
0.106306076 0.08030249 0.17562395 0.16078605 0.0703695 0.10659085 -0.071448416 -0.014056902
-0.050746217 -0.013194123 -0.078491904 0.3258959 0.24419516 -0.03481528 -0.21424975 -0.12865116
-0.22774506 0.24621224 0.035568405 -0.113019824 -0.17419545 -0.32247204 -0.050459463 -0.19707832
0.02974431 -0.19754672 -0.067289986 0.03311066 0.06770244 -0.15852551 0.20849447 0.1264772
0.05385736 0.107351996 0.14016366 0.1742895 -0.0999396 -0.123918444 -0.097538404 0.052488714
-0.25729036 -0.057234656 -0.34489867 0.114055276 0.12122928 0.21995917 -0.17928721 0.1760823
00000000: fe96 43be 8dc0 1f3e a554 de3d f585 fdbd
00000010: 7b02 96bd 5609 adbe ccdb 313e e851 fd3e
00000020: f3f2 a63d 6088 3abc 691c e13d 0919 933e
00000030: 83e9 333d a7b5 18bc d065 9abd 7408 4c3e
00000040: 7632 2abd c03c 9b3e 730b 483e 6764 873d
00000050: 424f 6abd 36ec 163d 839d 453e 9f9c b4be
00000060: da91 fcbd 12ef 2dbe 78c4 1abe 3116 c1bc
00000070: e032 26be 72f5 893e 40d0 343e bd02 793e
00000080: 9a40 8fbd 413f cbbd be13 9f3d 552f 0a3e
00000090: 9af3 2e3e 9d29 ff3d 3b1b 3f3d ff43 41be
000000a0: c335 d93d c9b2 c6be 05d0 063d 1bd8 3c3e
000000b0: 3a5e 6fbe 50a3 12bc b953 edbb 51f9 10bc
000000c0: 4c28 fc3c 6e3d 0fbd 8c2a 0f3e 20c0 3b3e
000000d0: 5075 dd3d d551 3dbe 222b 86bd fa1f b63d
000000e0: 6541 96be 7314 36bd 2be9 9cbc b823 853c
000000f0: d8d6 36be dbaf cebe 72bb f43d e52a 20be
00000100: 3582 0abd 088e 2cbe d26f 5bbd 39b9 3e3d
00000110: d14a 7bbe 4056 6ebe b6ad f63e fd80 d1bd
00000120: 6a9a ac3d bb15 07bd d504 433e 7a93 04be
00000130: c41b 413e 3528 07ba 7b74 4abe f208 143d
00000140: 0ea2 9abd 4035 51be 5bab 59be 262b 543d
00000150: 1498 89be 466e 9abd a992 acbc a162 a2bd
00000160: 5e80 8e3e 3927 3f3e 217a 61be 201a 0cbe
00000170: 4a1f 9d3e 3046 273c da80 323e 689d 96bd
00000180: 4e48 9bbd ff6d b7bd 0c90 b3be c3ff 743e
00000190: 7b1c c2be ca84 883c aa9c 4f3e ee14 49bd
000001a0: 12d9 e6bd 0bc5 88bd f69c e63e 69c1 15be
000001b0: 72f0 e4bd 78f6 9bbd 9632 4bbc 1373 e53d
000001c0: 2b69 04bd 766c 5bbd 0d24 753d fd31 4f3d
000001d0: 6808 653e 7d8a 873d 716a c83e ac15 b9bd
000001e0: 0f38 fa3d 43bc 0fbe 226d 2ebe 88b6 973d
000001f0: 2ace 4e3d 3bab 08be 069c f0bd c91f fa3b
00000200: 4470 883e 6fd4 1b3e 2deb 99be 2b51 89bd
00000210: 1b9d f13c 5ae3 afbd b679 223e b713 f9bd
00000220: 2b03 22bb 68bf b93c 911b ac3c 7515 cabc
00000230: f9ae 8cbd 16fe cbbe 0d00 903d 0dd2 f03d
00000240: 9917 023c cf78 a93e 4d9d 313d 327f 2fbe
00000250: d685 743d 30a9 63be 793b 14be 5dce 8e3e
00000260: 9928 c3bd 9b07 7bbe 7465 8c3d 8f0a b2bb
00000270: ca6e 7cbe 5ef3 fabd 0178 b23d fdcb a43b
00000280: 10c3 51be d3d8 48be 58f4 fa3c 26c1 993d
00000290: ae00 e4bc 1a60 8dbe e333 8e3e b471 4ebe
000002a0: 9507 683d 6608 a13d 85ef 9cbd 2215 c7bd
000002b0: d543 a4bc 66d6 5cbe 1fd1 0abd 12f9 533e
000002c0: b089 21be 3187 83be e53d 0a3d 94c9 aabe
000002d0: c1cb 203e 27b8 113e e20a 803d 49a1 0c3e
000002e0: b2a4 2cbd 8362 4e3e 7554 1d3e 3a3d 0cbe
000002f0: 5320 423c 38d8 1dbe 36f8 f8be 5c49 aebe
00000300: 6ecd 763e 6c90 503e 2432 b1be 1a53 9c3e
00000310: 2590 99be a70d 3ebe 22a2 12be 3651 2cbe
00000320: 20b4 b73e 8517 8d3d 8460 353d d56d 7d3e
00000330: 8a36 bcbd a373 303e 9b33 50be e321 453e
00000340: 00b7 d93d a275 a43d c4d6 333e 19a5 243e
00000350: e21d 903d 4e4c da3d 8c53 92bd ec4e 66bc
00000360: 44db 4fbd 2a2c 58bc 5dc0 a0bd d4db a63e
00000370: 4c0e 7a3e 789a 0ebd 4964 5bbe 21bd 03be
00000380: 0036 69be 101f 7c3e 2db0 113d f076 e7bd
00000390: 4b60 32be 0e1b a5be 95ae 4ebd e6ce 49be
000003a0: 57aa f33c b049 4abe 55cf 89bd 0b9f 073d
000003b0: 94a7 8a3d 8354 22be 937f 553e 3d83 013e
000003c0: 8999 5c3d 5ddb db3d 1087 0f3e f278 323e
000003d0: 22ad ccbd f4c8 fdbd 37c2 c7bd 68fe 563d
000003e0: 90bb 83be e36e 6abd 8f96 b0be d095 e93d
000003f0: 0f47 f83d fa3c 613e 1197 37be eb4e 343e

mlp.mlp.fc2.1.0.bias f4 [64]
-0.00017786284 0.00031826107 0.00011544015 0.00016590716 -0.00026563412 0.0002535423 -0.00031781025 -7.714589e-05
-0.00026469133 -0.0001557235 0.00025440837 -0.00020869625 0.00026580086 -5.3540567e-05 -0.000111261674 -0.00011804845
0.00034626515 -0.0001134161 -7.881851e-05 -0.00016280793 6.114333e-05 0.00033225736 -0.00023086162 -0.00017430124
-7.347406e-05 0.00025184886 7.687714e-05 -0.00030348 -0.00023992814 -0.0002690307 5.8029713e-05 2.5323341e-05
-0.00024845486 -7.776993e-05 0.0002801838 0.00020618683 -0.00031467917 0.0001924255 -0.00023816506 -0.00022247704
-0.00028827885 0.0002373227 -7.929875e-06 -9.512695e-05 0.0002299892 0.00029812113 -0.00023641865 -0.0002488037
4.622231e-05 9.204457e-05 0.00027298304 0.00013019671 -9.1492344e-05 0.00024819706 -0.00023397167 -0.00023027754
-0.00027984232 0.00011518447 0.0002855104 0.00025670894 0.00021785905 -0.00029954273 -0.00027564817 0.00013377602
00000000: b180 3ab9 47dc a639 7518 f238 5df7 2d39
00000010: cf44 8bb9 dfed 8439 c59f a6b9 62c9 a1b8
00000020: 45c6 8ab9 b549 23b9 1d62 8539 79d5 5ab9
00000030: 305b 8b39 bf90 60b8 2855 e9b8 c790 f7b8
00000040: ec8a b539 ced9 edb8 5e4b a5b8 6cb7 2ab9
00000050: 133a 8038 d432 ae39 7213 72b9 a2c4 36b9
00000060: 1616 9ab8 950a 8439 1a39 a138 651c 9fb9
00000070: 3895 7bb9 b00c 8db9 ee64 7338 766d d437
00000080: 0c43 82b9 6a18 a3b8 a2e5 9239 db33 5839
00000090: 86fb a4b9 d4c5 4939 f2bb 79b9 ba48 69b9
000000a0: 2224 97b9 d4d9 7839 8e0a 05b7 e47e c7b8
000000b0: 4129 7139 244d 9c39 26e7 77b9 de71 82b9
000000c0: d4de 4138 0d08 c138 2a1f 8f39 6a85 0839
000000d0: 94df bfb8 7220 8239 4b56 75b9 a876 71b9
000000e0: cdb7 92b9 318f f138 8fb0 9539 e496 8639
000000f0: 1871 6439 f20b 9db9 df84 90b9 3a46 0c39

mlp.mlp.fc2.1.2.weight f4 [64]
0.99990344 1.0002203 1.0001628 0.9998978 0.9998788 0.99985504 0.99984246 1.0000663
1.0001662 1.0002192 1.0002124 0.99996316 1.0001025 1.0000652 0.9999378 1.0000455
1.0000966 1.0000329 1.0001781 0.99981666 1.0001092 1.0003048 1.0001442 0.9998169
1.0000983 0.99994695 1.0001798 0.99988675 1.0001179 1.0002364 0.9999645 1.0001901
1.0000211 0.999937 0.99980974 1.0000402 0.99986213 0.99995667 1.0000789 1.0001491
0.9998037 1.0001637 1.0001332 0.99990004 0.9999392 1.0000056 0.9999858 1.000124
0.99984723 0.99994487 1.0002258 0.99989396 0.99991304 0.9999799 1.0000902 1.0000712
0.9998124 0.9998315 1.0000356 0.99988025 0.9998941 0.9997772 1.0001702 0.9998621
00000000: acf9 7f3f 3807 803f 5605 803f 4df9 7f3f
00000010: 0ff8 7f3f 80f6 7f3f adf5 7f3f 2c02 803f
00000020: 7205 803f 2f07 803f f606 803f 96fd 7f3f
00000030: 5c03 803f 2302 803f ecfb 7f3f 7e01 803f
00000040: 2a03 803f 1401 803f d605 803f fcf3 7f3f
00000050: 9403 803f fd09 803f ba04 803f 00f4 7f3f
00000060: 3903 803f 86fc 7f3f e405 803f 94f8 7f3f
00000070: dd03 803f bf07 803f acfd 7f3f 3b06 803f
00000080: b100 803f dffb 7f3f 88f3 7f3f 5101 803f
00000090: f7f6 7f3f 29fd 7f3f 9602 803f e304 803f
000000a0: 23f3 7f3f 5d05 803f 5d04 803f 73f9 7f3f
000000b0: 04fc 7f3f 2f00 803f 12ff 7f3f 1004 803f
000000c0: fdf5 7f3f 63fc 7f3f 6607 803f 0df9 7f3f
000000d0: 4dfa 7f3f affe 7f3f f502 803f 5502 803f
000000e0: b5f3 7f3f f5f4 7f3f 2b01 803f 27f8 7f3f
000000f0: 0ff9 7f3f 66f1 7f3f 9405 803f f6f6 7f3f

mlp.mlp.fc2.1.2.bias f4 [64]
-0.00022864384 0.00035137896 0.0002191633 0.0002405884 -0.00030239203 0.0003028187 -0.00033925375 0.00011854399
-0.00031803182 -0.00027283732 0.0002882755 -0.00023316362 0.00031107586 -0.00010062272 -3.972748e-05 -0.00014102836
0.00037016044 -0.00018472725 -0.0002451504 -0.00012582904 -7.9029516e-05 0.00034479 -0.00025334826 -0.00020261195
-0.00012925413 0.0002939365 -0.00011880156 -0.0003391184 -0.00032226782 -0.00033266813 0.00013160078 0.00016269887
-0.000303233 -0.00016855134 0.00032313593 0.00027429344 -0.00033150188 0.00028358403 -0.00030078043 -0.00032129174
-0.00029697968 0.00023628934 7.938823e-06 2.2071617e-05 0.00030671555 0.00033131632 -0.00028781523 -0.00031501014
0.0001803753 0.00016272458 0.00029444508 0.00023289493 0.00012326722 0.00031125036 -0.000261679 -0.00025246915
-0.00027969532 0.00022888338 0.0003427855 0.00030569395 0.00025914222 -0.00029474442 -0.0003423845 0.00017680606
00000000: 1dc0 6fb9 4939 b839 33cf 6539 7546 7c39
00000010: 5f8a 9eb9 a3c3 9e39 dedd b1b9 d29a f838
00000020: 82bd a6b9 9b0b 8fb9 af23 9739 627d 74b9
00000030: e517 a339 6905 d3b8 0fa1 26b8 03e1 13b9
00000040: 1812 c239 58b3 41b9 8887 80b9 faf0 03b9
00000050: a6bc a5b8 eec4 b439 d4d3 84b9 3b74 54b9
00000060: 6488 07b9 7d1b 9a39 1a25 f9b8 b3cb b1b9
00000070: 0ef6 a8b9 f669 aeb9 51fe 0939 259a 2a39
00000080: 3ffb 9eb9 28bd 30b9 926a a939 0bcf 8f39
00000090: 6ecd adb9 01ae 9439 11b2 9db9 0c73 a8b9
000000a0: f0b3 9bb9 70c4 7739 fc30 0537 7026 b937
000000b0: aace a039 86b4 ad39 e8e5 96b9 f227 a5b9
000000c0: 2023 3d39 0ca1 2a39 c05f 9a39 4235 7439
000000d0: 4b41 0139 512f a339 f631 89b9 d65d 84b9
000000e0: 12a4 92b9 6a00 7039 e4b7 b339 8c45 a039
000000f0: 7bdd 8739 ed87 9ab9 1282 b3b9 0465 3939
