train/maddpg-v5/results/formation_hd_env/maddpg/hd_4/run11/models/policy_1/critic.pt (torch, 88239 bytes, 18 tensors)

mlp.feature_norm.weight f4 [116]
0.99964 0.99971277 0.99962723 0.9998616 1.000394 0.9996497 0.9997926 0.9999721
1.0003582 0.9996932 1.0003834 0.9999654 1.0002611 1.0000432 1.0002837 1.0003635
1.0000093 1.0002105 0.99961007 0.9997875 1.0003072 0.999853 1.000358 1.0003649
1.0000509 0.9998731 1.0003806 0.99985224 1.0000943 1.0001357 1.0003684 1.0001916
0.9996572 1.0001065 1.0002186 0.9996857 1.0000123 1.0002996 0.99991536 0.99972266
1.000396 1.0003544 0.9998823 0.99970204 0.9997344 0.9997739 0.9997229 1.0001017
1.0003409 1.0003531 0.99976975 0.99994296 0.9997342 0.9996227 1.0000242 1.0000191
1.0001945 0.9997185 1.0003558 0.99966335 0.9996664 0.99980414 1.0003015 1.0002767
0.9996412 1.0003971 1.0003773 1.0003282 1.0003728 0.9996468 1.0002488 1.0002841
0.9998503 1.0001854 0.99981195 1.000155 0.999604 1.0002345 0.99965304 1.0003331
1.0000439 0.9997207 0.9996454 1.0000278 1.0003312 1.0000064 0.9998226 1.0000808
1.0003471 0.99981743 0.99966294 0.9999243 1.0001533 0.99989325 0.999614 1.0001327
1.0002866 1.0000514 1.0002501 0.9998655 1.0001506 1.000112 1.000199 1.0002502
0.9996678 1.000355 1.0002844 1.0002774 1.000011 0.99990267 0.9999866 1.0001214
0.9999294 1.0002724 0.9999363 0.9998751
00000000: 68e8 7f3f 2ded 7f3f 92e7 7f3f eef6 7f3f
00000010: e90c 803f 0be9 7f3f 68f2 7f3f 2cfe 7f3f
00000020: bd0b 803f e5eb 7f3f 900c 803f bcfd 7f3f
00000030: 8e08 803f 6a01 803f 4c09 803f e90b 803f
00000040: 4e00 803f e606 803f 72e6 7f3f 13f2 7f3f
00000050: 110a 803f 5ef6 7f3f bb0b 803f f50b 803f
00000060: ab01 803f aff7 7f3f 790c 803f 51f6 7f3f
00000070: 1703 803f 7204 803f 120c 803f 4706 803f
00000080: 89e9 7f3f 7d03 803f 2a07 803f 67eb 7f3f
00000090: 6700 803f d109 803f 74fa 7f3f d3ed 7f3f
000000a0: fa0c 803f 9d0b 803f 49f8 7f3f 79ec 7f3f
000000b0: 98ee 7f3f 2ff1 7f3f d7ed 7f3f 5503 803f
000000c0: 2c0b 803f 920b 803f e9f0 7f3f 43fc 7f3f
000000d0: 95ee 7f3f 46e7 7f3f cb00 803f a000 803f
000000e0: 6006 803f 8ded 7f3f a90b 803f f0e9 7f3f
000000f0: 23ea 7f3f 2af3 7f3f e109 803f 1109 803f
00000100: 7ce8 7f3f 030d 803f 5d0c 803f c10a 803f
00000110: 370c 803f dae8 7f3f 2708 803f 4f09 803f
00000120: 30f6 7f3f 1306 803f adf3 7f3f 1405 803f
00000130: 0ce6 7f3f af07 803f 43e9 7f3f ea0a 803f
00000140: 7001 803f b2ed 7f3f c3e8 7f3f e900 803f
00000150: da0a 803f 3600 803f 60f4 7f3f a602 803f
00000160: 600b 803f 09f4 7f3f e9e9 7f3f 0afb 7f3f
00000170: 0605 803f 01f9 7f3f b4e6 7f3f 5904 803f
00000180: 6409 803f af01 803f 3208 803f 2ff7 7f3f
00000190: ef04 803f ac03 803f 8506 803f 3308 803f
000001a0: 3bea 7f3f a20b 803f 5209 803f 1709 803f
000001b0: 5c00 803f 9ff9 7f3f 1fff 7f3f fa03 803f
000001c0: 60fb 7f3f ed08 803f d3fb 7f3f d1f7 7f3f

mlp.feature_norm.bias f4 [116]
-0.0002727464 0.0003809458 0.00031592796 -0.00038338327 -6.968925e-05 -0.00014310326 -0.00037117986 -0.00028255978
0.00036702145 2.238739e-05 -0.00031488965 -0.0003735642 0.0003296302 -0.00032812616 9.579338e-05 -2.4867619e-05
0.00026987254 0.00039420536 0.00037070358 -0.00034274868 5.7827496e-05 0.000104000515 -0.0003913794 -0.00035477313
0.00023466318 4.686817e-05 0.00039267095 -0.00038572284 0.00022764178 -2.3210001e-05 -0.0002671612 -3.0871342e-06
-0.00038496673 2.237245e-05 -0.00011814026 -0.0003659937 0.0003776956 -7.0284936e-05 8.70629e-05 2.1791566e-06
-0.0003411756 -0.0001105248 0.0003790392 0.00010450044 0.0002846757 0.00032335107 0.00033333147 -0.0001309724
-0.00011852784 0.00012209637 0.0003709127 0.00036443304 -0.00036172892 0.0003882493 -0.0003942538 0.00037755744
0.0003777417 -3.6397294e-05 -0.00033105246 0.00029338102 0.00038516213 -0.00019011999 -0.00036593815 0.00010360049
0.00035335965 0.00022128595 -0.00035688578 -0.00038795307 -0.00036306007 0.0001559493 -0.00016175128 -2.9061957e-05
0.0003143008 -0.00038354518 0.00016386267 5.622055e-05 8.0505095e-05 -0.00029702546 -0.0003485372 -0.00024294695
0.00035395584 0.0003499916 0.00013022301 0.00035346544 0.00028223183 -0.00039996658 9.9670404e-05 -0.00020439894
2.0165386e-05 0.0003903526 -0.00023421142 0.00013380476 -3.839604e-05 6.479793e-05 0.00014949501 -0.00031845056
-0.00034776452 0.00033576367 0.00028097862 -0.0003581418 -6.6494016e-05 0.00031472842 0.00032886266 0.00039890507
-0.00038104865 0.0003890465 -0.00037529186 -0.00019248066 -7.689936e-05 -0.00013427452 0.00010925383 0.0002415012
0.0001316871 0.00012022375 -8.346115e-05 7.8708654e-05
00000000: 67ff 8eb9 aeb9 c739 22a3 a539 d500 c9b9
00000010: 2226 92b8 fd0d 16b9 eb9a c2b9 8824 94b9
00000020: c96c c039 8ecc bb37 c617 a5b9 f0da c3b9
00000030: 37d2 ac39 5908 acb9 aee4 c838 ce9a d0b7
00000040: ae7d 8d39 59ad ce39 fe5a c239 f3b2 b3b9
00000050: cd8b 7238 da1a da38 0e32 cdb9 d800 bab9
00000060: eb0f 7639 5094 4438 67df cd39 d83a cab9
00000070: 20b3 6e39 19b3 c2b7 c511 8cb9 902c 4fb6
00000080: 5cd5 c9b9 78ac bb37 12c2 f7b8 d8e2 bfb9
00000090: 7205 c639 f065 93b8 8a95 b638 a03d 1236
000000a0: d0df b2b9 8dc9 e7b8 c8b9 c639 3f27 db38
000000b0: 8740 9539 7287 a939 fec2 ae39 a355 09b9
000000c0: 2692 f8b8 ff06 0039 0f77 c239 6011 bf39
000000d0: 6fa6 bdb9 f08d cb39 d9b3 ceb9 e7f2 c539
000000e0: a20b c639 4ca9 18b8 1c91 adb9 efd0 9939
000000f0: 96ef c939 f25a 47b9 63db bfb9 1744 d938
00000100: 2143 b939 ff08 6839 661c bbb9 2e66 cbb9
00000110: 1959 beb9 5286 2339 c79b 29b9 14ca f3b7
00000120: bdc8 a439 9016 c9b9 8dd2 2b39 5bce 6b38
00000130: d8d4 a838 15ba 9bb9 dfbb b6b9 93bf 7eb9
00000140: 2693 b939 147f b739 798c 0839 5451 b939
00000150: 84f8 9339 9bb2 d1b9 2406 d138 ec53 56b9
00000160: d628 a937 3da8 cc39 a696 75b9 f14d 0c39
00000170: 6f0b 21b8 20e4 8738 c3c1 1c39 b6f5 a6b9
00000180: 2a54 b6b9 7009 b039 5050 9339 fbc4 bbb9
00000190: b472 8bb8 2202 a539 336b ac39 2224 d139
000001a0: 7cc7 c7b9 f0f8 cb39 d2c2 c4b9 a2d4 49b9
000001b0: 0845 a1b8 0bcc 0cb9 341f e538 7c3b 7d39
000001c0: 7d15 0a39 a220 fc38 dd07 afb8 6310 a538

mlp.mlp.fc1.0.weight f4 [64, 116]
0.1079449 -0.14910659 0.1546103 0.029443635 0.38852206 0.12609221 0.30592453 0.07112246
0.06287185 -0.22755373 0.034026545 0.20454696 -0.16036217 -0.03682885 -0.07273114 -0.19875202
-0.049142364 -0.1253238 0.2301209 0.22640769 -0.15733372 0.16364902 -0.25980315 0.10222876
0.13847212 -0.15204892 -0.1163126 -0.027119523 -0.11791649 0.20654854 -0.07386653 -0.0051832926
0.026292631 0.08861236 0.061300825 0.11267067 0.023703096 -0.23724347 0.036322765 -0.071155794
0.124336824 -0.054403085 -0.021942873 -0.093229674 -0.11439765 -0.009001553 0.052431416 -0.066243984
0.0022935546 0.043632504 -0.030444037 -0.04400186 0.019174596 -0.08366048 -0.024185305 -0.08191289
-0.12838201 -0.1911007 -0.240894 0.14217968 -0.054357946 -0.1992092 0.06905303 0.14404704
0.17176767 0.02421806 -0.047142033 0.0021367432 0.1579555 -0.08813672 0.12939893 0.2454388
0.017358113 -0.086955555 -0.04368056 0.0747923 0.03512438 0.07501952 -0.08170034 0.15293686
0.24691358 0.28468734 -0.0767372 -0.06130384 -0.066571616 0.05012262 0.25119507 -0.07283348
0.2896139 0.0043627773 -0.07123443 0.00039510799 0.07279601 -0.090962015 -0.03389376 -0.037525572
-0.10586025 -0.24150297 0.04013865 0.010487205 -0.0007838969 -0.08148797 -0.1484718 -0.11413532
0.13419157 0.11792372 -0.14093858 0.17201608 0.07902004 0.10784706 -0.13501725 -0.08970074
0.05032821 0.031500224 -0.06344976 -0.08617732 0.1306084 0.10639014 0.01159425 -0.057038974
0.0804357 -0.15267283 -0.072015524 0.21739501 0.19132926 -0.06144478 0.021799624 0.0076140855
0.13872755 0.089729115 0.1312789 -0.060833145 -0.0876145 -0.18555842 -0.12606035 -0.14269404
0.14666925 -0.102237076 0.010731675 -0.01480678 0.019229619 -0.12286827 0.009183807 -0.023264516
-0.0809843 0.116331026 -0.07269482 -0.08669959 -0.12257371 -0.109395355 0.06432127 -0.19485432
0.24980037 -0.09371871 -0.14783788 -0.16536994 -0.13047393 0.1560778 0.19414032 -0.023360096
0.017350487 -0.054699764 -0.16891395 0.15277752 0.003238326 0.026384134 0.031858694 0.03661253
0.018110096 0.038244635 0.11287814 0.08356412 -0.20688927 -0.05477632 -0.24868989 0.14413719
-0.25684452 0.00079138076 -0.32224026 -0.043366227 -0.17904456 0.088506475 -0.07474841 -0.04372274
-0.15789403 -0.1190078 0.17510411 0.18396275 -0.05475984 -0.14111581 -0.15270473 -0.044045832
0.053550888 -0.14343551 -0.34835368 0.007869917 0.10165567 0.05416572 0.0012490315 -0.011714281
-0.044268623 -0.03794757 0.0281079 0.025433704 0.122055136 0.30932796 -0.01686236 -0.0052039456
0.05374152 0.10544197 0.01666091 -0.13299932 0.13596009 0.27116245 -0.08161933 -0.17991684
0.13514875 0.22169599 0.045676954 0.040725276 -0.22612381 -0.115275115 -0.11834292 -0.057962243
-0.3404259 -0.00989575 0.08168041 -0.011174527 -0.059142586 0.10045026 0.17097135 -0.18513143
0.03636568 0.01367338 0.06314269 -0.16007257 -0.12801756 0.010333993 -0.17559995 0.0546986
0.095908746 -0.23676011 -0.09562265 0.03155756 0.27906856 0.14597346 0.056458544 -0.046042427
0.10295865 -0.089213155 0.122933 0.22682822 -0.038750924 -0.013617281 -0.010870611 0.0020693617
00000000: 3712 dd3d 66af 18be 2a52 1e3e c733 f13c
00000010: 5dec c63e 511e 013e 24a2 9c3e a7a8 913d
00000020: f5c2 803d d803 69be 6b5f 0b3d c274 513e
00000030: fb35 24be d9d9 16bd 10f4 94bd a685 4bbe
00000040: 8149 49bd e254 00be d0a4 6b3e 6bd7 673e
00000050: 171c 21be 9c93 273e eb04 85be 505d d13d
00000060: a3cb 0d3e b6b2 1bbe 4d35 eebd c329 debc
00000070: 337e f1bd 7681 533e 5647 97bd 9cd8 a9bb
00000080: a563 d73c 667a b53d 9316 7b3d e1bf e63d
00000090: ff2c c23c f4ef 72be 2ec7 143d 21ba 91bd
000000a0: 4ea4 fe3d c5d5 5ebd 8ac1 b3bc 33ef bebd
000000b0: 5149 eabd 407b 13bc 53c2 563d edaa 87bd
000000c0: 764f 163b ffb7 323d c665 f9bc 4b3b 34bd
000000d0: 0b14 9d3c 3056 abbd 4320 c6bc f2c1 a7bd
000000e0: 9376 03be e7af 43be ebac 76be 8d97 113e
000000f0: 70a6 5ebd 7ffd 4bbe ad6b 8d3d 1181 133e
00000100: dde3 2f3e f464 c63c 0118 41bd 9a08 0c3b
00000110: 16bf 213e 0681 b4bd 2781 043e 4f54 7b3e
00000120: 9a32 8e3c c115 b2bd 63ea 32bd b52c 993d
00000130: 95de 0f3d d6a3 993d 8252 a7bd 7b9b 1c3e
00000140: ead6 7c3e 8ac2 913e 6528 9dbd bc19 7bbd
00000150: b356 88bd 604d 4d3d a49c 803e b829 95bd
00000160: 4648 943e a1f5 8e3b 5be3 91bd 7f26 cf39
00000170: 1316 953d 4b4a babd 2fd4 0abd 6ab4 19bd
00000180: 42cd d8bd 8e4c 77be 6d68 243d 87d2 2b3c
00000190: 6e7e 4dba 2ae3 a6bd fe08 18be c7bf e9bd
000001a0: 8469 093e fe81 f13d 3452 10be fc24 303e
000001b0: 42d5 a13d ebde dc3d f641 0abe 06b5 b7bd
000001c0: f424 4e3d 6106 013d f3f1 81bd bc7d b0bd
000001d0: 35be 053e 13e3 d93d cff5 3d3c b3a1 69bd
000001e0: 79bb a43d 4456 1cbe e07c 93bd cc9c 5e3e
000001f0: d1eb 433e 86ad 7bbd 2095 b23c 947f f93b
00000200: 980e 0e3e e6c3 b73d fa6d 063e 2d2c 79bd
00000210: 3b6f b3bd 0703 3ebe f715 01be 631e 12be
00000220: 7730 163e ac61 d1bd e8d3 2f3c 2398 72bc
00000230: 6f87 9d3c 5ca2 fbbd ae77 163c 3a95 bebc
00000240: 19db a5bd f63e ee3d 06e1 94bd 8e8f b1bd
00000250: ed07 fbbd ac0a e0bd dfba 833d e487 47be
00000260: abcb 7f3e 98ef bfbd d062 17be bd56 29be
00000270: f59a 05be dcd2 1f3e b8cc 463e ac5d bfbc
00000280: 9c22 8e3c dc0c 60bd c7f7 2cbe b671 1c3e
00000290: 183a 543b 8a23 d83c 437e 023d 05f7 153d
000002a0: a05b 943c 68a6 1c3d a72c e73d aa23 ab3d
000002b0: c8da 53be 225d 60bd 90a8 7ebe b398 133e
000002c0: 2081 83be aa74 4f3a adfc a4be c9a0 31bd
000002d0: 7557 37be e242 b53d b215 99bd 9e16 33bd
000002e0: f9ae 21be 5dba f3bd 7e4e 333e bb60 3c3e
000002f0: db4b 60bd aa80 10be a15e 1cbe 6769 34bd
00000300: 2d58 5b3d c2e0 12be 6a5b b2be d3f0 003c
00000310: d930 d03d e0dc 5d3d 8bb6 a33a 41ed 3fbc
00000320: 0453 35bd e96e 1bbd 8a42 e63c 585a d03c
00000330: 0bf8 f93d 3c60 9e3e ef22 8abc dc85 aabb
00000340: 1120 5c3d f6f1 d73d 767c 883c f930 08be
00000350: 1f39 0b3e ced5 8a3e 0928 a7bd 1f3c 38be
00000360: 6f64 0a3e 4604 633e c217 3b3d 8ccf 263d
00000370: 008d 67be 5c15 ecbd c65d f2bd d169 6dbd
00000380: 4e4c aebe c921 22bc 0f48 a73d 5d15 37bc
00000390: 7f3f 72bd deb8 cd3d 1d13 2f3e 1893 3dbe
000003a0: 2ef4 143d 5006 603c f450 813d 10ea 23be
000003b0: 0917 03be e84f 293c 79d0 33be a40b 603d
000003c0: ce6b c43d 3e71 72be cfd5 c3bd 8042 013d
000003d0: 13e2 8e3e 117a 153e 1341 673d fc96 3cbd
000003e0: fcdb d23d 63b5 b6bd 4cc4 fb3d a845 683e
000003f0: 4ab9 1ebd 041b 5fbc a61a 32bc 219e 073b

mlp.mlp.fc1.0.bias f4 [64]
-0.00032658887 0.0003797953 0.00012957671 0.00014440127 8.95778e-05 -0.0003900949 -3.4164605e-05 8.481586e-05
0.00012258574 -6.744327e-05 -7.3722113e-06 -0.0001248508 -9.600895e-05 -0.0003577247 7.3966265e-05 3.3873413e-05
-0.00027444106 0.00010861505 -2.5978243e-06 -3.676285e-05 -0.000366173 0.00039109954 -0.00038660763 -5.001014e-06
-0.00039711274 -0.0003348045 -6.2707622e-06 -0.00037477128 -0.0002894434 -0.00034423795 0.00020687557 -2.4787878e-05
0.00038211473 0.0003425773 -3.563195e-05 0.0003891896 -4.0125465e-06 0.0002840486 -0.00030149324 0.00013350783
1.0030955e-05 0.00026851092 0.00023335459 -0.00017719509 0.00038608845 -0.00014080832 -0.00013545113 -0.00027652306
0.00031456348 -0.00027393698 0.00039583445 0.00026568508 -0.00014958935 -0.00024259964 -0.00039263128 -0.00015079096
3.6712634e-05 5.6364494e-05 0.00035007103 0.00034686408 -0.00034341638 -0.00032156083 0.00038869155 -0.0003592171
00000000: 043a abb9 431f c739 fcde 0739 6c6a 1739
00000010: b7db bb38 a785 ccb9 f74b 0fb8 2bdf b138
00000020: 5c8a 0039 5470 8db8 d05e f7b6 62ea 02b9
00000030: 6a58 c9b8 ff8c bbb9 561e 9b38 4d13 0e38
00000040: dbe2 8fb9 43c8 e338 4856 2eb6 cf31 1ab8
00000050: e8fa bfb9 7e0c cd39 99b1 cab9 62ce a7b6
00000060: 9233 d0b9 b388 afb9 7069 d2b6 f37c c4b9
00000070: 6fc0 97b9 d67a b4b9 bdec 5839 90ef cfb7
00000080: 9256 c839 f29b b339 8473 15b8 250c cc39
00000090: 83a3 86b6 5cec 9439 bd11 9eb9 3cfe 0b39
000000a0: a04a 2837 edc6 8c39 a5b0 7439 72cd 39b9
000000b0: ea6b ca39 f2a5 13b9 e307 0eb9 4cfa 90b9
000000c0: ffeb a439 339f 8fb9 0088 cf39 a64b 8b39
000000d0: 16db 1cb9 5862 7eb9 14da cdb9 a41d 1eb9
000000e0: e4fb 1938 ea68 6c38 bd89 b739 4fdb b539
000000f0: 910c b4b9 2a97 a8b9 4cc9 cb39 4e55 bcb9

mlp.mlp.fc1.2.weight f4 [64]
0.99982834 0.9996667 0.99961656 0.9999639 1.0001056 0.9996625 1.0000684 1.0003588
0.99987274 1.0003694 1.0000347 0.99974895 1.0003597 1.0000247 1.0003215 0.9996656
1.0003842 1.0000701 1.0003076 1.0003641 0.99971527 1.0002434 0.99964917 1.0003796
0.9996263 0.99969447 1.0002958 0.9998555 0.99963635 0.9998226 1.000096 1.0003976
1.0000708 0.99965906 0.9999331 1.0002615 0.9996735 0.9999594 1.0002441 0.999908
0.99974674 1.0001001 0.9998679 1.0003664 1.0003624 0.99974984 1.0003555 1.0002562
0.9996435 0.99998313 1.0002443 0.9997326 0.9996494 0.9998604 0.9996156 0.9996124
1.0002345 0.9997385 0.9996072 1.0003377 0.9997986 1.0001078 1.0003632 1.0000871
00000000: c0f4 7f3f 28ea 7f3f dfe6 7f3f a2fd 7f3f
00000010: 7603 803f e2e9 7f3f 3e02 803f c20b 803f
00000020: a9f7 7f3f 1b0c 803f 2301 803f 8cef 7f3f
00000030: c90b 803f cf00 803f 890a 803f 16ea 7f3f
00000040: 970c 803f 4c02 803f 140a 803f ee0b 803f
00000050: 57ed 7f3f fa07 803f 02e9 7f3f 700c 803f
00000060: 82e7 7f3f faeb 7f3f b109 803f 88f6 7f3f
00000070: 2be8 7f3f 60f4 7f3f 2503 803f 070d 803f
00000080: 5202 803f a8e9 7f3f 9efb 7f3f 9208 803f
00000090: 9aea 7f3f 57fd 7f3f 0008 803f f8f9 7f3f
000000a0: 67ef 7f3f 4803 803f 58f7 7f3f 020c 803f
000000b0: e00b 803f 9bef 7f3f a60b 803f 6508 803f
000000c0: a3e8 7f3f e5fe 7f3f 0108 803f 7aee 7f3f
000000d0: 06e9 7f3f daf6 7f3f cfe6 7f3f 99e6 7f3f
000000e0: af07 803f ddee 7f3f 42e6 7f3f 110b 803f
000000f0: cdf2 7f3f 8803 803f e70b 803f db02 803f

mlp.mlp.fc1.2.bias f4 [64]
-0.00031967284 0.00033955055 0.00037207577 4.582063e-05 8.191806e-05 -0.00039928025 4.0564017e-05 -0.00026042492
0.0001070282 -0.00035938612 -0.00010837992 -0.00010508972 -0.00031004267 -0.00011472289 -0.00014535291 0.00037111674
-0.000390185 0.00035424254 -0.0002441621 -0.00038719657 -0.0003595224 0.00038532133 -0.00037699065 -0.00034059907
-0.0003929109 0.00024783215 -0.00018511483 -0.0003613162 -5.366589e-05 -0.00037013844 5.9819773e-05 -0.00028178553
0.000349821 0.0003899085 -0.00011177397 0.00038053788 0.0003168139 0.0002445369 -0.0002446173 0.00013762452
0.00038341706 0.00023285177 0.000106876156 -0.0003840802 0.00035510334 0.00029407145 -0.00039236393 -0.00038914906
0.00037835154 -0.00038767964 0.00038746322 0.00027582224 -6.5737964e-05 -0.00030862546 -0.00036697497 9.035015e-05
0.0003542942 0.00037428364 0.00039220203 5.8549194e-05 -0.00037206803 -0.0003856146 0.00037588773 -0.00011514619
00000000: c399 a7b9 b405 b239 2a13 c339 872f 4038
00000010: 6ccb ab38 7d56 d1b9 4823 2a38 a489 88b9
00000020: 5474 e038 fd6b bcb9 074a e3b8 9d63 dcb8
00000030: 398d a2b9 6297 f0b8 e069 18b9 7292 c239
00000040: bf91 ccb9 a1b9 b939 e202 80b9 a500 cbb9
00000050: 487e bcb9 f404 ca39 d4a6 c5b9 6f92 b2b9
00000060: 9cff cdb9 78ef 8139 621b 42b9 0a6f bdb9
00000070: 5017 61b8 240f c2b9 fee6 7a38 9dbc 93b9
00000080: 2e68 b739 a26c cc39 3168 eab8 ee82 c739
00000090: 0b1a a639 3035 8039 fa3f 80b9 4d4f 1039
000000a0: 5e05 c939 ac29 7439 b322 e038 5f5e c9b9
000000b0: 2a2d ba39 9a2d 9a39 32b6 cdb9 b406 ccb9
000000c0: 7c5d c639 7b41 cbb9 6f24 cb39 3c9c 9039
000000d0: cddc 89b8 02cf a1b9 8c66 c0b9 5e7a bd38
000000e0: 90c0 b939 803b c439 77a0 cd39 b892 7538
000000f0: 2012 c3b9 512c cab9 cc12 c539 a47a f1b8

mlp.mlp.fc_h.0.weight f4 [64, 64]
-0.03429169 0.07508693 0.100445054 -0.31383947 -0.06638071 -0.03669174 0.020012816 -0.10841942
-0.15137859 -0.13925973 0.122647725 0.045512185 0.0899441 -0.29058725 0.4398804 0.39054558
-0.037933957 0.124530725 -0.07680563 0.21807645 0.20368049 0.11912587 -0.19485725 -0.066516794
-0.04225037 0.0022945858 0.31266138 -0.13600406 -0.04824579 -0.30562675 0.2813462 0.015078497
0.4222484 -0.099950515 0.055680644 0.13915624 -0.018032616 -0.0155030545 -0.095950894 -0.3080131
-0.096274845 0.083702795 0.064844 -0.05749292 0.10831824 -0.09919202 0.077845275 -0.13193615
-0.063823886 0.25915006 0.0033824495 -0.17764987 -0.09712579 -0.1271973 0.1545481 0.18123692
0.063543245 -0.077720866 0.06541636 0.27964917 -0.1511744 0.37534437 0.1745282 -0.22574294
0.05289694 -0.05894706 0.05194531 0.25354132 -0.21800396 0.050578874 0.45823067 -0.060875807
-0.015224627 -0.018518189 -0.11876772 -0.009380705 -0.11396801 -0.26422352 0.23359881 0.00727635
-0.084037125 -0.066466406 0.14481966 0.241315 0.1572169 0.04754687 0.20210889 -0.10186852
0.32383052 0.25264695 -0.04426812 0.2636075 -0.20816903 0.022910532 -0.04739142 0.11084022
-0.012427329 0.3157009 -0.14512496 0.2193809 0.18194485 0.12002672 -0.012373548 -0.033859085
0.14636777 0.06424317 0.029261379 -0.12231165 -0.16681248 -0.2789413 -0.27529404 -0.048856948
0.1518164 0.09756011 0.16784348 -0.030837953 0.024502128 0.35812783 0.17933916 -0.45939592
-0.042834897 -0.070360616 0.0903408 0.029597456 0.09793229 0.0034698697 -0.2707356 -0.26056066
-0.19742833 -0.05944625 -0.18948679 0.052951768 -0.11839094 -0.26821724 -0.1701216 0.18413745
0.12844655 -0.05972182 -0.06933283 -0.08227772 -0.027542828 -0.028630354 -0.16222101 0.0027101247
0.06362663 -0.04570853 -0.067250155 0.07772705 -0.011431055 0.11843709 0.1264185 0.11929432
-0.063329525 0.11654065 -0.121826865 -0.18323776 -0.19001243 -0.107834436 0.15204805 0.1302312
0.0033242113 0.015652478 0.34420624 0.1434402 0.45165387 -0.38749516 -0.063044086 0.30023715
0.11661166 -0.08218713 -0.08522902 -0.22710058 0.22321469 -0.050369497 0.14803664 0.18400243
0.18533204 -0.05305375 -0.415471 -0.33119974 0.13083164 0.092470944 -0.29392385 -0.10135054
0.102832295 -0.2520019 -0.02217529 0.049258623 0.079086736 0.0336951 0.13192193 -0.42077005
-0.08395981 0.14060193 0.16440307 0.38705406 -0.16194083 0.24747169 0.110095166 -0.14609621
-0.26299277 0.08301559 -0.023900036 -0.21774985 0.025728088 -0.22883478 -0.09750422 0.16075043
-0.04868583 -0.10181611 -0.20650089 0.19107145 0.13078381 -0.21717505 -0.043973763 0.08426083
-0.012270045 -0.31867468 -0.055971052 -0.08571304 0.0971248 -0.04966632 -0.27890617 0.055243555
0.15146807 -0.37860683 -0.055827126 -0.23316808 -0.011242635 -0.3848777 -0.088467225 -0.009037699
-0.08226761 0.10119716 -0.19230017 0.14972474 -0.08681116 -0.037989173 0.1987281 -0.0034281614
-0.114367224 -0.18851556 -0.2153709 -0.057116345 -0.18498243 -0.10051244 0.15412754 -0.55318785
0.0037394622 -0.17837524 0.0020405513 -0.061266 -0.2047693 -0.14309324 0.11444334 0.06783676
00000000: 7175 0cbd 2dc7 993d 23b6 cd3d 91af a0be
00000010: 9cf2 87bd 144a 16bd ebf1 a33c 000b debd
00000020: fd02 1bbe 1a9a 0ebe bb2e fb3d fc6a 3a3d
00000030: 9d34 b83d dac7 94be 0138 e13e 97f5 c73e
00000040: a360 1bbd f709 ff3d 454c 9dbd 6f4f 5f3e
00000050: 9e91 503e 44f8 f33d a988 47be f539 88bd
00000060: b90e 2dbd c360 163b 2715 a03e a644 0bbe
00000070: 619d 45bd 1c7b 9cbe 9c0c 903e cd0b 773c
00000080: f130 d83e dbb2 ccbd 6311 643d f97e 0e3e
00000090: 23b9 93bc 8600 7ebc e781 c4bd e5b3 9dbe
000000a0: bf2b c5bd 5f6c ab3d eecc 843d b27d 6bbd
000000b0: f4d5 dd3d 3025 cbbd 586d 9f3d 451a 07be
000000c0: 19b6 82bd 51af 843e 16ac 5d3b d9e9 35be
000000d0: e3e9 c6bd 0240 02be db41 1e3e 2c96 393e
000000e0: f622 823d 1e2c 9fbd 03f9 853d 2d2e 8f3e
000000f0: 76cd 1abe 232d c03e 85b7 323e 2829 67be
00000100: 76aa 583d 7972 71bd 9bc4 543d 2bd0 813e
00000110: 6e3c 5fbe cb2b 4f3d 369d ea3e e958 79bd
00000120: b770 79bc 75b3 97bc 7e3c f3bd 87b1 19bc
00000130: 0f68 e9bd 4e48 87be 8734 6f3e 736e ee3b
00000140: a81b acbd 8a1f 88bd 9b4b 143e 481b 773e
00000150: 78fd 203e 82c0 423d a2f5 4e3e 71a0 d0bd
00000160: 1dcd a53e f15a 813e 7d52 35bd 90f7 863e
00000170: 432a 55be deae bb3c 811d 42bd 3200 e33d
00000180: ff9b 4bbc 8ca3 a13e a39b 14be 63a5 603e
00000190: c04f 3a3e 92d0 f53d 6cba 4abc d3af 0abd
000001a0: 6fe1 153e ec91 833d 8fb5 ef3c 887e fabd
000001b0: e4d0 2abe 65d1 8ebe 57f3 8cbe 391e 48bd
000001c0: c275 1b3e 98cd c73d 29df 2b3e e09f fcbc
000001d0: b0b8 c83c 885c b73e afa4 373e f135 ebbe
000001e0: a573 2fbd 3a19 90bd 9904 b93d 5d76 f23c
000001f0: b990 c83d c166 633b db9d 8abe 3568 85be
00000200: a72a 4abe e97d 73bd d308 42be f4e3 583d
00000210: f376 f2bd c553 89be 5b34 2ebe 878e 3c3e
00000220: 7e87 033e de9e 74bd 5ffe 8dbd 3981 a8bd
00000230: 7fa1 e1bc 348a eabc 441d 26be 599c 313b
00000240: ae4e 823d de38 3bbd 73ba 89bd 5c2f 9f3d
00000250: 5249 3bbc 258f f23d da73 013e 9550 f43d
00000260: e9b2 81bd ddac ee3d 5d80 f9bd aea2 3bbe
00000270: 9e92 42be 4dd8 dcbd 7cb2 1b3e 545b 053e
00000280: 03db 593b a039 803c cd3b b03e fde1 123e
00000290: 2d3f e73e c465 c6be 421d 81bd afb8 993e
000002a0: 18d2 ee3d ba51 a8bd 8d8c aebd 0e8d 68be
000002b0: 6492 643e 3f50 4ebd eb96 173e 226b 3c3e
000002c0: afc7 3d3e e44e 59bd 9db8 d4be 0393 a9be
000002d0: bbf8 053e 6861 bd3d 307d 96be df90 cfbd
000002e0: bd99 d23d 6506 81be f4a8 b5bc 69c3 493d
000002f0: 3af8 a13d e003 0a3d 8b16 073e 2c6f d7be
00000300: 1ff3 abbd f4f9 0f3e 4759 283e f32b c63e
00000310: d1d3 25be 3869 7d3e 9379 e13d 3f9a 15be
00000320: fda6 86be 1404 aa3d 02ca c3bc d1f9 5ebe
00000330: b6c3 d23c aa53 6abe 4bb0 c7bd c39b 243e
00000340: cb6a 47bd f784 d0bd f874 53be 3ca8 433e
00000350: 31ec 053e 2363 5ebe d51d 34bd f190 ac3d
00000360: 4c08 49bc 5429 a3be e741 65bd 518a afbd
00000370: 5ee9 c63d e96e 4bbd cacc 8ebe 1147 623d
00000380: 721a 1b3e c1d8 c1be fcaa 64bd 9dc3 6ebe
00000390: 0733 38bc b10e c5be 4e2e b5bd db12 14bc
000003a0: ec7b a8bd 7540 cf3d 56ea 44be 7151 193e
000003b0: 0dca b1bd 899a 1bbd 617f 4b3e 01ab 60bb
000003c0: 5d39 eabd 390a 41be 308a 5cbe d4f2 69bd
000003d0: 096c 3dbe 77d9 cdbd 9cd3 1d3e b89d 0dbf
000003e0: c411 753b 00a8 36be c5ba 053b 0ff2 7abd
000003f0: 0baf 51be 0987 12be 4561 ea3d 00ee 8a3d

mlp.mlp.fc_h.0.bias f4 [64]
0.0 0.0 0.0 0.0 0.0 0.0 0.0 0.0
0.0 0.0 0.0 0.0 0.0 0.0 0.0 0.0
0.0 0.0 0.0 0.0 0.0 0.0 0.0 0.0
0.0 0.0 0.0 0.0 0.0 0.0 0.0 0.0
0.0 0.0 0.0 0.0 0.0 0.0 0.0 0.0
0.0 0.0 0.0 0.0 0.0 0.0 0.0 0.0
0.0 0.0 0.0 0.0 0.0 0.0 0.0 0.0
0.0 0.0 0.0 0.0 0.0 0.0 0.0 0.0
00000000: 0000 0000 0000 0000 0000 0000 0000 0000
00000010: 0000 0000 0000 0000 0000 0000 0000 0000
00000020: 0000 0000 0000 0000 0000 0000 0000 0000
00000030: 0000 0000 0000 0000 0000 0000 0000 0000
00000040: 0000 0000 0000 0000 0000 0000 0000 0000
00000050: 0000 0000 0000 0000 0000 0000 0000 0000
00000060: 0000 0000 0000 0000 0000 0000 0000 0000
00000070: 0000 0000 0000 0000 0000 0000 0000 0000
00000080: 0000 0000 0000 0000 0000 0000 0000 0000
00000090: 0000 0000 0000 0000 0000 0000 0000 0000
000000a0: 0000 0000 0000 0000 0000 0000 0000 0000
000000b0: 0000 0000 0000 0000 0000 0000 0000 0000
000000c0: 0000 0000 0000 0000 0000 0000 0000 0000
000000d0: 0000 0000 0000 0000 0000 0000 0000 0000
000000e0: 0000 0000 0000 0000 0000 0000 0000 0000
000000f0: 0000 0000 0000 0000 0000 0000 0000 0000

mlp.mlp.fc_h.2.weight f4 [64]
1.0 1.0 1.0 1.0 1.0 1.0 1.0 1.0
1.0 1.0 1.0 1.0 1.0 1.0 1.0 1.0
1.0 1.0 1.0 1.0 1.0 1.0 1.0 1.0
1.0 1.0 1.0 1.0 1.0 1.0 1.0 1.0
1.0 1.0 1.0 1.0 1.0 1.0 1.0 1.0
1.0 1.0 1.0 1.0 1.0 1.0 1.0 1.0
1.0 1.0 1.0 1.0 1.0 1.0 1.0 1.0
1.0 1.0 1.0 1.0 1.0 1.0 1.0 1.0
00000000: 0000 803f 0000 803f 0000 803f 0000 803f
00000010: 0000 803f 0000 803f 0000 803f 0000 803f
00000020: 0000 803f 0000 803f 0000 803f 0000 803f
00000030: 0000 803f 0000 803f 0000 803f 0000 803f
00000040: 0000 803f 0000 803f 0000 803f 0000 803f
00000050: 0000 803f 0000 803f 0000 803f 0000 803f
00000060: 0000 803f 0000 803f 0000 803f 0000 803f
00000070: 0000 803f 0000 803f 0000 803f 0000 803f
00000080: 0000 803f 0000 803f 0000 803f 0000 803f
00000090: 0000 803f 0000 803f 0000 803f 0000 803f
000000a0: 0000 803f 0000 803f 0000 803f 0000 803f
000000b0: 0000 803f 0000 803f 0000 803f 0000 803f
000000c0: 0000 803f 0000 803f 0000 803f 0000 803f
000000d0: 0000 803f 0000 803f 0000 803f 0000 803f
000000e0: 0000 803f 0000 803f 0000 803f 0000 803f
000000f0: 0000 803f 0000 803f 0000 803f 0000 803f

mlp.mlp.fc_h.2.bias f4 [64]
0.0 0.0 0.0 0.0 0.0 0.0 0.0 0.0
0.0 0.0 0.0 0.0 0.0 0.0 0.0 0.0
0.0 0.0 0.0 0.0 0.0 0.0 0.0 0.0
0.0 0.0 0.0 0.0 0.0 0.0 0.0 0.0
0.0 0.0 0.0 0.0 0.0 0.0 0.0 0.0
0.0 0.0 0.0 0.0 0.0 0.0 0.0 0.0
0.0 0.0 0.0 0.0 0.0 0.0 0.0 0.0
0.0 0.0 0.0 0.0 0.0 0.0 0.0 0.0
00000000: 0000 0000 0000 0000 0000 0000 0000 0000
00000010: 0000 0000 0000 0000 0000 0000 0000 0000
00000020: 0000 0000 0000 0000 0000 0000 0000 0000
00000030: 0000 0000 0000 0000 0000 0000 0000 0000
00000040: 0000 0000 0000 0000 0000 0000 0000 0000
00000050: 0000 0000 0000 0000 0000 0000 0000 0000
00000060: 0000 0000 0000 0000 0000 0000 0000 0000
00000070: 0000 0000 0000 0000 0000 0000 0000 0000
00000080: 0000 0000 0000 0000 0000 0000 0000 0000
00000090: 0000 0000 0000 0000 0000 0000 0000 0000
000000a0: 0000 0000 0000 0000 0000 0000 0000 0000
000000b0: 0000 0000 0000 0000 0000 0000 0000 0000
000000c0: 0000 0000 0000 0000 0000 0000 0000 0000
000000d0: 0000 0000 0000 0000 0000 0000 0000 0000
000000e0: 0000 0000 0000 0000 0000 0000 0000 0000
000000f0: 0000 0000 0000 0000 0000 0000 0000 0000

mlp.mlp.fc2.0.0.weight f4 [64, 64]
-0.033996817 0.07517808 0.10041985 -0.31396323 -0.06646932 -0.036793705 0.019922772 -0.10854239
-0.15175886 -0.1396251 0.12297587 0.045503885 0.0900497 -0.29078045 0.4398975 0.39044547
-0.0381978 0.12443623 -0.076675065 0.21775688 0.20367126 0.118764274 -0.19479838 -0.066460446
-0.041921783 0.0022739496 0.31295598 -0.1356201 -0.048617385 -0.30541188 0.28099042 0.015428846
0.42218062 -0.10030502 0.05555486 0.13935971 -0.018396953 -0.015771016 -0.09612695 -0.30839583
-0.09659401 0.08404418 0.06470679 -0.05771301 0.10866481 -0.0994876 0.077783175 -0.13207042
-0.063733354 0.2592843 0.0034561201 -0.1778485 -0.09678181 -0.12706597 0.15488702 0.18094084
0.06324773 -0.07793474 0.065047175 0.27956593 -0.1508415 0.3756805 0.17491135 -0.22564988
0.05319734 -0.059200447 0.051613986 0.2536322 -0.21839038 0.050293997 0.45809427 -0.061240427
-0.014900751 -0.018153286 -0.11883108 -0.009590638 -0.11398897 -0.26432678 0.23398551 0.0076552355
-0.08367262 -0.066455044 0.14496203 0.2412852 0.15744758 0.04745178 0.20175537 -0.10198223
0.32348734 0.25281897 -0.04454335 0.26348588 -0.20781487 0.022653628 -0.046999868 0.11050065
-0.012240541 0.3160777 -0.14511915 0.21918103 0.18232925 0.12024507 -0.0127189355 -0.033984926
0.14627077 0.06390122 0.029461611 -0.12220357 -0.16711633 -0.27854934 -0.27539542 -0.048833575
0.15220664 0.09791806 0.16822645 -0.03072203 0.02443568 0.3578693 0.17895657 -0.45903075
-0.04246299 -0.07021486 0.09067721 0.029431615 0.097877294 0.0030906382 -0.27067885 -0.26066115
-0.19718562 -0.05951879 -0.18915632 0.053239856 -0.118684106 -0.268035 -0.1703837 0.1840979
0.12855706 -0.060012724 -0.06931514 -0.08201309 -0.027563825 -0.028254984 -0.16247104 0.0023618091
0.06364847 -0.045813944 -0.067460135 0.07800623 -0.01105321 0.1187885 0.12680978 0.11915937
-0.063014515 0.11655843 -0.121770985 -0.18297587 -0.19038086 -0.107513756 0.15172908 0.13035002
0.0034582152 0.015347364 0.34439564 0.14372861 0.45128947 -0.38781488 -0.062920876 0.3001166
0.1163619 -0.08224253 -0.08498459 -0.22742827 0.22360975 -0.050673705 0.1477014 0.18422353
0.1850577 -0.052876323 -0.4153286 -0.3309665 0.13077539 0.092844695 -0.29354277 -0.10151135
0.10246719 -0.25214437 -0.022187635 0.04933776 0.07906115 0.034042694 0.13207905 -0.42053434
-0.083844036 0.14039099 0.16405319 0.3874116 -0.16230059 0.24718289 0.10998769 -0.14643937
-0.26261938 0.08341105 -0.02375612 -0.21793973 0.025445731 -0.228773 -0.09737624 0.16113223
-0.04829079 -0.10161724 -0.20617199 0.19138132 0.13076295 -0.21730009 -0.04433814 0.08413205
-0.012637427 -0.31864035 -0.05621486 -0.08608157 0.09750842 -0.049780704 -0.27854246 0.054856792
0.15138918 -0.37840477 -0.0558461 -0.23330264 -0.01088233 -0.3846928 -0.08857888 -0.008884706
-0.08231228 0.10082672 -0.19206595 0.15003386 -0.087149896 -0.037599914 0.19903384 -0.0033512586
-0.114012726 -0.18812059 -0.21532197 -0.057005018 -0.1853417 -0.10083702 0.15373006 -0.55279887
0.0041136704 -0.1784138 0.0024235887 -0.061022095 -0.20444901 -0.14345665 0.11434667 0.067785606
00000000: 3f40 0bbd f7f6 993d eca8 cd3d cabf a0be
00000010: 1121 88bd ffb4 16bd 1535 a33c 794b debd
00000020: ad66 1bbe e2f9 0ebe c6da fb3d 4862 3a3d
00000030: fa6b b83d 2de1 94be 3f3a e13e 78e8 c73e
00000040: 4c75 1cbd 6cd8 fe3d d107 9dbd a9fb 5e3e
00000050: 338f 503e af3a f33d 3a79 47be 6a1c 88bd
00000060: 2db6 2bbd 8b06 153b c43b a03e ffdf 0abe
00000070: 0623 47bd f25e 9cbe fadd 8f3e 45c9 7c3c
00000080: 0f28 d83e b86c cdbd 7e8d 633d 50b4 0e3e
00000090: 35b5 96bc 3832 81bc 35de c4bd 0fe6 9dbe
000000a0: 15d3 c5bd 5b1f ac3d fe84 843d 7a64 6cbd
000000b0: a88b de3d 28c0 cbbd c94c 9f3d 783d 07be
000000c0: a286 82bd e9c0 843e 1380 623b eb1d 36be
000000d0: 8b35 c6bd 951d 02be b49a 1e3e 8e48 393e
000000e0: 0788 813d 409c 9fbd 7437 853d 4423 8f3e
000000f0: 3276 1abe 3259 c03e f61b 333e c310 67be
00000100: 74e5 593d 2b7c 72bd 3069 533d 14dc 813e
00000110: baa1 5fbe 1401 4e3d 558b ea3e 3ed7 7abd
00000120: 4822 74bc 33b6 94bc b65d f3bd 0d22 1dbc
00000130: 0d73 e9bd d755 87be e699 6f3e c5d8 fa3b
00000140: 8d5c abbd 9519 88bd ed70 143e 7813 773e
00000150: f039 213e cc5c 423d f698 4e3e 0fdc d0bd
00000160: 22a0 a53e 7d71 813e 1673 36bd 9fe7 863e
00000170: 6ccd 54be 1a94 b93c ef82 40bd 2a4e e23d
00000180: 8d8c 48bc f0d4 a13e 1d9a 14be fe70 603e
00000190: 85b4 3a3e 0c43 f63d 1563 50bc c733 0bbd
000001a0: 01c8 153e a5de 823d 7a59 f13c de45 fabd
000001b0: 8b20 2bbe 059e 8ebe a100 8dbe b705 48bd
000001c0: 0fdc 1b3e 4489 c83d 8e43 2c3e c4ac fbbc
000001d0: 562d c83c a53a b73e 6440 373e 1406 ebbe
000001e0: aced 2dbd cfcc 8fbd f9b4 b93d 921a f13c
000001f0: e473 c83d 4e8c 4a3b 6b96 8abe 6175 85be
00000200: 07eb 49be fac9 73bd 32b2 41be 0912 5a3d
00000210: a710 f3bd e23b 89be 1179 2ebe 2984 3c3e
00000220: 76a4 033e e7cf 75bd 19f5 8dbd 7bf6 a7bd
00000230: 88cd e1bc ff76 e7bc cf5e 26be 95c8 1a3b
00000240: 215a 823d 67a7 3bbd 8a28 8abd bbc1 9f3d
00000250: 8618 35bc 6347 f33d 6cda 013e d409 f43d
00000260: c10d 81bd 30b6 ee3d 1163 f9bd 075e 3bbe
00000270: 33f3 42be 2c30 dcbd de5e 1b3e 7a7a 053e
00000280: 39a3 623b 8373 7b3c a054 b03e 982d 133e
00000290: 6a0f e73e ac8f c6be a9dc 80bd e2a8 993e
000002a0: 264f ee3d c66e a8bd 670c aebd f5e2 68be
000002b0: f4f9 643e 3b8f 4fbd 093f 173e 18a5 3c3e
000002c0: c47f 3d3e d894 58bd f3a5 d4be 7174 a9be
000002d0: fce9 053e 5c25 be3d 3d4b 96be 2fe5 cfbd
000002e0: 51da d13d 1119 81be d8c2 b5bc 6416 4a3d
000002f0: d0ea a13d 5a70 0b3d bb3f 073e 4750 d7be
00000300: 6cb6 abbd a8c2 0f3e 8ffd 273e d05a c63e
00000310: 2032 26be 831d 7d3e 3a41 e13d 34f4 15be
00000320: 0c76 86be 6ad3 aa3d 329c c2bc 982b 5fbe
00000330: 9173 d03c 7843 6abe 326d c7bd d9ff 243e
00000340: 90cc 45bd b31c d0bd c01e 53be 77f9 433e
00000350: b9e6 053e ea83 5ebe e99b 35bd 6d4d ac3d
00000360: 360d 4fbc d424 a3be 8e41 66bd 894b b0bd
00000370: 7fb2 c73d dae6 4bbd 1e9d 8ebe 84b1 603d
00000380: c405 1b3e 45be c1be e1be 64bd e3e6 6ebe
00000390: cd4b 32bc 74f6 c4be d868 b5bd 2891 11bc
000003a0: 5793 a8bd 3d7e ce3d f0ac 44be 7aa2 193e
000003b0: a57b b2bd 5e02 1abd 87cf 4b3e caa0 5bbb
000003c0: 817f e9bd afa2 40be 5d7d 5cbe 187e 69bd
000003d0: 37ca 3dbe a483 cebd 6a6b 1d3e 3a84 0dbf
000003e0: f8cb 863b 1bb2 36be 12d5 1e3b 4ef2 79bd
000003f0: 155b 51be 4de6 12be 962e ea3d 2ed3 8a3d

mlp.mlp.fc2.0.0.bias f4 [64]
0.00036746458 -0.00013249146 0.00018597851 -0.0003864065 -8.227447e-05 -0.0003855393 0.000111712834 -0.0002358535
0.00018430328 -0.00039544966 -8.95848e-05 0.0003978621 -5.191214e-07 0.00030616656 0.00019250842 -0.00035459368
-0.0003952968 0.00036120872 0.0003977667 0.000380613 -0.00038883468 -0.00036566088 -0.00019050504 0.0003500536
0.00036841872 -0.00011242129 0.000344496 -4.420441e-05 0.0002904126 -0.00039940747 -8.304934e-05 -0.00025526024
0.0003377511 0.00028399818 0.0003778271 -2.5912032e-05 0.00037684396 -9.3248396e-05 0.00038040662 0.00036373027
-3.2874104e-05 0.000392979 -0.000120466095 -0.0003029008 0.00034133552 -0.0003309736 -0.00037839092 -4.1578256e-05
-0.00021791333 -0.00027182105 -0.00038061765 0.0003820596 2.0379612e-05 0.0003868556 0.0003821326 0.00011169789
0.00010303895 0.00010271065 -0.00039406447 0.0003795527 -0.00038806454 0.00013029635 -0.00010613948 -0.0002002268
00000000: 43a8 c039 68ed 0ab9 3a03 4339 9a96 cab9
00000010: c58a acb8 3522 cab9 5f47 ea38 714f 77b9
00000020: 8941 4139 5b54 cfb9 79df bbb8 2698 d039
00000030: c059 0bb5 fb84 a039 16dc 4939 c2e8 b9b9
00000040: d73f cfb9 9d60 bd39 588b d039 038d c739
00000050: 82dc cbb9 2cb6 bfb9 4fc2 47b9 6687 b739
00000060: 5328 c139 b8c3 ebb8 789d b439 2068 39b8
00000070: 8542 9839 9067 d1b9 c62a aeb8 73d4 85b9
00000080: 2f14 b139 97e5 9439 1817 c639 aa5d d9b7
00000090: 2493 c539 5a8e c3b8 5071 c739 0db3 be39
000000a0: 4de2 09b8 c008 ce39 bea2 fcb8 a8ce 9eb9
000000b0: 47f5 b239 8686 adb9 c562 c6b9 5064 2eb8
000000c0: aa7f 64b9 3483 8eb9 a38d c7b9 2c4f c839
000000d0: e2f4 aa37 e1d2 ca39 f858 c839 593f ea38
000000e0: 9d16 d838 5c66 d738 709a ceb9 b3fe c639
000000f0: 2475 cbb9 29a0 0839 3397 deb8 f9f3 51b9

mlp.mlp.fc2.0.2.weight f4 [64]
0.99999535 0.99984455 0.9999569 1.0001774 0.9996149 1.0003866 0.99966574 0.9997407
1.0002706 0.9996371 0.99989784 0.99960786 0.99963063 1.0003772 1.0003492 1.0002501
0.9997011 1.0003028 1.0003912 1.0000782 0.9997222 1.0002697 0.9996361 1.0003164
1.0003841 0.9998042 1.0003716 1.0002211 0.99984324 0.99994785 1.0001104 0.9998328
1.0002272 0.99962735 0.9996424 1.0002434 1.0003681 1.0002422 0.9999848 1.0003811
1.0003747 0.99962443 1.000045 1.0000517 1.0003608 0.9997034 0.9996343 1.0003768
1.0003364 0.9998705 0.9997878 1.0003923 1.000095 1.0002904 1.0000279 0.99991316
1.0000317 1.0003961 0.9997129 1.0001116 0.9998928 1.0003892 1.0000192 1.0003805
00000000: b2ff 7f3f d0f5 7f3f 2dfd 7f3f d005 803f
00000010: c3e6 7f3f ab0c 803f 18ea 7f3f 02ef 7f3f
00000020: de08 803f 38e8 7f3f 4ef9 7f3f 4de6 7f3f
00000030: cbe7 7f3f 5c0c 803f 710b 803f 3208 803f
00000040: 69ec 7f3f ec09 803f d20c 803f 9002 803f
00000050: cbed 7f3f d608 803f 27e8 7f3f 5e0a 803f
00000060: 960c 803f 2bf3 7f3f 2d0c 803f 3f07 803f
00000070: baf5 7f3f 95fc 7f3f 9e03 803f 0bf5 7f3f
00000080: 7207 803f 94e7 7f3f 90e8 7f3f fa07 803f
00000090: 100c 803f f007 803f 01ff 7f3f 7d0c 803f
000000a0: 470c 803f 63e7 7f3f 7901 803f b201 803f
000000b0: d30b 803f 90ec 7f3f 09e8 7f3f 590c 803f
000000c0: 060b 803f 83f7 7f3f 18f2 7f3f db0c 803f
000000d0: 1d03 803f 8409 803f ea00 803f 4ffa 7f3f
000000e0: 0a01 803f fb0c 803f 2fed 7f3f a803 803f
000000f0: f9f8 7f3f c10c 803f a100 803f 780c 803f

mlp.mlp.fc2.0.2.bias f4 [64]
0.0003626946 -0.0001257685 8.324897e-05 -0.000388488 0.00037939587 -0.00038479042 0.00038714943 -5.8742164e-05
0.00015698491 -0.00036193512 0.00011715114 0.0003994443 0.00038254904 -0.0003808812 0.00014477552 -0.00038228082
-0.00037872154 0.00032410937 0.0003751322 9.512007e-05 -0.0002276965 -0.00039205904 0.0003902961 0.0003792295
0.0001223193 3.5576286e-06 0.0003880976 -0.00028329607 1.1891621e-05 -0.00039953532 -0.00039647956 -0.0003192842
0.00035711366 0.00039365995 0.00039534684 -0.0002473485 0.0003535739 -0.0003744525 0.00039189353 0.00011970931
-0.00020668353 0.00038052432 -0.0003817372 -0.00039627482 -6.418323e-05 -0.00037535175 -0.00037876278 -0.0003757245
-0.0002862321 -0.0003831755 -0.0003960822 0.0003663384 0.00010843498 0.00039591588 0.00011767587 0.00013590834
-1.49178995e-05 -0.00013284016 -0.00037932477 0.00037981453 -0.00039359956 -8.399354e-05 -0.0002169697 -0.0002893059
00000000: 0c28 be39 bae0 03b9 f395 ae38 faad cbb9
00000010: a7e9 c639 b2bd c9b9 51fa ca39 eb61 76b8
00000020: 519c 2439 1cc2 bdb9 0aaf f538 826c d139
00000030: dd90 c839 02b1 c7b9 e2ce 1739 dd6c c8b9
00000040: 258f c6b9 39ed a939 64ad c439 337b c738
00000050: d0c1 6eb9 468d cdb9 a8a0 cc39 52d3 c639
00000060: d642 0039 98bf 6e36 9479 cb39 5b87 94b9
00000070: 2082 4737 b978 d1b9 96de cfb9 9a65 a7b9
00000080: fc3a bb39 2564 ce39 8e46 cf39 8eae 81b9
00000090: e35f b939 2a52 c4b9 0f77 cd39 720c fb38
000000a0: 30b9 58b9 1c81 c739 e623 c8b9 1bc3 cfb9
000000b0: 1c9a 86b8 dcca c4b9 ae94 c6b9 e4fc c4b9
000000c0: 6c11 96b9 f2e4 c8b9 41a9 cfb9 1c11 c039
000000d0: 9667 e338 ee92 cf39 c0c8 f638 9e82 0e39
000000e0: e447 7ab7 024b 0bb9 1ce0 c6b9 d821 c739
000000f0: 0a5c ceb9 b025 b0b8 5c82 63b9 fbad 97b9

mlp.mlp.fc2.1.0.weight f4 [64, 64]
-0.034628917 0.07548412 0.10005012 -0.31403446 -0.066763714 -0.036796212 0.019622343 -0.10822104
-0.15098034 -0.1389502 0.12256354 0.045141544 0.0895589 -0.29096147 0.44023374 0.39048377
-0.03760722 0.12475067 -0.07719632 0.21801592 0.20354001 0.11920434 -0.19524683 -0.0668651
-0.042128626 0.0019283597 0.31285912 -0.13639063 -0.048313975 -0.3053861 0.2812757 0.015468968
0.42255703 -0.10030954 0.05528254 0.13948695 -0.018033134 -0.015816692 -0.09629752 -0.3077401
-0.09662832 0.08332379 0.06477415 -0.057833616 0.10837632 -0.09894484 0.0779677 -0.1318893
-0.063502945 0.25927332 0.0037762069 -0.17754497 -0.097167596 -0.12705573 0.15415858 0.18130283
0.06319533 -0.078029245 0.06563332 0.28000143 -0.1512347 0.375662 0.17481583 -0.22594355
0.05261367 -0.05858791 0.05192727 0.2534651 -0.21839689 0.050593205 0.45787084 -0.060577203
-0.015238577 -0.018133625 -0.119133495 -0.00974771 -0.114344515 -0.2645775 0.23325461 0.0072092908
-0.08367558 -0.06627501 0.14442264 0.24156469 0.15690842 0.047594387 0.20172185 -0.10184874
0.32421717 0.2524267 -0.044449538 0.2634726 -0.20787944 0.023156237 -0.04746983 0.111227416
-0.012479524 0.3153278 -0.14548899 0.21971278 0.18215035 0.12000047 -0.012598333 -0.033469837
0.14597988 0.06409908 0.029026499 -0.1224269 -0.1669119 -0.27895105 -0.2749341 -0.048479974
0.15151416 0.09794803 0.16822754 -0.03045236 0.024608778 0.3581772 0.17894424 -0.45963636
-0.04279332 -0.07068087 0.09061614 0.029638946 0.09828638 0.003754115 -0.27063778 -0.2602111
-0.19754516 -0.059056163 -0.1898863 0.05286124 -0.118779786 -0.2686085 -0.17050281 0.1843004
0.12883201 -0.05935245 -0.06941348 -0.082621776 -0.027940897 -0.028959809 -0.16231722 0.002722713
0.06399589 -0.04560194 -0.06764825 0.07734654 -0.011485851 0.11879348 0.12604266 0.11890563
-0.06298439 0.11614745 -0.12182664 -0.18363167 -0.19017343 -0.10819146 0.1518476 0.13059431
0.0035759246 0.015257897 0.34382194 0.14379822 0.4517079 -0.38785875 -0.06341887 0.30044344
0.11626178 -0.082583115 -0.08525375 -0.22747922 0.22355379 -0.05010957 0.14841272 0.18403682
0.18565707 -0.052682 -0.41516176 -0.331214 0.13071406 0.09266483 -0.2942903 -0.10136038
0.10249722 -0.2523467 -0.022244897 0.049654633 0.079338394 0.03401485 0.13225615 -0.42094576
-0.08362261 0.14020969 0.16477774 0.3873238 -0.16155359 0.24740389 0.11048151 -0.14616232
-0.26283467 0.08264784 -0.023504423 -0.21752167 0.026116138 -0.22880958 -0.09713834 0.16074537
-0.049045436 -0.10205246 -0.20612669 0.19094732 0.13072832 -0.21718027 -0.04364086 0.0844457
-0.012644138 -0.31833196 -0.055653762 -0.08534759 0.09705289 -0.049991887 -0.2788373 0.05485615
0.15119417 -0.37851694 -0.055454414 -0.23332928 -0.011367722 -0.38477826 -0.088069245 -0.009349166
-0.08190545 0.10154159 -0.19225852 0.15011007 -0.086877495 -0.038342766 0.19858655 -0.003521529
-0.11445758 -0.18864447 -0.21570766 -0.05748254 -0.18484715 -0.10074519 0.15446612 -0.55283564
0.0040924554 -0.1781545 0.0019079605 -0.06124205 -0.20476872 -0.14346054 0.11407352 0.06789324
00000000: 0dd7 0dbd 6b97 9a3d 14e7 cc3d 20c9 a0be
00000010: 6abb 88bd a0b7 16bd 09bf a03c fea2 ddbd
00000020: 979a 1abe f648 0ebe 9802 fb3d 57e6 383d
00000030: a86a b73d e7f8 94be 5166 e13e 7ded c73e
00000040: 070a 1abd 477d ff3d 1b19 9ebd 913f 5f3e
00000050: cb6c 503e 6821 f43d c9ee 47be 92f0 88bd
00000060: 118f 2cbd 04c1 fc3a 122f a03e fca9 0bbe
00000070: e0e4 45bd 915b 9cbe 5e03 903e 8e71 7d3c
00000080: 6559 d83e 176f cdbd f26f 623d abd5 0e3e
00000090: 39ba 93bc 0292 81bc a237 c5bd 1c90 9dbe
000000a0: 12e5 c5bd aaa5 aa3d 4fa8 843d f1e2 6cbd
000000b0: 67f4 dd3d 98a3 cabd 88ad 9f3d fd0d 07be
000000c0: d50d 82bd 79bf 843e 3d7a 773b 59ce 35be
000000d0: ceff c6bd e61a 02be bfdb 1d3e 73a7 393e
000000e0: 8e6c 813d cccd 9fbd c36a 863d 595c 8f3e
000000f0: 45dd 1abe c556 c03e ec02 333e bf5d 67be
00000100: 6e81 573d e0f9 6fbd b0b1 543d 2dc6 813e
00000110: 6fa3 5fbe d23a 4f3d 0c6e ea3e cd1f 78bd
00000120: 39ab 79bc f88c 94bc 43fc f3bd dcb4 1fbc
00000130: 752d eabd b476 87be 4cda 6e3e ea3b ec3b
00000140: 1a5e abbd 31bb 87bd 87e3 133e bc5c 773e
00000150: 9aac 203e 55f2 423d 2c90 4e3e 1296 d0bd
00000160: cbff a53e 133e 813e b810 36bd e1e5 863e
00000170: 59de 54be 26b2 bd3c b96f 42bd 33cb e33d
00000180: eb76 4cbc a572 a13e 11fb 14be 63fc 603e
00000190: 9f85 3a3e cec2 f53d 3d69 4ebc ab17 09bd
000001a0: c07b 153e 6146 833d fbc8 ed3c f4ba fabd
000001b0: f4ea 2abe acd2 8ebe 2ac4 8cbe f092 46bd
000001c0: 8726 1b3e fa98 c83d d743 2c3e 3a77 f9bc
000001d0: 5998 c93c 0163 b73e 293d 373e 7555 ebbe
000001e0: 0c48 2fbd 22c1 90bd f494 b93d 60cd f23c
000001f0: 5f4a c93d 9907 763b 0991 8abe 643a 85be
00000200: 4749 4abe e0e4 71bd 8e71 42be 0785 583d
00000210: d142 f3bd 0e87 89be 4a98 2ebe 3eb9 3c3e
00000220: 8aec 033e 8e1b 73bd a828 8ebd 9b35 a9bd
00000230: 4fe4 e4bc 1f3d edbc 7c36 26be 8b6f 323b
00000240: 4710 833d 1ac9 3abd 2a8b 8abd dd67 9e3d
00000250: 272f 3cbc ff49 f33d 5411 013e cc84 f33d
00000260: f6fd 80bd b7de ed3d 3f80 f9bd f109 3cbe
00000270: d3bc 42be 7c93 ddbd f07d 1b3e 84ba 053e
00000280: 0f5a 6a3b 42fc 793c 6e09 b03e d73f 133e
00000290: 4246 e73e 6c95 c6be c1e1 81bd b9d3 993e
000002a0: a81a ee3d 5621 a9bd 8599 aebd 50f0 68be
000002b0: 49eb 643e b13f 4dbd 81f9 173e 2674 3c3e
000002c0: e31c 3e3e 15c9 57bd 1590 d4be e294 a9be
000002d0: e8d9 053e 0fc7 bd3d 38ad 96be 0896 cfbd
000002e0: 10ea d13d 9633 81be ee3a b6bc a862 4b3d
000002f0: 2b7c a23d 2853 0b3d 286e 073e 3486 d7be
00000300: 5542 abbd 2193 0f3e 7fbb 283e 4e4f c63e
00000310: 4e6e 25be 7257 7d3e 2144 e23d 93ab 15be
00000320: 4492 86be 4543 a93d 598c c0bc 00be 5ebe
00000330: 83f1 d53c 0f4d 6abe 77f0 c6bd 6f9a 243e
00000340: dee3 48bd e100 d1bd e012 53be b287 433e
00000350: a5dd 053e 8164 5ebe c2c0 32bd def1 ac3d
00000360: 5c29 4fbc 68fc a2be 33f5 63bd b8ca aebd
00000370: aac3 c63d 4bc4 4cbd c3c3 8ebe d8b0 603d
00000380: a5d2 1a3e f9cc c1be 2b24 63bd dfed 6ebe
00000390: af3f 3abc a801 c5be a65d b4bd 3f2d 19bc
000003a0: 0bbe a7bd 0af5 cf3d 6bdf 44be 74b6 193e
000003b0: d4ec b1bd 4e0d 1dbd 465a 4b3e 74c9 66bb
000003c0: bc68 eabd 042c 41be 78e2 5cbe d072 6bbd
000003d0: 9248 3dbe 7f53 cebd 5e2c 1e3e a386 0dbf
000003e0: 011a 863b 226e 36be 8814 fa3a f2d8 7abd
000003f0: e4ae 51be 52e7 12be 619f e93d 9c0b 8b3d

mlp.mlp.fc2.1.0.bias f4 [64]
0.00039790518 0.00039390198 0.00038826876 -0.00038699282 -0.000116222145 0.0003951206 0.000111781344 -0.0003911225
0.00013798056 -0.00038258504 0.00035991898 -0.00034687622 -0.00036392067 -9.534576e-05 -0.00038484845 -0.0003355736
0.00014875122 -0.00037997853 -0.00038088305 -0.00026321918 0.00039309013 0.00039726894 0.0002482544 -0.0003906422
0.00036662168 -0.0001238531 0.00039738088 -0.00015651443 0.00038329195 0.00035347257 0.00011294591 0.00013406001
0.00039766665 -0.00039994388 -0.00027317158 -0.0003713527 0.00038868526 -2.7812104e-05 0.00026615398 0.00035709311
0.0003710247 0.0003777851 0.0003770478 -0.00038595224 0.00031453304 -0.00039148598 0.00035712763 0.00038916102
0.0003520347 0.00010078858 0.00034807654 0.00039164766 0.00034020457 0.00037630886 -6.915286e-05 0.00028606676
0.00010068651 -1.0130192e-05 -0.00035861167 0.000278497 -0.00034927583 0.00037072646 0.00010579541 -0.00036753266
00000000: ee9d d039 a184 ce39 8d90 cb39 4ce5 cab9
00000010: 4abc f3b8 3028 cf39 276c ea38 930f cdb9
00000020: e0ae 1039 b295 c8b9 82b3 bc39 f0dc b5b9
00000030: 9bcc beb9 5df4 c7b8 7cc5 c9b9 edef afb9
00000040: 1afa 1b39 db37 c7b9 42b1 c7b9 ae00 8ab9
00000050: aa17 ce39 8948 d039 2428 8239 1ccf ccb9
00000060: 2137 c039 90de 01b9 8f57 d039 061e 24b9
00000070: 93f4 c839 4952 b939 60dd ec38 7692 0c39
00000080: ea7d d039 8faf d1b9 7838 8fb9 1eb2 c2b9
00000090: 74c8 cb39 0a4e e9b7 958a 8b39 3a38 bb39
000000a0: 1886 c239 7511 c639 80ae c539 a259 cab9
000000b0: e9e7 a439 5c40 cdb9 dc3c bb39 4f08 cc39
000000c0: 4c91 b839 755e d338 0b7e b639 0f56 cd39
000000d0: 7c5d b239 524b c539 2906 91b8 3bfb 9539
000000e0: a927 d338 d8f4 29b7 0b04 bcb9 3c03 9239
000000f0: 021f b7b9 105e c239 7ade dd38 66b1 c0b9

mlp.mlp.fc2.1.2.weight f4 [64]
1.0003517 0.99985695 1.0003698 0.9998928 1.0001012 0.9999616 0.99980575 0.99962217
0.99972105 0.99979776 0.999625 1.0002096 0.99993604 0.9996646 0.9996216 1.0001106
0.999986 0.9996329 0.9999016 1.0003859 0.99992317 0.9996087 0.999653 0.99986666
0.9996383 0.9999456 0.99965066 1.0003828 0.9996223 0.99961966 0.9996412 0.9996171
0.9996405 0.9996595 1.0000895 0.9996212 1.0001731 1.0001518 0.99977535 0.99961734
1.0001884 1.0003288 0.9998642 0.9996032 1.0000015 0.99989533 0.999977 0.9996174
1.0002738 0.999605 0.9996229 0.99967885 0.9996782 1.0003822 0.9996083 1.0002317
1.0003705 1.000306 0.99974257 0.99992704 1.0000402 0.99990946 0.9997696 0.999669
00000000: 860b 803f a0f6 7f3f 1e0c 803f f9f8 7f3f
00000010: 5103 803f 7cfd 7f3f 45f3 7f3f 3de7 7f3f
00000020: b8ed 7f3f bff2 7f3f 6de7 7f3f de06 803f
00000030: cffb 7f3f 05ea 7f3f 34e7 7f3f a003 803f
00000040: 15ff 7f3f f1e7 7f3f 8df9 7f3f a50c 803f
00000050: f7fa 7f3f 5be6 7f3f 42e9 7f3f 43f7 7f3f
00000060: 4ce8 7f3f 6ffc 7f3f 1be9 7f3f 8b0c 803f
00000070: 3fe7 7f3f 13e7 7f3f 7ce8 7f3f e8e6 7f3f
00000080: 71e8 7f3f afe9 7f3f ef02 803f 2de7 7f3f
00000090: ac05 803f f904 803f 47f1 7f3f ece6 7f3f
000000a0: 2c06 803f c60a 803f 1af7 7f3f ffe5 7f3f
000000b0: 0d00 803f 24f9 7f3f 7efe 7f3f ede6 7f3f
000000c0: f908 803f 1de6 7f3f 49e7 7f3f f4ea 7f3f
000000d0: e9ea 7f3f 860c 803f 54e6 7f3f 9807 803f
000000e0: 240c 803f 070a 803f 21ef 7f3f 38fb 7f3f
000000f0: 5101 803f 11fa 7f3f e7f0 7f3f 4fea 7f3f

mlp.mlp.fc2.1.2.bias f4 [64]
0.00038034382 0.0003809268 0.00038034486 -0.00037966517 -0.0003803769 0.0003808944 0.0003763188 -0.00037901103
0.00038085302 -0.00037797575 0.00038040316 -0.00038055482 -0.00038028217 0.0003399357 -0.00037824723 -0.0003803696
0.0003783615 -0.00038022906 -0.0003787601 0.0003726866 0.00038056413 0.00038051244 0.00037732822 -0.0003807909
0.00038033075 -0.00037909654 0.00038053913 0.00037444857 0.00038072022 0.00038055173 0.0003798765 0.00038021378
0.00038090796 -0.00038085686 0.00037176756 -0.00038076215 0.00037788902 -0.0003806617 0.00035805546 0.00038071984
0.00037887966 0.0003793437 0.00038042868 -0.00037966462 0.00038022717 -0.000379912 0.00038043148 0.00038081393
0.00037824162 0.0003806867 0.00038059845 0.00038087764 0.00038058465 0.0003793179 0.00038053884 0.0003765955
-0.00037998692 -0.00037984928 -0.00035924918 0.0003739825 0.0003696492 -0.00029508007 0.00037393777 -0.00037314984
00000000: e268 c739 21b7 c739 0669 c739 cc0d c7b9
00000010: 536d c7b9 c8b2 c739 a84c c539 00b6 c6b9
00000020: 3aad c739 0c2b c6b9 d970 c739 3485 c7b9
00000030: 9c60 c7b9 6639 b239 7c4f c6b9 586c c7b9
00000040: d25e c639 7b59 c7b9 5294 c6b9 2665 c339
00000050: 7486 c739 847f c739 23d4 c539 e4a4 c7b9
00000060: 2167 c739 7ac1 c6b9 1983 c739 a351 c439
00000070: 679b c739 ca84 c739 292a c739 6e57 c739
00000080: 9ab4 c739 bead c7b9 cce9 c239 08a1 c7b9
00000090: 681f c639 8c93 c7b9 64b9 bb39 5a9b c739
000000a0: 5ea4 c639 a6e2 c639 4674 c739 b90d c7b9
000000b0: 3a59 c739 ed2e c7b9 a674 c739 fba7 c739
000000c0: bb4e c639 e796 c739 0f8b c739 88b0 c739
000000d0: 3589 c739 30df c639 0f83 c739 cb71 c539
000000e0: fb38 c7b9 8226 c7b9 9c59 bcb9 1513 c439
000000f0: 7acd c139 fab4 9ab9 140d c439 53a3 c3b9
