train/mappo/results/MPE/formation_hd_env/rmappo/check/run38/models/actor.pt (torch, 147692 bytes, 22 tensors)

base.feature_norm.weight f4 [18]
00000000: e09a 683f fb55 7f3f 877d 7a3f aaa9 6c3f
00000010: 1c84 833f 47b9 843f a43b 893f 2ae7 823f
00000020: a3fd 903f 053d 8b3f 1f3e 7d3f 455d 7d3f
00000030: e482 803f 0fb6 703f abc0 7f3f a6ba 6e3f
00000040: b0b1 8b3f 671a 863f
0.9086132 0.9974057 0.9784779 0.92446387 1.0274692 1.0369042 1.0721326 1.0226796
1.1327404 1.0877997 0.98922914 0.98970443 1.0039945 0.940278 0.99903363 0.9325355
1.0913601 1.0476807

base.feature_norm.bias f4 [18]
00000000: b8d5 bf3c 3f14 04bd 8108 2abc 0cb9 413d
00000010: e62e 3abd d143 65bc 0062 debc 9ff7 a83b
00000020: e64f 97bd 6a60 a13c 0824 a4bb e4cb 28bd
00000030: da0c 85bc 3ce2 4f3d c34f 5fbd c310 883c
00000040: 09c4 9a3b 2224 13ba
0.023417339 -0.03224587 -0.010378004 0.047295615 -0.045454882 -0.0139932195 -0.02714634 0.005156472
-0.07388286 0.019699294 -0.005009178 -0.04121007 -0.01624148 0.050752863 -0.054519426 0.016609555
0.0047230762 -0.0005612989

base.mlp.fc1.0.weight f4 [64, 18]
00000000: 6519 a2bc 9fe8 1fbd 01d3 abbe a95f abbc
00000010: fef1 d93b 4c29 75bd 7db4 993d ad87 3c3e
00000020: 5ac9 01bf 32a9 0f3e 37df 703e b138 ce3c
00000030: a5a8 203e 7055 363e 6cb4 f6bd b322 5bbe
00000040: 5c00 98be f294 863d 3dc3 cfbd f07f 063e
00000050: e8ab 3cbe f240 ec3d 4c44 0d3e df4a 043e
00000060: e1c4 34be 6841 7f3e 6a55 cbbe 6500 d43d
00000070: d28c b33d 29e9 3a3e fb54 e4bd cb90 d2bd
00000080: f554 1bbe ca87 34bd bac7 753e c2ef 4ebe
00000090: 3489 1bbe 97c4 25be 1ab6 d03c a242 b33c
000000a0: dfa2 213e 2517 b53d c56f cabe bdd0 75be
000000b0: 9759 b7be a6b1 a23d 36ef 863e 2471 e73e
000000c0: 284b c53e be2f 813d d5f9 243e f788 9ebd
000000d0: a6b5 2cbc 521b f13d e232 163d 7720 153e
000000e0: b23c 35bf 9b59 86be 35dd d03e fb1a 933e
000000f0: 5e62 a03d 3c1c 8f3e 081b 17bd 6e94 453e
00000100: df29 bdbe c03e 5dbe b65b d83d ac53 02be
00000110: d118 ea3d 855a 58bd 4215 8abe c070 153e
00000120: b84c 50bd f566 b6bd 65af 2ebe d951 0cbe
00000130: 9bc3 abbe 6cda cd3d c314 033e 1daa 37be
00000140: e1c1 523d d31b 57be 325a 45be f3e7 863d
00000150: 83d2 58be 1b9d 2a3e efd5 32be 9860 993e
00000160: f96c 0f3e 872b 3abe a362 b43e ce24 03be
00000170: 09a6 e83d bae8 18be 002d 813e d770 4b3d
00000180: 515e f13d 0d8d b1be b3c0 d7be 9324 823e
00000190: b2a5 27be cd0a c93e 571d 72bc 3d23 043d
000001a0: 362a b73e 38a1 2ebe e4de 483c 9c37 943c
000001b0: 2ef7 5b3e c2ee 8bbe 33f8 623e 01d6 3f3c
000001c0: 923c b7bd acea 15be 35d3 7c3e 7b30 56be
000001d0: 3737 07be 9f78 af3e 58fb 123e c4b3 86be
000001e0: 94ac a3be d04f 453d 9129 013e eadf 1bbe
000001f0: f99c a13d ddd9 e3bd bdc8 ac3c 9611 833e
00000200: f3c2 8bbd 6f98 03be 9e90 d63d a2c6 a4be
00000210: 3796 0d3e b609 933e 809c 85be 9867 d8bd
00000220: 310a 243d d4a2 833c 9a48 37be 53b2 cd3d
00000230: f438 173e e331 34be ccf2 49be 725f b23d
00000240: 1794 a83e 0596 8bbe 4cea af3d af93 38be
00000250: 3247 713e eaee 10be edb6 cf3e 8ba8 903e
00000260: 91dc 973a 8930 4c3e b07f 513e 4adb 813e
00000270: 2918 2f3e 6ec7 20bd 58b2 11be 5936 7abe
00000280: 1576 15bf 7862 bbbd b48d 0abe 19ab cb3e
00000290: eeaa 8c3e 6b4f 8fbc 253e 37be 6aac 773d
000002a0: 7246 673d d2f7 6c3e 0399 9b3e 4776 7abe
000002b0: a13e dbbd 90fd f43d 3e30 2c3e e70a 683e
000002c0: 35c8 ac3c 88a4 f0bd 9cbc 053d 9e7b 4f3d
000002d0: a2a0 683d 427c ba3d c30c 7f3e 85ef c0bb
000002e0: 5e6f 073e 6408 ff3e 837c 183e 4295 9d3e
000002f0: 2061 293e 250d 8c3e 9248 1f3e 8e8f 0a3e
00000300: 7535 11be 12e3 34bc 3d1e 2e3e d2aa a53e
00000310: 41f1 70be 4035 80be baa6 e8bd e68d d5bd
00000320: 9ba7 54bb 549f bdbe e421 93be c807 033e
00000330: 6726 643d 1e4f 96bd a068 2cbe ad8c 93bd
00000340: d5ef 9a3e b13f 81be 00a2 d73e 793d a5be
00000350: 31dc 763e 5081 103d ed54 03bd 3f47 d33d
00000360: 636f 97be 2711 adbc 0d00 a13d 6f3c 1c3e
00000370: 4192 8c3d d691 173f 9a02 61be 3f82 b53d
00000380: c11c 263e 507a 8ebd 3873 98be 5abd b5bc
00000390: 78ba 513e 72d5 80be e206 ecbd 7a13 ddbd
000003a0: 1924 cb3e ce5f be3d 3ddf 98bb df02 c8bd
000003b0: c52a 9fbd 1270 163d bf2e 613e e91b 123d
000003c0: d90f b23e 5803 c43a 2de9 89be d016 9cbd
000003d0: 9a09 9cbe ecfd 423e 3dba b1be 75c7 c5be
000003e0: fdc7 a43c 7fb6 043e 768f a33d f116 463e
000003f0: da9b 503e cd38 303e 4a9b b33e 776b 023e
-0.0197875 -0.039040204 -0.3355942 -0.020919638 0.006651162 -0.059853837 0.075051285 0.18411131
-0.50697863 0.14029387 0.2352265 0.025173517 0.15689333 0.1780603 -0.120461315 -0.21399955
-0.29687774 0.06571378 -0.101446606 0.13134742 -0.18424952 0.11535825 0.13795584 0.12919186
-0.17653228 0.24927294 -0.39713603 0.10351638 0.08767094 0.18253006 -0.11149021 -0.10281523
-0.15169127 -0.04407481 0.24001971 -0.20208648 -0.15189058 -0.16188274 0.025477458 0.021882359
0.15784787 0.08842305 -0.39538398 -0.24005409 -0.3581054 0.0794404 0.26354378 0.45203507
0.38533902 0.06307934 0.16110928 -0.07740968 -0.010541355 0.11772789 0.03666962 0.14563166
-0.7079574 -0.2624024 0.40793768 0.28731522 0.07831262 0.2795123 -0.036891013 0.19294903
-0.36946008 -0.21605968 0.105643675 -0.12727231 0.114305146 -0.0528207 -0.26969343 0.14593792
-0.050854415 -0.08906356 -0.17059095 -0.13703097 -0.33547673 0.10051426 0.12800889 -0.17935987
0.05145443 -0.21006708 -0.19272688 0.065872096 -0.21174054 0.16661493 -0.17464422 0.29956508
0.14006414 -0.18180667 0.35231504 -0.12807009 0.11359794 -0.14932528 0.25229645 0.04966816
0.117855676 -0.34677926 -0.42139205 0.2541853 -0.16371801 0.39266053 -0.014777503 0.03226017
0.35774392 -0.17053688 0.0122601725 0.018092923 0.2148101 -0.27330595 0.22164993 0.011708737
-0.089471 -0.14640301 0.24689944 -0.20916931 -0.13204657 0.34271714 0.14353693 -0.26309025
-0.31967604 0.04817182 0.12613513 -0.15222135 0.07891268 -0.111255385 0.021091813 0.25599355
-0.06824293 -0.12851118 0.10476802 -0.32182795 0.13826834 0.28718346 -0.26095963 -0.10566634
0.04004878 0.016068853 -0.17898789 0.10043778 0.1476782 -0.17597155 -0.19721526 0.08709611
0.32925484 -0.27262893 0.085896105 -0.18025087 0.23562315 -0.14153638 0.4056925 0.28253588
0.001158612 0.1994039 0.20458865 0.25362617 0.1709906 -0.03925269 -0.14228189 -0.24434794
-0.58383304 -0.09149641 -0.13530618 0.39778975 0.2747416 -0.017493924 -0.178948 0.06046716
0.056463666 0.23141411 0.30390176 -0.24459182 -0.10705305 0.11962426 0.16815278 0.22660409
0.02109156 -0.11750132 0.032650575 0.050655 0.056793816 0.091057315 0.24907212 -0.005887928
0.13226077 0.4981109 0.14891247 0.30777937 0.16540956 0.27353778 0.15555027 0.13531324
-0.14180548 -0.011040466 0.17003722 0.32356888 -0.23529531 -0.25040627 -0.113599256 -0.104274556
-0.0032448533 -0.3703562 -0.28736794 0.12795937 0.055700686 -0.07339309 -0.16836786 -0.07204566
0.30261102 -0.25243905 0.42115784 -0.32273462 0.24107434 0.035279572 -0.032063413 0.103163235
-0.2957717 -0.021126343 0.07861338 0.15257429 0.06863833 0.59206903 -0.21973649 0.08862733
0.16221906 -0.06956923 -0.29775405 -0.022185016 0.20481288 -0.25162846 -0.1152475 -0.107947305
0.39675978 0.09295617 -0.004665284 -0.097661726 -0.077718295 0.036727972 0.21990488 0.03567115
0.34777716 0.001495461 -0.26935712 -0.07621539 -0.30476075 0.19042176 -0.347124 -0.38628736
0.020114893 0.12960242 0.079863474 0.19344689 0.20371953 0.17209168 0.35079414 0.12736307

base.mlp.fc1.0.bias f4 [64]
00000000: a6ed a43d aa23 cebc 85ed 7f3a fe8a 80bd
00000010: 6c47 943c 670d 1ebc 0564 aa3c c009 36bd
00000020: c2eb adbd 9bce 5cbd 1ab8 63bc cf31 c7bc
00000030: 2daf 073b 37e6 aebd 120e 573c 1873 263d
00000040: 963e bb3b 6c07 ad3c 26e5 123d 9b4a afbc
00000050: 725a bdbb 0ef4 cc3b e607 173d db4a 30bd
00000060: a8f3 573c db56 4ebc ba1c d1b9 82c8 6e3c
00000070: 295c 743c 1688 e43c 4322 3f3d 38fb d23d
00000080: 915c a9bc 1a7f d6bc 5eda 58bc 2b9a 1f3d
00000090: a91c 3b3c d0ed b1bd e8b1 993c 0d7f b53d
000000a0: 0e34 4eba 0490 de3a d6c6 ae3d 6eb6 92bc
000000b0: 74e9 243d 5120 ccbc 4a97 d4bc 4e9a 9a3d
000000c0: 410d 88bd 18f5 28ba 95c4 a139 82f3 9d3c
000000d0: f24c 12bd 241e b93d e1ad fa3b 3303 a63c
000000e0: fc6e 09bd 00d4 c5bc 4924 513c 7496 17bb
000000f0: 0fa5 d83c 54f1 933d b686 00bb b4ec a43d
0.0805314 -0.02516349 0.0009762871 -0.06276511 0.018100463 -0.00964675 0.020799646 -0.044442892
-0.08492233 -0.05390797 -0.013898874 -0.024315743 0.0020703778 -0.08540004 0.013125913 0.040637106
0.005714248 0.021121703 0.035863064 -0.02139788 -0.005778604 0.0062546795 0.036872767 -0.043040138
0.013180651 -0.01259395 -0.0003988499 0.014574172 0.014914551 0.027896922 0.046663534 0.103018224
-0.020674022 -0.026183654 -0.013235657 0.038965385 0.011420407 -0.08687937 0.01876159 0.08862124
-0.0007866033 0.0016980176 0.08534019 -0.017909255 0.0402617 -0.024917753 -0.025951046 0.075489625
-0.06643153 -0.0006445213 0.00030854778 0.019281153 -0.035717912 0.09038952 0.0076501225 0.020265197
-0.03355311 -0.024148941 0.012764999 -0.0023130449 0.026445894 0.07223764 -0.0019611544 0.0805296

base.mlp.fc1.2.weight f4 [64]
00000000: 1689 833f 355e 7e3f 50f5 713f 1478 823f
00000010: 6274 8f3f 11b0 7b3f c645 8e3f f5a5 813f
00000020: 59b5 7a3f f5ad 823f a106 7f3f f828 793f
00000030: 4a5e 863f 0907 803f 47eb 773f 3d6f 803f
00000040: 4ea2 8b3f de70 853f 5c25 883f bd98 7b3f
00000050: 818b 8b3f 0797 783f e6bc 703f f6f8 6d3f
00000060: e351 7e3f c2b1 753f daf6 823f 7ec5 883f
00000070: 06ab 883f a86a 803f 70bb 703f f18f 813f
00000080: ac87 813f db59 7d3f 8c1d 733f a36d 763f
00000090: 9f0f 843f 7cae 7a3f 606c 893f 727e 873f
000000a0: f8ab 843f c054 793f b1a5 7f3f b857 803f
000000b0: 1b97 793f a6b5 853f 4a43 873f e5a6 823f
000000c0: f183 793f de34 883f 6d2d 723f 5f63 803f
000000d0: 222f 8b3f 4a56 803f 5e86 843f 6c38 8a3f
000000e0: d39e 7c3f 6ca8 803f d9cc 793f 6d1e 833f
000000f0: 4bf9 913f 84e0 763f eb9d 823f cd41 923f
1.027621 0.993625 0.9451494 1.0192895 1.1207392 0.9831553 1.1115043 1.0128771
0.97932965 1.0209337 0.9961949 0.9732814 1.0497525 1.0002147 0.9684338 1.0033947
1.0908906 1.0425069 1.0636401 0.98279935 1.0901948 0.9710545 0.94038236 0.9295801
0.993437 0.9597436 1.0231583 1.068527 1.0677192 1.0032549 0.94036007 1.0122052
1.0119529 0.98965234 0.9496696 0.9626104 1.0317267 0.9792249 1.0736198 1.0585463
1.0364981 0.97394943 0.998622 1.002677 0.97496194 1.044606 1.056741 1.0207182
0.9746695 1.0641134 0.94600564 1.0030326 1.0873759 1.0026333 1.0353506 1.0798469
0.98679847 1.0051398 0.975782 1.024366 1.1404203 0.96436334 1.0204443 1.1426331

base.mlp.fc1.2.bias f4 [64]
00000000: 09e8 5a3d 3af5 edbb 5ed7 253d da35 9abc
00000010: 4b1a 7dbb 4992 c8bc 1b8a 0dbd 5fd3 87bd
00000020: c0c7 27bd f7a5 1bbd fd90 23bc fc05 cebc
00000030: 4a77 30bd 67de e8bc b1a4 0a3d 6f61 003d
00000040: 3bd5 12bb c8f4 4c3c 59ce a33c 47e5 0c3b
00000050: 81fc 05bc de3f b439 5c48 6c3d f92b 01bd
00000060: 9a52 9e3b 18ac 6d3c a321 08bd 09e2 1cbb
00000070: 4f5f 40bc 3476 6d3d 182b 023d 2782 1e3d
00000080: b2eb e3bc 72f0 083c 3c7d 7cba 3124 8d3c
00000090: 5131 1b3c 71e0 64bd 8980 cc3c e696 b83d
000000a0: f7b0 eabb 9d9a 80bc 8ef8 b63d ebe9 17bd
000000b0: 6be5 ea3c a2f0 e7bc 0ad1 49bc 3ddb 763c
000000c0: 7401 06bd cfb3 19bd 87b8 09bb 2027 873c
000000d0: 6fb3 dcbc ee60 e13c 3a33 9bbc 1eee 45bc
000000e0: af1a 42bd f68e ccbc 2be7 1abc a76c 833c
000000f0: dee8 2c3d 4b51 993d 55fe 85bb 6a74 9b3d
0.053443942 -0.0072618993 0.040488593 -0.018824507 -0.0038620408 -0.024483817 -0.034555536 -0.06632113
-0.04096198 -0.038000073 -0.009983298 -0.025149338 -0.043082513 -0.028426362 0.03384847 0.03134292
-0.0022404927 0.012509532 0.019995855 0.0021498965 -0.008177877 0.0003437986 0.057686195 -0.031536076
0.004831624 0.014506362 -0.033235203 -0.0023938438 -0.011741473 0.057974055 0.03177938 0.03869834
-0.02782235 0.008358108 -0.00096316985 0.017229171 0.009472207 -0.055878107 0.024963634 0.090131566
-0.007162209 -0.015698725 0.08934127 -0.037088316 0.028673848 -0.028312985 -0.012317905 0.015066919
-0.03271623 -0.037524994 -0.0021014528 0.016498148 -0.02694103 0.02751204 -0.018945325 -0.012080697
-0.04738873 -0.024970513 -0.009454529 0.01604302 0.042214267 0.074862085 -0.0040891566 0.075905636

base.mlp.fc_h.0.weight f4 [64, 64]
00000000: 2024 093d 93ad 17be 0b51 243d bab4 213e
00000010: 5ee3 85be be42 3c3e 8e2c c9bd b0b6 36be
00000020: 3a72 7bbe 83e7 563e f7fa 713d 5cc5 0cbf
00000030: b4eb a9be 71c9 9ebd 096e 82be b829 6e3e
00000040: f834 11bd a454 943e 7be2 2c3e bd64 bdbb
00000050: 086f abbd 17ff 993c 5ff3 c13e 3ced b9be
00000060: 53e4 20be bdc6 013e 22b4 90be 8804 243e
00000070: b8de 933e 8056 30bb 3433 b6bd c764 09be
00000080: 7fe6 d83e 1a25 99bb b8f8 043c 73d1 26be
00000090: 20b2 703c c225 e8be cc68 c3be 22f9 0cbd
000000a0: bf71 29bd 27f3 833d 68a3 19bd 8df3 4bbe
000000b0: 5107 ad3e f6b5 1f3b 74e0 30bd 9a0a 583e
000000c0: 3c43 bfbd 9b34 3d3d e15a a03e 8b29 9cbe
000000d0: 11a8 763e 6a95 b73d f3a1 743e 3689 2ebe
000000e0: ae6d 64be 463b 093c 22f1 233e 847b 9f3d
000000f0: ca2d 24be 6b29 d7bd fd68 2ebe a78e 0ebe
00000100: 7f1e bc3e 9075 2ebd 4530 243d 885e 4fbe
00000110: 33a0 eb3d 7612 1d3f fb3b 1ebf 3434 e7bd
00000120: e36b aebd 7b0d fe3c 1e66 97be 0cb3 253d
00000130: 286d 6a3d 4716 0f3c 30f0 64be b442 223d
00000140: 6d8d 093d 2f71 48be 5b24 043e f678 113d
00000150: 0380 013e 37d9 a9bc 9565 9e3d 534a 8bbd
00000160: d8ff 47bc 8a10 dbbe 630c c83d 2a09 9b3e
00000170: 99cb 40be 7932 613e 2680 873d 31c0 b6bb
00000180: 79fa 6dbe a0cf dd3d 2397 aebd 7cfd fe3d
00000190: 8bca 82be 86f5 bd3d 1898 613e 119e 1b3e
000001a0: bab2 a3be f0a5 123d 2792 733e 25af 58be
000001b0: 87b0 d13e 9e1d 79be 5966 033e 3269 d73d
000001c0: 8058 1b3d 5b4d 003e a7f0 0f3d 67bc 983e
000001d0: 9f3a 71bd 5dc7 b3be 1dfe 103e cb3a 7cbe
000001e0: 00f7 c9bd c701 dcbd e939 df3d 8256 4f3e
000001f0: a5f4 1d3e 1802 1cbe b07c 8c3e 4964 963b
00000200: 2e70 94be f470 7c3e 876c 5a3e a7f7 9fbd
00000210: 52a9 863c 3897 dbbd 6712 8fbc 5907 223e
00000220: 852f 8cbe 06b2 673e cb50 3fbe 4420 25be
00000230: 417a ee3e fb37 0b3d 9616 b4bd aa2a 0f3c
00000240: a58d dcbd b8e4 d63e 4ce9 293e 30d1 e53e
00000250: 7237 393e d42d 69be 16b4 a33e 740f a93e
00000260: 9607 583e aadb 7c3e 2c5f 763e 8403 4c3e
00000270: 4c29 e0bd cee1 1fbd f7c6 1cbe 9b14 26be
00000280: fd2f d03c 236c 20bb bb59 98be 08ed 263e
00000290: c070 eabb 232d 2bbe 725e 69bd ed51 f53d
000002a0: 99c6 f0bb 8a09 2c3c def5 a13e b2c7 d53d
000002b0: 4033 f3bd 165b 463d 1072 69be 2810 823d
000002c0: a103 1bbe dcf6 103e 17fe 8a3d aadc 9a3e
000002d0: 02eb 1bbe 74a2 643e a8b6 bf3e 93e9 8dbc
000002e0: 2a95 d23b c3c7 edbd 0548 48be f248 01bf
000002f0: 1e05 c63d 9b7b 8fbe bc67 fe3d a47b 583e
00000300: 134e fb3d a0f4 a7be 9e2e 84bd 7347 a73b
00000310: 00ed c2bd 44eb 99be cca3 1a3d 9a31 f53d
00000320: e332 71be 33ac de3e c087 45be edba 17be
00000330: 5e5c 11bd f7f0 8abc 10d0 833e 5fea f4be
00000340: 7259 41bd 0f90 85bd 7081 1cbe 248c 273e
00000350: 83ee fcbd a686 83bc bf02 043e 2686 a5bd
00000360: f308 ed3e a9f7 60be bd64 a2be 9274 1abd
00000370: 2a35 1fbe 642a f13d 5d45 e9be 4677 53bd
00000380: 8f02 df3d 6141 35be c658 b73e 3f17 403d
00000390: 3214 8c3c 1310 9c3e a331 58be 448d 0bbe
000003a0: c84b 6b3e 81ec 33be c0b5 4b3e ee99 bdbe
000003b0: 2981 30bd 6788 493e 9084 94bd cd90 2cbe
000003c0: 6a9d ee3d 3fb6 233c fd47 0bbe a87b fc3e
000003d0: ea52 7c3d 953d c1bd 7155 d03d 6b4c 483c
000003e0: 94b1 693c 8b31 69be 7618 423e 004b 923e
000003f0: 2047 a23d 714d b3bd 52a7 48be 82d5 51be
0.033481717 -0.14812307 0.04011635 0.15791598 -0.2615003 0.18384835 -0.09822951 -0.17843127
-0.24555293 0.20986752 0.05907723 -0.54988647 -0.3318764 -0.07753266 -0.25474575 0.23258102
-0.035450906 0.28970826 0.1688327 -0.005779831 -0.08370787 0.018798394 0.3788099 -0.36313808
-0.15712099 0.12673469 -0.2826243 0.16017354 0.28880858 -0.0026907027 -0.08896485 -0.1341735
0.42363355 -0.0046736123 0.00811594 -0.16290836 0.014690906 -0.45341307 -0.3816589 -0.03441728
-0.041368242 0.06442862 -0.037509352 -0.19917126 0.33794644 0.0024369932 -0.043182805 0.21097794
-0.09338996 0.046192747 0.31319335 -0.30500445 0.2408755 0.08964045 0.23889904 -0.1704453
-0.22307464 0.008375948 0.16009954 0.077872306 -0.16033092 -0.10505947 -0.17032237 -0.13921605
0.36742017 -0.042592585 0.040085096 -0.20250905 0.11505165 0.61356294 -0.6181027 -0.11289254
-0.085166715 0.031012287 -0.29570097 0.040453956 0.057233006 0.008733339 -0.2235725 0.039614394
0.03358214 -0.19574426 0.12904494 0.035515748 0.12646489 -0.020733459 0.07734219 -0.068012856
-0.012206994 -0.42786056 0.097679876 0.3028043 -0.18827666 0.2199191 0.06616239 -0.00557711
-0.23240079 0.10830617 -0.08524921 0.12450692 -0.25545153 0.092753455 0.22030675 0.15197016
-0.31972295 0.03580278 0.23786221 -0.21160562 0.40954992 -0.24327704 0.12832011 0.10518111
0.037926197 0.12529509 0.035141613 0.2983124 -0.058893796 -0.3511304 0.14159437 -0.24631803
-0.09861565 -0.107425265 0.10899717 0.20247844 0.15425356 -0.15235174 0.2743888 0.0045895916
-0.28991836 0.24652463 0.21330462 -0.07810908 0.01643816 -0.10722202 -0.01746483 0.15823115
-0.27380005 0.22626504 -0.18683164 -0.1612559 0.46577647 0.033988934 -0.087933704 0.008738199
-0.10769204 0.41971374 0.16592902 0.4488616 0.18087557 -0.22771388 0.31973332 0.33019602
0.21096644 0.2469317 0.24059743 0.19923216 -0.10945377 -0.039033704 -0.15310274 -0.16218798
0.025413508 -0.0024478517 -0.2975596 0.16301358 -0.007154554 -0.16716437 -0.056974836 0.11978517
-0.0073478934 0.010500321 0.31632894 0.104384795 -0.118750095 0.04842671 -0.22797418 0.06350738
-0.15138103 0.1415667 0.06786745 0.30246478 -0.15226367 0.22327596 0.37444043 -0.01732329
0.006426473 -0.11610367 -0.19558723 -0.5050193 0.09668945 -0.2802399 0.124221295 0.21140915
0.12270751 -0.32803822 -0.06454204 0.005104953 -0.095178604 -0.30062306 0.037753865 0.11972351
-0.23554568 0.43490753 -0.19290066 -0.148174 -0.03548848 -0.016960604 0.25744677 -0.4783506
-0.047204442 -0.065216176 -0.15283751 0.16362053 -0.1235018 -0.016055416 0.12891673 -0.080822274
0.4629589 -0.21969475 -0.31717482 -0.037708826 -0.15547624 0.117756635 -0.45560732 -0.05162742
0.1088916 -0.17700721 0.35809916 0.04689717 0.017099474 0.30481014 -0.21112685 -0.13628107
0.22978127 -0.17570688 0.19893551 -0.37031502 -0.043091927 0.1968094 -0.07251847 -0.16852112
0.11651118 0.009992181 -0.1360168 0.49313092 0.06160251 -0.09435574 0.10172547 0.012225251
0.014263529 -0.22772805 0.18954644 0.28572845 0.07923722 -0.08755005 -0.19595078 -0.20491603

base.mlp.fc_h.0.bias f4 [64]
00000000: 0000 0000 0000 0000 0000 0000 0000 0000
00000010: 0000 0000 0000 0000 0000 0000 0000 0000
00000020: 0000 0000 0000 0000 0000 0000 0000 0000
00000030: 0000 0000 0000 0000 0000 0000 0000 0000
00000040: 0000 0000 0000 0000 0000 0000 0000 0000
00000050: 0000 0000 0000 0000 0000 0000 0000 0000
00000060: 0000 0000 0000 0000 0000 0000 0000 0000
00000070: 0000 0000 0000 0000 0000 0000 0000 0000
00000080: 0000 0000 0000 0000 0000 0000 0000 0000
00000090: 0000 0000 0000 0000 0000 0000 0000 0000
000000a0: 0000 0000 0000 0000 0000 0000 0000 0000
000000b0: 0000 0000 0000 0000 0000 0000 0000 0000
000000c0: 0000 0000 0000 0000 0000 0000 0000 0000
000000d0: 0000 0000 0000 0000 0000 0000 0000 0000
000000e0: 0000 0000 0000 0000 0000 0000 0000 0000
000000f0: 0000 0000 0000 0000 0000 0000 0000 0000
0.0 0.0 0.0 0.0 0.0 0.0 0.0 0.0
0.0 0.0 0.0 0.0 0.0 0.0 0.0 0.0
0.0 0.0 0.0 0.0 0.0 0.0 0.0 0.0
0.0 0.0 0.0 0.0 0.0 0.0 0.0 0.0
0.0 0.0 0.0 0.0 0.0 0.0 0.0 0.0
0.0 0.0 0.0 0.0 0.0 0.0 0.0 0.0
0.0 0.0 0.0 0.0 0.0 0.0 0.0 0.0
0.0 0.0 0.0 0.0 0.0 0.0 0.0 0.0

base.mlp.fc_h.2.weight f4 [64]
00000000: 0000 803f 0000 803f 0000 803f 0000 803f
00000010: 0000 803f 0000 803f 0000 803f 0000 803f
00000020: 0000 803f 0000 803f 0000 803f 0000 803f
00000030: 0000 803f 0000 803f 0000 803f 0000 803f
00000040: 0000 803f 0000 803f 0000 803f 0000 803f
00000050: 0000 803f 0000 803f 0000 803f 0000 803f
00000060: 0000 803f 0000 803f 0000 803f 0000 803f
00000070: 0000 803f 0000 803f 0000 803f 0000 803f
00000080: 0000 803f 0000 803f 0000 803f 0000 803f
00000090: 0000 803f 0000 803f 0000 803f 0000 803f
000000a0: 0000 803f 0000 803f 0000 803f 0000 803f
000000b0: 0000 803f 0000 803f 0000 803f 0000 803f
000000c0: 0000 803f 0000 803f 0000 803f 0000 803f
000000d0: 0000 803f 0000 803f 0000 803f 0000 803f
000000e0: 0000 803f 0000 803f 0000 803f 0000 803f
000000f0: 0000 803f 0000 803f 0000 803f 0000 803f
1.0 1.0 1.0 1.0 1.0 1.0 1.0 1.0
1.0 1.0 1.0 1.0 1.0 1.0 1.0 1.0
1.0 1.0 1.0 1.0 1.0 1.0 1.0 1.0
1.0 1.0 1.0 1.0 1.0 1.0 1.0 1.0
1.0 1.0 1.0 1.0 1.0 1.0 1.0 1.0
1.0 1.0 1.0 1.0 1.0 1.0 1.0 1.0
1.0 1.0 1.0 1.0 1.0 1.0 1.0 1.0
1.0 1.0 1.0 1.0 1.0 1.0 1.0 1.0

base.mlp.fc_h.2.bias f4 [64]
00000000: 0000 0000 0000 0000 0000 0000 0000 0000
00000010: 0000 0000 0000 0000 0000 0000 0000 0000
00000020: 0000 0000 0000 0000 0000 0000 0000 0000
00000030: 0000 0000 0000 0000 0000 0000 0000 0000
00000040: 0000 0000 0000 0000 0000 0000 0000 0000
00000050: 0000 0000 0000 0000 0000 0000 0000 0000
00000060: 0000 0000 0000 0000 0000 0000 0000 0000
00000070: 0000 0000 0000 0000 0000 0000 0000 0000
00000080: 0000 0000 0000 0000 0000 0000 0000 0000
00000090: 0000 0000 0000 0000 0000 0000 0000 0000
000000a0: 0000 0000 0000 0000 0000 0000 0000 0000
000000b0: 0000 0000 0000 0000 0000 0000 0000 0000
000000c0: 0000 0000 0000 0000 0000 0000 0000 0000
000000d0: 0000 0000 0000 0000 0000 0000 0000 0000
000000e0: 0000 0000 0000 0000 0000 0000 0000 0000
000000f0: 0000 0000 0000 0000 0000 0000 0000 0000
0.0 0.0 0.0 0.0 0.0 0.0 0.0 0.0
0.0 0.0 0.0 0.0 0.0 0.0 0.0 0.0
0.0 0.0 0.0 0.0 0.0 0.0 0.0 0.0
0.0 0.0 0.0 0.0 0.0 0.0 0.0 0.0
0.0 0.0 0.0 0.0 0.0 0.0 0.0 0.0
0.0 0.0 0.0 0.0 0.0 0.0 0.0 0.0
0.0 0.0 0.0 0.0 0.0 0.0 0.0 0.0
0.0 0.0 0.0 0.0 0.0 0.0 0.0 0.0

base.mlp.fc2.0.0.weight f4 [64, 64]
00000000: 62f1 b3bc 2abd 36be d7d1 3d3d caf2 403e
00000010: ddb1 38be 7c2b 073e 108d 2ebe 5c6a 16be
00000020: d195 74be c8a8 973e 8f86 813d 3bb9 03bf
00000030: cc32 a2be c135 82bd 37cd 83be 1160 313e
00000040: 42db 243d d6ba be3e 9e39 233e 23ad d23c
00000050: 50a7 e9bb 3de1 6fbc be24 e23e 7e04 94be
00000060: df91 21be b751 ba3d 442d b0be 2ca7 553e
00000070: cd9f cc3e 245d fabd e944 cfbd 13fd 68be
00000080: 8531 e13e a57c e43c 8aee 463d a5e6 2ebe
00000090: d0e7 1f3c adce e9be f045 d3be 67f1 88bd
000000a0: 975b a43c e15c 5ebc 0ee9 163b 6972 83be
000000b0: 2a1a 943e 3aae 823d aef4 e9bd 9cec 583e
000000c0: 2497 3bbe 290d f13d 0dd4 be3e da5d bfbe
000000d0: 1ab4 4f3e a84e 703d f851 583e 6ca6 32be
000000e0: a1a5 5fbe 7938 6c3d cba0 853d 4caa ef3d
000000f0: 8851 2bbe 5a68 95bd 557a 0ebe 7734 2cbe
00000100: 7152 b53e 2658 0cbd bf1c a13d 31cf 16be
00000110: 8fb6 073e d03c 193f 6270 36bf c7bb 6abe
00000120: d3b3 38be e322 803d 5a6a 57be 404c ac3d
00000130: d6a9 613e 0458 36bb 95c3 2dbe 379d 9ebd
00000140: 9027 703d c14a 87be 73e5 ab3d b8e5 ec3c
00000150: b0fa 223e 4a4c c6bb bb2b 103d 46b3 92bd
00000160: 9328 18bd a566 cebe f953 d83d 3579 f03e
00000170: 3429 6bbe 6497 203e 10ec 1c3c c002 51bd
00000180: 66a5 38be 1cfe f73d c9af 28bd e41a 133e
00000190: ca07 02be 1bf3 b73d 8ed0 733e db24 ac3d
000001a0: 8700 9cbe 440f 2c3d 2217 473e cb8b 8abe
000001b0: d682 c83e 9b40 96be 2f0c 393e 429a 093e
000001c0: d071 28bd a43e 1f3e 72a5 e53d 7c08 ab3e
000001d0: eb55 0dbe 6e4f a8be dd8e ce3d c3df 54be
000001e0: d580 11be a546 8fbd 92c1 393d 8dbb 683e
000001f0: 3eb9 393e 8bc8 1cbe dff5 9b3e bf39 d0bd
00000200: 7caf a0be a929 853e 222a 673e 6074 63bd
00000210: fd7d 6d3d 569c a6bd 4b3a 10bd 6553 113e
00000220: fa1c 84be e1cd 5e3e 1e6e dabd d657 28be
00000230: 9084 043f ad6e 8f3d ef47 e8bd e278 f0bc
00000240: b934 10bd a16d e43e 80cb ea3d 93b8 e93e
00000250: aaf5 103e 2271 8ebe 1b3a a73e 3a8a 973e
00000260: 9e26 683e 8ace 5f3e 813c 2e3e f0a1 923e
00000270: 1d47 60bc 5adb dbbd 2980 06be 8455 80be
00000280: 403d c83c d063 0cbc 7cde 88be 689e 433e
00000290: 0fb7 2dbb 04bf 39be a2f0 31bd 8551 143e
000002a0: c42a 71bb 8eee 16bd e98b a83e 3428 573d
000002b0: 4c6b 1bbe ac7e b03c 2bc6 7abe 2d26 453d
000002c0: 2982 69be 7421 563e bc12 da3d 0400 8f3e
000002d0: 7dbd 1bbe 67a2 513e b886 b13e dde8 26bd
000002e0: 7c41 b63b 84c7 e6bd e2a9 6ebe 3fe0 edbe
000002f0: 36e1 9a3d 2e2b 70be b2c6 2f3e d409 4d3e
00000300: d5ef 963d a995 bebe e235 c3bd ef9e 22bd
00000310: a9c1 bfbd 2928 a8be 0f12 833d 3aec 063e
00000320: f2e8 36be b0a5 eb3e f536 3bbe 1b27 eabd
00000330: a66b bebd 5e3c 9ebc fd84 803e 7625 0abf
00000340: 17f2 51ba a4c4 68bd 31b1 18be 98e5 093e
00000350: 8e6b f3bd 81e9 a4bb 3209 033e 19d3 a7bd
00000360: 3588 ec3e e0c8 69be 765f 9bbe 7c54 cabc
00000370: 997e 32be 58a2 cc3d e6fe e5be 2a6b adbc
00000380: bb59 c23d ae70 1ebe eac3 a63e 825c 8f3d
00000390: c13e 65bc bc83 b13e d2bb 57be 2516 f5bd
000003a0: dab4 7f3e d675 17be 2ec6 543e 3245 c6be
000003b0: 05f2 a3bd ca6c 873e e0f7 04bd f0c7 58be
000003c0: 7704 0d3e 598c ba3b 5323 1bbe b75e ea3e
000003d0: 26bd f23d 4989 9dbd 0da9 d73d 3c43 1ebe
000003e0: aaf7 343d 7ed6 40be 54af 5a3e 1166 8e3e
000003f0: 7be2 cd3d 6ea3 8bbd 9ab5 4ebe b7b0 1bbe
-0.021965686 -0.17845598 0.046342697 0.18842617 -0.180366 0.13200182 -0.17045999 -0.1468901
-0.23885275 0.29620957 0.06324493 -0.51454514 -0.3167938 -0.06357909 -0.25742504 0.17321803
0.040248163 0.3725192 0.15939948 0.025717324 -0.007130541 -0.014641103 0.44168657 -0.28909677
-0.15778302 0.09097617 -0.34409535 0.20864552 0.39965668 -0.122247964 -0.101205654 -0.2275279
0.43983093 0.027891466 0.048567332 -0.17080171 0.009759858 -0.45665494 -0.41264296 -0.06686669
0.020063205 -0.013571949 0.0023027095 -0.25673226 0.28926212 0.06380887 -0.11423622 0.2118401
-0.18319374 0.11770088 0.37271157 -0.3737629 0.20283547 0.058668762 0.21125019 -0.17446297
-0.21840526 0.057671044 0.065248094 0.117024034 -0.1673032 -0.07295294 -0.13913853 -0.16816889
0.3541446 -0.034263752 0.07866811 -0.14727475 0.13253234 0.5985842 -0.7126523 -0.22923194
-0.18037347 0.06256654 -0.21036664 0.08412981 0.22037444 -0.0027823457 -0.1696914 -0.0774483
0.05863148 -0.2642422 0.08393373 0.028918132 0.15915942 -0.006051575 0.035197955 -0.071631
-0.03714807 -0.40312687 0.105628915 0.46967474 -0.22964936 0.15682751 0.009577766 -0.051028013
-0.18031844 0.121090144 -0.041183267 0.14365727 -0.12698284 0.089819156 0.23810026 0.08405467
-0.30469152 0.042006746 0.19442418 -0.2705978 0.3916232 -0.29346165 0.18071054 0.13437751
-0.041124165 0.15551239 0.11213197 0.3340491 -0.13802306 -0.328731 0.10085843 -0.20788483
-0.14209302 -0.06995896 0.04535062 0.22727795 0.1813707 -0.15310876 0.30461022 -0.10167264
-0.31383884 0.26008347 0.22574666 -0.055530906 0.05798148 -0.081352875 -0.035211843 0.14191969
-0.25803357 0.21758224 -0.106655344 -0.16439757 0.51764774 0.070035316 -0.11341845 -0.029354516
-0.03520653 0.4461489 0.11464596 0.4564863 0.14156213 -0.27820688 0.32661518 0.29597646
0.22670981 0.21856132 0.17015268 0.28639174 -0.01368883 -0.10735197 -0.13134827 -0.25065243
0.024443269 -0.008568719 -0.26732242 0.19103396 -0.0026506817 -0.18139273 -0.043442376 0.14484222
-0.0036799172 -0.036848597 0.32919243 0.052528575 -0.1517765 0.021544777 -0.24489658 0.04813211
-0.22803558 0.20911199 0.106481045 0.279297 -0.15209003 0.20472108 0.34673095 -0.04074942
0.0055620056 -0.11268523 -0.23306993 -0.4646015 0.07562487 -0.23453972 0.1716564 0.2002328
0.07369963 -0.37223557 -0.09531762 -0.039702352 -0.093631096 -0.3284314 0.06399929 0.13176051
-0.17862299 0.46024847 -0.18282683 -0.1143324 -0.09297876 -0.019315895 0.25101462 -0.5396341
-0.00080087915 -0.056828156 -0.14911343 0.1346649 -0.11885749 -0.0050327186 0.12796476 -0.081945606
0.46197668 -0.22830534 -0.30346268 -0.024698488 -0.17431106 0.09991902 -0.44921035 -0.021169264
0.09489771 -0.15472671 0.32571346 0.07000066 -0.0139920125 0.34670818 -0.21067742 -0.11967114
0.24971333 -0.14791045 0.20778725 -0.38724667 -0.08005146 0.26450187 -0.032462955 -0.2117002
0.13771234 0.0056930003 -0.15150194 0.45775387 0.118524835 -0.07692201 0.10530291 -0.15455335
0.044181503 -0.18831822 0.21355945 0.27812245 0.10052963 -0.06818281 -0.20186463 -0.1520413

base.mlp.fc2.0.0.bias f4 [64]
00000000: 161d d73c f8cd 463d b967 34bc 5162 04bb
00000010: 5be2 9e3d ff15 1bbd 5bae ca3c 2a33 48bd
00000020: ef25 efbc ba0a c53c fc2c c03d 10e9 d13b
00000030: aed1 0a3d 515f c3bb 2998 a73c 0134 edbb
00000040: e134 8bbd 6633 90bd 5425 33ba e626 56bd
00000050: 48da 09bd 0d78 23bd c77b e8bc 1feb 04bb
00000060: e02c 633c 1696 7fbc 6106 803d a313 293b
00000070: 99c5 a43c 4788 3e3d 6251 1e3b 0bd6 ff3c
00000080: b23a ba3b 790a cf3c 32dc 3b3d ecbd 92bd
00000090: 622a a4bc e51a 053d b4ea 7cbc bc53 22bc
000000a0: 1df9 c73c 3a28 29bb 1936 663c 470e c239
000000b0: 1745 483b 7fe6 073c 0794 0cbd 9ba8 8dbd
000000c0: 2603 4cbc 361b a2bc 8017 9bbb 7ac3 b7bc
000000d0: a5cf ad3c 0719 3b3d 7bb6 63bd 1329 80bc
000000e0: 7c0f 823d b76a ddbd 912c 383d 1d64 93bd
000000f0: fc04 debc 6a6e a3bc 6466 c4bc 24af 8bbd
0.026258986 0.04853627 -0.0110110575 -0.0020200203 0.07758018 -0.037862774 0.024741342 -0.04887692
-0.029192893 0.024052966 0.0938358 0.006405957 0.033891372 -0.0059622903 0.020458298 -0.0072388654
-0.06797195 -0.070410535 -0.00068338704 -0.05228319 -0.033655435 -0.03990941 -0.028379334 -0.0020281745
0.0138656795 -0.015599748 0.06251217 0.0025799058 0.020113753 0.046516683 0.0024157395 0.031229993
0.0056832666 0.025273548 0.04586429 -0.07165131 -0.020039741 0.03249635 -0.015436817 -0.009907659
0.024410779 -0.002581133 0.014050984 0.000370132 0.003055876 0.008294701 -0.034320857 -0.069169246
-0.0124519225 -0.019788366 -0.004733026 -0.022432078 0.021217177 0.045678165 -0.05559395 -0.015644586
0.0635061 -0.1081137 0.044964377 -0.071968295 -0.027101986 -0.01995011 -0.023974605 -0.06820515

base.mlp.fc2.0.2.weight f4 [64]
00000000: dbc7 843f 423a 823f 8310 7d3f 04b4 7b3f
00000010: 9f3d 723f 507c 833f d75e 813f 3d7d 7a3f
00000020: 717e 813f 6a36 813f b2b1 863f db04 7b3f
00000030: d953 833f 0f28 843f 6fdd 853f 0ee0 713f
00000040: 696a 803f 77b6 803f 6b76 813f 304a 843f
00000050: 7ce7 7b3f 586d 8c3f 0f9f 863f 61de 793f
00000060: ee6b 863f 62f3 833f ac71 7d3f c29a 783f
00000070: 7d5a 713f e58e 7e3f 317d 823f 0cab 7a3f
00000080: cad0 833f f4cf 843f 89be 843f 3c9c 853f
00000090: ece8 863f 443c 7e3f 315e 843f 397c 7e3f
000000a0: fd7f 813f 1350 823f d695 863f fe2d 8c3f
000000b0: a01e 783f 951a 863f 89f9 833f 58da 7c3f
000000c0: 2b1f 853f 3e86 813f 7224 823f d9c0 823f
000000d0: 4d93 823f a321 8e3f e427 863f 9237 8e3f
000000e0: 40b8 803f acd7 703f 259e 833f 342a 733f
000000f0: a3bf 813f 38eb 813f 8e49 863f 235b 853f
1.0373491 1.0174029 0.9885332 0.9832156 0.94625276 1.0272312 1.0107068 0.9784735
1.0116712 1.0094731 1.0522978 0.98054284 1.0259963 1.0324725 1.0458201 0.94482505
1.0032474 1.0055684 1.0114263 1.033514 0.9840009 1.0970869 1.0517291 0.9760495
1.0501688 1.030865 0.99001575 0.9711114 0.942787 0.9943679 1.0194455 0.97917247
1.0298092 1.0375962 1.0370647 1.0438304 1.0539832 0.9931071 1.0341245 0.994083
1.0117184 1.0180687 1.0514476 1.0951536 0.9692173 1.0476862 1.0310527 0.98770666
1.0400137 1.0119092 1.0167372 1.0215102 1.0201203 1.1104015 1.0480924 1.1110709
1.0056229 0.9407909 1.0282637 0.9498627 1.0136608 1.0149908 1.0491197 1.0418438

base.mlp.fc2.0.2.bias f4 [64]
00000000: 82c6 9c3c 965f d53b e1ee 43bd fe5f acbc
00000010: 26e4 a03d 86a2 1bbd 80dc 863d 2bc2 cebc
00000020: b24e 75bd 7212 9c3c b1a9 3f3d 0a18 4a3b
00000030: f6e5 b6bb 46e2 bd38 f891 8fbc 9ca9 09bd
00000040: aa1a 7dbc d619 d9bc eb92 833b b47b d9bc
00000050: 6ad2 45bc 83bd 2b3b 7433 6f3c 6f90 b0bc
00000060: 59b2 fd3c f7f8 12bc 8694 20bd d0be 93bc
00000070: bbdf dcbc a7f8 45bc b680 db3c 9167 87bc
00000080: cb26 ed3c 0eba 46bc c3c4 7abc 857c 043b
00000090: 5904 69bc a966 173d 0ffb 45bc cb65 90bd
000000a0: 3e6d eebc b737 e9bc b9a7 743d 3e1e 75bc
000000b0: 3823 1fbd 8945 0fbc de29 78bc ecfb a53c
000000c0: 3f79 8abc 7132 053c 2488 9fbb 1001 9f3c
000000d0: 95a7 eb3c 3dce e83c a763 50bc ce0f db3c
000000e0: 7179 423c 2162 a7bc 8f80 633c 19b7 9bbc
000000f0: 527c 713c 86b9 38bc 0d03 633b 2de0 f3bc
0.019137625 0.006511639 -0.047835235 -0.021041866 0.07856016 -0.03799679 0.06585026 -0.02523907
-0.059889503 0.019051764 0.04679269 0.0030837082 -0.0055816127 9.054369e-05 -0.017525658 -0.033609018
-0.015448252 -0.026501577 0.0040153167 -0.026548244 -0.012074092 0.0026205487 0.01459967 -0.021553246
0.030968832 -0.008970491 -0.039204143 -0.018035322 -0.026962152 -0.012083209 0.026794773 -0.016528876
0.028949162 -0.01212932 -0.015305701 0.002021582 -0.014222228 0.03696314 -0.012083783 -0.070506655
-0.029104825 -0.02846895 0.059730265 -0.014960824 -0.038851947 -0.008744606 -0.015146701 0.020261727
-0.016903518 0.008129702 -0.004868524 0.019409686 0.028766433 0.028418655 -0.0127190715 0.026740935
0.011869774 -0.020432534 0.013885631 -0.019008206 0.014739113 -0.011274701 0.003463927 -0.029769981

rnn.rnn.weight_ih_l0 f4 [192, 64]
00000000: 9cc2 33bd a848 09bc a93f 44bd 58cb e43c
00000010: be94 0cbc 4c30 843d 3026 9dbd e521 4c3d
00000020: 431b 513c af8d 5ebd 1767 da3d ffe3 be3c
00000030: 0d87 d2bc 3622 f5b9 5acc 03be 6f49 a43d
00000040: 5ff7 1e3d 2888 74bd c5b4 67bd 64b2 983d
00000050: bd19 f3bd 70cd 5dba c287 98bd 8b1c c4bd
00000060: 4f25 16be 00ed b63d aeba b43c d260 313d
00000070: 453d 763d 78ce 2e3d 1f4a 94bd 8bf7 fbbd
00000080: 19b9 c2bd 613a bf3b 214f 943d c3d4 22be
00000090: e0eb 723d e46f d93d 75ce c63c 8e58 6dbb
000000a0: c10a 45bd 06a0 c43d 1382 0cbd 3f7e b53c
000000b0: 8b95 d23d 12ca 04bd c937 4dbe 5d33 953d
000000c0: d8c3 a23d b344 393d dc9b ed3d 8bed 50bd
000000d0: 24b6 d6bd 60a9 2ebe 087e b1ba 7349 91bd
000000e0: 07ba 653b 75ff 7e3d 02a0 a4bc 461b b23d
000000f0: 4b1a 2e3e 4cd7 a9bd b66f 8ebd 3cc2 8d3c
00000100: 9c3e 123d 5754 a23c 7c8e 80bc 6a22 093e
00000110: 79e3 513e 70b1 1a3e 8b18 013d 7a79 fb3d
00000120: d671 b03d 1ff1 383d 785a b3bc 1463 7dbe
00000130: 23b2 863c 0fcf 0fbc e557 ec3d 9bfd 20be
00000140: b166 ad3d 638a 31be 1ec1 cdbd e9ee 153c
00000150: 0356 763d 7f30 10bd 89ec 9b3c 5131 2dbe
00000160: 8f7a 9abd 97bf f83b 0cba 283c 5c0a db3d
00000170: 36cd 14bd bce3 d83c 3d4f 0dbd ea9c d7bd
00000180: 808a 95bd 9abf 463c 8392 653c c228 57bd
00000190: 82c9 a9bd f073 3d3d d0e8 05bd 72c2 88bd
000001a0: 3b10 033c 2dd7 32bd fb32 8fbb 6dc4 e43d
000001b0: 48b8 d53d 6156 b23d c91b 98bc 3ea8 09bd
000001c0: 57d3 43bd 1152 9cbd 8041 c63d ad12 383c
000001d0: f243 aabb 1823 aabd ff5d 243e f0c5 66bd
000001e0: a3f6 a03d 22a0 9c3d f0f8 883d 8ae2 083d
000001f0: 15ad cabb c5f4 8f3d 72a1 843d 3072 9a3c
00000200: 0ad7 ae3c 7ac6 d23c e1f6 ce3d 64a4 0e3e
00000210: 3ea1 503d cd8d 203e 5cdc 62bd dcbc 8b3d
00000220: e1df 103e bccd 84bd a25a 763d ad7b 38be
00000230: 6626 263e 1743 83bd 7330 42bc 6b0c b53c
00000240: 89e6 403e fa8d c3bc 6b9b 113e 97ed 023d
00000250: ea40 c33d 47a4 68bc 518f 483d 80a2 77bd
00000260: b968 1e3e 903e 4fbc 9d09 fcbc 1cf6 9abb
00000270: 91a4 3bbc e455 c8bd 33fc 57bd 385f 18bc
00000280: 3241 99bd 745c 9abd 75ef 48bd 3a45 723d
00000290: aa31 febc d14c 49be 1cf6 f03c bf1c c7bb
000002a0: 5f98 d7bd 0e0a 2dbe ecf2 293d ea87 16be
000002b0: 79fe 093e 81c9 57bd 14d0 1a3e 6fe0 2cbd
000002c0: a577 83bd 4475 763c 4d7e 923c e257 0e3d
000002d0: 3e8c 13bd eca3 07be d902 5f3c 886c 94bd
000002e0: 47b0 10bd 0630 793d 586a 583d c1f0 063e
000002f0: 2736 883c 559d f0bd 91a4 a33d f379 43be
00000300: 633c 2ebd d6b0 803e 9690 edbd 001f 86bd
00000310: 2052 eb3c 9228 8abd 6d4e 2bbe 06c9 f83d
00000320: 71e3 91bd 9594 57bc 1eba ccbd 4288 8fbc
00000330: 9b60 953c 3aea 19bd ec1a 25bb 7c86 eebd
00000340: d202 9a3d a58b d53d 0755 09bd aeb1 fd3b
00000350: 5494 76bd 8a4d 2fbd 1d71 cabc 6ef8 dabd
00000360: 1860 9abe 9e3d 71bd db64 c8bd fad9 ce3d
00000370: 6625 56bc 3b99 183c cd92 233d 3d82 28be
00000380: 3c6d 47bd 877c 6cbd 1c2c ef3d e7c6 5cbd
00000390: 9750 133d 85f8 4dbc b7de 34bd 9d30 2fbd
000003a0: cd75 79bb bbe4 d1bd 9c29 413d 7ae9 1bbd
000003b0: 02e1 323d 040a 493d b366 99bc 0850 9ebd
000003c0: 7d09 e1bc ab82 c4bc 11f6 af3c 842f 2bbd
000003d0: f9b7 eb3d 942d eabd 1327 a43d df8f 72bd
000003e0: 5da2 773d 0e4e 08be 766d 183d e4a5 ecbc
000003f0: 0b4e 223e bbef f43d 8090 d4bb eb44 a83d
-0.043886766 -0.008379139 -0.047912274 0.027928993 -0.008580385 0.064545244 -0.07673299 0.04983701
0.012762847 -0.05433434 0.10664194 0.023302076 -0.025699163 -0.0004675553 -0.12870923 0.08021819
0.03881013 -0.05970016 -0.05656888 0.074559 -0.118701436 -0.00084610935 -0.07447769 -0.09575757
-0.1466267 0.08931923 0.022061672 0.043305226 0.060117025 0.042677373 -0.072407 -0.123030744
-0.09507961 0.0058358167 0.07241655 -0.15901475 0.05930698 0.106170446 0.024268368 -0.0036216113
-0.04810596 0.096008345 -0.034303736 0.022154925 0.10282429 -0.03241927 -0.20040812 0.072851874
0.079475105 0.045231532 0.116019934 -0.05100779 -0.10483959 -0.17056799 -0.0013541589 -0.070940875
0.0035053508 0.06225534 -0.020095829 0.08696608 0.17002217 -0.08293018 -0.06954901 0.017304532
0.03570424 0.019815607 -0.015692942 0.13392034 0.2049693 0.1510675 0.031517547 0.12279029
0.086154625 0.045151826 -0.021893725 -0.24744827 0.016442364 -0.008777394 0.11540202 -0.15721743
0.084668525 -0.17337947 -0.100466 0.009151199 0.06014062 -0.0352025 0.019033687 -0.16913344
-0.075429074 0.0075911987 0.010298263 0.10695335 -0.036328517 0.02647578 -0.034499396 -0.10527976
-0.073018074 0.012130642 0.014011982 -0.052529104 -0.08290388 0.046253145 -0.03269273 -0.066777125
0.007999475 -0.04366224 -0.004370091 0.11170278 0.104355395 0.08707882 -0.018567936 -0.033607714
-0.04780897 -0.076328404 0.09680462 0.011234921 -0.005196088 -0.08307475 0.16051482 -0.05634111
0.07859542 0.076477304 0.06688106 0.03341917 -0.006185184 0.07029108 0.06476106 0.018853277
0.021342773 0.025729407 0.10105682 0.13929898 0.050935023 0.15679093 -0.055385932 0.068231314
0.14147903 -0.06484553 0.060145028 -0.18015929 0.16225585 -0.06409281 -0.0118523715 0.022100648
0.18837942 -0.02387141 0.14219444 0.031964865 0.09533866 -0.014199323 0.048964802 -0.060457706
0.15469636 -0.012649193 -0.030766303 -0.0047290456 -0.01145281 -0.09782007 -0.05273075 -0.009300046
-0.07483138 -0.07537165 -0.04905649 0.05914805 -0.031029541 -0.1965821 0.02941423 -0.006076425
-0.10527109 -0.16898367 0.041491434 -0.14700285 0.1347598 -0.052682403 0.15118438 -0.042206224
-0.06419305 0.015042607 0.01788249 0.03475178 -0.036022417 -0.13246125 0.013611519 -0.07247263
-0.03532436 0.060836814 0.052835792 0.13177778 0.016627384 -0.11748759 0.07990373 -0.19089489
-0.042538058 0.25134915 -0.11599843 -0.065488815 0.028725684 -0.067460194 -0.16729136 0.12147717
-0.07123459 -0.013157983 -0.099964365 -0.017521027 0.018234542 -0.03757689 -0.0025193049 -0.116467446
0.07520069 0.10427026 -0.033528354 0.0077421283 -0.06020005 -0.042798556 -0.02471214 -0.106919155
-0.3015144 -0.058896653 -0.09784862 0.101001695 -0.01307044 0.009313877 0.039934922 -0.16455932
-0.04868816 -0.057735946 0.11678335 -0.053900626 0.03596553 -0.012571459 -0.04415771 -0.04277097
-0.00380646 -0.10248705 0.047158822 -0.038064457 0.043671615 0.049081817 -0.018725729 -0.077301085
-0.027470345 -0.023988089 0.021479638 -0.04179336 0.115096994 -0.114344746 0.08015265 -0.059219237
0.060457576 -0.13311026 0.037213765 -0.028887697 0.15850084 0.119597875 -0.0064869523 0.0821627

rnn.rnn.weight_hh_l0 f4 [192, 64]
00000000: 1fb5 893c eb05 733d 26ca 7c3d 847c 06be
00000010: 594a 89bc 5cab 193e 39f6 fa3d 0b08 073e
00000020: d3f1 aabd ac9d d1bd e414 33bd 38d5 90bb
00000030: 0a32 483d b0f0 363b 80c3 b5bd 33e4 a5bd
00000040: 6fee debc 0929 10be f7f4 debd 41b9 b53d
00000050: fb8d 2a3d f28c 51bd b6f4 3a3c d496 403d
00000060: 2230 db3d 0845 fe3c e972 82bd a2de 81bb
00000070: 7ffc 9c39 7ac0 e53d dc94 933d 8cda c3bd
00000080: d0c5 183e 33d8 0fbd 8672 a9bd 9773 0d3c
00000090: 568b 01bd 740c 383d 538e b53d ce16 773d
000000a0: 630e afbd 8111 9f3b c76f dfbd dff4 33bd
000000b0: cb2e 2bbd a26a c2bd 9ad7 dd3d fc10 14bc
000000c0: 5eb7 72bc 9e50 61bd 5d9d ee3d 4e47 073e
000000d0: 6d36 093e e44c fdbd 87d6 babd 6d7e 453d
000000e0: 71fd 7cbd 58c4 a9bc 7c25 023d 1a41 b0bd
000000f0: d3f0 81bd 03c1 3fbd 40f8 90bd 9803 98bd
00000100: 32a4 ac3b 696e 0e3d c8b2 33be 00a2 3c3d
00000110: 3148 813d eef9 a3bc 5e4f 2b3d 017c 18bd
00000120: 8935 ebbd 0f8a 9dbc 1420 e9bd c417 96bb
00000130: f126 5c3e c5b2 953d 97c4 1bbe 0361 053c
00000140: 461e 6c3d 12d1 243d 1b78 de3c 6f0c 343e
00000150: f653 c33d 06d0 22be a15d 6a3d 15d1 2bbe
00000160: c805 b13d 0fda 41bd c531 8b3b e324 e23c
00000170: 7c56 95bd 0c2d 86bc 942e 2e3e 8309 cc3d
00000180: 30ee 55bc ce79 83bc 26ce b43c d689 22bd
00000190: d1fd 7cbd 0905 81bd b069 d73c 6f66 1dbb
000001a0: 65f1 87bd 1149 26bd 5b93 30bd ed31 0bbd
000001b0: 4ac0 413d bb79 223d 049a 043d e7e6 303e
000001c0: a20a 93bd 3a9f a93d ff1d 313d f0cc 0a3d
000001d0: ca2b 113e c7ba 423d a927 323d a377 73bd
000001e0: 92ff 19bd 1d4f a43d 48cd 393d d22f 62bc
000001f0: cf50 063d e6af 9cbb d6ac afbc 2a1f f23d
00000200: 5291 503d 6061 1cbd df0b 363d 5be0 273d
00000210: 8f1e 06bb b6bf 253d 0722 b1bd e5eb 4bbd
00000220: afd0 1d3d 5989 c6bd 7ab7 afbd 625c b33d
00000230: 6ab8 d83c 4ebf 04be ac57 81bd 86dc b6bd
00000240: fdb5 823d 2953 05be ee5f 22bc 4d38 223e
00000250: 026c 4dbb ef9f b9bd 266f ed3d 1927 863b
00000260: cbe7 ba3d dd85 c03b 5a80 f3bc 914f f4bc
00000270: 36b8 f6bd d05d a13d 0f94 583d f35b 89bd
00000280: 24ad 2a3e 7d3e edbd 55a6 373e fc48 5fbe
00000290: e24e b1bd 64d7 2a3e 4ed9 1bbe 0242 1b3c
000002a0: ea9c fe3c 9cb3 edbc 9e08 b2bd 59d5 eb3d
000002b0: 17da dfbc d3a5 4e3c ba03 e4bd bdb4 5fbd
000002c0: 770d 683d f0a6 9f3d a5fa d1bd 6054 953d
000002d0: 9944 2ebb 5cb7 7b3d 9563 bb3d 56f7 8ebd
000002e0: 4681 fdbd 4578 233d a001 393d bdd3 d93d
000002f0: 0ce9 6bbd e943 23be fc41 8dbd 5754 043e
00000300: 8778 84bd a14e 3c3c 0f6b 06bd 7123 333d
00000310: 13dc d73b 7645 55bd a3ff 95bb 4b00 253d
00000320: 5ad0 a7bd 08f8 ebbc 6f5c 81bd 3957 033d
00000330: d548 9c3c 5cb8 323d ceea 66bb 38e1 aebd
00000340: 01bd 953b f3a9 acbc 7912 8dbc 39b9 fbbc
00000350: 2648 223d 1bff 94bd b619 25bc 2166 ab3d
00000360: 99f6 cf3c 5d66 9cbb a7b9 43bd c15f 2e3b
00000370: e8ac fbbb ab1e 90bd 68b3 3e3d 7443 813d
00000380: 4609 053e 8811 f53d c163 06be cc70 68bd
00000390: 180c a3bd dd14 243d 9158 663d a9f2 d6bb
000003a0: bbf5 17bd 9cdc 3cbd a951 48bd ee81 9e3b
000003b0: 9869 513d b42d e2bd 8fd0 1e3e f012 88bc
000003c0: c57d 26bd 22b9 ee3d f9f1 2a3e e637 e03a
000003d0: 9ca6 323e 086f 6a3d 0eaf e5bd dce9 b43b
000003e0: 584f 75bd c798 c7bd 5fbf b03d a6ca f1bc
000003f0: cc58 163d 8315 dc3d c36d 1abd 23a8 aa3d
0.016809998 0.059331816 0.06171622 -0.13133436 -0.016759085 0.15006775 0.122539945 0.13186662
-0.083469056 -0.10235152 -0.043721095 -0.004419949 0.048875846 0.0027914457 -0.08875179 -0.08100166
-0.027213303 -0.14078154 -0.10886567 0.08873225 0.04163931 -0.051159807 0.011410883 0.04701884
0.1070254 0.031038776 -0.063695736 -0.0039633075 0.00029942763 0.112183526 0.07206127 -0.09563169
0.1491921 -0.035118293 -0.08273797 0.008633516 -0.03162702 0.04493375 0.08865037 0.060324483
-0.08547666 0.0048543816 -0.10909992 -0.0439347 -0.041792672 -0.09492995 0.10832138 -0.0090372525
-0.014814226 -0.055008523 0.116511084 0.13210794 0.13399668 -0.12368181 -0.09122949 0.048216272
-0.061765138 -0.020723507 0.03177403 -0.08606167 -0.06344762 -0.04681493 -0.070786 -0.074225605
0.005268597 0.034773264 -0.17548668 0.046052933 0.063125975 -0.020016637 0.041823737 -0.037227634
-0.114848204 -0.01923087 -0.113830715 -0.00458047 0.2149923 0.07309488 -0.15211712 0.008140805
0.05764606 0.040238447 0.02715688 0.17582868 0.09537499 -0.15899667 0.057218198 -0.16778977
0.08643681 -0.047327098 0.0042478763 0.02760548 -0.07291886 -0.016378902 0.17009956 0.09962752
-0.013057277 -0.016049292 0.022070955 -0.03968223 -0.061765496 -0.062997885 0.026295513 -0.0024017354
-0.06637839 -0.040597025 -0.04310928 -0.03398316 0.04730252 0.039666872 0.032373443 0.17275582
-0.071797624 0.08282323 0.043241497 0.03388685 0.1417686 0.047541406 0.043494854 -0.059440266
-0.037597246 0.08022902 0.045361787 -0.013805347 0.03279191 -0.004781711 -0.02144472 0.1182235
0.05091984 -0.0381788 0.044444915 0.040985446 -0.0020464992 0.040466033 -0.08649068 -0.049785513
0.038529094 -0.09694166 -0.08579917 0.08757855 0.026455123 -0.12963602 -0.0631555 -0.0892878
0.06382368 -0.13020004 -0.009910567 0.1584179 -0.0031344895 -0.09063708 0.115934655 0.0040940163
0.09126242 0.0058753327 -0.029724289 -0.029823096 -0.12046854 0.078792214 0.052875575 -0.06706991
0.1666761 -0.11584184 0.17934544 -0.21805185 -0.08657624 0.16683728 -0.15219614 0.009476187
0.031080682 -0.029016308 -0.0869305 0.11515302 -0.027325673 0.012612778 -0.11133523 -0.054615725
0.056653466 0.07795513 -0.10252885 0.07291484 -0.002659118 0.061454162 0.09149853 -0.06980769
-0.123781726 0.03990962 0.045167565 0.10636089 -0.057595298 -0.15943874 -0.06897351 0.12922798
-0.06468301 0.011493356 -0.032816943 0.04373497 0.006587514 -0.052068196 -0.0045775934 0.040283483
-0.08194037 -0.028804794 -0.063164584 0.032065604 0.019077698 0.04363285 -0.003523517 -0.08539051
0.00456965 -0.021077132 -0.017220723 -0.03072797 0.039619587 -0.0727522 -0.010076931 0.08369089
0.025386142 -0.004772945 -0.047784474 0.0026607367 -0.007680524 -0.070370995 0.046557814 0.06311694
0.12991819 0.119662344 -0.1312399 -0.056748196 -0.07961291 0.04005896 0.056236807 -0.006559689
-0.03709958 -0.046108827 -0.048906002 0.004837266 0.051126093 -0.110438734 0.15509246 -0.016610593
-0.040647287 0.11656405 0.16693868 0.0017106503 0.17446369 0.057234794 -0.1121503 0.0055210423
-0.05989012 -0.09745937 0.08630251 -0.029515576 0.036705777 0.107462905 -0.037702333 0.08332851

rnn.rnn.bias_ih_l0 f4 [192]
00000000: 58e3 de3c 68e6 00bc ca71 0dbd 9fe7 c73c
00000010: 09df 11bb 2f72 35bd a9d9 72ba fe24 143c
00000020: 0e53 3abd 67bb c23b b927 143c dcdb d73c
00000030: 7bb6 673a 8ab7 41bd bd0d 5e3b cfc5 983d
00000040: ab1d 36bd 5863 41bb 5ae4 ef3c c6d8 493d
00000050: 088f 79bd 378a 573c 070d c1bc 915c 4a3d
00000060: 9f9c 13bd cabe 583d e46e 773d ad94 983a
00000070: 9ca0 1f3d 3932 2f3c fb62 013d 3129 ddbc
00000080: 5100 9abc 5ed6 a23c 54c8 dbbb 3a6f e93a
00000090: bc5c abbc 8cd8 2ebb 2202 f6bb edd0 f7bb
000000a0: e7a5 203d dec5 57bc a31b 653d da3e 5d3d
000000b0: 1a23 73bc 7714 bf3b e256 50bd 3532 19bd
000000c0: 8e94 f13b 9b01 1e39 12e5 05bc 631d 253c
000000d0: 5b66 02bc 0d3b 093d 596c 8c3b 247c 083b
000000e0: c847 8abd 7fb7 3e3b 708b b1bc ca1e 85bc
000000f0: 1213 ab3c e606 c53b 3b02 123d 9858 5fbb
00000100: 3753 313d 4904 a9bc 32df 053c 20e8 df3c
00000110: 9561 62bc 0530 123d fb30 013d 79de 8bbd
00000120: 8f6b 96bb ccc0 29bd 408b 483d c661 903d
00000130: 1d01 8dbd a572 bbbc c2eb 9f3c 2fc2 23bd
00000140: cc95 90bd 80cc 09bd 2235 60bd 46e2 833c
00000150: 2662 ecbd 301b d3bd 0727 3a3d 25e4 48bb
00000160: 332c debc e37d 963c 762c bb3c fd38 56bc
00000170: 2049 ae3b 362a 283d 52f0 d9bb 9976 f1bb
00000180: f794 f6bb efca 7b3d 7897 95bb 0368 d63c
00000190: e3c2 e03c cf3c 11bd e1cc 2ebd 52db 30bd
000001a0: 9205 e3bc 273f 2bbd fcfa b5bd cdac 54bc
000001b0: 4297 c8bc e0cc 2c3c 388b dbbb 0224 c03c
000001c0: e5dc 0c3e 2d33 92bd c7cb 74bc e012 f73c
000001d0: 72b5 de3d 166a 143e 5862 00be 8d27 b6bd
000001e0: 04c1 08be c5fc d03c 883d 5a3c ce17 78bd
000001f0: e53d 69bd 1f44 e53d f7ee 953c c9ad 993d
00000200: 7265 423d 681b 753c da3c e03c 12b1 783c
00000210: 21c9 d93c 30e1 0b3d e1ae bdbc 7723 c63c
00000220: 6fff 3b3a 8b3e ed3b 990e 923a 0045 6abc
00000230: b4a6 6fbd c078 ce3c cb95 7a3b 44fa 5ebc
00000240: 2f8a dabb 4d8f 52bc f4bb 6bbc 6647 8d3d
00000250: 2569 c7bc da67 f03c c153 25bd ef75 a7bd
00000260: 9b63 07bc f1c6 583d 6635 1abd e98e af3c
00000270: f8f4 41bd b200 2fbd 5e1e 32bd 1a6c 2e3c
00000280: cee3 193c 7127 493d e873 f4bb 3fbe f03c
00000290: 63ad edbb 521a 323d 775d b4bc 1730 ea3b
000002a0: e392 f7bb 2489 1d3c d8ec 523c 3b54 6cbd
000002b0: 35c5 173d 8be6 8abd 06e7 9abc 9723 45bb
000002c0: d380 4dbb 7d4c 40bd 4db4 72bd 9059 abbc
000002d0: bb13 3f3c cec9 a8bb 04ac aabc 1d92 123d
000002e0: 329c d63c e0c3 fd3c e0da a63c ba52 dd3b
000002f0: 57aa 0dbd b465 03bd d250 ff3a 7b83 a4bc
0.027208015 -0.007867433 -0.034532346 0.024402438 -0.0022258183 -0.044298347 -0.0009264001 0.009042023
-0.045489363 0.0059427503 0.009042674 0.026349954 0.00088391424 -0.047294177 0.00338827 0.07459604
-0.044461887 -0.0029508676 0.029283691 0.049278997 -0.06092742 0.013155512 -0.023565782 0.049404684
-0.036038037 0.052916326 0.060408488 0.0011640989 0.03897153 0.010693126 0.031588536 -0.02699718
-0.018798979 0.019877609 -0.0067072306 0.0017809637 -0.020918243 -0.0026679365 -0.0075075785 -0.0075627477
0.039220717 -0.013169734 0.05593456 0.054015018 -0.014839912 0.005831297 -0.050864108 -0.037401397
0.0073724454 0.00015068652 -0.00817229 0.010077807 -0.007958974 0.03350358 0.004285377 0.0020825947
-0.067519724 0.0029101071 -0.021672934 -0.016250033 0.020883117 0.0060127852 0.03564666 -0.0034079906
0.04329225 -0.020631926 0.00817089 0.027332366 -0.013817211 0.035690326 0.031540852 -0.06829543
-0.0045904587 -0.04144363 0.048960924 0.07049899 -0.06884978 -0.022881815 0.019521598 -0.03998011
-0.070598215 -0.033642292 -0.05473817 0.016099107 -0.11542158 -0.1030792 0.045447376 -0.0030653563
-0.027120685 0.018370574 0.022848349 -0.0130751105 0.005318776 0.04105588 -0.006650963 -0.0073688743
-0.007525082 0.06147283 -0.0045651756 0.026172644 0.02743668 -0.035458382 -0.042675857 -0.04317791
-0.027712617 -0.041808274 -0.08885762 -0.012980652 -0.024486188 0.010546893 -0.006699946 0.02345467
0.1375614 -0.07138667 -0.014941162 0.030160367 0.10874452 0.14493594 -0.12537515 -0.088942625
-0.1335488 0.025511155 0.013320334 -0.060569577 -0.056943793 0.11194634 0.018302424 0.0750385
0.047460027 0.014960147 0.027372766 0.015178936 0.026585164 0.034150302 -0.023154678 0.024186833
0.00071715465 0.0072401217 0.0011143266 -0.014298677 -0.05850859 0.025204062 0.0038236256 -0.013609473
-0.006669305 -0.012851548 -0.014388073 0.06898384 -0.024342129 0.029346395 -0.040363077 -0.08176791
-0.008263494 0.0529241 -0.03764858 0.02143045 -0.04735276 -0.042725272 -0.04348599 0.010645891
0.009392692 0.04910988 -0.007460106 0.029387591 -0.0072533353 0.043482132 -0.022017224 0.007146846
-0.007555352 0.009615216 0.012873851 -0.057697516 0.037053306 -0.06782254 -0.018908989 -0.0030081028
-0.0031357303 -0.046947945 -0.05925398 -0.02091673 0.011662419 -0.00515101 -0.020833977 0.035783876
0.026197527 0.03097719 0.02036804 0.0067542465 -0.034586277 -0.032079414 0.0019479042 -0.020082226
