train/maddpg-v5/results/formation_hd_env/maddpg/formation/run20/models/policy_0/actor.pt (torch, 64489 bytes, 20 tensors)

mlp.feature_norm.weight f4 [18]
000000 be f5 7f 3f 10 00 80 3f 12 f6 7f 3f 6e f4 7f 3f
       0.9998435 1.0000019 0.9998485 0.99982345
000010 ad 04 80 3f 9c 05 80 3f 9a f5 7f 3f 1c f5 7f 3f
       1.0001427 1.0001712 0.99984133 0.9998338
000020 f6 f5 7f 3f 59 05 80 3f 16 05 80 3f 54 fc 7f 3f
       0.9998468 1.0001632 1.0001552 0.999944
000030 c8 04 80 3f 61 05 80 3f c1 01 80 3f d6 01 80 3f
       1.0001459 1.0001642 1.0000535 1.000056
000040 1c fa 7f 3f 04 fc 7f 3f
       0.9999101 0.9999392

mlp.feature_norm.bias f4 [18]
000000 5a 39 3b 39 47 5d 0d 39 f0 14 ed b8 d4 e4 1a 39
       0.00017855075 0.00013481556 -0.000113049406 0.0001477183
000010 d8 60 7f b8 68 ee 17 39 36 c3 32 b9 40 5f 20 39
       -6.088693e-05 0.00014489295 -0.00017048125 0.00015294272
000020 c9 a4 61 b8 35 1f ea 38 1a 82 2d b9 4b 2a 5c 38
       -5.379765e-05 0.00011163802 -0.00016547032 5.2491476e-05
000030 f3 c8 f3 38 ee c3 16 b9 45 4d 0e 39 da 2c 51 b8
       0.00011624573 -0.00014378104 0.0001357096 -4.9871254e-05
000040 87 b4 2f b9 2c 04 35 b9
       -0.00016756552 -0.00017263059

mlp.mlp.fc1.0.weight f4 [64, 18]
000000 e2 2c 0c bb 18 06 6b 3c 2d e7 5e be ed ee b0 bd
       -0.0021389057 0.014344715 -0.21767874 -0.086393215
000010 42 99 ba bd 36 a4 b9 bc e7 9e 01 3e 8c f2 08 3e
       -0.09111263 -0.02266131 0.12658273 0.13373774
000020 b4 90 be be 41 9b 15 3e 54 2b 2d 3e 70 42 3a 3d
       -0.37219775 0.14610006 0.1691106 0.045473516
000030 24 35 49 3d 3b b0 28 3e f4 96 e5 bd e9 b6 48 be
       0.049122944 0.16473477 -0.11210433 -0.19601025
000040 a1 95 86 be 80 b0 37 3d f2 75 cb bd 0a 60 2e 3e
       -0.26286033 0.044846058 -0.09934606 0.17028823
000050 49 2c b9 bd b9 31 bb 3d 9c db a6 3d 5f 0d c2 3d
       -0.0904165 0.09140343 0.08147356 0.094752066
000060 ec 01 30 be c2 33 1f 3e 93 2d 93 be 4d 63 38 3e
       -0.17188233 0.15547088 -0.28745708 0.1800663
000070 5c 71 d0 3d 09 d0 e0 3d ad 91 42 be a7 a3 97 bd
       0.101778716 0.109771796 -0.19000883 -0.07404261
000080 0c d7 c2 bd ad 04 87 3a 73 dd 7a 3e 1b 5a 04 be
       -0.09513673 0.0010301076 0.24498539 -0.12924998
000090 d2 a4 5c be 9c e5 cc bd 6e 06 5a bd 90 d5 d1 3d
       -0.21547249 -0.10004732 -0.053228788 0.10245812
0000a0 89 fd b0 3d b0 e0 8e 3d 45 d3 93 be e7 ad 1e be
       0.08642108 0.069764495 -0.28872123 -0.15496026
0000b0 06 c6 b0 be 1c ce ed 3c c7 88 6a 3e 31 0c ce 3e
       -0.3452608 0.029028945 0.22903739 0.40243676
0000c0 11 37 a4 3e 2f 78 89 3d 5a 95 33 3e 1c e6 b6 bc
       0.32073262 0.06712376 0.17537442 -0.022326522
0000d0 e7 80 0a 3d a2 44 12 3e c5 5d 99 3d b2 d0 b0 3d
       0.033814337 0.14283994 0.07488588 0.086335555
0000e0 7e 90 21 bf 6a 5b 82 be 78 30 a0 3e b5 65 84 3e
       -0.631111 -0.25460368 0.3128698 0.25858846
0000f0 98 8e 0a 3d 4f eb 56 3e c2 05 55 3c 97 07 0f 3e
       0.033827394 0.209882 0.013001861 0.13967739
000100 b2 c5 82 be ca f0 30 be 74 e2 d1 3d 57 36 bf bd
       -0.25541455 -0.17279354 0.10248271 -0.093365364
000110 39 21 67 3d cf fd b3 bd 77 7c 89 be 7f 0c ab 3d
       0.056428168 -0.087886445 -0.26852772 0.08351993
000120 5f ea 07 3c 58 37 d8 bd bc 8b 53 be 38 e3 e8 bd
       0.0082956245 -0.10557431 -0.20658773 -0.113714635
000130 81 3a 73 be 48 b1 12 3d 98 24 95 3b 2c 53 2c be
       -0.23752786 0.0358136 0.0045514815 -0.16828603
000140 f2 54 99 bd be 7e ea bd 30 2f 96 bd 38 9d 86 3d
       -0.07486905 -0.114499554 -0.07333219 0.06572956
000150 e4 87 c5 bd 01 09 e9 3d 57 33 15 be 3c 90 83 3e
       -0.0964506 0.113786705 -0.14570366 0.2569598
000160 8b 54 e6 3d c7 bd 22 be 5c 7f e1 3e b5 da 23 be
       0.11246594 -0.15892707 0.4404248 -0.16001399
000170 b5 73 1c 3e 7d 3e 1b be 61 3d 42 3e fe 3c 3e 3d
       0.15278514 -0.15160556 0.18968727 0.046444885
000180 ac b3 e9 3c 6e dc 5f be 40 32 98 be 80 c5 39 3e
       0.028528057 -0.21861431 -0.29725838 0.18141747
000190 a9 40 18 be a2 d1 7b 3e c0 c9 0e bd 2f 24 8b 3d
       -0.14868416 0.24591687 -0.034860373 0.06794011
0001a0 5d 66 9a 3e ca 80 1b be ce cf a8 3b 1f 78 29 3c
       0.30156222 -0.15185848 0.0051517254 0.0103435805
0001b0 67 8a 12 3e 92 8f 76 be 7d 77 04 3e a1 6b 08 3d
       0.14310609 -0.24078205 0.12936206 0.033305768
0001c0 03 aa 7b bd 51 94 b8 bd 7b bd 2d 3e 46 70 70 be
       -0.061441433 -0.09012664 0.16966812 -0.23480329
0001d0 97 1e 99 bd 89 5a 80 3e 95 bc 32 3e 33 d7 64 be
       -0.07476538 0.25069073 0.17454751 -0.22347717
0001e0 57 e3 3c be 49 1a 01 3d b6 7d ca 3d 67 07 01 be
       -0.18446098 0.031519208 0.09887259 -0.1260048
0001f0 7d 86 88 3d ad 38 c9 bd f3 24 6a 3d 6f ac a2 3e
       0.066662766 -0.09825263 0.057164144 0.3177218
000200 7a 07 36 3c 68 ef bd bd de 73 8b 3d 6e c0 6a be
       0.011110181 -0.09274179 0.06809209 -0.22924969
000210 42 14 03 3e 65 6e 55 3e 0a bd 01 be 33 55 e8 bd
       0.12800696 0.20842893 -0.12669769 -0.113443755
000220 e4 ba c4 3b 8f 00 b3 bc fd b8 45 be ad 9e 1d 3c
       0.0060037244 -0.021850852 -0.19308849 0.009620351
000230 de ce 98 3d d5 fb 4a be f1 48 5b be c5 96 cf 3c
       0.07461332 -0.19822629 -0.21414544 0.025340447
000240 a1 07 70 3e c3 69 9c be 15 d0 81 3d 95 f2 00 be
       0.2344041 -0.3054944 0.063385166 -0.12592538
000250 61 e7 8e 3e dc 2b 69 be 3a c7 90 3e ec 2e 90 3e
       0.27910903 -0.22770637 0.28276998 0.281608
000260 a8 11 42 3d c8 42 e9 3d f8 f0 03 3e f0 c0 4a 3e
       0.04738012 0.11389691 0.12884891 0.19800162
000270 0e 83 49 3e 87 e0 a5 bd 81 00 2e 3c 15 ec 62 bd
       0.196789 -0.08099466 0.010620237 -0.055400927
000280 7a 31 a8 be 15 a8 aa 3d 8b 35 a3 bc 6b d6 a6 3e
       -0.32850248 0.0833284 -0.019922992 0.32585463
000290 a5 ec 83 3e c1 b6 66 bd ee 32 1f be 5b 8f 78 3c
       0.25766483 -0.05632663 -0.15546772 0.015170897
0002a0 00 f5 df 3c 25 a4 26 3e 63 07 74 3e aa fe db bd
       0.027338505 0.16273554 0.23830943 -0.10741933
0002b0 2f b4 ef bd 17 1e c9 3d bd 10 0a 3e 9b 4b 78 3e
       -0.11704289 0.09820192 0.13482948 0.24247591
0002c0 fd da e6 bc d0 33 0f be 75 d6 6d bc 49 e1 bf ba
       -0.028180594 -0.13984609 -0.014516463 -0.0014639284
0002d0 8a 0a 0a 3d 74 c4 77 3d 9f fd 38 3e 7f 6e b7 bb
       0.033701457 0.060490087 0.18065499 -0.005597889
0002e0 0a 82 9f 3d fe 18 f3 3e 0d b8 ba 3d df 92 94 3e
       0.07788475 0.47480005 0.09117136 0.29018304
0002f0 05 49 04 3e 3c bf 56 3e 80 ab fe 3d 2d b8 13 3e
       0.1291848 0.20971388 0.12435055 0.14425726
000300 f6 34 5b bd 5f 77 2a 3c 20 e8 31 3e df f6 9c 3e
       -0.053517304 0.010404437 0.17373705 0.30657098
000310 a4 8b 2c be 13 15 36 be 90 dd 9a bd 94 9e aa bd
       -0.16850144 -0.17781477 -0.07561791 -0.083310276
000320 64 de 71 3c a0 fa bc be 2e 39 80 be 01 83 f9 3d
       0.014762495 -0.36909962 -0.25043625 0.1218319
000330 d5 a2 d4 3b 52 8f e3 bc cb 38 f2 bd d3 9b 16 be
       0.0064891377 -0.027778301 -0.11827239 -0.1470788
000340 85 32 56 3e f4 64 51 be fd a2 9a 3e 7a b2 46 be
       0.20917709 -0.20448667 0.30202475 -0.19404021
000350 81 0d 91 3e 14 e3 eb 3d 4d 4f 7d 3d 53 35 35 3e
       0.28330615 0.11517921 0.061843205 0.17696123
000360 f5 51 5b be e9 35 4a bd bd f2 77 bb 2b 5a da 3d
       -0.21417983 -0.04936782 -0.0037833892 0.106617294
000370 ba d0 bf 3c 59 2a f7 3e 85 ec 21 be 8c 6b d8 3d
       0.023414958 0.48274496 -0.15812881 0.10567388
000380 19 9b f8 3d 7e 7a 87 bd b7 dd 83 be 73 04 ab 3d
       0.121389575 -0.066151604 -0.25755093 0.08350458
000390 df 05 35 3e c3 52 21 be 18 40 23 be d2 b2 14 be
       0.17678021 -0.15754227 -0.15942419 -0.1452134
0003a0 10 e5 8c 3e e7 51 ae 3c 40 ee 92 bb c6 af 99 bd
       0.2751851 0.021279288 -0.004483968 -0.07504229
0003b0 e4 22 9a bb d8 dd b3 3d 41 22 00 3e 21 be f2 3c
       -0.0047038663 0.08782548 0.12513067 0.029631676
0003c0 4f 7d a2 3e e7 d2 21 bc 1d b5 d7 bd 5c 08 e5 bd
       0.31736228 -0.009876943 -0.105325915 -0.11183235
0003d0 ea 72 84 be 2e 56 0a 3e c8 a3 98 be 79 00 d5 be
       -0.25868922 0.13509437 -0.29812455 -0.41601923
0003e0 85 e4 0b bd fe c8 6f 3d 1d 2c a1 3c ee 5a e9 3d
       -0.03415348 0.05854129 0.019674355 0.113942966
0003f0 2f e4 1d 3e ac e5 50 3e 75 66 8e 3e c5 4a 86 3d
       0.15419076 0.20400113 0.27812544 0.0655723

mlp.mlp.fc1.0.bias f4 [64]
000000 af db 32 39 c9 bb 05 39 98 ff 3e b9 0f ee 16 39
       0.00017057241 0.00012753824 -0.00018215028 0.00014393798
000010 b6 d6 40 b9 b5 d4 2a b9 ed ee d3 b7 8d 39 4c b8
       -0.00018390533 -0.00016291703 -2.5264419e-05 -4.869099e-05
000020 3d 90 33 39 08 e2 3d b9 fd 23 bd 38 79 1b 3c b9
       0.00017124503 -0.00018108648 9.0189256e-05 -0.00017939312
000030 ad 55 2d 39 a1 26 27 b9 c4 f0 7e b8 d6 74 0b b9
       0.00016530482 -0.00015940751 -6.078255e-05 -0.00013299598
000040 61 92 0f 39 a2 a3 25 38 8c b4 0e 39 7f 4b 0d 39
       0.00013692073 3.949146e-05 0.00013609434 0.00013474932
000050 79 7b 3f 36 0b 6f 2c 39 5c 3d 46 b8 9b 10 86 37
       2.8533088e-06 0.00016444565 -4.7264024e-05 1.5981777e-05
000060 4e 38 1c b9 58 47 f6 36 e2 36 74 b8 9b 5d 49 b8
       -0.00014898294 7.339677e-06 -5.8225247e-05 -4.800931e-05
000070 8b 5b 22 b9 e4 9b 23 b9 fd 38 f8 b8 df 68 13 38
       -0.00015483626 -0.00015602965 -0.000118361764 3.51452e-05
000080 12 7c 2c b9 df 13 20 39 34 da 89 38 09 b5 e7 38
       -0.00016449418 0.00015266192 6.5733126e-05 0.00011048659
000090 b0 4b 39 39 be 58 03 b9 f0 f9 32 b9 2b 55 67 b7
       0.0001767117 -0.00012526193 -0.00017068512 -1.3788503e-05
0000a0 47 7d c2 38 4c 10 01 b5 fc 6d 1e 39 39 da 28 b9
       9.2739756e-05 -4.807996e-07 0.00015109027 -0.00016103023
0000b0 41 33 84 38 1c 86 33 39 62 d1 04 39 1b 4d 1d b9
       6.303797e-05 0.0001712073 0.00012666502 -0.00015001411
0000c0 52 ba 32 39 e7 9f f8 38 54 8e 28 b9 76 5c 38 39
       0.00017044813 0.00011855346 -0.0001607475 0.00017582052
0000d0 5e 92 ea 38 0d 65 81 38 d0 c8 ac b8 80 53 1d 39
       0.000111852525 6.1700215e-05 -8.2390034e-05 0.00015003793
0000e0 d6 12 41 b9 4c 12 77 b8 48 88 8f 38 6c af e7 38
       -0.00018412931 -5.890643e-05 6.844156e-05 0.00011047613
0000f0 15 f5 33 39 f9 25 3a b9 a0 d3 2b 39 41 62 34 39
       0.0001716207 -0.00017752488 0.00016386667 0.0001720274

mlp.mlp.fc1.2.weight f4 [64]
000000 25 04 80 3f ae f8 7f 3f 8f f4 7f 3f 4b 02 80 3f
       1.0001265 0.9998883 0.9998254 1.00007
000010 a8 04 80 3f 3f f9 7f 3f 55 04 80 3f 79 03 80 3f
       1.0001421 0.99989694 1.0001322 1.000106
000020 65 f8 7f 3f 6c 00 80 3f 35 03 80 3f e2 f5 7f 3f
       0.99988395 1.0000129 1.0000979 0.9998456
000030 cb 00 80 3f 04 04 80 3f a0 fc 7f 3f 1b fc 7f 3f
       1.0000242 1.0001225 0.9999485 0.9999406
000040 26 03 80 3f 14 fb 7f 3f 8e 04 80 3f 69 fe 7f 3f
       1.0000961 0.9999249 1.000139 0.99997574
000050 f6 f8 7f 3f 5a 04 80 3f 44 f7 7f 3f 2e 03 80 3f
       0.9998926 1.0001328 0.9998667 1.000097
000060 37 f8 7f 3f e7 f9 7f 3f f3 03 80 3f f2 02 80 3f
       0.9998812 0.99990696 1.0001205 1.0000899
000070 17 02 80 3f 86 00 80 3f b5 fa 7f 3f a0 03 80 3f
       1.0000638 1.000016 0.99991924 1.0001106
000080 0b f6 7f 3f 16 fe 7f 3f 35 01 80 3f 84 f7 7f 3f
       0.99984807 0.9999708 1.0000368 0.99987054
000090 0c 03 80 3f 61 ff 7f 3f f1 03 80 3f 09 fe 7f 3f
       1.000093 0.9999905 1.0001203 0.99997
0000a0 d8 fc 7f 3f 4d f7 7f 3f 85 f7 7f 3f 0e 05 80 3f
       0.99995184 0.99986726 0.9998706 1.0001543
0000b0 aa f6 7f 3f a1 01 80 3f 03 03 80 3f a1 04 80 3f
       0.99985754 1.0000497 1.0000919 1.0001413
0000c0 ad 05 80 3f 3e 02 80 3f 0b ff 7f 3f a2 04 80 3f
       1.0001732 1.0000684 0.9999854 1.0001414
0000d0 d2 03 80 3f 06 fe 7f 3f 65 fa 7f 3f 93 00 80 3f
       1.0001166 0.99996984 0.99991447 1.0000175
0000e0 98 f4 7f 3f 04 f8 7f 3f ba f6 7f 3f a1 03 80 3f
       0.99982595 0.99987817 0.9998585 1.0001107
0000f0 7f f8 7f 3f 84 fc 7f 3f 25 00 80 3f 4e 04 80 3f
       0.9998855 0.99994683 1.0000044 1.0001314

mlp.mlp.fc1.2.bias f4 [64]
000000 74 9a 2f 39 76 23 1e 39 75 9c 09 b9 66 5b 2a 39
       0.00016746839 0.00015081264 -0.00013123623 0.00016246512
000010 6a 58 3a b9 a3 cc 20 b9 26 c0 6c b7 e4 46 76 37
       -0.00017771279 -0.00015335022 -1.4111434e-05 1.4679248e-05
000020 c1 e3 35 39 c5 d7 34 b9 c2 99 c4 b7 9b 3f 30 b9
       0.0001734635 -0.00017246518 -2.343662e-05 -0.00016808363
000030 bd 02 26 39 99 56 2b b9 7c 59 db 38 b5 72 b4 b8
       0.00015832014 -0.00016340091 0.000104594015 -8.604435e-05
000040 8f e3 19 39 6c 20 14 39 5c 09 55 b8 f4 da 10 39
       0.00014675989 0.00014126458 -5.0791874e-05 0.00013814477
000050 03 05 23 39 88 b1 08 39 81 43 a8 38 10 5a 08 38
       0.00015546758 0.00013036106 8.023438e-05 3.2508804e-05
000060 57 5d 3a 35 8e 49 e8 38 22 f6 d1 b8 b9 a7 80 38
       6.9426227e-07 0.00011076323 -0.000100117424 6.1347564e-05
000070 d9 21 18 b9 16 88 12 b9 1b 6f 77 37 13 9a 29 b6
       -0.00014508459 -0.00013974341 1.4748216e-05 -2.5272645e-06
000080 0a 13 f7 b8 d5 0f 04 39 44 a2 fb 38 74 cd 27 39
       -0.00011781424 0.00012594399 0.00011998837 0.00016002898
000090 1c c5 34 39 2d b0 6d b8 57 82 30 b9 76 0c 0e 39
       0.00017239567 -5.666928e-05 -0.00016833223 0.00013546817
0000a0 2f 22 d4 38 4c 7a 0e 39 50 61 2f 39 ad c3 1d b9
       0.00010115315 0.00013587734 0.00016725552 -0.00015045582
0000b0 f6 05 1b 39 32 e0 29 39 ba 3f 17 38 2f b8 31 b9
       0.00014784173 0.00016200615 3.6060555e-05 -0.00016948649
0000c0 b9 94 93 38 27 76 13 39 7b 68 85 b8 8e 9e 27 39
       7.037208e-05 0.00014063028 -6.361395e-05 0.00015985427
0000d0 68 b5 c6 38 a3 a6 00 39 02 62 27 b8 50 b0 1b 39
       9.475165e-05 0.00012269108 -3.990718e-05 0.00014847633
0000e0 ee 7b 20 b9 43 a4 03 39 b3 9f 09 39 26 30 02 39
       -0.00015304956 0.00012554326 0.00013124831 0.00012415703
0000f0 f7 86 38 39 52 37 36 b9 f1 b2 1e 39 2c 49 25 39
       0.00017597886 -0.00017377481 0.00015134715 0.00015762885

mlp.mlp.fc_h.0.weight f4 [64, 64]
000000 76 bc e8 3c fb b3 00 be 5c 6d 0b 3d 4a 36 09 3e
       0.028410178 -0.12568657 0.03403984 0.13399616
000010 36 37 63 be 95 be 1f 3e b5 b3 aa bd a4 09 1b be
       -0.2218903 0.15600045 -0.08335058 -0.15140396
000020 f1 5b 55 be 36 5a 36 3e bd 53 4d 3d 6d e5 ee be
       -0.20835854 0.1780785 0.050128687 -0.46659413
000030 b8 2e 90 be 39 bc 86 bd c2 58 5d be 83 16 4a 3e
       -0.28160644 -0.065788694 -0.2161589 0.1973515
000040 9e 6c f6 bc b6 b9 7b 3e 91 b2 12 3e aa b4 a0 bb
       -0.03008109 0.24582562 0.1432593 -0.0049043493
000050 5f 77 91 bd a6 ab 82 3c 96 92 a4 3e 99 c3 9d be
       -0.07102846 0.015950989 0.32143086 -0.30813292
000060 72 85 08 be d6 3c dc 3d fd 91 75 be 73 2c 0b 3e
       -0.13332155 0.10753791 -0.23981471 0.13591175
000070 9a f1 7a 3e f9 9f 15 bb 10 9a 9a bd 32 2a e9 bd
       0.24506226 -0.0022830947 -0.07548916 -0.11385001
000080 cb 0b b8 3e a2 f2 81 bb 04 a9 e1 3b c6 8c 0d be
       0.35946497 -0.0039656917 0.0068866033 -0.13823232
000090 b6 3c 4c 3c d2 fb c4 be 73 cf a5 be 4a 3d ef bc
       0.0124656465 -0.38473374 -0.32384834 -0.02920403
0000a0 3d c7 0f bd 20 ed 5f 3d ce 5d 02 bd f9 0e 2d be
       -0.035102118 0.0546695 -0.03182774 -0.16900243
0000b0 d3 d1 92 3e e4 84 07 3b bd 15 16 bd 35 51 37 3e
       0.28675708 0.0020678574 -0.036641825 0.17902072
0000c0 af 4a a2 bd d2 8b 20 3d d3 10 88 3e 12 82 84 be
       -0.07924401 0.039195843 0.26575336 -0.25880486
0000d0 85 4b 51 3e a1 c6 9b 3d e1 93 4f 3e 44 19 14 be
       0.20438965 0.07606245 0.20271255 -0.14462763
0000e0 f5 d3 41 be c0 e3 e8 3b fe 1b 0b 3e 4c 53 87 3d
       -0.18928511 0.007107228 0.13584897 0.066076845
0000f0 76 4f 0b be 22 92 b6 bd ed fd 13 be 7a ed f1 bd
       -0.1360453 -0.08914591 -0.14452334 -0.11812873
000100 d7 9f 9f 3e 81 08 14 bd 8f 51 0b 3d 69 f5 2f be
       0.31176636 -0.036140922 0.034013327 -0.1718346
000110 67 ef c7 3d b4 47 05 3f 29 44 06 bf db 2e c4 bd
       0.09762459 0.52062535 -0.52447754 -0.095792495
000120 5e 00 94 bd 3f 92 d7 3c 5b 77 80 be d3 99 0c 3d
       -0.072266325 0.026314853 -0.2509106 0.034326386
000130 d9 ea 46 3d 6f d3 f2 3b b5 42 42 be ae ae 09 3d
       0.048563812 0.0074104588 -0.18970759 0.033613853
000140 2b 6f e9 3c ae 14 2a be a1 40 e0 3d 0b e0 f6 3c
       0.028495392 -0.16609451 0.10949827 0.030136129
000150 d7 c4 db 3d e4 1e 90 bc 73 67 86 3d 1f 62 6c bd
       0.107309036 -0.017592855 0.065627 -0.057710763
000160 66 b4 29 bc e6 e1 b9 be 24 bf a9 3d 5e 8d 83 3e
       -0.010357952 -0.3630516 0.0828841 0.25693792
000170 a1 97 23 be 0b 16 3f 3e be f3 65 3d 3d 11 9b bb
       -0.1597581 0.18660752 0.056140654 -0.0047322796
000180 6f ee 49 be 81 36 bc 3d 15 25 94 bd c9 5d d8 3d
       -0.19719861 0.09190083 -0.07233635 0.10564763
000190 c2 f5 5d be 85 2f a1 3d 47 6c 3f 3e b8 0b 04 3e
       -0.2167578 0.07870392 0.18693648 0.12895095
0001a0 0a e7 8a be c9 de f8 3c 41 ad 4e 3e d4 dc 37 be
       -0.27129394 0.03037967 0.20183279 -0.17955333
0001b0 70 ed b1 3e b6 61 53 be 2c fe de 3d 40 c8 b6 3d
       0.34751463 -0.20642743 0.10888323 0.089249134
0001c0 b1 d0 03 3d 6a bc d9 3d 3c 46 f4 3c cb 99 81 3e
       0.032181446 0.1063164 0.029818647 0.25312647
0001d0 89 b0 4c bd 1f 8c 98 be 87 0f f6 3d 23 06 56 be
       -0.049973045 -0.29794404 0.1201468 -0.20900778
0001e0 73 5f ab bd 9d ae ba bd ea 69 bd 3d 9c ee 2f 3e
       -0.08367815 -0.09115336 0.09248717 0.17180866
0001f0 a1 07 06 3e 99 60 04 be 19 6a 6e 3e 27 39 7f 3b
       0.13088848 -0.12927474 0.2328266 0.0038943978
000200 71 e8 7b be 17 34 56 3e c7 56 39 3e a1 bc 87 bd
       -0.24600388 0.20918308 0.18099509 -0.06627775
000210 2d 87 64 3c 2f 54 ba bd 1b cd 72 bc 65 7c 09 3e
       0.013948244 -0.09098088 -0.014819409 0.13426359
000220 25 e7 6d be 9e 99 44 3e 2d 56 22 be 3d 1d 0c be
       -0.23232706 0.19199225 -0.15853186 -0.13683029
000230 e0 5a ca 3e 08 43 ec 3c 57 cf 98 bd 65 f6 f2 3b
       0.39522457 0.028840557 -0.07461422 0.0074146264
000240 4c 25 bb bd d6 57 b6 3e ae 2c 10 3e 9f 01 c3 3e
       -0.09137973 0.35613889 0.14079544 0.38087174
000250 53 29 1d 3e e4 db 45 be 2f e8 8a 3e d5 73 8f 3e
       0.15347795 -0.19322163 0.27130267 0.2801806
000260 a6 4e 37 3e a1 8e 56 3e a4 0d 51 3e 88 1c 2d 3e
       0.17901096 0.20952846 0.2041536 0.16905415
000270 10 35 be bd 16 aa 07 bd a3 07 05 be 8d ec 0c be
       -0.092874646 -0.03312119 -0.12991194 -0.13762112
000280 25 a7 b0 3c 78 1f 08 bb 11 46 81 be 2e a4 0d 3e
       0.021564076 -0.002077071 -0.2524877 0.13832161
000290 e7 ed c6 bb 77 3f 11 be 26 05 46 bd 34 29 d0 3d
       -0.0060708406 -0.14184366 -0.048344754 0.10164109
0002a0 16 4e cc bb 7c fa 11 3c 90 6d 89 3e fd 65 b5 3d
       -0.0062348945 0.008909818 0.26841402 0.08857343
0002b0 ba 5c ce bd 7c 4f 28 3d cb 15 46 be 74 b9 5c 3d
       -0.1007628 0.041091427 -0.19344251 0.0538878
0002c0 ad 88 03 be 37 03 f6 3d cf e0 6b 3d 9d 67 83 3e
       -0.12845106 0.12012332 0.05758744 0.25664988
0002d0 02 4d 04 be bd 00 42 3e 9f ac a2 3e 56 d5 70 bc
       -0.12920001 0.18945594 0.31772324 -0.014699301
0002e0 72 af b2 3b 67 c3 c9 bd c1 f1 29 be 61 67 db be
       0.0054530436 -0.09851723 -0.16596128 -0.4285231
0002f0 89 06 a8 3d 99 7f 73 be b7 de d7 3d 20 b1 37 3e
       0.082043715 -0.23779143 0.10540526 0.17938662
000300 46 3d d5 3d d9 83 8e be 09 52 60 bd cd f0 8d 3b
       0.104120776 -0.27834967 -0.054765735 0.004331684
000310 65 66 a5 bd c7 9a 82 be 61 37 03 3d c3 0d d0 3d
       -0.08076171 -0.2550871 0.032035235 0.10158875
000320 f6 a9 4c be ab f1 bc 3e 29 9c 27 be 4a bf 00 be
       -0.1998671 0.36903128 -0.16368164 -0.12572971
000330 98 af f6 bc 27 ca 6b bc 91 b1 5f 3e 56 d1 cf be
       -0.030113026 -0.014391459 0.2184508 -0.40589398
000340 f9 0f 24 bd db a9 62 bd a6 cc 04 be 30 2b 0e 3e
       -0.040054295 -0.055337768 -0.12968692 0.13883662
000350 a6 9e d6 bd fa 34 5f bc 94 07 e0 3d ab 73 8c bd
       -0.104794785 -0.01362347 0.109389454 -0.068579994
000360 82 21 c9 3e 20 e4 3e be a2 cb 89 be 42 0f 03 bd
       0.39283377 -0.1864171 -0.26913172 -0.031996973
000370 9a 17 07 be bc a2 cc 3d de ef c5 be 56 6f 33 bd
       -0.13192597 0.099919766 -0.38659567 -0.04380735
000380 f2 3a bd 3d e0 cc 19 be 2c 93 9b 3e 95 fe 22 3d
       0.092397586 -0.1501956 0.3038572 0.03979357
000390 c5 b8 6d 3c 76 6c 84 3e 55 72 37 be ca d3 ec bd
       0.0145093845 0.25864 -0.17914708 -0.11563833
0003a0 c1 a7 47 3e a2 ab 18 be 88 da 2c 3e cc e1 a0 be
       0.19497587 -0.14909223 0.16880238 -0.3142227
0003b0 e2 c4 15 bd 9b 01 2b 3e 09 0b 7c bd 42 6d 12 be
       -0.036564715 0.16699831 -0.06153396 -0.14299491
0003c0 b2 78 ca 3d 06 ea 0a 3c 38 5e ec bd 2c 3d d6 3e
       0.09886302 0.008478647 -0.11541408 0.41843545
0003d0 9a 1a 56 3d 55 f8 a3 bd ed c6 b0 3d 7c f5 29 3c
       0.052271463 -0.0800635 0.08631692 0.010373469
0003e0 b0 4b 46 3c 0c df 45 be 0e b2 24 3e 75 44 78 3e
       0.012103006 -0.19323367 0.16083547 0.24244864
0003f0 83 b2 89 3d aa 24 98 bd 9e 42 2a be d1 0c 32 be
       0.067235015 -0.07428868 -0.16626975 -0.17387702

mlp.mlp.fc_h.0.bias f4 [64]
000000 00 00 00 00 00 00 00 00 00 00 00 00 00 00 00 00
       0.0 0.0 0.0 0.0
000010 00 00 00 00 00 00 00 00 00 00 00 00 00 00 00 00
       0.0 0.0 0.0 0.0
000020 00 00 00 00 00 00 00 00 00 00 00 00 00 00 00 00
       0.0 0.0 0.0 0.0
000030 00 00 00 00 00 00 00 00 00 00 00 00 00 00 00 00
       0.0 0.0 0.0 0.0
000040 00 00 00 00 00 00 00 00 00 00 00 00 00 00 00 00
       0.0 0.0 0.0 0.0
000050 00 00 00 00 00 00 00 00 00 00 00 00 00 00 00 00
       0.0 0.0 0.0 0.0
000060 00 00 00 00 00 00 00 00 00 00 00 00 00 00 00 00
       0.0 0.0 0.0 0.0
000070 00 00 00 00 00 00 00 00 00 00 00 00 00 00 00 00
       0.0 0.0 0.0 0.0
000080 00 00 00 00 00 00 00 00 00 00 00 00 00 00 00 00
       0.0 0.0 0.0 0.0
000090 00 00 00 00 00 00 00 00 00 00 00 00 00 00 00 00
       0.0 0.0 0.0 0.0
0000a0 00 00 00 00 00 00 00 00 00 00 00 00 00 00 00 00
       0.0 0.0 0.0 0.0
0000b0 00 00 00 00 00 00 00 00 00 00 00 00 00 00 00 00
       0.0 0.0 0.0 0.0
0000c0 00 00 00 00 00 00 00 00 00 00 00 00 00 00 00 00
       0.0 0.0 0.0 0.0
0000d0 00 00 00 00 00 00 00 00 00 00 00 00 00 00 00 00
       0.0 0.0 0.0 0.0
0000e0 00 00 00 00 00 00 00 00 00 00 00 00 00 00 00 00
       0.0 0.0 0.0 0.0
0000f0 00 00 00 00 00 00 00 00 00 00 00 00 00 00 00 00
       0.0 0.0 0.0 0.0

mlp.mlp.fc_h.2.weight f4 [64]
000000 00 00 80 3f 00 00 80 3f 00 00 80 3f 00 00 80 3f
       1.0 1.0 1.0 1.0
000010 00 00 80 3f 00 00 80 3f 00 00 80 3f 00 00 80 3f
       1.0 1.0 1.0 1.0
000020 00 00 80 3f 00 00 80 3f 00 00 80 3f 00 00 80 3f
       1.0 1.0 1.0 1.0
000030 00 00 80 3f 00 00 80 3f 00 00 80 3f 00 00 80 3f
       1.0 1.0 1.0 1.0
000040 00 00 80 3f 00 00 80 3f 00 00 80 3f 00 00 80 3f
       1.0 1.0 1.0 1.0
000050 00 00 80 3f 00 00 80 3f 00 00 80 3f 00 00 80 3f
       1.0 1.0 1.0 1.0
000060 00 00 80 3f 00 00 80 3f 00 00 80 3f 00 00 80 3f
       1.0 1.0 1.0 1.0
000070 00 00 80 3f 00 00 80 3f 00 00 80 3f 00 00 80 3f
       1.0 1.0 1.0 1.0
000080 00 00 80 3f 00 00 80 3f 00 00 80 3f 00 00 80 3f
       1.0 1.0 1.0 1.0
000090 00 00 80 3f 00 00 80 3f 00 00 80 3f 00 00 80 3f
       1.0 1.0 1.0 1.0
0000a0 00 00 80 3f 00 00 80 3f 00 00 80 3f 00 00 80 3f
       1.0 1.0 1.0 1.0
0000b0 00 00 80 3f 00 00 80 3f 00 00 80 3f 00 00 80 3f
       1.0 1.0 1.0 1.0
0000c0 00 00 80 3f 00 00 80 3f 00 00 80 3f 00 00 80 3f
       1.0 1.0 1.0 1.0
0000d0 00 00 80 3f 00 00 80 3f 00 00 80 3f 00 00 80 3f
       1.0 1.0 1.0 1.0
0000e0 00 00 80 3f 00 00 80 3f 00 00 80 3f 00 00 80 3f
       1.0 1.0 1.0 1.0
0000f0 00 00 80 3f 00 00 80 3f 00 00 80 3f 00 00 80 3f
       1.0 1.0 1.0 1.0

mlp.mlp.fc_h.2.bias f4 [64]
000000 00 00 00 00 00 00 00 00 00 00 00 00 00 00 00 00
       0.0 0.0 0.0 0.0
000010 00 00 00 00 00 00 00 00 00 00 00 00 00 00 00 00
       0.0 0.0 0.0 0.0
000020 00 00 00 00 00 00 00 00 00 00 00 00 00 00 00 00
       0.0 0.0 0.0 0.0
000030 00 00 00 00 00 00 00 00 00 00 00 00 00 00 00 00
       0.0 0.0 0.0 0.0
000040 00 00 00 00 00 00 00 00 00 00 00 00 00 00 00 00
       0.0 0.0 0.0 0.0
000050 00 00 00 00 00 00 00 00 00 00 00 00 00 00 00 00
       0.0 0.0 0.0 0.0
000060 00 00 00 00 00 00 00 00 00 00 00 00 00 00 00 00
       0.0 0.0 0.0 0.0
000070 00 00 00 00 00 00 00 00 00 00 00 00 00 00 00 00
       0.0 0.0 0.0 0.0
000080 00 00 00 00 00 00 00 00 00 00 00 00 00 00 00 00
       0.0 0.0 0.0 0.0
000090 00 00 00 00 00 00 00 00 00 00 00 00 00 00 00 00
       0.0 0.0 0.0 0.0
0000a0 00 00 00 00 00 00 00 00 00 00 00 00 00 00 00 00
       0.0 0.0 0.0 0.0
0000b0 00 00 00 00 00 00 00 00 00 00 00 00 00 00 00 00
       0.0 0.0 0.0 0.0
0000c0 00 00 00 00 00 00 00 00 00 00 00 00 00 00 00 00
       0.0 0.0 0.0 0.0
0000d0 00 00 00 00 00 00 00 00 00 00 00 00 00 00 00 00
       0.0 0.0 0.0 0.0
0000e0 00 00 00 00 00 00 00 00 00 00 00 00 00 00 00 00
       0.0 0.0 0.0 0.0
0000f0 00 00 00 00 00 00 00 00 00 00 00 00 00 00 00 00
       0.0 0.0 0.0 0.0

mlp.mlp.fc2.0.0.weight f4 [64, 64]
000000 dc 47 e8 3c a2 a9 00 be 88 fd 0a 3d a4 4c 09 3e
       0.028354578 -0.1256471 0.033933192 0.13408142
000010 b8 50 63 be 55 df 1f 3e 9c 90 aa bd a8 fa 1a be
       -0.2219876 0.15612538 -0.08328363 -0.1513468
000020 91 4f 55 be c3 41 36 3e 0f 4c 4d 3d 03 ec ee be
       -0.20831133 0.17798524 0.050121363 -0.46664438
000030 5d 26 90 be 70 ee 86 bd d7 56 5d be 04 06 4a 3e
       -0.2815427 -0.06588447 -0.21615158 0.19728857
000040 a6 d0 f5 bc 7e bf 7b 3e 85 b4 12 3e ef c8 a2 bb
       -0.030006718 0.24584767 0.14326675 -0.004967801
000050 a3 4b 91 bd f9 4a 83 3c 29 84 a4 3e d6 b9 9d be
       -0.07094505 0.01602696 0.3213208 -0.30805844
000060 98 70 08 be 59 23 dc 3d d7 9f 75 be 38 1a 0b 3e
       -0.13324201 0.107489295 -0.23986755 0.1358422
000070 55 e0 7a 3e de f4 13 bb ba 7a 9a bd 75 35 e9 bd
       0.24499638 -0.0022576372 -0.075429395 -0.11387149
000080 86 1b b8 3e 84 25 7d bb 6c 0c e4 3b cf 9a 0d be
       0.359585 -0.0038627097 0.0069594886 -0.13828586
000090 32 56 4d 3c 64 06 c5 be 4c c9 a5 be 18 e4 ee bc
       0.012532758 -0.38481438 -0.3238014 -0.029161498
0000a0 8a 09 10 bd 9d 30 60 3d 13 71 02 bd 32 0b 2d be
       -0.035165347 0.05473386 -0.031846117 -0.16898802
0000b0 65 cf 92 3e a7 d1 07 3b 7e f7 15 bd 8f 6d 37 3e
       0.28673854 0.0020724328 -0.03661298 0.17912887
0000c0 c0 27 a2 bd 69 2f 20 3d a0 06 88 3e 8c 84 84 be
       -0.07917738 0.039107714 0.26567554 -0.25882375
0000d0 61 31 51 3e 3e b6 9b 3d 6c 79 4f 3e bb 0e 14 be
       0.20428993 0.07603119 0.20261163 -0.14458744
0000e0 d4 ce 41 be b2 8f e6 3b 67 28 0b 3e 49 66 87 3d
       -0.18926555 0.007036173 0.13589631 0.06611306
0000f0 98 5d 0b be 19 c3 b6 bd 6d f6 13 be 5d e3 f1 bd
       -0.13609922 -0.08923931 -0.14449473 -0.11810944
000100 5e aa 9f 3e 6e 7e 14 bd f5 4e 0b 3d 4e fc 2f be
       0.31184667 -0.036253385 0.034010846 -0.1718609
000110 f3 2e c8 3d aa 40 05 3f 51 48 06 bf 6f ff c3 bd
       0.0977458 0.52051795 -0.52454096 -0.095702045
000120 89 e3 93 bd a7 fb d7 3c 62 87 80 be 13 f7 0c 3d
       -0.07221133 0.026365114 -0.2510329 0.034415316
000130 fc 58 46 3d 9f 0e f3 3b 19 41 42 be ab cd 09 3d
       0.048424706 0.0074175145 -0.18970145 0.033643406
000140 a0 bc e8 3c e4 29 2a be 96 64 e0 3d 99 6c f6 3c
       0.028410256 -0.16617543 0.10956685 0.03008108
000150 ff f6 db 3d 44 56 90 bc 66 b9 86 3d 44 ea 6b bd
       0.1074047 -0.01761926 0.06578331 -0.05759646
000160 5a f6 27 bc db e2 b9 be ca c0 a9 3d 32 88 83 3e
       -0.010251606 -0.3630589 0.08288725 0.25689846
000170 b0 9a 23 be 62 19 3f 3e aa 91 65 3d 45 16 9f bb
       -0.15976977 0.18662027 0.05604712 -0.0048549497
000180 b0 e2 49 be 64 5f bc 3d fe 24 94 bd 2a 18 d8 3d
       -0.1971538 0.09197882 -0.07233618 0.10551484
000190 65 0c 5e be 82 02 a1 3d 26 5a 3f 3e 7d f5 03 3e
       -0.21684416 0.078618065 0.18686733 0.12886615
0001a0 f5 e8 8a be 78 0a f8 3c 76 b8 4e 3e 34 c4 37 be
       -0.27130857 0.03027843 0.20187554 -0.1794594
0001b0 15 e7 b1 3e 70 5b 53 be 9d d6 de 3d 7c db b6 3d
       0.34746614 -0.2064035 0.10880778 0.08928582
0001c0 f0 da 03 3d 23 b9 d9 3d 4b af f3 3c 24 a2 81 3e
       0.032191217 0.10631015 0.029746672 0.25319016
0001d0 b1 1f 4c bd fb 9b 98 be 22 51 f6 3d 7c f7 55 be
       -0.04983491 -0.29806504 0.120271936 -0.20895189
0001e0 2b 2f ab bd 3b 8b ba bd b8 38 bd 3d 97 e7 2f 3e
       -0.08358606 -0.09108587 0.09239334 0.17178188
0001f0 ca 22 06 3e df 5e 04 be ac 48 6e 3e c9 a0 81 3b
       0.13099208 -0.12926815 0.2326991 0.0039559347
000200 ad e7 7b be 2c 16 56 3e 2e 54 39 3e bf d0 87 bd
       -0.24600096 0.20906895 0.18098518 -0.06631612
000210 28 c3 65 3c 88 80 ba bd ed b0 74 bc 61 a0 09 3e
       0.01402358 -0.09106547 -0.0149347605 0.13440086
000220 2b e0 6d be 33 c3 44 3e a8 70 22 be 24 15 0c be
       -0.23230045 0.19215088 -0.15863287 -0.1367994
000230 d4 4c ca 3e 82 7c ec 3c ac 00 99 bd 29 51 f6 3b
       0.3951174 0.028867964 -0.07470831 0.0075169993
000240 dd 02 bb bd a2 4a b6 3e e8 47 10 3e 76 0f c3 3e
       -0.091314055 0.35603815 0.1408993 0.38097733
000250 38 4b 1d 3e b8 f4 45 be ea fc 8a 3e 73 82 8f 3e
       0.15360725 -0.19331634 0.27146083 0.28029212
000260 1e 59 37 3e a5 7b 56 3e f4 0d 51 3e e8 1c 2d 3e
       0.1790509 0.20945604 0.20415479 0.16905558
000270 0c f0 bd bd ba 9a 07 bd 74 24 05 be 71 01 0d be
       -0.09274301 -0.033106543 -0.13002187 -0.13770081
000280 5e a9 af 3c 5e 40 0e bb 57 4c 81 be 16 8f 0d 3e
       0.021443065 -0.0021705846 -0.25253555 0.13824114
000290 9e cf ca bb a4 4d 11 be 5d 8e 46 bd 1f ed cf 3d
       -0.0061893007 -0.14189774 -0.048475612 0.10152649
0002a0 7f b2 c9 bb d0 28 10 3c 3e 73 89 3e 4a 82 b5 3d
       -0.0061553116 0.008798793 0.26845735 0.08862741
0002b0 35 a4 ce bd 88 e7 28 3d f2 31 46 be 5d 35 5c 3d
       -0.10089914 0.04123643 -0.1935499 0.05376183
0002c0 b7 a9 03 be a5 44 f6 3d 88 35 6c 3d dc 6b 83 3e
       -0.1285771 0.12024812 0.05766824 0.25668228
0002d0 32 31 04 be b7 e3 41 3e 06 b2 a2 3e 29 a1 72 bc
       -0.12909392 0.18934523 0.31776446 -0.014808931
0002e0 dc 31 b4 3b 79 7b c9 bd 13 16 2a be 64 69 db be
       0.0054991078 -0.09838004 -0.16609983 -0.42853844
0002f0 42 f7 a7 3d 7e 6f 73 be a6 f8 d7 3d b0 b9 37 3e
       0.082014576 -0.23773 0.10545473 0.17941928
000300 a1 76 d5 3d 6d 92 8e be 20 be 5f bd 23 02 91 3b
       0.10423017 -0.2784609 -0.054624677 0.0044253035
000310 17 49 a5 bd 01 a9 82 be 55 b9 02 3d e4 08 d0 3d
       -0.080705814 -0.25519565 0.031915028 0.10157946
000320 2f 99 4c be 80 fd bc 3e 4c b4 27 be c9 9b 00 be
       -0.1998031 0.36912155 -0.16377372 -0.12559427
000330 62 fd f6 bc cd e6 6b bc c5 a0 5f 3e dc c8 cf be
       -0.03015012 -0.014398289 0.21838672 -0.4058293
000340 50 2e 24 bd 11 f1 62 bd 06 da 04 be 70 12 0e 3e
       -0.04008323 -0.05540568 -0.12973794 0.13874221
000350 45 5a d6 bd c2 63 5e bc 4a 57 e0 3d 97 47 8c bd
       -0.10466436 -0.013573589 0.10954149 -0.06849592
000360 96 1e c9 3e 5e ff 3e be 71 c0 89 be 92 c1 02 bd
       0.39281148 -0.18652102 -0.26904634 -0.031922884
000370 d8 0a 07 be 49 ca cc 3d 29 01 c6 be 05 c9 33 bd
       -0.1318773 0.0999952 -0.3867276 -0.04389288
000380 bd 03 bd 3d 1b bc 19 be b0 9a 9b 3e 1b 7f 22 3d
       0.09229229 -0.15013163 0.30391455 0.039672
000390 a3 9a 6e 3c 1e 5d 84 3e 18 8b 37 be 03 0c ed bd
       0.014563235 0.25852293 -0.17924154 -0.11574557
0003a0 47 bf 47 3e 6a c2 18 be 1f c6 2c 3e 0e d8 a0 be
       0.1950656 -0.14917913 0.16872452 -0.31414837
0003b0 77 33 16 bd 29 10 2b 3e de 19 7c bd b5 89 12 be
       -0.036670174 0.16705383 -0.061548106 -0.14310344
0003c0 a0 71 ca 3d c5 b7 0b 3c a2 54 ec bd 3c 43 d6 3e
       0.098849535 0.008527701 -0.1153958 0.4184817
0003d0 81 7f 56 3d a8 33 a4 bd 0f 0c b1 3d ae c0 28 3c
       0.05236769 -0.08017665 0.08644878 0.010299845
0003e0 e3 a6 47 3c 75 ba 45 be b0 93 24 3e 82 27 78 3e
       0.012185785 -0.19309409 0.16071963 0.24233821
0003f0 9d be 89 3d 32 4c 98 bd e7 54 2a be 2b 0b 32 be
       0.0672581 -0.07436408 -0.1663395 -0.17387073

mlp.mlp.fc2.0.0.bias f4 [64]
000000 ad 8b d2 b5 07 47 22 b7 0f 74 12 39 fd f7 10 39
       -1.568687e-06 -9.67249e-06 0.0001396688 0.00013825293
000010 ca 30 18 39 19 71 03 b9 e3 ed 24 b9 6d 89 d0 b8
       0.00014514025 -0.00012535266 -0.00015728878 -9.9438104e-05
000020 44 95 21 39 16 a9 28 39 22 01 22 39 53 3d 13 39
       0.00015409762 0.00016084718 0.00015449946 0.00014041858
000030 85 48 24 b9 08 2f a9 b8 1f 75 20 39 92 7c 03 b9
       -0.00015667274 -8.067308e-05 0.0001530242 -0.0001253954
000040 08 d8 08 b9 b9 9a da b8 84 7d 67 b6 aa bd e0 b8
       -0.00013050449 -0.000104238694 -3.4494742e-06 -0.0001071648
000050 46 7e 07 39 22 83 d9 b8 0a aa 2c 39 d6 2e 60 37
       0.00012921644 -0.00010371792 0.00016466543 1.3362345e-05
000060 f9 6a 0f b9 28 6d 97 38 0a 23 2e b9 a2 b6 d2 b8
       -0.00013677393 7.220573e-05 -0.00016606986 -0.00010047598
000070 1d ad 0d b9 bc 86 ee b8 6d c6 19 b9 60 ac 2b b9
       -0.00013511298 -0.000113738206 -0.00014665136 -0.00016372046
000080 c9 66 28 39 7a 63 9b 37 ae d2 01 39 ab 48 2f b9
       0.00016060019 1.8523762e-05 0.00012380883 -0.00016716371
000090 40 5b 21 39 b9 94 f8 38 80 60 09 39 29 5b 25 39
       0.0001538815 0.00011853263 0.00013101287 0.00015769586
0000a0 be 29 aa b8 a5 c8 f5 b8 85 2f 30 38 1d e4 f1 38
       -8.114007e-05 -0.00011719883 4.2005926e-05 0.00011534265
0000b0 35 4c 92 38 93 85 1b 39 bf 4c 14 b9 fd 14 ed b8
       6.976017e-05 0.00014831712 -0.0001414297 -0.0001130495
0000c0 9c b8 0e b9 b1 ae 5f b8 c4 f6 9c 38 af f2 0c 39
       -0.00013610948 -5.3330037e-05 7.484623e-05 0.00013441847
0000d0 8e d5 c0 b8 9b 62 c9 38 74 f2 fb b8 7f 66 1b 39
       -9.195051e-05 9.6027936e-05 -0.00012013773 0.00014820135
0000e0 c9 7c 1a b9 7f 76 24 b9 de a6 13 b8 b4 cc 80 b8
       -0.0001473307 -0.00015684402 -3.520294e-05 -6.1416446e-05
0000f0 bc 77 f7 38 08 49 0b b9 0a 49 27 38 de cd 07 b9
       0.0001180018 -0.00013283279 3.9883926e-05 -0.00012951295

mlp.mlp.fc2.0.2.weight f4 [64]
000000 fc f8 7f 3f ab f6 7f 3f a2 02 80 3f bc fa 7f 3f
       0.99989295 0.9998576 1.0000803 0.99991965
000010 60 00 80 3f 29 01 80 3f 74 04 80 3f 7c fa 7f 3f
       1.0000114 1.0000354 1.0001359 0.99991584
000020 8f 01 80 3f 23 f9 7f 3f e3 04 80 3f 32 00 80 3f
       1.0000476 0.9998953 1.0001491 1.000006
000030 52 f5 7f 3f 9f f7 7f 3f 1c 01 80 3f 98 f9 7f 3f
       0.99983704 0.99987215 1.0000339 0.99990225
000040 64 f8 7f 3f cf 02 80 3f c1 01 80 3f 41 fa 7f 3f
       0.9998839 1.0000857 1.0000535 0.9999123
000050 4b f9 7f 3f dc 03 80 3f 16 04 80 3f 7c 02 80 3f
       0.99989766 1.0001178 1.0001247 1.0000758
000060 20 fb 7f 3f e8 01 80 3f 8c 03 80 3f 1a 03 80 3f
       0.9999256 1.0000582 1.0001082 1.0000947
000070 e4 03 80 3f 4e 04 80 3f fe f5 7f 3f a0 03 80 3f
       1.0001187 1.0001314 0.9998473 1.0001106
000080 4a 05 80 3f 5e f9 7f 3f 08 03 80 3f 09 01 80 3f
       1.0001614 0.9998988 1.0000925 1.0000316
000090 89 01 80 3f 71 03 80 3f 30 fd 7f 3f 24 00 80 3f
       1.0000468 1.000105 0.9999571 1.0000043
0000a0 b0 f6 7f 3f a6 f5 7f 3f c1 01 80 3f 49 fd 7f 3f
       0.9998579 0.99984205 1.0000535 0.9999586
0000b0 41 01 80 3f 11 04 80 3f f2 f7 7f 3f ff f6 7f 3f
       1.0000383 1.0001241 0.9998771 0.9998626
0000c0 1d 04 80 3f 4f fa 7f 3f f0 fa 7f 3f a3 00 80 3f
       1.0001255 0.99991316 0.99992275 1.0000194
0000d0 c2 f8 7f 3f 3f 03 80 3f e2 03 80 3f 43 fa 7f 3f
       0.9998895 1.0000991 1.0001185 0.99991244
0000e0 df fd 7f 3f f5 f8 7f 3f 91 03 80 3f a8 01 80 3f
       0.9999675 0.99989253 1.0001088 1.0000505
0000f0 4c ff 7f 3f c2 02 80 3f 20 03 80 3f 5d 04 80 3f
       0.9999893 1.0000842 1.0000954 1.0001332

mlp.mlp.fc2.0.2.bias f4 [64]
000000 dd 73 6d 38 07 10 24 39 58 10 24 39 99 72 ff 38
       5.661311e-05 0.0001564623 0.00015646347 0.00012180693
000010 72 64 2d 39 a1 8b 18 b9 0f 22 37 b9 c3 7b df b8
       0.00016535984 -0.00014547865 -0.00017464928 -0.00010656521
000020 02 26 36 39 02 e3 34 39 93 53 bf 38 a0 41 1d 39
       0.00017371032 0.00017250705 9.1231566e-05 0.00014997134
000030 a5 01 20 b9 3d 1a 87 b7 5c 19 33 39 63 7b 95 b8
       -0.00015259402 -1.6105472e-05 0.00017080217 -7.127856e-05
000040 29 47 0d b9 0c 53 21 b9 05 f0 10 b9 61 e2 d5 b8
       -0.00013473317 -0.00015385094 -0.00013822324 -0.00010198798
000050 c1 e7 14 39 4f 8f 2c b9 ee 4b 2d 39 67 22 9f 37
       0.00014200715 -0.00016456585 0.00016526852 1.8970297e-05
000060 77 5e 11 b9 74 ef b0 38 89 62 3e b9 c4 36 10 b9
       -0.00013863468 8.4369356e-05 -0.00018156519 -0.00013753312
000070 fb 32 2a b9 02 93 1e b9 8d 39 06 b9 3f 43 38 b9
       -0.00016231455 -0.00015122819 -0.00012800675 -0.00017572659
000080 f4 be 0f 39 08 fc f9 38 38 17 d4 38 ae 4d 35 b9
       0.00013708678 0.0001192019 0.000101132726 -0.00017290443
000090 73 a0 32 39 49 e4 02 39 92 d4 1e 39 45 e8 38 39
       0.00017035175 0.00012482809 0.00015147243 0.00017634135
0000a0 66 7d c4 38 a5 5c 20 38 da 6a 86 38 05 64 15 39
       9.3693656e-05 3.8233255e-05 6.4095206e-05 0.00014247007
0000b0 db f3 68 38 25 4d 2d 39 69 ed 0b b9 fd bb 83 b8
       5.554022e-05 0.00016527304 -0.00013344515 -6.281582e-05
0000c0 42 2b 31 b9 bb f4 b3 b7 73 d0 f1 38 84 5b 17 39
       -0.0001689615 -2.1452424e-05 0.00011530602 0.00014434574
0000d0 ca e7 85 38 c6 4c 01 39 b7 c5 27 b9 3f 3c 2b 39
       6.385108e-05 0.00012330999 -0.00016000016 0.00016330274
0000e0 22 d3 2e b9 df c8 2b b9 ed ab 1e b9 9b d4 c9 b8
       -0.00016672586 -0.00016382661 -0.00015132102 -9.624028e-05
0000f0 43 57 07 39 65 12 17 b9 d4 3f 14 37 22 96 32 b9
       0.00012907111 -0.00014407335 8.836349e-06 -0.00017031332

mlp.mlp.fc2.1.0.weight f4 [64, 64]
000000 84 e1 e8 3c 87 ac 00 be 06 c8 0b 3d 7d 3b 09 3e
       0.028427847 -0.12565814 0.034126304 0.13401599
000010 96 23 63 be cc ae 1f 3e 4e df aa bd bd 1f 1b be
       -0.22181544 0.15594023 -0.08343373 -0.15148826
000020 a6 4f 55 be 1c 5b 36 3e 9b 10 4d 3d 75 e4 ee be
       -0.20831165 0.17808193 0.050064664 -0.46658674
000030 30 2a 90 be 7d db 86 bd 5a 5b 5d be 80 28 4a 3e
       -0.28157187 -0.06584833 -0.21616879 0.19742012
000040 02 38 f6 bc f9 c0 7b 3e bf c0 12 3e 79 80 9f bb
       -0.030056003 0.24585332 0.1433134 -0.00486761
000050 64 9e 91 bd dd be 82 3c 06 91 a4 3e 50 c5 9d be
       -0.07110289 0.015960151 0.32141894 -0.308146
000060 c6 70 08 be 00 41 dc 3d 9e 9a 75 be 94 3b 0b 3e
       -0.1332427 0.10754585 -0.23984763 0.13596946
000070 5c fb 7a 3e 99 e9 12 bb c5 c3 9a bd cb 28 e9 bd
       0.24509948 -0.0022417067 -0.07556871 -0.11384734
000080 c3 12 b8 3e 8a aa 81 bb cc e9 e2 3b 36 8f 0d be
       0.35951814 -0.0039570974 0.0069248434 -0.13824162
000090 52 4f 4c 3c 51 03 c5 be dd cb a5 be 2c 09 ef bc
       0.012470083 -0.38479093 -0.32382098 -0.029179178
0000a0 31 e7 0f bd fb 48 60 3d 1d 8b 02 bd d3 25 2d be
       -0.03513259 0.0547571 -0.03187095 -0.1690896
0000b0 7a cb 92 3e bd ea 03 3b 37 ca 15 bd b2 47 37 3e
       0.28670865 0.0020128929 -0.0365698 0.17898443
0000c0 db 29 a2 bd 9b 3e 20 3d ec 0f 88 3e d8 79 84 be
       -0.079181395 0.039122205 0.26574647 -0.2587421
0000d0 06 32 51 3e 3b aa 9b 3d 76 85 4f 3e c3 31 14 be
       0.20429239 0.07600828 0.20265755 -0.14472108
0000e0 2f e0 41 be f8 e5 ea 3b 28 26 0b 3e 9f 61 87 3d
       -0.18933176 0.0071685277 0.13588774 0.066104166
0000f0 da 4e 0b be 2b 6c b6 bd 35 fe 13 be e3 be f1 bd
       -0.13604298 -0.0890735 -0.14452441 -0.11803987
000100 6d 94 9f 3e cd c8 13 bd f5 3f 0b 3d 88 ea 2f be
       0.31167927 -0.03608017 0.03399654 -0.1717931
000110 b4 05 c8 3d 37 47 05 3f 4e 3d 06 bf 47 07 c4 bd
       0.09766713 0.5206179 -0.52437294 -0.095717005
000120 64 d4 93 bd 5d 84 d6 3c ca 68 80 be 6d da 0c 3d
       -0.07218245 0.026186163 -0.25079948 0.034387995
000130 39 e7 46 3d 5d 9e f4 3b 17 22 42 be 17 81 09 3d
       0.048560355 0.0074651674 -0.18958317 0.033570375
000140 7a 8b e9 3c ad 07 2a be 45 7d e0 3d 79 f6 f6 3c
       0.02850889 -0.1660449 0.10961393 0.030146824
000150 2c b4 db 3d d3 b2 8f bc db 69 86 3d 74 72 6c bd
       0.107277244 -0.017541325 0.06563159 -0.05772634
000160 2c ec 28 bc 87 e7 b9 be d6 ab a9 3d da 7f 83 3e
       -0.010310214 -0.36309454 0.08284728 0.2568348
000170 2c 85 23 be d0 0f 3f 3e 1f 52 66 3d af 1f 98 bb
       -0.1596877 0.18658376 0.05623066 -0.004642449
000180 bc f7 49 be ec 53 bc 3d cc 14 94 bd 08 85 d8 3d
       -0.1972341 0.09195694 -0.07230529 0.10572249
000190 d8 15 5e be 57 00 a1 3d e3 6c 3f 3e 75 f5 03 3e
       -0.2168802 0.07861393 0.1869388 0.12886603
0001a0 3e e4 8a be 3e c6 f7 3c b0 b9 4e 3e 3f cc 37 be
       -0.2712726 0.030245896 0.20188022 -0.17949007
0001b0 ad f8 b1 3e d3 68 53 be 41 de de 3d 4f e4 b6 3d
       0.34760037 -0.20645456 0.10882235 0.08930265
0001c0 6d 5d 03 3d 25 9c d9 3d 99 00 f5 3c 18 a5 81 3e
       0.03207152 0.10625485 0.029907512 0.2532127
0001d0 e7 c8 4c bd 5e 94 98 be cd 30 f6 3d 2b e7 55 be
       -0.049996283 -0.29800695 0.12021027 -0.20888965
0001e0 53 3e ab bd bd c7 ba bd 46 38 bd 3d c0 d7 2f 3e
       -0.08361497 -0.09120128 0.09239249 0.17172146
0001f0 a9 20 06 3e 70 7f 04 be f0 4c 6e 3e ed be 76 3b
       0.13098396 -0.12939239 0.23271537 0.0037650422
000200 ad eb 7b be b5 0b 56 3e 90 6b 39 3e 4f a8 87 bd
       -0.24601622 0.20902903 0.18107438 -0.06623899
000210 b9 91 63 3c b3 7f ba bd fb 92 74 bc 45 51 09 3e
       0.013889723 -0.09106388 -0.014927621 0.13409908
000220 d1 fc 6d be 62 c0 44 3e de 80 22 be 83 14 0c be
       -0.23240973 0.19214013 -0.15869471 -0.136797
000230 32 69 ca 3e 4a 3d eb 3c c8 11 99 bd 28 5d f6 3b
       0.39533383 0.028715748 -0.07474095 0.0075184293
000240 2c 6e bb bd e8 5a b6 3e 17 20 10 3e 4d ff c2 3e
       -0.09151873 0.3561623 0.14074741 0.38085404
000250 06 44 1d 3e 77 f9 45 be 79 f1 8a 3e bf 7c 8f 3e
       0.1535798 -0.19333445 0.27137354 0.2802486
000260 0f 3a 37 3e 15 77 56 3e 53 0c 51 3e 40 2a 2d 3e
       0.17893241 0.20943864 0.20414858 0.16910648
000270 98 38 be bd 79 2c 07 bd 81 f0 04 be 11 f2 0c be
       -0.09288138 -0.033001397 -0.1298237 -0.13764216
000280 fa d9 b1 3c e1 10 06 bb d1 44 81 be 58 8a 0d 3e
       0.021710385 -0.0020456838 -0.25247815 0.13822305
000290 a7 28 c8 bb 49 51 11 be 60 0e 46 bd 94 4a d0 3d
       -0.0061083618 -0.14191164 -0.048353553 0.10170475
0002a0 b7 db c9 bb 18 64 14 3c c4 5f 89 3e 4f 2b b5 3d
       -0.0061602253 0.009057067 0.26830876 0.08846151
0002b0 00 3b ce bd 57 cd 28 3d 09 f1 45 be 43 e5 5c 3d
       -0.10069847 0.041211452 -0.19330229 0.05392958
0002c0 d6 6a 03 be 45 bd f5 3d d1 e0 6b 3d 4b 6a 83 3e
       -0.12833723 0.11998991 0.05758745 0.25667033
0002d0 9a 41 04 be 16 0a 42 3e 68 a6 a2 3e e4 1f 70 bc
       -0.1291565 0.1894916 0.31767583 -0.014656041
0002e0 40 ca ae 3b 3c b2 c9 bd a9 03 2a be 9e 5b db be
       0.0053341687 -0.09848449 -0.16602959 -0.42843336
0002f0 82 f8 a7 3d 5b 58 73 be fa 27 d8 3d 8e b8 37 3e
       0.08201696 -0.23764174 0.105545 0.17941496
000300 73 f7 d4 3d f9 7c 8e be 6b 07 60 bd ea 9b 8b 3b
       0.1039876 -0.27829722 -0.054694574 0.0042605298
000310 bb 62 a5 bd 05 9f 82 be 5c 9e 03 3d 7b 44 d0 3d
       -0.08075472 -0.25511947 0.032133445 0.101693116
000320 6c b5 4c be 3c df bc 3e bf 72 27 be 0f d0 00 be
       -0.19991082 0.36889064 -0.16352366 -0.12579368
000330 7d d4 f5 bc 3b e6 69 bc 88 d8 5f 3e 1f dd cf be
       -0.030008549 -0.014276083 0.21859944 -0.4059839
000340 cf ca 23 bd 4b f6 62 bd 5e b2 04 be 47 22 0e 3e
       -0.039988335 -0.055410665 -0.12958667 0.13880263
000350 f7 da d6 bd 24 18 5f bc 8f 09 e0 3d 83 9d 8c bd
       -0.10490983 -0.013616595 0.10939323 -0.068659805
000360 5c 35 c9 3e 83 01 3f be 03 d2 89 be 0e 88 03 bd
       0.39298522 -0.1865292 -0.2691804 -0.032112174
000370 48 20 07 be fd 7d cc 3d 84 f9 c5 be d2 48 33 bd
       -0.13195908 0.09984968 -0.38666928 -0.04377062
000380 f8 30 bd 3d 8e e7 19 be 1e a3 9b 3e 57 49 23 3d
       0.09237856 -0.15029737 0.30397886 0.039864864
000390 99 05 6c 3c ed 6c 84 3e 1c 68 37 be d4 dc ec bd
       0.014405631 0.25864354 -0.17910808 -0.11565557
0003a0 bf a8 47 3e 48 cd 18 be 30 ed 2c 3e 32 f2 a0 be
       0.19497965 -0.14922059 0.16887355 -0.3143478
0003b0 b1 a1 15 bd d3 e4 2a 3e 62 e5 7b bd db 64 12 be
       -0.036531154 0.16688852 -0.061498053 -0.14296286
0003c0 75 b6 ca 3d 13 aa 0d 3c 6d 9d ec bd d0 41 d6 3e
       0.09898082 0.008646506 -0.11553464 0.41847086
0003d0 af b9 55 3d 80 c6 a3 bd 6f 87 b0 3d 9d 1f 2a 3c
       0.052179035 -0.07996845 0.08619582 0.010383514
0003e0 c0 f2 46 3c 93 e5 45 be e7 9f 24 3e ef 41 78 3e
       0.012142837 -0.19325857 0.16076623 0.24243902
0003f0 00 75 89 3d d8 5f 98 bd 76 49 2a be 86 27 32 be
       0.06711769 -0.07440156 -0.16629586 -0.1739789

mlp.mlp.fc2.1.0.bias f4 [64]
000000 35 44 2d b8 0d f7 fd b8 b8 36 2b 38 99 24 18 39
       -4.1309937e-05 -0.00012109997 4.0820538e-05 0.00014509483
000010 2e f7 16 39 4c 4c 03 b9 19 67 b0 b8 04 2d 19 b9
       0.00014397196 -0.00012521556 -8.4115374e-05 -0.00014607987
000020 39 95 1f b9 5e 86 db 38 b8 0c 14 39 6d 50 1f b9
       -0.00015219011 0.000104677616 0.00014119118 -0.00015193383
000030 3e 86 1c 39 31 bb 24 b9 15 31 9c 38 82 ac 34 39
       0.00014927328 -0.00015709993 7.447802e-05 0.00017230402
000040 ca 13 ad 38 22 53 94 b8 c7 cd a0 38 53 59 2c 39
       8.252969e-05 -7.0726746e-05 7.6677235e-05 0.00016436474
000050 68 49 0e b8 f8 9e e0 38 c0 1f b4 b8 49 8b 34 b9
       -3.3923803e-05 0.000107107626 -8.588983e-05 -0.00017218025
000060 40 84 06 b9 51 92 87 38 de 9b 00 b9 30 01 16 b9
       -0.00012828503 6.464555e-05 -0.00012265096 -0.00014305557
000070 0a 0d 03 39 0a 7f 25 39 15 90 0d 39 47 4d c1 b8
       0.00012497991 0.00015782952 0.00013500483 -9.217351e-05
000080 e0 8f 00 39 d4 ed 21 b9 32 66 0b 39 9f be 0c b9
       0.00012260629 -0.00015442754 0.00013294144 -0.00013422452
000090 31 69 5b b8 6a 77 32 39 f0 43 f8 b8 ee 26 15 39
       -5.2311636e-05 0.00017019888 -0.00011838216 0.0001422425
0000a0 cd 45 99 38 94 e9 30 37 d4 cc d6 b8 97 bd ba 38
       7.30861e-05 1.0544802e-05 -0.000102424674 8.904485e-05
0000b0 1d ce 22 b9 5e 50 08 39 ca 3f 25 38 48 46 1f b9
       -0.00015526307 0.0001299991 3.9398474e-05 -0.00015189603
0000c0 bc 95 1b 39 6c 0a fd b8 b9 5b 05 39 44 da aa b8
       0.00014837732 -0.00012065921 0.00012718038 -8.146887e-05
0000d0 45 e5 03 39 f4 1b 38 b9 d3 1f ce 38 d6 1e e0 38
       0.00012578543 -0.00017558021 9.828773e-05 0.00010686896
0000e0 8f 62 1f b9 b4 a8 17 39 7f 35 17 39 ad 15 30 b8
       -0.00015200138 0.00014463329 0.00014420411 -4.1981857e-05
0000f0 8c 43 28 39 77 f0 b5 b8 87 00 23 b9 ad 1a 1a b9
       0.00016046892 -8.6755426e-05 -0.00015545088 -0.00014696522

mlp.mlp.fc2.1.2.weight f4 [64]
000000 36 03 80 3f 01 fa 7f 3f 92 f8 7f 3f 92 fe 7f 3f
       1.000098 0.9999085 0.99988663 0.9999782
000010 9f f5 7f 3f f1 fa 7f 3f 9e 03 80 3f 32 f7 7f 3f
       0.99984163 0.9999228 1.0001104 0.99986565
000020 a6 f9 7f 3f 1c 01 80 3f fe f7 7f 3f 45 f8 7f 3f
       0.9999031 1.0000339 0.9998778 0.99988204
000030 56 02 80 3f 60 f7 7f 3f b5 ff 7f 3f bc 02 80 3f
       1.0000713 0.9998684 0.9999955 1.0000834
000040 c5 00 80 3f e5 fa 7f 3f e6 fa 7f 3f f2 03 80 3f
       1.0000235 0.9999221 0.99992216 1.0001204
000050 de f7 7f 3f 5d f9 7f 3f d6 00 80 3f c1 fe 7f 3f
       0.9998759 0.99989873 1.0000255 0.999981
000060 7c 02 80 3f c5 fe 7f 3f 91 04 80 3f d2 02 80 3f
       1.0000758 0.9999812 1.0001394 1.0000861
000070 8b fc 7f 3f a5 f6 7f 3f 7b 00 80 3f 69 f9 7f 3f
       0.99994725 0.99985725 1.0000147 0.99989945
000080 1b 05 80 3f f0 01 80 3f 70 fc 7f 3f 73 f9 7f 3f
       1.0001558 1.0000591 0.99994564 0.99990004
000090 08 fa 7f 3f 8c f9 7f 3f 1c fe 7f 3f 40 03 80 3f
       0.9999089 0.99990153 0.99997115 1.0000992
0000a0 e8 ff 7f 3f cc 00 80 3f a6 03 80 3f 66 02 80 3f
       0.99999857 1.0000243 1.0001113 1.0000732
0000b0 75 03 80 3f bd f8 7f 3f f3 00 80 3f 47 fb 7f 3f
       1.0001055 0.9998892 1.000029 0.99992794
0000c0 4f f6 7f 3f cc ff 7f 3f 7a 03 80 3f ad fd 7f 3f
       0.9998521 0.9999969 1.0001061 0.99996454
0000d0 56 02 80 3f 4e 05 80 3f 7e fa 7f 3f 07 f9 7f 3f
       1.0000713 1.0001619 0.99991596 0.9998936
0000e0 77 02 80 3f 31 03 80 3f fa f5 7f 3f 33 f9 7f 3f
       1.0000752 1.0000974 0.99984705 0.9998962
0000f0 7a ff 7f 3f 44 01 80 3f fc 01 80 3f 89 fd 7f 3f
       0.999992 1.0000386 1.0000606 0.9999624

mlp.mlp.fc2.1.2.bias f4 [64]
000000 93 f1 cc b8 2b f9 8d b8 46 a2 e6 38 d3 35 2e 39
       -9.772475e-05 -6.769815e-05 0.000109974804 0.00016613984
000010 7f 50 3c 39 c2 f9 ff b8 29 a3 1d b9 5e 7d 28 b9
       0.00017959064 -0.000122058686 -0.00015033469 -0.00016068431
000020 86 f9 2f b9 a9 78 09 39 fd 43 2e 39 ca fd 18 b9
       -0.00016782255 0.00013110288 0.0001661926 -0.00014590393
000030 37 b4 2a 39 02 2c 2a b9 e1 c5 f9 38 c8 0e 3c 39
       0.00016279599 -0.00016228858 0.00011910103 0.00017934584
000040 bf e1 a2 38 91 de ac b8 05 42 f1 38 c0 91 30 39
       7.7668104e-05 -8.243055e-05 0.000115040726 0.00016838964
000050 15 cb e7 38 ba 09 12 39 a7 e8 e9 b8 ae 11 3e b9
       0.00011052765 0.00013927268 -0.00011153641 -0.00018126398
000060 5e c2 26 b9 dd 46 b3 38 d3 26 27 b9 aa 2a 2c b9
       -0.00015903401 8.5485844e-05 -0.00015940824 -0.00016419092
000070 36 77 1b 39 7e 13 3a 39 ef 3c 13 39 8b a3 ff b8
       0.00014826361 0.00017745604 0.00014041712 -0.0001218981
000080 10 05 c4 b8 7c 22 33 b9 13 70 33 39 2b 12 19 b9
       -9.346951e-05 -0.00017083617 0.00017112521 -0.00014597985
000090 d8 25 8d b8 2d 76 3f 39 f0 cc 12 b9 c2 74 15 39
       -6.730453e-05 0.00018259203 -0.0001399999 0.00014253243
0000a0 49 e5 62 b5 b9 b0 47 37 3c cd 11 b9 fd e3 98 38
       -8.4525215e-07 1.1902471e-05 -0.00013904733 7.290391e-05
0000b0 68 de 38 b9 82 66 2e 39 fa a6 9f 38 b4 77 2e b9
       -0.0001763046 0.0001663212 7.6128126e-05 -0.00016638526
0000c0 dc bf 3b 39 ab db fc b8 9c 20 11 39 a0 a2 06 b9
       0.00017905183 -0.00012057213 0.00013840426 -0.00012839818
0000d0 20 cc 04 39 9e df 43 b9 9c 49 11 39 ac e1 16 39
       0.00012664543 -0.00018679953 0.00013855699 0.00014389184
0000e0 e1 3b 38 b9 ce 74 d8 38 58 f5 36 39 25 57 02 39
       -0.00017569914 0.00010321439 0.0001744827 0.0001243023
0000f0 00 75 3d 39 49 ad e1 b8 84 6f 37 b9 9b 33 2b b9
       0.0001806803 -0.00010761113 -0.00017493783 -0.00016327055
