train/maddpg-v5/results/formation_hd_env/maddpg/hd_9/run11/models/policy_0/actor.pt (torch, 73961 bytes, 20 tensors)

mlp.feature_norm.weight f4 [54]
000000 1a 18 80 3f 7e 2b 80 3f 1d 2f 80 3f 6c 32 80 3f
       1.0007355 1.0013273 1.0014378 1.0015388
000010 f2 ff 7f 3f 41 b0 7f 3f a6 14 7f 3f c1 41 80 3f
       0.99999917 0.9987832 0.9964088 1.0020066
000020 97 38 80 3f 75 81 7f 3f 26 0a 80 3f ce 53 7f 3f
       1.001727 0.9980691 1.0003097 0.9973725
000030 a6 c4 7f 3f 51 df 7f 3f b2 5c 7f 3f 6b 3a 80 3f
       0.99909437 0.9995013 0.99750817 1.0017828
000040 f1 1d 7f 3f 22 9e 7f 3f 40 15 7f 3f 2e ad 7f 3f
       0.9965506 0.99850667 0.996418 0.99873626
000050 f5 56 7f 3f 66 20 7f 3f 93 23 80 3f 27 e5 7f 3f
       0.9974206 0.9965881 1.0010856 0.99959034
000060 02 23 80 3f 1e 60 80 3f 77 62 7f 3f 9e 81 80 3f
       1.0010684 1.0029333 0.9975962 1.0039556
000070 98 13 80 3f 44 d7 80 3f bf 35 7f 3f ee 77 80 3f
       1.000598 1.0065694 0.99691385 1.00366
000080 bb 2f 7f 3f 5e c3 7f 3f 95 0d 80 3f 68 3d 80 3f
       0.99682206 0.9990748 1.0004145 1.001874
000090 67 bb 7f 3f 98 6a 7f 3f c5 16 80 3f 48 2a 80 3f
       0.9989533 0.99772024 1.0006949 1.0012903
0000a0 a5 e8 7f 3f 10 fe 7f 3f 82 eb 7f 3f 7e 03 80 3f
       0.9996436 0.99997044 0.9996873 1.0001066
0000b0 80 27 80 3f be 11 80 3f bb fc 7f 3f 20 04 80 3f
       1.0012054 1.0005414 0.9999501 1.0001259
0000c0 ff 8a 7f 3f 08 24 80 3f 2b 31 80 3f 58 07 80 3f
       0.99821466 1.0010996 1.0015005 1.0002241
0000d0 09 bf 7f 3f 79 f4 7f 3f
       0.9990087 0.9998241

mlp.feature_norm.bias f4 [54]
000000 09 d0 13 ba 08 e0 b0 3a 5e eb 4a bb a4 c5 fa 38
       -0.00056386046 0.0013494501 -0.0030963044 0.000119577424
000010 64 2c 8e ba 48 05 05 3b 33 bd cf b9 55 43 dd 3a
       -0.001084697 0.0020297337 -0.0003962308 0.0016881028
000020 4b 25 e5 bb c9 c8 2f bb 9c 4e c8 3b 8a 8b 92 bb
       -0.006992971 -0.0026822558 0.0061128866 -0.0044722008
000030 76 e3 99 3b 6c f5 f8 3b 7e 5e 9a 3b 27 4e 77 ba
       0.004696305 0.007597616 0.0047109714 -0.0009433948
000040 f8 68 99 bb 3f 71 93 3b b1 2b 3c 3b 0d ad 22 bb
       -0.0046817027 0.004499584 0.0028712566 -0.0024822385
000050 b4 c1 5e bb 7a d8 82 bb e4 91 82 3b 1c 97 7e 3b
       -0.0033989968 -0.003993091 0.0039846767 0.0038847392
000060 89 08 53 bb c8 ec b9 3b 90 73 e2 bb aa 71 04 3a
       -0.0032201132 0.0056739785 -0.006910749 0.00050523377
000070 1e 97 82 3b 17 b1 ef 3a a2 c4 53 3b fc fa dc bb
       0.0039852997 0.001828703 0.0032313247 -0.006743787
000080 0e b8 7b 3b c3 48 bd ba 83 e8 92 3a 92 2e d8 39
       0.0038409266 -0.001444124 0.001120821 0.00041233428
000090 89 94 60 3b b7 75 b5 ba d7 6c 0f bb 7e 39 b1 bb
       0.0034268221 -0.0013844286 -0.0021884942 -0.005408465
0000a0 6e d5 2f ba 92 45 a8 39 15 eb e3 b9 69 bd b6 3a
       -0.0006707524 0.0003209529 -0.00043471964 0.0013941947
0000b0 72 1f b9 ba 91 d0 2a 3b 0b e3 64 b9 db 39 cc ba
       -0.0014123751 0.0026064257 -0.00021828355 -0.0015581207
0000c0 ac 69 66 bb e9 de d4 3b 98 39 d9 b9 e4 df 8f 3b
       -0.00351582 0.0064962995 -0.00041432376 0.0043907035
0000d0 2d 48 86 3b 3e f6 8d ba
       0.0040979595 -0.0010830832

mlp.mlp.fc1.0.weight f4 [64, 54]
000000 d3 00 da 3d 53 90 b7 3d 34 4b 7f be 91 82 2c 3e
       0.106446885 0.089630745 -0.24931031 0.16846682
000010 cf 92 0e be c1 e4 72 3d e8 8c a4 be 9d 69 ad bd
       -0.1392319 0.059300188 -0.32138753 -0.0846741
000020 9d fd 17 3d 32 01 dc bd f8 31 99 3c 10 65 1a 3e
       0.0371071 -0.107424155 0.018700585 0.15077615
000030 68 8a 2c be 0c ce 9c 3e 7e 59 90 bd 8c b0 0b bd
       -0.16849673 0.3062595 -0.07048319 -0.034103915
000040 1f 6e 07 3e ab af f7 3b 86 d4 1c 3c 8b 8e 2f 3e
       0.13225602 0.007558783 0.009572154 0.1714422
000050 e9 25 5e bd fc 6a 9d 3e 5c af f6 3b 3e 6f 0f 3e
       -0.054235373 0.30745685 0.0075282287 0.1400728
000060 5f 62 13 be 44 1d 49 bd 2d 34 65 3e 80 62 01 be
       -0.14392994 -0.049100175 0.22383185 -0.12635231
000070 e5 58 ca 3d 5a 31 f5 bc bf 90 90 be 5d 5d 7d 3e
       0.098802365 -0.02993076 -0.28235433 0.24742647
000080 f3 20 2c be 9a 85 db 3d 2c 32 09 3f 73 3b c1 3a
       -0.16809444 0.10718842 0.5359218 0.0014742449
000090 a0 7d d6 3d e7 09 ae 3e e9 19 7c 3d 14 03 0d be
       0.1047318 0.3399193 0.061548147 -0.13770705
0000a0 a8 47 9d 3e 6e 81 1b 3e f6 de a0 3e 07 42 0f 3d
       0.30718732 0.15186092 0.31420106 0.034975078
0000b0 e4 f7 e0 3d 7c 0c 99 bd 8c 9e f0 bd 7f bd be 3d
       0.109847814 -0.07473084 -0.117489904 0.09313487
0000c0 5f ca 81 3e 5b 3f 57 3e 54 fe 2a bd 50 90 05 3d
       0.2534971 0.21020262 -0.041746452 0.03260833
0000d0 66 ec 18 bd 35 c2 21 3d 7c 55 df bd 15 87 05 be
       -0.037334822 0.03949185 -0.10904977 -0.13039811
0000e0 41 ce f4 3c 6e 07 0d 3e f1 0d 0f bd 4c 63 5b 3e
       0.029883506 0.13772365 -0.034925405 0.21424598
0000f0 48 c1 6c 3e 95 55 3a be 4b 9d 3a 3e 7b d8 a0 3d
       0.23120606 -0.1819671 0.18224065 0.078537904
000100 96 02 b9 3d 7e 4c d8 bd 1f c8 30 be bf 90 21 be
       0.09033696 -0.10561465 -0.1726384 -0.15777873
000110 e6 bd bb bd fe 72 73 be 2b 4e cd 3c 3a 9c c7 be
       -0.0916708 -0.23774335 0.025061687 -0.3898638
000120 96 cd a1 3d 4b bb 69 3d 44 15 92 be ef 87 e0 be
       0.079005405 0.057063382 -0.2853185 -0.4385371
000130 22 f9 9c 3e 19 39 f0 bc 66 61 14 be 50 2d 58 3e
       0.30658823 -0.029324101 -0.1449028 0.21111035
000140 ea 56 ae 3d 76 7b 26 3c c4 7c 31 be 57 c1 04 bd
       0.08512671 0.010161271 -0.1733275 -0.032410946
000150 3a e6 08 be ca ec c4 bd f4 fc 95 3d 69 a1 a9 be
       -0.13369074 -0.096154764 0.073236376 -0.3313096
000160 29 b3 1b 3e a8 8f 49 3e 76 9a 92 bd cf 14 01 be
       0.15205063 0.19683707 -0.07158367 -0.12605594
000170 44 0d 37 3e 1b 72 be bd 28 cc b4 bd a7 8c eb 3d
       0.17876154 -0.09299108 -0.08828002 0.11501437
000180 55 e4 19 be a2 b8 52 3d 7b e2 e3 bd 66 8c e7 bd
       -0.15028508 0.05144561 -0.11127182 -0.11306076
000190 dd ed 43 be 9c 4a 00 3e 62 fc 1b bd 36 ed 5e 3d
       -0.19133706 0.12528461 -0.038082488 0.05442544
0001a0 47 13 8c be 75 ee 9e bd a7 aa 5f be 36 2c 37 3e
       -0.27358457 -0.07760326 -0.21842442 0.17887959
0001b0 41 0d b7 be 2a a8 97 bd 1e a4 d0 bd 06 fd 97 3e
       -0.357523 -0.074051216 -0.10187553 0.2968523
0001c0 0e bd 87 be c5 db 3f 3e b4 6d 9a 3d fd ba 51 3d
       -0.26511425 0.18736179 0.075404555 0.051203717
0001d0 3a d2 07 3d d4 70 1a 3d 80 b2 1f 3e 18 d4 12 bd
       0.033159472 0.037705258 0.15595436 -0.0358468
0001e0 cb f6 0a 3f 07 5d e7 3d 71 d0 2d be 10 9e 9c 3d
       0.54282826 0.112970404 -0.16974045 0.076473355
0001f0 e0 d9 62 bd 9b eb d4 3e d6 27 7d be 5b aa 8a 3e
       -0.055383563 0.41586003 -0.24722227 0.27083096
000200 9b aa f6 bd 63 e7 72 3d 0e fb 75 3e 68 56 02 be
       -0.12044259 0.0593027 0.24021551 -0.12728274
000210 25 a0 33 3e 27 2f 3c bd 6c cb 82 bd a2 e9 0d be
       0.17541559 -0.045943405 -0.06386456 -0.13858655
000220 a0 66 83 3d 16 9d cf be 36 38 58 be ba 97 fc bd
       0.064160585 -0.40549535 -0.21115193 -0.12333627
000230 2e 4c 6f 3d 2f f6 15 be b8 84 ed 3d 71 1e 97 bd
       0.05842226 -0.14644693 0.1159758 -0.07378853
000240 e4 94 5e 3e 28 52 1b bc ae 9d 3f 3d 53 ee 22 be
       0.21736485 -0.009480037 0.046781234 -0.15911226
000250 fc e5 ab 3d b0 99 ef 3c ee c5 29 be 91 3a 4b be
       0.083934754 0.029248089 -0.1657941 -0.1984656
000260 e5 e1 1e be e5 bd d0 3c 2a 6e ad bc 98 5a 00 3e
       -0.1551586 0.025481174 -0.021170694 0.12534559
000270 cf 4b 43 be 37 ad 22 3e 3d a1 1e bd 7c f2 18 3d
       -0.19071887 0.15886389 -0.038727988 0.037340626
000280 4d dc 75 bd 13 95 ed 3c b9 37 1b be e1 76 a3 bc
       -0.06002455 0.029001748 -0.15157975 -0.019954147
000290 96 f2 e2 bd 87 13 61 3e 84 cb 21 3e 69 cb 88 3e
       -0.11081426 0.21980105 0.15800291 0.2671769
0002a0 e6 44 7b bd 95 53 95 3e ab 93 d9 3c 80 78 1c bd
       -0.061345004 0.2916533 0.026559671 -0.038200855
0002b0 9b 02 9b bd 3e 7a 7a 3d 25 41 37 be ff 5d 03 be
       -0.07568856 0.061151735 -0.17895944 -0.12828825
0002c0 db e4 a3 be 8e 55 3c bd b9 3c eb bd 46 b1 d0 3d
       -0.3201054 -0.04598003 -0.11486191 0.10190062
0002d0 71 e5 bc 3e 55 5b 28 be 1b 1b ae 3d 6c 48 84 3d
       0.368938 -0.1644109 0.08501264 0.06459126
0002e0 67 e3 8e be a6 a4 f2 3d 9c bd d7 bd 4f 0a 91 be
       -0.2790787 0.118478104 -0.10534212 -0.28328177
0002f0 f2 3e 55 bd cb b0 87 3d d0 8e 2f be ca 7f e6 3c
       -0.052061982 0.066255175 -0.17144322 0.028137106
000300 d6 10 84 be fa b8 92 3e c3 44 c1 be c0 ac 1e 3e
       -0.25794095 0.2865675 -0.37747774 0.15495586
000310 4e cf 3b be 11 2d 2b 3e a7 c0 7c 3e a7 fe ec ba
       -0.18340799 0.1671641 0.24682866 -0.0018081263
000320 a7 47 a4 3a 32 5d 78 3e 3e 90 79 3d 42 5e 26 3d
       0.0012533561 0.24254301 0.060928576 0.040617235
000330 fd 4d 1d be b9 76 d6 3d 29 a5 66 be cc 13 a4 3d
       -0.15361781 0.10471863 -0.22523941 0.080115885
000340 2e e1 08 bc 8f 16 c7 3c 07 8b 69 be 0c 7a 85 3d
       -0.008354468 0.024302749 -0.22806941 0.06517419
000350 4b ca 55 be 71 ff 93 bd b8 87 2a 3e 89 72 e2 3d
       -0.2087795 -0.07226456 0.16653335 0.11057002
000360 92 ae 90 3e d3 93 ed bd 8d 22 fe bd 5e 9a aa 3d
       0.28258187 -0.11600461 -0.12408934 0.083302245
000370 55 30 05 3d bf b7 59 bd 2e 77 a7 3d 0d 7c c5 3e
       0.032516796 -0.05315375 0.081770286 0.38571206
000380 a3 03 50 be ec e4 13 be 40 33 9c be af 26 09 be
       -0.20313887 -0.14442796 -0.3050785 -0.13393663
000390 37 58 6f bb 7f 73 d2 bc 8e 50 dc bd f5 fa 6d 3d
       -0.0036521086 -0.025689838 -0.10757552 0.05810066
0003a0 73 1c 4d be 7b 97 9c b8 1a 41 90 3e fa 7b 58 3e
       -0.20030384 -7.466875e-05 0.2817467 0.21141043
0003b0 5d fa 68 3d ee e6 fb 3d 2f 7d b4 3e 89 14 ff bd
       0.05687939 0.12299906 0.35251758 -0.12455089
0003c0 86 40 1f 3e 43 e7 b7 3e 73 ea 89 3d 9b 2f b0 bb
       0.15551957 0.35918626 0.06734171 -0.0053767688
0003d0 d2 09 f4 3c ce 73 a1 3c 9d e2 0c bb be 48 11 3e
       0.029789839 0.01970854 -0.0021497377 0.14187905
0003e0 18 f3 89 bd 39 ef a2 3c d2 66 9f be 3d 31 47 be
       -0.067358196 0.01988946 -0.31133133 -0.19452377
0003f0 8f 0d d2 bd 74 d4 5a 3d bd 87 a1 3d 48 c3 39 bd
       -0.10256492 0.053425267 0.07887218 -0.04535225

mlp.mlp.fc1.0.bias f4 [64]
000000 95 70 07 bb e2 1b 3e bb 78 80 c3 3b a5 25 3f bb
       -0.002066647 -0.0029008319 0.0059662424 -0.0029166725
000010 ff 15 31 3b 2c 31 9a 3b 34 af 28 3b 30 94 51 3b
       0.0027021167 0.004705569 0.0025739195 0.0031979196
000020 7b fa 68 bb 34 18 17 3b f2 f0 c1 3b 7c e4 bb 3b
       -0.0035549689 0.0023055198 0.0059186155 0.0057340246
000030 88 f3 02 bb 49 43 1f 3b 16 3c 3f b9 7b 97 d8 3a
       -0.0019981582 0.002430158 -0.00018237563 0.0016524637
000040 e1 40 34 bb e0 c0 80 ba e1 03 b0 b9 07 19 70 ba
       -0.002750449 -0.0009823106 -0.00033572226 -0.0009159003
000050 4c e8 77 3b 82 39 83 3b 9a b5 59 3b cc fe 8b bb
       0.0037827669 0.004004658 0.0033219815 -0.0042723175
000060 48 26 f4 b9 7d 5f 6d bb ec bc e9 3a f4 f7 a0 bb
       -0.00046567828 -0.0036220246 0.0017832792 -0.004912371
000070 b2 06 0b bb 93 87 42 3a 3c da b9 bb 89 f5 e7 ba
       -0.0021213708 0.0007420715 -0.0056717675 -0.0017697077
000080 9c bc 55 bb ff d4 36 3b 09 5a 5c bb 96 58 68 bb
       -0.003261364 0.0027897952 -0.0033623 -0.0035453192
000090 da 6b 8a ba 40 80 c2 3b 87 10 a4 3b 95 f1 0a 3b
       -0.0010560707 0.0059356987 0.005006853 0.0021201123
0000a0 c0 01 8b b9 34 97 56 3a 64 77 cc ba 53 2d d5 b9
       -0.0002651345 0.0008185983 -0.0015599546 -0.00040660295
0000b0 97 85 47 3b 61 65 30 bb f0 8d a3 bb b9 09 64 3b
       0.0030444616 -0.0026915895 -0.0049912855 0.0034795834
0000c0 40 7b be 3a 6a cf 7a 3a b2 b0 84 3b 73 d9 56 bb
       0.0014532581 0.000956765 0.004049384 -0.0032783418
0000d0 01 b7 9d ba 21 1e 5a ba 72 9d d4 ba 38 59 60 bb
       -0.0012032689 -0.00083205296 -0.0016221239 -0.0034232866
0000e0 23 95 06 bb 73 4d fb 3a 7a 89 a1 bb da 27 b6 3b
       -0.002053567 0.0019172862 -0.0049297186 0.00555895
0000f0 f6 bc 8a bb d9 fe a0 bb cf f7 5a bb fd aa 8c bb
       -0.0042339517 -0.0049131927 -0.0033411866 -0.0042928443

mlp.mlp.fc1.2.weight f4 [64]
000000 f6 5c 7f 3f a7 af 7f 3f d8 a0 80 3f d8 2a 80 3f
       0.9975122 0.998774 1.0049086 1.0013075
000010 6c 28 7f 3f 06 1e 80 3f e8 36 7f 3f 7b df 7f 3f
       0.99671054 1.0009162 0.99693155 0.9995038
000020 cb aa 7f 3f d2 5a 80 3f 8d 39 80 3f ed 01 80 3f
       0.99869984 1.0027716 1.0017563 1.0000588
000030 67 e4 7f 3f 87 38 80 3f df 57 80 3f a6 32 80 3f
       0.9995789 1.0017251 1.0026816 1.0015457
000040 5d d0 7f 3f c4 7c 7f 3f 8c ec 7f 3f c5 f1 7f 3f
       0.9992731 0.9979975 0.99970317 0.99978286
000050 22 15 80 3f 3c 96 7f 3f 07 0d 80 3f ea 65 7f 3f
       1.0006449 0.99838614 1.0003976 0.99764884
000060 96 6a 7f 3f c5 43 80 3f 72 6e 80 3f 29 33 80 3f
       0.9977201 1.0020682 1.0033705 1.0015613
000070 aa c0 7f 3f 49 bf 7f 3f eb c9 7f 3f 8a 07 80 3f
       0.9990336 0.99901253 0.9991748 1.0002301
000080 7f 3e 80 3f 6b 1b 80 3f 8f 63 7f 3f e6 62 80 3f
       1.0019072 1.0008367 0.9976129 1.0030181
000090 db 98 7f 3f 18 4b 80 3f fb d2 7f 3f 66 88 7f 3f
       0.99842614 1.0022917 0.99931306 0.998175
0000a0 97 89 7f 3f 38 f2 7f 3f 3c 17 80 3f 4c 77 7f 3f
       0.9981932 0.9997897 1.000709 0.9979141
0000b0 c0 9a 7f 3f e3 57 7f 3f 64 c1 7f 3f d7 9d 7f 3f
       0.99845505 0.9974348 0.99904466 0.9985022
0000c0 3b 6d 80 3f 0e da 7f 3f 11 33 80 3f 9b 7a 7f 3f
       1.0033334 0.999421 1.0015584 0.99796456
0000d0 c0 ab 7f 3f a8 60 7f 3f d1 1d 80 3f 18 0a 80 3f
       0.99871445 0.9975686 1.0009099 1.000308
0000e0 a4 81 7f 3f 75 e1 7f 3f 1b 49 80 3f 11 ba 7f 3f
       0.9980719 0.99953395 1.002231 0.9989329
0000f0 37 1b 80 3f 50 43 80 3f e0 08 80 3f 73 14 80 3f
       1.0008305 1.0020542 1.0002708 1.0006241

mlp.mlp.fc1.2.bias f4 [64]
000000 75 34 15 bb 23 b8 56 bb a8 ac db 3b 0c fa 9f bb
       -0.0022766863 -0.0032763563 0.006703932 -0.004882103
000010 85 59 8c 3b 2a f4 a6 3b 44 d5 7b 3b bb 6d 80 3b
       0.0042831325 0.0050950246 0.0038426677 0.003919331
000020 f6 49 72 bb a4 57 12 ba a4 85 d8 3b 42 74 d1 3b
       -0.0036970354 -0.00055825175 0.006607728 0.006392033
000030 6a db 4f bb e9 8d 0b 3b 1a f4 33 bb 0d 92 2c b8
       -0.0031716474 0.0021294302 -0.0027458728 -4.1144016e-05
000040 fd f4 87 bb f2 2b 9d ba fb 00 53 ba 37 d2 0e bb
       -0.004149078 -0.0011991246 -0.00080491573 -0.0021792778
000050 cc c2 86 3b ae d5 a0 3b 2e a1 86 3b 94 7d 98 bb
       0.004112577 0.004908285 0.0041085696 -0.004653642
000060 29 3b f4 b9 49 a6 c1 bb d5 6c d7 ba ff 48 ce bb
       -0.00046583384 -0.0059097153 -0.0016435633 -0.006295323
000070 92 26 1b bb 9c 67 0f 39 fe 43 ea bb 06 6e 50 bb
       -0.0023674113 0.0001367614 -0.0071492186 -0.003180386
000080 ae f8 9f bb da ae 53 3b 6e 15 7e bb 21 09 c2 bb
       -0.00488194 0.0032300265 -0.0038770097 -0.0059214984
000090 97 fe b6 ba 76 50 ed 3b af 25 c9 3b c7 81 88 3b
       -0.0013961372 0.0072422577 0.0061385254 0.0041658613
0000a0 94 25 bf 38 97 63 4f b8 53 de 40 bb ca 2a e6 39
       9.114589e-05 -4.9445396e-05 -0.002942939 0.000439009
0000b0 78 77 93 3b 19 23 24 bb c1 8a ae bb 7b 2b a8 3b
       0.004500326 -0.0025045334 -0.0053265993 0.0051321364
0000c0 f9 dc 1e ba 6a e2 b2 b9 70 fe 83 3b 37 b5 5d bb
       -0.0006060149 -0.00034119497 0.004028134 -0.0033829936
0000d0 c6 02 86 ba c0 ee a5 39 91 70 78 bb cc 53 a7 bb
       -0.0010224215 0.00031649135 -0.0037908892 -0.005106425
0000e0 24 98 31 bb fb 56 f6 3a f8 6e d7 bb c6 2f d2 3b
       -0.002709874 0.0018794233 -0.006574508 0.0064143864
0000f0 aa ac c1 bb 95 83 d6 bb 51 9a a5 bb d7 ae ae bb
       -0.0059104757 -0.0065464475 -0.0050537963 -0.005330901

mlp.mlp.fc_h.0.weight f4 [64, 64]
000000 5a f1 16 3e 01 41 85 3d eb de d0 bd fe fc 97 bd
       0.14740506 0.06506539 -0.10198768 -0.07421301
000010 54 2b ce 3e 4c a9 02 3e d4 cd 91 3e 3e 77 97 be
       0.40267432 0.12759894 0.28477347 -0.29583162
000020 6e de c6 3d 62 02 80 3d 31 74 0e be 2b 69 68 be
       0.09710394 0.062504545 -0.13911511 -0.22696368
000030 6a 5d 0f 3d a5 c9 47 3d aa 98 b7 3e 7c e8 f7 3d
       0.035001196 0.048776288 0.3585866 0.1210489
000040 0f 3d 38 bc 11 6b 14 3d d6 3e 9d bc 82 56 b3 3e
       -0.011245026 0.03623492 -0.019195002 0.35026938
000050 d1 74 95 3c fa ad af be 8f 49 4f 3d 6c 13 46 bd
       0.018244179 -0.3431242 0.05060726 -0.048358366
000060 2a c3 ec bd eb 5c 73 3e d4 92 44 be 4b 4e f8 3d
       -0.11560662 0.23765914 -0.19196635 0.12124308
000070 f2 c0 86 3c 52 0c 7e 3d 4b bb b3 3d 73 4d 46 3e
       0.016449425 0.06202347 0.08775958 0.19365482
000080 80 33 26 3b 8f cc 15 be 8b b2 5a be 46 3b 86 3d
       0.0025360286 -0.14628814 -0.21357171 0.06554274
000090 0e 4e 82 3e ee 59 e4 bc a5 71 70 3b 24 75 e9 3e
       0.25450176 -0.027874913 0.0036688831 0.45597184
0000a0 a0 48 b1 3e e5 39 83 be 04 42 8b 3e 3b f7 c2 bb
       0.3462572 -0.25630108 0.27198803 -0.0059498823
0000b0 2e c3 6b 3e 60 88 18 be 42 d1 8b bc 75 85 95 3c
       0.23023674 -0.14895773 -0.017067555 0.018252114
0000c0 b8 37 05 be 75 d8 11 be 4e e8 49 be ea 22 9e 3d
       -0.13009536 -0.14242728 -0.19717523 0.07721503
0000d0 db e5 93 bc d4 d8 9f 3d b3 05 16 3d 77 6c 36 be
       -0.01805394 0.078050286 0.03662653 -0.17814814
0000e0 7d 75 f2 bd d4 5a 43 3e cb fc ae bd d3 a9 92 3e
       -0.11838815 0.19077617 -0.0854431 0.2864519
0000f0 3f ed 65 bc c8 5a e2 bc f1 17 f2 3d 33 a5 96 3d
       -0.014033615 -0.027631178 0.11820973 0.07355728
000100 81 ce e7 be 0f 85 a7 3e ad b8 44 3d 8a 82 ab bd
       -0.45274737 0.32718703 0.048027683 -0.08374508
000110 dc 76 2d 3d d4 ee 34 3e ae 52 70 3e 47 75 98 3e
       0.04234968 0.1766923 0.2346904 0.29776976
000120 e9 6c a5 be aa 1c c1 bc 88 3d 0f 3c 4d 99 01 be
       -0.32309654 -0.023573238 0.008742698 -0.12656136
000130 fe bc f3 3c 71 72 76 3e 3a 40 62 bd 44 83 48 bd
       0.029753204 0.24067093 -0.055237032 -0.04895331
000140 fd 50 ef bd a6 29 8d bd ea d1 41 be 53 89 2c 3d
       -0.11685369 -0.068927094 -0.18927732 0.04212315
000150 38 53 ca bb d0 82 c3 bd cb 2e 1c 3e 4c ec 1a 3e
       -0.006174471 -0.09546435 0.15252225 0.15129203
000160 3d 2f 31 be 2f eb 42 be 62 da 0a bd 7b 4b c4 bd
       -0.17303176 -0.19035028 -0.033899672 -0.09584709
000170 a2 fd a5 be 5b 88 32 be b1 7c 0e be fc bd 8f bd
       -0.3242007 -0.17434828 -0.13914753 -0.070186585
000180 11 1e b5 3d 5b b8 23 bd 5e d6 b3 bd 28 1b 29 be
       0.08843625 -0.039970737 -0.08781122 -0.16514266
000190 ae f5 da bb 60 e6 eb be 52 8e 24 be 8a 20 37 3e
       -0.0066821193 -0.460742 -0.16069916 0.17883506
0001a0 88 ec 5a bc 2c 73 7f be 50 9f ff 3d ed 1a c6 3e
       -0.0133620575 -0.24946278 0.12481558 0.38692418
0001b0 44 8b 44 3d 1b 47 a1 3d 73 81 71 3b f2 b1 08 bd
       0.047984377 0.078748904 0.003685084 -0.033372827
0001c0 ef 05 a5 3e d3 7e 8e 3e dd a0 b1 bd 88 c9 25 be
       0.3223109 0.27831134 -0.0867326 -0.1619016
0001d0 1f 23 8b 3d ef 76 23 be 76 46 87 bd 37 77 5f bc
       0.06793808 -0.15963338 -0.06605236 -0.013639263
0001e0 ca 09 ca 3d c6 2e 36 bc a2 ed a9 bd 3d fc d9 bc
       0.09865148 -0.01111955 -0.08297278 -0.026609534
0001f0 96 34 38 3c 60 16 bf 3e ce ce 9f bd 4d 68 88 bd
       0.011243006 0.37321758 -0.07803117 -0.06660519
000200 7f ce 6e 3c 25 be 38 bb 67 28 99 3d a3 11 bf 3d
       0.0145756 -0.0028189507 0.07478409 0.09329536
000210 83 bd 07 3e cf 86 d9 3d 87 b0 34 bd 82 03 5d 3d
       0.13255887 0.10621416 -0.044113662 0.053958423
000220 05 1d 76 3d 6e 17 75 be 72 a1 da 3d 35 98 0a be
       0.06008627 -0.23934719 0.106753245 -0.13534625
000230 d8 b2 e8 3e 12 0b 4b be 77 df 0d 3e 97 90 79 3e
       0.45448947 -0.19828442 0.13854776 0.24371563
000240 9b d3 0d 3f 90 71 db bd f3 c6 8d bd 4c f6 67 bd
       0.5540101 -0.1071502 -0.06922712 -0.05663137
000250 33 95 38 3e 3a 4d 55 bd d2 54 cd 3c 08 f6 d7 3e
       0.18025665 -0.052075602 0.02506486 0.42179894
000260 35 60 c0 bc bb 0a 42 be a8 73 93 be 60 2a 89 3e
       -0.023483375 -0.18949406 -0.28799176 0.26790142
000270 07 ce 11 3c 3c 2f ce 3d bb dd c8 bc d5 5b 18 be
       0.008899218 0.10067603 -0.024519792 -0.14878781
000280 db d6 28 bc 99 47 eb ba cc ef a9 3e c7 c9 ab be
       -0.010305132 -0.0017950415 0.33190763 -0.3355238
000290 a4 59 81 be 3c ba ce bd e9 b7 69 3e 7b 6e 0c 3e
       -0.25263703 -0.10094115 0.22824062 0.1371402
0002a0 59 02 27 be 4b 2c 42 3e c2 ba 23 be 93 11 c2 3d
       -0.1630949 0.18962209 -0.15989211 0.09476008
0002b0 47 14 80 3e a3 1f cd bc 5c 2d 23 be 8b 5b 4d 3e
       0.2501547 -0.0250395 -0.15935272 0.20054452
0002c0 f7 6d 14 bd e1 ff 93 bd 14 36 f1 bd 0b 22 bd 3c
       -0.036237683 -0.072265394 -0.11777893 0.023087522
0002d0 da 2f de bd e3 5d b1 bd 9c eb 9f 3e 6b ec 65 3d
       -0.10848971 -0.086604856 0.31234443 0.05613367
0002e0 97 f5 bf bd 83 59 29 ba c9 10 65 bd 54 cf 25 3b
       -0.093730144 -0.00064601767 -0.05592421 0.002530058
0002f0 a6 2d d5 bc 99 a3 96 3a bd e8 f4 3d 64 e9 d5 bd
       -0.026022743 0.0011492848 0.11958454 -0.10444906
000300 a6 b0 9e bd 16 be 26 3d a3 d3 23 3e d2 11 80 bd
       -0.07748537 0.040708624 0.15998702 -0.06253399
000310 bd 79 b1 be 69 50 11 be 73 42 45 bb 10 16 0c 3e
       -0.3466319 -0.1419083 -0.0030099421 0.13680291
000320 08 f0 0e 3e 5e 0c 09 be b8 32 02 be 9b b9 98 3d
       0.13958752 -0.13383624 -0.1271466 0.074572764
000330 93 4c 94 be 4a 6b 9f 3d da ca 74 3c 50 e5 00 be
       -0.28964671 0.07784136 0.014940942 -0.12587476
000340 fd 6e cc 3e c2 68 74 3e f9 2c b0 be c3 6c 9b bd
       0.39928427 0.23868087 -0.3440931 -0.07589104
000350 f7 6b a8 be c8 02 a1 3d 5e 73 22 bd 85 d6 0c 3d
       -0.3289487 0.078618586 -0.039660804 0.03438427
000360 50 46 b1 3e 28 8a 0f be f0 d5 21 be 23 93 03 be
       0.34623957 -0.14017546 -0.15804267 -0.12849097
000370 35 62 40 3e db 03 ce 3c b1 be e0 bd 26 42 93 3e
       0.18787463 0.025148323 -0.109738715 0.28761405
000380 42 ab 8a be 13 d9 59 bd bb 8a 5c 3d a1 4e 50 3e
       -0.27083784 -0.053185534 0.05384324 0.20342495
000390 9a c1 6d 3e 44 22 36 be 57 4a 83 be b2 bb 91 3d
       0.23218384 -0.17786509 -0.25642654 0.07115878
0003a0 61 3d 11 3e 74 94 5f 3e af 71 84 bc d2 9b 64 3c
       0.1418357 0.21833974 -0.01616749 0.013953166
0003b0 cc 33 69 3e b8 df 41 be 7c 41 28 be 0d 46 8c 3d
       0.22773665 -0.18932998 -0.1643123 0.068492986
0003c0 ab 50 57 3d 7e 21 73 bd 9e 58 92 be dd 6b e6 bd
       0.052567165 -0.059358113 -0.28583235 -0.11251042
0003d0 6e 11 8c be bd 2e ef bd 1a f0 c5 bd ba ef 76 3e
       -0.27357048 -0.116788365 -0.09664936 0.24114886
0003e0 fa 9f 99 bd 40 1a a5 3d 19 af 4f be fc 1d 4d 3e
       -0.07501216 0.080616474 -0.20281638 0.2003097
0003f0 2a 0c ba 3d a0 0a 4e 3d 7f 3a 85 3c 97 26 56 3e
       0.09084351 0.0503031 0.016263245 0.20913158

mlp.mlp.fc_h.0.bias f4 [64]
000000 00 00 00 00 00 00 00 00 00 00 00 00 00 00 00 00
       0.0 0.0 0.0 0.0
000010 00 00 00 00 00 00 00 00 00 00 00 00 00 00 00 00
       0.0 0.0 0.0 0.0
000020 00 00 00 00 00 00 00 00 00 00 00 00 00 00 00 00
       0.0 0.0 0.0 0.0
000030 00 00 00 00 00 00 00 00 00 00 00 00 00 00 00 00
       0.0 0.0 0.0 0.0
000040 00 00 00 00 00 00 00 00 00 00 00 00 00 00 00 00
       0.0 0.0 0.0 0.0
000050 00 00 00 00 00 00 00 00 00 00 00 00 00 00 00 00
       0.0 0.0 0.0 0.0
000060 00 00 00 00 00 00 00 00 00 00 00 00 00 00 00 00
       0.0 0.0 0.0 0.0
000070 00 00 00 00 00 00 00 00 00 00 00 00 00 00 00 00
       0.0 0.0 0.0 0.0
000080 00 00 00 00 00 00 00 00 00 00 00 00 00 00 00 00
       0.0 0.0 0.0 0.0
000090 00 00 00 00 00 00 00 00 00 00 00 00 00 00 00 00
       0.0 0.0 0.0 0.0
0000a0 00 00 00 00 00 00 00 00 00 00 00 00 00 00 00 00
       0.0 0.0 0.0 0.0
0000b0 00 00 00 00 00 00 00 00 00 00 00 00 00 00 00 00
       0.0 0.0 0.0 0.0
0000c0 00 00 00 00 00 00 00 00 00 00 00 00 00 00 00 00
       0.0 0.0 0.0 0.0
0000d0 00 00 00 00 00 00 00 00 00 00 00 00 00 00 00 00
       0.0 0.0 0.0 0.0
0000e0 00 00 00 00 00 00 00 00 00 00 00 00 00 00 00 00
       0.0 0.0 0.0 0.0
0000f0 00 00 00 00 00 00 00 00 00 00 00 00 00 00 00 00
       0.0 0.0 0.0 0.0

mlp.mlp.fc_h.2.weight f4 [64]
000000 00 00 80 3f 00 00 80 3f 00 00 80 3f 00 00 80 3f
       1.0 1.0 1.0 1.0
000010 00 00 80 3f 00 00 80 3f 00 00 80 3f 00 00 80 3f
       1.0 1.0 1.0 1.0
000020 00 00 80 3f 00 00 80 3f 00 00 80 3f 00 00 80 3f
       1.0 1.0 1.0 1.0
000030 00 00 80 3f 00 00 80 3f 00 00 80 3f 00 00 80 3f
       1.0 1.0 1.0 1.0
000040 00 00 80 3f 00 00 80 3f 00 00 80 3f 00 00 80 3f
       1.0 1.0 1.0 1.0
000050 00 00 80 3f 00 00 80 3f 00 00 80 3f 00 00 80 3f
       1.0 1.0 1.0 1.0
000060 00 00 80 3f 00 00 80 3f 00 00 80 3f 00 00 80 3f
       1.0 1.0 1.0 1.0
000070 00 00 80 3f 00 00 80 3f 00 00 80 3f 00 00 80 3f
       1.0 1.0 1.0 1.0
000080 00 00 80 3f 00 00 80 3f 00 00 80 3f 00 00 80 3f
       1.0 1.0 1.0 1.0
000090 00 00 80 3f 00 00 80 3f 00 00 80 3f 00 00 80 3f
       1.0 1.0 1.0 1.0
0000a0 00 00 80 3f 00 00 80 3f 00 00 80 3f 00 00 80 3f
       1.0 1.0 1.0 1.0
0000b0 00 00 80 3f 00 00 80 3f 00 00 80 3f 00 00 80 3f
       1.0 1.0 1.0 1.0
0000c0 00 00 80 3f 00 00 80 3f 00 00 80 3f 00 00 80 3f
       1.0 1.0 1.0 1.0
0000d0 00 00 80 3f 00 00 80 3f 00 00 80 3f 00 00 80 3f
       1.0 1.0 1.0 1.0
0000e0 00 00 80 3f 00 00 80 3f 00 00 80 3f 00 00 80 3f
       1.0 1.0 1.0 1.0
0000f0 00 00 80 3f 00 00 80 3f 00 00 80 3f 00 00 80 3f
       1.0 1.0 1.0 1.0

mlp.mlp.fc_h.2.bias f4 [64]
000000 00 00 00 00 00 00 00 00 00 00 00 00 00 00 00 00
       0.0 0.0 0.0 0.0
000010 00 00 00 00 00 00 00 00 00 00 00 00 00 00 00 00
       0.0 0.0 0.0 0.0
000020 00 00 00 00 00 00 00 00 00 00 00 00 00 00 00 00
       0.0 0.0 0.0 0.0
000030 00 00 00 00 00 00 00 00 00 00 00 00 00 00 00 00
       0.0 0.0 0.0 0.0
000040 00 00 00 00 00 00 00 00 00 00 00 00 00 00 00 00
       0.0 0.0 0.0 0.0
000050 00 00 00 00 00 00 00 00 00 00 00 00 00 00 00 00
       0.0 0.0 0.0 0.0
000060 00 00 00 00 00 00 00 00 00 00 00 00 00 00 00 00
       0.0 0.0 0.0 0.0
000070 00 00 00 00 00 00 00 00 00 00 00 00 00 00 00 00
       0.0 0.0 0.0 0.0
000080 00 00 00 00 00 00 00 00 00 00 00 00 00 00 00 00
       0.0 0.0 0.0 0.0
000090 00 00 00 00 00 00 00 00 00 00 00 00 00 00 00 00
       0.0 0.0 0.0 0.0
0000a0 00 00 00 00 00 00 00 00 00 00 00 00 00 00 00 00
       0.0 0.0 0.0 0.0
0000b0 00 00 00 00 00 00 00 00 00 00 00 00 00 00 00 00
       0.0 0.0 0.0 0.0
0000c0 00 00 00 00 00 00 00 00 00 00 00 00 00 00 00 00
       0.0 0.0 0.0 0.0
0000d0 00 00 00 00 00 00 00 00 00 00 00 00 00 00 00 00
       0.0 0.0 0.0 0.0
0000e0 00 00 00 00 00 00 00 00 00 00 00 00 00 00 00 00
       0.0 0.0 0.0 0.0
0000f0 00 00 00 00 00 00 00 00 00 00 00 00 00 00 00 00
       0.0 0.0 0.0 0.0

mlp.mlp.fc2.0.0.weight f4 [64, 64]
000000 9d 7e 16 3e 18 77 82 3d 12 26 d3 bd 52 dc 95 bd
       0.14696737 0.063703716 -0.10309996 -0.073174134
000010 dd 0f ce 3e 66 e1 01 3e 7d d3 91 3e e8 62 97 be
       0.40246478 0.12683639 0.28481665 -0.29567647
000020 b3 f6 c3 3d 87 13 78 3d fe 4a 10 be f0 3c 68 be
       0.095685385 0.060565498 -0.14091107 -0.22679496
000030 14 57 0c 3d a1 05 4e 3d a0 3c b7 3e 77 27 f8 3d
       0.03426273 0.050298337 0.3578844 0.12116902
000040 0c 12 36 bc ad 5d 17 3d ac 87 a2 bc 11 96 b2 3e
       -0.011112701 0.03695457 -0.019840084 0.34880117
000050 c9 43 93 3c ed 21 af be f2 f1 49 3d 61 15 43 bd
       0.017976658 -0.3420557 0.049303003 -0.04762781
000060 8b cb ed bd fd 76 72 3e c9 f4 44 be 44 3e f8 3d
       -0.11611088 0.23678203 -0.19234003 0.12121251
000070 f9 16 86 3c fb d8 7b 3d 22 4d b1 3d 73 c9 46 3e
       0.016368376 0.061486226 0.0865729 0.19412784
000080 d1 d6 6f 3b 46 8e 16 be 65 08 59 be fc d3 87 3d
       0.0036596546 -0.1470271 -0.21194609 0.0663223
000090 88 87 81 3e 50 bb f1 bc d6 76 90 3b c3 99 e9 3e
       0.25298715 -0.029508263 0.0044086976 0.45625123
0000a0 44 a6 b1 3e 24 5d 82 be de 45 8b 3e 20 16 c2 bb
       0.34697163 -0.25461686 0.27201742 -0.0059230477
0000b0 e9 cc 69 3e a2 de 17 be ef 91 81 bc 25 e4 95 3c
       0.22832073 -0.14831021 -0.015816657 0.018297264
0000c0 f8 25 04 be 20 88 11 be 82 be 4a be 93 e1 9c 3d
       -0.12905109 -0.14212084 -0.19799235 0.07660212
0000d0 d0 b5 97 bc a6 c5 a3 3d 55 c5 13 3d a3 d1 34 be
       -0.018519312 0.07996683 0.036076862 -0.17658095
0000e0 62 64 ed bd f8 3f 42 3e d7 55 ae bd d4 ca 93 3e
       -0.11591412 0.18969715 -0.085124664 0.28865683
0000f0 a5 a3 52 bc 6f 07 d9 bc 80 fa f2 3d 09 1b 98 3d
       -0.012856399 -0.026492802 0.11864185 0.074270315
000100 84 57 e7 be 0d fb a7 3e ba cd 47 3d 19 63 ac bd
       -0.45183957 0.32808724 0.04878018 -0.08417339
000110 38 56 2a 3d 82 68 36 3e cd c9 70 3e 6b 4b 99 3e
       0.04158613 0.17813304 0.23514481 0.29940352
000120 1b 9f a5 be cf 80 c1 bc d6 c6 fd 3b 1a 38 00 be
       -0.3234795 -0.023620991 0.0077446504 -0.12521401
000130 1b 85 f4 3c 0d 12 76 3e 8d b9 64 bd 12 1c 44 bd
       0.029848626 0.24030323 -0.055841018 -0.047878332
000140 c1 77 ec bd 6c ab 89 bd 19 fb 43 be 25 7b 29 3d
       -0.11546279 -0.06722149 -0.19138755 0.041377205
000150 cb 23 d2 bb 91 00 c4 bd 56 87 1b 3e 28 f7 1b 3e
       -0.0064129583 -0.095704205 0.15188345 0.15231001
000160 f7 6a 31 be 4c ab 44 be 16 77 0d bd 98 a5 c4 bd
       -0.1732596 -0.1920597 -0.034537397 -0.09601897
000170 47 26 a6 be b1 67 33 be 0f 8b 0d be f9 1e 8f bd
       -0.32451078 -0.17520024 -0.13822578 -0.069883294
000180 97 84 b4 3d 6a 4e 22 bd 5c 3e b3 bd ea 10 2b be
       0.08814352 -0.039625563 -0.087521285 -0.16705671
000190 dd ca 06 bc 1e 40 ec be 4d 2f 23 be 3d 80 36 3e
       -0.008227077 -0.46142668 -0.15936013 0.17822357
0001a0 43 ab 56 bc d1 fa 7e be 5b f5 fd 3d d6 75 c6 3e
       -0.013102355 -0.24900366 0.124003135 0.38761777
0001b0 22 81 43 3d 2a 77 a1 3d 26 a2 3a 3b 1d 3a 05 bd
       0.047730573 0.07884057 0.0028477996 -0.032526124
0001c0 07 69 a5 3e dd ed 8d 3e 8f b2 b5 bd f6 d6 25 be
       0.32306692 0.27720538 -0.08871948 -0.16195282
0001d0 b7 ea 8c 3d 83 3a 23 be c7 e8 88 bd bf 15 63 bc
       0.06880706 -0.15940289 -0.06685024 -0.013860165
0001e0 c6 5d cd 3d 5e 15 2e bc e8 c6 ab bd 1e 9a ca bc
       0.100276515 -0.0106252115 -0.08387548 -0.024731692
0001f0 87 67 2f 3c 79 69 bf 3e ec ed a0 bd 16 cc 8a bd
       0.010705835 0.37385157 -0.0785788 -0.067772076
000200 1e ab 64 3c 54 17 78 bb 5c 47 96 3d d8 ba bf 3d
       0.013956813 -0.0037855702 0.073378295 0.093618095
000210 d7 8c 06 3e 46 11 de 3d 78 17 33 bd 03 ec 5a 3d
       0.13139664 0.108431384 -0.043723553 0.053447735
000220 7c 3b 6e 3d 9b 99 76 be c3 59 da 3d 54 33 09 be
       0.058162197 -0.24082033 0.10661652 -0.13398486
000230 b7 5d e9 3e 0a 3e 4b be 00 23 0d 3e cd ff 7a 3e
       0.4557931 -0.19847885 0.13782883 0.24511643
000240 67 da 0d 3f 05 b3 d8 bd 09 c0 8e bd 26 91 67 bd
       0.5541138 -0.1058102 -0.069702215 -0.05653491
000250 d9 cf 37 3e 4b 83 4c bd a9 20 c4 3c 05 69 d7 3e
       0.17950381 -0.0499299 0.023941355 0.4207231
000260 78 1c bb bc ad 65 42 be 10 5a 94 be cb e9 88 3e
       -0.022840723 -0.18984099 -0.28974962 0.2674087
000270 cb 35 e4 3b 68 25 c9 3d 72 08 d4 bc 36 ef 17 be
       0.0069644204 0.09821588 -0.025882933 -0.14837345
000280 ca 6e 33 bc 44 5f 17 bb c2 02 aa 3e 40 b5 ab be
       -0.010951707 -0.0023097554 0.3320523 -0.3353672
000290 9d b9 81 be 08 49 d0 bd 2f 60 6b 3e 28 2f 0d 3e
       -0.25336924 -0.101701796 0.2298591 0.1378752
0002a0 4a 96 26 be 7c da 42 3e a3 25 24 be c0 2e c0 3d
       -0.16268268 0.19028658 -0.16029982 0.09383917
0002b0 7f 64 80 3e 66 75 c6 bc 18 f9 21 be b9 00 4d 3e
       0.25076672 -0.024225902 -0.15817678 0.20019807
0002c0 2f c4 0d bd 80 ea 92 bd 31 4e ef bd ba 77 b6 3c
       -0.034610923 -0.071736336 -0.11684836 0.022273887
0002d0 aa 05 e0 bd 24 f0 af bd a4 1d 9f 3e 86 04 69 3d
       -0.1093858 -0.08590725 0.31077302 0.05688908
0002e0 d4 4d bb bd f7 e0 55 b8 a1 8b 68 bd 02 dc 7a 3b
       -0.09145704 -5.0992672e-05 -0.056773786 0.0038278108
0002f0 e7 7a ce bc 59 3e db 3a 8b 5e f7 3d 3f 7f d6 bd
       -0.025205089 0.0016726955 0.120785795 -0.10473489
000300 21 72 a0 bd 01 52 27 3d 6d d1 23 3e 8b 3a 83 bd
       -0.07834268 0.04084969 0.15997858 -0.064076506
000310 f6 9f b1 be 8d 97 0f be 96 87 1f bb ad e8 0b 3e
       -0.34692353 -0.14022656 -0.002434229 0.13662978
000320 c3 b3 0e 3e 49 15 09 be 1e 2e 04 be 57 19 9b 3d
       0.13935761 -0.13387026 -0.12908217 0.075731926
000330 4e 45 94 be 3a 32 a2 3d 4e c1 74 3c 56 1a 00 be
       -0.28959125 0.07919736 0.014938666 -0.12510046
000340 df 43 cc 3e 65 fa 73 3e 60 d0 af be 32 4d 9b bd
       0.39895532 0.23825987 -0.34338665 -0.07583083
000350 19 d4 a8 be f3 b1 9e 3d ad 69 23 bd b1 cf 0a 3d
       -0.32974318 0.07748785 -0.039895702 0.033889476
000360 e2 3f b1 3e 90 ae 0f be 76 fe 20 be 75 8b 03 be
       0.3461905 -0.14031434 -0.15722069 -0.12846167
000370 23 82 3f 3e 7d bb c5 3c f9 c9 df bd e5 ae 92 3e
       0.18701987 0.024137253 -0.10927195 0.2864906
000380 14 90 8a be 0d 43 5a bd c9 a4 56 3d 8c af 4f 3e
       -0.27063048 -0.0532866 0.052403245 0.2028181
000390 e0 78 6d 3e 90 49 36 be db 51 83 be 6e 12 90 3d
       0.23190641 -0.178015 -0.25648388 0.07034765
0003a0 c8 bb 12 3e 62 68 5f 3e cc 98 8a bc 61 da 5c 3c
       0.14329445 0.21817163 -0.016918562 0.0134798
0003b0 c7 b4 68 3e d6 be 41 be c1 ea 27 be d9 25 8c 3d
       0.22725211 -0.18920454 -0.16398145 0.06843156
0003c0 9c da 54 3d 2e bd 6f bd 9a 59 92 be 47 7d e6 bd
       0.051966295 -0.058530025 -0.28583986 -0.112543635
0003d0 8c 44 8b be 3d 2c ec bd 65 f3 c5 bd 03 b7 77 3e
       -0.27200735 -0.11531875 -0.096655644 0.24190907
0003e0 97 b8 97 bd 45 8a a3 3d d3 c6 4f be ef 25 4e 3e
       -0.074082546 0.07985357 -0.20290689 0.20131658
0003f0 96 9e ba 3d b4 55 4e 3d 49 92 90 3c bf fd 55 3e
       0.09112279 0.0503747 0.01764788 0.20897578

mlp.mlp.fc2.0.0.bias f4 [64]
000000 bf 11 c5 ba fe 65 e2 3a a7 d3 22 3a da 75 83 ba
       -0.0015035196 0.0017272828 0.0006211348 -0.0010029629
000010 06 1e 55 bb f0 20 cf 3a b4 c2 3d bb 98 46 8d bb
       -0.0032519116 0.0015802663 -0.0028955163 -0.004311394
000020 fc ab e2 3a 8f 18 82 bb f5 d1 19 ba 0e 1d 36 3b
       0.0017293687 -0.003970213 -0.0005867773 0.0027788314
000030 0c 6c b4 ba 4f 4e aa bb f1 6b 86 bb ec d4 a6 3b
       -0.0013765111 -0.0051973234 -0.004102223 0.0050913002
000040 1f 71 92 3b 2a b2 89 bb f0 05 24 bb 09 06 13 bb
       0.0044690515 -0.004202147 -0.0025027953 -0.0022434017
000050 00 60 dd b8 51 70 41 3b 1b 65 57 b9 31 9b 86 3b
       -0.000105559826 0.0029516409 -0.00020541663 0.0041078557
000060 cd 45 72 ba 5e 39 60 bb 86 3b 14 bb d0 92 51 3a
       -0.00092419685 -0.003421388 -0.0022618487 0.0007994594
000070 b0 60 f0 ba 0c 6e 27 ba 8e 10 73 3b 90 69 8b 3b
       -0.0018339362 -0.00063869427 0.0037088725 0.0042545274
000080 67 eb 6a bb dc 17 7a bb 1a 5f 32 bb 93 b1 ae 3b
       -0.0035845877 -0.0038161194 -0.002721733 0.005331227
000090 18 ff 96 3b aa 33 1e 3b 99 ba 18 bb 9c ef 8b bb
       0.0046080463 0.002413968 -0.002330458 -0.004270507
0000a0 c2 33 43 bb 3a 1b f6 ba b9 79 93 3a 19 bb d5 3a
       -0.0029785489 -0.0018776425 0.0011251486 0.001630637
0000b0 46 d4 ce b8 47 fe 27 ba 4d bd 18 3b 2a 70 a5 ba
       -9.8623845e-05 -0.0006408435 0.0023306191 -0.0012621928
0000c0 4e 1e 72 3b 28 64 96 bb d5 1f 46 bb e0 70 b9 3b
       0.0036944333 -0.0045895763 -0.0030231376 0.0056592077
0000d0 b9 3c 9d 3b b3 0c d4 3b 75 54 b6 bb b1 b9 d6 39
       0.0047984985 0.0064712404 -0.0055642673 0.00040955612
0000e0 e0 e7 bc bb a2 0f ab bb 6b 47 cf 3b b2 b7 f0 ba
       -0.0057649463 -0.0052203694 0.0063256524 -0.0018365292
0000f0 ba c3 d7 3b 35 f8 1d 3b 4e 9d 78 b9 3d 2f 3c 3b
       0.0065846117 0.0024104242 -0.00023709724 0.002871468

mlp.mlp.fc2.0.2.weight f4 [64]
000000 ba b7 7f 3f 50 3d 80 3f 3d ce 7f 3f d8 f9 7f 3f
       0.9988972 1.0018711 0.9992407 0.99990606
000010 b5 73 80 3f fa 4b 7f 3f fd 8e 7f 3f 53 fe 7f 3f
       1.0035311 0.99725306 0.9982756 0.9999744
000020 f8 a6 7f 3f f1 16 80 3f 39 08 80 3f ee 90 7f 3f
       0.9986415 1.0007001 1.0002509 0.9983052
000030 53 fb 7f 3f 77 30 80 3f ca 2c 80 3f 21 48 80 3f
       0.99992865 1.001479 1.0013669 1.0022012
000040 93 d5 7f 3f 09 76 80 3f 31 bc 7f 3f 6e 0c 80 3f
       0.99935263 1.0036021 0.9989653 1.0003793
000050 e1 46 7f 3f 62 a9 7f 3f a8 a5 7f 3f 04 c9 7f 3f
       0.9971753 0.9986783 0.99862146 0.999161
000060 83 61 80 3f b0 98 7f 3f da 0e 80 3f 52 2b 80 3f
       1.0029758 0.9984236 1.0004532 1.001322
000070 c7 d7 7f 3f 3b c3 7f 3f a6 d6 7f 3f 04 1e 80 3f
       0.99938625 0.99907273 0.999369 1.000916
000080 fa db 7f 3f c1 d8 7f 3f 1e 31 80 3f 43 67 7f 3f
       0.9994503 0.99940115 1.0014989 0.9976694
000090 cf ff 7f 3f 20 42 80 3f eb 50 80 3f c5 d6 7f 3f
       0.9999971 1.002018 1.0024694 0.9993709
0000a0 e1 2e 7f 3f 4f 65 7f 3f 23 bc 7f 3f 3f 8a 7f 3f
       0.99680907 0.9976396 0.9989645 0.9982032
0000b0 af eb 7e 3f 05 9d 7f 3f 65 02 80 3f bc 2a 80 3f
       0.99578375 0.9984897 1.0000731 1.0013041
0000c0 e7 0f 80 3f 70 c3 7f 3f e5 f7 7f 3f 15 88 80 3f
       1.0004853 0.9990759 0.9998763 1.0041529
0000d0 13 cd 7f 3f a4 41 80 3f 78 04 7f 3f b5 8f 7f 3f
       0.99922293 1.0020032 0.99616194 0.99828655
0000e0 ab b0 7f 3f eb 24 80 3f a7 99 80 3f f5 4b 7f 3f
       0.9987895 1.0011266 1.0046891 0.99725276
0000f0 41 4e 80 3f 1b 06 80 3f 5a 0e 80 3f b3 1d 80 3f
       1.0023881 1.0001863 1.000438 1.0009063

mlp.mlp.fc2.0.2.bias f4 [64]
000000 a1 29 fb ba 26 f9 ae 38 97 2d 94 3a c8 f3 f6 ba
       -0.0019162187 8.343374e-05 0.0011305091 -0.0018840963
000010 2e 6a d0 bb f1 76 60 3b 17 8d 1f bb 39 85 b0 bb
       -0.006360314 0.0034250582 -0.002434557 -0.005386975
000020 ff d5 04 3b 8e b8 ae bb 4e fc be ba 74 67 77 3b
       0.0020269153 -0.005332059 -0.0014571042 0.0037750872
000030 88 37 09 bb 77 69 ed bb 5f 20 bf bb 32 48 b0 3b
       -0.002093764 -0.0072452384 -0.0058327164 0.0053797
000040 e8 d3 ac 3b 34 f4 de bb 1d 7c 4f bb 0c c6 59 bb
       0.0052742846 -0.0068040136 -0.003165967 -0.0033229617
000050 d4 69 c8 3a b0 ab 8d 3b 04 a0 26 3a b1 ef 9c 3b
       0.0015290328 0.0043234453 0.00063562416 0.0047893156
000060 d4 ee 6b bb ae 1c 95 bb 14 b1 73 bb f8 ae ca b9
       -0.0036000507 -0.004550538 -0.0037184404 -0.00038658804
000070 bd a7 5a bb be f1 2b ba b0 5c a4 3b 0c 88 a8 3b
       -0.003336414 -0.0006559155 0.005015932 0.005143171
000080 09 eb 99 bb 10 6c 9e bb a5 06 88 bb 45 98 e8 3b
       -0.004697208 -0.0048346594 -0.0041511827 0.00709823
000090 0b 8f b8 3b aa 2c ba 3a cf 87 9e bb af c5 b9 bb
       0.0056322864 0.0014203985 -0.004837967 -0.0056693177
0000a0 7f 82 21 bb b6 ae f7 ba 0b c2 c8 3a 93 d3 18 3b
       -0.0024644432 -0.0018896672 0.0015316618 0.0023319467
0000b0 d3 4b fb 3a 4f e4 ae ba 75 a4 22 3b 49 12 20 bb
       0.0019172378 -0.0013343188 0.0024817262 -0.0024424961
0000c0 63 85 82 3b c9 13 d0 bb 86 71 8e bb 5b 64 c5 3b
       0.003983186 -0.006350015 -0.004347029 0.006023926
0000d0 39 84 c5 3b 3d a9 fa 3b 6c 77 bd bb a6 a5 fe 3a
       0.006027725 0.0076495693 -0.0057820585 0.0019428029
0000e0 81 a7 d4 bb 04 ec de bb 07 7a e9 3b 68 a2 50 b8
       -0.0064896946 -0.0068030376 0.0071251425 -4.9742317e-05
0000f0 b3 3f f2 3b d2 03 12 3b b4 1d 5c b8 88 ca 55 3b
       0.0073928474 0.002228011 -5.247975e-05 0.0032621939

mlp.mlp.fc2.1.0.weight f4 [64, 64]
000000 86 ea 18 3e 9f c6 85 3d f4 c9 cf bd 83 e2 95 bd
       0.14933214 0.065320246 -0.101459414 -0.07318594
000010 37 eb ce 3e c1 68 03 3e c0 5e 91 3e 77 bc 96 be
       0.4041383 0.12832929 0.283926 -0.29440662
000020 eb d8 c8 3d 29 2d 83 3d 3d 62 0f be f2 ff 66 be
       0.09806999 0.06405098 -0.14002319 -0.22558573
000030 f6 d8 12 3d 52 a6 44 3d 49 77 b7 3e 1b eb f8 3d
       0.03585144 0.048010178 0.35833195 0.12154218
000040 bd 41 40 bc fe cd 0d 3d 85 f1 9c bc 54 5f b3 3e
       -0.011734423 0.034620278 -0.019158134 0.35033667
000050 c3 1f 99 3c fd bc af be 6e 5e 4b 3d a5 94 42 bd
       0.018691903 -0.34323874 0.049650602 -0.04750504
000060 5b c0 ef bd 15 ab 74 3e 8f 7f 44 be 2f 03 f8 3d
       -0.11706611 0.23893388 -0.19189285 0.12109982
000070 60 e3 98 3c 74 19 83 3d bd d6 af 3d 37 71 44 3e
       0.018663108 0.06401339 0.0858588 0.19183813
000080 62 9e 7a 3b 50 96 14 be 13 84 58 be 83 d9 86 3d
       0.0038241376 -0.14510465 -0.21144132 0.06584456
000090 2d 49 83 3e fd eb dc bc 4f a7 89 3b 3e 1f e8 3e
       0.25641766 -0.026967997 0.004200853 0.45336336
0000a0 69 ea af 3e f8 20 83 be a5 f8 8a 3e e4 74 b7 bb
       0.34358528 -0.2561109 0.27142826 -0.0055986512
0000b0 34 85 6b 3e 3a 78 17 be 2a 51 77 bc a2 e6 87 3c
       0.23000032 -0.14791957 -0.015095035 0.016589466
0000c0 d8 0f 05 be 4a aa 10 be 4b f6 48 be af 3e 9a 3d
       -0.12994325 -0.1412746 -0.19625203 0.07531487
0000d0 82 0a 9e bc 53 01 98 3d 13 f8 1a 3d c0 a5 36 be
       -0.01929212 0.074221276 0.03783424 -0.17836666
0000e0 25 76 f4 bd aa 5e 43 3e 80 9b b0 bd c2 fe 92 3e
       -0.11936597 0.1907908 -0.08623409 0.2870999
0000f0 bc 13 7a bc 85 f1 ee bc d9 e1 ef 3d 98 17 94 3d
       -0.015263494 -0.0291679 0.11712999 0.07231063
000100 78 a3 e6 be 38 45 a7 3e fe 76 45 3d 8b 6c ab bd
       -0.45046592 0.32669997 0.048209183 -0.08370312
000110 78 2f 2a 3d b2 9f 35 3e 9c a4 70 3e 01 a5 97 3e
       0.041549176 0.177367 0.23500293 0.29618075
000120 b6 e0 a4 be 56 69 bc bc 93 2e fc 3b 25 fb 00 be
       -0.3220269 -0.022999447 0.0076959818 -0.12595804
000130 8f 03 e8 3c fa 17 77 3e 3f 70 5b bd 0e 0a 46 bd
       0.02832201 0.2413024 -0.053573843 -0.048349433
000140 7d 71 ef bd 19 30 8a bd 59 84 41 be 0c b5 29 3d
       -0.11691568 -0.06747455 -0.18898143 0.041432425
000150 61 a1 e1 bb 93 1c c4 bd ec 43 1b 3e 79 3e 1b 3e
       -0.006885693 -0.095757626 0.15162629 0.1516055
000160 ee 54 30 be e8 ff 42 be 01 0a 07 bd f7 88 c4 bd
       -0.17219898 -0.19042933 -0.032968525 -0.095964365
000170 20 42 a5 be c8 0f 31 be 9f fd 0d be 3d 36 8f bd
       -0.32277012 -0.17291176 -0.1386628 -0.06992767
000180 e3 df b5 3d d9 d6 1c bd d8 9a b1 bd 52 ed 28 be
       0.08880594 -0.038290832 -0.08672112 -0.1649678
000190 a0 1f cd bb 8a 7a eb be 55 38 23 be 02 7b 37 3e
       -0.0062598735 -0.45991927 -0.15939458 0.17918018
0001a0 35 9a 60 bc 06 a5 7d be cc b0 fb 3d 16 f1 c4 3e
       -0.013708641 -0.24769983 0.12289581 0.38465184
0001b0 8a 00 46 3d 9e 03 a0 3d 5f 04 f4 3a 80 f8 0b bd
       0.048340358 0.0781319 0.0018617025 -0.034172535
0001c0 36 d9 a3 3e ba 7c 8e 3e 45 e5 b0 bd d3 42 27 be
       0.32001656 0.27829534 -0.0863748 -0.16334085
0001d0 32 fa 8a 3d 05 58 25 be 42 6f 8a bd af a3 5a bc
       0.06786002 -0.16146858 -0.06759502 -0.013344689
0001e0 cf 57 c9 3d ef 02 2f bc 97 5d aa bd 7e 05 df bc
       0.09831201 -0.010681852 -0.08318632 -0.027224299
0001f0 d2 87 29 3c 68 d0 be 3e 9c 82 9e bd 22 9b 85 bd
       0.0103473235 0.37268376 -0.077397555 -0.0652373
000200 69 8b 74 3c 56 c0 39 bb 56 9d 98 3d 1d 7a bb 3d
       0.014925816 -0.00283434 0.074518844 0.09154151
000210 19 a1 08 3e 81 54 db 3d 82 b2 34 bd 37 47 5d 3d
       0.13342704 0.10709477 -0.04411555 0.054022994
000220 cd de 76 3d 26 cb 75 be ab 27 da 3d ff 13 0a be
       0.060271073 -0.24003276 0.10652097 -0.1348419
000230 d8 3d e8 3e 85 4c 49 be 4b 43 0e 3e e7 3e 7b 3e
       0.45359683 -0.19658096 0.13892858 0.24535714
000240 58 35 0d 3f 78 a3 dc bd 58 f8 8b bd 44 7a 66 bd
       0.5515952 -0.10773367 -0.06834477 -0.056268945
000250 ba a2 39 3e 9a 94 52 bd b9 3b c9 3c ef 3d d7 3e
       0.18128482 -0.05141125 0.02456461 0.4203944
000260 f9 ec d0 bc 0e 2e 41 be 02 27 93 be 19 eb 89 3e
       -0.025503622 -0.18865225 -0.28740698 0.26937178
000270 58 4b 0e 3c df b4 cc 3d 50 88 c1 bc 91 50 18 be
       0.008684956 0.09995436 -0.02362457 -0.14874484
000280 bc 52 28 bc 21 cc 69 ba dd 19 aa 3e a5 08 ab be
       -0.010273632 -0.0008918662 0.33222857 -0.33405033
000290 13 47 81 be 98 83 d0 bd 91 ac 6b 3e 95 81 0c 3e
       -0.25249538 -0.101813495 0.23015048 0.13721307
0002a0 c4 63 26 be 53 43 40 3e 7f 51 22 be 62 7a c3 3d
       -0.16248995 0.18775682 -0.15851401 0.09544827
0002b0 94 0e 80 3e b4 cc d1 bc 99 09 21 be fa 86 4c 3e
       0.25011122 -0.025610305 -0.15726317 0.19973364
0002c0 11 fe 19 bd 80 2e 94 bd da 08 ee bd ad e6 bc 3c
       -0.037595812 -0.07235432 -0.11622782 0.023059214
0002d0 73 c9 e1 bd 0f c3 ae bd cb e9 9e 3e b5 71 65 3d
       -0.110247515 -0.08533298 0.31037745 0.056016643
0002e0 7a 79 be bd f5 4b 81 b9 d3 31 72 bd 4a a4 60 3b
       -0.093005136 -0.0002466139 -0.059129547 0.0034277611
0002f0 6f 79 e2 bc d4 6d 93 3a 3d ab f4 3d 9e 09 d6 bd
       -0.027645795 0.0011247941 0.119467236 -0.10451053
000300 ef ef a3 bd 3c 7b 28 3d a7 92 25 3e da 64 79 bd
       -0.08004748 0.04113315 0.16169225 -0.060887195
000310 10 da b2 be a2 1e 13 be 53 eb 62 bb cd dd 0b 3e
       -0.34931993 -0.14367154 -0.0034625127 0.13658829
000320 23 b3 0c 3e 69 17 09 be 2c 95 01 be 16 98 9b 3d
       0.1374021 -0.13387837 -0.12654561 0.075973675
000330 00 fe 94 be a5 8c 9b 3d 3d ad 60 3c 8b 9b 03 be
       -0.29100037 0.07595185 0.013713178 -0.12852304
000340 38 93 cd 3e 76 60 76 3e 0b ed b0 be 4c 50 a0 bd
       0.40151381 0.24060234 -0.3455585 -0.078278154
000350 d9 d0 a8 be 6d d2 9e 3d 92 eb 18 bd fb 3a 0c 3d
       -0.32971838 0.07754979 -0.037334032 0.034235936
000360 f4 fd b2 3e bf db 11 be 32 18 23 be d9 fa 04 be
       0.34959376 -0.14243983 -0.15927199 -0.12986316
000370 28 c3 3e 3e 6f 44 c6 3c 9a 3d e0 bd d3 01 94 3e
       0.18629134 0.024202554 -0.109492496 0.28907642
000380 13 89 8b be db 6f 5d bd b6 09 55 3d 3d 61 4e 3e
       -0.27253017 -0.05406175 0.052011214 0.20154281
000390 c2 10 6c 3e 22 f1 36 be 3e 08 84 be 9f 0d 94 3d
       0.23053268 -0.17865422 -0.25787538 0.072291605
0003a0 9f 34 13 3e fc 47 61 3e a8 2d 8e bc 13 3a 61 3c
       0.14375542 0.22000116 -0.017355755 0.013746756
0003b0 64 70 69 3e 94 51 42 be 62 73 2a be 8a c4 90 3d
       0.2279678 -0.18976432 -0.16645578 0.07068737
0003c0 7c ef 5e 3d 9c ab 75 bd 95 5a 93 be d0 a0 e5 bd
       0.05442761 -0.059978113 -0.28780046 -0.11212313
0003d0 3e 19 8a be 2c 86 ed bd 9a f7 c8 bd d6 62 78 3e
       -0.26972383 -0.11597857 -0.09812851 0.24256453
0003e0 c7 9a 99 bd fd d8 a3 3d 23 60 4d be 64 4d 4c 3e
       -0.075002246 0.080003716 -0.20056204 0.19951397
0003f0 66 81 bf 3d 4e 0b 56 3d 95 d4 92 3c aa d6 58 3e
       0.09350853 0.052256875 0.017923633 0.21175638

mlp.mlp.fc2.1.0.bias f4 [64]
000000 58 e1 2b bb c4 54 89 bb 02 82 06 bb ae 5d 81 3b
       -0.0026226845 -0.004191013 -0.0020524268 0.003947935
000010 33 7a 71 3b b0 ac 8f ba 9d 8f 87 3b 4c b6 a6 bb
       0.0036846518 -0.0010961499 0.004136993 -0.0050876494
000020 09 86 bd 3b c0 aa 86 bb 99 de 6d bb 7d be a0 3a
       0.0057838005 -0.0041097105 -0.0036296009 0.0012263801
000030 b2 63 3f bb ec 0a 3f ba e8 9d 65 39 db 68 60 bb
       -0.002920371 -0.0007287699 0.00021897967 -0.0034242186
000040 03 97 67 ba de 8c ca 3b a6 77 bc bb 75 f6 a4 bb
       -0.0008834453 0.0061813435 -0.005751568 -0.005034263
000050 1c fb af bb e5 d1 84 3b 42 ca b5 3b 1c e0 42 3b
       -0.0053705107 0.0040533417 0.0055477927 0.002973563
000060 1b 74 f4 ba 49 00 bd 3b d3 88 6e 3b 52 3d 80 bb
       -0.0018650325 0.0057678563 0.0036397472 -0.00391356
000070 23 96 37 3a 1d a4 8a 3b 26 bd b2 3b 62 2b e1 ba
       0.0007003268 0.0042309896 0.005454677 -0.0017179067
000080 75 93 f1 3a bf a6 9a 3b 00 ea 32 ba b7 e0 0c ba
       0.0018430786 0.0047195847 -0.000682503 -0.00053740613
000090 3b 83 92 bb 7c b0 52 bb 8c 2e a1 bb cf e2 d1 3b
       -0.0044712103 -0.003214865 -0.004918879 0.0064052115
0000a0 59 c1 c3 3b 12 f9 ca 3b 68 5c 3f bb 9d 5b 0d 39
       0.0059739766 0.0061942423 -0.0029199366 0.00013480936
0000b0 43 8c be 39 2c 5d 38 bb 7a b9 60 bb ea 7a 58 3b
       0.00036344127 -0.0028131707 -0.003429024 0.0033032247
0000c0 e5 3f 9e bb 25 e7 8d ba 25 ae 30 3a d7 d2 c2 bb
       -0.004829394 -0.0010826333 0.0006739817 -0.005945544
0000d0 d4 79 69 3b 0d 84 ad bb 78 64 a1 bb 6b f7 ab bb
       0.0035625594 -0.0052952827 -0.004925307 -0.0052480004
0000e0 86 73 2e 3b 21 79 72 3b 04 9e 23 bb 65 27 a5 3b
       0.002661915 0.0036998468 -0.002496601 0.0050400966
0000f0 8c 3a c7 39 2d 56 27 3b bc 5e 96 39 32 a2 78 ba
       0.0003799986 0.0025533543 0.00028680812 -0.0009484618

mlp.mlp.fc2.1.2.weight f4 [64]
000000 0e 66 80 3f f1 2a 80 3f ea 05 80 3f 11 92 80 3f
       1.0031145 1.0013105 1.0001805 1.0044576
000010 0f f8 7f 3f 57 58 80 3f 7c 4f 80 3f 6a 01 80 3f
       0.9998788 1.0026959 1.0024257 1.0000432
000020 94 e2 7f 3f 6e 0a 80 3f e7 2c 80 3f 29 02 80 3f
       0.99955106 1.0003183 1.0013703 1.0000659
000030 cb 40 80 3f 9e c1 7f 3f d3 4a 80 3f 5e 5b 80 3f
       1.0019773 0.9990481 1.0022835 1.0027883
000040 9e 65 80 3f a9 84 80 3f 3e 09 80 3f 85 1a 80 3f
       1.0031011 1.0040485 1.000282 1.0008093
000050 20 20 80 3f 7d 31 80 3f a9 6e 80 3f a8 cd 7f 3f
       1.0009804 1.0015103 1.0033771 0.9992318
000060 e0 01 80 3f f2 4b 80 3f 2a 27 80 3f 1b 16 80 3f
       1.0000572 1.0023177 1.0011952 1.0006746
000070 1a de 7f 3f bc 22 80 3f f2 82 80 3f db 0c 80 3f
       0.99948275 1.00106 1.0039961 1.0003923
000080 14 10 80 3f f1 2a 80 3f c2 0c 80 3f f0 9c 80 3f
       1.0004907 1.0013105 1.0003893 1.0047894
000090 96 17 80 3f b5 4d 80 3f f0 23 80 3f 24 0a 80 3f
       1.0007198 1.0023714 1.0010967 1.0003095
0000a0 ab 27 80 3f fe 23 80 3f 0b 40 80 3f ac e6 7f 3f
       1.0012106 1.0010984 1.0019544 0.9996135
0000b0 83 2a 80 3f 32 d3 7f 3f a9 fb 7f 3f 7c 3c 80 3f
       1.0012974 0.99931633 0.9999338 1.0018458
0000c0 2c 28 80 3f b7 0c 80 3f 51 ea 7f 3f 6b 20 80 3f
       1.001226 1.000388 0.99966913 1.0009893
0000d0 83 3d 80 3f 07 36 80 3f b8 5f 80 3f ce 9d 80 3f
       1.0018772 1.0016488 1.0029211 1.0048158
0000e0 0c 19 80 3f b6 00 80 3f 46 32 80 3f 89 26 80 3f
       1.0007644 1.0000217 1.0015342 1.001176
0000f0 b6 10 80 3f 88 06 80 3f 04 29 80 3f f1 1a 80 3f
       1.00051 1.0001993 1.0012517 1.0008222
